save/baseline_disc_1/model_baseline_disc_1.pt (torch, 27063 bytes, 8 tensors)

enc_layer_1.0.weight f4 [16, 3, 5, 5]
0	0x3cfa2b78	0.030538306
1	0xbdbd4b81	-0.09242917
2	0xbde1d339	-0.11026616
3	0x3c2ab886	0.01041997
4	0xbd48988b	-0.0489736
5	0xbd665d5e	-0.056241386
6	0xbdb89d13	-0.090143345
7	0xbe311727	-0.17293988
8	0x3ca7844b	0.020448824
9	0xbc28463a	-0.01027065
10	0xbe0cabfc	-0.13737482
11	0xbd190119	-0.037354562
12	0xbe01f939	-0.12692727
13	0x3c5d5de4	0.013511155
14	0xbe03c2b7	-0.12867247
15	0xbc14c254	-0.009079535
16	0xbdae4a62	-0.08510281
17	0x3da11823	0.07865932
18	0xbdfcc8ab	-0.12342962
19	0xbd107090	-0.035263598
20	0xbcf55870	-0.029949397
21	0xbb8d4734	-0.0043114666
22	0x3c866784	0.016406782
23	0xbd9ce317	-0.076605015
24	0x3d51facc	0.05126457
25	0xbd15a70a	-0.036536254
26	0xbe6624cf	-0.22474979
27	0xbe1097fe	-0.1412048
28	0xbe06cf39	-0.13164987
29	0xbe54db79	-0.20786847
30	0x3dbc4f62	0.091948286
31	0x3dcecf0d	0.100980856
32	0xbc7111d3	-0.014713722
33	0xbc0d5308	-0.008625753
34	0x3dd1ad50	0.10238135
35	0xbc49ef5f	-0.012325137
36	0xbd3c7fa4	-0.046020165
37	0x3d944c44	0.07241109
38	0xbd38ecdd	-0.045147765
39	0x3da821de	0.08209585
40	0xbd8ee5f0	-0.06977451
41	0xbe28cf34	-0.16485292
42	0xbe2f10f9	-0.17096318
43	0xbe620e3d	-0.22075744
44	0xbdff53ce	-0.12467156
45	0xbe1f59de	-0.15561625
46	0xbdb162c0	-0.08661413
47	0xbe46a34c	-0.1939823
48	0xbde3e121	-0.11126924
49	0xbda01625	-0.07816724
50	0x3e8d7f66	0.2763626
51	0x3e37050f	0.17873023
52	0x3ddd572d	0.10807643
53	0x3d417767	0.04723301
54	0x3df45629	0.11930496
55	0x3e9aac70	0.30209684
56	0x3e801b3f	0.25020787
57	0x3e043c18	0.12913549
58	0x3e4234f8	0.18965518
59	0x3e7ecabe	0.24882028
60	0x3e728a38	0.23685539
61	0x3e577a0e	0.21042654
62	0x3e177538	0.14790809
63	0x3da2db89	0.07952029
64	0x3e068142	0.13135245
65	0x3d5f8dba	0.05457852
66	0x3e0443ee	0.12916538
67	0x3e4bf388	0.19917119
68	0xbc0d1886	-0.008611804
69	0x3c2fd30e	0.010731472
70	0x3d432502	0.047642715
71	0x3e0b98b0	0.13632464
72	0x3def5bc2	0.11687423
73	0x3e1d0780	0.15334892
74	0x3dc712f0	0.09720409
75	0x3d50c952	0.050973244
76	0xbd663424	-0.05620207
77	0xbda94f1a	-0.082670406
78	0xbdbeb4d6	-0.093118355
79	0xbdeebd53	-0.116572045
80	0x3d8a3e21	0.067501314
81	0x3ca32ae8	0.01991792
82	0x3cf502c6	0.029908549
83	0xbd8517ca	-0.06498678
84	0x3dd4a547	0.10383087
85	0x3d3cdaef	0.04610723
86	0x3e08ce31	0.13359906
87	0x3de33d3e	0.110956654
88	0xbd205d31	-0.039151374
89	0xbcc3dec7	-0.02390994
90	0xbcd329ff	-0.025776861
91	0xbd83ef89	-0.06442172
92	0xbc0f4cdb	-0.008746351
93	0xbcbb1c10	-0.02284053
94	0xbd9fff6c	-0.0781239
95	0x3db60ed5	0.08889548
96	0x3e1d6598	0.15370786
97	0x3d9b2606	0.07575612
98	0xbc1266c5	-0.008935635
99	0xbcfa0744	-0.030521043
100	0xbd3fcde7	-0.046827223
101	0x3bd99566	0.006640124
102	0x3d895cbb	0.0670714
103	0xbd2c2b09	-0.04203323
104	0x3c8c73a8	0.017144993
105	0x3d8eb2d4	0.069677025
106	0x3df92dc7	0.121669345
107	0x3d687189	0.0567489
108	0x3e377a43	0.17917733
109	0x3e1b34e2	0.15156892
110	0x3e4eae45	0.20183666
111	0x3e442b3e	0.1915712
112	0x3e571c25	0.2100683
113	0x3e3340b4	0.17505151
114	0x3e3062f7	0.17225252
115	0xbda29b0c	-0.07939729
116	0xbdb7bf12	-0.08971991
117	0x3d9f235a	0.07770415
118	0x3d95dfb8	0.073180616
119	0xbdcb3e71	-0.09924019
120	0x3c55337c	0.013012763
121	0xbd38288c	-0.044960544
122	0x3d633d38	0.055478305
123	0x3dd18632	0.10230674
124	0x3d4689b2	0.04847116
125	0x3de0e3cf	0.10980951
126	0xbd19c22b	-0.03753869
127	0xbcdacba8	-0.026708439
128	0x3cf2511e	0.029579695
129	0xbd30fdc8	-0.043210775
130	0x3e32d6a8	0.17464697
131	0x3d94976c	0.07255444
132	0x3e21ab06	0.15787897
133	0x3e023754	0.12716419
134	0x3e061bf6	0.13096604
135	0x3c89e586	0.016833078
136	0xbd90e791	-0.07075418
137	0xbd9161c7	-0.07098728
138	0xbdde9ade	-0.10869382
139	0xbd5ecf77	-0.054397073
140	0xbe0d4192	-0.13794544
141	0xbc227d74	-0.009917606
142	0xbd8a9cd0	-0.06768191
143	0x3ccb0367	0.024781896
144	0x3d37321f	0.044725534
145	0x3d96d2ce	0.073644266
146	0x3d003527	0.03130069
147	0x3de60d06	0.11232953
148	0x3dc99c8a	0.098443106
149	0x3d0e1287	0.034685638
150	0x3dece6d0	0.115674615
151	0xbcd76468	-0.026292995
152	0x3c67cff6	0.014148703
153	0x3d0abdb4	0.03387232
154	0x3dc72650	0.097241044
155	0xbde28fd4	-0.11062589
156	0x3d842538	0.064524114
157	0x3c85c90b	0.016331216
158	0xbd844c82	-0.06459905
159	0xbe103a11	-0.1408465
160	0x3d08687c	0.03330277
161	0x3c6f9739	0.014623457
162	0xbd69eff0	-0.057113588
163	0xbcf88e9d	-0.03034144
164	0x3d65ae89	0.056074653
165	0x3b13770b	0.0022501375
166	0x3d971c24	0.07378414
167	0x3dd34a27	0.10316878
168	0xbd346f06	-0.044051193
169	0x3de59e28	0.112118065
170	0xbdabaf78	-0.083830774
171	0x3c94f91a	0.018185187
172	0x3dd83516	0.10557
173	0x3db35f02	0.08758356
174	0x3d6adbb6	0.05733844
175	0xbd573bc0	-0.052547216
176	0x3e01fc87	0.12693988
177	0x3d76501b	0.06013499
178	0x3dfd3f11	0.123655446
179	0x3e22e831	0.15908886
180	0xbc8a1b44	-0.016858704
181	0x3dc52a83	0.09627249
182	0x3e511ccb	0.2042114
183	0x3db34326	0.08753042
184	0x3d82ce8e	0.063870534
185	0x3e35f435	0.17768939
186	0x3e57d33a	0.2107667
187	0x3e5ac57d	0.21364398
188	0x3e128302	0.14307788
189	0x3e86fccf	0.26364753
190	0xbe075f10	-0.13219857
191	0xbe2a27aa	-0.16616693
192	0xbba21f2f	-0.004947565
193	0xbbfe4183	-0.0077592744
194	0xbe1238bd	-0.14279456
195	0xbde9cd9f	-0.11416172
196	0x3dad4cb5	0.08461896
197	0xbdaca8e8	-0.08430654
198	0xbd96396e	-0.073351726
199	0xbd58b05f	-0.052902576
200	0xbbe5212f	-0.006992481
201	0x3e2200c7	0.15820609
202	0x3d0f5637	0.03499433
203	0xbc4f3f77	-0.012649409
204	0x3cfc9e0a	0.030837078
205	0x3e055878	0.1302203
206	0x3e377b44	0.17918116
207	0x3e43440d	0.19068928
208	0x3e34f04d	0.17669792
209	0x3d22f9f3	0.03978915
210	0x3d4f2137	0.050568786
211	0x3d8908d5	0.06691138
212	0x3dc68279	0.096928544
213	0xbd242061	-0.04006994
214	0x3c561065	0.013065432
215	0xbcd7dfd9	-0.026351856
216	0x3c55cc9c	0.013049271
217	0xbdd86fe6	-0.10568218
218	0xbe0483bc	-0.12940878
219	0xbd118175	-0.03552385
220	0x3d125f36	0.03573533
221	0xbda8f2fd	-0.08249471
222	0x3d8de7ac	0.069289535
223	0xbbb0cdf9	-0.0053956476
224	0x3df76483	0.12079718
225	0x3dee5bd4	0.116386086
226	0x3e38de82	0.1805363
227	0x3e3775b9	0.17916001
228	0x3e5db335	0.21650393
229	0x3e542c5d	0.20720048
230	0x3da0d370	0.078528285
231	0x3c1eabd9	0.009684526
232	0x3debd069	0.115143605
233	0x37b9b0b6	2.2136006e-05
234	0x3e4a647c	0.19764894
235	0xbcc2fb82	-0.023801569
236	0x3d88eabd	0.06685398
237	0x3e25b1cf	0.1618111
238	0x3e0e5f7e	0.13903615
239	0x3d6b8711	0.057501856
240	0xbdd225a0	-0.10261083
241	0xbda973b2	-0.0827402
242	0xbd260a98	-0.040537447
243	0xbaa98141	-0.0012932197
244	0x3e0994fd	0.13435741
245	0xbdceb08f	-0.1009227
246	0x3a1f4a59	0.00060764473
247	0x3db40592	0.08790125
248	0xbdcc06a0	-0.09962201
249	0x3d9c0116	0.076173946
250	0x3e0e648e	0.13905546
251	0x3e3597b6	0.17733654
252	0x3e02d52d	0.12776633
253	0x3be29e6a	0.006915857
254	0x3d77d2d3	0.060503792
255	0xbdd7dea1	-0.1054051

enc_layer_1.0.bias f4 [16]
0	0x3dfd56c5	0.123700656
1	0xbd4bf277	-0.04979178
2	0xbd62925b	-0.055315357
3	0x3dad9e7c	0.08477494
4	0x3c74def3	0.014945733
5	0xbec57a7a	-0.38570005
6	0xbceadf60	-0.028670967
7	0xbdf8ff30	-0.12158048
8	0x3d73f662	0.05956114
9	0xbf05e57b	-0.52303284
10	0x3ddb66fc	0.10713002
11	0x3b020c0d	0.0019843609
12	0x3e1794d0	0.14802861
13	0x3e37d7eb	0.1795346
14	0x3e1ea77b	0.15493576
15	0x3e8912f5	0.26772276

enc_layer_2_def.0.weight f4 [12, 16, 3, 3]
0	0x3d75533e	0.05989384
1	0xbdc516b4	-0.09623471
2	0xbda3c5ea	-0.079967335
3	0x3d428aa9	0.047495518
4	0xbd1cc28f	-0.038271483
5	0xbd0355eb	-0.03206436
6	0xbe00ff51	-0.12597395
7	0xbd9636ae	-0.07334648
8	0x3cf8e04a	0.030380387
9	0xbd34d696	-0.044149958
10	0xbc9a3b7c	-0.018827192
11	0xbce6e922	-0.028187338
12	0x3c099f7b	0.0083998395
13	0x3d1aa725	0.037757058
14	0xbcee3c2f	-0.029081432
15	0x3dd66c68	0.104698956
16	0x3c022683	0.007943752
17	0x3d0a0b28	0.033702046
18	0x3db687c3	0.08912613
19	0xbd2749bf	-0.040841814
20	0x3d163ded	0.03668015
21	0x3d0931ea	0.033494867
22	0x3d98d231	0.07461966
23	0x3d4c6c4e	0.049907975
24	0xbce4af51	-0.027915629
25	0xbd18fb16	-0.03734883
26	0xbd419b95	-0.047267515
27	0x3dbcad82	0.092127815
28	0x3e695549	0.2278644
29	0x3e6aacb0	0.22917438
30	0x3dae03b1	0.08496798
31	0x3d4f0a49	0.050546918
32	0x3de4b09c	0.11166498
33	0x3daf491e	0.08558868
34	0xbbf430fc	-0.0074521285
35	0xbca339c3	-0.019925004
36	0xbd04fe3f	-0.03246903
37	0xbe217548	-0.15767395
38	0xbe1aee03	-0.15129857
39	0x3c9d5f33	0.019210434
40	0x3dac72bc	0.08420321
41	0x3d888dd5	0.06667677
42	0x3c8bcfd8	0.017066881
43	0xba8cf900	-0.001075536
44	0x3d46c9ca	0.048532285
45	0xbd87a3c3	-0.06623032
46	0xbcd2793a	-0.025692571
47	0xbc2758a3	-0.010214004
48	0xbdc5827c	-0.096440285
49	0xbd163b54	-0.036677673
50	0xbe16817d	-0.14697833
51	0xbe103677	-0.14083277
52	0x3d585e02	0.052824028
53	0x3c9a54bc	0.018839233
54	0x3cf55635	0.029948333
55	0x3d2c43b9	0.042056773
56	0xbde2bfe4	-0.110717565
57	0xbc49fcb3	-0.012328315
58	0x3c0574ef	0.008145555
59	0x3b9d3d0d	0.0047985376
60	0x3d88cb65	0.066794194
61	0xbcdf5961	-0.027264299
62	0x3c681929	0.014166155
63	0x3bd996b4	0.0066402797
64	0x3cd8d6f7	0.02646969
65	0x3e0ecf16	0.13946185
66	0x3e07ad12	0.13249615
67	0x3d92e3da	0.071723655
68	0x3dec977c	0.11552331
69	0xbd242446	-0.040073656
70	0x3d872a3f	0.06599855
71	0x3dcee036	0.101013586
72	0x3bcf425f	0.0063250507
73	0xbd994c9d	-0.07485316
74	0x3d1080f5	0.035279233
75	0x3ce962d1	0.028489502
76	0xbdbc3101	-0.09189034
77	0xbd1c7b6e	-0.03820365
78	0x3d887927	0.06663733
79	0xbd684491	-0.056706015
80	0xbc94deff	-0.01817274
81	0x3df8554d	0.12125645
82	0x3de790a0	0.11306882
83	0x3e3607b7	0.1777638
84	0x3e60938d	0.21931286
85	0x3e839076	0.25696152
86	0x3e823c31	0.25436547
87	0x3e5812aa	0.2110087
88	0x3e8345bc	0.2563914
89	0x3e979f37	0.2961366
90	0x3de77936	0.11302416
91	0x3dd0f5d6	0.102031395
92	0x3e0584b2	0.130389
93	0xbaecfed2	-0.0018081313
94	0x3df5157b	0.11966988
95	0x3e165805	0.14682014
96	0x3cac4e84	0.021033533
97	0x3dd6aecc	0.104825586
98	0x3d808bc7	0.062766604
99	0xbd131d49	-0.0359166
100	0xbd70d42e	-0.0587961
101	0x3a4e8917	0.00078787043
102	0x3ccaeb7e	0.024770495
103	0xbc42405f	-0.011856168
104	0x3d397214	0.04527481
105	0xbbd4f93c	-0.0064994376
106	0x3b472e5c	0.0030392623
107	0x3da27e0d	0.079341985
108	0xbb0546ec	-0.0020336462
109	0xbc7b63f7	-0.015343658
110	0xbdf09133	-0.117464446
111	0x3d46c6c3	0.048529398
112	0x3c641d93	0.013923067
113	0x3d0e3fd6	0.034728847
114	0x3d220ca4	0.039562836
115	0xbce934c1	-0.028467538
116	0x3d921516	0.07132928
117	0x3e71e738	0.23623359
118	0x3e87f193	0.26551494
119	0x3e73b416	0.23799166
120	0xbd71c2cb	-0.05902366
121	0x3d03a983	0.03214408
122	0x3d10c7bf	0.035346743
123	0xbcfe7122	-0.031059805
124	0xbc2ccb27	-0.010546482
125	0xbc7e70d9	-0.015529835
126	0x3dbc395a	0.091906264
127	0x3de03357	0.10947292
128	0xbd47d3b9	-0.0487859
129	0xbd45d235	-0.048296172
130	0xbd8c6c7e	-0.06856631
131	0xbd30f263	-0.043199908
132	0xbb8beaee	-0.004269949
133	0xbd468897	-0.048470106
134	0xbe0ba0b6	-0.13635525
135	0xbd387d8d	-0.04504161
136	0xbd5bf938	-0.05370447
137	0xbe43a622	-0.19106343
138	0xbce9ade9	-0.02852531
139	0xbc6e90d5	-0.014560898
140	0x3d59e185	0.053193588
141	0xbcf373dc	-0.029718332
142	0xbc28c8f7	-0.01030182
143	0xbccbe87c	-0.02489113
144	0x3e236e93	0.1596015
145	0x3dc11c9c	0.09429285
146	0x3d07e55d	0.033177722
147	0x3d3e19f5	0.046411473
148	0x3c833de4	0.016020723
149	0xbcb3d933	-0.021954155
150	0xbdb75173	-0.08951082
151	0x3d050177	0.0324721
152	0xbda7712e	-0.08175884
153	0xbda31b5e	-0.07964204
154	0x3d837b51	0.06420005
155	0x3bb777b0	0.0055989847
156	0x3cd70f5c	0.026252441
157	0xbdbbaa58	-0.0916335
158	0xbc9fa450	-0.01948753
159	0x3d10321c	0.035204038
160	0xbc96619c	-0.01835709
161	0x3db3ec9f	0.08785366
162	0x3cc6adfd	0.024252886
163	0x3c42ce48	0.011890002
164	0x3e06890c	0.13138217
165	0x3d0ef8db	0.034905296
166	0x3bb31ce9	0.005466093
167	0xbd92acf0	-0.071618915
168	0xbdd9b983	-0.10631087
169	0x3da66f20	0.08126664
170	0x3dc35bd4	0.09538999
171	0xbd2508b8	-0.040291518
172	0xbd128d49	-0.03577927
173	0xbdb43efd	-0.088010766
174	0xbdef4686	-0.11683373
175	0x3b03931d	0.00200767
176	0x3da122b2	0.07867946
177	0xbd7b0a82	-0.061289318
178	0x3d138b19	0.036021326
179	0x3c763971	0.015028344
180	0x3d94f002	0.0727234
181	0xbc544d4c	-0.012957882
182	0xbd4261dd	-0.04745661
183	0xbd81f87b	-0.06346222
184	0x3bb4250e	0.0054975813
185	0xbe1efce0	-0.15526152
186	0x3ce08333	0.02740631
187	0xbd36da98	-0.04464206
188	0x3cd6e7e2	0.026233617
189	0x3d3aa9b8	0.045572013
190	0x3d4e2d27	0.05033603
191	0x3e23759e	0.15962836
192	0x3d6062f1	0.054781858
193	0x3dc90e5f	0.09817194
194	0x3e60c8a1	0.21951534
195	0x3e15f1d2	0.14643028
196	0x3dbbe3e7	0.09174328
197	0x3dfe104d	0.12405453
198	0xbdc5c270	-0.09656227
199	0xbd59ec97	-0.053204145
200	0xbd5037e5	-0.050834555
201	0x3cbfba38	0.023404226
202	0x3d301e60	0.042997718
203	0x3b939e66	0.0045049665
204	0x3c55c41a	0.013047243
205	0x3d4ac483	0.049503814
206	0x3d37ae90	0.04484421
207	0xbeaa1146	-0.33216304
208	0xbea705e8	-0.32621694
209	0xbe2371a2	-0.15961316
210	0x3ca35114	0.019936122
211	0x3c3fd16f	0.011707648
212	0x3db0d215	0.0863382
213	0x3d61f10d	0.055161525
214	0x3d717481	0.058948997
215	0x3df853bb	0.12125345
216	0xbdd4475c	-0.10365173
217	0x3c90fa94	0.01769761
218	0xbd3f0a06	-0.04664042
219	0xbdd45120	-0.10367036
220	0xbdf50518	-0.11963862
221	0xbd116e03	-0.035505306
222	0xbb91e416	-0.004452239
223	0xbc9348f1	-0.017979117
224	0x3dca9179	0.09891028
225	0xbd1ea0c5	-0.03872754
226	0xbe4bfc7f	-0.19920538
227	0xbe39b463	-0.18135218
228	0xbbeef6be	-0.0072925976
229	0xbdc35d29	-0.09539253
230	0x3d4d90d2	0.05018694
231	0x3c844326	0.0161453
232	0x3d215d8d	0.039395858
233	0x3dab4ba8	0.0836404
234	0xbe4cc2ec	-0.19996232
235	0xbe5d6033	-0.21618728
236	0xbd7cacce	-0.061688237
237	0xbd05c18a	-0.032655276
238	0xbdfa0b8f	-0.12209236
239	0x3d31bf21	0.043395165
240	0xbd647820	-0.055778623
241	0x3d6fbd50	0.05853015
242	0x3d4d4fc1	0.050124887
243	0x3da040f2	0.07824887
244	0x3b9631bb	0.004583565
245	0x3d3510ca	0.044205464
246	0xbb93db38	-0.004512217
247	0x3d3cc089	0.046082053
248	0xbda1e2e2	-0.079046026
249	0xbd8beda0	-0.06832433
250	0x3a92662c	0.0011169366
251	0x3b9fccb8	0.0048766993
252	0x3c2dd8be	0.010610757
253	0x3da7288f	0.08162033
254	0x3a7310c1	0.0009272211
255	0x3d13bca1	0.036068562

enc_layer_2_def.0.bias f4 [12]
0	0x3d94ee48	0.07272011
1	0xbd5f6eec	-0.054549143
2	0xbe3fbf01	-0.18725206
3	0x3bbf23df	0.0058331336
4	0xbe1c67c9	-0.15273966
5	0xbd9dc6fc	-0.07703969
6	0xbe763728	-0.24044478
7	0x3d1b0325	0.037844796
8	0x3e121fe7	0.14269982
9	0xbd91cdf7	-0.07119363
10	0x3e6313ea	0.22175565
11	0xbc4b9fc2	-0.012428226

dec_layer_2.0.weight f4 [12, 8, 5, 5]
0	0x3d06d249	0.032915387
1	0xbc5aaa9c	-0.0133463405
2	0x3b9b4e32	0.004739546
3	0xbcb2c9d0	-0.021824747
4	0x3cf19fa0	0.02949506
5	0xbdf5329a	-0.11972542
6	0x3aa8f420	0.0012890138
7	0x3cce80e9	0.025207954
8	0x3d168350	0.036746323
9	0xbdd660d5	-0.10467688
10	0x3cca1f28	0.02467306
11	0x3d91698f	0.07100212
12	0x3ca183f4	0.01971624
13	0x3d13c9a6	0.03608098
14	0xbc83aa1c	-0.016072325
15	0xbe41fb61	-0.1894355
16	0x3da6f396	0.08151929
17	0xbdb2dac2	-0.08733131
18	0x3d84d96b	0.06486782
19	0xbdd4f597	-0.10398405
20	0x3da8ebce	0.08248101
21	0x3d113797	0.035453405
22	0x3dfae196	0.12250058
23	0xbdafc471	-0.0858239
24	0x3d35d51f	0.0443927
25	0x3d4adad3	0.049525093
26	0x3d522e6d	0.051313806
27	0xbc8aa647	-0.01692499
28	0x3cb691bf	0.022286294
29	0xb98e4b98	-0.00027140672
30	0xbbcf40f8	-0.0063248836
31	0xbafe5eb5	-0.0019406887
32	0xbdc9dce1	-0.098565824
33	0xbcf4735b	-0.029840162
34	0xbdec9f00	-0.11553764
35	0xbc8c7d15	-0.017149488
36	0xbc899ecf	-0.016799359
37	0x3c9a1f53	0.018813765
38	0xbdca4218	-0.09875888
39	0xbc9f9705	-0.019481191
40	0x3d326499	0.04355297
41	0xbcac78a7	-0.021053625
42	0xbd9b6745	-0.075880565
43	0xbdd5e12f	-0.10443341
44	0x3cec5b22	0.02885205
45	0xbd909a4a	-0.07060678
46	0xbbab507e	-0.0052281013
47	0xbd383e7a	-0.044981457
48	0xbe1ae891	-0.1512778
49	0xbd87a01a	-0.06622334
50	0x3cca6b66	0.024709415
51	0x3c8a5a36	0.016888719
52	0xbd52742d	-0.051380325
53	0xbd2c1958	-0.042016357
54	0x3a754094	0.0009355631
55	0x3d06cea9	0.03291193
56	0xbd958d8e	-0.0730239
57	0xbd2360bf	-0.039887186
58	0xbd4f9842	-0.050682314
59	0xbad4025f	-0.0016175023
60	0x3d740d1e	0.059582822
61	0x3d3b121f	0.04567158
62	0x3c497f6a	0.012298444
63	0xbd8342e6	-0.06409244
64	0x3c223a30	0.009901568
65	0xbca96e24	-0.020682402
66	0x3d335d86	0.043790363
67	0x3b142034	0.0022602202
68	0x3da3e74a	0.08003099
69	0xbd15704d	-0.03648405
70	0x3d0a6d09	0.03379539
71	0x3d8ad422	0.067787424
72	0xbd0f35b7	-0.034963336
73	0x3d7a56d6	0.06111797
74	0x3d2c6b3c	0.042094454
75	0xba6c179c	-0.00090062036
76	0xbd878a6e	-0.066182
77	0x3d003b40	0.031306505
78	0xbcaca8e4	-0.021076627
79	0x3cf0ae73	0.029380059
80	0xbd8094a0	-0.06278348
81	0xbc247161	-0.010036797
82	0x3d10945c	0.035297737
83	0x3c65a5aa	0.014016548
84	0xbcecce9a	-0.028907109
85	0x3d4d232c	0.05008237
86	0x3c554f9c	0.013019469
87	0x3d8c1ef6	0.06841843
88	0x3d52d609	0.05147365
89	0x3d1a938d	0.03773837
90	0x3dae77f7	0.08518975
91	0xbd6abb7a	-0.057307698
92	0x3d503dfc	0.050840363
93	0x3bcaf12e	0.0061933016
94	0x3db3ce38	0.087795675
95	0x3cefa267	0.029252244
96	0xbe152313	-0.14564161
97	0xbcb4c513	-0.022066629
98	0xbc91ac9b	-0.0177825
99	0xbb0ff159	-0.0021963923
100	0xbc664edd	-0.014056888
101	0xbcf2d508	-0.029642597
102	0xbc069f72	-0.008216726
103	0xbd2931f5	-0.04130741
104	0xbc0f58bb	-0.008749182
105	0xbd5fbe2e	-0.05462473
106	0xbd69f73c	-0.057120547
107	0x3d18b598	0.037282556
108	0xbdca7535	-0.09885637
109	0xbd38b736	-0.0450966
110	0xbd1e13a3	-0.038592946
111	0xbdd03dd0	-0.1016804
112	0x3d694ca1	0.056957845
113	0xbd2a3d94	-0.04156263
114	0x3d427cbc	0.047482237
115	0xbc6f101f	-0.014591246
116	0x3dd8b8cc	0.10582122
117	0x3e1591a0	0.14606333
118	0x3dea2cad	0.114343025
119	0x3d01429b	0.03155766
120	0xbce53de0	-0.027983606
121	0x3c808089	0.01568629
122	0x3c06725a	0.0082059745
123	0x3d72e368	0.059298903
124	0xbdd39825	-0.10331754
125	0x3cf49aa1	0.029858889
126	0x3bb380a2	0.0054779807
127	0xbdb092dc	-0.08621761
128	0xbdb3026e	-0.08740698
129	0xbc898958	-0.016789123
130	0x3cfbf783	0.030757671
131	0x3cd6b697	0.026210112
132	0x3d30a2b1	0.043123905
133	0x3cfc4538	0.030794725
134	0x3ca24864	0.01980991
135	0xbc6a1184	-0.014286403
136	0x3d86d9fb	0.06584545
137	0xbcd8d77a	-0.026469935
138	0xbcc8caf4	-0.024510838
139	0x3be911e8	0.0071127303
140	0x3d4247b3	0.04743166
141	0x3d244dd9	0.040113304
142	0x3b02c6dc	0.0019954955
143	0x3b076694	0.0020660507
144	0x3d0a405f	0.033752795
145	0x3c92eec7	0.017936124
146	0xbcae74cc	-0.021295927
147	0xbd4c6b49	-0.049907003
148	0xbcb8ecf6	-0.02257393
149	0xbdb85d93	-0.09002223
150	0xbc22f8c0	-0.009947002
151	0x3c0dc4be	0.008652864
152	0xbd484947	-0.048898008
153	0xbdf21ed6	-0.11822288
154	0xbd608445	-0.054813642
155	0x3d25214c	0.040314957
156	0x3db72d40	0.08944178
157	0xbd4ec04c	-0.050476357
158	0xbdd8f5ba	-0.105937436
159	0xbd9efb8d	-0.07762823
160	0x3d0d384a	0.03447751
161	0x3de0236a	0.10944255
162	0xbd81dbca	-0.063407496
163	0xbd17aa79	-0.03702781
164	0xbd49d148	-0.04927185
165	0xbd753d0a	-0.059872665
166	0xbe9b7577	-0.30363056
167	0xba1bf1fa	-0.0005948838
168	0xbec8a93a	-0.3919161
169	0x3c83d285	0.016091594
170	0x3d811f22	0.06304766
171	0xbe5a9773	-0.21346836
172	0xbbb2a656	-0.0054519577
173	0xbe29a6e7	-0.16567574
174	0x3d51eed3	0.05125315
175	0x3d0dea64	0.03464736
176	0xbce48e34	-0.027899839
177	0xbbf6af78	-0.0075282417
178	0x3c914607	0.017733587
179	0xbd88fe97	-0.06689184
180	0x3ca14320	0.019685328
181	0x3d6b5d7a	0.057462193
182	0x3d8b55f3	0.06803503
183	0xbd1a0b1f	-0.037608262
184	0xbcf7e969	-0.030262666
185	0x3c486743	0.012231651
186	0xbd7996c3	-0.060934793
187	0x3c16ce1b	0.009204413
188	0x3bdefa26	0.0068047224
189	0xbd63b08d	-0.055588294
190	0x3d8c229a	0.06842537
191	0xbbe1d9e8	-0.0068924315
192	0x3dfd102c	0.123566
193	0x3da8906d	0.08230672
194	0x3d9875e9	0.074443646
195	0xbc059ee0	-0.0081555545
196	0x3dcf9e04	0.10137561
197	0x3d91e58e	0.07123862
198	0x3dcca8dc	0.09993145
199	0x3d9f12ce	0.077672586
200	0xbc583df6	-0.013198366
201	0xbdc90319	-0.09815044
202	0x3bfae98d	0.007657236
203	0xbc68c303	-0.014206651
204	0x3ceb3e7f	0.028716324
205	0xbdaeab49	-0.08528764
206	0xbe249cbd	-0.16075416
207	0xbe20d1ab	-0.15704982
208	0xbac320eb	-0.001488713
209	0xbcad1401	-0.021127703
210	0x3d0fd405	0.035114307
211	0xbded951e	-0.116007075
212	0xbc17dd34	-0.0092690475
213	0xbde51dc3	-0.11187317
214	0x3cb604a9	0.022219019
215	0xbc91bfef	-0.017791716
216	0xbd900c6e	-0.07033621
217	0xbde570db	-0.11203166
218	0x3b7eda29	0.0038887358
219	0x3b90162b	0.004397174
220	0x3d80eaec	0.06294808
221	0x3c2df7b6	0.010618141
222	0xbdabfd2b	-0.08397897
223	0x3de66949	0.1125055
224	0x3ce43194	0.027855672
225	0x3c560b84	0.013064269
226	0x3ceacf78	0.028663382
227	0x3bb30069	0.0054626954
228	0xbc2eea70	-0.010676011
229	0xbd5f70e5	-0.054551024
230	0xbd5392c5	-0.051653642
231	0xbbf1c327	-0.0073780003
232	0x3c479ad2	0.012182908
233	0xbd617f93	-0.055053305
234	0x3a08b784	0.0005215334
235	0xbdb30b8c	-0.08742437
236	0xbcb31ad3	-0.021863377
237	0xbcef097a	-0.029179323
238	0x3cbca6e9	0.023028808
239	0x3d19cbdf	0.037547942
240	0x3d7e3576	0.062062703
241	0xbd2549eb	-0.040353697
242	0x3d83ff30	0.064451575
243	0x3dad65a5	0.08466653
244	0x3d9065ac	0.07050642
245	0x3d5086f2	0.050909944
246	0x3e0ef1ef	0.13959478
247	0x3df3e91d	0.11909697
248	0x3e091a41	0.13388921
249	0xbd7e8406	-0.062137626
250	0xbd0f8e5d	-0.035047878
251	0x3cba47eb	0.022739371
252	0xbc491cfd	-0.012274978
253	0xbd8942c4	-0.06702188
254	0x3d1ce60e	0.038305335
255	0xbd59bc72	-0.05315823

dec_layer_2.0.bias f4 [8]
0	0xbca3e1fe	-0.020005222
1	0xbddbfdf9	-0.10741801
2	0x3d3eb423	0.04655851
3	0x3e252b9b	0.16129915
4	0xbdf609bd	-0.12013576
5	0x3a166702	0.0005737395
6	0xbd472204	-0.048616424
7	0x3dc73473	0.09726801

dec_layer_3.0.weight f4 [8, 3, 5, 5]
0	0x3e3ea125	0.1861616
1	0x3e5274a2	0.20552304
2	0x3ea6a2da	0.3254612
3	0x3df498ec	0.1194323
4	0x3d0743ff	0.03302383
5	0x3ede4907	0.4341509
6	0x3ef62402	0.48074347
7	0x3f1d982e	0.6156033
8	0x3ecfebbf	0.40609547
9	0x3eb51a10	0.35371447
10	0x3eb5c93d	0.35505095
11	0x3ec8e9cd	0.39240876
12	0x3f1c2d60	0.61006737
13	0x3ec1086e	0.37701744
14	0x3ec54b43	0.38533983
15	0x3e8b111e	0.27161497
16	0x3e9d9d1c	0.30783927
17	0x3eeee75e	0.46660894
18	0x3eb3c4ad	0.3511099
19	0x3e954d62	0.291606
20	0x3d873884	0.066025764
21	0x3e10e8f9	0.14151372
22	0x3e9ca971	0.30598024
23	0x3e2c5beb	0.16831939
24	0x3e2ee795	0.17080529
25	0xbc16d15a	-0.009205187
26	0x3cb2e5af	0.021838037
27	0xbc9559d0	-0.018231302
28	0xbc9a1209	-0.018807428
29	0xbd5b5005	-0.05354311
30	0x3c1e02a1	0.0096441815
31	0x3c6d471a	0.014482284
32	0x3d31ba61	0.043390635
33	0x3c8f2688	0.017474428
34	0x3c444917	0.011980317
35	0x3db19cdf	0.08672499
36	0x3d979c12	0.07402815
37	0x3dc0eaea	0.09419806
38	0x3dcff9b1	0.10155047
39	0x3d8d6b7f	0.06905269
40	0x3dcd9d76	0.10039799
41	0x3ddf5da4	0.109065324
42	0x3dd3d4af	0.103433006
43	0x3e3b6ac8	0.18302453
44	0x3e192783	0.14956479
45	0x3d56a277	0.052401032
46	0x3da01df2	0.078182116
47	0x3d32de97	0.04366931
48	0x3e2a1a85	0.16611679
49	0x3e159e14	0.14611083
50	0xbc8de254	-0.017319836
51	0x3c00b4bc	0.00785559
52	0x3cbd9e6f	0.023146836
53	0x3d573ec9	0.05255011
54	0x3c4a59b1	0.012350486
55	0xbcae11bb	-0.021248689
56	0x3c8f3336	0.017480474
57	0xbc1295a5	-0.008946811
58	0x3d1e01b1	0.03857583
59	0x3c889212	0.016671214
60	0xbcb5f4e7	-0.022211505
61	0x3c27ccf3	0.010241735
62	0xbc3d1a90	-0.0115419775
63	0x39672822	0.00022044827
64	0x3b1618f2	0.0022903052
65	0x3c8cca98	0.017186448
66	0x3d036962	0.032082923
67	0x3c0fb7f4	0.008771885
68	0x3c04b82d	0.008100552
69	0xbc591a0f	-0.013250842
70	0x3c11f9de	0.008909671
71	0x3b56960e	0.0032743248
72	0x3bc7ecd7	0.0061012316
73	0xbc8aef3a	-0.016959775
74	0x3b002cc4	0.0019557932
75	0x3b9c0682	0.004761518
76	0xbd57c50d	-0.052678157
77	0xbdd0f2cf	-0.10202562
78	0xbcd150eb	-0.02555128
79	0x38936907	7.029069e-05
80	0xbe15d1ba	-0.14630786
81	0xbe5c2ef5	-0.21502288
82	0xbe86b8ff	-0.26313016
83	0xbe304074	-0.17212087
84	0xbdf6b136	-0.12045519
85	0xbe254591	-0.16139819
86	0xbe3320a7	-0.17492925
87	0xbeafce28	-0.34336972
88	0xbe2fd356	-0.17170462
89	0xbe45f4da	-0.19331685
90	0xbe1a19b8	-0.15048873
91	0xbdcd15df	-0.10013937
92	0xbe610c40	-0.21977329
93	0xbdeeb8ba	-0.116563275
94	0xbdfd0325	-0.123541154
95	0x3c8edca8	0.017439201
96	0x3c8eb9c9	0.017422574
97	0xbe103c93	-0.14085607
98	0x3b4e743c	0.0031502387
99	0xbc66770d	-0.01406647
100	0x3ef8e33b	0.48610863
101	0x3ecd8569	0.40140846
102	0x3f5ab2b3	0.85428923
103	0x3ec72b09	0.3890002
104	0x3e9f0be1	0.3106375
105	0x3efc89ec	0.49323976
106	0x3f1d3571	0.6140967
107	0x3f6d85ff	0.92782587
108	0x3f170f52	0.5900775
109	0x3ee33278	0.44374442
110	0x3eabaeb7	0.33531734
111	0x3ee0f6e0	0.4393835
112	0x3f407fb6	0.7519487
113	0x3f10dd77	0.5658793
114	0x3eed1ea7	0.46312448
115	0x3dffe791	0.1249534
116	0x3e6c0748	0.23049653
117	0x3e6c07ba	0.23049822
118	0x3eb445c9	0.35209492
119	0x3edf9ed2	0.43675858
120	0x3e069ee9	0.13146557
121	0x3e24c3eb	0.16090362
122	0x3db1d837	0.08683818
123	0x3e8a196b	0.26972517
124	0x3ea7acc0	0.32748985
125	0xbdd96ec1	-0.10616828
126	0xbbacf030	-0.005277656
127	0xbc9febd1	-0.019521626
128	0x3d0a7f76	0.033812962
129	0xbdcb298c	-0.09920034
130	0xbba2278c	-0.004948562
131	0x3d6ce8c9	0.05783919
132	0x3e2ad95a	0.16684476
133	0x3b9afdfa	0.0047299834
134	0xbe009c6d	-0.12559672
135	0x3e5b3203	0.21405797
136	0x3e886b92	0.2664457
137	0x3f0e8551	0.55672175
138	0x3eb9c956	0.3628642
139	0x3ea26d57	0.31724045
140	0x3e448876	0.1919268
141	0x3e535862	0.20639184
142	0x3efac8f7	0.4898145
143	0x3eb0c1f6	0.3452298
144	0x3eadf0ce	0.33972782
145	0x3d8c04bc	0.068368405
146	0x3e041c1a	0.12901345
147	0x3e6af0ac	0.22943372
148	0x3e879361	0.2647963
149	0x3e8bf7c5	0.2733747
150	0xbe0f00d8	-0.13965166
151	0xbe0f17e0	-0.13973951
152	0xbddc6be0	-0.10762763
153	0xbe0255b4	-0.12728006
154	0xbd52b50d	-0.051442195
155	0xbe177609	-0.1479112
156	0xbdfc5d4a	-0.12322481
157	0xbdde360f	-0.108501546
158	0xbe0ef301	-0.13959886
159	0xbddf54df	-0.1090486
160	0xbe2be51f	-0.16786622
161	0xbe1e92ed	-0.15485735
162	0xbe1e2afa	-0.15446082
163	0xbe0c2e8f	-0.13689636
164	0xbe0eccb9	-0.13945283
165	0xbe0f2d75	-0.13982184
166	0xbe252faf	-0.16131471
167	0xbe282e58	-0.16423929
168	0xbe0e1b94	-0.13877708
169	0xbdf77f91	-0.12084878
170	0xbd86c78a	-0.06581028
171	0xbdc40efe	-0.09573172
172	0xbdf394c2	-0.11893608
173	0xbdcbdd36	-0.09954302
174	0xbdab9749	-0.08378465
175	0xbe5fec43	-0.2186747
176	0xbe4ea9ac	-0.20181912
177	0xbe76beee	-0.24096271
178	0xbe1c2e8d	-0.15252133
179	0xbe18a911	-0.14908244
180	0xbda5cf7c	-0.08096215
181	0xbdfaa64b	-0.12238749
182	0xbe51868e	-0.20461485
183	0xbd950a70	-0.072773814
184	0xbd9a00b6	-0.07519667
185	0xbe20d08c	-0.15704554
186	0xbe035626	-0.12825832
187	0xbe2e8d3a	-0.17046061
188	0xbe09c1d1	-0.13452841
189	0xbdf1345c	-0.11777565
190	0xbd80f13a	-0.0629601
191	0xbdeaa29a	-0.11456795
192	0xbe23e8c5	-0.16006763
193	0xbe35d87b	-0.17758362
194	0xbe0f53ad	-0.13996764
195	0xbe108920	-0.14114809
196	0xbe0e0fca	-0.1387321
197	0xbe31cefc	-0.17364115
198	0xbe6242e2	-0.22095826
199	0xbe5d109d	-0.21588369
200	0xbc38d237	-0.011280588
201	0xbb7dfb86	-0.0038754656
202	0x3d8b7d42	0.068110004
203	0x3cae6617	0.021288915
204	0xbc94f0e4	-0.018181272
205	0x3daf6c60	0.08565593
206	0x3d8eabf3	0.069663905
207	0x3e897651	0.2684808
208	0x3e0c5f3a	0.13708201
209	0x3e150ef8	0.14556491
210	0xbdc78a97	-0.09743231
211	0xbdb56c35	-0.088585295
212	0xbda85cd5	-0.08220831
213	0xbd861c15	-0.06548325
214	0xbdcc29d6	-0.09968917
215	0xbd9ab35d	-0.07553742
216	0xbda1e2ed	-0.07904611
217	0xbd4c0f2d	-0.04981916
218	0xbd84a940	-0.064775944
219	0xbd055f0b	-0.032561343
220	0xbd534876	-0.051582776
221	0xbd956798	-0.072951496
222	0xbd371d04	-0.044705406
223	0xbd1793e2	-0.037006266
224	0xbdce057e	-0.10059641
225	0xbd501d7a	-0.05080936
226	0xbb71bb01	-0.0036885145
227	0x3c3b310f	0.011425271
228	0xbd938463	-0.07202985
229	0xbd9acf31	-0.0755905
230	0x3d9536c3	0.072858356
231	0x3dc0462e	0.09388386
232	0x3e531b6f	0.20615934
233	0x3d59a426	0.05313506
234	0x3c18c138	0.009323411
235	0x3e1740d9	0.14770831
236	0x3e286ff7	0.16448961
237	0x3e92fc3e	0.2870807
238	0x3e124e5e	0.14287707
239	0x3df17187	0.11789232
240	0x3e0b62cd	0.13611908
241	0x3e2117ee	0.15731785
242	0x3e625ba2	0.22105268
243	0x3e371ef9	0.17882909
244	0x3de3f95b	0.11131545
245	0x3c63c8bc	0.013902839
246	0x3c949f48	0.018142357
247	0x3de737fc	0.11289975
248	0x3d98da19	0.07463474
249	0x3d3f414e	0.04669314
250	0xbdd100e3	-0.10205247
251	0xbd84f581	-0.06492139
252	0xbe07b54f	-0.13252757
253	0xbdd623ba	-0.10456033
254	0xbdc33023	-0.09530666
255	0xbdba632d	-0.091009475

dec_layer_3.0.bias f4 [3]
0	0x3c23c20f	0.009994998
1	0x3cbc3586	0.02297474
2	0x3ca76482	0.020433668
