save/updated_model_base/gen_model.pt (torch, 42889 bytes, 10 tensors)

enc_layer_1.0.weight f4 [32, 3, 5, 5]
000000 c6 91 47 be 85 fa 05 be d2 12 38 be 04 3d 0c be
       -0.19489202 -0.13083847 -0.1797593 -0.1369515
000010 fb fe f0 bd a0 1f 45 3d de 64 66 bb bf 57 d9 bc
       -0.11767384 0.048125863 -0.0035155336 -0.026531098
000020 fa ff a2 bd 3e 98 30 be ae b3 22 3e ad 29 2d 3d
       -0.0795898 -0.17245576 0.15888855 0.042276073
000030 f5 0e fd bc e3 83 33 bd af 68 72 3d 93 cd f9 3d
       -0.030890921 -0.04382695 0.059181865 0.12197413
000040 73 71 0e 3d c2 be 0b 3e b3 4f 99 bd cc b3 00 bb
       0.034776162 0.13646987 -0.074859045 -0.0019638417
000050 ef 92 fa 3c ab 66 d0 3d 31 da 05 be 55 39 f6 bd
       0.030587642 0.10175832 -0.13071515 -0.12022654
000060 72 ec e7 bd eb af 49 bd 26 da eb bd 6b c5 12 be
       -0.11324395 -0.049240034 -0.11516218 -0.14333121
000070 71 02 21 bd 4b 38 16 be 4e b0 08 3e e8 09 1f 3c
       -0.03930897 -0.14669912 0.13348505 0.009706952
000080 e2 da 57 3d fd 77 1c bd f3 7d b8 bb a4 2f 39 3e
       0.052698977 -0.038200367 -0.0056302487 0.1808458
000090 f8 92 25 3e 76 9d 61 3e bf d3 a6 ba ea f9 a1 3b
       0.16169345 0.22032723 -0.00127279 0.004943122
0000a0 2f 97 db 3d 1f 71 3d 3e 02 fb 81 bb d5 bc b5 3d
       0.10722195 0.18500184 -0.00396669 0.088739075
0000b0 41 34 8d 3d 85 47 db bc 37 af be 3d ce e0 21 bd
       0.06894732 -0.026767502 0.09310763 -0.03952103
0000c0 71 84 33 3d c2 05 af bd 8c fe 4e bd a6 54 52 bd
       0.043827478 -0.0854602 -0.050535724 -0.05135026
0000d0 08 99 91 3c 23 77 35 be 26 d7 39 be 6d b6 e8 3d
       0.017773166 -0.17721228 -0.18148479 0.1136292
0000e0 e5 9e 1d 3e 3d fd fb 3c ef c9 50 bc 76 4c 5a 3d
       0.15392645 0.030760402 -0.012743457 0.053295575
0000f0 d7 73 47 3e 6c 67 3c 3e 18 67 2e 3e 89 ec 4c 3e
       0.19477783 0.18398827 0.17031515 0.20012106
000100 a2 d2 dc 3d 44 8d 4c 3e bb c5 70 3d 72 bc 49 3e
       0.107823625 0.19975764 0.05878232 0.19700792
000110 1f b9 2e 3e b6 23 d7 3b 63 a6 00 3e ec bc 98 3b
       0.17062806 0.0065655364 0.12563471 0.004661193
000120 76 a2 9b 3d 95 f6 be 3d 4f d7 de bd 87 b9 06 be
       0.07599346 0.093243755 -0.108809106 -0.1315671
000130 45 63 98 3d f7 c3 07 bd c3 d4 25 bc b4 93 ed bd
       0.07440809 -0.03314587 -0.010121527 -0.11600438
000140 a3 3e 5b bb a7 f0 0a 3c 19 84 cf bb 3a 4d d0 3b
       -0.0033454082 0.008480228 -0.006332886 0.0063568624
000150 59 65 70 3c 78 0f 99 3c f4 9a 4c 3d 2a 56 a4 bc
       0.014672601 0.018684134 0.049952462 -0.020060617
000160 f0 c6 df bc 11 45 92 bd 9d b7 1f bc b5 3a 4f bd
       -0.02731654 -0.071420796 -0.009748367 -0.050593097
000170 87 4e 0b be f5 53 3c bd 2b 3d 81 3c 2b 3b 2c 3d
       -0.13604175 -0.045978505 0.015776237 0.042048614
000180 a4 c8 cb bd b5 37 87 bd 49 32 7e bd f6 e7 ce bd
       -0.099503785 -0.06602422 -0.062059674 -0.10102837
000190 ca d5 da 3b c2 13 0d 3e 3d d9 65 3e 43 30 f7 3c
       0.0066783177 0.13777068 0.22446151 0.03017438
0001a0 f4 99 08 3e 99 b9 fa 3d 8f 0d b4 3d d8 eb 12 3c
       0.13339978 0.12242431 0.087916486 0.008967362
0001b0 92 92 1f 3d b7 c7 14 3d aa 6c 90 3d d2 80 b1 bb
       0.03895814 0.036323275 0.07051976 -0.005416968
0001c0 c5 da 5f 3d 99 c9 cd 3d 71 e9 bc 3d 10 7a eb 3d
       0.054651994 0.10048217 0.09224213 0.11497891
0001d0 96 d2 5b bd d9 7d 03 bd cf e5 17 bd 20 d8 96 3d
       -0.053667627 -0.03210244 -0.037084397 0.07365441
0001e0 1e 41 cf bd 97 b4 7f bd 32 21 fb bc 88 16 da bd
       -0.10119842 -0.062428083 -0.030655477 -0.10648829
0001f0 19 43 ae 3d e6 75 ef bd 11 97 ae 3d 99 6c d7 3d
       0.085088916 -0.11692409 0.085249074 0.1051876
000200 a2 82 3a 3d 16 ef 15 be 17 d8 97 bd 5f 64 02 3e
       0.045534737 -0.14641985 -0.07414263 0.12733601
000210 66 12 8d bc ba 01 c8 3d 1f 0a 6f 3c 8d fd 0e 3d
       -0.017220687 0.09765954 0.014589815 0.034909774
000220 8a 7b 75 bc ac c1 a7 bd b1 0d a2 bd 8f 45 24 3b
       -0.014983067 -0.08191237 -0.07912768 0.0025065874
000230 9e 18 f9 3c da 2e 56 3d 34 ad 43 3c 1b c7 d0 bd
       0.030407246 0.052290775 0.01194315 -0.10194226
000240 84 15 79 bd 0b 17 41 bc 4d 35 16 3a 59 a9 d9 bd
       -0.060811535 -0.011785279 0.00057299883 -0.106280036
000250 2d ba a1 bb b4 33 10 be e1 f6 94 bd d4 f9 f4 bd
       -0.004935524 -0.14082223 -0.07273651 -0.119617134
000260 5a 7c 55 bd bb f9 0b be fc 45 41 be bd c4 09 be
       -0.052120544 -0.13669483 -0.18874353 -0.13453956
000270 70 e0 13 bd e3 d1 c5 bd 59 1d 06 be d9 b0 ac bd
       -0.036102712 -0.09659173 -0.13097133 -0.084321685
000280 b0 cd c7 3d ce 49 87 3d 29 a8 12 3b 7f 10 ce bd
       0.09756029 0.06605874 0.0022378063 -0.1006174
000290 cf f1 6c 3d 3c 7c 7c 3d 22 19 d3 bd 3b 72 fe 3b
       0.057847794 0.061641917 -0.10307528 0.007765082
0002a0 5b e4 7b bc b6 f2 0f bc a4 e6 a3 bd 0b 00 f1 bd
       -0.015374268 -0.008785894 -0.080029756 -0.11767586
0002b0 c4 50 44 be 3c 51 08 bd ad c0 f3 bc 7f b5 bc 3c
       -0.19171435 -0.033280596 -0.02975496 0.023035763
0002c0 6d 60 a4 3d 4f 83 a7 3a 9b b6 03 3d 58 0c 11 be
       0.08026204 0.0012780222 0.032156568 -0.14164865
0002d0 21 11 65 bc 93 50 a0 3d f9 d9 11 3d 25 76 9e bd
       -0.013981135 0.07827868 0.035608266 -0.07737378
0002e0 37 f5 34 3d 15 be 7d 3b d5 27 7f 3e e9 d2 06 3e
       0.044179168 0.0038718034 0.24917538 0.13166393
0002f0 65 a0 d2 3c bc 0f 42 bb 40 b7 0e 3e fd 4e 21 3e
       0.025711248 -0.002961143 0.13937092 0.15752788
000300 d7 b4 14 3e c2 a6 18 3e 3b ec fa 3d f5 7a 80 3a
       0.1452211 0.14907363 0.12252089 0.0009802269
000310 44 82 1b 3d 68 7d 8a bc f9 5a 5e bd 55 a0 e5 3b
       0.037966028 -0.016905501 -0.054285977 0.0070076385
000320 21 fa 6e 3d ee 06 52 3d d3 9f ce bc ad 41 9f bd
       0.05834401 0.05127614 -0.025222695 -0.077761985
000330 eb 93 ca 3d 1d db 10 3d a5 4e 85 3d f0 55 04 3e
       0.09891494 0.035365213 0.06509141 0.12923408
000340 26 0d ac 3d 41 d5 d2 3c d1 cd 4b 3e 20 9c 89 3e
       0.08400945 0.025736453 0.19902731 0.26876926
000350 1f f7 4c bc d3 4c bf 3d c8 93 7e bc 5b 4b 0f 3e
       -0.01251009 0.09340825 -0.0155381635 0.1399359
000360 96 87 88 3d be 2c 57 3d 56 e5 79 bb d4 08 60 3c
       0.06666486 0.052532904 -0.003813108 0.01367398
000370 ed 4b ed 3c 8f 83 ed 3d 56 f6 5d 3c 32 7d b0 3c
       0.028966868 0.115973584 0.013547501 0.021544073
000380 cb 57 2d 3e 96 b4 98 bd 47 00 aa 3d bc 00 06 be
       0.16928022 -0.07456319 0.08300834 -0.13086218
000390 78 cd d3 bd 7f f2 f4 bc 42 27 4a 3d 9a 49 41 bc
       -0.103419244 -0.029900787 0.049353845 -0.011797333
0003a0 30 c6 4f 3d d7 ab 8b 3d 0f 8e 44 bd 40 37 66 bd
       0.050726116 0.06819885 -0.04798704 -0.056205034
0003b0 24 de 8c bd 5b f4 45 3d b3 07 bc 3c 9e 15 3f bd
       -0.068783075 0.04832874 0.02295289 -0.046651475
0003c0 39 f7 b6 bd 56 25 a0 3d 5f 31 34 3c 01 f2 60 bd
       -0.08933873 0.07819621 0.010998099 -0.054918293
0003d0 b6 52 ee 3d 14 87 01 bd 9a e6 6c bc d5 85 d2 bd
       0.116368696 -0.03162296 -0.014459277 -0.10279433
0003e0 91 eb 86 bd 28 8a 69 3b 51 3a b0 3d 6e d7 0e bd
       -0.065878995 0.0035635326 0.08604873 -0.03487342
0003f0 dc f0 de 3d 7e 44 5a bd b5 99 d6 3b c6 2f 73 3d
       0.10885784 -0.053287975 0.006549085 0.059371732

enc_layer_1.0.bias f4 [32]
000000 13 74 e3 be d7 b6 4e 3e 12 e9 f9 be e3 0a 40 bf
       -0.44424495 0.20186935 -0.4881063 -0.7501661
000010 f7 72 ff 3d b0 ea 81 3c e4 5d 84 bd 65 f8 70 3d
       0.124731 0.015858978 -0.06463221 0.058830637
000020 88 b6 5d 3d 83 93 ad 3c 05 d1 16 3e 26 7e 0b bf
       0.054129153 0.021188503 0.14728172 -0.5448936
000030 04 43 aa bd fe 3e 3e 3d c2 48 e3 bd 86 2d 04 3e
       -0.083135635 0.046446793 -0.11097862 0.12907991
000040 8e 23 8d be 63 ad dd 3d 29 9b 0a 3d 69 2e 1f bf
       -0.2756619 0.108240865 0.03383938 -0.6218019
000050 ef 7b d2 bd 02 2e d5 3d 9f 3f 6d 3d 81 63 ca 3d
       -0.10277545 0.10409166 0.057922002 0.0988226
000060 3b 70 e2 bd 15 4b c9 be 20 37 e5 3d 93 8a 82 3c
       -0.110565625 -0.39315096 0.11192155 0.015935218
000070 8c 67 2e 3d d4 ce 22 be 64 48 29 3e 45 fa ab 3c
       0.04257922 -0.15899211 0.16531521 0.020993361

enc_layer_2.0.weight f4 [16, 32, 3, 3]
000000 eb 7b 05 be f1 16 2f 3e 29 6f 77 bd 94 a5 15 3d
       -0.13035552 0.17098595 -0.060408745 0.03653486
000010 ab 9a d9 bd 41 98 35 bd d8 96 fd bb 47 c0 c1 bd
       -0.10625204 -0.044334654 -0.0077389292 -0.09460502
000020 b8 ab 2d bd b1 0a b7 be 06 d2 4b bd 21 30 8e be
       -0.042400092 -0.35750344 -0.04976084 -0.27771094
000030 91 60 b9 be 7e 46 4b be 0f 24 1c be b0 83 1f be
       -0.36206487 -0.1985111 -0.1524813 -0.15577579
000040 9c f7 52 be b2 a8 30 be 3e bf b9 3c 3d ea 9d 3e
       -0.20602268 -0.17251852 0.0226742 0.30842772
000050 31 47 1b 3b a2 24 50 3d a9 de 28 be 62 70 ac be
       0.0023693556 0.050816186 -0.16491188 -0.3367949
000060 72 72 2c 3e 3a 2d 63 bd 12 1f 39 be 87 0f 9d 3d
       0.16840532 -0.055463053 -0.18078259 0.07668977
000070 1c 1a 91 3e 02 ba 33 bd 35 70 4e be 95 e0 55 be
       0.28340232 -0.043878563 -0.20159991 -0.20886452
000080 5e 48 82 be 30 14 98 bb de 7e a5 be 2d fd ec be
       -0.25445837 -0.0046410784 -0.32323354 -0.46286908
000090 b0 e3 89 bd 0d f5 37 3d 57 63 7e 3d 35 34 77 3d
       -0.06732881 0.044911433 0.062106457 0.060352523
0000a0 63 6e 62 ba 63 d3 5e bd 2d 4e 82 3d 8d 18 05 3d
       -0.0008637665 -0.054400813 0.06362567 0.032494117
0000b0 d6 86 17 3c 36 0c 59 3d 83 84 00 3d 61 f7 28 bc
       0.009248456 0.05299016 0.031376373 -0.010312886
0000c0 37 d5 96 3d a2 23 8d 3b 76 6b b1 bc 8b 0b 38 3d
       0.07364886 0.0043072263 -0.021657687 0.044932883
0000d0 8c 29 0a 3d 72 35 e7 3c 17 9f d0 bd b6 01 0f 3e
       0.03373103 0.028223727 -0.10186594 0.13965496
0000e0 ed 32 4b bd 75 2d 43 3d e3 cc 13 bc 34 bd 6e 3d
       -0.049609113 0.047650773 -0.009021017 0.058285907
0000f0 c7 5a a3 3c 61 1f 6c bc a3 d4 01 3a 6b 87 77 bd
       0.019940747 -0.014411778 0.0004952645 -0.06043188
000100 a7 a2 ba 3d 5f 64 94 3c 8f 2a 8b 3c 57 a6 47 bd
       0.09113055 0.018114267 0.016988067 -0.04874262
000110 34 51 0c 3b c5 19 23 3d df 05 d0 bd 0a 0e a6 3d
       0.0021410706 0.039819498 -0.1015737 0.081081465
000120 1e 11 d9 3b 51 be 05 be ea 51 35 3b f4 b6 35 bd
       0.006624355 -0.13060881 0.0027667233 -0.04436393
000130 ca d4 53 bd bd 05 d0 bd 8c 1a d7 bd 25 1d 77 bc
       -0.051716603 -0.101573445 -0.1050311 -0.015082632
000140 51 8c ba bd 56 f5 a6 bd 24 81 2e 3e 58 8d b2 bd
       -0.091087945 -0.08152263 0.1704145 -0.087183654
000150 89 78 9b 3d 8b 1e 47 bc 17 d8 14 bc bb f4 e7 bb
       0.0759135 -0.012153278 -0.009084723 -0.0070787347
000160 c6 34 a8 bd a5 1d 49 bd a0 13 27 3d 77 fb c0 3d
       -0.08213191 -0.049100537 0.0407902 0.09422963
000170 41 47 25 3e 69 04 45 3d dd ed 53 3d 57 f3 99 3c
       0.16140462 0.04809991 0.051740516 0.018792791
000180 23 36 01 3e 5e fd a5 3c 4c 09 c9 3c dd 35 20 bd
       0.12618308 0.020262416 0.024540566 -0.039113868
000190 b8 64 ae 3d 03 90 67 3b bd c4 e1 bc d0 b9 86 bd
       0.08515304 0.003533364 -0.027559632 -0.0657841
0001a0 ae cc 53 3d 32 c9 83 3c a7 e1 9e bc 24 f9 3e 3d
       0.05170887 0.016087148 -0.019394709 0.046624318
0001b0 c6 e5 87 bc a5 82 2c bd a2 d4 7c 3c d3 50 c5 bd
       -0.016589057 -0.04211678 0.015431555 -0.096345566
0001c0 3a 70 eb bd 64 7e aa bd 6c b2 e0 bd 43 43 8f bd
       -0.11496015 -0.08324888 -0.10971531 -0.06995251
0001d0 47 f6 fe bd 94 84 d2 bb ed d9 3a 3d 26 41 f2 3c
       -0.124493174 -0.006424496 0.045617986 0.02957208
0001e0 cd af c1 3b e5 a5 1b 3e 79 4a ca 3d 96 26 c4 3d
       0.0059108497 0.15200002 0.09877486 0.09577672
0001f0 66 ae ac bc 29 83 8f 3a 70 a4 5d bc 81 cd 34 3e
       -0.021079253 0.0010949123 -0.0135279745 0.17656519
000200 79 35 70 bd 5f 6d 7c 3c f0 3d 05 3d d2 9d 01 3d
       -0.058644745 0.0154069355 0.03252977 0.03164465
000210 14 a3 cf 3d e6 b9 ff bc d2 46 3e 3d ea c2 fc bc
       0.101385266 -0.031216573 0.04645426 -0.030854661
000220 29 32 1f 3d 4b 79 a6 bd 73 04 2b 3d 23 2a 86 bd
       0.038866196 -0.081286035 0.04175229 -0.06551006
000230 d0 67 03 3d 01 6f 02 3d 40 30 70 bd 53 19 7f 3d
       0.032081425 0.031844143 -0.058639765 0.06228001
000240 b5 88 54 be a9 cb 29 be 96 b3 08 be 2f d6 5b be
       -0.20755275 -0.16581596 -0.13349757 -0.21468423
000250 1b 56 53 be e7 49 ab be 31 25 36 bd 45 14 71 be
       -0.20638315 -0.3345482 -0.044469062 -0.23542888
000260 d4 70 41 be e9 ae 24 3e 90 54 3a bb 74 ce 15 3e
       -0.18890697 0.16082348 -0.002843175 0.14629537
000270 22 9f 16 bd e3 37 98 bd 18 03 a5 bb d0 eb 94 bd
       -0.036772855 -0.074325345 -0.005035769 -0.0727154
000280 7f ea 67 3c 1f 58 04 bd f6 3c d0 3d a0 92 81 3d
       0.014155029 -0.0323106 0.101678774 0.063267946
000290 53 04 82 3d c2 d1 31 b9 10 d9 ee bb ba a1 76 bc
       0.06348481 -0.00016958176 -0.0072890595 -0.015053207
0002a0 fc 8d 84 bb d2 6c 8b 3c a8 3a c8 bc ce 94 66 be
       -0.004045246 0.017019663 -0.024442032 -0.22517702
0002b0 53 73 16 3f b8 8b fc 3d e9 9b 98 be 5f a5 ea 3e
       0.5876972 0.12331337 -0.2980645 0.45829293
0002c0 71 5a 6b 3e bf 28 03 3d ad 49 1f 3e 40 ca b4 bc
       0.2298372 0.03202128 0.15555449 -0.022069097
0002d0 56 b0 ce 3e 86 27 bb be 35 aa 6c 3e 5c d3 2e bd
       0.4036891 -0.3655359 0.23111804 -0.042682037
0002e0 d7 9b b8 bd 8b 78 48 3e c0 bb bd 3d 64 13 ec 3d
       -0.09014099 0.19577233 0.09264326 0.11527136
0002f0 21 f9 2f 3c 54 42 1e 3b ad f4 a3 3d 72 1e 95 3d
       0.010740549 0.0024148421 0.080056526 0.072811976
000300 13 a2 88 bd 51 d5 2e 3e 78 9e 38 3e 5d d2 93 bd
       -0.06671538 0.17073561 0.18029201 -0.07217858
000310 bc d8 18 bd 3d e2 ba bc e2 af 8d bd e7 8d 16 3e
       -0.03731607 -0.022812957 -0.069183126 0.14702569
000320 84 d3 84 bd c9 83 43 bd c5 c2 00 be 4c f0 8b bd
       -0.06485656 -0.047733102 -0.12574299 -0.06832942
000330 eb 4e 0f 3d 03 ea 85 bd f2 c9 8d bd 99 76 79 3e
       0.03498737 -0.06538775 -0.06923284 0.24361648
000340 08 e3 04 bc 9e ab 17 3e 4d cd 04 3d f2 9b f7 3d
       -0.008110769 0.1481156 0.032422353 0.12090291
000350 b7 d2 87 3c 40 c7 05 bb 30 bd 23 3e db 4e 39 3d
       0.016579969 -0.0020412952 0.15990138 0.045241218
000360 fe 51 85 bb ef 9a d4 3d 59 cd 8b bc 0d ee 02 3e
       -0.004068612 0.10381114 -0.01706569 0.12786122
000370 16 5a 33 bd 33 c3 ce 3d cb e1 04 be 3c 39 9a 3b
       -0.043787085 0.10095825 -0.12976758 0.00470653
000380 8a 69 f3 3d 9f 30 51 be 59 1e 76 3e 84 8c a2 3c
       0.11885364 -0.20428704 0.24035014 0.019842394
000390 7f ce 2a 3d b7 67 dd bd 88 77 6b bc f8 eb 2d 3e
       0.041700836 -0.10810798 -0.01437176 0.16984546
0003a0 39 f1 d8 3d 56 cc a3 bc 5b 17 13 be 4d 09 48 bd
       0.105928846 -0.019994896 -0.14364378 -0.048836995
0003b0 5b 95 87 bc ff 36 80 bd 96 88 11 3e 4f 91 14 bc
       -0.01655071 -0.0626049 0.1421226 -0.009067847
0003c0 b3 67 0e 3d e4 af cf 3d 5a 12 6f 3d 39 79 ed bb
       0.034766864 0.1014097 0.05836711 -0.007247117
0003d0 3a df e8 3d 40 4c 20 bd 92 3a ae 3c 1d 52 fc bd
       0.11370702 -0.039135218 0.021268163 -0.12320349
0003e0 26 e1 54 3d cf 03 34 3d 99 6f 12 bd ba 63 9c 3b
       0.05197253 0.043948945 -0.03575096 0.0047726305
0003f0 78 8c ea 3b 2f 40 6f 3d d8 88 53 b9 24 a1 98 3d
       0.0071578585 0.05841082 -0.00020173506 0.0745261

enc_layer_2.0.bias f4 [16]
000000 03 05 b0 3d d0 f2 ea bc 96 ff f9 bd 5d f0 0d be
       0.08594706 -0.028680235 -0.12206952 -0.13861223
000010 2b 2f 1d bd 63 b7 06 bd 18 fd fc bb c7 c7 97 bc
       -0.03837506 -0.032889735 -0.007720601 -0.018527878
000020 60 72 8e bc 38 37 da bc c0 4f d0 3d d8 b7 7a bc
       -0.017388523 -0.026637658 0.10171461 -0.015302621
000030 98 d7 d4 3c 4c 22 2b bd 08 7a 11 3d 30 95 7c 3d
       0.02598171 -0.041780755 0.03551677 0.061665714

enc_layer_large.0.weight f4 [6, 16, 3, 3]
000000 23 90 1d 3d 81 f4 92 bc 43 c8 5d 3c 35 e1 f5 3d
       0.038467538 -0.017938854 0.013536516 0.120058455
000010 22 74 74 bd b5 bf 51 3c 13 64 0f bd 99 7f b4 3d
       -0.059681065 0.012802054 -0.035007548 0.088134
000020 8c e8 82 bc a3 b3 d8 3c 99 54 d6 bb 1d d9 98 3b
       -0.015980028 0.026452845 -0.0065408465 0.004664554
000030 68 0f b9 3d 55 2a ac 3b 88 95 29 bd 35 de 19 bd
       0.09036142 0.00525407 -0.04140237 -0.03756543
000040 e3 44 27 3d ca 68 2f b9 32 c4 e6 bd 4b 53 04 3e
       0.04083718 -0.00016728338 -0.1126789 0.12922399
000050 3e 95 54 bd 94 1f 3b 3e de 01 23 3c 66 0f 85 3d
       -0.05190014 0.18273765 0.009949176 0.06497078
000060 ae 50 2c bd c5 97 29 3d e6 65 8a 3d 7b 5e 83 3c
       -0.04206913 0.041404504 0.06757717 0.016036263
000070 35 62 63 3e ba fe 6a 3d 7c 56 e8 bd f8 12 1d bd
       0.22205432 0.057371832 -0.113446206 -0.038348168
000080 30 27 34 3c 88 20 e4 3b d7 3f 72 3d 8b 78 04 3d
       0.010995671 0.006961886 0.059142914 0.03234152
000090 f4 91 09 3e 9e e6 3e be 9d 4c d1 bd f8 19 91 bb
       0.13434583 -0.18642661 -0.10219691 -0.0044281445
0000a0 91 db cc bd 8f e8 1f 3c c9 d4 43 3d 3e 38 d8 3b
       -0.100028165 0.009760036 0.04781035 0.0065985015
0000b0 d5 8e 22 3c d3 b7 a4 be dd fb a5 bd a9 ca 00 3c
       0.009921749 -0.32171497 -0.0810468 0.007860818
0000c0 75 8d 8e be de bf 25 bd 2c b3 13 3e 1f 00 8a 3c
       -0.27842298 -0.040466182 0.14423817 0.01684576
0000d0 6e ec ec bb 00 0f 4b 3d 23 76 23 3d dc 95 0a 3e
       -0.007230333 0.049574852 0.039907586 0.1353373
0000e0 1a d8 1d bd ac fc c1 be 39 55 b5 3b 6e 3b c4 3d
       -0.03853617 -0.37888086 0.005533841 0.09581648
0000f0 5c df bf 3d 04 1c 9c 3d 94 d8 12 3d a5 1b 7c bd
       0.09368774 0.07622531 0.035851076 -0.0615498
000100 74 85 90 bd e4 20 cd bd 8b 1c f6 bd 65 9a a7 3d
       -0.07056704 -0.10016039 -0.12017163 0.08183745
000110 04 cc 56 bd 22 3d 2e 3d 48 9b 2e bd 04 28 0d bc
       -0.05244066 0.04253877 -0.042628556 -0.0086154975
000120 76 f6 d3 bd e2 6b e2 3c bd 3e 7f bd 00 8b 80 3e
       -0.10349743 0.027639333 -0.06231569 0.2510605
000130 18 31 52 3d af 96 48 3d 9a 03 03 3d 58 7e 97 3d
       0.05131635 0.048971828 0.031985857 0.07397145
000140 e1 ab 99 3d bd e5 ab be 72 9d 30 be 8c 76 da bd
       0.075034864 -0.33573714 -0.1724756 -0.10667142
000150 1c 3f 4f bc ff e2 a1 3e ed b0 d8 bc 15 ea f7 ba
       -0.012649324 0.31618497 -0.026451552 -0.0018914366
000160 b5 40 17 bd 5b b6 5b 3d 38 0a e2 bd ff 52 48 be
       -0.036926944 0.053640705 -0.11037105 -0.1956291
000170 cd dc 80 3b df 6e 89 3e d0 e0 91 bd 51 e5 95 bc
       0.0039325715 0.268424 -0.07122958 -0.018297823
000180 c7 7a 95 bc 56 01 de 3c 1a 2c cf bc 25 e9 4c be
       -0.018247021 0.027100246 -0.025289584 -0.20010813
000190 50 66 f1 bb 5a 5d 55 bd 65 13 f8 3d 3b a4 d2 bc
       -0.007366933 -0.05209098 0.12113074 -0.025713077
0001a0 ec ee c6 3d 4d 5d 29 3e f4 93 08 3e f8 9a b0 bc
       0.097135395 0.16539498 0.1333769 -0.02155827
0001b0 4d cb 44 3c ff 91 2f bd a1 d9 c5 ba 24 ef 4a 3e
       0.012011361 -0.042863842 -0.0015094766 0.19817787
0001c0 e3 21 bb 3c 2e dc 5c 3d 98 90 21 bd 2d 76 49 3c
       0.022843307 0.053920917 -0.039444536 0.012296242
0001d0 00 72 1c 3d e0 82 61 3d c5 65 8d bd 5b 88 94 3b
       0.038194656 0.055056453 -0.069041766 0.0045328564
0001e0 04 0f 76 3d ab 80 13 3e a6 b1 f7 3b 27 43 2c bb
       0.060072914 0.14404552 0.007559019 -0.0026285143
0001f0 e5 94 f8 bc f6 7e 9b bb 7c 5e 81 bd 9d 36 c2 bd
       -0.030344436 -0.0047453595 -0.063168496 -0.09483073
000200 7c 5f 07 bd 70 4f fa bb 63 ff 99 3d 2e bc e3 bc
       -0.033050045 -0.007638864 0.07519414 -0.027799692
000210 63 47 3b 3d b0 de 27 bd 34 c3 f1 bb 0b 9b 4c 3e
       0.045722377 -0.040983856 -0.0073780064 0.19981019
000220 6c ac 0d 3e 44 4c 9b bd 1b e6 a8 3d 4e eb 49 bc
       0.13835305 -0.07582906 0.08247014 -0.012324167
000230 de 71 9c 39 bf 42 cf bc 1c f7 e9 bd fa 1a b7 3c
       0.00029839476 -0.025300382 -0.114240855 0.02235173
000240 69 4f 3c 3d 10 77 7f 3d f9 3a 21 3d ab 05 fd 3d
       0.04597417 0.062369406 0.03936288 0.12354597
000250 06 54 ec bd 79 7c 72 3c 75 34 6a 3d 14 b7 01 bd
       -0.11539464 0.014800184 0.057178933 -0.031668738
000260 80 6a 2b bd 1a ee 24 3d 8e 36 8b bd f8 5d 4b 3d
       -0.041849613 0.040266134 -0.06797515 0.049650162
000270 23 7d 2f bc 70 c2 74 be c5 f3 8d bd 78 24 de bc
       -0.010710987 -0.23902297 -0.06931261 -0.027116999
000280 15 84 fe bc 91 62 64 bc 2d 07 db bd df 20 14 3d
       -0.031068841 -0.013939516 -0.10694728 0.03616416
000290 8e 05 29 3b c7 3b 0e be 52 5c 02 bd 84 14 7c 3d
       0.0025790664 -0.13889991 -0.031826325 0.061543003
0002a0 f2 20 c9 3d ee db 15 3e be 3d 78 3d 07 f2 d9 bd
       0.09820737 0.14634678 0.060605757 -0.10641866
0002b0 aa ae 6f 3d aa f1 c8 3a 70 c3 c8 bd 00 3e 3d 3e
       0.058516182 0.001533081 -0.09802902 0.18480682
0002c0 d3 d2 e9 bd 7f b7 64 bc c0 48 dc bc 81 49 3a 3d
       -0.11417165 -0.0139597645 -0.026890159 0.045480255
0002d0 ca ff 2b be 26 83 03 3e 39 9c 89 3d f2 f3 23 be
       -0.16796795 0.12842998 0.0671925 -0.16011027
0002e0 53 29 e4 3d 4e e5 81 bd 25 6e 32 bd 15 80 0f bd
       0.111406945 -0.063425645 -0.043562073 -0.035034258
0002f0 ca 05 6c bd 9a 2c 4c be b7 3d ed 3d ab 7b a1 3d
       -0.05762271 -0.19938889 0.11584037 0.07884916
000300 81 23 b4 bd 2f 9b c3 bd 91 4e 83 bd 8c a7 3f 3d
       -0.08795834 -0.09551083 -0.0641147 0.046790645
000310 f1 19 d7 3d fa ef 58 3d 1e e9 4c 3e c8 22 fe 3d
       0.10502995 0.052963234 0.20010802 0.12408978
000320 35 bb 88 bd 72 c9 80 bc 76 31 1c 3e 73 e4 13 3d
       -0.06676332 -0.015721057 0.15253243 0.036106538
000330 b8 bb 3d 3d b0 0f 08 3e df 5b 15 bd 4d f7 46 be
       0.0463216 0.13287234 -0.03646457 -0.19430275
000340 98 f6 0f bd 08 92 69 bd a5 17 0d 3d 73 6b ce be
       -0.03514728 -0.057024032 0.034446377 -0.40316352
000350 5e 48 2e 3d 3d 2a f3 bd fa 6a 2b bc 71 2a a8 bc
       0.042549483 -0.11873291 -0.010462517 -0.02052805
000360 14 27 ce bc 9c 73 85 3d 30 7b 86 3c 88 9a 3e bd
       -0.025165118 0.06516191 0.016416162 -0.04653409
000370 21 b3 54 3d fc 56 57 bd 32 59 8e 3d 78 5c 9e bd
       0.051928643 -0.05257319 0.069506064 -0.07732481
000380 99 1f 4d bc 5f e1 b4 3d 15 f5 60 3b 04 5e 98 3d
       -0.0125197405 0.088320486 0.0034325768 0.07439807
000390 2b 7e 04 3d c6 ec 6c 3d 13 37 ea 3b c2 aa b2 bc
       0.032346886 0.057842992 0.0071476786 -0.02180994
0003a0 ee 68 fd 3d 6a ca 43 bc e3 3e 34 3e 6a 64 69 3e
       0.123735294 -0.011950115 0.17602114 0.22792211
0003b0 92 91 39 bd dc 3d 4a be fb b6 fd bd f2 13 99 3d
       -0.045304842 -0.1975016 -0.123884164 0.074745074
0003c0 db ee ee bc c8 36 2f bd ef 7f 6f bd 80 4a 40 3d
       -0.02916663 -0.042776853 -0.058471616 0.04694605
0003d0 23 bd 42 3d 29 54 44 bd c1 77 10 be 3f bc b7 3e
       0.047543656 -0.047931824 -0.14108182 0.35885808
0003e0 3b 0a 03 bd ac b0 ae 3c 34 52 e9 3d 7d f1 88 bc
       -0.03199218 0.021324478 0.11392632 -0.016716713
0003f0 be c8 8a 3e 46 0e d4 3d 13 29 c9 3d 69 09 43 bd
       0.2710628 0.10354285 0.098222874 -0.047616396

enc_layer_large.0.bias f4 [6]
000000 09 c9 2f bd ca ac a7 3d 1b 00 84 bc 5b f2 03 be
       -0.04291633 0.08187254 -0.016113332 -0.1288542
000010 ee 25 63 bc f5 9a 6c bd
       -0.013864024 -0.057764966

dec_layer_2.0.weight f4 [6, 8, 5, 5]
000000 c3 31 5d 3c bb 81 a2 3d cd ed c1 3b 69 6f c1 bd
       0.013500634 0.079349004 0.0059182406 -0.09445078
000010 10 71 44 bd c2 ea 7e 3d 3f 14 b8 3c 64 20 9e 3c
       -0.047959387 0.0622356 0.022470592 0.019302554
000020 24 af 83 3d 99 de 5a 3d 69 32 09 bd b2 69 0d bd
       0.0642989 0.053434942 -0.03349534 -0.034524627
000030 28 d0 ec 3d e5 d3 fa 3c db 54 1d be 05 90 0f 3d
       0.1156314 0.030618617 -0.15364401 0.035049457
000040 5f 2d 9b 3d 87 56 e6 3d 4e 30 b5 3c eb 57 8c 3d
       0.07577013 0.112469725 0.02211776 0.068527065
000050 50 d3 c6 bc f9 06 f0 bd ce 92 35 3c f3 5e fe 3d
       -0.024270684 -0.1172008 0.011082364 0.12420454
000060 a8 a3 2c 3d 16 ec c8 bd 80 93 7a bd 17 ad 34 bd
       0.042148262 -0.09810655 -0.061175823 -0.044110384
000070 14 b2 89 bd db 6f 02 bc 83 6c 89 bc 60 07 a7 3b
       -0.06723419 -0.007961239 -0.016775375 0.0050973147
000080 4e 6d 26 ba 2e 69 f5 bc a8 80 57 bc b6 da b4 bd
       -0.0006348685 -0.02995738 -0.013153233 -0.08830778
000090 d3 12 05 3c c7 54 b4 3e d7 a9 e9 3b 60 d4 98 be
       0.008122164 0.3522093 0.007130842 -0.2984953
0000a0 86 88 f7 bc e3 fd 0d 3d 13 d0 ef 3c 86 77 ee 3c
       -0.030216467 0.034665953 0.029274022 0.029109728
0000b0 c6 14 25 3c 0e 78 eb bd be e0 73 bc f1 43 83 be
       0.010075754 -0.11497508 -0.014885126 -0.25637773
0000c0 0d bc 81 3b c8 eb 21 be 98 16 6f 3d f8 5f fb 3d
       0.003959185 -0.158126 0.058371156 0.12274164
0000d0 b8 c4 72 3d 67 8c df 3d 88 ce 2a 3d d2 d3 9c 3e
       0.059269637 0.109154515 0.04170087 0.30630356
0000e0 a8 fe 7a 3d 6a 2f a6 3e e1 ad 10 3e c8 e9 ea 3d
       0.061278015 0.3245805 0.1412883 0.114703715
0000f0 70 78 c8 3d fd 5a a4 3e 03 bf 09 3e c3 ca 52 3e
       0.09788597 0.3210067 0.13451771 0.2058516
000100 09 de 28 3c fd 73 c2 bc 85 11 3a 3e 28 62 c7 3e
       0.010306844 -0.023736948 0.18170746 0.38942075
000110 15 51 ba 3d 40 87 b4 3d 57 eb 53 3c bd 08 4d 3e
       0.090974964 0.088148594 0.012934527 0.20022865
000120 5a 52 4d 3d 16 5b 59 3e b2 2c bd 3b 71 92 93 3d
       0.050127365 0.21226153 0.0057731504 0.07205666
000130 9a 08 9d 3d 45 97 1c 3e 64 b5 23 3d 41 f1 ae 3d
       0.07667656 0.1529208 0.03996791 0.08542109
000140 1f ae b2 3c 38 b3 c3 3b cd 88 6a bd d5 e1 ec 3d
       0.021811543 0.0059722923 -0.05725937 0.115665115
000150 1c dc 1e bd 5e 26 01 3e bb a5 2c 3d 4d a7 01 3e
       -0.03878413 0.12612292 0.04215024 0.12661476
000160 ce ae 68 3c 79 d6 b8 bd 19 d6 a3 ba 34 13 04 be
       0.014201833 -0.090252824 -0.0012499719 -0.1289795
000170 e6 46 d3 3d 34 54 df 3e 50 f5 0f be 5e 01 99 3d
       0.10316257 0.4361893 -0.14058423 0.07470964
000180 1b fc 56 bd 03 2f 99 3c 8a ad a0 3e 5c d1 30 bd
       -0.05248652 0.018699175 0.313824 -0.04316841
000190 45 6f 04 bd 3d 25 8b 3d 0a c2 40 be 65 5f dd 3e
       -0.032332677 0.06794212 -0.1882402 0.43236843
0001a0 30 df 90 bd a0 06 c3 bc ac d8 b5 3d e6 a4 8b 3d
       -0.0707382 -0.02380687 0.088792175 0.06818561
0001b0 2b 48 f0 bd 59 ac f9 bd e8 0b 50 3d ca 86 17 3d
       -0.11732515 -0.12191076 0.050792605 0.03699378
0001c0 55 6a 1d 3e a1 0a b6 3e e9 aa 1e be 2b 19 07 3d
       0.15372594 0.35554984 -0.15494885 0.032982986
0001d0 86 4f 09 be a0 95 b0 bc 1a 96 cf 3e d9 8c b4 3e
       -0.13409242 -0.021555722 0.40544206 0.35263708
0001e0 0f 86 1b be 1f c0 a1 be 5f 7f 33 be 5f ae 07 3e
       -0.15187858 -0.3159189 -0.17529057 0.13250111
0001f0 56 a0 6f 3d f0 08 87 3b b8 1d 22 bd a0 a2 55 3d
       0.058502518 0.0041209385 -0.039579123 0.052157044
000200 d9 bb 68 bd bd af 7c 3c 83 fd 0d bc 92 e3 b3 bc
       -0.05681977 0.015422759 -0.008666399 -0.0219591
000210 e5 d7 32 3e fb d0 e4 bd 7e 23 e3 3b f5 2e 35 bd
       0.1746517 -0.11172672 0.0069317212 -0.044234235
000220 bb 9f 61 3c 25 ab b4 3c d2 79 92 bd 12 92 9b 3c
       0.013770993 0.022054264 -0.07152142 0.01899055
000230 fe 87 27 bd 99 b2 91 3d 2c 5b 45 3e 20 ab 65 3e
       -0.040901177 0.07114143 0.1927306 0.2242856
000240 06 cd 02 be 85 b8 f5 bb ed 59 7d bd b8 fb 13 bd
       -0.12773523 -0.007498803 -0.061853338 -0.03612873
000250 62 29 44 3e 42 b0 48 3d 8c 32 ee bc 61 ed 29 bd
       0.19156411 0.048996218 -0.029076837 -0.041486148
000260 7d 7f d3 bc 8d c7 64 3d 2c 6a 12 3d ca df d0 bd
       -0.025817627 0.05585437 0.035745785 -0.101989344
000270 9d c3 e4 bc bc 3c 5a 3e 74 f1 a6 3d 1f 87 cf bd
       -0.027925307 0.21312231 0.08151522 -0.10133194
000280 ee 23 ba bc 01 6d b4 3d 59 59 35 3e de 17 a0 3d
       -0.02272221 0.08809853 0.17709865 0.07817052
000290 b1 d7 6d 3d fc fe 07 be c5 23 ac bd da 0e 8b bd
       0.058067027 -0.13280863 -0.0840526 -0.06789942
0002a0 20 ce 51 3e b3 66 54 3f 43 d2 e5 bb 36 cb 03 bd
       0.20488787 0.82969207 -0.0070135905 -0.03217622
0002b0 40 4b 9e bc 47 21 af bc d1 8a 07 3c a0 35 d3 38
       -0.019322991 -0.021378173 0.0082728425 0.000100712525
0002c0 b2 99 41 bb e2 54 79 bd a4 36 f9 bc 76 db 35 3a
       -0.0029541072 -0.060871966 -0.030421562 0.0006937304
0002d0 78 2f ea 3c ad a6 ed 3a 95 53 92 3d 74 c8 d8 bd
       0.028587088 0.0018131338 0.07144848 -0.105851084
0002e0 b6 f6 ea 3b 21 73 a5 bc 8d 08 b2 3d 1d 04 03 3e
       0.0071705235 -0.0201965 0.08693037 0.12794538
0002f0 87 84 98 be 0e 48 6a bd 93 8b 0c bd 86 fb 9b bb
       -0.2978861 -0.057197623 -0.034312796 -0.0047602085
000300 d1 56 f0 bb c8 d2 ed 3d 02 c2 e7 bd 1c 4f 09 3d
       -0.007334568 0.11612469 -0.11316301 0.03352271
000310 32 f8 0c 3d 47 d7 5b 3a da de 03 3e c8 60 0b 3d
       0.034416385 0.0008386266 0.1287798 0.034027845
000320 24 32 c3 bb 2c 5e 88 3d 3a 46 aa 3b b5 75 b9 bd
       -0.005956905 0.06658587 0.00519636 -0.09055654
000330 91 4b b3 bb 95 66 f7 ba c3 8e e3 3d 70 1c c0 bc
       -0.0054716547 -0.0018875176 0.11111214 -0.02345106
000340 e0 5f e5 bd bc 7e 9d 3c c2 6d df bb 0f f3 a5 bc
       -0.11199927 0.01922547 -0.006818504 -0.020257501
000350 01 a2 8c 3d c9 1c 25 be c6 4c 87 bd 13 e8 ce bb
       0.06866837 -0.16124262 -0.0660644 -0.0063142865
000360 20 1c 53 3b b6 e9 57 3d f8 10 84 be 9c 9c 01 be
       0.0032212809 0.05271312 -0.25794196 -0.12657398
000370 09 96 04 3c 2f aa 2c 3e 96 ef 10 bd 07 14 74 be
       0.008092412 0.16861795 -0.035384737 -0.23835765
000380 df 2f d0 bc 00 89 03 3c 19 55 00 bc d3 7c 08 3e
       -0.025413452 0.008028269 -0.007832789 0.13328867
000390 01 e4 df bc 92 76 b4 3d b8 80 da bb 2d 6b a3 3b
       -0.0273304 0.08811678 -0.0066681765 0.0049871416
0003a0 b3 51 8a 3c 52 c3 92 bd e1 71 22 bd ba 4e 9f 3d
       0.01688466 -0.07166161 -0.039659385 0.07778688
0003b0 79 f8 3d 3d cc a9 1b 3d 24 d1 10 3d 4d 18 34 be
       0.04637954 0.038003728 0.035355702 -0.17587395
0003c0 0f 8c 4b 3c b2 b6 c4 3b a9 72 98 3c 1b 6c 42 bd
       0.012423529 0.0060032243 0.018609362 -0.04746638
0003d0 90 0b 14 3d e2 de 5b 3a 76 19 d0 3c 86 09 eb bc
       0.03614384 0.0008387399 0.025402766 -0.028691065
0003e0 7d 8f 96 3c 01 d2 ae bd 51 dd 85 3c c6 f2 fd bb
       0.018378967 -0.08536149 0.016340883 -0.007749888
0003f0 5c b6 64 3c 8d e1 be bd 1a eb 97 bc 3e 60 88 bd
       0.0139594935 -0.09320364 -0.018544722 -0.06658982

dec_layer_2.0.bias f4 [8]
000000 8e 88 d4 bd 81 f2 0b bd c4 1b 6f 3d bb 50 20 be
       -0.10377608 -0.034166817 0.05837609 -0.15655796
000010 66 eb c0 bc eb 85 61 bd 08 30 41 bd df 61 e2 3c
       -0.023549747 -0.055059355 -0.047164947 0.02763456

dec_layer_3.0.weight f4 [8, 3, 5, 5]
000000 b4 d6 09 3e a2 0d 6f 3e 34 35 4f 3e 38 19 1b 3e
       0.13460809 0.23345044 0.20235139 0.15146339
000010 43 cd 8a 3d f1 12 74 3e a7 c2 9e 3e d7 f1 c2 3e
       0.06777432 0.2383535 0.31007883 0.38075134
000020 93 4b 55 3e 86 7a ed 3d 34 c1 84 3e 50 90 aa 3e
       0.2082961 0.11595635 0.25928652 0.33313227
000030 c7 c6 d8 3e a3 c7 2b 3e ec cb a2 3d 79 09 46 3e
       0.42339155 0.16775374 0.07949051 0.19339551
000040 4c 0e 53 3e 7f 6d 5b 3e 9d 25 3b 3d 16 4d e5 3c
       0.20610923 0.21428488 0.045690168 0.027990859
000050 c1 52 a3 3d b6 4a a3 3d 7b 18 68 3d 3c 0d e1 ba
       0.079747684 0.07973234 0.05666397 -0.0017170082
000060 77 14 e6 bc 57 ae 04 3e 9b d7 18 3e 97 d0 d7 3d
       -0.02808593 0.1295713 0.14925997 0.10537832
000070 16 60 71 3d a3 5f 47 3d e3 dc 43 3e 89 ff 58 3e
       0.058929525 0.04867519 0.1912723 0.21191229
000080 29 14 6d 3e 5e 7d a6 3d 1c 8e 59 3d 2a 17 25 3e
       0.23152222 0.08129381 0.05311404 0.16122118
000090 f9 1a 83 3e f2 b3 89 3e 84 70 02 3e b6 39 f0 3c
       0.25606516 0.268951 0.12738234 0.029324394
0000a0 34 15 c1 3d 3a c2 0c 3e 17 f7 ff 3d 96 54 e7 3c
       0.09427872 0.13745967 0.124983005 0.028238576
0000b0 34 bc 89 bc e2 e5 88 3d 60 cd 8c 3d 5c c8 e5 3c
       -0.016813375 0.06684472 0.0687511 0.02804964
0000c0 88 f2 82 bc fe 88 7c bc 57 11 86 3d 0a b7 da 3d
       -0.015984789 -0.015413521 0.06546276 0.10679443
0000d0 fd 7b b1 3c 6b b7 aa ba 6f 17 c7 bc fd 13 a6 3d
       0.021665568 -0.0013024634 -0.024303166 0.08109281
0000e0 a0 02 1c 3e 4d a2 a4 3d 6b af df 3c 16 f9 2e bd
       0.15235376 0.08038769 0.027305325 -0.042718016
0000f0 40 fa 2d 3d 06 11 fe 3d 55 02 cf 3c d2 4e 7a bc
       0.042474985 0.12405591 0.025269667 -0.015277581
000100 7a 91 c8 bd ed 40 e3 3b ae e5 19 3d 45 5c 0b bd
       -0.097933725 0.00693523 0.037572555 -0.034023542
000110 a9 30 65 bd 99 7c b1 bd a3 a3 63 3b fa b2 d4 3b
       -0.05595461 -0.08666343 0.0034734986 0.006491062
000120 8f 8a 95 bd b7 d7 a4 bd a3 14 9b bd 2f 18 53 bd
       -0.073018186 -0.08048957 -0.075722955 -0.051536735
000130 ca cc 14 3d 4e 15 c6 bd cb 41 9b bc d3 1b a0 bd
       0.036328115 -0.09672032 -0.018952271 -0.07817807
000140 fa 2f 36 bd 38 fb 84 bd 35 41 4d be 8c d5 ac bd
       -0.044479348 -0.06493229 -0.20044406 -0.08439168
000150 64 37 c2 bd 6d 2b 34 bd 0f c5 ea bd 2b b7 70 be
       -0.09483221 -0.043986727 -0.11463367 -0.23507373
000160 82 1a 02 be 8a cf a8 bd 43 53 ec bd 71 d9 86 be
       -0.12705424 -0.0824271 -0.115393184 -0.2633777
000170 9a dc 5e be b0 ab 4d be 05 5f 05 be 87 57 bb bd
       -0.2176384 -0.20085025 -0.13024528 -0.09147554
000180 80 12 dd bd 02 2d a8 bd 00 07 87 bd a6 ff 5a 3c
       -0.10794544 -0.082117096 -0.06593132 0.013366615
000190 31 ef 94 3d 8c e3 35 3d cb ef ef 3c c1 af 53 bc
       0.07272185 0.04440646 0.029289147 -0.012920321
0001a0 08 9d ad 3b f2 31 72 3c ac 5b a5 3c 3c d8 1a bd
       0.0052982606 0.014782416 0.020185314 -0.037803873
0001b0 bb f9 5d bd 3c ad 1f bd a3 c0 93 3d 34 de ca bb
       -0.05419324 -0.03898357 0.07214477 -0.0061910395
0001c0 a6 1b c1 bc 66 c6 d8 bc 1c 78 dc 3c 02 42 4a bc
       -0.023572754 -0.026461791 0.026912741 -0.012344839
0001d0 43 65 d6 bd b9 36 48 bd 10 c3 c3 bd b8 15 01 3c
       -0.10468533 -0.048880313 -0.095586896 0.007878713
0001e0 fd 1d 38 3c c7 12 7a bd 52 52 32 3d a1 5a 26 bd
       0.0112376185 -0.061053064 0.043535538 -0.040613774
0001f0 d0 9d 4b 3d 47 c2 4e 3b 6d 82 8d bc 2d 03 88 bd
       0.04971105 0.0031548904 -0.017274106 -0.06641231
000200 6e 4d 98 bd a3 ad 21 bd e5 16 8b bd e6 b0 73 bd
       -0.074366435 -0.039472234 -0.06791476 -0.059494875
000210 12 09 42 be 06 e6 01 be 3f 25 f2 bd bd a5 9d bd
       -0.18948773 -0.12685403 -0.118235104 -0.07697628
000220 2d 63 e2 bd 7b a4 9a be d9 47 37 be 34 30 1d be
       -0.110540725 -0.30203614 -0.17898501 -0.1535042
000230 a0 a0 8b bd 3b 53 05 be 56 ae 64 be 81 8d 0a be
       -0.06817746 -0.13020031 -0.22332129 -0.13530542
000240 3a 00 03 be a4 60 f1 bc a6 1b 90 bd 50 34 ad bd
       -0.12793055 -0.029465027 -0.070365235 -0.084572434
000250 4d e6 84 bd 60 7b f1 bc 63 d9 21 3d 6b 6e 1b 3d
       -0.06489239 -0.029477775 0.039513957 0.0379471
000260 93 8c a1 3d e5 df f1 3c c8 08 0c 3d cc 30 4c 3d
       0.078881405 0.029525707 0.034188062 0.049851224
000270 3d 73 6a 3d 35 b7 11 3e da 6c 35 3d e6 cf 8c 3d
       0.057238806 0.14230044 0.044293262 0.06875591
000280 9f 19 da 3d 20 29 d8 3d 3f bd 32 3e ea 23 e5 3d
       0.10649418 0.10554719 0.17455004 0.11188491
000290 2c 6f f8 3d 28 66 9b 3c e5 11 39 3d e8 cb bb 3d
       0.12130579 0.01896961 0.04518308 0.091697514
0002a0 20 9d 63 3d 26 b7 89 3d 26 4d 19 3d 13 99 70 3d
       0.055569768 0.06724386 0.03742709 0.058739733
0002b0 b0 f2 88 3d 58 27 9f 3d 11 69 67 3d 01 83 5a bd
       0.06686914 0.07771176 0.056496684 -0.05334759
0002c0 43 b7 69 bd 00 fc bd bd 7e 0b 20 bd ea 78 21 bd
       -0.057059538 -0.09276581 -0.03907346 -0.039421953
0002d0 d0 66 be bd ee d7 68 bd 34 49 e0 bd d3 b0 8d bd
       -0.09296954 -0.05684655 -0.109514624 -0.06918492
0002e0 1a e0 6a bd 16 4f dc bd 4f 26 ea bd f7 11 21 be
       -0.057342626 -0.10757272 -0.11433088 -0.1572951
0002f0 2b fc dc bd d8 a1 ce bd 1e c1 94 bd 56 6c 72 bd
       -0.10790285 -0.10089463 -0.07263397 -0.05918535
000300 46 4b f0 bd 2b f3 8f bd 3c 4f 85 bd f8 f5 c0 bc
       -0.11733107 -0.070288025 -0.065092534 -0.023554787
000310 ef 2d d9 bc aa f0 9d bd 4f 81 48 bd 37 e6 52 bd
       -0.02651116 -0.07711919 -0.048951443 -0.05148908
000320 75 24 17 3d 66 d3 99 3c 76 a7 18 3d 08 e1 ae bb
       0.036900003 0.01877756 0.03726908 -0.0053368844
000330 ae ff fe ba 86 58 3b 3d f5 2e 5f 3c 67 a8 33 3d
       -0.0019454861 0.04573872 0.013622035 0.043861773
000340 b9 ea 04 3c c1 8f cd 3c 05 87 48 3d fc 8d 9c 3c
       0.008112603 0.025092961 0.04895689 0.019110672
000350 ea b1 8c 3d c5 1f 36 3d 32 05 9c 3d 5a ef d6 3c
       0.06869872 0.04446389 0.076181784 0.026237179
000360 f0 74 89 3c c4 85 2f 3d 15 76 67 3c c5 91 11 3d
       0.016779393 0.04285218 0.014127274 0.035539407
000370 24 2b b1 3c 24 ba ca 3c 80 ff 46 3d 3d af cb 3c
       0.021627016 0.024746962 0.048583508 0.024863834
000380 a0 60 1e 3d e3 0d 9c 3c f4 2c 61 3d 78 ed 43 3e
       0.038666368 0.01904959 0.05497451 0.19133556
000390 79 c9 f9 3d 56 2f 05 3d e9 75 05 3e ad 6a 80 3e
       0.12196631 0.032515846 0.1303326 0.25081387
0003a0 65 d8 c4 3e 44 26 53 3e 4a 93 d4 3d 1a d7 4c 3e
       0.38446346 0.20620066 0.10379656 0.2000393
0003b0 b8 b8 a3 3e 65 a9 d7 3e 41 c9 3d 3e 13 7d 6d 3d
       0.31976867 0.42121425 0.18533804 0.05798061
0003c0 68 f9 b6 3d 40 83 26 3e 20 82 5f 3e d7 b0 92 3d
       0.08934289 0.16261005 0.21826982 0.07162636
0003d0 ea ec a6 bc d2 f7 73 3c 2b 58 83 3d ed 76 1a 3d
       -0.020376641 0.014890628 0.06413301 0.037711073
0003e0 36 d0 06 bd 90 e4 98 bd a9 db 1a 3d 39 7b b0 3d
       -0.03291341 -0.0746547 0.03780714 0.08617253
0003f0 eb ad 10 3e 3a 60 9f 3d 6f dd 05 3d 94 92 02 3e
       0.14128844 0.07782026 0.03268188 0.12751228

dec_layer_3.0.bias f4 [3]
000000 da a4 14 bb 47 a0 56 3c b7 75 df 3a
       -0.0022681267 0.0130997365 0.0017048632
