save/updated_model_exp/gen_model.pt (torch, 51145 bytes, 10 tensors)

enc_layer_1.0.weight f4 [32, 3, 5, 5]
0	0x3d5d1e59	0.05398402
1	0xbd701160	-0.05861032
2	0xbdf5bf5b	-0.11999389
3	0xbda19017	-0.07888811
4	0xbdbaf817	-0.09129351
5	0x3e193dee	0.1496503
6	0x3e00664d	0.12539025
7	0xbda7ee3b	-0.08199736
8	0xbe13cb8f	-0.1443312
9	0xbdb57700	-0.08860588
10	0xbced6e1f	-0.028983174
11	0x3b5bd27d	0.003354221
12	0x3d99e379	0.0751409
13	0xbd26aabc	-0.04069017
14	0xbde7b872	-0.11314477
15	0x3c12cbb7	0.008959702
16	0x3b57ed93	0.0032948002
17	0x3df8e214	0.12152496
18	0x3ce1fbe5	0.027585933
19	0xbd45c624	-0.048284665
20	0xbc858232	-0.016297434
21	0xbdac678d	-0.08418188
22	0xbc1aa6d4	-0.009439189
23	0xbd8cf355	-0.068823494
24	0xbd0c5287	-0.03425839
25	0xbd963765	-0.073347844
26	0x3dd93571	0.10605896
27	0xbd183cb5	-0.03716727
28	0x3c41d8a2	0.011831434
29	0x3a226515	0.0006194872
30	0x3dbfa9a4	0.09358528
31	0x3cfa9985	0.030590782
32	0x3cbc8ca5	0.023016283
33	0xbe070d01	-0.13188554
34	0xbc691aab	-0.01422755
35	0x3dd566f2	0.10420026
36	0x3e04e876	0.12979302
37	0x3e281f62	0.16418222
38	0xbceb42b4	-0.02871833
39	0xbdc286b8	-0.09498352
40	0x3d860131	0.06543196
41	0x3e0cc1f2	0.1374586
42	0x3cf54191	0.029938491
43	0x3d2eee01	0.042707447
44	0xbda224ea	-0.07917197
45	0x3d425a38	0.04744932
46	0x3dfaa84c	0.12239131
47	0xbd08c5e8	-0.033391863
48	0xbded6bc5	-0.11592821
49	0xbbc4bc33	-0.0060038804
50	0x3dd055cb	0.10172614
51	0xbd3f0897	-0.04663905
52	0x3d50f43e	0.051014178
53	0xbda53a9a	-0.08067818
54	0xbdf10503	-0.11768534
55	0x3c027002	0.007961275
56	0x3d3e0a63	0.046396624
57	0x3e107b04	0.14109427
58	0xbb8994ce	-0.004198647
59	0x3d1bf2b3	0.038073253
60	0x3dd55a06	0.10417561
61	0x3ca29089	0.01984431
62	0x3e01a91b	0.12662165
63	0xbc66dc79	-0.014090651
64	0xbe00908c	-0.1255514
65	0xba93a20f	-0.0011263507
66	0x3e09b417	0.13447605
67	0xbc7b7bce	-0.015349342
68	0x3d1afb22	0.037837155
69	0x3d030220	0.03198445
70	0x3d869a13	0.06572356
71	0x3cde6613	0.027148282
72	0xbd82a416	-0.06378953
73	0xbd4935fb	-0.049123745
74	0xbd4886ee	-0.048956804
75	0xbe03f4a3	-0.1288629
76	0xbd12e919	-0.03586683
77	0x3d6dd017	0.058059778
78	0x3c0cca43	0.008593145
79	0xbd8ea9a4	-0.0696595
80	0xbe122c5c	-0.14274734
81	0x3d2b4beb	0.041820448
82	0x3b0734c1	0.002063081
83	0x3da2d6a0	0.07951093
84	0x3d082a12	0.033243246
85	0x3d29d250	0.041460335
86	0x3df1d706	0.118085906
87	0x3c843add	0.01614135
88	0x3d19d81d	0.037559617
89	0xbe0696e7	-0.13143502
90	0xba6cad5b	-0.00090285175
91	0x3d7cb584	0.061696544
92	0xbdd70e7f	-0.10500812
93	0x3d4c5dbc	0.04989408
94	0x3ccb10be	0.024788257
95	0xbc54b25a	-0.012981975
96	0x3c413332	0.011791991
97	0xbe01fb88	-0.12693608
98	0xbe200c9c	-0.1562981
99	0xbdeebe4d	-0.11657391
100	0xbd4f9ab7	-0.050684657
101	0x3ca8794b	0.02056565
102	0x3d9d06b8	0.07667297
103	0xbcf24054	-0.02957169
104	0xbc9b8a2e	-0.018986788
105	0x3ba69fdc	0.0050849747
106	0xbcd5b98f	-0.026089458
107	0x3e1c4c34	0.15263444
108	0xbd73901d	-0.05946361
109	0x3cf33d2f	0.02969226
110	0x3d17d376	0.0370669
111	0xbcc9f2a6	-0.024651837
112	0x3dd0c41d	0.10193656
113	0x3d2db7b3	0.042411517
114	0x3da91757	0.08256405
115	0xbe0b31a8	-0.13593161
116	0xbda9ff23	-0.083006166
117	0x3dca8c40	0.09890032
118	0xbcff3390	-0.031152517
119	0x3dbe86bb	0.093030415
120	0xbda8092e	-0.08204876
121	0xbd60c31b	-0.054873567
122	0xbdd05dbb	-0.10174128
123	0xbd0fc74a	-0.035102166
124	0xbd3d0440	-0.04614663
125	0x3c5c64c4	0.013451759
126	0x3ded5030	0.1158756
127	0x3dc433ac	0.09580168
128	0xbd890b80	-0.066916466
129	0xbd9f23af	-0.07770478
130	0x3e1447a4	0.14480454
131	0x3c441623	0.011968168
132	0x3da5a650	0.08088362
133	0x3d9f9a32	0.07793082
134	0x3d8fc5fa	0.07020183
135	0xbdd3f6ba	-0.10349794
136	0xbd6bd23c	-0.057573542
137	0x3e3ca455	0.18422063
138	0x3df268ce	0.11836396
139	0xbcadd664	-0.021220393
140	0x3dbb704e	0.0915228
141	0x3d36b873	0.0446095
142	0xbd927048	-0.07150322
143	0x3d47fb91	0.048823897
144	0xbdc6270d	-0.09675417
145	0x3ceca9b6	0.028889518
146	0xbb2d3e7e	-0.0026434953
147	0x3d0b0bf6	0.033946954
148	0xbce7e3a9	-0.028306799
149	0xbcb374dd	-0.02190631
150	0x3cf07160	0.029350936
151	0x3e051098	0.12994611
152	0xbbc2a221	-0.0059397374
153	0xbd8e4f39	-0.06948704
154	0xbdd6818c	-0.10473928
155	0xbd41c46a	-0.047306456
156	0x3e12c3af	0.1433246
157	0xbd2ef99a	-0.042718507
158	0x3d997562	0.07493092
159	0xbc26fe64	-0.010192487
160	0x3cb23184	0.021752127
161	0x3e1df535	0.1542557
162	0x3baccc82	0.0052734027
163	0xbc298bcb	-0.010348271
164	0x3d1719e6	0.036889933
165	0xbdaa889c	-0.083268374
166	0x3d3a98ef	0.045556005
167	0x3d974649	0.07386453
168	0xba298c2a	-0.00064677245
169	0xbce4a90e	-0.027912643
170	0xbc84ad79	-0.016196
171	0x3da7ad91	0.08187402
172	0xbc7ad29e	-0.015309004
173	0x3ccec837	0.025241954
174	0xbd8132ff	-0.06308555
175	0x3d0b431f	0.03399956
176	0x3cc10849	0.023563521
177	0x3c5a506c	0.013324838
178	0x3d901f71	0.07037247
179	0xbd2e83cc	-0.04260616
180	0x3d589045	0.05287196
181	0x3e058635	0.13039477
182	0x3ddac47c	0.10682008
183	0x3d831469	0.06400377
184	0x3db0fc28	0.08641845
185	0x3e057d10	0.13035989
186	0x3d550821	0.052009705
187	0x3d2b0af5	0.041758496
188	0xbce24490	-0.027620584
189	0x3d9d8e8a	0.07693203
190	0x3d922a89	0.07137019
191	0x3db36400	0.08759308
192	0x3dfed3cf	0.12442743
193	0xbce2e841	-0.027698638
194	0x3d90ce23	0.070705675
195	0x3c63ef2a	0.013912002
196	0xbc982976	-0.018574458
197	0xbd8cb4d2	-0.06870426
198	0x3dc0e877	0.09419339
199	0x3d8a4633	0.06751671
200	0xbcd32a4f	-0.02577701
201	0x3ccf95a7	0.025339914
202	0xbd0e902b	-0.034805458
203	0xbc3454c2	-0.011006536
204	0xbc162eb7	-0.009166411
205	0x3cd06899	0.025440501
206	0xbab704a8	-0.001396318
207	0x3d1bc397	0.038028326
208	0x3cf5b1c0	0.029991984
209	0xbccd17a2	-0.025035683
210	0xbdd37dc3	-0.103267215
211	0xbd1f327b	-0.0388665
212	0x3cfd2537	0.030901534
213	0x3d97c117	0.07409876
214	0xbcfcf410	-0.030878097
215	0xbe0af893	-0.13571386
216	0xbd49ee8d	-0.049299765
217	0x3d611e6e	0.05496066
218	0xbdd83e25	-0.10558728
219	0xbcebfa9f	-0.028806029
220	0xbd746340	-0.059664965
221	0xbd7bd7a2	-0.06148494
222	0xbd936969	-0.0719784
223	0xbdf76d4f	-0.12081396
224	0xbda97653	-0.08274522
225	0xbe1b0ab9	-0.15140809
226	0x3da30b9b	0.07961198
227	0x3e19001e	0.14941451
228	0x3d94f139	0.07272572
229	0x3db481ae	0.08813797
230	0xbde85581	-0.113444336
231	0x3c7387d2	0.014863925
232	0xbd81a92f	-0.06331097
233	0x3dbf4c4f	0.093407266
234	0x3e1d1132	0.1533859
235	0xbe1f7e44	-0.1557551
236	0xbe1bbf34	-0.15209657
237	0xbde398e3	-0.11113145
238	0x3b99260a	0.004673724
239	0x3e1ee4c9	0.15516962
240	0xbe6312a4	-0.2217508
241	0xbc4c47ef	-0.012468322
242	0xbc3f6b4f	-0.011683299
243	0x3d9561a2	0.072940126
244	0x3d5691ad	0.05238502
245	0x3d01db97	0.031703558
246	0xbe2fea7f	-0.17179297
247	0xbdefd91f	-0.117113344
248	0x3d82e680	0.06391621
249	0x3cef9fd9	0.029251026
250	0x3d134130	0.03595084
251	0x3dee47c1	0.1163478
252	0x3d8f5080	0.06997776
253	0x3d4b563f	0.049642798
254	0x3d45b803	0.04827119
255	0xbd3436de	-0.043997638

enc_layer_1.0.bias f4 [32]
0	0xbe14e103	-0.1453896
1	0x3e41127e	0.1885471
2	0xbc3e682f	-0.011621519
3	0xbdfa917f	-0.122347824
4	0x3cb29d96	0.021803658
5	0x3cb9929c	0.022652917
6	0x3e4fc01b	0.20288126
7	0x3b9e534b	0.0048317066
8	0xbe54bd2a	-0.20775285
9	0xbec4d3b4	-0.38442767
10	0x3dea2fa3	0.11434867
11	0x3e084d22	0.13310674
12	0x3df1e3a4	0.11810997
13	0xbebff79e	-0.37493604
14	0xbe920273	-0.28517494
15	0xbe1ca3cf	-0.15296863
16	0xbe94a2db	-0.290305
17	0xbe208212	-0.15674618
18	0xbdee2cca	-0.116296366
19	0xbc208c73	-0.009799111
20	0xbdc6cee2	-0.097074285
21	0x3da6877c	0.0813131
22	0xb9ff3203	-0.00048674652
23	0xbbccb2e7	-0.0062469128
24	0xbe9fa46b	-0.31180128
25	0xbc3781b6	-0.011200359
26	0x3cec7f44	0.028869279
27	0xbe4df39d	-0.20112462
28	0x3e0642ad	0.13111372
29	0x3e146113	0.14490156
30	0xbecdb085	-0.40173736
31	0x3dfe6dc5	0.124232806

enc_layer_2.0.weight f4 [16, 32, 3, 3]
0	0x3e4ed25b	0.20197432
1	0x3ce41bf9	0.02784537
2	0xbb799346	-0.0038082167
3	0x3e831cd1	0.25607923
4	0x3c4d9a0a	0.012548933
5	0x3d9de60a	0.07709892
6	0x3e35a89a	0.17740098
7	0x3d6e78e3	0.058220755
8	0x3d383543	0.04497267
9	0x3d162b91	0.036662642
10	0xbdc520a7	-0.096253686
11	0xbcadeb9e	-0.021230515
12	0x3d96c8ac	0.07362494
13	0x3d02e6d5	0.03195842
14	0x3dab5297	0.08365362
15	0xbb818274	-0.003952319
16	0x3d444c5e	0.047924392
17	0xbcca3aa5	-0.024686167
18	0x3c8fecb1	0.017568918
19	0xbdceafbb	-0.10092112
20	0xbdb84a1e	-0.08998512
21	0xbbc4a3c5	-0.006000968
22	0xbc45ba8d	-0.012068403
23	0xbd6b0533	-0.057378005
24	0x3ce0fe20	0.027464926
25	0xbd96beb2	-0.07360591
26	0xbb7f1a97	-0.003892576
27	0x3e4c9eeb	0.19982497
28	0x3e1a1667	0.15047608
29	0x3e12cf24	0.1433683
30	0x3cffe9ce	0.031239416
31	0x3e3952c4	0.18097979
32	0xbc52d6b1	-0.012868569
33	0xbd8636c5	-0.06553415
34	0x3e16b8cf	0.14718936
35	0x3bc0df42	0.0058859894
36	0x3d7143fb	0.05890272
37	0xbd2b8780	-0.04187727
38	0x3dfc5d82	0.12322523
39	0xbc557235	-0.013027717
40	0x3d1a3869	0.037651453
41	0x3d2ce063	0.04220618
42	0x3d4ce855	0.050026257
43	0x3e1a32dd	0.15058465
44	0x3d809933	0.062792204
45	0x3e0ccbda	0.13749638
46	0x3cfec10b	0.03109791
47	0xbc9ff6b1	-0.019526811
48	0x3da49c09	0.08037574
49	0xbccd5e8e	-0.025069501
50	0xbccb5ea2	-0.024825398
51	0x3dc568f7	0.09639161
52	0xbd3886e1	-0.045050506
53	0x3d833f91	0.06408609
54	0x3e1bab12	0.15201977
55	0xbd6c229a	-0.057650186
56	0x3e03e04b	0.1287853
57	0x3d918756	0.071058914
58	0xbbf2b86b	-0.0074072382
59	0x3d76fdf3	0.06030078
60	0x3d9005ee	0.07032381
61	0xbc5a1352	-0.01331027
62	0x3db524f2	0.088449374
63	0x3d406ed1	0.046980683
64	0x3e3d05c2	0.18459228
65	0xbe7ba524	-0.24574715
66	0x3dfc1dd5	0.123103775
67	0xbde625e5	-0.112376966
68	0xbd350aaa	-0.044199623
69	0x3de8f0b9	0.11374039
70	0xbe139602	-0.14412692
71	0x3dc9a885	0.09846596
72	0x3e0e0dad	0.13872404
73	0xbe43dec3	-0.19127946
74	0xbe0f3907	-0.13986598
75	0x3e40243c	0.18763822
76	0xbe66aa0b	-0.22525804
77	0x3d0d6a4d	0.034525204
78	0x3d4c847a	0.049931027
79	0xbde2a260	-0.11066127
80	0x3d790ac6	0.06080129
81	0x3e10923c	0.14118284
82	0xbd7cf859	-0.06176028
83	0xbea20007	-0.31640646
84	0x3e45af9c	0.19305271
85	0xbea83681	-0.32854083
86	0xbe145f7f	-0.14489554
87	0x3e1e1c7d	0.15440555
88	0xbe0a2f02	-0.13494495
89	0xbc466044	-0.012107912
90	0x3cdcf2f4	0.026971318
91	0xbda5a333	-0.080877684
92	0xbd4853f6	-0.048908196
93	0xba0d5a36	-0.00053921656
94	0xbdb0a471	-0.08625115
95	0x3da30d08	0.0796147
96	0x3d97572a	0.07389672
97	0xbddfb0b7	-0.109223776
98	0x3c1fef31	0.0097616175
99	0x3da403b9	0.080085225
100	0x3dea4b34	0.11440125
101	0xbce7edff	-0.028311728
102	0x3e52aebc	0.20574468
103	0xbc8dcd83	-0.01730991
104	0x3cdd7efb	0.027038088
105	0x3da846a8	0.082166016
106	0xbd1b3029	-0.037887726
107	0x3c8ee3d2	0.017442618
108	0x39b4457f	0.00034384054
109	0xbdceefff	-0.10104369
110	0xbe186f54	-0.14886218
111	0x3d3656e0	0.044516444
112	0xbddb0840	-0.10694933
113	0xbd02b40b	-0.031909984
114	0xbdcd0488	-0.1001063
115	0xbbd4a4a7	-0.0064893547
116	0x3d89d15a	0.06729384
117	0xbc5d2ba0	-0.013499171
118	0xbe97f3af	-0.29678103
119	0xbca9a33b	-0.020707717
120	0xbd70071a	-0.058600523
121	0x3d4c62b4	0.049898818
122	0x3e384895	0.17996438
123	0xbc1ea57a	-0.009683007
124	0x3d6358a7	0.055504467
125	0x3d82f198	0.063937366
126	0x3c4b7252	0.012417393
127	0xbe43e25e	-0.19129321
128	0xbe0448a2	-0.12918332
129	0xbc982dd0	-0.018576533
130	0xbe928b09	-0.286217
131	0xbe21bd4a	-0.15794864
132	0xbd5c131e	-0.05372917
133	0xbe02a737	-0.127591
134	0xbd5b972a	-0.05361096
135	0xbdff2468	-0.12458116
136	0xbcde346a	-0.027124602
137	0xbde1d74d	-0.110273935
138	0xbe1d5db3	-0.15367775
139	0xbd50f0ed	-0.051011015
140	0xbdf2e326	-0.118597314
141	0xbe1453ed	-0.1448514
142	0xbbe86e00	-0.007093191
143	0xbdfcb986	-0.12340073
144	0x3d99e8d1	0.07515109
145	0xbdb460ec	-0.08807549
146	0x3e4964e7	0.19667397
147	0xbcec29e0	-0.028828561
148	0x3cad44e9	0.021151023
149	0x3e85da2f	0.26143023
150	0xbc0d3bab	-0.008620183
151	0x3aa9bbcf	0.0012949648
152	0xbcc06a9d	-0.023488337
153	0x3d829462	0.06375958
154	0x3e8708f5	0.2637402
155	0x3e65076b	0.22366111
156	0x3e9ea16d	0.30982533
157	0x3efe8356	0.49709576
158	0x3e743652	0.23848847
159	0x3ebc6a4b	0.36799845
160	0x3e945a15	0.28974977
161	0x3e134ef4	0.14385587
162	0x3d62031a	0.05517874
163	0x3d2830eb	0.041062277
164	0xbd355009	-0.04426578
165	0x3cd3a063	0.025833314
166	0xbd2b5b7e	-0.0418353
167	0xbb19e922	-0.0023484905
168	0xbc30642c	-0.01076607
169	0xbd12dc03	-0.03585435
170	0xbcd778d4	-0.026302733
171	0xbd914a64	-0.07094267
172	0xbe0c99fd	-0.13730617
173	0xbd40ab4d	-0.047038365
174	0xbd15858a	-0.036504306
175	0xbcac921f	-0.02106577
176	0x3d2558fc	0.040368065
177	0xbd9a0a98	-0.07521552
178	0x3d78c9eb	0.06073944
179	0xbda5b296	-0.08090703
180	0x3ddc53f7	0.107582025
181	0x3d10bdb7	0.035337176
182	0x3d4133d6	0.047168575
183	0xbbe65360	-0.007028982
184	0x3e1d8a9e	0.1538491
185	0x3da94c54	0.082665116
186	0x3d2f71e7	0.042833235
187	0x3dacbab5	0.08434049
188	0xbbc483bf	-0.0059971507
189	0xbbaade4d	-0.0052144886
190	0xbda1ddca	-0.07903631
191	0x3d44f91a	0.048089124
192	0xbd44f0ae	-0.048081093
193	0x3d6cfd50	0.057858765
194	0x3cada4be	0.02119672
195	0xbda91a55	-0.082569756
196	0x3cbc63d2	0.022996817
197	0x3bec2d6f	0.0072075645
198	0xbd5e89d2	-0.054330654
199	0x3b1e5b59	0.0024163334
200	0xbdc724c8	-0.09723812
201	0x3d7ab655	0.06120904
202	0x3ccd5dcd	0.025069142
203	0xbd90114e	-0.070345506
204	0xbbac25d8	-0.0052535348
205	0xbce1b1d1	-0.02755061
206	0xbc397ec7	-0.01132173
207	0x3d0d88cf	0.0345543
208	0xbe0d3c9d	-0.13792653
209	0x3cc301d4	0.023804583
210	0x3cd0de70	0.025496691
211	0xbdb4f2e8	-0.08835393
212	0xbc901729	-0.017589169
213	0xbdc0443d	-0.093880154
214	0x3ccc415c	0.02493351
215	0xbcaeb748	-0.02132763
216	0x3e11963f	0.1421747
217	0xbe49da44	-0.19712168
218	0xbe3b457c	-0.18288225
219	0x3dab8d48	0.08376557
220	0xbd89d847	-0.06730705
221	0x3c81974c	0.015819214
222	0x3d6af149	0.057359014
223	0xbda14aea	-0.07875617
224	0xbdf13aa6	-0.117787644
225	0xbc58e1b2	-0.013237404
226	0xbdb67f27	-0.08910971
227	0xbd1023ab	-0.035190266
228	0xbd9abd85	-0.07555679
229	0xbd811049	-0.06301934
230	0xbd7e771d	-0.062125314
231	0xbdaa7f3f	-0.083250515
232	0x3cdc7ef0	0.026915997
233	0x3ab969b3	0.0014145881
234	0xbcc54412	-0.02408031
235	0xbd8ed136	-0.069734976
236	0xbd483872	-0.048881955
237	0xbd910b6d	-0.070822574
238	0xbd88a499	-0.066720195
239	0x3d1a0d69	0.037610445
240	0xbd41dc76	-0.04732939
241	0xbbc66909	-0.0060550016
242	0xbd4e6db8	-0.050397605
243	0x3c732b52	0.014841871
244	0x3cf524b5	0.02992473
245	0xbc249377	-0.010044924
246	0x3db7778a	0.08958347
247	0xbc18a01c	-0.009315517
248	0xbca6c221	-0.02035624
249	0x3d4f4e90	0.050612032
250	0x3d0ea5d4	0.034826115
251	0x3dafab75	0.08577625
252	0x3df5ff4e	0.12011586
253	0xbd896d8b	-0.06710347
254	0x3afb4c4a	0.0019172516
255	0x3d9e15f9	0.07719035

enc_layer_2.0.bias f4 [16]
0	0x3d90210e	0.07037555
1	0x3cddbfd7	0.027069015
2	0xbc208b9a	-0.009798909
3	0x3d6223ad	0.055209804
4	0xbd7dee79	-0.061995003
5	0xbbef6287	-0.0073054465
6	0xbd2b4e79	-0.041822884
7	0x3d4f3ffb	0.050598126
8	0xbc1f0183	-0.00970495
9	0xbcd3c12e	-0.025848951
10	0x3d3c90a1	0.046036366
11	0xbd37fb56	-0.044917427
12	0xbd1865e8	-0.03720656
13	0x3d79d8ad	0.060997654
14	0x3cc2b6ad	0.023768747
15	0xbd8d68ea	-0.069047764

enc_layer_large.0.weight f4 [12, 16, 3, 3]
0	0x3de4562e	0.1114925
1	0xbd284617	-0.041082468
2	0xbd344e94	-0.04402025
3	0x3e97bcfa	0.29636365
4	0x3e37378e	0.17892286
5	0x3d364641	0.044500593
6	0xbe19c599	-0.15016784
7	0xbb82547a	-0.0039773555
8	0xbc5abe33	-0.013351011
9	0x3da84508	0.08216292
10	0xbe2ed4b7	-0.17073332
11	0xbc7f2c02	-0.015574457
12	0x3c891bf9	0.016736971
13	0x3e7f0dec	0.24907655
14	0xbcfb41c3	-0.030671006
15	0xbddceebc	-0.107877225
16	0x3cdf4f17	0.027259393
17	0xbd7cd03a	-0.061722018
18	0x3cd4d658	0.025981113
19	0xbc51d5d7	-0.012807331
20	0x3dd606c9	0.10450513
21	0xbda16abc	-0.07881686
22	0xbd821aee	-0.06352793
23	0x3cae7e4e	0.021300461
24	0x3d8411da	0.064487174
25	0xbd28434d	-0.041079808
26	0x3d9f6c93	0.07784381
27	0x3d7ee46b	0.062229555
28	0xbd77d99e	-0.06051027
29	0x3dc77f64	0.09741095
30	0x3d4ae1ee	0.04953187
31	0xbd478262	-0.048708327
32	0xbd91f3b0	-0.07126558
33	0x3e0ae0ef	0.13562368
34	0x3e1276eb	0.14303176
35	0x3cfb3aba	0.030667651
36	0x3d873398	0.066016376
37	0x3ca4551e	0.020060118
38	0xbd9b3bd3	-0.0757977
39	0xbd3aa5c1	-0.04556823
40	0x3c445f68	0.011985637
41	0x3d06c027	0.032898095
42	0x3ddbb553	0.10727944
43	0x3c422468	0.0118495
44	0xbc94467d	-0.018100018
45	0xbde22437	-0.11042064
46	0xbbacfa39	-0.0052788523
47	0x3cb5cd3a	0.022192586
48	0x3e50d719	0.20394553
49	0x3e908a1d	0.28230372
50	0x3db54188	0.0885039
51	0xbd6d6764	-0.05795993
52	0x3b4073d8	0.0029365923
53	0x3d16e9f9	0.036844227
54	0xbcee85af	-0.02911648
55	0xbd11ee28	-0.035627514
56	0xbc15c9f2	-0.009142386
57	0xbe63cca4	-0.22246033
58	0x3ce4febc	0.027953498
59	0xbda4e91c	-0.080522746
60	0xbcdeb7b6	-0.02718721
61	0xbb376430	-0.00279833
62	0x3cb03d4e	0.021513607
63	0xbe2564b8	-0.16151702
64	0xbd81ad7c	-0.06331918
65	0xbd1a84c9	-0.03772429
66	0xbd45e790	-0.04831654
67	0x3e121152	0.1426442
68	0xbd192fd7	-0.03739914
69	0xbd072421	-0.03299344
70	0xbc58f6e6	-0.013242459
71	0x3d8e40f7	0.06945985
72	0xbcafdeee	-0.021468606
73	0x3c4afcbd	0.012389359
74	0x3ce861d5	0.028366962
75	0xbd3bf6d8	-0.045889705
76	0x3d049d8b	0.032376807
77	0x3be3f4bd	0.0069566653
78	0xbd1cd64d	-0.03829031
79	0xbc0eca3a	-0.008715207
80	0xbb6267bd	-0.0034546696
81	0x3ce3b61f	0.027796803
82	0x3d0162e0	0.031588435
83	0x3d75127c	0.05983208
84	0xbe691f17	-0.22765766
85	0xbdc7dabd	-0.09758518
86	0xbceeee7c	-0.029166453
87	0x3d2a7529	0.04161564
88	0x3da4d2af	0.08047997
89	0x3d4ebb83	0.050471794
90	0x3def7475	0.11692134
91	0xbcf50d6b	-0.029913625
92	0x3c9318fc	0.01795625
93	0xbde9ecc8	-0.114221156
94	0x3eca8dab	0.3956121
95	0xbd66e5a9	-0.056371365
96	0xbd73c624	-0.059515134
97	0xbdb870ab	-0.09005865
98	0xbc620bad	-0.013796729
99	0x3d09d482	0.03364993
100	0x3d8f0176	0.069827005
101	0x3c1fc0d3	0.009750563
102	0xbd5fe14d	-0.054658223
103	0x3ca64ee2	0.020301286
104	0xbcc2e906	-0.023792755
105	0x3c1a9223	0.009434256
106	0xbd84fcce	-0.06493531
107	0x3d71125d	0.058855403
108	0x3dbac7d8	0.091201484
109	0xbe130f85	-0.14361389
110	0xbcbac8f6	-0.022800904
111	0x3e9a2d2c	0.30112588
112	0x3ddbb415	0.10727707
113	0x3d4abeec	0.049498484
114	0xbcc7dc95	-0.024397174
115	0xbd1f1aca	-0.038843907
116	0xbd0f95d9	-0.035055015
117	0xbda9606d	-0.08270345
118	0x3d696d85	0.05698921
119	0x3c995018	0.01871495
120	0x3df5a463	0.11994245
121	0x3dd48fe0	0.103790045
122	0xbda96b88	-0.08272463
123	0xbcf7cd82	-0.030249361
124	0xbd347de4	-0.04406537
125	0x3e055284	0.13019758
126	0xbcb276f9	-0.021785246
127	0x3baa0015	0.005187998
128	0x3db2d6b6	0.08732359
129	0x3c460c88	0.012087949
130	0xbd9194c9	-0.07108457
131	0xbccc00ce	-0.024902727
132	0xbd78f662	-0.060781844
133	0x3ddac502	0.106821075
134	0x3c5754e3	0.013142797
135	0x3d168755	0.036750156
136	0x3cecebdf	0.028921066
137	0xbcdb8579	-0.026797043
138	0x3df067ec	0.117385715
139	0x3e8021f4	0.25025904
140	0xbd94e037	-0.07269328
141	0x3cf1b3ac	0.02950462
142	0xbde66b36	-0.112509176
143	0xbd4af5a2	-0.04955066
144	0x3ddb99c5	0.107226886
145	0x3df8ff6f	0.12158095
146	0xbc94871c	-0.018130831
147	0x3e466f71	0.19378449
148	0x3d3acfeb	0.045608442
149	0xbdee212b	-0.1162742
150	0xbce8d8ed	-0.02842375
151	0xbd5762d6	-0.05258449
152	0x3daed4f4	0.08536711
153	0xbec152af	-0.37758395
154	0xbe7853d8	-0.24250734
155	0xbe0fc89a	-0.14041367
156	0xbdaa8a4d	-0.0832716
157	0xbd97be77	-0.07409375
158	0x3cee8514	0.029116191
159	0x3d2171f1	0.039415304
160	0x3d4f29d6	0.050577007
161	0x3caa3e0a	0.020781536
162	0xbdedc41c	-0.116096705
163	0xbdb14111	-0.086549886
164	0xbbf4b2c8	-0.0074676014
165	0xbe70a839	-0.23501672
166	0xbe0ce1c0	-0.13757992
167	0xbd5f05fc	-0.054449067
168	0x3cf592ca	0.029977221
169	0xbdf49481	-0.11942387
170	0x3d98459e	0.074351534
171	0xbc116235	-0.008873512
172	0xbd2a4c98	-0.04157695
173	0x3dccc1ed	0.09997926
174	0x3dabe22b	0.083927475
175	0x3db5dddd	0.08880208
176	0xbb58b423	-0.0033066354
177	0xbd1acd7d	-0.037793625
178	0xbca7257d	-0.020403618
179	0x3d212670	0.039343297
180	0x3e0d991b	0.13827936
181	0x3d1ca24d	0.03824072
182	0x3d32f4d3	0.043690514
183	0xbdaa94e0	-0.08329177
184	0xbd6d81ba	-0.057985045
185	0xbcd0ab58	-0.025472328
186	0xbdb2ff17	-0.08740061
187	0xbd86c853	-0.065811776
188	0xbe370393	-0.17872457
189	0xbd1c5362	-0.038165458
190	0xbcfa3f8a	-0.030547876
191	0x3cb5f2ef	0.022210566
192	0xbe06b9e6	-0.13156852
193	0xbd1f4838	-0.038887233
194	0xbca82d1b	-0.02052932
195	0xbdcf3dd9	-0.101192184
196	0x3b416599	0.002951002
197	0x3d5dec07	0.05418017
198	0x3ceb729f	0.028741179
199	0xbddce426	-0.10785703
200	0x3d113941	0.035454992
201	0xbe838c75	-0.25693098
202	0xbce372bc	-0.02776467
203	0xbd2cfbec	-0.04223244
204	0xbd9b9bec	-0.07598099
205	0xbdbe90e1	-0.09304977
206	0xbd9d7885	-0.07689003
207	0xbdd603b7	-0.10449927
208	0xbba0a9c7	-0.0049030515
209	0xbcb46873	-0.022022462
210	0x3d390ee2	0.04518021
211	0x3d180b85	0.03712036
212	0x3db60cb7	0.08889144
213	0x3c603cf0	0.013686404
214	0xbd2752bf	-0.040850397
215	0x3c3d2991	0.011545555
216	0xbd02cf75	-0.031936128
217	0xbbafea8f	-0.0053685377
218	0x3dc7d104	0.097566634
219	0xbca90611	-0.020632776
220	0x3d4c7c3f	0.049923178
221	0x3dd9c388	0.10632998
222	0x3d801877	0.06254666
223	0xbcd2b6e4	-0.025721975
224	0x3d452044	0.048126474
225	0xbe152528	-0.14564955
226	0x3cb8f170	0.022576064
227	0x3d9681f1	0.07349003
228	0xbd8338a0	-0.06407285
229	0x3e0fca7f	0.1404209
230	0x3dc2e4ae	0.095162734
231	0xbcdc1809	-0.02686693
232	0xbda58096	-0.080811664
233	0xbdcc377e	-0.09971522
234	0x3e70af03	0.23504262
235	0x3dacf744	0.084456
236	0x3dfc3045	0.12313894
237	0xbd52aa7d	-0.05143212
238	0xbd998dd3	-0.07497754
239	0x3d99ead0	0.0751549
240	0xbd824d8d	-0.06362448
241	0xbb9bfb49	-0.00476018
242	0x3d4fe395	0.05075415
243	0x3e1ed2b9	0.15510072
244	0xbc3b9218	-0.011448406
245	0xbd989fb8	-0.07452339
246	0xbcadc1cb	-0.021210572
247	0x3da5a570	0.08088195
248	0xbc66cf08	-0.014087446
249	0xbcacb41e	-0.02108198
250	0x3c5617a8	0.0130671635
251	0x3ce4eb1c	0.02794414
252	0xbc1e06f9	-0.009645217
253	0xbe2d10f6	-0.16901001
254	0x3e512d39	0.20427407
255	0xbd5582dd	-0.052126754

enc_layer_large.0.bias f4 [12]
0	0xbdd5425f	-0.1041305
1	0xbcbfa4d7	-0.023394031
2	0x3d2b3342	0.04179693
3	0x3e0b51ae	0.13605377
4	0xbd9c45ce	-0.07630502
5	0x3bb05d91	0.0053822477
6	0x3c9829e3	0.01857466
7	0x3d6f4c53	0.058422398
8	0xbd049108	-0.032364875
9	0x3c57b64a	0.01316602
10	0xbd630107	-0.0554209
11	0xbcf67af7	-0.030087931

dec_layer_2.0.weight f4 [12, 8, 5, 5]
0	0x3d0bf09b	0.034165006
1	0xbddf7e50	-0.10912764
2	0x3e147d86	0.14501008
3	0xbdcdc797	-0.10047834
4	0xbc3661f3	-0.011131751
5	0x3d8463cb	0.064643465
6	0xbd0e77eb	-0.03478233
7	0x3d10c19a	0.035340883
8	0xbdfc6118	-0.12323207
9	0x3c59ebb5	0.013300826
10	0xbd6a241b	-0.05716334
11	0x3d9779fe	0.07396315
12	0xbec77b17	-0.38961098
13	0x3e65b6bf	0.22432993
14	0xbe89aa0f	-0.26887557
15	0xbd86ea5e	-0.06587671
16	0x3d5e7426	0.054309987
17	0xbe87a12e	-0.26490158
18	0xbd47cd6f	-0.0487799
19	0xbe357be6	-0.17723045
20	0x3d7db641	0.06194139
21	0xbe3ca7c4	-0.18423373
22	0xbdd4d689	-0.10392482
23	0x3e9c4675	0.30522504
24	0xbdbe1aa5	-0.09282426
25	0x3c812ea5	0.015769312
26	0xbc9bfbcd	-0.019040966
27	0xbb89fcd4	-0.0042110477
28	0xbb5c5265	-0.0033618447
29	0xbcbe345a	-0.023218323
30	0xbcbfd95f	-0.02341908
31	0xbd2b1c0e	-0.041774802
32	0xbd94804b	-0.072510324
33	0x3cd31d0b	0.025770685
34	0xbbbea391	-0.0058178385
35	0x3d8c2054	0.068421036
36	0x3d76d13b	0.06025813
37	0xbccc06d1	-0.024905594
38	0x3cae2df0	0.02126214
39	0x3a9720d4	0.0011530169
40	0x3d62819d	0.05529939
41	0x398cc0d5	0.00026846552
42	0x3d1fc9f3	0.039010953
43	0x3e429013	0.19000272
44	0xbce7aabe	-0.028279658
45	0x3dadfc33	0.08495369
46	0x3deb38a3	0.11485412
47	0xbdf330cc	-0.11874542
48	0x3e782052	0.24231079
49	0x3d86b47a	0.06577392
50	0x3b8b9668	0.004259873
51	0x3c9f87d7	0.019473953
52	0xbb8793e6	-0.004137504
53	0x3d196da9	0.037458096
54	0xbbc8e3d4	-0.006130675
55	0xbc73e611	-0.014886395
56	0x3e1adea3	0.15123992
57	0xbd898fde	-0.067168936
58	0x3e369a9d	0.17832418
59	0xbd1a37bd	-0.037650812
60	0xbcb204f2	-0.021730874
61	0x3e29cf25	0.16582926
62	0xbe00db1d	-0.12583585
63	0xbe837bff	-0.2568054
64	0xbce0aae5	-0.027425239
65	0xbd4a1866	-0.049339674
66	0xbd99f7c9	-0.075179644
67	0xbe073414	-0.1320346
68	0x3d4c8297	0.049929228
69	0xbe5833e1	-0.2111354
70	0xbcfa0927	-0.030521942
71	0x3def45b3	0.11683216
72	0xbd02b61c	-0.031911954
73	0x3eaff07a	0.34363157
74	0xbbb53629	-0.005530138
75	0xbd25bc2e	-0.040462665
76	0xbc1ec44b	-0.009690355
77	0xbc6ffeab	-0.01464812
78	0x3c80cdfb	0.01572322
79	0xbd90931a	-0.070593074
80	0xbd935267	-0.071934514
81	0xbd6098f1	-0.054833356
82	0xbcd001e1	-0.025391521
83	0x3b838b43	0.004014404
84	0xbc0e7386	-0.008694535
85	0x3b84848f	0.0040441225
86	0xbc32f37b	-0.010922308
87	0xbce15768	-0.027507499
88	0xbd68a1ae	-0.056794815
89	0xbda8e86f	-0.08247458
90	0xbd09e53b	-0.033665877
91	0x3db2a053	0.08721986
92	0xbdcbb783	-0.099471115
93	0xbc6e71f9	-0.01455354
94	0xbbbe8db0	-0.0058152303
95	0xbc92e929	-0.017933445
96	0xbaf7e224	-0.0018912
97	0xbb44154a	-0.0029919916
98	0x3d183158	0.037156433
99	0x3e099a01	0.13437654
100	0x3c2f3c0a	0.010695467
101	0x3d50cc4a	0.050976075
102	0xbc9c6250	-0.019089848
103	0xbc2fd1e1	-0.010731191
104	0xbccb57da	-0.024822164
105	0x3d64b4a7	0.055836346
106	0xbd3dc438	-0.046329707
107	0xbd8ff290	-0.07028687
108	0x3cd05927	0.025433136
109	0xbd2bb965	-0.041924853
110	0xbcd5e8b5	-0.02611194
111	0x3b3ddb5a	0.0028969855
112	0xbd2acdb9	-0.0417001
113	0xbe0f9c1b	-0.14024393
114	0xbd5240b4	-0.051331237
115	0x3c9e8917	0.019352479
116	0x3db2c27a	0.087285
117	0xbd48249b	-0.048863035
118	0xbdebde6a	-0.115170315
119	0xbd892f22	-0.06698443
120	0x3cbab3d9	0.022790836
121	0x3d1473b7	0.036243167
122	0xbe0ec2c1	-0.1394148
123	0x3e511154	0.20416766
124	0xbcf26fe9	-0.029594379
125	0x3d5a02f2	0.053225465
126	0xbcdd86af	-0.027041761
127	0x3c5ce5f5	0.01348256
128	0xbd31e654	-0.04343255
129	0x3b3353ba	0.0027363137
130	0x3c074199	0.008255386
131	0xbd9878dd	-0.07444928
132	0x3c586182	0.013206841
133	0x3d557598	0.0521141
134	0x3c7858a0	0.015157849
135	0xbde5cd1a	-0.11220761
136	0x3db36c3f	0.08760881
137	0xbe21d573	-0.1580408
138	0x3d392546	0.045201562
139	0xbdf228d8	-0.118241966
140	0x3b84d3a3	0.0040535494
141	0x3cc2121e	0.02369028
142	0xbe0ef143	-0.13959222
143	0x3cb288e5	0.021793792
144	0xbd07b187	-0.033128288
145	0xbcba4f9a	-0.022743035
146	0xbdcc8ff0	-0.099883914
147	0x3e5ad841	0.21371557
148	0x3dd2326d	0.10263524
149	0x3e1f8c5c	0.15580887
150	0x3d982dd4	0.07430616
151	0x3d00806c	0.031372473
152	0x3e001657	0.12508522
153	0x3c8b1419	0.016977357
154	0x3e1095e9	0.14119686
155	0x3cd76ae1	0.026296081
156	0xbe14e35f	-0.1453986
157	0xbc93d235	-0.01804457
158	0x3d424559	0.047429416
159	0x3ce21cb1	0.027601572
160	0x3dcf1f26	0.10113363
161	0xbd711706	-0.058859847
162	0x3ca20647	0.019778384
163	0x3d163a5e	0.036676757
164	0xbd66bde9	-0.056333456
165	0xbdca10e7	-0.09866505
166	0xbe2b63dd	-0.16737314
167	0xbe079364	-0.13239819
168	0x3bf1e7a9	0.0073823524
169	0xbe915238	-0.2838304
170	0x3d03064d	0.03198843
171	0xbe25d273	-0.16193561
172	0xbe4b4d87	-0.19853793
173	0x3d98a804	0.074539214
174	0xbe243393	-0.16035299
175	0x398d99dd	0.00027008253
176	0xbb4eb634	-0.0031541707
177	0xbcebdd79	-0.02879213
178	0xbc39382e	-0.011304898
179	0xbd424bc2	-0.04743553
180	0x3d5c4d37	0.053784575
181	0xbd4177b9	-0.047233317
182	0x3c6a458a	0.014298806
183	0xbc99e252	-0.018784676
184	0xbc10936d	-0.008824212
185	0xbca8c25d	-0.020600492
186	0x3ba116c3	0.0049160435
187	0x3e0cf5f9	0.13765706
188	0xbdd30b7a	-0.10304923
189	0xbe026935	-0.12735446
190	0xbdc14790	-0.094374776
191	0x3da9228b	0.08258542
192	0xbdf6231f	-0.120184176
193	0x3e26dcfe	0.1629524
194	0xbe22279e	-0.15835425
195	0xbdadf6ba	-0.08494325
196	0x3b65c466	0.003505969
197	0xbde162f2	-0.110052004
198	0x3e82e94c	0.25568616
199	0xbca69f81	-0.02033973
200	0xbd0351ed	-0.032060552
201	0x3e05a2c8	0.13050377
202	0x3e4ca100	0.19983292
203	0x3eff823f	0.49904057
204	0x3e5d9b66	0.21641311
205	0xbd79ad02	-0.06095601
206	0xbcc20539	-0.023684131
207	0xbd99788e	-0.07493697
208	0xbb60145c	-0.0034191823
209	0x3d9c0c14	0.07619491
210	0x3dba0c53	0.09084382
211	0xbe0e850a	-0.13917938
212	0x3ea5473c	0.3228091
213	0x3e260dd0	0.16216207
214	0xbdaf9d5a	-0.08574934
215	0x3cd4c086	0.025970709
216	0x3d5304d3	0.051518273
217	0x3d331d2e	0.043729
218	0xbdba992b	-0.09111246
219	0x3e8ebe01	0.27879336
220	0xbc82aebd	-0.015952462
221	0xbd8e1bae	-0.06938873
222	0xbdbfd3d1	-0.09366573
223	0xbe40a322	-0.1881223
224	0xbcc54934	-0.024082758
225	0xbc9a5532	-0.018839452
226	0xbc693df7	-0.014235965
227	0xbd2d6d32	-0.042340465
228	0xbcc41615	-0.02393631
229	0xbd01aa75	-0.0316567
230	0x3c99f0a9	0.018791514
231	0xbd24e7da	-0.040260173
232	0xbbe6ed04	-0.0070472974
233	0x3d3bb7d4	0.04582961
234	0xbc819e5b	-0.01582258
235	0x3d794fb4	0.060867026
236	0x3d80ff97	0.0629875
237	0x3cff9d78	0.031203017
238	0x3c754965	0.014971112
239	0x3d8ece17	0.06972902
240	0x3dc9ecfa	0.09859653
241	0x3d8dff96	0.06933515
242	0xbd655614	-0.055990294
243	0x3c804405	0.015657434
244	0x3da5afaf	0.080901496
245	0x3d1a9155	0.037736256
246	0x3d3cd286	0.04609921
247	0x3d2e4797	0.042548742
248	0x3b944ea8	0.004525978
249	0xbc6b0e1a	-0.014346624
250	0x3cdd6f15	0.027030507
251	0xbc3306ae	-0.0109268855
252	0x3d175560	0.036946654
253	0xbe18a4ff	-0.14906691
254	0xbd06976b	-0.032859247
255	0x3e00472e	0.12527153

dec_layer_2.0.bias f4 [8]
0	0x3d0c4a0c	0.034250304
1	0x3d6b5dfe	0.057462685
2	0x3ba19225	0.004930752
3	0x3e17f7a0	0.14840555
4	0x3de97b1f	0.114004366
5	0x3d6b5c07	0.05746081
6	0x3e975fea	0.29565364
7	0x3ab1bddb	0.001356061

dec_layer_3.0.weight f4 [8, 3, 5, 5]
0	0x3d4588d1	0.04822618
1	0x3cea01ca	0.028565306
2	0x3d6af72a	0.05736462
3	0x3cf37b5f	0.029721914
4	0x3c811984	0.015759237
5	0x3ca4b9ab	0.020108065
6	0x3dc6fa55	0.09715716
7	0x3e67357d	0.22578998
8	0x3e0cffa5	0.13769396
9	0x3d714085	0.05889942
10	0xbc76253d	-0.015023527
11	0x3e0f5c36	0.1400002
12	0x3e927ee9	0.2861245
13	0x3e742a71	0.23844315
14	0x3da58fea	0.0808409
15	0x3bdaa269	0.006672193
16	0x3e394fc6	0.18096837
17	0x3e9d5072	0.30725437
18	0x3e9bff64	0.30468285
19	0x3ddae762	0.10688664
20	0x3c8f8a43	0.017521983
21	0x3d66faf0	0.056391656
22	0x3de2ed22	0.11080386
23	0x3dea23a2	0.11432578
24	0x3cd741cf	0.026276497
25	0x3c161c22	0.009161981
26	0x3aeea7b0	0.0018207934
27	0x3d36d389	0.04463533
28	0x3cdd9851	0.02705017
29	0x3d6cfacc	0.057856366
30	0xbc1a0e3b	-0.009402807
31	0x3d436ead	0.04771297
32	0x3e2a4627	0.16628323
33	0x3e0380d1	0.12842108
34	0x3d9e48e1	0.07728744
35	0x3d528b57	0.051402416
36	0x3e28a169	0.16467823
37	0x3e9cff12	0.30663353
38	0x3e5df93b	0.21677105
39	0x3db9c002	0.09069826
40	0x3da70617	0.081554584
41	0x3e3f51d3	0.18683557
42	0x3e9b75da	0.3036335
43	0x3e62c4fd	0.22145458
44	0x3dbea59b	0.093089305
45	0x3d8939fe	0.06700514
46	0x3e0161c5	0.12634952
47	0x3e1ad366	0.15119705
48	0x3dc9247b	0.09821411
49	0x3cc44e30	0.023963064
50	0x3d36308a	0.044479884
51	0x3c9708ce	0.018436816
52	0x3d5e8dfd	0.05433463
53	0x3cd3a92f	0.025837509
54	0x3d8003f2	0.062507525
55	0x3d3b8bf3	0.045787763
56	0x3da31f0e	0.079649076
57	0x3e1d3d27	0.15355359
58	0x3dcdf4ff	0.10056495
59	0x3d6c3511	0.057667796
60	0x3d9c3644	0.07627538
61	0x3e40d2a7	0.18830357
62	0x3e96da7a	0.2946356
63	0x3e61e4a7	0.2205988
64	0x3dc0a338	0.094061315
65	0x3d8e687c	0.069535226
66	0x3e631a1b	0.22177927
67	0x3e8958dc	0.26825607
68	0x3e613203	0.21991734
69	0x3d707649	0.058706556
70	0x3da76832	0.081741706
71	0x3e118cba	0.14213839
72	0x3e1cbd8a	0.15306678
73	0x3e031636	0.12801442
74	0x3d0ea4b7	0.034825053
75	0x3c509727	0.01273135
76	0x3d30f26c	0.04319994
77	0x38817bb8	6.174244e-05
78	0xbd2729ce	-0.040811352
79	0xbd85f3b6	-0.06540625
80	0x3d41b0dd	0.04728781
81	0x3db0b94a	0.08629091
82	0x3d3ca0c9	0.046051774
83	0xbd15e4ef	-0.03659528
84	0xbd540c1c	-0.05176936
85	0x3d690dfd	0.056898106
86	0x3dca7e90	0.09887421
87	0x3dfc4878	0.1231851
88	0x3d0e84a2	0.034794457
89	0x3cee7c37	0.029111965
90	0x3cdf3286	0.027245771
91	0x3d46d483	0.04854251
92	0x3dfacad7	0.1224572
93	0x3db91c2e	0.09038578
94	0x3dcea4ab	0.10090002
95	0xbcd816a3	-0.026377982
96	0xbbb2e5df	-0.0054595317
97	0x3d5d47ef	0.05402368
98	0x3d81662c	0.06318316
99	0x3d748fb5	0.059707362
100	0x3ad9404b	0.0016574947
101	0xbc967a4e	-0.018368866
102	0xbd9c005f	-0.07617258
103	0xbdb3cd1f	-0.08779358
104	0xbd2da6bd	-0.042395342
105	0x3cb21a0b	0.021740934
106	0x3ccc11fc	0.02491092
107	0xbda84a50	-0.08217299
108	0xbe08d605	-0.13362892
109	0xbdf62ffe	-0.120208725
110	0x3c7499bd	0.014929232
111	0x3da26809	0.079299994
112	0xbc9b43ee	-0.01895329
113	0xbdc721d2	-0.097232476
114	0xbe201cd4	-0.15635997
115	0xbc83fe39	-0.016112434
116	0x3d53d9a1	0.05172122
117	0xba968d03	-0.0011486117
118	0x3b46fdf2	0.0030363766
119	0xbdd874cf	-0.105691545
120	0xbd0729bc	-0.032998785
121	0x3c15c7a2	0.009141834
122	0xbc0a0475	-0.008423914
123	0x3ce4c198	0.027924344
124	0xbd30e9b6	-0.043191634
125	0x3d2da36a	0.042392172
126	0x3d17a123	0.037018906
127	0x3c339d3e	0.010962782
128	0xbd43063f	-0.04761338
129	0xbd03bc37	-0.032161918
130	0x3d1bf3b3	0.038074207
131	0x3d719339	0.058978293
132	0x3cd3b2ad	0.025842035
133	0xbd32b05b	-0.043625217
134	0xbd6ea38a	-0.05826143
135	0x3d75a17a	0.05996845
136	0x3e03f3eb	0.12886016
137	0x3e2c6e2f	0.16838907
138	0x3de2010a	0.110353544
139	0x3c8eee64	0.017447658
140	0x3d08b030	0.03337115
141	0x3de58bd0	0.11208308
142	0x3e267c62	0.16258386
143	0x3e175383	0.14777951
144	0x3cf8c753	0.030368483
145	0x3cc917b8	0.024547443
146	0x3d58399b	0.05278931
147	0x3e113e7f	0.14183997
148	0x3e0f93e5	0.14021261
149	0x3d47634a	0.048678674
150	0x3ddcaa40	0.1077466
151	0x3de0fa2a	0.10985215
152	0x3de369be	0.11104153
153	0x3c955f5f	0.018233953
154	0x3d5bffec	0.053710863
155	0x3df6329f	0.12021374
156	0x3e4bf540	0.19917774
157	0x3e8e802b	0.2783216
158	0x3e29dd8d	0.16588421
159	0x3dfebcd9	0.124383636
160	0x3d5b6c4e	0.053570084
161	0x3e625e38	0.22106254
162	0x3eaeb1b0	0.3411994
163	0x3e91a7ce	0.28448337
164	0x3e177fdb	0.14794867
165	0xbd8c8931	-0.06862105
166	0x3dc830f2	0.097749606
167	0x3e81cb18	0.2535026
168	0x3e87ce32	0.26524502
169	0x3dca5379	0.098792024
170	0xbd45fe8d	-0.04833846
171	0x3c5201de	0.012817828
172	0x3d90e8e4	0.0707567
173	0x3de4ad17	0.11165827
174	0x3d1d599f	0.038415547
175	0x3d21f7a8	0.039542824
176	0x3d65d2b4	0.056109145
177	0x3d0c5c67	0.03426781
178	0x3cabcd9f	0.020972071
179	0x3d058c3d	0.032604445
180	0x3d479ff4	0.048736528
181	0x3e035edf	0.12829159
182	0x3e2f8c6c	0.1714341
183	0x3e143213	0.14472227
184	0x3daee625	0.0853999
185	0x3cde7da6	0.027159523
186	0x3e0e5a09	0.13901533
187	0x3e59a672	0.212549
188	0x3e5947b0	0.21218753
189	0x3df77e5f	0.1208465
190	0xbbf1a73c	-0.007374672
191	0x3d6272fb	0.055285435
192	0x3e346d97	0.1761993
193	0x3e365361	0.17805244
194	0x3dc8e94c	0.09810123
195	0x3c1aa30b	0.009438287
196	0x3c508a6e	0.012728317
197	0x3ce75430	0.028238386
198	0x3d8393cc	0.064246744
199	0x3d2f9a9d	0.04287206
200	0x3d145a2f	0.03621882
201	0x3a67a046	0.0008835833
202	0x3c5d0846	0.013490742
203	0xbc8206ee	-0.015872445
204	0x3cad4a73	0.021153664
205	0x3ce52878	0.027973399
206	0x3d85c65b	0.06531974
207	0x3db6aaa5	0.089192666
208	0x3d96b2e1	0.07358337
209	0x3d241e34	0.040067866
210	0x3c3259b3	0.010885644
211	0x3dc7691a	0.097368434
212	0x3e0e2c2e	0.1388404
213	0x3e0bbd09	0.1364633
214	0x3d61cf5a	0.055129386
215	0xbc95de6d	-0.018294537
216	0x3da291cd	0.079379655
217	0x3df47094	0.11935535
218	0x3e15703a	0.14593592
219	0x3c90c670	0.017672747
220	0x3a07f136	0.00051857845
221	0x3d244960	0.04010904
222	0x3d221d49	0.03957871
223	0x3d872935	0.065996565
224	0x3cedde32	0.029036615
225	0x3d17a109	0.03701881
226	0x3d3d9057	0.04628023
227	0x3d702b22	0.058634885
228	0xbd153b90	-0.036433756
229	0xbbc01793	-0.0058621853
230	0x3e0be71d	0.13662381
231	0x3e33cd03	0.17558675
232	0x3e7044e4	0.2346378
233	0x3d6c254b	0.057652753
234	0x3cb1df4c	0.021712922
235	0x3e7e8269	0.24854435
236	0x3ebf3f4f	0.37352988
237	0x3eff966f	0.4991946
238	0x3e8466bf	0.2585964
239	0x3dfb19c3	0.12260773
240	0x3e8519ff	0.25996396
241	0x3eb91d93	0.36155376
242	0x3eea01ed	0.45704594
243	0x3e8fcac3	0.28084382
244	0x3e07ae1d	0.13250013
245	0x3e185c65	0.14878996
246	0x3e5eee0c	0.21770495
247	0x3e921be0	0.28536892
248	0x3e48d244	0.1961146
249	0x3de7c04a	0.11315973
250	0xbcb8ffc1	-0.02258289
251	0xbbb8c8a6	-0.0056391535
252	0x3bf74133	0.007545614
253	0x3cb63c68	0.0222456
254	0xb9dc02d7	-0.00041963786
255	0xbd1ff1b5	-0.03904887

dec_layer_3.0.bias f4 [3]
0	0x3b95e285	0.0045741224
1	0x3b426f90	0.0029668547
2	0xbbf0e2cf	-0.0073512564
