save/updated_model_exp/gen_model.pt (torch, 51145 bytes, 10 tensors)

enc_layer_1.0.weight f4 [32, 3, 5, 5]
00000000: 6a06 113e 2d57 393d 31fd e4bd 0753 e9bd
00000010: 69b3 613c e6e4 663e 1877 553e 5ddd e6bd
00000020: 129e 3abe e468 053d c1b2 383d 2dc9 8a3d
00000030: 88c8 06bc 17a3 14be f6ef b1bc e16a 8b3d
00000040: 8480 f63c e6c6 fe3c 685a cebd 569a 6ebc
00000050: 0d02 2f3d 709c 47bd 9ee4 9ebd 5909 41be
00000060: 2040 23bd 7690 e9bc ce30 2f3e ec3f afbd
00000070: 486c c2bd 1325 4f3d 793f 123e 36f7 c33d
00000080: 55d7 2bbd e6e7 54be ed03 ba3d fa55 243e
00000090: 9c4a 3f3e 3cb9 563d de85 2bbe c23e 0dbc
000000a0: 3b62 f33d 1182 2d3e 6cf6 85bd eea5 c4bd
000000b0: 1000 07bd 4993 f83d b2dc 443e 0e4a 85bd
000000c0: 94c2 4cbe df4d 1d3d caef 013e 3b11 833a
000000d0: 80b3 bcbc 0ec7 62be fe82 c0bd 4fa6 1b3d
000000e0: 6a37 c23d 582f 543d 089e ddbd e0e4 fe3d
000000f0: e6f0 153e ed1a 843d 649f d2bb a174 37be
00000100: 9b95 4abd 1a26 3a3d 430f 243e 4e53 f5bd
00000110: b730 edbd adc2 943d fdc6 113e beff d63d
00000120: d42a aebd 3238 01be ab5d db3b 2e53 26be
00000130: 683b 6fbd cecd 163d 79f4 54bd c21b f1bd
00000140: f805 dcbd 7ac6 c33d b479 573d 0b61 b63d
00000150: 3e2b 4d3d 11dc de3d 34c4 4c3e 39e1 ec3d
00000160: fd05 ad3d b116 c4bd df37 553d ef2b d63d
00000170: 1de9 57bd 63c7 8a3d 1433 f03c f407 783c
00000180: f58a 17ba bcdb 03be 8019 2bbe 8216 fabd
00000190: 1b7d d8bd 792e ef3a c390 663d 4b24 c9bd
000001a0: 0e8b a8bd 0f93 803c 6792 073d b8c9 503e
000001b0: 7a0f 70bd a77f f33c 2b7e 7a3d edc0 333d
000001c0: e0ba 3f3e 64a8 863d 5f9c ae3d 74a8 fbbd
000001d0: de36 73bd 1a21 033e 041c 1fbd 3e8b 873d
000001e0: 33c5 b3bd 8f83 b7bd 34d3 05be 915e 8cbd
000001f0: 6f59 92bd eaad 66bc 5c16 de3d bf80 a53d
00000200: 4c0a 05be 6838 0abe a12f 2a3e 108f 7e3d
00000210: 2cdb ec3d 3001 813d dca0 663d e61e b7bd
00000220: 0454 90bc e102 753e c414 e53d c1bd 47bd
00000230: 4163 ed3d 1eda 883d 497b 2abd e78d 4b3d
00000240: b374 f0bd 398c 223d df02 03bd 53d8 803c
00000250: 3e84 12bd 2c55 b7bc 27ec 803c df80 e73d
00000260: c58b f2bc bdc8 eabd 6af6 debd 7a82 b2bb
00000270: 8d87 373e f56f e1bc 3c8a 503d 71cd 2dbc
00000280: 8f20 8a3d 004c 433e f480 be3c 5427 06bd
00000290: 5c2f d43c 9264 76bd f441 523d 296b 8d3d
000002a0: cacd 73bc 740e 1bbd c970 9abb ff1c 963d
000002b0: 3810 42bc 78ce cd3c 3782 5bbd b739 ad3b
000002c0: 8a80 923a c86d b1bc 393f 133c 720f 7bbd
000002d0: afbf b23d 4b12 323e 7a28 f73d 27d3 053d
000002e0: 0e11 9c3d 228a 293e 3e47 c13d 7dd9 6c3d
000002f0: 608c 58bd fe60 6f3d 0253 9b3d f816 b23d
00000300: 60c0 de3d 09cd 23bd bbe9 6b3d 2818 863c
00000310: 5117 d0bc 9a70 75bd 46dd eb3d fd56 c23d
00000320: e348 47bc 68ff a93c 57e9 53bd 618f 35bd
00000330: cb35 21bc a71d 633d 6ae4 443c b123 bd3c
00000340: 5020 9dbc 5e0c 7cbd 7ffa 99bd affe f2bc
00000350: 9bca 913c 6167 033d 6076 9cbd 29eb 08be
00000360: 3c96 9bbd 55aa 9e3c 1955 f6bd fcb6 73bd
00000370: c7d2 65bd 71fe b5bd 2a31 98bd aa0e bbbd
00000380: 7083 81bd d270 87be 774d 1e3e eb70 753e
00000390: b4ac dd3d a34c 063c 1b0f 49be 254b 993d
000003a0: dbe2 6e3c c55f d53d 344c 423d 2841 5abe
000003b0: 4772 b0bd 7cab f4bc 50a7 6c3d 6107 8c3d
000003c0: 243d 80be a72f b53c 1137 333d 84fd d83d
000003d0: c7e2 4dbc 2419 2ebd fdec 46be 4dce 12be
000003e0: c8bb 5c3d a551 a8bc b3f3 09bd 0a5a 233e
000003f0: 4d3b 223e e734 b23d 5fdf 4cbd 5e57 89bd
0.14162603 0.045249153 -0.11181105 -0.11392789 0.013775685 0.22548255 0.20846212 -0.112726904
-0.18224362 0.032570735 0.045092348 0.067766525 -0.008226521 -0.14515339 -0.021720868 0.06807495
0.030090578 0.031100702 -0.100758374 -0.014563164 0.042726565 -0.048733175 -0.07758449 -0.18851222
-0.039856076 -0.028511267 0.17108461 -0.08557114 -0.09493309 0.050572466 0.14282025 0.09568636
-0.041953404 -0.20791587 0.0908278 0.16048422 0.18680805 0.052422747 -0.16750285 -0.00862092
0.1188397 0.16944148 -0.06541142 -0.09601961 -0.032959044 0.121374674 0.19224814 -0.065082654
-0.199961 0.03840434 0.12689129 0.0009999642 -0.023034811 -0.22146246 -0.09399985 0.0380004
0.09483226 0.051802963 -0.10821158 0.12445998 0.14642677 0.06450448 -0.0064276922 -0.17915584
-0.04945908 0.045446493 0.16021447 -0.1197878 -0.11581557 0.07263694 0.14236064 0.10497998
-0.085042626 -0.12619093 0.0066945157 -0.16242668 -0.058406264 0.036817364 -0.05199096 -0.117728725
-0.10743326 0.09559341 0.0526063 0.08905228 0.050090067 0.10881818 0.1999672 0.11566395
0.08448408 -0.095746405 0.052055236 0.104575984 -0.05271255 0.06776311 0.029321231 0.015138615
-0.0005780899 -0.12876791 -0.16708946 -0.12211324 -0.10570737 0.0018248103 0.0562904 -0.098213755
-0.082296476 0.015695123 0.033098605 0.2038945 -0.05860851 0.029723955 0.06115548 0.04388516
0.18723631 0.06575087 0.08525919 -0.12287989 -0.059378497 0.12805596 -0.038845077 0.06618355
-0.08777847 -0.0896064 -0.13068849 -0.068539746 -0.07145964 -0.01407955 0.108441085 0.08081197
-0.12992209 -0.1349808 0.16619731 0.062148154 0.11565241 0.062990546 0.05630575 -0.0894144
-0.017618187 0.2392688 0.11185601 -0.048764948 0.11591197 0.066822276 -0.04162148 0.049695875
-0.117410086 0.039684508 -0.03198516 0.015728151 -0.035770647 -0.02237948 0.015737606 0.11303877
-0.029607663 -0.11464069 -0.108868435 -0.005447683 0.17922802 -0.027519206 0.05091308 -0.010608063
0.06744491 0.1907196 0.023254849 -0.03275235 0.025901489 -0.060154505 0.05133243 0.06905205
-0.014880607 -0.03785558 -0.004713152 0.07329749 -0.011844687 0.025122866 -0.05359098 0.005286421
0.0011177224 -0.021658793 0.008987241 -0.061294027 0.08727967 0.1738979 0.12068267 0.032672074
0.076204404 0.165566 0.094374165 0.0578246 -0.052868247 0.05844211 0.07584192 0.08695787
0.10876536 -0.03999046 0.05759595 0.01636894 -0.025401743 -0.05992184 0.11516814 0.09489248
-0.012163374 0.02075167 -0.051736202 -0.04432619 -0.009839485 0.0554482 0.012017349 0.023088308
-0.019180447 -0.06153523 -0.075184815 -0.029662458 0.017796805 0.03208101 -0.07639766 -0.13370956
-0.07597014 0.01936833 -0.1202795 -0.05950068 -0.056109216 -0.088864215 -0.07431252 -0.09133656
-0.06323898 -0.26453263 0.15459238 0.23968856 0.10823956 0.008196983 -0.19634669 0.07485036
0.014580454 0.10418657 0.047435954 -0.21313918 -0.08615547 -0.029866926 0.05777675 0.06837345
-0.25046647 0.022117449 0.043753687 0.10595229 -0.012566275 -0.042504445 -0.19426341 -0.1433651
0.05389002 -0.020546744 -0.033679675 0.15952316 0.15842934 0.087014966 -0.05001771 -0.06706117

enc_layer_1.0.bias f4 [32]
00000000: a3b1 c4be 1a0a 1f3e 02e8 583d 9983 19be
00000010: 42c6 123d 40fa 2cbc 9ac3 bf3d e5f3 133c
00000020: e640 4bbe 9d4a 1dbf 8612 a33d e0c3 183e
00000030: 76bf 0a3e e9d1 f4be 4aa5 bebe fc47 1cbe
00000040: 8dca a0be 3dfd 8dbe 8345 9cbd 1bdf 0abd
00000050: f760 8fbd e08a 5b3d fc9d 4abe c45c 18bd
00000060: 002b 23bf 6ef0 5cbe 2dd1 0f3d 4792 8ebe
00000070: 98eb ba3d 661e bf3d 6496 2cbf 910a ad3d
-0.38416776 0.15531197 0.052955635 -0.14991607 0.035833605 -0.010557711 0.0936348 0.009030317
-0.19848976 -0.61441976 0.079625174 0.1491847 0.13549599 -0.478164 -0.3723548 -0.15261835
-0.31404534 -0.27732268 -0.07630446 -0.033904176 -0.070009165 0.05359924 -0.19786829 -0.037197843
-0.6373749 -0.21576092 0.035111595 -0.27845976 0.09126967 0.0933197 -0.6741698 0.08449281

enc_layer_2.0.weight f4 [16, 32, 3, 3]
00000000: d4ab d63c 12d7 3cbe 7f96 033f a738 d23e
00000010: 12d1 a8bd 61d4 933e 3650 443e 3b1b 7a3e
00000020: 2d44 d93d d08e a03c 1e44 40bd c3aa bbbb
00000030: a83b 673d 3dc0 c23c 7acf 27bc 4f3b 65bb
00000040: 29b6 973d 55a4 67bd 3571 1cbd a7eb c6bd
00000050: a78e 28bd 8e2b 943c 30bf 29bd a90c b7bd
00000060: 3575 253d 40e5 87bd 1c81 a5bc d62f 023d
00000070: c69e 8b3e 45c9 943c 1d1a ffbd d6dc f43d
00000080: f0ad e0bd 4f6a 25be de21 0dbd 8801 8bbd
00000090: 2c86 833d 2deb 4a3d d6c2 243e 0146 7a3d
000000a0: b4f5 203e 4725 713e 9ba4 a7bc acb0 f33d
000000b0: 3439 fb3d 62cc d83c a9a5 60bd 5fc8 eb3d
000000c0: a567 a33d 4a92 61bd 30ec cdbc 7ae8 0b3e
000000d0: a253 d43b 4967 8d3d 1c40 d8bd cf78 ebbd
000000e0: 4a6e 8d3e 337d d6be 5a55 98be 0e7f 163e
000000f0: bde1 e23b 231b aebd 2203 0d3d 7520 8cbc
00000100: 877e 083e d6c9 0fbe 8482 9b3d 848a 4bbe
00000110: 7821 87bd 80be a23d 028b 13be 67d4 653a
00000120: 8f6b 053e dc0b 27be 087f b1bc dd06 233e
00000130: b266 82be 529e abbc 5c4c 823d b2d0 6bbd
00000140: 1ff5 e9bc c3f4 ab3e 65c9 d03d eb2d 153e
00000150: 96ac ad3e fa87 3bbe 882d 6b3c 889b 8d3e
00000160: 6c25 3c3e c222 c9bd 3108 26bc d0b0 2abe
00000170: d6e4 fa3c cef8 003c 753c 23be 41de a33b
00000180: 4196 bb3d 6ebd babd 9105 8cbd a6be 493d
00000190: 6549 b9bb 83ea 05bd bdb6 6b3e 4298 3bbe
000001a0: b0fd 46be c48c f43d f188 d4bc d6c1 4c3d
000001b0: f6e1 983c c983 8dbd 1aa0 8ebd f5de 333e
000001c0: 3307 fdbc cb41 a23d 9e60 1bbc baf4 3b3d
000001d0: b01c c93d 34ff 14be 89d4 11be c859 4c3e
000001e0: 47f3 59be 64c4 9d3e 729b 263e 23a1 2c3b
000001f0: a2ea 733e e133 20be 047c e53c acc9 16be
00000200: 7703 00bd f617 023e 94d7 34be ef07 3ebd
00000210: 45e0 49bd 1836 d93d a3b8 b03d 6bcd 85be
00000220: 2f48 723c b34d 04be 45da 66be fa55 bc3a
00000230: bee0 58bd 1ba9 56be 3ac9 15bd e95b 08bd
00000240: a426 cc3d 9a50 3b3e d3ef e63e 8777 0b3e
00000250: ff28 823e 21e2 863d dbed e9bc d876 643e
00000260: acf4 8cbd 541a 59be b390 013f d063 d5bd
00000270: c881 47be 0e0a 613e fec4 873e 7967 b43d
00000280: db39 9d3d b984 9fbc 0755 823d 845f 85bc
00000290: 1ac8 033d 68c0 ae3d 5a4f 7fbd 09fa fd3c
000002a0: 2279 9e3d 2323 1a3d 3345 703d 2227 d3bd
000002b0: c658 b8bd 6ae2 d0bc 315e 02bd 442c 8abc
000002c0: 60e6 6a3c 04bf 72bd ce67 853d 30ad a9bd
000002d0: a5e0 0b3d fb68 5f3e 8b22 87bd f990 57bd
000002e0: 2117 5e3e 36b2 dd3d 9a88 a83d 95b4 443d
000002f0: 5a67 cf3b a1b5 1ebd 0e01 8bbd 6227 7d3d
00000300: 6537 44bd df90 943d d12d b63c 2753 49bd
00000310: 4fa5 783d c0c4 603d 7228 203c a953 7b3d
00000320: 9144 57be acb9 e63c df91 383d 2708 303e
00000330: 4738 2c3e 0555 933d bafa ab3d c893 58be
00000340: adeb 15be 8374 04be df52 33bc 3b86 02be
00000350: 5ff8 61be e2b8 21be 1a4f 19bb 9cfc 3cbe
00000360: ebd6 d0bd 216e 88be 7e92 2ebd 2b4a 1abd
00000370: 526e a6bd da95 2c3c a398 553d 1ae1 5dbd
00000380: fadf c8bc 1454 9b3d 7a14 98bd b982 1c3d
00000390: dc51 223d e21c 7abc 6d22 34be 3c6f 27bd
000003a0: a6ab 223e 7d15 16bd 6f1c 87bc 007c 99bd
000003b0: 8766 0fbd 401e acbc e37a 3cbd 9fe6 993d
000003c0: f802 44bd fc2b ba3c d1dd 49bc e9a4 213e
000003d0: 64e1 6a3e 1e53 1b3e 2c2f 4f3e 4722 183e
000003e0: ce44 9b3d e956 67bd adb3 e13d 3607 083e
000003f0: a122 673d 953a 35bd 2753 9cbc 11d5 bb3d
0.02620498 -0.18441418 0.51401514 0.41058847 -0.08243002 0.2887297 0.19171223 0.2442445
0.106087066 0.019599348 -0.04693996 -0.0057271435 0.056453377 0.023773307 -0.010242337 -0.0034977978
0.07407791 -0.056553204 -0.0381939 -0.09712916 -0.04115167 0.018087175 -0.041442096 -0.089379616
0.04039498 -0.06635523 -0.020203166 0.0317839 0.27269572 0.018162379 -0.124561526 0.119561836
-0.10970676 -0.16153835 -0.034456126 -0.067874014 0.06422076 0.049540687 0.16089949 0.061101917
0.15718728 0.23549376 -0.020464232 0.11898932 0.1226677 0.026464645 -0.054845486 0.11512827
0.07978753 -0.055071153 -0.025137037 0.13662902 0.0064796964 0.06904466 -0.10559103 -0.11497652
0.27623206 -0.41892394 -0.29752618 0.14696905 0.0069238828 -0.0850127 0.034426816 -0.01710532
0.13329516 -0.14041838 0.07593253 -0.19877058 -0.065981805 0.07946491 -0.14408496 0.0008767307
0.13029312 -0.16313118 -0.021667019 0.15920587 -0.25468975 -0.020949516 0.06362221 -0.057572074
-0.028559266 0.33585176 0.10194663 0.14568298 0.33920735 -0.1831359 0.014354117 0.27657723
0.1837365 -0.09821083 -0.010133789 -0.16669011 0.030626696 0.00787182 -0.15941031 0.00500086
0.09159518 -0.09118162 -0.06836999 0.049254082 -0.0056545013 -0.03269435 0.23018928 -0.183198
-0.19432712 0.119409114 -0.025944205 0.049989544 0.018662434 -0.06909902 -0.06964131 0.1756552
-0.030887222 0.07922705 -0.009483485 0.045887686 0.09819925 -0.14550477 -0.14241232 0.19956124
-0.21284209 0.30813897 0.16270235 0.0026341162 0.23819974 -0.1564479 0.028013237 -0.14725369
-0.031253304 0.12704453 -0.17660362 -0.046394285 -0.049286146 0.10606021 0.08628967 -0.26133284
0.014787718 -0.12920265 -0.225442 0.0014368885 -0.052948706 -0.20962946 -0.036568858 -0.033290777
0.099683076 0.18292466 0.45104846 0.13619815 0.25421903 0.065860994 -0.028555801 0.2231096
-0.06882605 -0.2120145 0.5061142 -0.10419428 -0.19483101 0.21976492 0.2651748 0.08808798
0.07677051 -0.019472467 0.06363874 -0.016280897 0.032173254 0.08532792 -0.062331535 0.031003015
0.07737948 0.037631165 0.058659744 -0.10310198 -0.09001307 -0.025498588 -0.03182811 -0.01686681
0.014337152 -0.059264198 0.0651394 -0.08284986 0.034149785 0.2181739 -0.065983854 -0.05262849
0.2168851 0.10825007 0.0822918 0.04802378 0.006329459 -0.038747434 -0.067873105 0.061805137
-0.04790439 0.072541945 0.022238644 -0.049151566 0.060704526 0.054875135 0.009775268 0.06135908
-0.2102225 0.028164707 0.04506099 0.1719061 0.16818343 0.071939506 0.08397432 -0.21150124
-0.14640684 -0.1293507 -0.010945051 -0.12746517 -0.22067402 -0.15793183 -0.0023393095 -0.18455738
-0.10197242 -0.26646522 -0.042620175 -0.03766839 -0.08126511 0.010533774 0.05214752 -0.05416975
-0.024520863 0.07584396 -0.074257806 0.038210604 0.03962885 -0.015265675 -0.17591257 -0.040877566
0.15885791 -0.036641587 -0.01649305 -0.07494354 -0.035009887 -0.021010518 -0.04601563 0.075146906
-0.047854394 0.022726052 -0.012320952 0.15785564 0.22937542 0.15168425 0.20232838 0.14856826
0.07581483 -0.05647937 0.110205986 0.13284001 0.05642951 -0.04424532 -0.019082619 0.091714986

enc_layer_2.0.bias f4 [16]
00000000: 5572 893d 79f4 293d 846e ff3b 7f6e 553b
00000010: aff2 50bc b37a 3ebc 7845 6bbc f5ac 953d
00000020: c528 103d d8c9 11bd c00b 883d 0474 62bd
00000030: 00c2 b4bc 40c3 0a3d 9485 9d3c 96f1 7bbd
0.0671126 0.041492913 0.007795157 0.0032567082 -0.012753173 -0.011625933 -0.014359824 0.073083796
0.03519513 -0.035592884 0.06642866 -0.055286422 -0.022065163 0.03387761 0.019228734 -0.06150969

enc_layer_large.0.weight f4 [12, 16, 3, 3]
00000000: 11b9 ffbd e028 28bb 952f 0ebd 8e4c 473e
00000010: 44b6 2c3e 9f72 04bd dd7c 06be 5909 4bbd
00000020: 5d52 3ebc 3e48 2cbe b04c f0bd 18a7 523d
00000030: cb4c 14b9 d177 743e f94e 03bd 1dcd 7fbd
00000040: 170e c03b 589b 113b 75c4 603d d9f7 01be
00000050: 18d6 983d de45 82be 2a95 813d 3fda 70bc
00000060: 6418 29bc c792 a93d 1bee 513d 7b62 6dbc
00000070: 5762 f4bd c07a 70ba 2cb7 c43b c53c 2dbe
00000080: bb65 e6bb 5a5a 4c3d 02ca 98ba abb1 f2ba
00000090: 692a 1abd 4975 50bd 6282 25bc 7f11 683d
000000a0: d4fa 593c 1799 223c 003b d73d a6df 873d
000000b0: 1b0e 62bc 7378 b3be 3f53 1e3e 84c9 b03b
000000c0: 4aee 653e aefd 913e 881e 9d3b 87ab 183d
000000d0: ec88 2fbd 68f7 113d cc3e e9bc a08e 80bc
000000e0: 70fa 87bd 8547 73be 1f74 903e c94f 2bbd
000000f0: e96a ac3c fb3e acbd 6758 2a3b 6358 39be
00000100: 79b5 c83d fbb6 83bd ec6b e03d 8fa6 6a3e
00000110: 1d7a d5bd 98ed 9d3d 822b 3fbd 37e2 a33b
00000120: e419 85bc a165 c4bc 9afa 903c 755e 493d
00000130: c389 cabd 3684 863d 1c83 a0bd 541e 0abc
00000140: 5f01 3b39 5517 783d defe dc3b b0ad 253c
00000150: 045f 81be 2500 12be b729 af3c 7055 4bbd
00000160: 883f a03a 6a74 663b abbe f43d b874 6abc
00000170: 7879 a13d a7f9 2cbe 26d0 da3e 3bf5 3e3d
00000180: 213c cfbc c5d3 a23c bc35 123d 94b4 6b3d
00000190: 9a80 143d 9710 10bd f3b1 92bd 3707 afbc
000001a0: 82a5 c3bc 88e4 b2bc be7f 47bd 95d5 0e3d
000001b0: 7f09 9fbc 37e1 01be 2c48 96bd 67ed 0e3e
000001c0: 7b70 243e 715e 17bc 09d0 a03b b0bc 0f3d
000001d0: 23d1 35bc 8ade 133e 3c62 273e 2cf9 6b3c
000001e0: 3a43 873e 1e11 3e3d 9872 dcbc d26c 13be
000001f0: a389 87bd 3805 5fbc 90bd 8e3c 3a20 653c
00000200: 3485 a03d 955d 98ba f721 09be d8fe 063d
00000210: 3a9b e3bd 29f7 da3d 0f91 9a3c e5f2 333e
00000220: c93d 80bd 5482 533d 82db 673e 9c01 593e
00000230: 62f2 f83b d4b5 5dbd 33bc 11bd f77f 5e3d
00000240: 03b7 753e 4846 283e 6afd d9bd efe9 943e
00000250: cb22 78bd d79b 29bd f804 bb3b fe7d 75bd
00000260: 3237 4b3d e47b b6be 7f1e ddbd b8b7 43be
00000270: 6215 0bbd b488 0fbd 9e2f 813b 8a14 553e
00000280: 6367 983d 7280 443c af2a 68bd 6ca9 08be
00000290: 0737 ae3d a0d7 47be 3590 adbd 569c 763c
000002a0: b7d1 fe3d ffa1 e9bc 1166 5b3d 8e28 913d
000002b0: 0010 333d dd2b b13d a6ac 893d eebd b33d
000002c0: 37a5 43bc f00d 98bd 1bdb b5bc 4e8e 2e3c
000002d0: 94ec 113e 46bf 68bc 7b89 cb3c 9136 71be
000002e0: f167 d7bd d90e 1c3c a369 0abe 2e23 8ebc
000002f0: 8c06 9abd 4cf1 a5bc 4fb4 1dbc 07f5 1f3d
00000300: d179 3dbd 0e55 1ebd 38ce 503d 8ac9 00be
00000310: 71d9 163d 3063 f53c 3768 30bd 92ac 85bd
00000320: a7f2 743d 2a59 c6be 583c 60bc 90d3 03be
00000330: b5c4 08bd b2f2 933d 2085 2abd 1372 1abe
00000340: e7b8 813d f06c 733c d3f4 a23a 86ac a7bd
00000350: 4a58 1bbd 3913 febb d079 ecbd 8339 ddbd
00000360: 4f3d 4539 dd1e 38bd 4b88 a13d 2514 79bd
00000370: e19b 603d 7a5c 263d ad12 063d 38d1 0e3c
00000380: 9235 593d 38f8 9dbd 2068 6a3d 0e48 b43c
00000390: 0ed9 abbd c8be 0a3e b880 133d 4e49 75bd
000003a0: 706d fd3b 331f fabc c5f3 883e 1a12 8d3d
000003b0: 576f 853d 7776 62bd fba6 babe 4c88 01be
000003c0: 9d1d 9ebd dabd 5fbc ee1a 01bd f09d 403e
000003d0: 0f5d 05bc 0af0 7fbd 32e6 e8bb c46b af3d
000003e0: 1b19 1fbd 5ef5 073b 1bf1 633c 189a 5e3a
000003f0: 3f5c c1bd 839e 4cbe 80a6 ed3d a593 0bbe
-0.124864705 -0.002565913 -0.034713347 0.19462797 0.16866404 -0.032335874 -0.13133569 -0.04956946
-0.011616317 -0.16824433 -0.11733377 0.051428884 -0.00014142987 0.23873831 -0.032057736 -0.06245147
0.0058610546 0.0022217836 0.054874856 -0.12692203 0.0746271 -0.2544393 0.06327279 -0.014700471
-0.010320757 0.08279949 0.051252466 -0.014488812 -0.11932819 -0.00091735646 0.006003281 -0.16917713
-0.00703117 0.049890853 -0.0011656883 -0.0018516084 -0.0376381 -0.0508931 -0.0101018865 0.05665731
0.013304431 0.009924195 0.105093 0.066344544 -0.013797308 -0.35052833 0.15461443 0.0053951163
0.22454181 0.28513855 0.0047948994 0.037272956 -0.04285519 0.035636336 -0.028472327 -0.015693009
-0.06639564 -0.23757751 0.28213593 -0.041824136 0.021047072 -0.0841045 0.0025992633 -0.18100123
0.09800238 -0.06431385 0.109580845 0.229151 -0.10423682 0.07711333 -0.04667235 0.005001332
-0.016247697 -0.023974242 0.017697621 0.049162347 -0.09889557 0.06568186 -0.07837507 -0.008430082
0.0001783422 0.060569126 0.0067442497 0.010112211 -0.25267804 -0.14257868 0.021382196 -0.049642026
0.0012225965 0.0035164603 0.119504295 -0.0143100545 0.078844965 -0.1689211 0.4273693 0.04662059
-0.025297226 0.01987637 0.035695776 0.05754526 0.036255457 -0.03517207 -0.07162847 -0.021365745
-0.023882631 -0.021837488 -0.04870581 0.034871656 -0.019413708 -0.12683569 -0.073379844 0.1395775
0.16058533 -0.009238825 0.004907612 0.035092056 -0.011097225 0.1444036 0.16346067 0.014402669
0.26418477 0.046403043 -0.026910111 -0.1439698 -0.06618049 -0.013612084 0.017424375 0.013984734
0.078379065 -0.0011624569 -0.13391863 0.03295788 -0.111135915 0.10691673 0.018867997 0.17573126
-0.062617846 0.051637962 0.2264233 0.2119202 0.0075972537 -0.054128483 -0.03557987 0.054321256
0.23995595 0.1643306 -0.10644038 0.29084727 -0.060580056 -0.041408386 0.0057073794 -0.05993461
0.049613185 -0.35641396 -0.10796832 -0.19113052 -0.03395594 -0.03504248 0.003942444 0.20808616
0.074415945 0.011993514 -0.05668133 -0.1334588 0.085065894 -0.19515848 -0.08474771 0.015051922
0.12442344 -0.028519629 0.053564135 0.07087813 0.04371643 0.086509444 0.06722383 0.087764606
-0.011941246 -0.07424533 -0.022199204 0.010654045 0.14250404 -0.014205759 0.02484583 -0.23555972
-0.10517872 0.009525024 -0.1351686 -0.01735076 -0.0752078 -0.02025666 -0.009625508 0.039052036
-0.04625875 -0.038655333 0.050977916 -0.12576881 0.036828462 0.029954523 -0.043068137 -0.06527056
0.059801724 -0.38739902 -0.013686262 -0.12873673 -0.03339072 0.07224025 -0.041630864 -0.15082578
0.063340954 0.014857516 0.0012432582 -0.08187203 -0.037925996 -0.0077537564 -0.115466714 -0.10801985
0.00018810223 -0.04495131 0.07887324 -0.060810227 0.054836158 0.040615536 0.032732654 0.008716874
0.053029604 -0.077133596 0.057228208 0.022007015 -0.08391009 0.1354934 0.036011428 -0.059884362
0.007733993 -0.030532455 0.2674848 0.06888218 0.06515377 -0.055288758 -0.3645552 -0.1264965
-0.07720492 -0.013656104 -0.031519823 0.18810248 -0.008139863 -0.06248478 -0.0071075195 0.085654765
-0.0388423 0.0020745615 0.0139124645 0.00084915897 -0.09441423 -0.19982342 0.11604023 -0.1363054

enc_layer_large.0.bias f4 [12]
00000000: b92d 83bd bc13 5abd bdc1 e8bc 5db0 bd3d
00000010: b94f b7bd bd75 603d fc9d dd3c 878f 9a3d
00000020: e0da 8bbd 5756 9ebc 81c7 13bd d619 c3bc
-0.06405205 -0.053241476 -0.028412694 0.09262154 -0.08950753 0.054799784 0.027052872 0.07546907
-0.068288565 -0.01932828 -0.036078934 -0.02381603

dec_layer_2.0.weight f4 [12, 8, 5, 5]
00000000: af8c cc3d df53 ac3d b7cd d5bd 105c 3abe
00000010: b77c c8bd 84dd 163d 3a15 4fbd 6799 d53d
00000020: ac85 d8bc b51f 11bc 19ce 49be 6c3c 393e
00000030: 7404 57be 0084 16be 6367 72bf e2a1 85bd
00000040: 268f 23bd dbcf aebd 0d43 d3bd 9405 4bbe
00000050: be4a a5bc 19e0 3dbe 752d b13e f5d8 1c3f
00000060: 7311 8b3d 7c75 233c 8d13 503c 70b7 f5bc
00000070: eeb1 613b a127 593c 4ce8 553d 92ec 88bc
00000080: 070d a7bd c7d1 443d 7c5e bebc 5c20 6b3d
00000090: 1e2a 6e3d f33e abbd dcd3 9cbd aeec 9b3d
000000a0: 69ec 383d 3ebf f63c d885 8cbd 41ec f53d
000000b0: f328 ddbc d432 b03c 77ec 813d f20e 4b3d
000000c0: f04d 0e3d 03ce 6fbd 737f 9ebc 950e 163e
000000d0: ecfd ad3b ba15 41bc cdff d33c 67d7 1dba
000000e0: f42d 243e fa8a a8bd 393b ae3e 3f89 38bd
000000f0: d1df a83c 11f4 8e3e 38d2 a6bd 2977 62bd
00000100: 1c42 ab3c a6bb 6bbc 8935 85bd 7514 12be
00000110: 4dfa c2bd 75eb 7dbd 6eb5 b9bc bcd1 063d
00000120: 6896 e1bc f443 e13e 3a9f 553c 6f4a 71bb
00000130: 0462 a7bc 0b21 db3a f1f3 33bd 4413 58bd
00000140: 119a 17bd 7ca5 a2bd 053f c0bd 5f2e 393c
00000150: 9346 eebc ba74 92bc 2638 eabd e5bc 99bc
00000160: 5f10 ff3b 5f63 dbbc 39f8 a8bd 4546 07be
00000170: 0806 dcbd 4ce7 843d f37f d7bd 700e 48bd
00000180: b2dd e2bd d9ca 05bd 1d08 8a3e 4f95 cb3c
00000190: 6a15 cfbc 9b1e d3bc b0e9 09bd a2b0 fabb
000001a0: 46cb 4a3c e091 75bd b36c 74bd 0ac3 cabd
000001b0: b334 4a3d f627 d8bb 78c8 f1bc 6609 38be
000001c0: c561 acbd f0c3 c5bd de52 12bd c7ac ccbc
000001d0: 63bd d5bd d562 99bc 3cf4 d8bc f327 0fbe
000001e0: 6759 0d3c 6432 1abc 554c 4ebe 4858 6c3e
000001f0: abd6 f4bc c325 0dbd f4d3 4dbc 87e2 253c
00000200: 11ee d03c 2a7d e5bc 86c4 cebc e55e c4bd
00000210: b573 a9bd ad57 923d debe 3abd f132 903d
00000220: 8d78 85bd 6cbd 36be b9d3 7ebd 9b19 903d
00000230: a110 273a b59e 043d 601c 97be 3380 8dbc
00000240: ae29 843d 2e83 abbb 323f b73d 96ae e43d
00000250: 4cc0 d83c 5921 91bd 9d63 f3bd c8cf 32bc
00000260: ce1e cbbc a1e1 05bd 1bf2 883d 8e55 8f3c
00000270: dc58 0f3d d813 95bc 8f09 013e 4643 b13d
00000280: 0332 34bd aaa8 05be 2145 2a3e 1c5d c3bd
00000290: a356 1abc caeb 34be ce20 a0bd 84ab 50be
000002a0: 6685 963c 0b4a 05be a2d1 013e af1a 8ebb
000002b0: 1c76 f7be 66f2 5d3e 9920 7bbe f837 913c
000002c0: 575a 4e3d c57a 253c 273e 36bd aa42 cfbc
000002d0: 521b 8fbc 144b b33d f2a5 ca3c 6d46 803d
000002e0: 915c 45bd e90d c2bc a0f7 07be 1f3f fd3d
000002f0: d47e 27bd 5187 96bc e39e fdbc 1f2d 4ebd
00000300: d2e1 46bb bb92 2f3e 4bda 26be 0be4 ef3b
00000310: 2859 0e3d 8f9f a9bd d29f 7d3e 9d69 53bb
00000320: e92b 203e 5eae 04bc 59a1 2a3f ddfc 523f
00000330: 874a 303e c08b b73c ddec 483b 8c1f ed3c
00000340: c1e4 26bc ec36 133d 0fb3 93bd 2291 85be
00000350: bfc6 1e3f 4e68 323f eac3 be3c 089d cabc
00000360: 6069 e93c ddb4 18bd 3b7a 0abc 5327 943d
00000370: f085 d13d 0282 16bd 94aa 07be 2ebc 20be
00000380: 79b1 ddbc 0fd4 2bbc 6fac 29bc 6ad6 223d
00000390: b1eb 8e3d 82de 9e3c 5ee8 5a3c eda6 5e3c
000003a0: 32d4 97bc 69d3 b8bc dce8 8f3d 02f8 4c3d
000003b0: e4ab a13d e4d1 ab3b 802e 2f3c a26f df3b
000003c0: 8a2c 5e39 6137 aa3d 0088 ee3b 81cd 25bc
000003d0: 0e55 b63c 87cf 8fbc 4fe8 02bd b5b8 bd3c
000003e0: bea4 de3c 43d6 eb3a 8cfb e73c 00e3 123e
000003f0: 92e2 b33c 3473 57bd be5d a7bc edc8 7e3d
0.09987771 0.08414435 -0.104396276 -0.18199182 -0.097894125 0.036832348 -0.050557353 0.1042965
-0.026430927 -0.008857657 -0.19707526 0.18089455 -0.20997792 -0.14698792 -0.94689006 -0.06525017
-0.03993144 -0.08535739 -0.10315523 -0.19826347 -0.020177241 -0.18542518 0.34604993 0.6126855
0.067904375 0.009976741 0.012699974 -0.029994696 0.003443833 0.013254077 0.05222349 -0.016714368
-0.08156782 0.04805162 -0.023238413 0.057403907 0.058145635 -0.08361616 -0.076575965 0.076135024
0.045147333 0.030120488 -0.06861466 0.120079525 -0.026997065 0.021508612 0.0634393 0.0495748
0.034742296 -0.058546077 -0.019347882 0.14654 0.005309811 -0.011784965 0.025878811 -0.0006021172
0.16033155 -0.08229633 0.34029558 -0.045052763 0.020614536 0.27920583 -0.08145565 -0.05528942
0.020905547 -0.014388001 -0.06504352 -0.14265616 -0.09520397 -0.061992127 -0.02266952 0.032914862
-0.02753754 0.43997157 0.013038451 -0.0036818048 -0.02043248 0.0016718222 -0.043933813 -0.052752748
-0.037012164 -0.0794172 -0.0938702 0.01130256 -0.029086387 -0.017877925 -0.11436491 -0.01876683
0.007783934 -0.026780782 -0.0825047 -0.132104 -0.10743338 0.06489429 -0.10522451 -0.048841894
-0.11077441 -0.032664154 0.26959315 0.02485147 -0.025278766 -0.02577143 -0.033670127 -0.007650451
0.012377566 -0.05995357 -0.059673976 -0.09900482 0.049366664 -0.0065965606 -0.029514536 -0.17972335
-0.084170856 -0.09656513 -0.03572356 -0.02498473 -0.10436513 -0.018723885 -0.026483648 -0.13980083
0.008627272 -0.009411428 -0.20146306 0.23080552 -0.029887518 -0.03445984 -0.012562741 0.010124809
0.025504144 -0.028013784 -0.025240194 -0.09588412 -0.082740225 0.07145629 -0.04559218 0.07040966
-0.06517134 -0.17845696 -0.062213633 0.07036134 0.00063730223 0.032377917 -0.29513836 -0.017273044
0.06453262 -0.0052341437 0.089476004 0.11166112 0.026458882 -0.07086439 -0.11884234 -0.010913797
-0.024794962 -0.03268588 0.06686803 0.01749685 0.034996852 -0.018197939 0.12601303 0.086554095
-0.043993007 -0.13052621 0.16627933 -0.095392436 -0.00942007 -0.17668071 -0.07818757 -0.20377928
0.018374156 -0.13016526 0.12677625 -0.004336677 -0.48332298 0.21674499 -0.24524154 0.017726883
0.050379124 0.010100071 -0.044492867 -0.025300343 -0.017469082 0.087545544 0.024737332 0.06263433
-0.04818398 -0.023688274 -0.13278055 0.12365555 -0.040892437 -0.01837507 -0.030959552 -0.050336
-0.0030347002 0.17145817 -0.1629421 0.007320886 0.034752995 -0.082823865 0.24767998 -0.0032258995
0.1564175 -0.008098213 0.66652447 0.8241709 0.1721593 0.022405505 0.003065876 0.028945707
-0.010186375 0.03594105 -0.07211887 -0.2608729 0.6202201 0.69690406 0.023286778 -0.024733081
0.02849263 -0.03728186 -0.008451994 0.07234063 0.10230625 -0.03674508 -0.13248664 -0.15696785
-0.027062165 -0.01048757 -0.010356053 0.039755262 0.06978548 0.01939321 0.013361065 0.013589603
-0.0185338 -0.022561746 0.07026836 0.050041206 0.07894114 0.005243527 0.010692239 0.0068187276
0.00021188162 0.08311344 0.007279396 -0.010119797 0.022257354 -0.017555011 -0.031959828 0.023159364
0.027178165 0.0017992932 0.02831819 0.14344406 0.021958623 -0.0526001 -0.020430442 0.062203337

dec_layer_2.0.bias f4 [8]
00000000: 6a14 c63b f3d0 ae3c 0a24 bb3b 01f2 523c
00000010: 2290 163d 280b 7cbc b306 8f3c 4833 b3bc
0.006044914 0.02133987 0.0057110833 0.012875081 0.03675855 -0.015383519 0.01745925 -0.021875039

dec_layer_3.0.weight f4 [8, 3, 5, 5]
00000000: d2b6 e73b aad0 453c bc48 1b3d 8990 353d
00000010: 272d 483d a127 b3bc ce11 a13c 6cef b23d
00000020: 3a71 b63d 883d 313d 9ac8 d7bc 8719 443d
00000030: f9d7 143e 2748 173e f03e a83d 6672 873c
00000040: b850 ac3d a1e3 2f3e 58a2 313e 1ed0 ed3d
00000050: dde7 08bc c2ba 863c e69b b53d b1f3 c03d
00000060: 018b 923d a319 97bb 4f6a 0b3d 93b1 353d
00000070: ee75 493d 396c d53c 27aa 233a a4d6 a23d
00000080: 1a20 283e a96b 043e a474 963d 6c57 ef3c
00000090: dbff 143e 321e 8f3e 9169 613e 7993 d13d
000000a0: 87f6 683d 2d33 283e 0666 8c3e 4624 693e
000000b0: bd47 dd3d 9975 863a fe2f a33d 2ae0 1e3e
000000c0: 04ce e63d 71ad 653d 9f67 d23c 1af2 4d3d
000000d0: 6a9a d43d d0e1 5a3d d1d3 363d ff33 803d
000000e0: 9d7d 103e 1b67 783e cf9d 363e 55f6 c73d
000000f0: 79c3 c03d 1bb7 633e 6398 ce3e f1ae 913e
00000100: 925e 223e a5ea cb3d 35ec 703e f7f3 bb3e
00000110: 758b 793e 87be 033e 2630 d63c 9ac3 a13d
00000120: 4291 443e 3712 073e 9815 653d fe3a c33c
00000130: d3b3 873d 3fed 1dbb 24d8 c4bc f563 5bbd
00000140: 9e55 6e3d 9371 6b3d d1a8 093b 7971 9dbd
00000150: 2731 80bd 3072 cf3d c5f7 cf3d 53f9 1d3e
00000160: cb61 9e3d 8ccb 843d 3ae2 9e3c 530d 0a3d
00000170: f8bb 1f3e 1bad 323e 38f4 003e 670b 953c
00000180: d6b1 6c3d 9db1 1c3e c547 323e 2aab e43d
00000190: 7353 983c 6c78 71bb 1c44 9dbd 6031 9abd
000001a0: 97bb 1ebd 5099 483c c833 2c3c 531a d2bd
000001b0: e47a 0abe b3ed aabd e568 943c cbce 0f3d
000001c0: a547 64bd 525e 9ebd 933b d6bd 753e fabc
000001d0: 1320 bab9 f74c 433c ee36 4b3d 9d0c 85bc
000001e0: f9be 35bd 75d5 6cbc 123b fe3c 2701 de3d
000001f0: 6e67 133c 7411 143d 7f69 0a3d 15b4 a43c
00000200: d1db 10bd 6d34 1fbc 5cf7 c73d 3af5 903d
00000210: c2be a13c defe a8bd 7808 52bd 9f9e 063e
00000220: 9ee3 123e 264d 303e f603 5d3d d549 153d
00000230: 0a52 1a3d 8ce4 ae3d a88f 243e 69fc 243e
00000240: 2265 b53d 194c 91bc bcb4 293d 8f47 2a3e
00000250: ae95 4f3e ea47 f63d 7c92 dcbb 0b6c 623b
00000260: 340e e83c b494 a53c 7500 343d dc4c 173b
00000270: 563f 393d f3f1 993d 4e4e ff3d 48f1 c03d
00000280: fa08 98bc 8b87 bc3c 978a dc3d b9ed 3b3e
00000290: 8378 f13d 1f68 75bd 5494 dcbc 19e6 b73d
000002a0: 6784 d33d 5671 6c3d df8c bbbc 770a cebc
000002b0: 1106 0a3d 5b4b 813d efae 4b3d 735a 263d
000002c0: 2bfb 313d 3764 b93d ad4e a83d cf11 ce3c
000002d0: f735 8a3d 4dc5 ea3d 040a 313e 5221 463e
000002e0: 7a58 cc3d 7033 9b3d 8d56 ff3d f80d 823e
000002f0: 3ab2 933e 3e67 253e d4d8 c43c 1060 c33d
00000300: 4b10 4e3e 24f5 543e ea77 f63d e000 1e3d
00000310: 5610 373d d1de d83d 219e e83d d6ca 893d
00000320: 127b 1d3d 23ba 0c3d 7402 803d cf74 593d
00000330: 9a85 de3c 0cfe b03d 03d8 e63d e5f2 323e
00000340: 8656 4e3e 9f73 bc3d b94b 8c3d 870b 123e
00000350: 50bc 883e 6f3a 8d3e 0629 1c3e d20c 4d3d
00000360: 5ef9 c83d c681 6a3e 3609 4e3e 7d77 9c3d
00000370: d761 b73c 78db 333d ddc1 ce3d 9f00 d13d
00000380: 4403 6d3d 346a 3c3d 481e bc3d f643 383e
00000390: b5a1 ce3d 43d7 803d d4c2 303e 78d9 9a3e
000003a0: b3ee d33e 422c 773e 9c05 ee3d 7511 963e
000003b0: c6c0 fa3e 80c8 253f 3680 c03e 9f96 213e
000003c0: 47ae 863e 529f e43e be98 0c3f 2834 aa3e
000003d0: ac9e 0f3e 6d03 083e 7fd9 783e 1629 873e
000003e0: 47ed 273e c7d4 523d 582b ec3c 1820 3d3b
000003f0: 206b 983c 78a2 163b 177d b03c bee9 cbbb
0.0070713544 0.012073675 0.03791116 0.044327293 0.048871186 -0.021869482 0.01966181 0.08737072
0.08908315 0.04327157 -0.026340771 0.047875907 0.14535512 0.14773618 0.082151294 0.016534042
0.084138334 0.17176677 0.17347085 0.11611961 -0.008356062 0.016446475 0.08867626 0.094214804
0.07155419 -0.0046112104 0.03403693 0.0443588 0.049184732 0.026052581 0.0006243311 0.07951096
0.16418496 0.12931694 0.07346466 0.02921649 0.14550726 0.27952725 0.22012927 0.10233206
0.05687573 0.16425772 0.27421588 0.22767743 0.108046986 0.0010258436 0.07968138 0.155152
0.11269763 0.05607361 0.025684176 0.050279714 0.10381015 0.053438008 0.044635598 0.062599175
0.14110418 0.24258082 0.17833637 0.09763781 0.094122835 0.22237818 0.40350637 0.28453782
0.15856388 0.09956864 0.23527606 0.36709568 0.24369605 0.12865649 0.026146006 0.07898636
0.19196036 0.13190542 0.055928797 0.02383184 0.066260956 -0.0024097709 -0.024028845 -0.053562123
0.05818712 0.05748136 0.0021005163 -0.07687659 -0.06259375 0.101292014 0.1015468 0.15427141
0.07733496 0.06484136 0.019394983 0.033704113 0.15599048 0.17448847 0.12593162 0.018193914
0.057786785 0.15302129 0.1741019 0.111654595 0.01859448 -0.0036845459 -0.076790065 -0.07528949
-0.03875312 0.012243584 0.0105103925 -0.10258927 -0.13523442 -0.08346119 0.018116424 0.035109323
-0.055732388 -0.07732834 -0.10460582 -0.03054736 -0.00035500582 0.011920205 0.049612932 -0.016241366
-0.04437158 -0.014455189 0.031034026 0.108400635 0.0089968275 0.036149457 0.033792015 0.020105401
-0.035365883 -0.009717089 0.09763977 0.07078023 0.01974428 -0.08251737 -0.051277608 0.13146447
0.14344642 0.1721693 0.053958856 0.036447365 0.037675895 0.085396856 0.16070426 0.16111912
0.0885718 -0.017736482 0.041432127 0.1662886 0.20271942 0.12025435 -0.0067313295 0.0034549262
0.028327085 0.020212509 0.04394575 0.0023086583 0.045226417 0.07516851 0.12466107 0.09421021
-0.018558968 0.02301385 0.107686214 0.18352403 0.11790564 -0.05991375 -0.026926197 0.089794345
0.10327988 0.057725273 -0.022894321 -0.025151474 0.03369719 0.06313201 0.049727377 0.040613603
0.043452423 0.090523176 0.08218131 0.025154976 0.06748574 0.114634134 0.17288977 0.19348648
0.09977813 0.0757817 0.1246768 0.25401282 0.28846914 0.16152665 0.024029173 0.09539807
0.20123403 0.20796639 0.120345905 0.038575053 0.044693314 0.10589374 0.11358286 0.06728141
0.038447447 0.0343572 0.06250468 0.053089913 0.027163316 0.086422056 0.1127167 0.1747547
0.20150194 0.092017405 0.068503805 0.1426221 0.2670617 0.27583644 0.15250024 0.050061055
0.09813188 0.22901067 0.20120701 0.07639978 0.02238552 0.043910474 0.1009557 0.102051966
0.057864442 0.04599972 0.09185463 0.17994675 0.10089437 0.06291058 0.17261821 0.3024404
0.4139305 0.24137977 0.11622164 0.29310194 0.489752 0.64759064 0.37597817 0.15780114
0.26304838 0.44652802 0.54920566 0.33242917 0.14025372 0.13282557 0.24301718 0.26398534
0.16399108 0.05147245 0.028829262 0.002885824 0.018605769 0.0022985023 0.021544022 -0.0062229326

dec_layer_3.0.bias f4 [3]
00000000: c832 023c 0d33 3dba 97ad 173c
0.0079466775 -0.0007217385 0.009257696
