save/updated_model_exp/gen_model.pt (torch, 54829 bytes, 14 tensors)

enc_layer_1.0.weight f4 [32, 3, 5, 5]
-0.14800733 -0.0036207328 0.019841712 -0.07804416 0.055868044 -0.12242543 -0.061246186 -0.041227087
-0.051674087 -0.03478076 -0.018058589 0.13981834 0.15488225 -0.10088243 0.024481434 0.07895087
0.09107208 0.044009067 0.023315093 0.009202587 -0.0068595028 0.1385311 0.051484466 -0.070913926
-0.04316193 -0.14998421 -0.16501595 -0.25434163 -0.03005259 -0.090126365 0.024664566 0.005623281
-0.18228114 -0.10581074 -0.018748045 0.13486677 0.20316693 0.12365141 -0.07329565 -0.10440897
0.15311888 0.23833434 0.2224733 0.14346217 -0.03604803 0.17861389 0.17407773 0.26711985
0.04419629 -0.021602038 -0.09682576 -0.11706838 -0.13583486 0.01861329 0.14828919 -0.05764367
-0.050244223 -0.08691556 -0.007827113 -0.08291643 0.0969063 0.07882139 -0.02745745 -0.055704232
-0.10782474 0.13868041 0.056759167 0.21669208 0.047223117 -0.03329715 -0.009674915 0.01557242
0.16315842 0.09470346 -0.16425844 -0.087629706 -0.1497894 -0.102441914 0.0034746563 -0.10294783
-0.16651718 -0.11618431 0.02626768 -0.072668076 -0.010369484 -0.028469563 0.06486543 0.058001705
-0.007920889 0.019759478 -0.065094054 0.020794649 0.106888294 0.048536252 0.1068921 0.01952989
0.12686029 0.17176202 -0.04342681 -0.11933128 -0.07530983 -0.18920836 -0.07272806 -0.15539238
-0.057330266 -0.15385526 -0.12123117 -0.09060266 -0.052701816 -0.015094832 0.09721883 0.044067066
0.14751114 0.060230695 -0.033404678 0.18456914 0.13394122 0.2210444 0.21271838 0.029567663
0.12280223 0.10265823 0.1676456 0.14185789 0.10413716 -0.17580841 -0.15453143 -0.11950721
0.04316602 -0.006373725 -0.14847971 -0.03666619 -0.13174535 -0.10461955 -0.14337625 0.0627837
0.116688505 0.034166954 0.1268199 -0.00943045 0.11751499 0.055859607 0.06041428 0.10921589
0.1299521 0.1226103 0.044724453 0.06638415 0.17584117 0.07935107 0.07020573 -0.09805425
-0.13181396 -0.15406711 -0.011599437 0.0899268 0.12404152 0.11866463 -0.012256249 -0.01612438
0.094732404 0.107406884 0.10222902 0.12074237 0.08619168 -0.04726915 0.15095434 0.07540416
-0.054579813 -0.09149361 0.08915535 0.15649801 0.08772651 0.061543994 0.06356413 -0.12811786
-0.09273892 -0.102091275 -0.083620906 0.0031998437 -0.07265477 -0.10645994 -0.085364886 0.056546547
-0.13755742 -0.0060403477 -0.078056306 0.046607822 0.047580406 0.06738568 -0.07325983 -0.01320541
0.054442614 0.09739599 -0.0009906659 -0.020797864 -0.022910146 0.071564235 -0.025300073 -0.13066263
-0.120538145 -0.06715418 -0.12321386 -0.073018216 -0.15099554 0.055887066 0.16755702 0.08470023
-0.06978814 -0.110942736 0.057071805 0.0036535223 -0.008973344 0.052769717 0.05516489 0.1432706
-0.016671577 -0.027675495 0.06250875 0.0071934112 0.017833369 0.06450799 0.00044032227 0.10217297
0.023432896 -0.026950363 0.15028876 0.086974904 0.124330565 0.021759955 0.08409297 0.116942376
0.15975462 0.044975646 0.03975742 0.118772514 0.16625595 0.095331214 -0.043727018 0.044331945
-0.0027396372 -0.010283387 -0.008711866 0.06343659 0.03957157 0.13025981 0.20881687 -0.00049212255
0.083519675 0.18789776 -0.08758523 -0.08424124 -0.05141417 -0.02153355 -0.13359131 0.0043157116
00000000: 3c8f 17be d149 6dbb 168b a23c 9ed5 9fbd
00000010: e4d5 643d 2fba fabd 48dd 7abd bcdd 28bd
00000020: 35a8 53bd 4576 0ebd 9bef 93bc 8a2c 0f3e
00000030: 7499 1e3e 739b cebd 4a8d c83c feb0 a13d
00000040: 0084 ba3d da42 343d 4bff be3c 73c6 163c
00000050: aec5 e0bb 19db 0d3e 60e1 523d 523b 91bd
00000060: 90ca 30bd 7695 19be f1f9 28be 1139 82be
00000070: d930 f6bc 2c94 b8bd 580d ca3c 8043 b83b
00000080: e8a7 3abe 4db3 d8bd 8095 99bc 841a 0a3e
00000090: fe0a 503e f33c fd3d 081c 96bd 5fd4 d5bd
000000a0: 32cb 1c3e eb0d 743e 0ad0 633e bfe7 123e
000000b0: 19a7 13bd 8fe6 363e 6f41 323e efc3 883e
000000c0: 2b07 353d c2f6 b0bc 964c c6bd 8cc1 efbd
000000d0: 4b18 0bbe e67a 983c 1fd9 173e c51b 6cbd
000000e0: e3cc 4dbd c900 b2bd 4b3d 00bc 17d0 a9bd
000000f0: cf76 c63d 1c6d a13d 72ee e0bc 1f2a 64bd
00000100: 38d3 dcbd 3d02 0e3e 4d7c 683d 87e4 5d3e
00000110: 076d 413d 9862 08bd 8983 1ebc 7723 7f3c
00000120: 0013 273e e3f3 c13d 5d33 28be 3477 b3bd
00000130: 6462 19be 11cd d1bd 0fb7 633b 50d6 d2bd
00000140: 7b83 2abe 0af2 edbd 512f d73c 00d3 94bd
00000150: c5e4 29bc 0039 e9bc 2bd8 843d 3293 6d3d
00000160: 9ec6 01bc a1de a13c 0850 85bd 8a59 aa3c
00000170: 40e8 da3d f3cd 463d 3fea da3d 26fd 9f3c
00000180: aae7 013e 62e2 2f3e 50e0 31bd f563 f4bd
00000190: 0a3c 9abd d6bf 41be 73f2 94bd 2e1f 1fbe
000001a0: 24d3 6abd 3c8c 1dbe 0c48 f8bd e38d b9bd
000001b0: dcdd 57bd 5050 77bc aa1a c73d ab7f 343d
000001c0: 290d 173e 76b4 763d 58d3 08bd b1ff 3c3e
000001d0: e327 093e 7759 623e d9d2 593e e237 f23c
000001e0: bc7f fb3d 7a3e d23d 4aab 2b3e 3243 113e
000001f0: dd45 d53d 1f07 34be 7d3d 1ebe 32c0 f4bd
00000200: dace 303d aeda d0bb 110b 18be 492f 16bd
00000210: 41e8 06be c642 d6bd 39d1 12be be94 803d
00000220: 62fa ee3d a6f2 0b3d 13dd 013e 2d82 1abc
00000230: b3ab f03d 0bcd 643d f774 773d 95ac df3d
00000240: 2a12 053e 1c1b fb3d fd30 373d 6af4 873d
00000250: b50f 343e d082 a23d 06c8 8f3d abd0 c8bd
00000260: 3dfa 06be c5c3 1dbe 910b 3ebc 8b2b b83d
00000270: 7b09 fe3d 7106 f33d 6fce 48bc 4717 84bc
00000280: 1003 c23d 24f8 db3d 735d d13d c747 f73d
00000290: 4385 b03d 4c9d 41bd c693 1a3e 7f6d 9a3d
000002a0: 158f 5fbd 0061 bbbd 1597 b63d 0441 203e
000002b0: f5a9 b33d 8e15 7c3d e92d 823d 5431 03be
000002c0: e7ed bdbd 3b15 d1bd 7041 abbd 78b4 513b
000002d0: 06cc 94bd ab07 dabd c9d3 aebd 5a9d 673d
000002e0: dadb 0cbe 1cee c5bb fcdb 9fbd d8e7 3e3d
000002f0: ace3 423d 8101 8a3d 4009 96bd 815b 58bc
00000300: 38ff 5e3d 8c77 c73d 3bd9 81ba 4860 aabc
00000310: 0fae bbbc 4590 923d 1942 cfbc 6dcc 05be
00000320: b4dc f6bd 2188 89bd 8c57 fcbd 938a 95bd
00000330: 939e 1abe d6e9 643d 1194 2b3e 5077 ad3d
00000340: 16ed 8ebd f235 e3bd 20c4 693d ef6f 6f3b
00000350: ef04 13bc 0f25 583d 94f4 613d 87b5 123e
00000360: d592 88bc b8b7 e2bc 9604 803d b5b6 eb3b
00000370: 4917 923c c41c 843d 0edb e639 1040 d13d
00000380: 58f6 bf3c 02c7 dcbc 4ce5 193e e61f b23d
00000390: 06a1 fe3d ef41 b23c ef38 ac3d 7c7f ef3d
000003a0: b796 233e 6238 383d add8 223d 013f f33d
000003b0: 003f 2a3e 033d c33d 1a1b 33bd 6a95 353d
000003c0: 7c8b 33bb a77b 28bc 37bc 0ebc 0beb 813d
000003d0: cc15 223d d462 053e 17d4 553e c901 01ba
000003e0: 5d0c ab3d 4568 403e e35f b3bd ac86 acbd
000003f0: aa97 52bd 2167 b0bc 29cc 08be d06a 8d3b

enc_layer_1.0.bias f4 [32]
0.09090333 0.057240814 -0.20637804 -0.088480346 -0.278982 -0.11879218 0.019137613 0.06270563
-0.17553082 0.066498995 0.08051957 0.09800681 0.2118306 0.019698419 0.10674151 -0.040683955
0.03131599 0.0007317035 0.19026747 -0.19810908 -0.6247277 -0.33783177 -0.16054046 -0.69807976
0.1806665 -0.535197 0.023674779 -0.05240216 -0.30549517 0.00061166275 -0.0025449502 -0.6650514
00000000: 862b ba3d 5875 6a3d c454 53be 2f35 b5bd
00000010: bbd6 8ebe 5149 f3bd 7cc6 9c3c cf6b 803d
00000020: 5abe 33be a030 883d 72e7 a43d cbb7 c83d
00000030: 1fea 583e 945e a13c 4b9b da3d 38a4 26bd
00000040: 3245 003d cacf 3f3a 7ad5 423e 1bdd 4abe
00000050: 28ee 1fbf 49f8 acbe b864 24be 5bb5 32bf
00000060: a400 393e ac02 09bf 9cf1 c13c a6a3 56bd
00000070: dd69 9cbe fe57 203a 2ec9 26bb cf40 2abf

enc_layer_2.0.weight f4 [16, 32, 3, 3]
-0.04056863 -0.18007998 0.045243144 0.052278716 0.027613005 -0.056773372 0.007444935 0.0047148005
-0.019239739 -0.053268462 -0.07943309 -0.07208375 0.0024865218 0.037727743 -0.11548316 -0.02568809
-0.053535506 -0.051307272 -0.122103214 -0.10016335 -0.011113133 0.115432404 0.036952697 0.031392444
-0.061053734 -0.12831888 -0.0068897502 -0.030264813 -0.0031327002 0.012630564 -0.034361426 -0.10685773
-0.013264681 -0.0885628 -0.07851926 -0.030580424 0.07218723 0.045283776 0.12184328 0.16413724
0.37847605 0.3131702 0.037094243 0.24196066 0.28488484 -0.04631766 0.028833289 -0.052686617
0.051238265 0.044476207 0.048996255 -0.00034439153 0.028591692 -0.053884093 -0.008246426 0.07737582
0.03714425 0.1105517 -0.0146116875 -0.005083884 -0.029145896 0.018398734 0.05494565 -0.0035441099
0.011506173 0.029718384 -0.02331916 -0.010473089 -0.04431626 -0.0037574468 -0.02925231 -0.06433924
-0.019515589 0.028236909 0.09919022 0.07181486 0.056913506 0.018623035 -0.0103976745 -0.030636393
0.014658734 -0.04242955 -0.034240223 0.04425938 0.00028354136 -0.007895858 -0.056602996 0.0073206276
0.024826353 -0.018108645 -0.02751792 -0.049290445 -0.002324864 -0.05518482 0.08244052 0.012299621
0.0653248 -0.00871127 -0.024218772 0.04504365 0.0026558042 0.028185004 0.015537148 -0.03900099
0.024653863 0.020847348 0.09371648 0.04112395 -0.0072906767 -0.112977505 0.06006323 0.10101009
0.1701423 0.0012308608 -0.042955294 -0.008574228 0.04207016 0.27403453 0.36107218 0.19561575
0.029009843 0.04306977 -0.020629985 0.13796389 0.0470392 0.12880376 0.08586505 -0.0080978265
-0.016740745 0.06028563 0.04565327 0.033574812 0.019672312 -0.028759683 0.05965347 -0.1380446
0.004070851 -0.009261894 0.07375871 0.02008435 -0.09995721 -0.14639223 0.09364843 0.012179995
-0.05784297 0.08132342 -0.026288385 0.07015804 0.04165263 -0.048167177 0.054122813 0.030738786
0.05615116 0.06713923 -0.07774707 0.015924983 -0.018208344 -0.007298606 -0.07607788 0.029994575
0.059162375 0.026022865 -0.32983103 -0.31243932 0.08459685 -0.19253679 -0.13950866 -0.05297316
0.11430691 -0.10687524 0.014343769 0.09560719 -0.006856603 0.14713499 0.167271 0.032854106
0.012251638 -0.003837532 0.05060083 0.042031508 -0.22987264 -0.10601822 -0.034449216 0.39788356
-0.067450725 -0.27118897 0.2805645 0.3334332 0.2632738 -0.08708605 -0.020946315 -0.0114072375
0.013666977 -0.054015856 0.094309725 0.04745127 0.024309648 0.12594871 0.4452849 0.5231421
0.14385569 0.020070536 -0.42878145 0.012955043 0.21327725 0.5222422 0.07237112 -0.019308824
-0.28950065 -0.19073425 0.15139173 0.17847705 -0.01578695 0.2576622 0.2314409 0.115740255
0.2478413 0.13895574 0.19705443 -0.0891882 0.0812559 0.20422469 0.14305425 -0.014024727
0.09422177 0.19954106 0.20651236 0.061761826 0.1308293 0.06517657 -0.09019952 0.22905129
0.091546394 0.039074264 -0.026198698 -0.013872014 0.0035333803 0.061709817 -6.444466e-05 0.030910408
-0.009587406 -0.062480092 -0.019562038 0.15427658 -0.016701724 0.11862135 -0.09553973 -0.08980547
-0.0017212955 -0.07762709 -0.10402474 -0.03417766 -0.07997581 -0.008739317 -0.04251833 0.040325828
00000000: 4b2b 26bd e366 38be e050 393d 3522 563d
00000010: ab34 e23c 328b 68bd a4f4 f33b 9d7e 9a3b
00000020: a89c 9dbc 0830 5abd d1ad a2bd a5a0 93bd
00000030: eaf4 223b 6888 1a3d 6f82 ecbd d46f d2bc
00000040: 0c48 5bbd 9327 52bd 4011 fabd 7122 cdbd
00000050: dc13 36bc d367 ec3d b65b 173d 5d95 003d
00000060: 7b13 7abd 0666 03be 6ac3 e1bb eaed f7bc
00000070: fd4d 4dbb 6df0 4e3c 91be 0cbd 3ad8 dabd
00000080: 1b54 59bc 6a60 b5bd b5ce a0bd cc83 fabc
00000090: e6d6 933d 7b7b 393d f888 f93d 9813 283e
000000a0: 9dc7 c13e d857 a03e 22f0 173d 89c4 773e
000000b0: 6ddc 913e 96b7 3dbd ca33 ec3c eccd 57bd
000000c0: 37df 513d af2c 363d 4cb0 483d 738f b4b9
000000d0: 2039 ea3c 91b5 5cbd 041c 07bc 3777 9e3d
000000e0: 9224 183d ee68 e23d dc65 6fbc b696 a6bb
000000f0: 60c3 eebc f1b8 963c b10e 613d 4c44 68bb
00000100: 6384 3c3c f873 f33c d307 bfbc 5297 2bbc
00000110: f784 35bd 7f3f 76bb 8aa2 efbc 4bc4 83bd
00000120: 28df 9fbc 1751 e73c 3e24 cb3d ab13 933d
00000130: 231e 693d 568f 983c 025b 2abc 2cf9 fabc
00000140: 302b 703c 9cca 2dbd 7a3f 0cbd 5349 353d
00000150: 47a8 9439 a15d 01bc 8bd8 67bd e0e1 ef3b
00000160: a360 cb3c 9558 94bc 436d e1bc c7e4 49bd
00000170: bf5c 18bb 7a09 62bd 93d6 a83d 5984 493c
00000180: 02c9 853d b7b9 0ebc 7266 c6bc b17f 383d
00000190: 000d 2e3b 3de4 e63c 868f 7e3c 81bf 1fbd
000001a0: e6f6 c93c 0fc8 aa3c 6dee bf3d 9671 283d
000001b0: a1e6 eebb c060 e7bd dd04 763d 61de ce3d
000001c0: c839 2e3e d654 a13a e4f1 2fbd eb7a 0cbc
000001d0: c351 2c3d 414e 8c3e 74de b83e 7f4f 483e
000001e0: 0da6 ed3c ed69 303d 3700 a9bc 6846 0d3e
000001f0: 2dac 403d 22e5 033e 04da af3d bfac 04bc
00000200: e323 89bc 11ee 763d ecfe 3a3d be85 093d
00000210: d427 a13c 6d99 ebbc 3257 743d 905b 0dbe
00000220: c664 853b 33bf 17bc ce0e 973d ef87 a43c
00000230: 5eb6 ccbd d8e7 15be c0ca bf3d 9a8e 473c
00000240: c0ec 6cbd e58c a63d bd5a d7bc 05af 8f3d
00000250: f39b 2a3d f24a 45bd e2af 5d3d e8cf fb3c
00000260: c2fe 653d 4b80 893d db39 9fbd 1c75 823c
00000270: aa29 95bc 2529 efbb b8ce 9bbd 2fb7 f53c
00000280: 3f54 723d e72d d53c 9ddf a8be 0cf8 9fbe
00000290: 1d41 ad3d 5d28 45be 5cdb 0ebe 62fa 58bd
000002a0: be19 ea3d 68e1 dabd 2102 6b3c b4cd c33d
000002b0: 5bad e0bb 8eaa 163e 1749 2b3e 0792 063d
000002c0: 18bb 483c 1a7f 7bbb d142 4f3d 3b29 2c3d
000002d0: bc63 6bbe 1520 d9bd 9f1a 0dbd 65b7 cb3e
000002e0: 9b23 8abd 48d9 8abe 26a6 8f3e c2b7 aa3e
000002f0: d3cb 863e 2c5a b2bd 9b97 abbc 6ce5 3abc
00000300: 75eb 5f3c bb3f 5dbd 7525 c13d 435c 423d
00000310: 0725 c73c b3f8 003e 62fc e33e a4ec 053f
00000320: e84e 133e f76a a43c 3e89 dbbe 6441 543c
00000330: 5a65 5a3e aab1 053f 4f37 943d 8a2d 9ebc
00000340: 6e39 94be d74f 43be 6f06 1b3e b0c2 363e
00000350: a253 81bc 4dec 833e d8fe 6c3e 3a09 ed3d
00000360: 1cca 7d3e 6a4a 0e3e a3c8 493e 4ea8 b6bd
00000370: 7e69 a63d 4720 513e d07c 123e f8c7 65bc
00000380: 58f7 c03d 7e54 4c3e fa77 533e f8f9 7c3d
00000390: 1ef8 053e 4b7b 853d 87ba b8bd 6c8c 6a3e
000003a0: ad7c bb3d 560c 203d a79e d6bc 7247 63bc
000003b0: 4990 673b 6fc3 7c3d 7726 87b8 d337 fd3c
000003c0: 7f14 1dbc 20eb 7fbd 9140 a0bc aefa 1d3e
000003d0: 0ed2 88bc c0ef f23d 55aa c3bd eeeb b7bd
000003e0: 189d e1ba f4fa 9ebd ec0a d5bd e0fd 0bbd
000003f0: 5cca a3bd 5a2f 0fbc b327 2ebd b22c 253d

enc_layer_2.0.bias f4 [16]
0.0025935413 0.16595839 0.10942388 0.07224002 0.04490637 -0.0036197791 -0.01050417 -0.03851137
0.25483105 0.02154611 0.10649315 0.062737316 0.04591198 0.099211834 0.03240675 -0.081462614
00000000: 67f8 293b fff0 293e a119 e03d 93f2 933d
00000010: beef 373d d139 6dbb af19 2cbc 19be 1dbd
00000020: 3779 823e 7881 b03c 1519 da3d 6c7c 803d
00000030: 330e 3c3d 932f cb3d f1bc 043d dfd5 a6bd

enc_layer_large.0.weight f4 [4, 16, 3, 3]
-0.043556098 -0.056918528 0.008745727 -0.021278698 0.36948013 0.07106841 0.02449735 0.10149084
0.11554117 0.02810699 0.04750854 -0.0043676435 -0.14957689 0.20456514 0.061546404 -0.063254364
-0.09368875 0.0588285 0.0045551835 0.03294408 -0.06384831 -0.15742175 0.25058264 -0.15741825
-0.0644731 -0.1429293 -0.05390924 -0.13032961 -0.03295786 0.02083157 -0.16174747 0.14684147
0.0662643 -0.06766974 -0.06273802 -0.008057774 0.039803196 0.07320299 -0.041964136 -0.13162267
-0.13511574 0.058935974 0.103404775 0.1706225 0.0032715306 -0.06140382 -0.08093811 -0.015956147
0.15575007 -0.34046015 0.07300684 -0.018987607 -0.073381156 0.038167793 -0.032701485 -0.038410235
-0.014746725 0.21751122 0.026989795 0.076059215 -0.04842795 -8.105327e-05 0.01017884 0.0017015574
0.036749713 0.043680884 -0.025489416 0.02975429 0.11745939 0.0150267435 0.014527697 -0.033128276
0.003776667 -0.11090536 -0.052044313 -0.1591193 -0.033720914 -0.08660758 -0.11141088 -0.15514447
-0.0319188 0.012950123 0.09072132 0.04329301 0.14772387 0.22307807 -0.033236805 -0.08604185
-0.07693491 0.009319552 -0.0011605275 0.023135455 -0.020254282 0.11517084 0.20444474 -0.11179053
0.071597144 0.10274194 -0.0012523318 -0.14224242 -0.012221854 -0.023859443 -0.060016837 0.06526397
-0.14200015 -0.030508261 -0.042690862 -0.09976912 -0.06631201 -0.0023033328 0.046364184 0.040029444
0.118347876 0.03710146 0.08518455 0.1162942 0.01508864 -0.069788724 -0.04352701 -0.093232386
-0.13698123 0.245573 -0.19652733 -0.053939044 -0.24044892 -0.028436769 -0.014239469 -0.19279617
-0.123059586 -0.05611924 -0.60327077 -0.19542766 -0.00935606 -0.10215534 0.038547542 -0.015863338
-0.062044136 -0.0604513 0.17189081 0.36835554 -0.037748702 0.029784927 -0.044503357 -0.11165874
0.0032912549 0.04868078 -0.02844144 0.018430065 -0.10709704 0.12313542 -0.02594197 -0.14570081
0.08003744 -0.00039588753 -0.06647528 0.035124823 0.08755172 -0.043213595 0.041643064 0.07941511
0.034279775 0.07235191 0.027063008 0.071266375 0.06397332 0.1594116 -0.04553857 0.08740579
0.061114296 -0.1439348 0.010373109 0.021940693 0.07915561 0.023466764 0.09746451 -0.17088637
0.025885344 0.042675063 -0.2374213 -0.06768473 0.025847415 0.055598803 0.0116378935 0.030658748
0.058723997 -0.06619188 -0.06844564 0.1463019 -0.020266596 0.1089152 0.071364544 -0.02546429
0.059543002 -0.116977796 0.1416803 0.12242043 -0.053685796 0.081970066 -0.032865725 -0.025359407
-0.033810463 -0.082091644 0.009041514 0.09931487 -0.061153587 0.053235706 0.07402171 -0.012585393
0.08860182 -0.034648813 -0.02258037 0.114612326 0.14455168 -0.053686567 0.24409409 -0.02987667
0.03783191 0.025364656 0.064960025 0.037625995 -0.19177498 0.031414848 0.07130885 -0.16835013
0.043116882 0.0090350695 -0.043070402 0.011890605 -0.052148014 0.009601828 -0.08149327 0.007703942
-0.29013854 -0.018351033 0.05604361 -0.0074095847 0.036917295 -0.061250098 -0.36635157 -0.059547767
-0.06463711 0.10619063 -0.08438214 0.04390789 0.049527038 0.02311644 -0.01771018 0.15104946
0.016123677 0.058983564 0.07463347 -0.100689 0.024948167 -0.020148149 -0.03429433 -0.09334993
00000000: e167 32bd 6723 69bd 3d4a 0f3c aa50 aebc
00000010: 802c bd3e 518c 913d abae c83c 6eda cf3d
00000020: d9a0 ec3d a140 e63c 5198 423d 731e 8fbb
00000030: af2a 19be 8679 513e 1518 7c3d 818b 81bd
00000040: e3df bfbd 27f6 703d a643 953b 5ff0 063d
00000050: e7c2 82bd 2b33 21be 5e4c 803e 4032 21be
00000060: 790a 84bd 0f5c 12be efcf 5cbd 2075 05be
00000070: d2fe 06bd f8a6 aa3c 21a1 25be 9c5d 163e
00000080: 94b5 873d 6f96 8abd cb7c 80bd c104 04bc
00000090: ad08 233d 73eb 953d 96e2 2bbd 18c8 06be
000000a0: c85b 0abe d966 713d e2c5 d33d aab7 2e3e
000000b0: 2d67 563b 9282 7bbd e1c2 a5bd 77b6 82bc
000000c0: f27c 1f3e cb50 aebe 9c84 953d e68b 9bbc
000000d0: dc48 96bd d555 1c3d fef1 05bd 0d54 1dbd
000000e0: 3f9c 71bc 43bb 5e3e b419 dd3c efc4 9b3d
000000f0: 635c 46bd 25fb a9b8 26c5 263c cb06 df3a
00000100: de86 163d baea 323d 2ecf d0bc 45bf f33c
00000110: 8c8e f03d bb32 763c 9405 6e3c 84b1 07bd
00000120: f581 773b 5922 e3bd 6b2c 55bd 2bf0 22be
00000130: f11e 0abd 515f b1bd 632b e4bd 31de 1ebe
00000140: 4abd 02bd c12c 543c 19cc b93d 0354 313d
00000150: ed44 173e 946e 643e 5123 08bd b636 b0bd
00000160: 0d90 9dbd 09b1 183c d71c 98ba 9186 bd3c
00000170: 4fec a5bc b0de eb3d f659 513e 6ff2 e4bd
00000180: 86a1 923d 5e6a d23d 4825 a4ba ffa7 11be
00000190: 2c3e 48bc e174 c3bc 37d4 75bd 1ea9 853d
000001a0: 7d68 11be 76ec f9bc 9ddc 2ebd c153 ccbd
000001b0: 97ce 87bd 83f3 16bb 5fe8 3d3d eaf5 233d
000001c0: 5f60 f23d b3f7 173d 3d75 ae3d a72b ee3d
000001d0: 5836 773c 64ed 8ebd 6149 32bd 9ff0 bebd
000001e0: cf44 0cbe 7d77 7b3e 763e 49be 30ef 5cbd
000001f0: 3e38 76be 3af4 e8bc a94c 69bc 5c6c 45be
00000200: aa06 fcbd 4add 65bd f46f 1abf 301e 48be
00000210: 294a 19bc d236 d1bd 07e4 1d3d d5f3 81bc
00000220: fe21 7ebd c89b 77bd 2504 303e 1999 bc3e
00000230: 629e 1abd 85ff f33c 2749 36bd 56ad e4bd
00000240: 18b2 573b 7f65 473d 06fe e8bc a6fa 963c
00000250: b155 dbbd 6c2e fc3d 4184 d4bc 9832 15be
00000260: abea a33d 208f cfb9 3124 88bd 0cdf 0f3d
00000270: 514e b33d bd00 31bd eb91 2a3d 64a4 a23d
00000280: f368 0c3d 3d2d 943d 3eb3 dd3c 1bf4 913d
00000290: 7204 833d cb3c 233e a786 3abd cf01 b33d
000002a0: fc52 7a3d a563 13be f9f3 293c f8bc b33c
000002b0: 561c a23d 5f3d c03c 799b c73d d6fc 2ebe
000002c0: 800d d43c 0ccc 2e3d 921e 73be 4b9e 8abd
000002d0: f5bd d33c 92bb 633d ddac 3e3c 0e28 fb3c
000002e0: 9388 703d 9c8f 87bd 3a2d 8cbd 2ad0 153e
000002f0: 2206 a6bc ef0e df3d 9327 923d 7d9a d0bc
00000300: 5de3 733d 0e92 efbd a414 113e 90b7 fa3d
00000310: a3e5 5bbd ecdf a73d 369e 06bd 88be cfbc
00000320: d77c 0abd aa1f a8bd dc22 143c 9865 cb3d
00000330: 2f7c 7abd af0d 5a3d b298 973d f732 4ebc
00000340: df74 b53d eaeb 0dbd 78fa b8bc deb9 ea3d
00000350: 5b05 143e 72e6 5bbd cdf3 793e ebbf f4bc
00000360: a2f5 1a3d 8ac9 cf3c c309 853d b71d 1a3d
00000370: a960 44be dbac 003d 600a 923d fa63 2cbe
00000380: 549b 303d d407 143c 976a 30bd d0d0 423c
00000390: 2899 55bd fc50 1d3c f2e5 a6bd 5971 fc3b
000003a0: 0a8d 94be e854 96bc fc8d 653d 1acc f2bb
000003b0: 9736 173d 62e1 7abd 6f92 bbbe 5ce8 73bd
000003c0: 7660 84bd 797a d93d 8bd0 acbd c2d8 333d
000003d0: dddc 4a3d b05e bd3c f014 91bc b6ac 1a3e
000003e0: cd15 843c c098 713d 6fd9 983d 0936 cebd
000003f0: 1960 cc3c bb0d a5bc 3678 0cbd 402e bfbd

enc_layer_large.0.bias f4 [4]
0.04133396 0.14502876 0.06568229 -0.02319991
00000000: cc4d 293d 6b82 143e 7084 863d bd0d bebc

enc_layer_small.0.weight f4 [8, 16, 3, 3]
-0.064832196 -0.1297836 -0.042385753 -0.038574368 0.022652112 -0.062262062 0.06370433 -0.046024878
-0.031587236 -0.018982405 -0.000602608 0.0067338217 0.19367322 0.060536094 0.10455129 0.19806214
0.07365856 0.025252175 0.024799496 0.04185209 0.019889403 0.080673754 0.0612805 0.044392314
0.031477526 0.15241066 0.033223677 -0.043350168 -0.010264783 -0.035948396 0.0053544804 0.09280483
0.111038536 -0.1282904 -0.06516657 -0.1251384 -0.003216143 -0.019091891 0.020448992 -0.085002266
-0.21245067 -0.12566613 -0.015922561 -0.052452832 0.017338738 0.09963589 0.03334776 0.06590059
0.15211707 0.2128565 0.20924224 0.011124792 0.1333098 0.13084452 -0.0062176357 0.022364598
0.05276272 -0.0028343848 0.014637087 0.044763464 0.0029801247 0.020161616 -0.027553698 0.06713005
0.09189907 0.02066858 0.09392797 0.12716812 0.053571794 0.23101918 0.3025972 0.2847084
0.035658203 0.04533137 -0.0025756394 -0.14792548 0.034335762 -0.03380834 -0.062344626 0.06053637
0.07467231 -0.010203451 0.122968905 0.055751164 0.065622784 0.063209504 0.031228064 0.058575395
0.047993354 -0.03572146 -0.04678984 -0.07400968 -0.12850922 0.029966177 0.100271255 0.033472706
-0.098606646 -0.090708226 -0.023834595 -0.0045935814 -0.0045806067 -0.0016462405 -0.071024396 -0.021731045
0.09593836 -0.06815134 -0.137443 -0.01777953 0.024443712 0.159378 0.10036277 0.020228827
0.039479896 0.046113513 -0.075209655 -0.024983171 -0.02920518 -0.039154213 -0.031434078 -0.07676961
0.08631492 0.084793106 0.068405226 0.12565418 0.06357397 0.087438315 0.14199209 0.091232575
-0.12930623 0.081702635 0.17049998 -0.022195112 0.005598465 -0.08352291 -0.08240766 0.07868517
0.021409146 -0.03496106 -0.0678595 -0.0844373 -0.11078265 -0.011553363 0.011067104 0.022293145
0.05227677 0.03995304 -0.06256562 0.030066064 0.042419024 0.13661808 0.14749746 -0.07452461
-0.024450991 0.17971307 0.083772615 0.08100346 0.13347074 -0.034942072 -0.20166944 0.13494353
-0.08706149 0.046340466 0.08148088 0.0019596035 0.10230017 0.11124447 -0.076500766 0.056368683
-0.054501697 -0.17983356 -0.02203118 -0.1070253 -0.0060308883 -0.13628253 -0.07880014 0.15289643
0.045878142 0.08027955 -0.004042795 -0.00059541175 0.05016396 0.05598069 0.1374331 -0.11579421
-0.19078897 -0.21054803 -0.07558297 -0.14921577 -0.0133961 -0.015562791 -0.07550394 -0.07957527
-0.117868215 -0.0071251425 0.03877678 0.018241784 0.056356233 -0.06766948 0.044474665 0.04778951
0.06280279 0.07565121 -0.07119812 -0.09916318 0.08280998 0.066322334 -0.06303474 0.14996043
0.1423619 0.2900859 -0.027072102 -0.107695274 0.07125845 -0.07038411 -0.32403803 -0.04937871
-0.11210472 -0.075594105 0.020471465 -0.0057148174 0.17979304 0.19685093 -0.14891227 0.2131996
0.053844113 -0.020902969 0.010206608 0.014487086 -0.045756515 0.099943645 0.14979166 0.041634977
0.13544898 0.094186425 -0.121620625 -0.0741127 -0.009896465 0.011164995 0.0702252 0.004271234
0.035162445 -0.004987394 0.038553696 0.061876856 0.0003233179 0.06803211 0.12207336 0.20810786
0.14894654 0.17195214 0.09126753 0.08061509 0.003881079 0.0178583 -0.06843147 -0.035660412
00000000: bec6 84bd fee5 04be af9c 2dbd 2800 1ebd
00000010: ec90 b93c 8106 7fbd 6a77 823d 9584 3cbd
00000020: 9e61 01bd fd80 9bbc 57f8 1dba 64a7 dc3b
00000030: 4652 463e b2f4 773d fd1e d63d cdd0 4a3e
00000040: 4dda 963d a6dd ce3c 5028 cb3c 196d 2b3d
00000050: 1aef a23c 4838 a53d 4301 7b3d b7d4 353d
00000060: 94ee 003d 8a11 1c3e 8d15 083d f28f 31bd
00000070: 9f2d 28bc a03e 13bd a374 af3b 7510 be3d
00000080: 2c68 e33d 8f5e 03be 0d76 85bd 4824 00be
00000090: edc5 52bb 9966 9cbc a584 a73c ab15 aebd
000000a0: ab8c 59be 9fae 00be 0870 82bc c8d8 56bd
000000b0: f809 8e3c e70d cc3d a997 083d e3f6 863d
000000c0: 94c4 1b3e 0ef7 593e 9943 563e c244 363c
000000d0: 5d82 083e 1bfc 053e 4fbd cbbb f635 b73c
000000e0: b91d 583d 16c1 39bb 64d0 6f3c e559 373d
000000f0: 324e 433b f929 a53c 4bb8 e1bc 7b7b 893d
00000100: 9435 bc3d 2751 a93c 4f5d c03d 5c38 023e
00000110: 196e 5b3d 4b90 6c3e 05ee 9a3e 4dc5 913e
00000120: 560e 123d 63ad 393d 0fcc 28bb c779 17be
00000130: a8a3 0c3d 9d7a 0abd 145d 7fbd fcf4 773d
00000140: cced 983d 602c 27bc 1fd7 fb3d 555b 643d
00000150: 3d65 863d fc73 813d ffd1 ff3c c1ec 6f3d
00000160: ae94 443d aa50 12bd b4a6 3fbd 6392 97bd
00000170: ec97 03be a17b f53c 045b cd3d ad1a 093d
00000180: 48f2 c9bd 3cc5 b9bd c540 c3bc c185 96bb
00000190: ea18 96bb aac6 d7ba 3d75 91bd 4e05 b2bc
000001a0: 557b c43d ee92 8bbd dcbd 0cbe 60a6 91bc
000001b0: 2e3e c83c fd33 233e ff8a cd3d edb6 a53c
000001c0: acb5 213d 86e1 3c3d 8507 9abd 82a9 ccbc
000001d0: b43f efbc 2b60 20bd 05c1 00bd 6339 9dbd
000001e0: e0c5 b03d 02a8 ad3d 0a18 8c3d 7dab 003e
000001f0: 1233 823d dc12 b33d 6066 113e 25d8 ba3d
00000200: da68 04be b653 a73d 8c97 2e3e 86d2 b5bc
00000210: 5473 b73b 0f0e abbd 59c5 a8bd b125 a13d
00000220: 3c62 af3c 5433 0fbd ecf9 8abd 77ed acbd
00000230: 04e2 e2bd 514a 3dbc cc52 353c 1da0 b63c
00000240: 2b20 563d cda5 233d 6722 80bd 1b4d f63c
00000250: 92bf 2d3d 9ce5 0b3e 9309 173e 5ca0 98bd
00000260: 724d c8bc b406 383e fa90 ab3d 24e5 a53d
00000270: 8eac 083e 6b1f 0fbd 6f82 4ebe a32e 0a3e
00000280: 4b4d b2bd 80cf 3d3d 73df a63d b16c 003b
00000290: c082 d13d 24d4 e33d 6fac 9cbd d9e2 663d
000002a0: 2c3d 5fbd 4a26 38be bc7a b4bc 1530 dbbd
000002b0: c29e c5bb a68d 0bbe f861 a1bd e290 1c3e
000002c0: b8ea 3b3d 9b69 a43d 6c79 84bb 6815 1cba
000002d0: b978 4d3d 024c 653d 43bb 0c3e 8425 edbd
000002e0: 2f5e 43be e799 57be 3fcb 9abd 05cc 18be
000002f0: 517b 5bbc 14fb 7ebc cfa1 9abd 5cf8 a2bd
00000300: e464 f1bd 077a e9bb 67d4 1e3d cb6f 953c
00000310: cbd5 663d 4c96 8abd 112b 363d efbe 433d
00000320: c09e 803d 06ef 9a3d 52d0 91bd 1116 cbbd
00000330: 4798 a93d 01d4 873d 5c18 81bd 3a8f 193e
00000340: 51c7 113e 2486 943e 50c6 ddbc 578f dcbd
00000350: f3ef 913d 8b25 90bd 50e8 a5be 5541 4abd
00000360: 2997 e5bd 15d1 9abd c6b3 a73c 5d43 bbbb
00000370: ab1b 383e 4a93 493e 757c 18be ff50 5a3e
00000380: a58b 5c3d b43c abbc 9e39 273c 3e5b 6d3c
00000390: 2f6b 3bbd 41af cc3d fc62 193e 7089 2a3d
000003a0: 23b3 0a3e d0e4 c03d 3c14 f9bd 66c8 97bd
000003b0: c824 22bc 62ed 363c 3bd2 8f3d b5f5 8b3b
000003c0: 7f06 103d 4b6d a3bb 7bea 1d3d 9672 7d3d
000003d0: fe82 a939 6b54 8b3d 9901 fa3d 3a1a 553e
000003e0: 7185 183e 3914 303e 79ea ba3d 8619 a53d
000003f0: b359 7e3b 924b 923c cc25 8cbd a710 12bd

enc_layer_small.0.bias f4 [8]
0.09653477 0.06946145 0.008687451 -0.0932172 -0.08291849 0.07173275 0.103473246 0.07960813
00000000: 06b4 c53d ce41 8e3d cf55 0e3c a9e8 bebd
00000010: 2bd1 a9bd 9fe8 923d c8e9 d33d 9609 a33d

dec_layer_1.0.weight f4 [8, 8, 3, 3]
-0.004006032 0.06540358 -0.0746081 0.06284738 0.20576589 -0.0025256362 -0.0059529715 0.09984049
-0.11997419 0.033609666 0.018246133 0.026808055 0.09328442 0.104141995 0.1650411 -0.040336363
-0.0663506 -0.05630871 -0.069552004 -0.04443919 -0.022814713 0.02169598 0.36073202 0.2168548
0.013415817 0.08460218 0.035718996 0.08152049 -0.12656517 0.010519691 0.2080778 0.32915714
0.10616543 0.13067195 0.20599015 0.043730326 -0.13193494 -0.4467239 -0.2947772 -0.19258603
-0.25177243 -0.23681454 -0.039942212 0.0063102082 0.014354038 -0.09950546 0.014354727 0.08307572
-0.1607351 -0.030868161 0.0814746 -0.10388703 -0.115538254 0.023372661 -0.023800846 0.08413825
0.019926492 0.16667636 0.33652094 0.010422863 0.13864726 0.051403046 0.043850884 -0.06476694
0.035878 0.021383436 -0.022861734 0.12213412 -0.036572225 -0.016893914 -0.013442641 0.026316348
-0.010005939 -0.03976272 -0.0030227173 0.16001174 0.16035551 0.15137249 0.111433774 0.17057157
0.1499964 -0.04289405 0.0131788915 -0.0349033 -0.07901429 0.15251833 0.23657243 -0.0018348116
0.18882434 0.16277899 0.034643896 0.0015274577 0.03683698 0.028207004 0.18046612 0.018248236
-0.006770781 0.078026645 -0.0542995 0.079720676 0.19457617 0.21386465 -0.18853328 -0.29848567
-0.06960344 0.07490831 0.25622186 -0.09173427 0.005968705 0.16988967 -0.27476415 -0.08114997
-0.11981195 -0.3225669 0.056429576 0.21268621 0.15129568 0.0080760205 -0.12297054 -0.018535817
-0.049520824 -0.20401032 -0.11588859 -0.02078368 -0.17932537 -0.117050104 -0.051359173 0.02695595
-0.0596727 0.018164234 -0.21100949 -0.15999974 -0.19995196 -0.24987271 -0.06321547 0.07190395
0.091982335 0.10201481 0.06545926 -0.013120869 -0.11687873 -0.13671733 -0.12117053 -0.25053456
-0.057015717 0.0029390883 -0.107028015 0.15348911 -0.11699945 -0.07264087 0.17853417 0.11951651
0.044881918 0.036268353 0.10937145 0.13788874 0.16038421 0.3138834 0.21904637 0.017008401
0.1619273 0.1055794 -0.08556249 0.1365396 -0.13152432 -0.011257717 0.078196146 -0.12523375
0.0791025 0.05737314 0.17012136 -0.052795563 -0.04222993 0.07479632 -0.026687916 0.14503896
0.13381533 -0.026184207 -0.009816885 0.05018247 -0.1590658 -0.09416274 0.028016761 0.15128307
0.029138863 0.13973515 0.116323166 0.19565485 0.10364115 0.07737966 0.11432293 0.023707887
-0.021988247 0.034938056 0.06311348 -0.07094516 -0.083202206 0.04941312 -0.066573784 -0.10102501
-0.13621384 -0.20425743 -0.22913235 -0.12292848 0.04341208 -0.110596515 -0.02446879 0.06242787
0.1264793 -0.008201553 -0.011201637 -0.0037283076 0.12620571 -0.08899524 -0.087705016 -0.0029810553
-0.25963455 0.01932773 0.141973 -0.11673584 0.042192552 0.07778418 -0.028981106 -0.008800085
0.09938391 -0.08193706 -0.17259428 -0.0136580225 -0.20685871 -0.1419206 0.019167501 -0.08530427
-0.13876218 -0.07061503 -0.0189793 0.18734707 -0.21401171 0.108352244 0.03222814 0.013767369
0.13185152 0.024276761 -0.15962566 0.021179928 0.03253416 -0.13166156 0.02420205 -0.2857394
-0.20806727 0.0895991 -0.049667872 -0.15064189 0.11817232 0.21372533 0.19542205 0.114521734
00000000: 0845 83bb 50f2 853d 22cc 98bd 21b6 803d
00000010: 4bb4 523e 2585 25bb 2511 c3bb 2c79 cc3d
00000020: 07b5 f5bd 4aaa 093d ea78 953c 919c db3c
00000030: e70b bf3d 6648 d53d 8900 293e be37 25bd
00000040: d3e2 87bd f6a3 66bd 4871 8ebd de05 36bd
00000050: ece5 babc c5bb b13c deb1 b83e 2f0f 5e3e
00000060: 04ce 5b3c e843 ad3d 154e 123d 37f4 a63d
00000070: 4d9a 01be c85a 2c3c 5912 553e 4987 a83e
00000080: 436d d93d dece 053e 15ef 523e 921e 333d
00000090: f419 07be ffb8 e4be 0aed 96be 4635 45be
000000a0: 51e8 80be 837f 72be 729a 23bd ddc5 ce3b
000000b0: 332d 6b3c 85c9 cbbd 1730 6b3c 9a23 aa3d
000000c0: be97 24be 3adf fcbc 28dc a63d b9c2 d4bd
000000d0: 529f ecbd 0678 bf3c fef9 c2bc ad50 ac3d
000000e0: e23c a33c 35ad 2a3e 794c ac3e a8c4 2a3c
000000f0: 8cf9 0d3e 008c 523d fc9c 333d 88a4 84bd
00000100: cff4 123d 512c af3c 8848 bbbc 7421 fa3d
00000110: c2cc 15bd 1b65 8abc 863e 5cbc 6295 d73c
00000120: f3ef 23bc 3cde 22bd c818 46bb 1eda 233e
00000130: 3c34 243e 6401 1b3e 6437 e43d 50aa 2e3e
00000140: a898 193e acb1 2fbd 47ec 573c c3f6 0ebd
00000150: 3ed2 a1bd c42d 1c3e 0b40 723e 107e f0ba
00000160: 2b5b 413e 89af 263e c2e6 0d3d fa34 c83a
00000170: 60e2 163d 6012 e73c 1ccc 383e 537d 953c
00000180: 6ddd ddbb 6fcc 9f3d 2769 5ebd 9844 a33d
00000190: fa3e 473e 56ff 5a3e de0e 41be 1dd3 98be
000001a0: 408c 8ebd 8769 993d 832f 833e 2ddf bbbd
000001b0: 2095 c33b 8ff7 2d3e e3ad 8cbe f531 a6bd
000001c0: f85f f5bd 7d27 a5be b322 673d 6aca 593e
000001d0: 41ed 1a3e 4951 043c fad7 fbbd 6dd8 97bc
000001e0: 59d6 4abd 15e8 50be ff56 edbd 8942 aabc
000001f0: 12a1 37be f7b7 efbd ff5d 52bd b9d2 dc3c
00000200: 5c6b 74bd 29cd 943c df12 58be f9d6 23be
00000210: 35c0 4cbe a2de 7fbe 1d77 81bd 6142 933d
00000220: 3c61 bc3d 24ed d03d 810f 863d eaf8 56bc
00000230: 1e5e efbd a1ff 0bbe 4128 f8bd 1146 80be
00000240: 5089 69bd b89d 403b 8131 dbbd 402c 1d3e
00000250: 689d efbd bdc4 94bd a9d1 363e 12c5 f43d
00000260: 1ad6 373d 208e 143d 24fe df3d b532 0d3e
00000270: c23b 243e 53b5 a03e b14d 603e 3455 8b3c
00000280: 45d0 253e 033a d83d 633b afbd 09d1 0b3e
00000290: 50ae 06be 4a72 38bc 4d25 a03d 473d 00be
000002a0: 7e00 a23d 1900 6b3d 4b34 2e3e 2940 58bd
000002b0: 4bf9 2cbd d02e 993d 9ea0 dabc 1885 143e
000002c0: e306 093e 4380 d6bc 00d7 20bc 228c 4d3d
000002d0: 25e2 22be 65d8 c0bd 6883 e53c f3e9 1a3e
000002e0: a0b4 ee3c bb16 0f3e d73a ee3d bf59 483e
000002f0: d041 d43d 3a79 9e3d 2422 ea3d 0b37 c23c
00000300: b220 b4bc 351b 0f3d a441 813d b24b 91bd
00000310: eb65 aabd 6965 4a3d d657 88bd 33e6 cebd
00000320: a47b 0bbe dc28 51be aca1 6abe edc1 fbbd
00000330: ddd0 313d 6d80 e2bd c672 c8bc 5eb4 7f3d
00000340: ca83 013e ce5f 06bc 1287 37bc 9f56 74bb
00000350: 123c 013e 2343 b6bd b09e b3bd cf5d 43bb
00000360: d2ee 84be 3055 9e3c 5f61 113e 3313 efbd
00000370: 19d2 2c3d 504d 9f3d c969 edbc 3b2e 10bc
00000380: cb89 cb3d 9ece a7bd 8ebc 30be e6c5 5fbc
00000390: c5d2 53be a253 11be 2a05 9d3c 01b4 aebd
000003a0: ac17 0ebe 9d9e 90bd 7a7a 9bbc e9d7 3f3e
000003b0: e325 5bbe c8e7 dd3d a701 043d 8890 613c
000003c0: 1604 073e 0fe0 c63c e974 23be 8781 ad3c
000003d0: 8a42 053d 4ad2 06be 6143 c63c 6f4c 92be
000003e0: 960f 55be bc7f b73d 8a70 4bbd de41 1abe
000003f0: 5404 f23d d0da 5a3e b81c 483e 5f8a ea3d

dec_layer_1.0.bias f4 [8]
0.07053951 0.03077905 -0.17770338 0.019528693 -0.32119355 -0.08254822 0.030581776 0.018823761
00000000: 0577 903d 5924 fc3c e0f7 35be a3fa 9f3c
00000010: 7b73 a4be 0b0f a9bd a286 fa3c 4a34 9a3c

dec_layer_2.0.weight f4 [12, 8, 5, 5]
0.07482245 0.06477007 0.056065317 0.07163369 0.023240805 0.05984493 0.36266196 0.20937772
-0.081243694 0.0125563545 0.061028406 0.00738343 -0.019141981 0.13518596 0.055897057 -0.02343704
-0.02430814 -0.01936625 0.026613638 0.0011644197 -0.028665753 -0.004548196 -0.01275904 -0.0032052726
0.0068221255 0.065572836 -0.045994043 0.025759207 -0.009472619 -0.014122876 -0.022221262 -0.07755416
0.089140624 0.00019286432 -0.061250884 0.16017543 0.016070524 -0.06933088 0.07644616 -0.036926925
-0.18770988 0.032654382 -0.011750382 0.075108014 -0.048999462 0.033179443 -0.042544156 -0.029998139
-0.03778148 0.04690392 0.037722453 0.11442487 0.067791514 0.09422621 -0.030440014 0.19795102
0.30736357 0.14859523 0.054927815 -0.0024464645 0.15521812 0.15036204 0.24308954 0.07654223
0.05195237 0.1358968 0.09284257 0.11638982 0.09057977 -0.037422646 0.043152295 0.06424129
-0.04706953 0.047513306 0.011553292 -0.0657011 0.13875791 -0.25652415 0.050883632 0.049581014
0.08391658 0.15213954 0.22737879 0.1718317 -0.04092052 0.17767453 -0.06871744 0.030895077
0.15518518 0.2036045 -0.0118984645 0.09718802 0.110856965 0.011938996 -0.030855626 -0.08217758
0.03624391 -0.12307981 0.06744628 0.051739875 0.041590046 0.066798 0.02944492 0.04236235
0.0028885598 0.123683855 0.284942 0.29870862 0.041848656 -0.022888597 0.07657271 0.2865243
0.18234661 0.056819666 0.05423962 -0.023638025 0.022441488 -0.038638536 0.1426173 -0.017728107
-0.010637246 0.03626083 -0.0728679 -0.009949432 -0.022565028 0.012887144 0.04593026 0.059688956
-0.010905259 -0.050542478 0.07092541 0.20453584 0.066470675 -0.111343496 -0.040413346 0.04342904
-0.05842508 0.033969816 -0.006475996 -0.04976304 -0.008416983 -0.072818436 -0.111955725 -0.05561318
-0.059625067 -0.005103357 0.004925404 -0.07166266 -0.012528048 -0.030442096 0.06572322 0.06751456
-0.040002655 -0.009813785 -0.011564238 0.13575944 0.1781644 0.06358393 -0.008116834 -0.05883796
0.118744 0.15879129 0.17985328 -0.116212584 -0.065525055 0.09864728 -0.07408771 0.045251016
-0.053667586 -0.082126684 -0.00923929 -0.025291476 -0.046792097 -0.016382579 0.015837017 0.10875968
0.15800145 0.11391773 0.07549628 0.0055641066 0.18025331 0.5037383 0.19853708 -0.05123324
0.032304663 0.13830686 0.042546708 0.21584445 0.08855655 0.058063194 0.10847804 -0.019717868
0.043071415 0.088873446 0.047934026 -0.019669387 0.068893515 -0.0965712 0.079505555 0.035168506
0.004789565 -0.0013490537 -0.024395028 -0.066508025 -0.040435314 -0.04060217 -0.08109785 -0.16321222
-0.080648504 -0.05256723 -0.0046482063 -0.008006368 0.05577271 0.23306909 0.054008294 -0.04484349
0.0040774834 0.037460387 -0.040038545 -0.02949747 -0.019926628 0.040372107 0.032815963 -0.006462896
0.0008826649 0.05459767 -0.03408244 0.054971293 -0.0381779 0.013310308 -0.03996452 -0.17606954
-0.17103909 -0.12858368 0.076937266 0.05889889 -0.06273304 0.12314241 0.047344197 -0.028986773
-0.008650601 -0.00034612464 -0.21818478 0.0866179 0.09460738 -0.11652935 -0.06154877 0.05849495
-0.06341961 0.03017823 -0.00033582968 0.01077891 -0.022923892 0.011079116 -0.018199328 -0.075816415
00000000: 833c 993d 2ca6 843d bfa4 653d afb4 923d
00000010: 8063 be3c f51f 753d d4ae b93e 1d67 563e
00000020: 1863 a6bd 2bb9 4d3c ecf8 793d b3f0 f13b
00000030: a5cf 9cbc 306e 0a3e 50f4 643d 09ff bfbc
00000040: dd21 c7bc f8a5 9ebc d804 da3c 719f 983a
00000050: 71d4 eabc 0909 95bb 4b0b 51bc 8d0f 52bb
00000060: 238c df3b 0d4b 863d 4064 3cbd f904 d33c
00000070: 0b33 1bbc a363 67bc 5d09 b6bc b7d4 9ebd
00000080: 5c8f b63d 9f3b 4a39 35e2 7abd 0705 243e
00000090: 55a6 833c 59fd 8dbd ce8f 9c3d b040 17bd
000000a0: 0537 40be 9ac0 053d ad84 40bc 3bd2 993d
000000b0: a9b3 48bd 2be7 073d c842 2ebd a8be f5bc
000000c0: c1c0 1abd 531e 403d dc82 1a3d 9657 ea3d
000000d0: 47d6 8a3d acf9 c03d 565d f9bc acb3 4a3e
000000e0: c25e 9d3e 5929 183e fdfb 603d dd54 20bb
000000f0: 80f1 1e3e 82f8 193e 77ec 783e 2cc2 9c3d
00000100: 02cc 543d 8828 0b3e 3f24 be3d c95d ee3d
00000110: e381 b93d 7d48 19bd 76c0 303d f090 833d
00000120: fbcb 40bd 509d 423d 054a 3d3c 4c8e 86bd
00000130: 8e16 0e3e 2257 83be 5b6b 503d 7615 4b3d
00000140: 75dc ab3d 78ca 1b3e fcd5 683e a6f4 2f3e
00000150: 469c 27bd 50f0 353e bbbb 8cbd ac17 fd3c
00000160: dde8 1e3e b37d 503e c7f1 42bc 830a c73d
00000170: fa08 e33d c79b 433c f0c4 fcbc b84c a8bd
00000180: 7f74 143d 4411 fcbd 4621 8a3d 31ed 533d
00000190: 535a 2a3d 64cd 883d 7936 f13c 2584 2d3d
000001a0: fe4d 3d3b f64d fd3d ebe3 913e 56f0 983e
000001b0: 7f69 2b3d de80 bbbc 27d2 9c3d 50b3 923e
000001c0: 12b9 3a3e bdbb 683d 5d2a 5e3d 88a4 c1bc
000001d0: 36d7 b73c 7143 1ebd 450a 123e 893a 91bc
000001e0: d847 2ebc 3c86 143d c43b 95bd f102 23bc
000001f0: 4bda b8bc 9a24 533c 5e21 3c3d 687c 743d
00000200: f9ab 32bc a105 4fbd 5741 913d d871 513e
00000210: c721 883d 0f08 e4bd 7788 25bd a6e2 313d
00000220: 234f 6fbd ef23 0b3d 9834 d4bb 54d4 4bbd
00000230: 63e7 09bc d521 95bd 0b49 e5bd a5ca 63bd
00000240: 6a39 74bd 103a a7bb 4965 a13b dfc3 92bd
00000250: 7142 4dbc b461 f9bc e599 863d 1345 8a3d
00000260: d3d9 23bd ffc9 20bc ee77 3dbc 8604 0b3e
00000270: ba70 363e 4b38 823d 78fc 04bc 1300 71bd
00000280: 0e30 f33d 2f9a 223e 752b 383e dd00 eebd
00000290: 0032 86bd 9607 ca3d 4cbb 97bd 2159 393d
000002a0: 8bd2 5bbd 0932 a8bd 6460 17bc 1230 cfbc
000002b0: 12a9 3fbd c234 86bc a2bc 813c 65bd de3d
000002c0: 22cb 213e b34d e93d cb9d 9a3d 1c53 b63b
000002d0: 5394 383e fef4 003f 4e4d 4b3e f2d9 51bd
000002e0: e551 043d 50a0 0d3e 7545 2e3d 5406 5d3e
000002f0: 235d b53d acd3 6d3d bc29 de3d 5e87 a1bc
00000300: a76b 303d 4803 b63d 7856 443d b221 a1bc
00000310: 0b18 8d3d 1fc7 c5bd cfd3 a23d da0c 103d
00000320: c9f1 9c3b bbd2 b0ba 15d8 c7bc 5c35 88bd
00000330: 809f 25bd 764e 26bd a116 a6bd 1b21 27be
00000340: 0b2b a5bd bc50 57bd fb4f 98bb 242d 03bc
00000350: ed71 643d aaa9 6e3e cd37 5d3d cfad 37bd
00000360: 699c 853b 1070 193d 75ff 23bd aea4 f1bc
00000370: 2b3d a3bc 395d 253d 086a 063d b3c6 d3bb
00000380: a462 673a cea1 5f3d 079a 0bbd 9429 613d
00000390: 6e60 1cbd 7a13 5a3c d6b1 23bd 934b 34be
000003a0: df24 2fbe 71ab 03be 4991 9d3d f63f 713d
000003b0: 2e7a 80bd 1632 fc3d fdeb 413d ab75 edbc
000003c0: 40bb 0dbc 1078 b5b9 d56b 5fbe ba64 b13d
000003d0: 84c1 c13d f1a6 eebd 901a 7cbd 6798 6f3d
000003e0: 24e2 81bd 5638 f73c 4c12 b0b9 069a 303c
000003f0: e3ca bbbc 2e85 353c c216 95bc a345 9bbd

dec_layer_2.0.bias f4 [8]
-0.016211193 0.0040466343 -0.034128483 -0.082794905 0.0075038113 0.08068154 0.040547688 -0.058365908
00000000: 56cd 84bc a199 843b 4fca 0bbd 6090 a9bd
00000010: 88e2 f53b 5d3c a53d 5515 263d 1711 6fbd

dec_layer_3.0.weight f4 [8, 3, 5, 5]
-0.010711154 -0.038837403 0.015817624 0.048377007 0.05848125 0.09480742 0.06775561 0.114232294
0.060327034 0.06937017 0.19425224 0.24573112 0.28998888 0.087766364 0.05482861 0.189681
0.2722558 0.26169872 0.061403688 0.0040728054 0.08407957 0.15141557 0.16351338 0.059025716
0.011108247 -0.038045205 -0.07518114 -0.050725196 -0.004425989 0.020372398 0.03920968 0.032654546
0.031464737 0.0055060848 0.008520295 0.14017148 0.18709788 0.159171 0.023352714 -0.006025133
0.1424576 0.20964617 0.1874846 0.056775868 -0.005358082 0.08187379 0.11783385 0.12135944
0.03956869 0.005022746 -0.021982329 -0.06792751 -0.048662957 -0.013241417 0.024106052 0.027235977
0.014557767 0.024045365 0.0062768487 0.022170924 0.10856948 0.14754176 0.119108744 0.021018196
-0.01569324 0.14252119 0.22297311 0.17106609 0.024921026 -0.03784937 0.07486637 0.1343483
0.09651527 0.025087913 -0.030999372 0.1709514 0.090589896 0.084052496 -0.4640555 0.12803331
0.072386175 0.12373293 -0.0972707 -0.36943534 0.49236596 0.08060651 0.056979883 -0.23130806
-0.30429184 0.61661816 0.060364354 -0.05807251 -0.35940272 -0.037887692 0.119906485 0.13523027
-0.18256639 -0.23992667 0.033070996 -0.09290389 0.014615173 -0.13978712 -0.19730888 -0.49273553
0.3194114 -0.066215456 -0.057190895 -0.11795682 -0.43261105 0.2302703 0.09308045 -0.024445811
-0.32689857 -0.5555114 0.2757452 0.10183137 -0.07022232 -0.28284875 -0.118712366 0.16387269
0.19338033 -0.13494633 -0.32689762 -0.1163962 0.18222569 0.08060426 0.024675693 0.05293448
-0.34716657 0.055059273 0.031550393 0.13621297 -0.008305725 -0.48746827 0.44112012 0.10609579
-0.031010488 -0.23975062 -0.41748753 0.582149 0.07101553 -0.023132095 -0.35023788 0.03154758
0.46742672 0.111442804 -0.17933129 -0.19577849 0.11457254 0.17805469 0.04984542 0.10372652
0.114862755 0.052454643 -0.0072781146 0.011085289 0.14113979 0.17790766 0.10833978 -0.002863003
-0.0051087546 0.10480704 0.12619992 0.11851638 -0.00615055 -0.031400297 -0.0021860832 0.007202255
0.0480867 0.023501018 0.0069696116 -0.045977358 -0.058866017 -0.006850486 0.018621026 -0.008446064
0.03736368 -0.018584961 -0.00093319884 -0.051673397 -0.045647584 0.027090494 0.02490789 0.03822426
-0.021086575 -0.088744 -0.03588445 -0.0821184 -0.0053813774 -0.060974535 -0.07541873 -0.06881548
-0.053364664 0.019349404 0.028445741 -0.011525565 -0.062632866 -0.09055149 -0.036858357 -0.009491048
0.034680933 0.11038915 0.14174971 0.077363126 -0.005270296 0.0761411 0.18889391 0.25322098
0.16570187 0.034195 0.083432704 0.18529956 0.275576 0.18542124 0.08288504 0.020400293
0.070729785 0.13518843 0.13834308 0.10058366 -0.006585329 -0.009766552 0.019943979 0.034507066
0.060125794 -0.01532043 -0.14635897 -0.031573977 -0.016115902 0.053501565 0.06461399 0.44404572
0.7757305 0.27461419 0.84822786 0.60773265 0.46917892 0.39347777 0.1592331 0.34075302
0.6831608 0.18355738 0.4654835 -0.24164376 -0.0010517953 -0.1734251 -0.31190398 0.059724588
-0.26447392 -0.07123667 -0.013925556 -0.067723885 0.20165266 0.3362817 0.32730323 0.20152608
00000000: d67d 2fbc f813 1fbd f693 813c f826 463d
00000010: 098a 6f3d 652a c23d 74c3 8a3d 9ff2 e93d
00000020: 7b19 773d f311 8e3d 0fea 463e f0a0 7b3e
00000030: 6c79 943e dabe b33d f793 603d bc3b 423e
00000040: 1d65 8b3e 60fd 853e 6f82 7b3d 2b75 853b
00000050: e931 ac3d af0c 1b3e 0d70 273e f3c4 713d
00000060: 5dff 353c 4ad5 1bbd 92f8 99bd 39c5 4fbd
00000070: e307 91bb 04e4 a63c 549a 203d c6c0 053d
00000080: 2be1 003d 636c b43b b598 0b3c 1d89 0f3e
00000090: 9696 3f3e b9fd 223e 314e bf3c 7b6e c5bb
000000a0: 68e0 113e 7cad 563e f7fb 3f3e d08d 683d
000000b0: d992 afbb 72ad a73d e052 f13d 4c8b f83d
000000c0: c712 223d d995 a43b 4914 b4bc 941d 8bbd
000000d0: cf52 47bd 87f2 58bc 0e7a c53c fc1d df3c
000000e0: b383 6e3c c9fa c43c 06ae cd3b cc9f b53c
000000f0: ad59 de3d 3015 173e 49ef f33d 5a2e ac3c
00000100: 1c8f 80bc 13f1 113e 1053 643e f32b 2f3e
00000110: 2e27 cc3c f107 1bbd 8a53 993d 9a92 093e
00000120: cca9 c53d 2b85 cd3c 65f2 fdbc e20d 2f3e
00000130: 3287 b93d b723 ac3d af98 edbe 2a1b 033e
00000140: 343f 943d b167 fd3d dc35 c7bd a126 bdbe
00000150: 6417 fc3e 0715 a53d bd63 693d 05dc 6cbe
00000160: 24cc 9bbe b0da 1d3f 9d40 773d 71dd 6dbd
00000170: a203 b8be 2030 1bbd 8891 f53d ce79 0a3e
00000180: aff2 3abe 56af 75be 7475 073d 6544 bebd
00000190: 7b74 6f3c 5b24 0fbe 570b 4abe d547 fcbe
000001a0: e489 a33e f89b 87bd 0041 6abd 5893 f1bd
000001b0: 327f ddbe facb 6b3e f7a0 be3d 9542 c8bc
000001c0: 405f a7be ff35 0ebf 7a2e 8d3e f78c d03d
000001d0: b8d0 8fbd 8dd1 90be 781f f3bd 3ece 273e
000001e0: 7e05 463e 5f2f 0abe 205f a7be 2261 eebd
000001f0: 5f99 3a3e d913 a53d ae24 ca3c d3d1 583d
00000200: d1bf b1be d585 613d fc3a 013d 6a7b 0b3e
00000210: bc14 08bc 7195 f9be 7fda e13e c048 d93d
00000220: b509 febc 3081 75be edc0 d5be b807 153f
00000230: 9770 913d 857f bdbc 6152 b3be 0938 013d
00000240: 8e52 ef3e 203c e43d 9fa2 37be 287a 48be
00000250: 02a5 ea3d f853 363e b62a 4c3d 926e d43d
00000260: 2a3d eb3d aeda 563d 407d eebb 129f 353c
00000270: f386 103e 6d2d 363e 3fe1 dd3d 38a1 3bbb
00000280: 5767 a7bb 13a5 d63d 8d3a 013e b7b8 f23d
00000290: 8e8a c9bb 999d 00bd 6444 0fbb e500 ec3b
000002a0: 8ff6 443d 3585 c03c 5761 e43b c152 3cbd
000002b0: 7e1d 71bd 0b7a e0bb 1f8b 983c 5c61 0abc
000002c0: a80a 193d 7d3f 98bc eaa1 74ba 7ca7 53bd
000002d0: f6f8 3abd e2ec dd3c a20b cc3c 0b91 1c3d
000002e0: c1bd acbc 6abf b5bd 93fb 12bd b12d a8bd
000002f0: 4456 b0bb 6fc0 79bd 2375 9abd 21ef 8cbd
00000300: e894 5abd a482 9e3c 0b07 e93c b9d5 3cbc
00000310: a945 80bd 0f73 b9bd caf8 16bd 5780 1bbc
00000320: 980d 0e3d b513 e23d d626 113e 8f70 9e3d
00000330: 72b2 acbb ddef 9b3d 686d 413e 2ea6 813e
00000340: c0ad 293e 0e10 0c3d c4de aa3d 2bbf 3d3e
00000350: 4c18 8d3e 11df 3d3e a2bf a93d 841e a73c
00000360: c7da 903d d66e 0a3e cfa9 0d3e cefe cd3d
00000370: bec9 d7bb e303 20bc 8e61 a33c 4857 0d3d
00000380: 7746 763d 8a02 7bbc 20df 15be b753 01bd
00000390: 7f05 84bc 7524 5b3d 5754 843d f659 e33e
000003a0: 4696 463f 3b9a 8c3e 7625 593f 5e94 1b3f
000003b0: 3838 f03e eb75 c93e 000e 233e 2e77 ae3e
000003c0: a0e3 2e3f 77f6 3b3e da53 ee3e 7671 77be
000003d0: 65dc 89ba 5996 31be e1b1 9fbe c5a1 743d
000003e0: 2069 87be 88e4 91bd 0428 64bc d2b2 8abd
000003f0: 097e 4e3e 1d2d ac3e 4a94 a73e da5c 4e3e

dec_layer_3.0.bias f4 [3]
0.03052786 0.030531617 0.024450196
00000000: 9015 fa3c 711d fa3c c74b c83c
