save/baseline_disc_2/model_baseline_disc_2.pt (torch, 27063 bytes, 8 tensors)

enc_layer_1.0.weight f4 [16, 3, 5, 5]
0.09854742 0.12777397 -0.014918139 -0.054803535 0.10607827 -0.0059500905 0.11818963 -0.0012528102
-0.09902863 -0.090035155 0.0006635 -0.003233725 0.051576767 0.08992993 -0.08124849 0.027524054
0.058148358 0.065639846 0.09027396 0.013726642 0.08455086 -0.052519813 0.004720275 -0.089872144
-0.058743156 0.036426447 0.1283867 -0.043485004 -0.036260486 0.119352035 0.08801526 0.13654228
0.11062333 0.065300286 0.09130827 -0.03485926 0.14734504 0.08563797 0.05494776 0.14941008
-0.06421113 -0.06597353 0.04621179 -0.017582696 -0.056185137 0.061318785 0.02799379 0.12571639
0.10143257 0.050377186 0.07462298 0.135113 0.06139961 -0.026130868 0.11053143 0.0039199456
0.030573267 0.1377556 0.059054386 0.0710409 -0.020085512 -0.04619119 0.079104364 -0.056283396
-0.079268076 -0.03096991 -0.07554634 0.049671356 0.0917844 0.080885015 0.13355416 0.12778181
0.0057936916 0.035731696 0.05894417 0.15212427 0.034727205 0.16068484 0.15469036 0.12881947
0.022392476 0.08884202 0.1491066 0.06752868 0.02848124 -0.042224605 -0.026117498 0.055630453
0.14611325 -0.018369647 -0.019336835 0.14545411 0.10798999 0.031160949 0.079185046 0.009583543
-0.05224738 -0.05647124 -0.07910542 -0.043317206 0.08151609 0.036410104 0.112750925 -0.06388652
-0.023012273 0.14707018 -0.007925318 0.1110237 0.060951203 -0.03207523 0.04733509 0.05926051
-0.019304298 -0.041050907 0.062394913 0.036363594 -0.04244669 0.09763892 -0.04829164 0.031301577
-0.076142296 -0.044360053 -0.0519466 0.05646991 0.11800037 -0.033497654 0.05611392 0.005252281
-0.027666206 0.15647703 0.05335967 0.0031033603 0.036148455 0.11943612 0.13332336 0.071703896
0.13722761 0.0068879086 0.058286283 -0.019777572 -0.049068496 0.11526328 0.08962262 0.07340442
0.12957588 0.06261807 0.038005706 0.1177902 -0.031450745 -0.019426057 -0.03373544 -0.019491887
-0.021034002 -0.041010477 0.0013180322 -0.04164581 -0.061953157 -0.03756127 0.059739586 -0.00680711
-0.051890284 -0.071630694 -0.09112686 0.02030197 -0.12368535 0.07264375 -0.07410814 0.07473282
-0.114055164 -0.12216896 -0.06444988 -0.12699294 0.030570433 -0.122826464 -0.13876803 -0.022232696
0.009949948 0.11417243 0.1107304 -0.042484246 0.17645413 0.08983731 -0.025462506 0.062006894
0.14327064 0.12167005 -0.01732075 -0.0526049 -0.02771827 0.17190948 0.025501432 0.070077494
0.05630668 0.11627023 0.059128556 -0.025181592 0.0443526 0.15078881 0.14279963 0.07617957
0.013906721 -0.079693034 -0.08920912 -0.10093645 0.09975957 0.1110201 0.09999789 -0.009219034
0.09505317 0.05666355 -0.04548258 0.009813218 -0.08605331 0.08686083 -0.023917334 -0.07344229
-0.086908944 0.1110933 0.010642507 -0.0037150288 -0.0034151587 0.10595252 0.061980054 0.011789925
-0.015204632 0.11189219 -0.03964887 -0.055840977 0.09355519 0.047755 0.02912291 -0.061060067
0.115350775 0.05333997 -0.024948196 0.055180557 0.03377596 -0.013239336 -0.077228 -0.0055705933
-0.0374055 0.06326999 -0.048152056 -0.0057706605 0.106992625 -0.082813375 -0.056096938 0.10097703
-0.11014138 0.023469593 0.05096243 -0.010017609 0.13671678 0.11970942 0.110873096 0.068643615
00000000: 3bd3 c93d 2ed7 023e 366b 74bc ac79 60bd
00000010: 903f d93d faf8 c2bb 680d f23d 5635 a4ba
00000020: 86cf cabd 5a64 b8bd bbee 2d3a e7ec 53bb
00000030: 2942 533d 2f2d b83d 9c65 a6bd 207a e13c
00000040: f92c 6e3d 2f6e 863d 8ee1 b83d b6e5 603c
00000050: 0029 ad3d 041f 57bd 89ac 9a3b e30e b8bd
00000060: aa9c 70bd e633 153d ce77 033e 551d 32bd
00000070: e085 14bd d76e f43d 5841 b43d bdd1 0b3e
00000080: 7c8e e23d 28bc 853d d5ff ba3d 95c8 0ebd
00000090: 9ee1 163e f662 af3d e710 613d f5fe 183e
000000a0: 2081 83bd 211d 87bd 9348 3d3d 9609 90bc
000000b0: 6322 66bd 6829 7b3d 3c53 e53c ccbb 003e
000000c0: e1bb cf3d 4f58 4e3d efd3 983d 105b 0a3e
000000d0: 287e 7b3d 6710 d6bc 4d5e e23d e372 803b
000000e0: ca74 fa3c ce0f 0d3e 03e3 713d e47d 913d
000000f0: 5f8a a4bc f932 3dbd 7801 a23d 6b89 66bd
00000100: 4d57 a2bd 9cb4 fdbc 0ab8 9abd 3174 4b3d
00000110: 76f9 bb3d 0ba7 a53d 6cc2 083e 3cd9 023e
00000120: 02d9 bd3b 665b 123d 716f 713d 77c6 1b3e
00000130: 1d3e 0e3d 918a 243e 2667 1e3e 40e9 033e
00000140: 6d70 b73c cef2 b53d 67af 183e 7a4c 8a3d
00000150: 7d51 e93c b5f3 2cbd 5df4 d5bc c2dc 633d
00000160: b69e 153e f17b 96bc 4868 9ebc ecf1 143e
00000170: db29 dd3d 3f45 ff3c c52b a23d 4b04 1d3c
00000180: 5901 56bd 634e 67bd 0602 a2bd 626d 31bd
00000190: e8f1 a63d c322 153d f5e9 e63d f0d6 82bd
000001a0: 3c84 bcbc 9199 163e 31d9 01bc 6560 e33d
000001b0: f8a7 793d 5161 03bd 70e2 413d 26bb 723d
000001c0: 0c24 9ebc ff24 28bd cf91 7f3d fef1 143d
000001d0: 95dc 2dbd eaf6 c73d 74cd 45bd 1536 003d
000001e0: 7ef0 9bbd e3b2 35bd f5c5 54bd fe4c 673d
000001f0: 2eaa f13d d634 09bd b6d7 653d 541b ac3b
00000200: 3da4 e2bc 843b 203e ab8f 5a3d bf61 4b3b
00000210: 6710 143d ed9a f43d eb85 083e 7ed9 923d
00000220: 6585 0c3e f7b3 e13b 99bd 6e3d 9304 a2bc
00000230: 0cfc 48bd 280f ec3d 108c b73d 0e55 963d
00000240: 8aaf 043e e73d 803d dfab 1b3d fd3b f13d
00000250: 7fd2 00bd 6523 9fbc 2c2e 0abd 73ad 9fbc
00000260: 804f acbc 9afa 27bd d2c1 ac3a cc94 2abd
00000270: 98c2 7dbd d9d9 19bd 7fb1 743d 2d0e dfbb
00000280: e88a 54bd 1db3 92bd b8a0 babd 5150 a63c
00000290: bf4e fdbd 3fc6 943d 02c6 97bd 850d 993d
000002a0: c195 e9bd b833 fabd 4cfe 83bd 700a 02be
000002b0: d86e fa3c 718c fbbd 3519 0ebe 5821 b6bc
000002c0: 1b05 233c 3cd3 e93d 9fc6 e23d f603 2ebd
000002d0: 64b0 343e a0fc b73d bf96 d0bc f1fa 7d3d
000002e0: 8ab5 123e 262e f93d 3fe4 8dbc 3c78 57bd
000002f0: 6d11 e3bc 0a09 303e 61e8 d03c ca84 8f3d
00000300: d5a1 663d 161f ee3d c930 723d a049 cebc
00000310: 12ab 353d 6268 1a3e 113a 123e 0904 9c3d
00000320: 04d9 633c 1a36 a3bd 45b3 b6bd c5b7 cebd
00000330: bf4e cc3d 825e e33d b2cb cc3d 6e0b 17bc
00000340: 3dab c23d 0a18 683d f14b 3abd 9fc7 203c
00000350: b83c b0bd 17e4 b13d 49ee c3bc e968 96bd
00000360: 51fd b1bd e284 e33d e95d 2e3c d777 73bb
00000370: dbd0 5fbb a3fd d83d ccde 7d3d 882a 413c
00000380: d91c 79bc bc27 e53d da66 22bd 82b9 64bd
00000390: dd99 bf3d bf9a 433d 2b93 ee3c 1f1a 7abd
000003a0: 073d ec3d 037b 5a3d 2960 ccbc 0205 623d
000003b0: a958 0a3d cde9 58bc b729 9ebd 8689 b6bb
000003c0: 8236 19bd b293 813d 173b 45bd cf17 bdbb
000003d0: f31e db3d 0f9a a9bd e7c5 65bd 0ccd ce3d
000003e0: ce91 e1bd 4e43 c03c fbbd 503d e620 24bc
000003f0: 7cff 0b3e 362a f53d 6f11 e33d 0695 8c3d

enc_layer_1.0.bias f4 [16]
0.041607056 0.035417672 0.095127724 -0.050830837 -0.0014548004 -0.017500468 -0.048771765 -0.026768591
0.061201993 0.05308685 -0.06849333 0.09237592 -0.020079644 -0.09127672 -0.16096509 -0.0155758625
00000000: 296c 2a3d 1f12 113d 53d2 c23d ff33 50bd
00000010: 00af beba 245d 8fbc e7c4 47bd ce49 dbbc
00000020: f1ae 7a3d 9971 593d 3b46 8cbd 962f bd3d
00000030: 117e a4bc 4aef babd 08d4 24be e731 7fbc

enc_layer_2_def.0.weight f4 [12, 16, 3, 3]
-0.02917978 0.060160328 0.06958845 0.036049455 0.03606968 0.05080189 -0.044018764 0.05096512
0.087473035 0.061165202 0.12426906 0.14099354 0.08538573 0.010996903 0.00026960362 0.10833725
-0.031018253 -0.041537438 -0.10981348 -0.099559024 -0.028553944 -0.038106807 -0.022751363 -0.04500328
-0.02809765 -0.061629828 0.046446566 0.091939926 -0.012500913 0.026829833 0.11712162 0.11303807
0.075331256 0.007923194 0.10678766 -0.013324104 0.09473438 0.10862937 -0.037289206 0.062048778
0.040408343 -0.040549442 0.006617562 0.010995704 0.09716771 0.018085567 -0.034039043 0.06302203
0.0001679227 0.016189856 0.009282843 0.036292892 0.06720633 0.086414576 -0.0028031257 0.08475417
0.10920949 -0.014266304 0.047194827 -0.0013088303 0.059847683 -0.038008336 -0.028530702 0.02712374
-0.123311885 -0.08265001 -0.08420763 -0.035638735 -0.048117843 -0.03566906 -0.0023652345 -0.007025599
-0.015119458 -0.06550263 0.0005858706 0.0115303015 0.028478086 -0.004409719 -0.029664537 -0.042057063
0.06854059 -0.041127853 0.027743736 0.07457185 0.09653424 0.017202478 0.07622676 0.07697336
-0.045228098 0.0005982079 0.01675938 0.02678085 0.09941322 0.057549935 0.12688592 0.031134343
0.012075624 0.0779322 0.009776542 -0.007256075 -0.028180024 -0.04015978 -0.01388639 -0.0102216005
-0.08404018 -0.0573399 -0.042200617 -0.045731273 -0.07495522 0.0015561921 -0.024231464 -0.032312505
0.06279086 0.077963755 0.05847154 0.08281905 0.031501293 0.034513302 0.032683205 -0.0058228523
-0.048088584 0.015601903 -0.01606085 0.03655358 -0.022838993 -0.060134944 0.042811323 0.07898907
0.12548526 0.005410776 0.019096497 0.06947602 -0.0052925935 0.04938798 0.059385218 -0.02026995
-0.002623068 -0.14000265 -0.12550464 -0.024884542 -0.009576608 -0.056263123 -0.005380283 0.026644059
0.04901724 0.033624474 0.0018416322 -0.026330002 -0.059430987 -0.05839716 -0.014079479 0.017303117
0.073520355 0.055065278 0.028339827 0.018346092 0.06790946 0.04146923 0.09803929 0.097419836
-0.0135982875 -0.034219645 -0.05948167 -0.079953484 -0.13318771 -0.14383033 -0.021560593 -0.024818627
-0.077505395 -0.056567002 -0.10726679 -0.10623787 -0.041624166 0.021033937 -0.07007378 0.03221839
0.073007755 0.06714313 0.055707276 -0.021743225 -0.08959701 -0.023235338 -0.08228924 -0.09034076
0.065105796 -0.03137511 0.0860796 0.05986522 0.082929805 -0.023086643 -0.051371563 -0.031092929
-0.006906046 -0.0119883 -0.00043057374 0.02581654 -0.06793716 -0.008876855 -0.11825018 -0.085817926
-0.0054962947 -0.04178597 0.007269092 0.045446783 0.03839948 -0.059273116 0.004432827 -0.078459345
-0.15314959 -0.13949512 -0.10207597 -0.19193684 -0.19380149 -0.09293518 -0.11720805 -0.083828025
-0.058001794 -0.05509679 -0.111891076 -0.027842253 -0.027700389 -0.09794466 -0.033789717 -0.03397636
-0.08646002 0.04229541 0.00700804 0.028055552 0.015175277 -0.07412109 0.06779158 0.045403294
0.08047383 -0.019019783 -0.04740867 -0.05454591 0.09189113 0.11017408 -0.03131902 0.011759867
-0.02392375 0.057428233 0.117098905 -0.0153547395 -0.10996873 -0.07318617 -0.045437552 -0.03184854
0.016130636 -0.08724566 -0.059826624 0.037379496 -0.17864396 -0.05837953 -0.15730885 -0.06394022
00000000: 6f0a efbc ad6a 763d 6484 8e3d 98a8 133d
00000010: cdbd 133d a515 503d 054d 34bd cdc0 503d
00000020: 1025 b33d 5d88 7a3d c780 fe3d 9c60 103e
00000030: b7de ae3d 5b2c 343c 9659 8d39 ecdf dd3d
00000040: fe19 febc 2923 2abd e4e5 e0bd 9ae5 cbbd
00000050: f6e9 e9bc e215 1cbd 1161 babc 5c55 38bd
00000060: 0b2d e6bc 8f6f 7cbd c13e 3e3d 004b bc3d
00000070: a1d0 4cbc 3dca db3c 76dd ef3d 8180 e73d
00000080: 4647 9a3d 49d0 013c 7db3 da3d 584d 5abc
00000090: 1904 c23d 1379 de3d 91bc 18bd dc26 7e3d
000000a0: 3883 253d 2c17 26bd 22d8 d83b 5327 343c
000000b0: ddff c63d 2f28 943c 866c 0bbd b211 813d
000000c0: 6814 3039 97a0 843c 1117 183c dba7 143d
000000d0: 79a3 893d 20fa b03d a5b4 37bb 9893 ad3d
000000e0: 3aa9 df3d 37bd 69bc 5d4f 413d 0f8d abba
000000f0: d822 753d a1ae 1bbd 38b9 e9bc 9b32 de3c
00000100: f18a fcbd 6944 a9bd 0d75 acbd ecf9 11bd
00000110: 3717 45bd b819 12bd 0d02 1bbb ff36 e6bb
00000120: 9ab7 77bc 3e26 86bd 1c95 193a 97e9 3c3c
00000130: e04a e93c 677f 90bb 0b03 f3bc 0744 2cbd
00000140: 025f 8c3d ae75 28bd d546 e33c 20b9 983d
00000150: beb3 c53d 36ec 8c3c c71c 9c3d 35a4 9d3d
00000160: 1941 39bd 0dd1 1c3a f84a 893c 8363 db3c
00000170: 2999 cb3d 7bb9 6b3d 62ee 013e 730d ff3c
00000180: d7d8 453c eb9a 9f3d ca2d 203c 5ec4 edbb
00000190: cbd9 e6bc 957e 24bd be83 63bc 8078 27bc
000001a0: 421d acbd 3edd 6abd 8eda 2cbd b750 3bbd
000001b0: 1f82 99bd 24f9 cb3a 1081 c6bc 1e5a 04bd
000001c0: 7f98 803d 76ab 9f3d db7f 6f3d 099d a93d
000001d0: 8007 013d d25d 0d3d d3de 053d a0cd bebb
000001e0: 89f8 44bd 209f 7f3c 0b92 83bc 35b9 153d
000001f0: d718 bbbc 0f50 76bd ed5a 2f3d 06c5 a13d
00000200: 357f 003e e14c b13b 4270 9c3c 7249 8e3d
00000210: 7e6d adbb 0d4b 4a3d ea3d 733d 2b0d a6bc
00000220: c7e7 2bbb db5c 0fbe 4a84 00be abda cbbc
00000230: 35e7 1cbc 2974 66bd 164d b0bb a444 da3c
00000240: 4dc6 483d d1b9 093d ec62 f13a 04b2 d7bc
00000250: e86d 73bd dc31 6fbd 9dad 66bc 44bf 8d3c
00000260: d791 963d 218c 613d ed28 e83c 8b4a 963c
00000270: 1d14 8b3d a4db 293d d3c8 c83d 0d84 c73d
00000280: 5acb 5ebc e629 0cbd 0da3 73bd a7be a3bd
00000290: 5c62 08be 4248 13be d79f b0bc 6f50 cbbc
000002a0: 26bb 9ebd cdb2 67bd b1ae dbbd 3e93 d9bd
000002b0: 1a7e 2abd 5d4f ac3c d882 8fbd 6ef7 033d
000002c0: 1785 953d 5682 893d 502d 643d d91e b2bc
000002d0: a37e b7bd 0958 bebc 4387 a8bd 9404 b9bd
000002e0: 3056 853d 3083 00bd 804a b03d 3c35 753d
000002f0: 1ad7 a93d 3320 bdbc fd6a 52bd 99b6 febc
00000300: 1d4c e2bb 936a 44bc a1be e1b9 357d d33c
00000310: a322 8bbd 3a70 11bc 262d f2bd 4fc1 afbd
00000320: 431a b4bb c427 2bbd 9031 ee3b 6826 3a3d
00000330: c648 1d3d 5ec8 72bd 3f41 913b 4baf a0bd
00000340: 3fd3 1cbe cfd7 0ebe 350d d1bd 178b 44be
00000350: e673 46be cd54 bebd c60a f0bd 07ae abbd
00000360: 4a93 6dbd 2cad 61bd 2627 e5bd 7015 e4bc
00000370: edeb e2bc 3697 c8bd 1667 0abd cc2a 0bbd
00000380: f311 b1bd f43d 2d3d b3a3 e53b c2d4 e53c
00000390: baa1 783c cccc 97bd 50d6 8a3d cef8 393d
000003a0: 77cf a43d 60cf 9bbc 982f 42bd 886b 5fbd
000003b0: 6b31 bc3d f3a2 e13d 5f48 00bd 75ac 403c
000003c0: bdfb c3bc de39 6b3d 8dd1 ef3d 7292 7bbc
000003d0: 4937 e1bd a1e2 95bd ba1c 3abd 9d73 02bd
000003e0: 6524 843c daad b2bd c30c 75bd 3e1b 193d
000003f0: 71ee 36be 601f 6fbd 9215 21be 17f3 82bd

enc_layer_2_def.0.bias f4 [12]
-0.046577156 -0.030406382 0.01389032 -0.0839335 -0.0012332033 0.06080179 0.12634155 -0.028120458
0.072309025 0.047619477 0.017673504 0.11073492
00000000: b0c7 3ebd ce16 f9bc 3a94 633c 54e5 abbd
00000010: 70a3 a1ba 4c0b 793d ae5f 013e e05c e6bc
00000020: c116 943d a40c 433d 06c8 903c fdc8 e23d

dec_layer_2.0.weight f4 [12, 8, 5, 5]
-0.08549128 -0.0765152 0.022882871 -0.028133864 0.015082024 0.0493853 -0.058127396 0.0730858
0.0042781173 -0.05920734 0.014000928 0.0044809524 0.007876059 0.053726055 0.028943058 0.042166956
0.0070954193 -0.024301471 -0.006586288 0.053728897 -0.035797913 0.027257346 0.08867938 0.040125534
0.015893225 -0.07834632 0.056886077 -0.064935215 -0.01007974 0.03024902 0.03745096 -0.04553372
-0.03333336 0.048080903 0.003838343 0.025912477 -0.042111102 -0.00048990664 0.038781647 0.05670029
-0.004569533 0.086324014 0.04032627 0.023566712 0.0038393114 0.05548297 -0.031520106 0.10086944
0.07240697 -0.04937118 0.005075087 -0.06418079 0.012578775 -0.08597799 -0.029770643 -0.09048278
0.008273535 0.04010907 0.0062671946 0.013856127 -0.05691807 0.09329639 0.0020298082 0.020767497
0.036582574 0.022359021 0.054789864 0.068425104 0.09223814 0.010596372 0.040761296 0.022103494
0.0043226094 0.034588933 0.07305784 -0.012582158 -0.018195886 0.04975672 -0.066836044 -0.07483163
0.024112418 0.048849545 0.0347324 0.018776134 -0.0663797 0.042726047 -0.009013141 0.08055926
-0.03748289 0.060208116 0.016797736 0.029149983 0.088632144 0.102682665 0.013432131 0.0041062157
0.08854307 0.0914375 0.0043258686 0.05977171 -0.07194197 -0.055498526 0.025693228 -0.060593106
0.02639113 -0.031143453 0.0423044 0.057055466 -0.014713694 -0.0032913703 0.010644071 0.0035705254
-0.042513926 0.034106337 -0.020507999 -0.04142847 -0.009585452 -0.01407329 -0.06290576 0.048832376
0.027982363 -0.08855706 0.05839391 -0.100614734 0.07527901 -0.0010909451 -0.013412347 0.009420136
-0.060109727 -0.04862902 -0.002679712 0.054542687 0.0032120477 0.048847646 0.034654044 -0.020180326
0.010169101 0.032398563 0.049966905 0.027820356 -0.07782561 -0.09181654 0.026558207 -0.072198436
-0.07881724 -0.053641815 -0.030871999 -0.020574678 0.02207657 0.027180148 0.005975373 -0.04949284
-0.06403224 -0.051932678 -0.03831986 -0.029556677 -0.08616922 0.09494727 0.0072211144 -0.0277706
-0.039178163 0.07733891 -0.018892996 0.038524505 -0.027355367 -0.124234416 -0.03628716 -0.027239481
0.07129546 -0.06361267 -0.044605486 -0.1031678 0.058514316 -0.09712441 -0.013043849 -0.09505454
-0.018489394 -0.06881413 0.042426366 -0.049774572 -0.05645394 0.02333865 -0.021492098 -0.009125248
0.003941795 0.03380507 -0.018731082 -0.009402179 0.024806622 0.07681472 -0.03277407 0.05052393
0.09207404 0.0014494186 0.09100688 0.04036174 0.013908023 0.0020461183 -0.016303724 0.06858318
-0.0057632285 -0.06469573 -0.06222295 -0.047242407 -0.028459378 -0.08559408 -0.11716008 -0.09248878
-0.058688354 -0.08734446 -0.05741361 -0.07229259 -0.032019883 -0.11962293 -0.071755 -0.1110281
-0.13266434 -0.03249443 -0.112083346 0.0095042465 0.013608756 0.00047685218 0.031538427 -0.07384639
-0.025336297 -0.09184739 -0.08236236 -0.0717271 0.0024026812 -0.035033885 -0.05492399 -0.060226798
-0.09761443 -0.09360084 -0.12873319 -0.0051865787 -0.012064072 -0.054874603 -0.07618448 -0.012969337
-0.06453019 -0.05146546 -0.12869652 -0.09661849 -0.08854139 -0.07331407 -0.109353796 -0.04748966
0.020547668 0.027389469 0.00867695 0.027306467 -0.0046064686 -0.03708832 -0.029179858 -0.014668069
00000000: 0d16 afbd 00b4 9cbd dc74 bb3c fd78 e6bc
00000010: 981a 773c 3e48 4a3d fe16 6ebd 02ae 953d
00000020: 732f 8c3b 6583 72bd 2664 653c f4d4 923b
00000030: 960a 013c da0f 5c3d fe19 ed3c 42b7 2c3d
00000040: b180 e83b e113 c7bc cad1 d7bb d512 5c3d
00000050: d5a0 12bd cc4a df3c 899d b53d ac5a 243d
00000060: 8232 823c 0974 a0bd 6001 693d c1fc 84bd
00000070: 7e25 25bc cbcc f73c 2e66 193d 9181 3abd
00000080: 9088 08bd 7bf0 443d b68c 7b3b 6746 d43c
00000090: b17c 2cbd 146d 00ba 81d9 1e3d 903e 683d
000000a0: 05bc 95bb a5ca b03d 292d 253d fa0e c13c
000000b0: f59c 7b3b 1c42 633d 3a1b 01bd a394 ce3d
000000c0: 1b4a 943d 6f39 4abd ea4c a63b 3871 83bd
000000d0: 3517 4e3c 3a15 b0bd 90e1 f3bc 094f b9bd
000000e0: b98d 073c 6849 243d 0a5d cd3b cf04 633c
000000f0: ec22 69bd 2d12 bf3d 8806 053b 9920 aa3c
00000100: 9cd7 153d 442a b73c 566b 603d 7622 8c3d
00000110: 5ae7 bc3d 689c 2d3c 51f5 263d 6312 b53c
00000120: ada4 8d3b 20ad 0d3d 599f 953d 6525 4ebc
00000130: 8a0f 95bc b4cd 4b3d 56e1 88bd 5341 99bd
00000140: 6887 c53c 7616 483d 9043 0e3d 68d0 993c
00000150: 15f2 87bd 8201 2f3d daab 13bc 41fc a43d
00000160: a987 19bd c99c 763d 689b 893c f2cb ee3c
00000170: c584 b53d 4a4b d23d 7112 5c3c 6f8d 863b
00000180: 1256 b53d 9643 bb3d 04c0 8d3b 2ed3 743d
00000190: 5056 93bd 6c52 63bd 9b7a d23c 7a30 78bd
000001a0: 3632 d83c 8e20 ffbc 6147 2d3d feb2 693d
000001b0: b511 71bc 08b4 57bb 7864 2e3c 7aff 693b
000001c0: 1523 2ebd 16b3 0b3d 6400 a8bc e6b0 29bd
000001d0: 4d0c 1dbc a893 66bc bcd4 80bd 7504 483d
000001e0: 453b e53c 675d b5bd 742e 6f3d 190f cebd
000001f0: e22b 9a3d 0bfe 8eba 76bf 5bbc ea56 1a3c
00000200: 9e35 76bd 392f 47bd 1b9e 2fbb 2768 5f3d
00000210: 3881 523b 7814 483d 66f1 0d3d 3651 a5bc
00000220: 4d9c 263c 5bb4 043d 19aa 4c3d 84e7 e33c
00000230: 0963 9fbd 4f0a bcbd 9990 d93c c6dc 93bd
00000240: ef6a a1bd 85b7 5bbd 46e7 fcbc 3a8c a8bc
00000250: ecd9 b43c e7a8 de3c 10cd c33b 01b9 4abd
00000260: 5623 83bd 5cb7 54bd 49f5 1cbd d820 f2bc
00000270: 7d79 b0bd b773 c23d 199f ec3b 2b7f e3bc
00000280: 4879 20bd dd63 9e3d 7cc5 9abc dfcb 1d3d
00000290: 5d18 e0bc 9d6e febd d8a1 14bd 5525 dfbc
000002a0: 5b03 923d 5c47 82bd 3eb4 36bd a449 d3bd
000002b0: b5ac 6f3d 2ae9 c6bd deb5 55bc f4ab c2bd
000002c0: 1277 97bc 6cee 8cbd 45c7 2d3d 6ce0 4bbd
000002d0: 3f3c 67bd b230 bf3c 3210 b0bc 1082 15bc
000002e0: 2c2a 813b 2f77 0a3d ed71 99bc 990b 1abc
000002f0: 4237 cb3c 0951 9d3d 1a3e 06bd 2ef2 4e3d
00000300: 5091 bc3d 6bfa bd3a d161 ba3d 5a52 253d
00000310: 7ade 633c 2b18 063b 638f 85bc 5775 8c3d
00000320: 77d9 bcbb 327f 84bd 7edd 7ebd 4181 41bd
00000330: a423 e9bc f34b afbd a0f1 efbd c26a bdbd
00000340: 3363 70bd a7e1 b2bd 892a 6bbd 230e 94bd
00000350: 4827 03bd defc f4bd 49f4 92bd b362 e3bd
00000360: 29d9 07be e118 05bd f48b e5bd b3b7 1b3c
00000370: 42f7 5e3c 0402 fa39 702e 013d c73c 97bd
00000380: 118e cfbc 7c1a bcbd 99ad a8bd a8e5 92bd
00000390: 4d76 1d3b b17f 0fbd faf7 60bd 60b0 76bd
000003a0: 13ea c7bd ccb1 bfbd a2d2 03be 2df4 a9bb
000003b0: 63a8 45bc 31c4 60bd 9c06 9cbd 587d 54bc
000003c0: 6728 84bd 72cd 52bd 05c9 03be eadf c5bd
000003d0: 3055 b5bd b025 96bd e2f4 dfbd 8584 42bd
000003e0: 9553 a83c e15f e03c c429 0e3c d0b1 df3c
000003f0: dcf1 96bb ece9 17bd 990a efbc 5752 70bc

dec_layer_2.0.bias f4 [8]
0.041451458 -0.020776346 0.005360271 -0.029035157 0.038129333 0.05841628 0.017130204 -0.07421489
00000000: 01c9 293d 2833 aabc 36a5 af3b 23db edbc
00000010: 812d 1c3d e945 6f3d a454 8c3c fafd 97bd

dec_layer_3.0.weight f4 [8, 3, 5, 5]
0.07463903 0.06189828 0.0321268 -0.039987296 0.104829036 -0.0656865 0.06791634 0.021479387
-0.0918839 0.002853563 0.02542684 0.033905637 -0.067063995 -0.0602117 0.0463211 0.0004032788
-0.030727545 0.024617711 0.01194183 0.026610216 0.0026928207 0.0070489123 0.008861184 0.078701526
-0.083360724 0.115807965 -0.00638515 0.114793465 0.0645982 -0.011473152 -0.067562014 0.0026598633
0.043733917 0.047234822 0.09501807 0.08319263 0.06516853 0.14480916 0.028618312 0.07758807
0.008285354 -0.00036238143 0.10437464 0.121244095 0.09016132 0.0339707 0.06459262 -0.049834363
0.02309875 0.08466885 -0.06419732 0.0018140291 0.0006265274 0.04445868 0.13094452 -0.047545254
0.083105266 0.029136758 0.12285807 0.0070603164 0.036024135 -0.05565552 0.117685206 0.024685407
0.13082452 -0.05187077 0.008507885 0.06726772 0.12826721 0.00058325776 0.0057591037 0.15341134
0.011877115 0.022060955 -0.039443444 -0.053266425 -0.08075915 0.06790639 0.04760893 -0.0663314
0.02279313 -0.049850885 0.012247185 -0.0016316663 -0.11289391 0.10546956 0.033814758 0.087109394
-0.09717318 -0.11883403 0.02282079 -0.04346746 -0.025300082 -0.04496016 -0.00600185 -0.0036682142
0.084435575 0.03503201 -0.06527963 0.083060116 0.018476743 0.12679985 -0.022425521 -0.09048346
0.08580466 0.028487992 0.04018862 0.025156926 0.049398195 0.08905479 -0.042551585 0.0076198555
0.10374532 0.1151149 -0.0450647 0.07083333 0.058668993 0.025340637 -0.053177506 -0.046375997
0.06957403 -0.07381003 0.08143843 -0.016052911 -0.056222975 0.08433482 0.036250133 0.08641961
-0.014405913 -0.032316677 0.048879582 0.0021383157 0.18106826 0.09528195 0.05429799 0.10828713
0.15168822 0.0495274 0.049034752 0.020151803 0.11079813 0.049761824 0.11291334 0.07645718
0.036749545 -0.042448815 0.12151277 0.03233974 0.009992391 -0.04614673 -0.0056859925 -0.014121444
0.025704877 0.020249171 0.024983086 -0.07453687 -0.06602142 0.03809814 -0.040518187 0.05835626
0.12073499 0.027128695 0.15014 0.0053537237 0.041946232 0.071013734 0.096890256 0.113168865
0.10474297 0.019483654 0.06479461 0.07770622 0.18592283 -0.05932268 0.10192569 0.09070346
-0.06243729 0.13325271 0.10154051 -0.064924166 -0.07696228 -0.032595504 -0.026650831 0.12884739
-0.053492807 0.054801863 0.00053496554 0.12245195 0.050590154 0.06697866 0.022407591 0.12508965
0.06277077 -0.0035386002 0.11170475 0.12518036 0.1198509 -0.09135341 0.13040948 0.051482122
-0.062501974 0.119320825 0.084350124 0.022895461 0.056940142 -0.030899474 -0.068852685 0.09837737
0.009909728 0.07481847 -0.026514655 -0.025024895 -0.06506203 -0.019838465 -0.07468436 0.033939146
-0.013063416 -0.029328331 0.02531982 0.0068541435 0.0072221607 -0.057698123 0.08303176 -0.08243286
-0.018050885 0.04437395 0.13164224 -0.029194755 0.034896165 0.028774181 0.106006905 -0.059585694
-0.038151853 -0.01016446 -0.036657553 0.012320681 0.0798772 0.07906196 0.15593304 0.09200009
-0.02133492 0.06579892 0.022740733 -0.03215935 -0.021477705 0.009727753 0.0026369242 -0.02238396
0.13837548 0.0058008214 -0.056546018 -0.07846944 0.014752943 0.018177014 -0.06988875 -0.03813392
00000000: 59dc 983d 0d89 7d3d 6497 033d b8c9 23bd
00000010: 9bb0 d63d a586 86bd b917 8b3d 8af5 af3c
00000020: a02d bcbd d802 3b3b f34b d03c a3e0 0a3d
00000030: d958 89bd 8ba0 76bd 32bb 3d3d 2a6f d339
00000040: 55b8 fbbc 15ab c93c aaa7 433c abfd d93c
00000050: 097a 303b 90fa e63b 802e 113c 442e a13d
00000060: 07b9 aabd ba2c ed3d 853a d1bb d618 eb3d
00000070: 104c 843d e3f9 3bbc f45d 8abd 1a51 2e3b
00000080: 5622 333d 4d79 413d d598 c23d e660 aa3d
00000090: 1477 853d da48 143e f370 ea3c 7ee6 9e3d
000000a0: 4bbf 073c 03fe bdb9 5fc2 d53d d34e f83d
000000b0: 80a6 b83d dc24 0b3d 2349 843d 1e1f 4cbd
000000c0: 9739 bd3c dd66 ad3d e279 83bd b7c4 ed3a
000000d0: 8b3d 243a 4e1a 363d 5216 063e d0be 42bd
000000e0: 1833 aa3d 36b0 ee3c 039d fb3d 3a5a e73b
000000f0: 0b8e 133d 0bf7 63bd f104 f13d 0d39 ca3c
00000100: ddf6 053e 7276 54bd a864 0b3c a9c3 893d
00000110: 7b58 033e c4e5 183a ddb6 bc3b dd17 1d3e
00000120: 3b98 423c 2db9 b43c 738f 21bd e52d 5abd
00000130: 0e65 a5bd 8112 8b3d 9501 433d c2d8 87bd
00000140: a8b8 ba3c 7130 4cbd 6ba8 483c a3dd d5ba
00000150: ec34 e7bd 6d00 d83d 5881 0a3d 6966 b23d
00000160: bb02 c7bd 425f f3bd aaf2 ba3c ef0a 32bd
00000170: 1e42 cfbc 2528 38bd 2bab c4bb 6c66 70bb
00000180: 8fec ac3d ba7d 0f3d 54b1 85bd 6c1b aa3d
00000190: 8a5c 973c d2d7 013e bab5 b7bc 644f b9bd
000001a0: 5bba af3d a65f e93c d39c 243d e615 ce3c
000001b0: c355 4a3d 5c62 b63d 924a 2ebd fbaf f93b
000001c0: 6d78 d43d 5cc1 eb3d c395 38bd 1111 913d
000001d0: e64e 703d 2b97 cf3c a8d0 59bd c2f4 3dbd
000001e0: d47c 8e3d b729 97bd 31c9 a63d 6581 83bc
000001f0: 104a 66bd bcb7 ac3d 057b 143d c4fc b03d
00000200: c706 6cbc 7e5e 04bd f535 483d fc22 0c3b
00000210: f569 393e 2f23 c33d 9267 5e3d a5c5 dd3d
00000220: 2854 1b3e 3edd 4a3d aad8 483d 6515 a53c
00000230: 21ea e23d 0ed3 4b3d 1c3f e73d 9595 9c3d
00000240: b186 163d cfde 2dbd b0db f83d ad76 043d
00000250: 20b7 233c 5b04 3dbd 9051 babb a15d 67bc
00000260: 0993 d23c 97e1 a53c 54a9 cc3c c9a6 98bd
00000270: 3d36 87bd cc0c 1c3d 66f6 25bd f906 6f3d
00000280: e843 f73d ff3c de3c 4dbe 193e 4a6e af3b
00000290: d0cf 2b3d a66f 913d 666e c63d 14c5 e73d
000002a0: 7b83 d63d 2f9c 9f3c 09b3 843d 7024 9f3d
000002b0: 8e62 3e3e 57fc 72bd 6bbe d03d bcc2 b93d
000002c0: 3ebe 7fbd 6673 083e 79f4 cf3d f6f6 84bd
000002d0: 669e 9dbd dd82 05bd d852 dabc 92f0 033e
000002e0: 461b 5bbd eb77 603d ee3c 0c3a 17c8 fa3d
000002f0: 9f37 4f3d 1c2c 893d 2090 b73c 8017 003e
00000300: f68d 803d dce7 67bb 76c5 e43d 482f 003e
00000310: 6374 f53d 7f17 bbbd 108a 053e ebde 523d
00000320: 0901 80bd 7a5e f43d c2bf ac3d 438f bb3c
00000330: 113a 693d e520 fdbc a302 8dbd 137a c93d
00000340: 695c 223c 6d3a 993d 4335 d9bc 0201 cdbc
00000350: 3e3f 85bd 4784 a2bc 1df4 98bd c603 0b3d
00000360: f007 56bc f841 f0bc 836b cf3c b998 e03b
00000370: e0a7 ec3b de54 6cbd 8e0c aa3d 8fd2 a8bd
00000380: 73df 93bc 76c1 353d 39cd 063e d729 efbc
00000390: 48ef 0e3d d5b7 eb3c 261a d93d 2110 74bd
000003a0: 1e45 1cbd d688 26bc 3b26 16bd aedc 493c
000003b0: a896 a33d 3deb a13d e9ac 1f3e 8b6a bc3d
000003c0: 92c6 aebc 96c1 863d c64a ba3c 86b9 03bd
000003d0: 03f2 afbc 2761 1f3c 3fd0 2c3b 915e b7bc
000003e0: 4db2 0d3e d114 be3b cc9c 67bd 96b4 a0bd
000003f0: 54b6 713c f6e7 943c d521 8fbd 5032 1cbd

dec_layer_3.0.bias f4 [3]
0.053493105 -0.07420065 -0.03676014
00000000: 961b 5b3d 83f6 97bd cd91 16bd
