save/baseline_disc_2/model_baseline_disc_2.pt (torch, 27063 bytes, 8 tensors)

enc_layer_1.0.weight f4 [16, 3, 5, 5]
0.19941938 0.22201754 0.08692344 0.058962516 0.23195584 -0.065785766 0.04848017 -0.072683156
-0.15485352 -0.13425621 0.022018487 0.0039302707 0.06193554 0.10904218 -0.057662643 0.07166398
0.089484766 0.10138944 0.12771632 0.057702955 0.1413788 -0.003246038 0.055620205 -0.040453743
0.005022526 0.09906148 0.19792156 0.02632062 0.042411644 0.18832281 0.013548439 0.07031701
0.045716546 0.007369862 0.032790214 0.010313473 0.19895256 0.13869305 0.11520005 0.21332096
-0.1425417 -0.13679433 -0.030434938 -0.07928201 -0.11232783 0.07699066 0.04749748 0.14659312
0.13151276 0.07720272 0.3007079 0.36017838 0.28675917 0.19146109 0.31293833 -0.045850534
-0.01103199 0.102009125 0.027616128 0.030024428 -0.17045182 -0.1852705 -0.055364843 -0.18235514
-0.2087565 -0.13860075 -0.17240472 -0.041773193 0.0070403516 0.0012174592 0.15714231 0.15992814
0.04319466 0.08005488 0.112591416 0.17584153 0.07326319 0.21295807 0.2154666 0.17996092
-0.017516585 0.056751017 0.13084967 0.060072232 0.007966221 -0.069236234 -0.0447688 0.043334804
0.14340746 -0.031704087 -0.042883314 0.13105913 0.09625204 0.025569603 0.063868225 -0.026879631
-0.08217519 -0.08538819 -0.10412361 -0.076967455 0.115211554 0.0705927 0.1668466 -0.016269749
0.022399388 0.117458634 -0.028157562 0.10443539 0.05309429 -0.036947466 -0.018912375 0.0001439354
-0.06699443 -0.085647136 0.015898913 -0.030369306 -0.10766545 0.04698557 -0.09168919 -0.018757004
-0.10675295 -0.07454019 -0.075602114 0.040050466 0.09626618 0.032010946 0.111840166 0.06301921
0.028648186 0.20625997 -0.024777876 -0.08036225 -0.040429484 0.042038955 0.054265648 0.06001087
0.12584911 0.016800355 0.06610634 -0.012324581 -0.11169827 0.06240341 0.053067375 0.039624326
0.09957076 -0.009784448 -0.026514694 0.06742132 -0.07519155 -0.06476576 -0.24513298 -0.21835238
-0.24004555 -0.2803496 -0.24733949 -0.15862685 -0.18501103 -0.17239344 -0.085662596 -0.1569375
-0.09912328 -0.124520704 -0.15496808 -0.050747488 -0.19648801 0.054065514 -0.09513677 0.0458852
-0.143715 -0.15378632 -0.03911619 -0.102057524 0.048547782 -0.105107956 -0.12289789 -0.017218623
0.04437422 0.13783419 0.12001229 -0.03260065 0.30628496 0.23558672 0.11482396 0.19455723
0.274002 0.32597992 0.20983928 0.17474236 0.19208963 0.3815968 -0.08608184 -0.020704182
-0.035563387 0.014706685 -0.057978876 -0.07949387 0.010593831 0.11698665 0.104126476 0.023174759
-0.03224252 -0.08927335 -0.10117009 -0.12891899 0.05238125 0.098724455 0.098908536 -0.012511275
0.0838063 0.043332595 -0.11849169 -0.055535916 -0.1579364 0.0052670534 -0.10202653 -0.13745093
-0.1402718 0.050806206 -0.05766221 -0.072595194 0.0022077719 0.12951437 0.08499089 0.02735882
-0.008947887 0.025431082 -0.084132224 -0.092741914 0.06546819 0.022873124 -0.11678143 -0.17048562
0.0045018033 -0.04378544 -0.114534736 -0.034229606 -0.029797371 -0.086296365 -0.14042002 -0.060853608
-0.09043667 0.031503934 -0.09332707 -0.047925908 0.07111686 -0.100835614 -0.053418733 0.08898862
-0.12405058 0.01618098 -0.09362994 -0.10735391 0.043421116 0.01917056 0.0016805388 -0.032542635
00000000: 9834 4c3e 9158 633e eb04 b23d ae82 713d
00000010: d585 6d3e b0ba 86bd 2593 463d e8da 94bd
00000020: ec91 1ebe 767a 09be 1d60 b43c 80c9 803b
00000030: 1fb0 7d3d 8251 df3d aa2f 6cbd 91c4 923d
00000040: ca43 b73d 44a5 cf3d 11c8 023e ef59 6c3d
00000050: 9bc5 103e 7bbb 54bb 03d2 633d d3b2 25bd
00000060: 0094 a43b bfe0 ca3d f3ab 4a3e 579e d73c
00000070: d5b7 2d3d b2d7 403e 46fa 5d3c 5d02 903d
00000080: 4641 3b3d e27e f13b 084f 063d d7f9 283c
00000090: 38ba 4b3e 8d05 0e3e 01ee eb3d cf70 5a3e
000000a0: 74f6 11be d013 0cbe b152 f9bc 9b5e a2bd
000000b0: 220c e6bd 47ad 9d3d b88c 423d 821c 163e
000000c0: 48ab 063e 761c 9e3d 63f6 993e 4d69 b83e
000000d0: 19d2 923e 600e 443e 7439 a03e c5cd 3bbd
000000e0: 85bf 34bc 29ea d03d 383b e23c caf5 f53c
000000f0: ec8a 2ebe 8db7 3dbe 3fc6 62bd 4ebb 3abe
00000100: 44c4 55be 5bed 0dbe dd8a 30be 5e1a 2bbd
00000110: c0b2 e63b 2793 9f3a eae9 203e 34c4 233e
00000120: e2ec 303d d0f3 a33d 5496 e63d cd0f 343e
00000130: 030b 963d ae11 5a3e 47a3 5c3e ad47 383e
00000140: f17e 8fbc c173 683d 75fd 053e 4d0e 763d
00000150: c184 023c bacb 8dbd 7d5f 37bd d67f 313d
00000160: 68d9 123e 25dc 01bd 6aa6 2fbd 5d34 063e
00000170: ca1f c53d 5877 d13c 58cd 823d ac32 dcbc
00000180: 774b a8bd 01e0 aebd c23e d5bd 1da1 9dbd
00000190: 09f4 eb3d e892 903d d6d9 2a3e 2348 85bc
000001a0: ec7e b73c 278e f03d b0aa e6bc 39e2 d53d
000001b0: 6679 593d 3a56 17bd 20ee 9abc 5ded 1639
000001c0: 6034 89bd c467 afbd 703e 823c 0dc9 f8bc
000001d0: b47f dcbd f173 403d 8bc7 bbbd 4aa8 99bc
000001e0: 4aa1 dabd 87a8 98bd 48d5 9abd f50b 243d
000001f0: 3427 c53d e91d 033d 750c e53d 3710 813d
00000200: 9aaf ea3c d035 533e f9fa cabc f794 a4bd
00000210: 6399 25bd 0a31 2c3d a845 5e3d f5cd 753d
00000220: 97de 003e e6a0 893c c362 873d 0aed 49bc
00000230: 10c2 e4bd b89a 7f3d 2d5d 593d 1e4d 223d
00000240: c1eb cb3d f34e 20bc 5835 d9bc 3014 8a3d
00000250: 07fe 99bd e9a3 84bd 2404 7bbe c497 5fbe
00000260: 80ce 75be fc89 8fbe 9046 7dbe 146f 22be
00000270: 8873 3dbe e887 30be df6f afbd 39b4 20be
00000280: 2501 cbbd b604 ffbd f4af 1ebe 99dc 4fbd
00000290: 2734 49be cd73 5d3d 11d7 c2bd 1ff2 3b3d
000002a0: 062a 13be 297a 1dbe 4c38 20bd 8903 d1bd
000002b0: 0ada 463d d742 d7bd e4b1 fbbd 120e 8dbc
000002c0: bec1 353d 6824 0d3e 01c9 f53d 4288 05bd
000002d0: 62d1 9c3e a53d 713e d328 eb3d 033a 473e
000002e0: fd49 8c3e d7e6 a63e 1ce0 563e a9ef 323e
000002f0: 25b3 443e a860 c33e ad4b b0bd d19b a9bc
00000300: eaaa 11bd 4ff4 703c 427b 6dbd afcd a2bd
00000310: bf91 2d3c b296 ef3d 4340 d53d fed8 bd3c
00000320: bc10 04bd f2d4 b6bd 4432 cfbd 5703 04be
00000330: b98d 563d 0c30 ca3d 8f90 ca3d 17fc 4cbc
00000340: a3a2 ab3d 857d 313d c5ab f2bd a179 63bd
00000350: 14ba 21be 3f97 ac3b 49f3 d0bd f0bf 0cbe
00000360: 69a3 0fbe 2b1a 503d 362f 6cbd caac 94bd
00000370: 44b0 103b 6a9f 043e b40f ae3d 9b1f e03c
00000380: 299a 12bc d854 d03c 844d acbd 79ef bdbd
00000390: 3014 863d 6b60 bb3c 1a2b efbd c893 2ebe
000003a0: dd83 933b 5d58 33bd 3091 eabd 5834 0cbd
000003b0: 9e19 f4bc 26bc b0bd 44ca 0fbe a241 79bd
000003c0: dc36 b9bd 450a 013d 4322 bfbd f54d 44bd
000003d0: b7a5 913d e782 cebd 9acd 5abd aa3f b63d
000003e0: 3b0e febd f98d 843c 0ec1 bfbd 5edc dbbd
000003f0: 57da 313d 940b 9d3c 8645 dc3a 6d4b 05bd

enc_layer_1.0.bias f4 [16]
0.12019954 0.12974788 0.11513494 -0.38683605 -0.17900184 0.084344745 0.013992188 -0.08248605
-0.07837625 0.19507308 -0.008639162 0.028685821 0.0018212871 -0.16855046 -0.25622624 0.06492035
00000000: 2d2b f63d a1dc 043e decb eb3d 600f c6be
00000010: 424c 37be f0bc ac3d 7d3f 653c 72ee a8bd
00000020: ba83 a0bd 3dc1 473e 468b 0dbc 87fe ea3c
00000030: 41b8 ee3a 7e98 2cbe 1630 83be f6f4 843d

enc_layer_2_def.0.weight f4 [12, 16, 3, 3]
-0.031423602 0.09207807 0.11092989 0.026318558 0.030187115 0.063402094 -0.004564429 0.07952004
0.13787521 0.061054725 0.1561628 0.18145634 0.04704073 -0.027617253 -0.020876097 0.110786274
-0.042440064 -0.028271543 -0.28299797 -0.17066996 0.044635538 -0.016175354 0.064042546 0.13374627
-0.08556047 -0.089563034 0.06936408 -0.10070626 -0.098493226 -0.015371874 0.023137655 0.08402104
0.1019623 0.009275447 0.12642968 0.074829735 -0.0029659558 0.057078447 -0.04998047 -0.0012591194
0.011703726 -0.0155608235 0.095937334 0.121532194 0.24589068 -0.08208321 -0.08123426 0.018694721
-0.08664667 -0.018478043 -0.0122918375 0.05559695 0.09366885 0.12028819 -0.12922587 0.03669089
0.08942765 -0.13182399 -0.012458602 -0.021806888 0.03858354 -0.054117322 -0.024426874 0.42375764
0.34159952 0.47934735 0.20918696 0.29794213 0.31372356 0.11453125 0.1656961 0.15566468
-0.092727326 -0.055519465 0.11587528 0.017476099 0.050990276 0.12468862 -0.0027599342 -0.039730597
0.15991211 -0.32265764 -0.10282783 0.016710162 -0.0380808 -0.00927376 0.118999295 -0.007856715
-0.08406801 -0.0036676014 0.002210885 0.030923368 0.10543739 0.03541695 0.09977456 0.01605296
0.054438513 0.104505904 0.065453686 -0.28028178 -0.26069552 -0.19865362 -0.058851488 -0.047182385
-0.087068476 -0.105143204 -0.10028454 -0.09394315 -0.1350517 -0.033782028 -0.0409986 -0.035139605
0.060017828 0.10378992 0.070115484 0.080338396 0.06706319 -0.0029467866 0.044883225 0.11804715
0.26672938 0.37823328 0.430123 0.17109567 0.13512951 0.15095562 -0.15420552 -0.02523237
0.028697608 -0.13596056 -0.06482215 0.026428824 -0.038543116 0.019047445 0.07882951 -0.26648942
-0.19313823 -0.30228037 -0.14162858 -0.02411231 0.015372546 -0.07461983 -0.024061343 0.02490563
0.06452915 0.061590463 0.03522946 -0.009260357 -0.038779907 -0.046252575 -0.01128352 0.02327753
0.074917436 0.14130603 0.13148764 0.12060959 0.053097904 0.029870236 0.077432156 0.05567837
-0.055346083 -0.07768471 -0.0062327655 -0.0722847 -0.09180944 0.14334169 0.28245622 0.3555043
0.16485764 0.21253559 0.24608617 -0.08569194 0.009549463 0.076827936 -0.04034506 0.048943907
0.08208993 0.009722923 -0.014334945 -0.078903414 -0.2743924 -0.2315158 -0.2605771 -0.01915718
0.09820559 0.010881249 0.032914624 -0.014959334 0.005578007 -0.104603305 -0.13589163 -0.10023918
0.06334536 0.06622789 0.05611988 -0.03733652 -0.12254126 -0.06098931 -0.13947247 -0.11753306
-0.01926027 0.03953434 0.074237935 0.10246201 -0.04341396 -0.15537167 -0.09217271 -0.7176622
-0.88366604 -0.8878598 -0.06523769 -0.052993804 0.043142766 0.104518734 0.16389267 0.2990891
-0.17384239 -0.16657238 -0.16647832 0.23729216 0.23555152 0.22702928 0.16669576 0.17283675
0.16943724 0.27165127 0.24505764 0.2528669 -0.029023713 -0.13902263 -0.014214224 0.05162362
0.066601776 -0.016616099 -0.0028637291 0.0049227504 0.14982216 0.07696796 -0.053377938 -0.018183315
-0.06416842 0.0205849 0.08217688 0.0365601 -0.1078637 -0.058978256 0.28374058 0.27696842
0.35233057 0.0652527 0.036202293 0.1360587 -0.1114137 0.0007502296 -0.097396836 -0.046413254
00000000: 09b6 00bd 6d93 bc3d 362f e33d 049a d73c
00000010: f84a f73c f5d8 813d 3591 95bb 67db a23d
00000020: 292f 0d3e 8514 7a3d 24e9 1f3e b1cf 393e
00000030: c8ad 403d 943d e2bc 5904 abbc eae3 e23d
00000040: a2d5 2dbd b999 e7bc 1ce5 90be 1bc4 2ebe
00000050: c1d3 363d 2d82 84bc bd28 833d c8f4 083e
00000060: 543a afbd d36c b7bd c10e 8e3d 153f cebd
00000070: d1b6 c9bd 50da 7bbc 2e8b bd3c 3913 ac3d
00000080: 9cd1 d03d 0bf8 173c c876 013e 5540 993d
00000090: 7b60 42bb 17cb 693d 52b8 4cbd 0909 a5ba
000000a0: fcc0 3f3c d3f2 7ebc cb7a c43d dfe5 f83d
000000b0: c4ca 7b3e 3e1b a8bd 265e a6bd ac25 993c
000000c0: cf73 b1bd 445f 97bc b463 49bc a1b9 633d
000000d0: 74d5 bf3d a859 f63d c953 04be 3049 163d
000000e0: d825 b73d defc 06be 2a1f 4cbc 5ca4 b2bc
000000f0: c609 1e3d 20aa 5dbd de1a c8bc c3f6 d83e
00000100: 22e6 ae3e 046d f53e 1b35 563e df8b 983e
00000110: 60a0 a03e 5c8f ea3d 3dac 293e 9066 1f3e
00000120: d3e7 bdbd 6168 63bd 0550 ed3d 092a 8f3c
00000130: 2edb 503d bf5c ff3d 03e0 34bb 8dbc 22bd
00000140: 00c0 233e 6233 a5be 6697 d2bd c0e3 883c
00000150: 9dfa 1bbd f8f0 17bc e7b5 f33d 73b9 00bc
00000160: d92b acbd 245c 70bb 7fe4 103b 0153 fd3c
00000170: 8fef d73d 5d11 113d 9b56 cc3d 7f81 833c
00000180: ebfa 5e3d 3107 d63d 950c 863d 1881 8fbe
00000190: e279 85be db6b 4bbe 420e 71bd 5142 41bd
000001a0: f550 b2bd 5255 d7bd fb61 cdbd 4465 c0bd
000001b0: fe4a 0abe 065f 0abd 26ee 27bd 8cee 0fbd
000001c0: 41d5 753d cf8f d43d b598 8f3d 7588 a43d
000001d0: 6d58 893d e01e 41bb 79d7 373d b4c2 f13d
000001e0: c190 883e cba7 c13e 1539 dc3e b433 2f3e
000001f0: 645f 0a3e 1c94 1a3e 0de8 1dbe 1db4 cebc
00000200: 3f17 eb3c 3f39 0bbe 7ac1 84bd 4381 d83c
00000210: 63df 1dbd 6309 9c3c 5e71 a13d 4d71 88be
00000220: 07c6 45be 7ec4 9abe 1507 11be 2e87 c5bc
00000230: 22dd 7b3c 48d2 98bd 4b1c c5bc e406 cc3c
00000240: dc27 843d 4846 7c3d c44c 103d c1b8 17bc
00000250: aed7 1ebd 5773 3dbd 83de 38bc 85b0 be3c
00000260: 506e 993d 87b2 103e b2a4 063e 2902 f73d
00000270: 307d 593d 6db2 f43c c094 9e3d 010f 643d
00000280: 93b2 62bd 2919 9fbd 3a3c ccbb 000a 94bd
00000290: 9606 bcbd 2ac8 123e 1a9e 903e a904 b63e
000002a0: 71d0 283e eea2 593e 03fe 7b3e 417f afbd
000002b0: 5a75 1c3c f757 9d3d dd40 25bd 6879 483d
000002c0: c41e a83d e54c 1f3c 1edd 6abc 1d98 a1bd
000002d0: 297d 8cbe 7a12 6dbe 5d6a 85be 85ef 9cbc
000002e0: 0320 c93d 4447 323c 7cd1 063d ff17 75bc
000002f0: b7c7 b63b 423a d6bd 2d27 0bbe 334a cdbd
00000300: 36bb 813d 7da2 873d f6dd 653d 2eee 18bd
00000310: eaf6 fabd edcf 79bd dfd1 0ebe 2cb5 f0bd
00000320: b7c7 9dbc c3ee 213d 0f0a 983d 9ad7 d13d
00000330: d6d2 31bd c019 1fbe 0cc5 bcbd b6b8 37bf
00000340: f037 62bf c84a 63bf 579b 85bd 0810 59bd
00000350: 78b6 303d eb0d d63d 7bd3 273e 3522 993e
00000360: bd03 32be f391 2abe 4b79 2abe b7fc 723e
00000370: 6b34 713e 5d7a 683e 4bb2 2a3e 1efc 303e
00000380: f580 2d3e e015 8b3e 64f0 7a3e c577 813e
00000390: 23c3 edbc f35b 0ebe c7e2 68bc 4a73 533d
000003a0: 8366 883d 7c1e 88bc 67ad 3bbb 064f a13b
000003b0: fb6a 193e 61a1 9d3d d3a2 5abd 2df5 94bc
000003c0: bc6a 83bd aaa1 a83c 5a4c a83d 0bc0 153d
000003d0: a5e7 dcbd 2f93 71bd 7246 913e cece 8d3e
000003e0: ac64 b43e 35a3 853d db48 143d f952 0b3e
000003f0: de2c e4bd 0eab 443a fe77 c7bd d31b 3ebd

enc_layer_2_def.0.bias f4 [12]
0.18519284 0.06274577 -0.03521658 0.076618075 0.050329104 0.08301088 0.12753423 -0.005024983
0.027864171 -0.071881555 0.02829392 0.14847828
00000000: 31a3 3d3e db80 803d 433f 10bd f0e9 9c3d
00000010: e425 4e3d 9c01 aa3d 5598 023e 9da8 a4bb
00000020: 6743 e43c a336 93bd a7c8 e73c b10a 183e

dec_layer_2.0.weight f4 [12, 8, 5, 5]
-0.029356416 -0.030955106 0.029669346 0.010469843 0.11403571 -0.045849804 -0.047875486 0.008956638
-0.019406987 0.038304858 0.006136755 0.02737762 0.06414708 0.10310937 0.09906362 0.020882528
0.002517261 -0.0018988947 0.106582165 0.104158215 -0.0341199 -0.050641105 0.04088701 0.07611049
0.06466169 -0.008113728 0.05196549 -0.027075263 -0.0034707333 0.045839477 0.033800125 -0.08027275
-0.062944286 -0.012957184 -0.009216539 -0.025253696 -0.06724052 -0.058379836 -0.0122429095 -0.016475536
0.089431256 0.10113368 0.15201658 0.13685602 0.15060498 0.08933324 0.068091504 0.095711954
0.15999724 0.06350866 0.011440065 -0.04300323 0.042297717 -0.06600025 0.040309466 -0.033318743
-0.021460196 0.10209933 -0.0022394552 0.046624538 0.009142626 0.112042576 0.12213492 0.1558735
0.06380819 0.015778797 0.014864206 0.07704717 0.14305393 0.11758965 -0.027221905 -0.054941762
0.03221988 0.017131865 0.0694345 -0.0655373 -0.043357577 -0.016116453 -0.08212252 -0.11350082
0.063428394 0.118809804 0.09688269 0.08317739 0.01417967 -0.08843665 -0.07017475 -0.08300125
-0.078350194 -0.035268806 -0.04804155 -0.0577555 0.019244796 0.004296251 -0.015216987 -0.07963444
0.007335857 -0.0151448995 -0.0952906 -0.08386119 -0.13791715 -0.21033643 -0.07212286 -0.13213469
0.002581128 -0.0065085413 -0.0054027243 0.10703666 -0.063332275 1.0750921e-05 -0.09806 -0.091150895
-0.11115625 0.06345517 -0.07850315 -0.29614657 -0.20739609 -0.24367733 -0.26462743 -0.26885277
-0.101302 -0.3445197 -0.091173016 -0.4022825 -0.002697385 -0.14501794 -0.017746424 -0.09217745
-0.026745437 -0.16957411 -0.06540088 0.008210428 -0.07380129 0.04650608 -0.011259739 -0.10393465
-0.01551796 0.026073987 0.13149206 0.00860307 -0.11729683 -0.1251139 0.019596834 -0.011567563
-0.036363445 -0.121715724 -0.14894229 -0.12698792 -0.10806447 -0.05800062 -0.01565993 -0.059371524
-0.030820996 -0.008298529 0.0015800758 -0.089002594 -0.044629116 0.044633064 -0.0012001182 0.003906721
0.015083023 0.059259783 0.07908711 0.098748416 0.03291351 -0.0026993256 0.029097075 0.094314836
0.08625673 0.028346516 -0.13150679 -0.017193642 0.02789401 -0.011595688 -0.06451666 -0.09842004
-0.010867982 -0.09303917 -0.042504497 -0.10172413 -0.023009257 0.034300644 0.03825182 -0.040408537
-0.018068314 0.07213694 -0.02197436 -0.0068202093 0.057319216 0.022320107 -0.042693768 0.0038017302
0.03188692 -0.049273808 0.09592949 -0.02262703 0.07296016 -0.025413908 0.05546503 -0.052718602
-0.04649097 -0.017357342 -0.053390518 -0.09791725 -0.053663712 -0.086320676 -0.045218498 0.006845733
-0.050438616 -0.030004589 -0.077868246 -0.17493327 -0.15080231 -0.11103376 -0.14067388 -0.20633139
-0.39270356 -0.23509102 -0.31575543 -0.07938614 0.008309046 0.116207466 0.14419374 0.059948824
0.13555363 -0.1276287 -0.08159111 -0.007238586 0.027796654 -0.064496145 -0.08853284 -0.016333453
0.01887921 -0.024538856 -0.040395703 0.057415035 0.0057026204 0.049640693 0.016205292 0.02906486
-0.10824285 -0.27717656 -0.3870309 -0.35397714 -0.19550587 -0.00949974 -0.024423847 0.07490626
-0.0024058765 0.113153525 0.036659226 0.0179676 0.06596523 0.0441319 0.07058136 -0.02252693
00000000: de7c f0bc 9095 fdbc 210d f33c b489 2b3c
00000010: 8e8b e93d 01cd 3bbd 1619 44bd ddbe 123c
00000020: 67fb 9ebc 8ee5 1c3d d516 c93b 0847 e03c
00000030: 8b5f 833d 012b d33d dee1 ca3d d611 ab3c
00000040: a2f8 243b 55e4 f8ba c047 da3d e750 d53d
00000050: 4fc1 0bbd 0c6d 4fbd 2379 273d d1df 9b3d
00000060: 596d 843d 71ef 04bc c4d9 543d f1cc ddbc
00000070: 3e75 63bb 2dc2 3b3d 0072 0a3d 0a66 a4bd
00000080: efe8 80bd 5e4a 54bc f700 17bc d7e0 cebc
00000090: 66b5 89bd b21f 6fbd 7c96 48bc b4f7 86bc
000000a0: bc27 b73d 2d1f cf3d 3caa 1b3e fc23 0c3e
000000b0: 3138 1a3e 59f4 b63d 8f73 8b3d a104 c43d
000000c0: 51d6 233e d410 823d 1c6f 3b3c 2824 30bd
000000d0: 5f40 2d3d 242b 87bd 8a1b 253d 3c79 08bd
000000e0: 4bcd afbc 7419 d13d d3c3 12bb 5ff9 3e3d
000000f0: f4ca 153c 9476 e53d df21 fa3d 4e9d 1f3e
00000100: dead 823d 8942 813c 0089 733c e8ca 9d3d
00000110: bb7c 123e d8d2 f03d 7900 dfbc 9d0a 61bd
00000120: fef8 033d 2058 8c3c ad33 8e3d 6c38 86bd
00000130: b797 31bd a706 84bc da2f a8bd 1e73 e8bd
00000140: bfe6 813d 8e52 f33d 6f6a c63d e858 aa3d
00000150: d951 683c 461e b5bd c8b7 8fbd 8ffc a9bd
00000160: 1176 a0bd 0676 10bd 37c7 44bd 0891 6cbd
00000170: 43a7 9d3c 91c7 8c3b ab50 79bc 6217 a3bd
00000180: a161 f03b 5022 78bc b827 c3bd 6abf abbd
00000190: 273a 0dbe 6f62 57be 26b5 93bd 514e 07be
000001a0: 2428 293b 9a45 d5bb 5609 b1bb 0936 db3d
000001b0: 5ab4 81bd db5e 3437 aed3 c8bd 52ad babd
000001c0: e3a5 e3bd c9f4 813d 42c6 a0bd 86a0 97be
000001d0: a45f 54be 8d86 79be 3f7d 87be 12a7 89be
000001e0: 6c77 cfbd e364 b0be ebb8 babd f9f7 cdbe
000001f0: 9cc6 30bb 957f 14be f360 91bc 88c7 bcbd
00000200: 3f19 dbbc d6a4 2dbe e6f0 85bd 0885 063c
00000210: 2125 97bd 297d 3e3d c57a 38bc b1db d4bd
00000220: 0b3f 7ebc 1d99 d53c dba5 063e e4f3 0c3c
00000230: 5239 f0bd dc1d 00be 8a89 a03c e085 3dbc
00000240: d6f1 14bd 1846 f9bd 5484 18be 1f09 02be
00000250: e850 ddbd 0f92 6dbd 4149 80bc 8e2f 73bd
00000260: 507c fcbc 8ef6 07bc 8c1a cf3a fe46 b6bd
00000270: 05cd 36bd 29d1 363d 494d 9dba f303 803b
00000280: c91e 773c 63ba 723d 6cf8 a13d 9c3c ca3d
00000290: 51d0 063d 2be7 30bb fd5c ee3c 2328 c13d
000002a0: 5ea7 b03d f436 e83c b7a9 06be aed9 8cbc
000002b0: fb81 e43c d7fb 3dbc 5021 84bd 7290 c9bd
000002c0: 9f0f 32bc 528b bebd 3219 2ebd be54 d0bd
000002d0: e97d bcbc d57e 0c3d f1ad 1c3d 6c83 25bd
000002e0: 0004 94bc 88bc 933d 9303 b4bc 107c dfbb
000002f0: 8ec7 6a3d a8d8 b63c a9df 2ebd 7326 793b
00000300: dc9b 023d 55d3 49bd ae76 c43d 525c b9bc
00000310: 236c 953d d430 d0bc 4d2f 633d 76ef 57bd
00000320: 516d 3ebd fc30 8ebc 04b0 5abd d788 c8bd
00000330: 7bce 5bbd e5c8 b0bd 0837 39bd 2c52 e03b
00000340: b998 4ebd 2fcc f5bc 6379 9fbd b521 33be
00000350: ec6b 1abe ab65 e3bd d00c 10be 8948 53be
00000360: 7110 c9be b3bb 70be b2aa a1be 3395 a2bd
00000370: aa22 083c 2efe ed3d 86a7 133e e68c 753d
00000380: 92ce 0a3e 19b1 02be 3d19 a7bd a931 edbb
00000390: cfb5 e33c 8e16 84bd b550 b5bd bccd 85bc
000003a0: 93a8 9a3c b605 c9bc f775 25bd 072c 6b3d
000003b0: 0cdd ba3b 0a54 4b3d f6c0 843c 6e19 ee3c
000003c0: 6dae ddbd 16ea 8dbe ea28 c6be 7e3c b5be
000003d0: b132 48be cca4 1bbc 8514 c8bc 7468 993d
000003e0: e9ab 1dbb 09bd e73d fc27 163d ca30 933c
000003f0: c718 873d a7c3 343d f68c 903d 658a b8bc

dec_layer_2.0.bias f4 [8]
-0.0480163 0.025225535 0.022243166 0.10398387 0.04008914 -0.09174578 -0.098634906 -0.23945509
00000000: bdac 44bd c8a5 ce3c 4d37 b63c 7ff5 d43d
00000010: 8334 243d 36e5 bbbd 1901 cabd b733 75be

dec_layer_3.0.weight f4 [8, 3, 5, 5]
0.02726554 0.055534933 0.09736576 0.03918821 0.028071642 0.03551221 0.038351744 0.016855778
0.02905593 0.016584212 0.013278247 0.018418688 0.039131712 0.013205426 -0.011729061 -0.0060063056
0.0015978117 -0.059598222 -0.0035378914 -0.012789701 0.013960702 0.015134144 0.0323747 0.025439056
0.010583166 0.060595855 0.14949459 0.23570792 0.13300774 0.029899227 0.09805394 0.21634783
0.3564371 0.2277942 0.14392662 0.19039404 0.29309016 0.49164084 0.32795438 0.23852435
0.13803174 0.18038906 0.2902631 0.20527145 0.16172242 0.029081646 0.03671702 0.09748095
0.06388531 0.04204334 0.002374163 0.017286347 -0.012766781 -0.023735572 -0.023353614 0.11529988
0.1139158 0.16446362 0.10353779 0.093019724 0.09435952 0.18783265 0.2806977 0.14887996
0.055962946 0.11727578 0.22603604 0.31073287 0.1945824 0.100431815 0.030284429 0.106593564
0.13053815 0.052335 -0.031912364 -0.017959854 -0.03135835 0.12421342 -0.014895023 -3.1736934e-05
-0.06012003 -0.028295176 -0.070409104 -0.032571904 -0.018430524 -0.03477822 -5.1823685e-05 -0.016908078
0.018477416 -0.009302329 -0.034515034 -0.012349579 -0.13980527 -0.023882015 -0.06625531 0.008499554
-0.010172255 0.05489296 0.026800971 0.029756706 -0.004313493 0.055795588 0.0555834 -0.014032692
-0.035709128 -0.086071685 -0.05336584 -0.019309342 0.014767642 -0.045881856 -0.21642627 -0.08647834
-0.10483618 -0.07402389 -0.15952514 -0.10491619 -0.07592083 -0.19470856 -0.14530963 -0.17511356
-0.07300123 -0.060956124 -0.10795646 -0.09547618 -0.078886166 0.082880825 0.09146508 0.19825193
0.08789971 0.0604239 0.1472047 0.20752099 0.33614403 0.2170504 0.17202342 0.23684362
0.3010576 0.50832164 0.2896484 0.25016007 0.12146341 0.23220041 0.3684825 0.22296219
0.17115207 0.16013996 0.16153054 0.2861442 0.15324733 0.17519672 0.13854776 0.28761846
0.31726214 0.2605538 0.121040225 0.2222151 0.32979903 0.4309303 0.30991465 0.25640783
0.28086933 0.35727015 0.6728709 0.36092424 0.28364077 0.047992136 0.1491681 0.31403628
0.17301372 0.066228576 -0.07528474 0.08746067 0.19215329 0.1507693 -0.027627904 -0.0072930697
0.016657656 0.02362763 0.009749145 -0.032532122 0.00024079527 0.03957209 -0.007854818 0.021444613
-0.03393597 0.10632793 0.112759426 0.14720708 0.11398001 0.06655392 0.07027905 0.07910842
0.07604852 0.0473331 0.039648626 0.08867929 0.13434784 0.14457425 0.08192572 0.041473895
-0.035189737 0.0036949234 -0.0011328057 0.018874792 -0.017078545 0.016930696 0.046231113 0.020536939
0.008631643 -0.010655284 -0.02762313 0.018278448 -0.019967176 -0.0020505737 -0.038625576 0.0027727897
0.015728693 -0.061255477 -0.00922824 -0.04531215 -0.07674924 -0.017238956 -0.08201906 -0.047381874
-0.12955241 -0.06652749 0.026311329 0.033045184 0.029903904 -0.05729516 0.26447284 0.25292102
0.45765582 0.26781783 0.27422047 0.23531623 0.34352073 0.5257995 0.2739711 0.20333228
0.13230486 0.23808043 0.34637108 0.20681417 0.0751197 -0.03923438 0.070863314 0.14665893
0.052667197 -0.11811361 0.04516959 -0.0035144913 0.031177094 0.0027522563 0.030737014 0.056525078
00000000: fb5b df3c 9978 633d b367 c73d d183 203d
00000010: 80f6 e53c 4075 113d b816 1d3d 2115 8a3c
00000020: b406 ee3c 9ddb 873c 018d 593c cae2 963c
00000030: 9348 203d 925b 583c 3f2b 40bc 8bd0 c4bb
00000040: aa6d d13a 441d 74bd f8db 67bb e58b 51bc
00000050: 6ebb 643c 33f5 773c 559b 043d 9165 d03c
00000060: 0465 2d3c 5c33 783d 1c15 193e 6b5d 713e
00000070: 2e33 083e 39ef f43c 81d0 c83d 498a 5d3e
00000080: ec7e b63e e242 693e 8061 133e a8f6 423e
00000090: ea0f 963e 59b8 fb3e a3e9 a73e ba3f 743e
000000a0: 3158 0d3e e9b7 383e 5d9d 943e ae32 523e
000000b0: 909a 253e a23c ee3c 9664 163d 18a4 c73d
000000c0: 4dd6 823d a335 2c3d d897 1b3b 199c 8d3c
000000d0: c32b 51bc 1a71 c2bc 1450 bfbc 5822 ec3d
000000e0: b04c e93d 2769 283e 9f0b d43d 2081 be3d
000000f0: 903f c13d 3457 403e 9cb7 8f3e fd73 183e
00000100: 6739 653d 492e f03d fe75 673e 6118 9f3e
00000110: 9c40 473e 32af cd3d 0d17 f83c ba4d da3d
00000120: cbab 053e 3a5d 563d 8ab6 02bd 8b20 93bc
00000130: 9d71 00bd 9b63 fe3d 410a 74bc 461d 05b8
00000140: 6c40 76bd 49cb e7bc a632 90bd 1e6a 05bd
00000150: 9cfb 96bc 9b73 0ebd 425d 59b8 cf82 8abc
00000160: f35d 973c cc68 18bc a35f 0dbd e355 4abc
00000170: 1d29 0fbe 37a4 c3bc ddb0 87bd b741 0b3c
00000180: 88a9 26bc 71d7 603d b68d db3c 56c4 f33c
00000190: 3458 8dbb ea89 643d 6bab 633d 60e9 65bc
000001a0: bc43 12bd 5a46 b0bd 2496 5abd a02e 9ebc
000001b0: fbf3 713c 9dee 3bbd d99e 5dbe 8e1b b1bd
000001c0: 5ab4 d6bd d699 97bd 8f5a 23be 4dde d6bd
000001d0: 617c 9bbd ae61 47be 0ccc 14be f850 33be
000001e0: ab81 95bd 21ad 79bd 4718 ddbd 0489 c3bd
000001f0: 128f a1bd 6cbd a93d 0b52 bb3d 8e02 4b3e
00000200: c304 b43d 0d7f 773d d4bc 163e 6280 543e
00000210: 121b ac3e 7642 5e3e e826 303e 2287 723e
00000220: 3924 9a3e 5e21 023f cc4c 943e fb14 803e
00000230: cfc1 f83d f2c5 6d3e bda9 bc3e 3350 643e
00000240: 7d42 2f3e bbfb 233e 4368 253e 7e81 923e
00000250: deec 1c3e c566 333e 77df 0d3e ba42 933e
00000260: 2f70 a23e 4f67 853e f0e3 f73d 5b8c 633e
00000270: 6bdb a83e e5a2 dc3e 22ad 9e3e e347 833e
00000280: 1bce 8f3e 1dec b63e 4441 2c3f 10cb b83e
00000290: 5d39 913e 6793 443d 86bf 183e 5dc9 a03e
000002a0: 822a 313e d9a2 873d e32e 9abd 941e b33d
000002b0: d5c3 443e 4463 1a3e ea53 e2bc b4fa eebb
000002c0: a375 883c bb8e c13c e1ba 1f3c 6740 05bd
000002d0: fd7d 7c39 5816 223d 7fb1 00bc 9dac af3c
000002e0: 7200 0bbd 75c2 d93d 6aee e63d 74bd 163e
000002f0: 5a6e e93d 6c4d 883d 76ee 8f3d 9803 a23d
00000300: 54bf 9b3d 5ae0 413d 9966 223d 7d9d b53d
00000310: 7b92 093e 460b 143e acc8 a73d 88e0 293d
00000320: 1d23 10bd 8726 723b a77a 94ba 4f9f 9a3c
00000330: 4ee8 8bbc 3eb2 8a3c d65c 3d3d 153d a83c
00000340: bc6b 0d3c 8093 2ebc e749 e2bc afbc 953c
00000350: 3492 a3bc eb62 06bb da35 1ebd b1b7 353b
00000360: 76d9 803c 06e7 7abd 0b32 17bc 3c99 39bd
00000370: b52e 9dbd b638 8dbc 9cf9 a7bd 7f13 42bd
00000380: 63a9 04be 913f 88bd db8a d73c 635a 073d
00000390: 08f9 f43c 54ae 6abd fc68 873e dd7e 813e
000003a0: dd51 ea3e 6b1f 893e a066 8c3e bdf6 703e
000003b0: f3e1 af3e cc9a 063f f145 8c3e 5636 503e
000003c0: ed7a 073e 5bcb 733e 8d57 b13e 18c7 533e
000003d0: 5bd8 993d 3bb4 20bd c920 913d c22d 163e
000003e0: 8fb9 573d 8ce5 f1bd bf03 393d 6153 66bb
000003f0: 1b67 ff3c 335f 343b 31cc fb3c d786 673d

dec_layer_3.0.bias f4 [3]
0.050281998 0.04496512 0.052475166
00000000: 7ff4 4d3d 582d 383d 33f0 563d
