save/large_1/gen_model.pt (torch, 27063 bytes, 8 tensors)

enc_layer_1.0.weight f4 [16, 3, 5, 5]
000000 09 16 89 bd b3 b2 ca bd 0e 0c 3c 3d b9 03 c3 3d
       -0.06693656 -0.098973654 0.045909934 0.095221944
000010 35 cc a4 bd 04 56 bf 3d 5e d5 c2 3d 02 bd 13 3e
       -0.08046762 0.09342578 0.09513353 0.1442757
000020 95 d8 05 bd d3 86 99 3d 85 f7 32 3e fb bc 15 3e
       -0.03267725 0.07496419 0.17477234 0.14622872
000030 ee b2 0a 3e 84 36 0e 3d 8d 3e 0b 3e a8 e7 9f 3d
       0.13544819 0.03471996 0.1359808 0.07807857
000040 d2 ad 1f 3e 3e 94 44 3e 1a 54 90 bd ed 08 cd bc
       0.15593651 0.19197175 -0.07047291 -0.02502867
000050 cf fb 99 bd fb e8 08 3e b4 1a f9 bb 04 90 d6 bd
       -0.07518732 0.13370125 -0.00760206 -0.104766876
000060 e2 60 18 bd 70 b2 a2 be f6 c9 26 be ca 0a b4 bd
       -0.03720177 -0.31776762 -0.1628798 -0.0879112
000070 d8 55 32 be 2b 2d f4 bd aa b4 6f 3c 85 12 95 bd
       -0.1741556 -0.119226776 0.014630476 -0.07278923
000080 c9 6f 3c bc eb 16 be bc 43 fb 96 bd 4d 0b a3 3c
       -0.011501261 -0.023204288 -0.07372143 0.01990285
000090 2c 4f 52 3c ec f1 1e 3c ce cb 71 3d 1c 2b 0f bd
       0.012836259 0.009701233 0.059032254 -0.03495322
0000a0 27 c8 17 3c 89 a4 a9 3d e4 40 89 bd b1 79 2a 3c
       0.009264029 0.08283336 -0.0670183 0.01040499
0000b0 38 87 e2 bd b4 ce f5 bd 1f 49 8b 3c 28 17 03 be
       -0.11060947 -0.12002316 0.01700264 -0.12801802
0000c0 28 26 89 3c a3 ed 37 bb 3c 57 f3 bd 87 de 85 3d
       0.016741827 -0.0028065227 -0.11881873 0.06536584
0000d0 e1 46 98 bc 6d 8c e2 3c f2 47 21 be 87 b4 dd 3d
       -0.018588485 0.02765485 -0.15750101 0.108254485
0000e0 37 71 5a 3e 66 1c 59 3e 57 dd b5 bc f7 c5 0e 3c
       0.2133225 0.2120224 -0.02220027 0.008714191
0000f0 75 95 e0 3d f0 8d 59 3e e3 dd 19 3e 92 2d e1 3d
       0.10966007 0.21245551 0.1502605 0.1099502
000100 af 9c 5a bc 29 96 24 3e a7 9e 5e 3e 45 5b 80 3d
       -0.01334302 0.16072907 0.21740209 0.06267408
000110 1d f6 d2 3d 49 a0 7f 3d c5 66 08 3e b1 2f fb 3d
       0.10300849 0.06240872 0.13320453 0.12264956
000120 f4 cc 00 3e fc 80 d3 bb 8a e9 6c 3c e1 2a c7 bd
       0.12578183 -0.006454585 0.014459977 -0.097249754
000130 ee 68 a7 bd d5 c6 13 bd 7e cd 97 3d d6 5c 88 3d
       -0.081743106 -0.036078293 0.074122414 0.06658332
000140 9d 6b 4e bd a5 10 fa 3d a0 d0 08 3e 74 66 2c 3d
       -0.050395597 0.12210206 0.13360834 0.042089894
000150 6e f4 7d bd e7 54 3f bc 52 29 e9 bc 0a 63 73 3d
       -0.062000684 -0.011677957 -0.028462086 0.059420623
000160 f2 ca 25 3e a1 6e ad 3d 65 70 d4 bd 47 4c 4e 3c
       0.16190699 0.084683664 -0.10373 0.012591428
000170 6e 96 2b 3e 49 00 fa 3d fc a6 ab 3d 80 ce 92 bd
       0.16756603 0.12207086 0.08381459 -0.07168293
000180 e6 54 cb bb 02 5d 48 bc db 8f fd 3c ce b2 be 3d
       -0.006205189 -0.012229206 0.030952385 0.09311448
000190 e9 2d c7 bd c6 67 63 bd 4d 4b 54 3e c1 dc ee 3d
       -0.097255535 -0.055518888 0.2073185 0.11663199
0001a0 08 b2 f0 3d b8 4b 80 3d 2f ce 03 3e 13 cb d8 3d
       0.11752707 0.06264442 0.12871622 0.10585608
0001b0 64 9b 71 3e f4 b7 56 3e 16 65 e8 3d 1b f6 5f 3e
       0.23594433 0.2096861 0.113474056 0.21871226
0001c0 ba ef 13 3e 78 91 75 3d 6f f3 17 3e 6b 63 f2 3d
       0.14446917 0.059953183 0.14838956 0.11835369
0001d0 ae 67 48 3e a5 22 be 3d 3d a9 59 3d 89 19 20 3e
       0.195708 0.09283952 0.053139914 0.15634741
0001e0 b5 5c 89 ba 64 97 3f 3b 8f dc d6 3d da 60 1d 38
       -0.0010479899 0.0029234523 0.10491287 3.7521917e-05
0001f0 24 ac d5 3d 6b 33 d0 bc e8 26 de 3b 34 1c 93 bd
       0.10433224 -0.025415143 0.0067795403 -0.07183114
000200 8a 79 ef bd 8d d4 df bc 17 a5 b1 bd 76 c1 a1 3c
       -0.116931036 -0.027323032 -0.086740665 0.01974557
000210 03 05 25 bc f9 98 3f 3d 6c 30 de 3c 7d 72 46 be
       -0.010071996 0.046776745 0.027122699 -0.19379611
000220 15 42 6f 3b 3a 99 ad 3d 1a c3 29 bc ad f6 b4 bd
       0.0036507894 0.08476491 -0.010361457 -0.08836112
000230 76 4b 20 be c6 05 81 3d 38 23 16 3e 20 f7 a3 3d
       -0.15653786 0.06299929 0.14661872 0.0800612
000240 64 c6 08 bd 23 9d c6 bd 47 b5 28 bd 4f 81 53 3d
       -0.033392325 -0.0969794 -0.041188505 0.05163699
000250 af 59 7b 3d b5 d9 08 3e 39 6c a8 bd 13 24 a5 bc
       0.061364826 0.13364299 -0.08223767 -0.020158803
000260 03 17 17 bb 09 fc dc bb 23 96 4f be 1a 3e 35 bc
       -0.0023054488 -0.006743912 -0.20272116 -0.011062169
000270 25 43 e7 3c 68 fd a7 3d 30 b7 b4 3d b6 d1 00 bd
       0.02823026 0.0820263 0.08824003 -0.031449996
000280 9a f2 24 be bf 5f 7c bc af 72 50 3e af 1d 0f 3e
       -0.1610817 -0.015403687 0.20356248 0.13976167
000290 28 8f 09 3e 4c 98 80 be 10 e9 f7 bd 5a 3c d4 3d
       0.13433516 -0.25116193 -0.12105 0.10363074
0002a0 89 30 af 3d dc d4 02 bd 65 ef 9c bd 6d 55 58 be
       0.08554179 -0.03194128 -0.076628484 -0.21126337
0002b0 a5 93 a2 3b 97 41 3f 3d e7 4b f7 bd 6d e8 ec 3d
       0.0049614483 0.04669341 -0.12075024 0.11567769
0002c0 93 a7 c8 bc fc 02 ec 3b 36 38 15 be 76 b7 80 be
       -0.024493968 0.007202504 -0.14572224 -0.2513997
0002d0 f7 9a 4b 3d 80 33 21 3e f1 73 a1 3d 34 3e e0 3d
       0.049708333 0.15742302 0.07883442 0.10949364
0002e0 b9 5a dd 3b fb 59 99 bd 64 de 2a bc 27 9f 79 3e
       0.0067551997 -0.074878655 -0.010428999 0.24377118
0002f0 fa 4b 6e 3e bd 85 a5 3d ff 34 3e bd 0a 13 36 be
       0.2327117 0.08082149 -0.04643726 -0.177807
000300 4b 74 06 bd 2b b3 07 3e a4 4c 75 bd 39 3f d9 bc
       -0.03282575 0.13251941 -0.059887543 -0.026519405
000310 0e 21 b0 3b 4e a3 a8 bd 76 b8 8a bc da 9b 46 3d
       0.005375034 -0.08234273 -0.016933661 0.048488475
000320 ec 8c 2d 3d 70 39 a0 bd 66 a3 ec bb 92 25 15 be
       0.04237072 -0.07823455 -0.007221627 -0.14565113
000330 c7 d2 47 be dc fc 2f 3e d9 30 5d 3e 27 01 a2 3e
       -0.19513999 0.17186302 0.21600665 0.31641504
000340 b9 4a 00 3e 15 83 af bc 7b 13 1c 3d 8e bc 25 3e
       0.12528504 -0.02142481 0.038104516 0.16185209
000350 f5 b5 94 3e fc 0b 6e 3e 7f fb 00 3e 89 a8 00 be
       0.29045072 0.23246759 0.12595938 -0.12564291
000360 36 c5 02 3d 52 af 81 3e 92 e8 4d 3d 67 b1 1e 3e
       0.031926356 0.2532907 0.050270624 0.15497361
000370 a6 ba 6e bc 51 31 50 3d ff 24 5b 3c fc 94 32 3e
       -0.014570868 0.05082828 0.01337552 0.17439646
000380 46 57 79 bd f8 1f 9e be 0c 79 61 be c9 8d a3 bd
       -0.060874246 -0.30883765 -0.22018832 -0.07986028
000390 02 62 c6 bd ef a5 09 be 08 ea bb bd 41 cf a8 bd
       -0.09686662 -0.13442205 -0.09175497 -0.082426555
0003a0 8e 15 af bb 3c c2 c0 bd 0c 19 74 bc a2 60 3a bd
       -0.0053431457 -0.09412047 -0.01489855 -0.045502312
0003b0 5e 22 18 3e 9d 73 5e 3e 41 75 90 bd 8d 13 a1 bd
       0.1485686 0.2172379 -0.070536144 -0.07865057
0003c0 d2 47 b3 bc aa 5c 78 3d 48 c9 f7 3d 68 af d8 bc
       -0.021884833 0.060635246 0.12098938 -0.026450828
0003d0 fd b4 4f 3d 39 5d f6 bc 18 17 a0 bc c4 61 b3 bc
       0.050709713 -0.030073749 -0.019542262 -0.021897204
0003e0 0c e1 b1 bd 16 78 8e bd fe 59 b8 bd 23 1d aa 3d
       -0.086855024 -0.06956498 -0.0900154 0.08306339
0003f0 ba 21 19 bd 07 58 93 bd 37 22 2e 3c 82 35 ca 3d
       -0.03738568 -0.07194524 0.010628275 0.09873487

enc_layer_1.0.bias f4 [16]
000000 7e 21 bb 3d b3 c8 d4 3d 2b 9c 0d 3e 0b bc fd ba
       0.091372475 0.10389843 0.13829105 -0.0019358409
000010 e4 c9 9b bb 64 6a 46 bc 49 4a 68 bc db 94 09 bf
       -0.004754292 -0.012110326 -0.014177867 -0.5374276
000020 50 25 2d 3e ef 90 e8 3d 2c a1 34 3e 36 25 18 bf
       0.16908765 0.11355769 0.17639607 -0.5943178
000030 7f d7 da 3d 5f fb cf 3d 3a c1 86 bf 23 ff 39 bf
       0.10685634 0.10155367 -1.0527718 -0.7265493

enc_layer_2_def.0.weight f4 [12, 16, 3, 3]
000000 17 f0 35 bd 7e 4a 88 bd ae 53 48 bd ca 7e 1a be
       -0.04441842 -0.06654833 -0.04890793 -0.15087429
000010 61 11 7e bb ee 9d 2b bd b2 42 9a 3b 3e 76 34 be
       -0.0038767683 -0.04189866 0.0047076577 -0.17623231
000020 4f 29 a8 bd 78 b8 10 bb 3f 25 ed bc 99 ff e2 bc
       -0.08211004 -0.0022082608 -0.028948424 -0.02770977
000030 44 ff a1 bc 83 a3 4c 3e a4 50 9f bc c3 76 8a bd
       -0.01977504 0.1998425 -0.019447632 -0.06760933
000040 ce 26 ab bd 6a 51 f4 bc cc 93 1d be 88 6b 3d bc
       -0.08357011 -0.029823978 -0.15388411 -0.011561282
000050 40 21 06 bd 63 7e 8d 3b 29 41 5f 3d 70 03 15 bd
       -0.032746553 0.004318045 0.0545055 -0.03638023
000060 44 f3 30 be 51 3c 55 bb d2 ea 1f bd 0b c2 53 bd
       -0.17280298 -0.0032537172 -0.0390423 -0.051698726
000070 03 fe b3 bd 54 08 13 3e 0a 6a 02 3d fe 36 2b 3e
       -0.08788683 0.14358646 0.031839408 0.16720197
000080 38 db 23 3d 45 54 8e bd 65 85 5d be 06 8b 85 3c
       0.040003985 -0.06949667 -0.21632917 0.016301643
000090 48 d6 14 bd 0a e9 60 3d eb 74 2e bd 4e ba dd bd
       -0.036337167 0.054909743 -0.04259197 -0.108265504
0000a0 0d 79 4c 3d 14 c7 e1 3b ab bf ad 3b dc c3 64 be
       0.04992013 0.006890187 0.0053023896 -0.2234034
0000b0 d1 5f 0d 3e 5d 49 e9 3c a8 b0 17 3e aa 62 27 3d
       0.13806082 0.028477365 0.14813483 0.040865578
0000c0 8e f0 86 bd b5 60 cd 3d e8 20 34 b9 5c 4a 52 3d
       -0.06588851 0.10028211 -0.00017178396 0.051340446
0000d0 d4 29 de bd 24 73 04 be e6 7b 83 be 21 03 24 bd
       -0.10847822 -0.12934548 -0.25680465 -0.040042046
0000e0 25 2d 60 3b 26 64 c7 3e bd 11 e9 3d 9b 38 9a bc
       0.0034206596 0.38943595 0.113803364 -0.01882582
0000f0 25 dd b4 be 2c 3e 97 be b9 ea 4d 3e ed 33 62 bd
       -0.3532497 -0.2953962 0.20109071 -0.0552253
000100 8d 6b 9f 3d 3c 5f ee 3b b5 d2 92 bd d4 3b 85 3e
       0.077841856 0.0072745364 -0.071690954 0.26022208
000110 5c bf a8 3b c4 5c 97 3d 47 38 60 be 01 11 75 bd
       0.005149765 0.073907405 -0.21896468 -0.05983067
000120 7f b1 fc bc df 79 3b bd 27 c2 da 3d c0 c1 2a 3d
       -0.030846355 -0.045770522 0.10681563 0.04168868
000130 a3 ad ac 3d fe 05 1b bd 2b 93 1c 3d 6b ef 22 be
       0.08431556 -0.03784751 0.038226288 -0.15911643
000140 fe 8e ba bc d6 85 02 3e fa 16 30 3e 89 6c b3 3d
       -0.022773262 0.12746367 0.17196265 0.08760936
000150 2d 9b 89 bb b8 30 d2 3d 3c 33 94 3d 76 16 1f 3e
       -0.0041994066 0.102631986 0.07236335 0.15535912
000160 ad 67 37 3d f8 59 8c 3d ba df 64 3e 1d b3 00 be
       0.044776607 0.06853098 0.2235097 -0.12568326
000170 fd 9f ae bd 10 ab 05 be 52 30 02 be 19 23 6d bd
       -0.08526609 -0.13053536 -0.12713745 -0.0578948
000180 8a bb 1e bd 6d 91 3d 3e e7 f7 2d bd 6c 4f d2 bd
       -0.03875307 0.18512507 -0.042472746 -0.10269055
000190 d2 6c f0 3d 4d 83 e4 3c d2 bb a5 bd 29 5b d2 3e
       0.11739506 0.02789464 -0.080924645 0.41085175
0001a0 8d 12 90 bd 27 77 96 be d1 a7 b5 be f0 eb d3 3c
       -0.07034788 -0.2938778 -0.35479596 0.02586934
0001b0 16 9e a3 bc 43 31 0d bd b3 d9 07 3d eb 5b db 3d
       -0.019972842 -0.034470808 0.0331666 0.10710891
0001c0 2a 1d 82 3e ce 1b 17 bc 10 64 c8 bd ef 9d c1 bd
       0.25412875 -0.009222938 -0.097847104 -0.094539516
0001d0 e5 e5 a5 3c 50 0e ea bc eb f3 d3 3c 9e ba d4 3d
       0.020251224 -0.028571278 0.025873145 0.10387157
0001e0 f4 f8 0c 3e 97 70 43 3e 5c e5 a8 3b db c4 f6 bd
       0.13766843 0.19085918 0.005154295 -0.12049266
0001f0 e1 56 09 be c3 b1 09 3d 96 39 83 be f4 cf 5c be
       -0.13412048 0.033616792 -0.25629872 -0.21563703
000200 68 ea 69 bd c6 48 16 3e d9 6c 7c 3f 21 5e 28 3b
       -0.057108313 0.14676198 0.9860359 0.002569087
000210 d9 fe d5 be d5 ee 56 be 9d 16 ea bd 13 5e de be
       -0.41795996 -0.20989545 -0.114300944 -0.43431148
000220 70 70 ae be bb a4 e5 bd 48 f9 10 be 52 7a b4 3e
       -0.34070158 -0.112130605 -0.14157593 0.35249573
000230 8b e4 4b 3d 9c 3e 38 bd 3a 60 d7 be f9 23 8d be
       0.049778502 -0.044981584 -0.42065603 -0.27566507
000240 79 32 c5 bc 65 9e cb 3c 10 45 30 bd 96 8b 3f 3d
       -0.024071919 0.024855802 -0.043034613 0.04676398
000250 b2 11 99 bc 82 d1 13 3d ff 66 fb 3c 0c f9 51 3e
       -0.018685196 0.036088474 0.03068876 0.2050516
000260 9b d1 08 3d ae 0f fa bb 4e a8 95 bb 43 ec 1d bd
       0.03340302 -0.0076312637 -0.0045671826 -0.038555395
000270 01 8a f1 bc 3b d9 4a 3c 10 22 53 bd b0 52 f5 3d
       -0.02948475 0.012380893 -0.051546156 0.11978662
000280 ca 2b 17 3e 16 f3 97 bd cb 5e 67 3d 68 82 0a bd
       0.14762798 -0.07419412 0.056486886 -0.03381577
000290 1d ed a6 bc 6f ce 74 bc 40 7d 06 3d ff 61 fd bc
       -0.020376736 -0.014941796 0.03283429 -0.030930517
0002a0 7f ff 05 3e e1 21 35 bc 13 6c 21 bb e7 28 55 bc
       0.13085745 -0.011055441 -0.0024631068 -0.01301024
0002b0 b7 69 29 bd 7c 1e d4 3c 8d 3e 52 bd 60 7e 22 3c
       -0.041360583 0.025893442 -0.051329184 0.009917825
0002c0 c4 cd 1a bd e6 88 fd bd e2 c0 62 3e 9e 99 a8 3d
       -0.03779389 -0.12379627 0.22143891 0.08232425
0002d0 b9 5e c5 bc fd 32 db 3d a7 f9 16 3c a0 b5 f3 bc
       -0.024093019 0.107030846 0.009214795 -0.029749691
0002e0 87 b6 15 3d 98 30 b8 3d 8a a2 1d bc 79 e2 25 3e
       0.036551025 0.089936435 -0.009621272 0.16199674
0002f0 4a b6 b8 3d f0 26 47 bd 6c 22 e5 bc a9 e4 db 3c
       0.09019144 -0.048621118 -0.027970515 0.026842432
000300 ed c9 46 3d a1 b3 0b 3e 04 fc a7 3d e4 b6 30 bd
       0.048532415 0.13642742 0.08202365 -0.043143168
000310 af 15 21 3e 4e fc 7e 3d 77 08 96 3d 43 b8 de bd
       0.15730928 0.062252335 0.07325833 -0.10874989
000320 a6 17 96 3d 97 45 dc 3d fb 78 32 3e 75 71 eb bc
       0.07328729 0.10755461 0.17428963 -0.028740624
000330 0a 89 4e 3e 61 0d 4d 3d 1a 7e c1 3d be 96 90 3c
       0.20169464 0.050061587 0.0944788 0.017650004
000340 f9 56 66 3e 20 fd 75 3d b9 3d 84 bd 15 2a 0c 3e
       0.22494115 0.060055852 -0.06457085 0.13687928
000350 1b 91 ac 3c 0a 9b 06 be d6 a7 9d 3e 27 7e 23 bd
       0.021065285 -0.1314508 0.3079211 -0.03991523
000360 4d e4 96 bc aa 55 9d bd 0b 1b 62 bb 46 a0 0d be
       -0.01841941 -0.07682355 -0.0034500982 -0.1383067
000370 80 50 71 bd 2e 02 f2 3c e2 7f 00 be f2 30 10 3e
       -0.05891466 0.029542055 -0.12548783 0.14081171
000380 07 5f 26 3d df b0 fc 3d 51 29 12 3e 65 0d 95 39
       0.04061797 0.12338423 0.14273573 0.00028429474
000390 d0 62 5c bd 38 ce d9 3d d1 eb 8d 3d a1 6f 94 3d
       -0.053805172 0.10635036 0.06929744 0.07247854
0003a0 b2 21 46 3e 7f 38 0d 3e 83 ad 0b 3e 09 a5 7b 3d
       0.19348791 0.13791083 0.13640408 0.061436687
0003b0 15 75 ea bc 65 43 1c 3e c1 13 41 bd 22 dd 4b 3e
       -0.028620282 0.15260084 -0.04713798 0.19908574
0003c0 81 fc 1a 3e b9 54 83 bd 5e 86 5e bd 7d 04 2b 3e
       0.15135385 -0.06412644 -0.05432736 0.16700931
0003d0 bd 4e 84 3e 20 0c e4 3d b9 87 8c bd fc ec ab 3e
       0.25841323 0.11135125 -0.068618245 0.33579242
0003e0 ea 4a 5e 3d 89 f4 31 3e 9f e6 b5 3e ed 42 89 3c
       0.054270662 0.17378439 0.35527512 0.016755546
0003f0 53 a0 a5 3d 4c de 63 bd 93 12 ff 3c b2 0e 06 be
       0.0808722 -0.05563192 0.031136787 -0.13091543

enc_layer_2_def.0.bias f4 [12]
000000 1b a1 81 bd 5d 1d 4f bc 10 77 45 3e e1 21 09 be
       -0.063295566 -0.012641278 0.192837 -0.1339183
000010 e0 35 70 be 2b ee 8d 3d 68 67 37 bd 12 28 c1 3d
       -0.23458052 0.069301926 -0.04477635 0.09431471
000020 8d ba 23 be f2 2a 1f bd 38 9f 1d 3e cc c6 f4 3c
       -0.15989132 -0.038859315 0.15392768 0.02987995

dec_layer_2.0.weight f4 [12, 8, 5, 5]
000000 35 d1 26 3d 89 86 c2 3d ea 9b fa 3d 8c 6c 82 3d
       0.04072686 0.09498317 0.122367695 0.0636836
000010 30 09 20 3d c2 bc 87 3e 6c 33 26 bd be d6 aa be
       0.039071262 0.26511198 -0.040576383 -0.3336696
000020 33 2f 8e 3d 3b 97 0c 3e 55 57 cd 3d a1 3b fc bc
       0.06942596 0.13729565 0.10026423 -0.030790152
000030 0c 9c f2 3c b9 84 dc 3b ea 58 bd bd 2e 4b 97 3d
       0.029615425 0.006729689 -0.09245475 0.07387386
000040 31 e2 7b 3d 25 ee 44 3c b0 19 0d 3d c2 20 5a 3d
       0.06149501 0.012019669 0.034448326 0.053253897
000050 40 c6 83 3d 0a 9a a8 3d f8 3c 7f 3a 28 aa 6e 3d
       0.064342976 0.082325056 0.0009736563 0.058267742
000060 4e a8 49 3d 89 ee 84 3c 4a d4 ff bc 90 5e 1f 3b
       0.049232773 0.016227024 -0.031229157 0.0024317838
000070 fb e5 31 3c 7c f9 4c 3d 02 54 e6 3c fa 40 f8 3b
       0.010858054 0.050042614 0.02811623 0.007576105
000080 da 52 83 3d 0f 5b 8f bd 86 b0 48 3c e4 04 4a 3d
       0.06412287 -0.0699979 0.012249118 0.04932107
000090 90 19 e1 bc 32 3d 8d 3d 30 4d 1d 3e c2 82 e1 3c
       -0.02747801 0.06896438 0.15361476 0.02752817
0000a0 34 ec d4 bc 92 e4 07 bd 76 65 92 bd 88 d5 a4 bc
       -0.025991537 -0.033176966 -0.071482584 -0.02012135
0000b0 6c 78 5d bd bd 1e 9d bd c0 0f b6 bc 91 35 78 3d
       -0.05406992 -0.076718785 -0.022224307 0.06059796
0000c0 a7 c1 43 bd 94 6f 12 3c 6f 0a 04 3d 14 eb 23 bd
       -0.047792103 0.008937735 0.032236513 -0.04001911
0000d0 c7 27 f0 bc f8 65 a2 bc 54 1f 5e 3d 4b 00 99 3c
       -0.029315842 -0.019824013 0.054229096 0.018676898
0000e0 59 ed b8 3d 7f 8d d2 bc db 88 19 3d af 4f 9f 3c
       0.090296455 -0.025702236 0.03748403 0.019447176
0000f0 87 ae 90 3d c8 65 82 bd 7f ca 49 3e 69 a2 36 3e
       0.070645384 -0.063670695 0.19706152 0.17835392
000100 8c 43 8a 3c b6 31 08 3c 3a 74 15 3e 67 ac 55 bc
       0.016877912 0.008312633 0.14595118 -0.013041592
000110 ea 32 27 3c 79 00 d2 3d f0 9b 0a bd 67 95 54 3d
       0.01020501 0.102539964 -0.03384012 0.051900294
000120 f9 4c 32 3e fd cf 3b 3d 44 a0 dc bc 1a b7 b3 bd
       0.17412175 0.04585265 -0.02693189 -0.08775158
000130 5c 8c e3 3d 78 42 0c bc 21 94 29 3e 6d 4f 7f 3c
       0.11110756 -0.008560769 0.16560413 0.015582901
000140 2e ce 4c bd a6 86 03 be e0 a3 70 3e af cf 3a 3d
       -0.050001316 -0.12844333 0.23500013 0.04560822
000150 b6 41 99 3d e3 c8 9c bd f2 87 51 3d 9b 4d 23 3f
       0.074832365 -0.076555036 0.05115504 0.6379029
000160 76 08 c4 bd 1e e4 1c bd 21 1b ef 3c 44 86 9e 3d
       -0.09571926 -0.038303487 0.02918774 0.07740453
000170 2f 44 b4 3d 09 21 ae 3d 12 8f a3 3d 38 de 0c 3d
       0.088020675 0.08502395 0.07986273 0.03439161
000180 ef 98 0d 3e 84 9c 2a 3e f3 26 1b 3e 1c 6b d5 3c
       0.13827871 0.16661268 0.15151577 0.02605205
000190 2c 8a fc bc 28 6b 57 bd 93 1c 66 bd ef 3e db bc
       -0.030827604 -0.052592427 -0.056179594 -0.026763408
0001a0 bc bc d2 bc 31 fe 16 bc d7 f2 04 be 8f cd fc 3c
       -0.025724761 -0.009215877 -0.12983261 0.030859737
0001b0 3d 42 13 be db a1 8d 3c 3b 3d 0c bd a1 ff 42 bd
       -0.14380737 0.017289093 -0.03423808 -0.047607068
0001c0 08 52 42 3e 00 3c f1 bd 16 53 be bc 2a 95 c5 3c
       0.18976605 -0.11779022 -0.023232978 0.024118979
0001d0 25 60 cd 38 6e 69 89 3c 07 69 00 3d 26 81 4f 3d
       9.79307e-05 0.016773906 0.031350162 0.050660275
0001e0 64 99 a3 3b 87 44 be bb 3f ec 97 bc 5b ef b0 3c
       0.004992651 -0.005806509 -0.018545268 0.021598509
0001f0 d2 f5 ea b9 d6 ef c9 bc e0 22 96 bd 47 b7 da bd
       -0.00044815108 -0.024650495 -0.07330871 -0.10679489
000200 36 86 8b bc 63 62 63 bc ad 9d 16 bc 5f 53 9d be
       -0.01703177 -0.013878438 -0.009192866 -0.3072767
000210 64 4f 62 be 9d 24 45 be 7b d9 61 bd 46 af c0 bb
       -0.22100598 -0.19252248 -0.055139046 -0.005880269
000220 ef d4 9c bd 6b ad 81 3e 10 33 85 bc f9 fc 9f 3b
       -0.07657801 0.2532762 -0.0162597 0.0048824516
000230 70 6a 00 3c a0 f7 b7 bc c1 b5 d8 3d fa fc 87 3d
       0.007837877 -0.022456944 0.10581542 0.06640048
000240 93 33 34 3d ea 67 bf 3c 38 91 bd 3c 3c f4 15 3c
       0.043994498 0.02336498 0.023140535 0.009152468
000250 ca bc 5f 3d 08 5d 0c 3c a1 dc f9 bb c6 e4 d1 bb
       0.054623403 0.008567102 -0.007625178 -0.0064054457
000260 e8 71 7f 3c b0 e0 29 bd ce 1c 64 bc 47 f0 ab 3d
       0.015591122 -0.041474044 -0.013922883 0.08395439
000270 d4 57 1b be ef 67 9d bc 50 c7 81 3d c7 98 8b 3c
       -0.15170223 -0.019214598 0.06336844 0.017040623
000280 89 10 cd 3d 57 ca 06 3e 21 9f a7 3e d4 c5 07 3e
       0.100129195 0.13163124 0.32738593 0.13259059
000290 14 c4 f5 3c 62 2b 19 bb 1e 68 a4 bd 4e 67 90 be
       0.030000724 -0.0023371805 -0.08027671 -0.28203815
0002a0 12 fb 4d be 7b d2 4a 3d fd 9b 84 bd e7 58 74 be
       -0.20115307 0.049517136 -0.06475065 -0.23862039
0002b0 11 71 c3 be 8c 60 79 be 19 61 4a 3c 75 f5 dd 3c
       -0.381722 -0.24353236 0.012352251 0.027094582
0002c0 cf a0 05 3c a5 df 9f bc 96 17 08 3c ab 59 a5 3b
       0.008156016 -0.019515822 0.008306405 0.0050460896
0002d0 8c 16 89 3d 8a 98 b4 bd 6c 57 f9 3d f1 95 c3 3c
       0.066937536 -0.08818157 0.121748775 0.023875209
0002e0 d5 28 d6 3d 5c 15 d7 3b 99 03 14 be 8a e5 65 3e
       0.10457007 0.0065638255 -0.14454497 0.22450843
0002f0 aa 28 80 3d 2a ce 25 bd ab 07 c6 bd 3e 38 a8 3c
       0.06257756 -0.040479816 -0.09669431 0.02053463
000300 21 12 17 bd 6b 31 1f be 51 e4 aa bd e5 b5 54 bd
       -0.036882523 -0.15546195 -0.08344329 -0.05193128
000310 c3 09 58 3d 87 74 2b 3e 2e 70 bb bd 6b 07 96 bd
       0.052743685 0.1674367 -0.09152256 -0.073256336
000320 72 69 c0 3c fc 23 24 3d cc dd 25 3c 4e 6b 1d bc
       0.02348778 0.04007338 0.010123681 -0.009608103
000330 38 29 18 bc 35 8e c1 bd a6 ac 9d bd 12 a8 d3 be
       -0.009287171 -0.09450952 -0.07698946 -0.41339165
000340 14 af 85 bd be dd 04 3e 97 d1 8a 38 fa 21 70 bd
       -0.06527534 0.12975213 6.619392e-05 -0.058626153
000350 14 d1 32 bc b3 f4 a8 bc d1 70 a6 bc c0 98 df 3c
       -0.010914106 -0.020624494 -0.020317467 0.027294517
000360 04 88 53 3d f6 72 b0 3d b5 90 ae 3d ea f0 20 3d
       0.051643386 0.08615677 0.085236944 0.039292254
000370 97 cc ad 3d 47 ec 02 be 56 1e 9b bc 96 5b 48 bd
       0.08486288 -0.12785445 -0.018935364 -0.04891547
000380 26 9d 0e 3d 02 e9 01 bd 8a 01 d4 bd 13 ea 1d bd
       0.034817837 -0.031716354 -0.10351856 -0.03855331
000390 8e 24 93 3c 6e f3 44 3c d8 5c 03 bd cf a9 c9 bc
       0.017961767 0.012020929 -0.032070965 -0.024617104
0003a0 56 c1 20 3e 9c c8 97 3d d6 b6 56 3d d9 fa 93 bd
       0.15698752 0.0741131 0.05242046 -0.0722558
0003b0 0c 73 93 3d 7d b2 28 3e 6b d3 c8 3d 21 ab d3 3b
       0.07199678 0.16474338 0.0980595 0.006459609
0003c0 90 2c 99 3d b1 77 10 3d c4 5e af 3d 4a c9 21 3d
       0.07479203 0.035270397 0.08562997 0.039498605
0003d0 53 81 fe bc 9f 1d ef 3d 1e 42 28 3c e3 23 04 3e
       -0.031067526 0.11675572 0.01026967 0.12904315
0003e0 ad 99 01 3e 38 93 60 3a 41 47 d0 3b e1 4b 26 3c
       0.12656279 0.0008566859 0.0063561504 0.010149927
0003f0 6e 40 7d bb d1 b0 a5 bc a9 7c 63 3c b4 32 9d bc
       -0.003864314 -0.020225914 0.013884702 -0.019189216

dec_layer_2.0.bias f4 [8]
000000 9b 05 0f bd 35 98 19 3d 29 1d e5 bc 8e 1a 14 be
       -0.034917455 0.03749867 -0.027968006 -0.14463255
000010 81 7b 12 bd 1b 14 46 3e 05 97 c0 bc 11 50 f3 bc
       -0.035762314 0.19343607 -0.023509512 -0.029701265

dec_layer_3.0.weight f4 [8, 3, 5, 5]
000000 15 c6 4e bd bb 30 7e be e2 c2 fe 3c 07 24 42 3d
       -0.050481874 -0.24823277 0.031098787 0.04739764
000010 7c 3b 8d 3e c3 e9 1b 3c 11 88 73 bc b4 0e b0 bd
       0.27584445 0.009516182 -0.014863984 -0.085965544
000020 11 7c 34 be 70 da 03 be ff f2 8c be db de 81 be
       -0.17625453 -0.12876296 -0.2752914 -0.25365338
000030 f4 62 24 be 94 d5 4a 3d 41 91 89 3d 46 fd 60 bc
       -0.16053373 0.04952009 0.06717158 -0.01373226
000040 e7 6b 30 3e 66 3f aa 3e 92 22 84 3e f1 66 0c 3e
       0.17228661 0.33251494 0.25807625 0.13711144
000050 f6 20 74 3e 39 06 99 3e 61 8c 6b 3e af 39 28 be
       0.23840699 0.2988756 0.23002769 -0.16428255
000060 01 11 e7 bd d1 99 9d 3c 03 bf b0 3d 07 2f 31 3d
       -0.1128254 0.019238384 0.086301826 0.04325774
000070 11 d1 5d 3d 17 f6 90 bc 45 06 84 3e 9e 8b 21 bc
       0.05415446 -0.01769547 0.25786033 -0.0098599475
000080 50 e1 86 3d 98 99 5d be 62 e2 c7 3d 20 81 5b be
       0.06585944 -0.21640623 0.09759976 -0.21435976
000090 54 9d 0b be e3 4e a6 bc 23 83 67 3e 90 9f 20 3e
       -0.13634235 -0.020301288 0.22608618 0.15685868
0000a0 fa c1 10 bc de dd 90 bc 15 e9 bf 3e 4a 73 00 3f
       -0.00883531 -0.01768392 0.37482515 0.5017592
0000b0 61 6c cf 3e dc 06 b4 3e 3a 5a 16 3f d0 c1 86 3e
       0.40512374 0.35161483 0.58731425 0.26319742
0000c0 4a dc f9 bd d1 a9 d8 be 57 24 5f 3d 4d 93 57 be
       -0.1220022 -0.4231706 0.054478016 -0.21052285
0000d0 0b f2 af 3d e9 61 61 3d 16 2a af 3e 65 95 bd 3e
       0.08591088 0.055025015 0.34211797 0.3702804
0000e0 a7 84 06 3f cc 3a 1d 3e 60 ca 74 be e1 6b c6 be
       0.5254616 0.1535446 -0.23905325 -0.3875418
0000f0 0a 1f 27 be 6b 55 e2 be 4f aa 0a 3e d1 f4 9e 3e
       -0.16320434 -0.44205794 0.1354153 0.31046155
000100 e5 d7 11 3f 0e e1 f1 3d ad 7d df 3e 1d b6 d5 3e
       0.56970054 0.11810504 0.4365057 0.41740504
000110 4c c2 8c 3e 6d e2 b7 bc bb 2a ac 3e 28 bc a2 3e
       0.27491987 -0.022446835 0.3362635 0.31784177
000120 2f 45 d8 3e a9 b7 26 3b 8b f9 0d 3b 92 79 04 3c
       0.42240283 0.002543906 0.0021663632 0.008085625
000130 b4 66 45 bb 9c d4 a2 bb ef 37 1a bd a1 a4 b6 bc
       -0.003012103 -0.0049691927 -0.037651 -0.022295298
000140 ea 07 6a 3d b5 be 65 3c 0d 42 e4 3b f8 b7 88 bd
       0.057136454 0.014022519 0.0069658817 -0.06675714
000150 c0 1d c8 bc 79 f1 d1 3d 00 8d 58 3d 76 00 6d 3d
       -0.024428248 0.102511354 0.052868843 0.057861768
000160 e3 3f 59 bd f5 d1 f8 ba 98 ca b0 3d fd 49 2e 3d
       -0.053039443 -0.001898347 0.08632392 0.04255103
000170 65 98 3d 3d 16 ad 81 bc b8 6a aa 3c d1 d6 1f 3d
       0.046287913 -0.015829604 0.02080284 0.039023224
000180 f7 2b f0 3c d1 57 00 3d 4c 3a de ba 4b b8 b8 3a
       0.02931784 0.03133375 -0.001695463 0.001409301
000190 12 fb 89 bd aa 84 d9 bd 97 5e 1c be 6d b2 c6 bd
       -0.06737341 -0.10621007 -0.15270458 -0.09702001
0001a0 14 4e 77 bd b8 68 af bd 84 b9 33 be 1d 86 67 be
       -0.060377195 -0.085648954 -0.17551237 -0.22609754
0001b0 23 a6 36 be 7b a7 98 bd 63 be 86 bd 4e 1d 2c be
       -0.17836814 -0.07453819 -0.06579282 -0.16808054
0001c0 7a 83 95 be ba 13 62 be dc df e1 bd fb 20 46 bb
       -0.2920187 -0.22077838 -0.11029026 -0.003023206
0001d0 92 2d ba bd 7c 84 19 be 1f 4d f8 bd 59 f5 07 bd
       -0.09090723 -0.14991945 -0.12124085 -0.033192966
0001e0 3a 2b c4 3c f5 ec 6c bb 7c 7e 97 bd 0a e9 70 bd
       0.023946393 -0.003615198 -0.07397172 -0.058815993
0001f0 ec 03 30 bd 40 d3 81 bc 90 b1 04 bd 7d f8 3b bd
       -0.04297249 -0.015847802 -0.0323959 -0.045891274
000200 31 29 1b bd eb 80 62 bc 1a 53 03 3c 9d 8c 2c bd
       -0.03788108 -0.013824682 0.008015418 -0.042126287
000210 7c 7e b0 bd ed b1 e6 bd 06 19 92 bd b9 8d 28 3d
       -0.08617875 -0.112644054 -0.07133679 0.041150782
000220 61 85 34 bd 14 58 a9 bd 6a da f8 bd 8e fd 35 bd
       -0.044072513 -0.08268753 -0.12151034 -0.04443126
000230 40 f7 4f 3d 97 43 3b bc ea eb 79 bd b0 f6 d7 bd
       0.050772905 -0.011429689 -0.061016 -0.10545099
000240 c8 fb 5c bd 36 8d 45 3d 70 95 9d 3c 00 a3 bf bc
       -0.053951055 0.048230372 0.019236296 -0.023393154
000250 30 32 3c bd 39 ae 8b bc fc 87 60 3d 5f b2 33 3e
       -0.0459463 -0.01705085 0.054817185 0.17548512
000260 55 6b 2e 3e 47 97 ce 3d b4 9c 4f bd e3 ac e9 3d
       0.17033131 0.100874476 -0.050686553 0.11409929
000270 75 ea 72 3e b8 62 33 3e ff 9a 88 3d af 24 9a bd
       0.23722251 0.17518127 0.06670188 -0.07526528
000280 20 4a 0c 3e ec df 51 3e 60 34 db 3d 8c be 05 bd
       0.13700151 0.20495576 0.10703349 -0.032652423
000290 57 f6 d6 bd af b4 80 3d 23 c1 a7 3c 8e 6f 8a bd
       -0.10496204 0.06284463 0.020477837 -0.067595586
0002a0 39 76 03 be 35 10 aa bd 74 94 10 3d 1d 42 f7 bc
       -0.12838067 -0.083038725 0.035297826 -0.030182892
0002b0 b4 2f 9c bd 7d 9f cb bd b3 fb 25 bd d7 d1 be 3d
       -0.07626286 -0.09942529 -0.040523242 0.093173675
0002c0 b2 b6 54 3e 91 a3 6a 3e bd e1 14 3e 0a 53 02 3d
       0.20772818 0.22913958 0.14539237 0.031817473
0002d0 39 32 46 3e 82 a8 b9 3e 29 ba a9 3e 5e e7 1e 3e
       0.19355096 0.36261374 0.3314984 0.15517947
0002e0 d2 32 37 bb 9d d7 6c 3e 00 c4 b2 3e 31 14 a7 3e
       -0.0027953875 0.23129125 0.3491516 0.32632592
0002f0 e0 9c b9 3d e6 5f 49 bc e9 1b ef 3d 48 38 0d 3e
       0.09063125 -0.01229093 0.11675245 0.13791001
000300 a7 27 b7 3d 58 d5 39 bd f2 6c 72 bd 9d 9a aa 3c
       0.0894311 -0.045369476 -0.05918593 0.020825678
000310 21 51 1b bc e2 28 f2 ba 42 41 10 bd ab 65 c2 bb
       -0.009479792 -0.0018475319 -0.035218485 -0.00593253
000320 96 9b 20 3d 8a a8 f9 3d 62 35 01 3e 75 ac bb 3d
       0.03921088 0.121903494 0.1261802 0.09163753
000330 0a 17 bb bb de e1 a7 3d 06 b7 43 3e 84 f9 12 3e
       -0.0057095336 0.081973776 0.19112787 0.14352995
000340 b2 a1 89 3d 83 5a 1a bd 65 cf ee 3d 42 37 5d 3e
       0.06720294 -0.037683975 0.11660651 0.2160311
000350 2d db 1b 3e 56 cf 0e 3d f5 0a 86 bd 42 3d a1 3d
       0.15220328 0.0348657 -0.06545059 0.07873012
000360 57 fd ad 3d 14 f8 8a 3c eb 77 86 bd eb a9 8e bd
       0.08495586 0.016963996 -0.06565841 -0.06966003
000370 52 46 db 3c 4f 70 5f ba bb 06 fa bc 77 4c 43 bd
       0.02676693 -0.000852351 -0.030520787 -0.047680344
000380 9e 0f c9 bc 5b 60 da bd 8c 84 20 be b9 25 ad be
       -0.02454358 -0.106629096 -0.15675563 -0.33817843
000390 e5 2b 3c be 4e b5 1f be 71 e5 ee bd e7 1a a6 bd
       -0.1837612 -0.15596506 -0.11664856 -0.081106
0003a0 5c 9b ec be 49 ab 42 be a1 4d a3 be 29 69 37 be
       -0.4621228 -0.19010653 -0.31895164 -0.17911209
0003b0 d4 31 b5 3d 72 82 d0 be e3 92 87 be 0b c7 0b bf
       0.088473946 -0.40724522 -0.26479253 -0.5460059
0003c0 cc 41 ac be 5d 73 68 3e 84 9c 47 be 6e cd 01 be
       -0.3364395 0.22700258 -0.194933 -0.12676021
0003d0 de c8 4a bf 29 6e e6 be ca 0b 6c 3d 5c bc fb 3e
       -0.7921275 -0.4500592 0.05762843 0.49167144
0003e0 fb e3 ea be ea ba 07 bf 85 b4 a7 3c c6 70 55 3d
       -0.4587706 -0.53019583 0.02047182 0.052109502
0003f0 b4 74 4a be 72 17 65 be d7 de 53 be 96 f2 de 3d
       -0.19771081 -0.22372225 -0.20690475 0.10886113

dec_layer_3.0.bias f4 [3]
000000 1f ca 16 3d 4e 4b 7d bb e5 ac 8a bd
       0.03681385 -0.0038649621 -0.06771258
