save/large_1/gen_model.pt (torch, 27063 bytes, 8 tensors)

enc_layer_1.0.weight f4 [16, 3, 5, 5]
00000000: bb9c 1a3d 9f3d 83bd 2bc3 aa3d 4905 0e3e
00000010: 93e7 61bd 57b7 ed3d 4e52 f53c 20a7 9d3d
00000020: 60ff 41bd dd6e aa3d ea1f 063e f2eb da3c
00000030: d81e a53c 9d74 3a3a 990b 193e 77f9 793d
00000040: a592 d23d 6697 163e 8dde 2cbd 38e0 923c
00000050: 263d 00bd 4070 183e db5a 093c 1ffd 7abd
00000060: ec29 1fbc e3d9 c6bd 813f 743c a058 bb3d
00000070: 0a3f 8d3c fb51 403d 3f6a f43d 5174 1fbd
00000080: 95d2 833c b15e 953d 4537 4b3d b273 d53c
00000090: ff54 0fbd 9c63 15bd e83c e83d 1def 9f3d
000000a0: 51cd 1b3c 83ea aa3d 0104 6dbd 3959 db3d
000000b0: 79cf 8d3b 355d 8dbd 4e4b a53d 019d 83bd
000000c0: 1346 d93d 4d4b 893d 648f 90bc 15e0 023e
000000d0: 5624 973d a53f e53d 9a2f a5bd f8b6 7b3d
000000e0: 9a0b c13d f3c1 e73d a014 94bd 499a 443b
000000f0: 088f f53b 8221 6a3d db97 c43c 91b7 843d
00000100: 5882 823c 3511 2b3d 5b69 de3d d01e 23bc
00000110: 27ca c43d d6dd a93d 11b7 913d 7ecd ab3d
00000120: a7d7 e33d b44f c5bc c299 72bc 5533 65bd
00000130: cf70 96bd 9ab9 95bd 971c d23d bfd4 c33d
00000140: 1081 fa3c 47a2 163e b68b a73d f2cd b03d
00000150: 71f9 693c 2423 643d e62e 58bd 542b d3bc
00000160: 9bcb 133e b627 143e f513 f7bc 94e5 ef3c
00000170: b470 143e 76bb 043e 1c5c 0a3e b55f 88bc
00000180: 834b a03b 1ad1 9b3b d951 743d d43c d13d
00000190: 2b03 c8bd b8c8 85bd 4237 1b3e bd1e 003e
000001a0: b9c2 e33d 887c 2a3d 9a64 783d b70f 57bd
000001b0: 0805 323e 2d62 303e e1cf 043e 2638 123e
000001c0: ac18 aaba 00ac 01bd 2f33 123e c456 e53d
000001d0: 08c6 103e 276a 14bb b1c7 efbc c611 eb3d
000001e0: fed0 333b 6284 d8bc f354 c23d f7b6 86bc
000001f0: 1e08 2b3d 8b64 9c3d 135b da3d db39 5cbc
00000200: 49b7 0ebd ac9b ab3c 77b6 4a3c a17f 9c3d
00000210: eb93 26bd 1bbd 983d 9f88 773d 843f 10bd
00000220: eb4c 913d 39b2 b13d 2312 733a 331a 62bc
00000230: 242a 60bd 3fa0 f53d 7b2f 2d3e 25b1 923d
00000240: 9336 c9bc 32d5 243c 41b0 d03c df49 143e
00000250: 5c0b d33d 88ca d33d 0479 96bd ed5e 673d
00000260: c17c 633d 1f22 063e 2c62 68bd d69c 7a3b
00000270: f862 073d a8cf 88bc 4722 403d fea5 9ebc
00000280: 5d25 83bd 839e 8f3c 9e6a e23d 75f7 483d
00000290: cdd0 083e ccf0 8bbd 56ab 023d 9841 043e
000002a0: 3114 b03d 611e 923c 1f92 f43c 240b 7dbd
000002b0: ad03 933d 6be9 ce3d e1ac 8dbd 31ba e53d
000002c0: 6d37 363d ff57 c73d c695 833d 43d4 25bc
000002d0: d47b 163d 4d80 da3d ffbe 8abd 8d69 5d3d
000002e0: 0955 3a3d f560 803c 2e5c 00bd 66c0 be3d
000002f0: 1547 cf3d ec60 b73d f2ec fb3d 3246 98bd
00000300: 0311 80bd 3190 c73d de7f 0bbc 2473 3b3d
00000310: 3aec df3d 12b3 48bd 920e 183d 0459 ed3d
00000320: 7763 b43d 4512 44ba a228 0b3e 1d33 003e
00000330: 75e1 e23d 3490 d33d 0e3b 523d 5b0c bc3d
00000340: 4d89 3cba 6607 29bd 03e0 c03d f8e4 423d
00000350: 0b4c ae3d 8222 3f3d ecde be3d ef68 aabc
00000360: 72be 493c f78c 0a3e 149f 94bd 1954 083e
00000370: 91b4 06bd 6327 f63b 9ad2 7dbd 5e65 fe3d
00000380: c422 acbd 85d3 8abd b7c4 2fbd 1c88 d93d
00000390: 5f44 df3d 3588 3a3d 812e a13d 1ef5 afbc
000003a0: f4be 793d b777 153d 824a 0f3e 2add 92ba
000003b0: f119 9f3d 1326 183e 2233 85bd 4ee6 29bc
000003c0: ab31 d43c d678 913c ea20 b93d 4b4a d43c
000003d0: 7b52 0f3e 799f 253d b0ad edbc 7a34 263c
000003e0: a72f 403c cb61 b33c b402 0e3d 1dee 133e
000003f0: 4dae fd3c d181 7f3b 97e2 3e3d d8ae a93d
0.037747126 -0.06408238 0.083380066 0.13869204 -0.055152487 0.11607235 0.029946472 0.07697892
-0.047362685 0.08321927 0.13098112 0.026723836 0.020156309 0.00071127136 0.1494583 0.061028924
0.102818765 0.14706191 -0.04220443 0.017929181 -0.031308316 0.1488657 0.008383478 -0.06127655
-0.009714585 -0.09709527 0.014907719 0.09147763 0.017241973 0.046953183 0.11934327 -0.038929287
0.016091624 0.072934516 0.049613256 0.026056144 -0.034993168 -0.036471948 0.11339742 0.07809279
0.0095094 0.08345511 -0.057865147 0.10710377 0.004327711 -0.069025435 0.08071004 -0.064264305
0.10609069 0.067038156 -0.017646499 0.12780793 0.073799774 0.1119378 -0.0806572 0.06145379
0.09426041 0.1131629 -0.072304964 0.0029999188 0.0074938573 0.05716086 0.023998192 0.06480325
0.015931293 0.041764457 0.10859939 -0.009956077 0.0960887 0.08294265 0.07114995 0.08388804
0.11125117 -0.024085857 -0.0148071665 -0.055957157 -0.07345735 -0.07310791 0.10259359 0.095620625
0.03057912 0.14710341 0.081809446 0.08633031 0.014280663 0.055697575 -0.0527791 -0.025777496
0.14433138 0.14468274 -0.030160883 0.029284276 0.14496118 0.12962136 0.135117 -0.0166472
0.004891814 0.0047551515 0.05964837 0.1021668 -0.09766229 -0.06532425 0.15157798 0.12511726
0.11121125 0.04162267 0.060642816 -0.05250522 0.17384732 0.17224951 0.12969925 0.14279231
-0.0012977323 -0.031658173 0.14277337 0.1119819 0.14138043 -0.002264628 -0.029270025 0.114779994
0.0027437801 -0.026430313 0.09488859 -0.016444666 0.041755788 0.076363645 0.10661902 -0.013441528
-0.034842763 0.020948254 0.012372605 0.07641531 -0.04066841 0.07457944 0.060433026 -0.035216823
0.07094749 0.086765714 0.0009272417 -0.013800192 -0.05472769 0.11993455 0.16912644 0.07162694
-0.024562156 0.010060595 0.02547467 0.14481305 0.10304901 0.10341364 -0.07347301 0.056487013
0.055538896 0.13098954 -0.05673425 0.0038240454 0.03305337 -0.01670058 0.04690769 -0.01936626
-0.06403611 0.017531639 0.11055492 0.04906412 0.13360901 -0.06833038 0.03190168 0.12915647
0.08597601 0.017836751 0.029854832 -0.061778203 0.071784355 0.10103115 -0.0691774 0.11217154
0.044486452 0.09733581 0.064250514 -0.010121408 0.036739185 0.10669003 -0.06774711 0.05405574
0.045491252 0.015671233 -0.03133791 0.09314041 0.1012098 0.08954033 0.12301053 -0.07435264
-0.06253245 0.09744299 -0.008514373 0.045764104 0.109337285 -0.0489989 0.03712327 0.11589244
0.08808034 -0.0007479529 0.13589719 0.12519498 0.11078159 0.10330239 0.05132585 0.09182044
-0.000719209 -0.04126682 0.09417727 0.047581643 0.08510598 0.04666377 0.09319863 -0.02080199
0.012313472 0.13530336 -0.07256904 0.1331333 -0.032887045 0.0075120195 -0.061968423 0.12421678
-0.084050685 -0.067786254 -0.04291221 0.10621664 0.109017126 0.045540053 0.07870198 -0.021479186
0.060973123 0.036491122 0.13993266 -0.0011204828 0.0776862 0.14858274 -0.065038934 -0.01036985
0.02590259 0.017757814 0.09039481 0.025914332 0.13996308 0.040435288 -0.029013485 0.010144347
0.011730111 0.021897217 0.034670547 0.14446302 0.030966902 0.0038987289 0.04660281 0.08285302

enc_layer_1.0.bias f4 [16]
00000000: ae8d f33c 8752 cb3d d608 a23d 73b3 663d
00000010: 9d13 59bd 0bc4 4ebd 9cdf 1fbd 253a 2dbe
00000020: 2c61 1e3e 815f d73d 94d6 083e 4d86 62be
00000030: d013 a13d 459d 893d a147 07be 6a68 fdbd
0.029730644 0.0992785 0.079118416 0.05632348 -0.05299722 -0.05047993 -0.03903161 -0.16916712
0.15466756 0.10516263 0.13363105 -0.22121544 0.07865107 0.0671945 -0.13210918 -0.12373431

enc_layer_2_def.0.weight f4 [12, 16, 3, 3]
00000000: eab2 453d 80ba 033d c776 9ebc 0898 9ebd
00000010: 03ab b1bd 3f3c 15bc 9e90 093d 0c2e 62bd
00000020: 62a9 debd 9345 29bd 3fab 6dbd 12d4 c3bd
00000030: e92e f2bd e3ed 0d3c 7366 dcbd 9fe3 3ebd
00000040: e165 88bd 710c 9fbd c9cf 37bd 1c1b 803c
00000050: 81be b0bc 4dd7 2c3d 3bcc f5bc 23fa 95bd
00000060: ce9b 3abd 4833 4fbd 8fb0 0cbb ecae ae3c
00000070: 854c 2bbd c946 333d 3b2d 753c 1479 c9bc
00000080: 1344 d5bb a937 c2bd 417f e9bd 64bf 1c3c
00000090: 5708 833b 85a5 8a3d 177c c1bb c3cc 9dbd
000000a0: 2574 b3bd 2d57 4d3d aa9c 9d3b 1629 92bd
000000b0: 27d5 213d bbe9 483a 967d 9c3c 69fb 63bd
000000c0: 572f 4abd e2f0 8cbc abd7 f0bc 3da8 50bc
000000d0: dbfa 363c e9c1 abbd 50e2 c1bd f146 133d
000000e0: 1ab7 15bd 85b6 3b3c 1dba febb 8df7 263d
000000f0: 65a9 f9bd f821 6ebd 1f6e a93c eeb0 d83c
00000100: c42a a03b a5a1 573c 08f8 653c c451 c9bd
00000110: 1a8f dc3c dccd f3bc 042a 38bd 69d2 54bd
00000120: 5a6e c6bd 9cba 6fbc 0768 4d3d 464e 60bc
00000130: 2106 f0bd 60a9 2fbd da10 8ebd f087 bfbd
00000140: 2b86 9bbd ec38 4fbd 74a8 a63d 7f0d e23c
00000150: e33c e63c 1e6b 843d b4f3 873d ed5a 883d
00000160: 5c46 46bb 5726 a83c ba1a 233d 9eeb 043d
00000170: 6550 9f3d 8403 1b3d 101d dabd 72f4 a4bd
00000180: cf0f 4abd 8372 eabc 4c95 ff3c 9710 95bd
00000190: a015 553c 3913 4a3b 93fb f6bd cb43 983c
000001a0: 59aa f0bc 1e31 a1bd 9853 013c 2baa cebd
000001b0: b8eb 10bd ec2d 233d 8572 2fbc b8a3 333b
000001c0: 21b3 623c 9e8b d4bc facf 62bd 8e34 c4bd
000001d0: e2cd d6bd a0d1 453d d58b 33bd 47b1 e5bb
000001e0: 509a d63c b3c2 a739 df37 d0bc 1a34 02be
000001f0: 5594 f0bc 5b66 1dbd 6537 bdbc 1213 eaba
00000200: d34d b7bd d6d7 de3c 5c9b d83c f23b 5abd
00000210: 24de 0cbd b054 d4bc 9126 e1bd 1b1d 3fbe
00000220: 6b5d e1bd d97b 03be 60fd 1dbd 39fb 19be
00000230: 4cdc 03be 07c8 17be 2b79 fabd e0c3 45be
00000240: 1986 aa3c 5f54 7d3d 0aea 37bc feee 473d
00000250: 6c92 96bd 48d8 e33c b313 883d 3c7d 6b3d
00000260: b182 a43d c856 58bd 21ab 373d 34b0 16bd
00000270: 6bc3 90bc d209 93bc e122 d7bc aaf2 e53c
00000280: d113 a93d 6a8b bebc 19c9 a3bd 3583 1bbd
00000290: 6408 4ebd b7cb e3bc 07b2 e43c e4bd fbbb
000002a0: fc38 8f3b 2f98 42bc 925e bd3c fca2 a0bd
000002b0: 2d7f 96bc 1200 9bbc ec63 82bd 60c4 dc3c
000002c0: eb56 24bd 8e69 84bd 353f 923d e4f5 2c3d
000002d0: d6c0 4bbd 5282 bc3c cd57 763d 5102 87bb
000002e0: 002d 1fbd cf53 a43d 9870 0e3d 882c 4cbc
000002f0: 3d36 033e 1155 593d 539e 023d d085 a73d
00000300: ab15 ab3d 682e d33d d84e 9b3d 3bbb 07bc
00000310: 4fb0 45bd 0588 323c 629f 443d e41a 4dbd
00000320: f2cb 74bc f765 36bb 5672 b9bc 697f 73bc
00000330: c467 5bbc 85d5 69bc a2c6 553d 70eb 1a3d
00000340: 4fab 8d3c 894c a23d df7b 49bd e093 2e3d
00000350: 0c87 39bd 4cdb 55bc 1e23 dc3c 9a31 7dbc
00000360: 97fd 723c fb61 51ba c913 73bc c261 9abd
00000370: 5674 8bbd 81ca d4bc 27d5 a33c 2111 6dbd
00000380: f547 1bba 63fe cc3d a664 c03d e3a3 4e3d
00000390: 1196 03bd 08d7 b13d 0ac9 763d 99e9 983d
000003a0: dbdd a33d 0b14 fe3d 8236 bdbd b64d 473d
000003b0: 2db6 c83c 612f 023d 6893 e7bd 3676 ab3c
000003c0: bde1 d33c d320 9ebd 4661 b4bd 4597 bb3b
000003d0: 6b40 25bd bc9d c73d 4c87 0bbd 1743 f73d
000003e0: 2dc5 ab3d ba3d da3d 28f9 9f3d a90e a23d
000003f0: dded 9bbd 68bd b6ba da70 843c 8578 acbd
0.04826633 0.032160282 -0.019343747 -0.077438414 -0.08675196 -0.009108602 0.033585183 -0.055219695
-0.10872151 -0.041326117 -0.05802464 -0.095619336 -0.11825354 0.008662674 -0.10761728 -0.046603795
-0.06660057 -0.07766045 -0.044875894 0.015637927 -0.021575214 0.042197514 -0.030004611 -0.073231004
-0.045558743 -0.050586015 -0.0021467542 0.021323644 -0.04182102 0.043768678 0.014964397 -0.024593867
-0.006508359 -0.094832726 -0.11401225 0.009567115 0.003998797 0.067698516 -0.0059046852 -0.07705071
-0.08762387 0.050131965 0.0048099356 -0.07136743 0.03950992 0.0007664223 0.019102853 -0.055659685
-0.049361553 -0.017204706 -0.029399714 -0.012735424 0.011168207 -0.08386595 -0.09466994 0.035956327
-0.036551572 0.01145709 -0.0077736513 0.040763427 -0.121905126 -0.058137864 0.020682393 0.026451554
0.0048879106 0.013161098 0.014036186 -0.09830049 0.026923705 -0.029761247 -0.044961944 -0.051958475
-0.09689017 -0.0146318935 0.050148036 -0.013690537 -0.11719919 -0.042886138 -0.06936808 -0.093521
-0.0759395 -0.050591394 0.08137599 0.027594326 0.028105205 0.064657435 0.066382796 0.06657968
-0.003025434 0.020526094 0.03982041 0.032451265 0.07779006 0.03784515 -0.106500745 -0.08054437
-0.049331482 -0.028619057 0.03119912 -0.07278555 0.013005644 0.0030834212 -0.12059703 0.018587014
-0.029378103 -0.078706965 0.007893465 -0.10091051 -0.03538105 0.039838716 -0.010708456 0.0027410816
0.013836653 -0.02594548 -0.055374123 -0.095803365 -0.10488488 0.048295617 -0.043834526 -0.0070096585
0.026196629 0.00031997784 -0.025417266 -0.12715188 -0.029367605 -0.038427692 -0.023097703 -0.0017858467
-0.08950391 0.027202528 0.026441269 -0.053279825 -0.034391537 -0.025919288 -0.10993684 -0.18663447
-0.11004146 -0.12840213 -0.038571715 -0.1503724 -0.12877005 -0.14822398 -0.12230142 -0.19313002
0.020815896 0.06184804 -0.011225233 0.048811905 -0.073521465 0.027813092 0.06644382 0.05749248
0.0803274 -0.052817136 0.044840936 -0.036789134 -0.017671308 -0.017949019 -0.026261749 0.028069813
0.08255733 -0.023259837 -0.07997341 -0.037966926 -0.05030097 -0.0278071 0.027916921 -0.007682549
0.0043708067 -0.011877104 0.023116384 -0.07843587 -0.018371189 -0.018920932 -0.06366715 0.026949108
-0.040121954 -0.064654455 0.07140962 0.042226687 -0.04974445 0.02301136 0.060142327 -0.004120149
-0.038861275 0.08023798 0.034775347 -0.012461789 0.12813659 0.05305964 0.03188927 0.081798196
0.08353742 0.10311586 0.075833976 -0.008284385 -0.048263844 0.010896687 0.04800356 -0.050074473
-0.0149412025 -0.0027831772 -0.022637527 -0.01486192 -0.013391439 -0.014272098 0.052191384 0.037822187
0.0172936 0.07924754 -0.0491904 0.042621493 -0.045294806 -0.013052773 0.026872214 -0.01545372
0.014830968 -0.00079873175 -0.01483626 -0.07538177 -0.06809299 -0.025975468 0.0199991 -0.057877664
-0.0005923503 0.10009458 0.09394197 0.050449263 -0.032125536 0.08683592 0.06025032 0.0746643
0.080013 0.12406167 -0.09238912 0.048658095 0.02450093 0.031783465 -0.113074124 0.02093039
0.025864476 -0.077211045 -0.08807616 0.00572482 -0.040344637 0.09746882 -0.034064576 0.12073343
0.08387218 0.10656305 0.07811195 0.079129525 -0.07613728 -0.0013941946 0.016167093 -0.08421425

enc_layer_2_def.0.bias f4 [12]
00000000: 1675 eabd 8b73 62bd a0e2 a33d 7c77 43bd
00000010: ae2a 13bd 1abf 093e 7a74 debd bba5 5a3d
00000020: e190 41bc bf22 d73d da6e 6f3d b184 a73d
-0.114481136 -0.05528597 0.0800221 -0.04772137 -0.035929374 0.13451806 -0.1086206 0.05338071
-0.011814327 0.10504674 0.058455326 0.08179606

dec_layer_2.0.weight f4 [12, 8, 5, 5]
00000000: 0f6d 0ebd 6ef7 1c3d 0f2e 8dbd ec3b 48bd
00000010: e15a 89ba 44ff 813a fb9e ef3c 83a0 c6bc
00000020: a14d 4dbd 210f 75bd cdf0 393d 2385 7fbd
00000030: 831d 5fbd 1ac1 af3c 050a 5e3d 105e 333c
00000040: caa8 73bd 7394 f2bd b887 cf3b 22a1 4ebc
00000050: a35d 8dba aec8 b43c fe98 d8bd 3e91 823c
00000060: 3fd6 aabd 1810 ffbc 68d7 7d3d ada8 8b3d
00000070: e7d5 013d d1fd 963d 9ffa 7dbc 73a2 903d
00000080: 383e 7fbc da7a 25bd 2ae4 9c3c 7e98 7c3d
00000090: 2071 16bb f181 893c d560 4b3d f651 8cbd
000000a0: 17ac 2cbd 1f68 2cbd 8536 983d ff7c 063c
000000b0: 81b5 dbbc 258a 793d 0a27 ab3d 7ca3 253d
000000c0: 2942 28bd b4ec c0bc b013 bd3d 11e4 e53c
000000d0: 0345 efbc 4369 d0bb 7d72 0fbd 5efd dd3c
000000e0: cf1c 0ebd 0a90 84bd dbcd 093d e914 59bd
000000f0: 3202 bf3c 3b93 2f3d ccd7 c23c 6c69 81bd
00000100: 7e62 67bc 2cd2 513d 06e2 cb3d 7cbe 48bd
00000110: 8422 d83c 502c 053e 2f10 a43d c85c 813d
00000120: b26a 45bd 2b82 2e3d 58e3 a43d fabe b43d
00000130: 6cca 1fbd 8978 19bd 2a61 493d f250 483d
00000140: 90d9 15bd 4e28 1cbb d8ce 313d b360 86bd
00000150: 8732 2c3d ca1c 1ebd 2cdf 9abd 3b52 053b
00000160: 938d 473d 82df 80bd ecb2 4cbd ad12 08bd
00000170: 6f2c 8ebc 030c 3ebd 5ecc cbbc eea4 95bd
00000180: 8c1b 73bc 0c2d 123d 8887 15bd b149 383d
00000190: b832 0dbd 827d 2c3d 2009 ae3c d8b3 2bbd
000001a0: a5e6 2c3d c163 c73c 86c2 333b 3f07 c63c
000001b0: 2ee1 923c bb13 5b3c 912d 2c3d f3c3 cb3b
000001c0: 720f 53bd 6255 8d3d ac22 07bd f505 353d
000001d0: bc91 97bd 870c 3f3b e903 523c 045b fcbc
000001e0: ec12 35bd 80e0 babd 7493 903c 02b9 ebbd
000001f0: 4c1f 693d 5d22 50bd a793 56bd f641 61bd
00000200: b8ec c1bd 27d7 6fbc ede4 16bd c9e5 4bbc
00000210: 252b 89bd dea7 babd 1f3a 7cbd 1018 8b3c
00000220: 77a0 423c 1450 423d e8a8 aebc e701 b43c
00000230: 880a 94bd d4ed ccbd e26c b83c dca7 8ebd
00000240: e7b0 4dbd 681c dabc f2e3 e6bd c57d e2bd
00000250: a170 8ebd 97d7 1fbd db6b 34bd 087e 1cbc
00000260: a594 643d 5361 803d 1f5e 17bd 85ee 8a3d
00000270: 14d5 82bb 3261 5ebd 5b79 9a3d a61b 253d
00000280: 42bc 913d e80d 293c e48c 41bc b7ea 103c
00000290: 4e8a cd3d 2d4c 62bd 6f35 7338 0890 c9bd
000002a0: cccc a0bd eb51 67bd 5306 e0bc cda7 09be
000002b0: 7a23 c6bd ffb7 e0bc 1c69 8e3c 7509 b33d
000002c0: efe3 a13b d251 f6bc 751b 0e3d 0eff fabc
000002d0: 5427 603d 80d4 55bd 05b1 cfbc 6f37 b43c
000002e0: 8815 06bd 3980 6c3d 13d4 5bbd 6b3a ebbc
000002f0: a696 cb3c 7fd9 febc 0cd4 263d 48fb 393c
00000300: 8d36 a2bc cad1 15bd d78f aeba 48bf 993d
00000310: 91d6 ca3d bde5 6e3d 9e98 063d 9335 f1bc
00000320: 8a55 32bd 894f afbb 0a60 13bd f0df 5c3c
00000330: c002 3cbd b7e1 07be fcd3 aabd 6e3a dbbd
00000340: 22c8 c1bd 899b aa3c b997 bebc 4a93 1bbd
00000350: a411 5f3c 910e 90bc df09 803c 28ea bdbd
00000360: 3153 9fbd 436a 9dbc fe7f ebbc 5c8d 143d
00000370: 263e 9cbc 184a 5cbd 79f7 5fbd 6c43 473d
00000380: 8190 11bd ea78 613d 1304 033d 524e 3d3c
00000390: 7754 883c 308d fa3c ae53 8c3d 6001 933d
000003a0: f7a4 0b3e 3c1e c13d 7d40 a23d 922c 383c
000003b0: bce0 da3d 245b f33d 7370 d03b c155 7e3d
000003c0: 0005 953d 4606 0b3e 646e ed3c ae8f 003d
000003d0: 195d 543d de2a 4a3d 50c5 013d f8f1 b73d
000003e0: 6b3a f03d 647b 943c beeb 843d ddee 6ebc
000003f0: d959 623d ff12 023e 1b72 183d 5fa9 5ebd
-0.034771975 0.038321905 -0.068935506 -0.04888527 -0.0010479355 0.0009917994 0.029250612 -0.02424646
-0.05012286 -0.05982888 0.04539566 -0.06238283 -0.054471504 0.021454383 0.054208774 0.010947719
-0.05948714 -0.11844721 0.0063333176 -0.012611659 -0.0010785352 0.022068348 -0.10576056 0.015938397
-0.083416454 -0.031135604 0.061973006 0.06819282 0.031698134 0.073726304 -0.015501647 0.07062235
-0.015578799 -0.040400364 0.019151766 0.061668865 -0.0022955611 0.016785594 0.049652893 -0.0685157
-0.042156305 -0.042091485 0.07432274 0.008208512 -0.026819946 0.06092276 0.083570555 0.040439114
-0.04107872 -0.023550369 0.09232271 0.028062852 -0.029207712 -0.0063602044 -0.035021294 0.027098354
-0.034695443 -0.06472786 0.033643585 -0.052998457 0.023316476 0.04286502 0.02378454 -0.06318936
-0.014122603 0.051225826 0.0995522 -0.049009785 0.026383646 0.13005185 0.08010899 0.06316525
-0.048197456 0.042604607 0.08051175 0.088254884 -0.039011404 -0.037468467 0.04916493 0.04890532
-0.036584437 -0.0023827734 0.043410152 -0.06561413 0.042040374 -0.038601674 -0.07562098 0.0020343203
0.048719 -0.06292631 -0.04997532 -0.033220936 -0.017355172 -0.046398174 -0.024877723 -0.073068485
-0.014838111 0.03568749 -0.036506206 0.044992153 -0.034472197 0.04211188 0.021244586 -0.04191956
0.042212147 0.024339559 0.0027429177 0.024173377 0.01792964 0.013371403 0.042035643 0.0062184273
-0.0515284 0.06901051 -0.03299205 0.044195134 -0.074008435 0.0029151754 0.012818315 -0.030805118
-0.0442075 -0.09124851 0.017648436 -0.11509897 0.056914613 -0.05081402 -0.052386906 -0.054994546
-0.09468979 -0.014638699 -0.036839414 -0.012444922 -0.06697682 -0.091140494 -0.061578866 0.016979247
0.011879078 0.04743965 -0.021320775 0.021973563 -0.07228571 -0.100062996 0.022512857 -0.069656104
-0.050217535 -0.026624873 -0.11273946 -0.11059145 -0.06955076 -0.039023962 -0.04404817 -0.009551533
0.05580582 0.06268563 -0.036954995 0.06783775 -0.003992686 -0.05429191 0.07542678 0.04030957
0.071159855 0.010318257 -0.011813376 0.008845023 0.10036145 -0.055248428 5.798548e-05 -0.09841925
-0.07851562 -0.056474607 -0.027346766 -0.13442917 -0.09674735 -0.027431486 0.017384104 0.08742038
0.004940502 -0.030068312 0.034694154 -0.030639198 0.054725006 -0.05220461 -0.025352964 0.021999089
-0.032735378 0.05773947 -0.053669047 -0.02871438 0.024852108 -0.03110957 0.040729567 0.011351414
-0.019801402 -0.036577024 -0.0013318014 0.07507187 0.099042065 0.058324564 0.03286039 -0.029444491
-0.043538608 -0.0053500575 -0.03598026 0.013481125 -0.04590106 -0.13269697 -0.08341214 -0.10704504
-0.094620004 0.020826118 -0.023265706 -0.037982263 0.013615046 -0.01758507 0.015629707 -0.092731774
-0.077795394 -0.019215709 -0.028747555 0.036267623 -0.019072603 -0.0537816 -0.054679368 0.048648283
-0.0355382 0.055046953 0.031986307 0.011554318 0.016641838 0.030584902 0.06851898 0.07177997
0.13637148 0.09429595 0.079224564 0.011241095 0.10687396 0.11882618 0.0063610612 0.0620935
0.07276344 0.13576612 0.028983302 0.031387024 0.051846597 0.049357288 0.031682312 0.08981699
0.11729892 0.018125243 0.06490277 -0.014583317 0.055261467 0.12702559 0.037218194 -0.054360744

dec_layer_2.0.bias f4 [8]
00000000: 843a de3c 4e8d 69bd cae4 eabd 21aa 033c
00000010: 2c09 993d 24de fe3c 99b3 b03d 2a1b 0fbe
0.027127512 -0.057019524 -0.11469419 0.008036167 0.074724525 0.031111784 0.086280055 -0.13975206

dec_layer_3.0.weight f4 [8, 3, 5, 5]
00000000: 1802 803d 9fa0 913d 8aab e43d c9a8 373c
00000010: d3b0 f23d df6d 833d 6f25 a13d e854 913d
00000020: 2959 8bbd 8adb 4bbd 01f6 e83a 01da 643d
00000030: 08c0 5e3d 7406 7abd a957 4cbd f481 bc3d
00000040: 6218 743b fb22 06bd f33c 1b3d ccb6 c53d
00000050: 6d95 933d 850e c93d e4a5 a9bd bc9c dd3d
00000060: 0c61 b63d 4104 443d 87e3 fdbc 6e86 643d
00000070: aa78 943d 8481 8d3d 52d9 a8bd b000 c9bc
00000080: ac7d 963c 7adb b2bc ab14 77bb c429 83bd
00000090: 97ef 03bc b8da f33d a1ab 18bd a700 29bd
000000a0: 585a 74bd f9a0 af3d 9d59 dc3b 09fa 893c
000000b0: 2b54 e2bc 87a6 97bc 2f87 963d 3c62 dc3d
000000c0: 7798 4fbb 9f62 bb3c 41f8 653d 5cdd 9f3d
000000d0: fd7d 983d c3ff 3e3d 867d 72bc 60e4 c63c
000000e0: 43df 183e 93f3 9f3d c5e5 883d 2b5f aebc
000000f0: a441 3a3c 7e0c 203d 83f1 dc3d 0c34 f73d
00000100: 98e4 fe3d 0a54 9f3c 37a8 15bd 0616 ca3d
00000110: 044c f33d 7d04 083e dc74 c4ba 794b ff3d
00000120: 81bd 913d 29b6 203d 2961 38bd 1894 a8bc
00000130: 4e66 ccba 24eb c5bc bc74 6cbd 0178 80bd
00000140: aac1 b4bc cf1e d33c a210 b63d 7369 fabc
00000150: 3aaa 3b3d fcf6 a23d 6fe2 5f3d 8492 d73d
00000160: 37c9 953d 93cc 39bd 4a94 b2bc 315c d3bd
00000170: 682e f03d 13cc 233c a83a 273d 5fda 1dbc
00000180: 8248 a43c bdc2 893d 4fb4 a7bd 6c60 a2bd
00000190: 7684 17bd 916d bebb 4d02 3cbd 0539 dabd
000001a0: 9e55 20be b1c4 dabd e493 71bc fa1e fbbc
000001b0: ce78 f1bd cb25 92bc 1138 b9bb e856 53bd
000001c0: 3998 85bd 8e61 1fbd 1d93 33bd 5b2e d4bd
000001d0: 15c3 e13c 4d83 a93a 0019 3ebd 8e3d 873c
000001e0: f5b5 3d3d 5cc4 093c 66f6 1cbe 9267 5abd
000001f0: 84fb e0bd 9351 65bd 9d6c 1bbe da4b 10be
00000200: 5bb4 abbd f47a 1b3c 8b02 c2bd 40ab dbbc
00000210: 5434 2ebd e5d4 c5bd b249 98bd 97a0 2bbe
00000220: 3ea9 9bbd 66b0 16be 7a99 91bd bf10 2fbe
00000230: 3d84 083d 8af7 fa3c 6868 a9bd e958 203c
00000240: d0b0 50bb d5a3 afbd 4309 45bd 0f23 07be
00000250: 3202 5e3c 1dc2 1fbe 0d81 1b3e c7c7 013e
00000260: 6ab6 af3d ecad 353e 1827 a63d 10a5 2e3e
00000270: b58d bb3d a5dd d23d a300 1f3e 43ba 103e
00000280: 77f9 c53d baac 3b3e f55d 8d3d ba09 063e
00000290: 3f8b 153e 88dc bb3d 6b2f 323e 5222 b63d
000002a0: 0b1e 5a3e 114d 313e 8f19 243e 7eed 893d
000002b0: f9b1 473e e38e fb3d fc20 b33d e639 e73d
000002c0: 013e 33bc de2b e73c 40a3 923d 43bc e33d
000002d0: a978 e83d f8d1 c03d 3bf6 193e 7842 623d
000002e0: 3fe7 363c de5e a93d 20cb ef3a 1bdd d13d
000002f0: 8082 403d bbab ad3d eb93 3a3d 57f4 703d
00000300: 8c20 0f3e 51c2 a2bc e191 bd3a 0fa0 a33d
00000310: b743 eb3d d68b de3d 9778 983b 1821 1c3e
00000320: b78a d43a c8a2 09bc 7085 a93d d95b e8bc
00000330: a32a b43d 0b9d cf3d cbfd b43d f42a 6d3d
00000340: 68a8 053e 2b16 703d 31ac 1c3e 63a8 3cbb
00000350: e690 be3d 6944 013d 1ffc 6a3d 0479 ca3c
00000360: f53e b23d b47b d03c 2049 803d 8394 e0bb
00000370: 655e 5f3d 3427 a63d d495 fa3d 1471 a53d
00000380: 8d80 8f3d 230e e9bd 60f4 573d 155f e4bc
00000390: d46d e8bd 9adc 14bd 7c26 dcbd bb81 5b3d
000003a0: b1ff 28bd 03ab b0bc 2fb8 15bd c9b5 97bd
000003b0: 9efb 073c 8a39 c63d 569a 653d 6514 2e3d
000003c0: 1261 3d3d 37a5 e43c 5776 ce3d cd87 803d
000003d0: cf5b e43c ddb4 553d c949 46bb a3e8 203d
000003e0: a075 d3bb 8198 233d 7394 513d dbce d03d
000003f0: 5c96 083d 0835 e13d 5efd 1c3d 9722 cd3d
0.06250399 0.07110714 0.11165531 0.011209675 0.11850133 0.064174406 0.07868468 0.07096273
-0.06804115 -0.049769916 0.001777351 0.055871967 0.054382354 -0.06104131 -0.049888287 0.09204474
0.0037245979 -0.032748204 0.037899923 0.09654006 0.07206235 0.098172225 -0.08283594 0.1082091
0.08905229 0.04785562 -0.030992283 0.055792265 0.07249577 0.06909469 -0.082445756 -0.02453646
0.018370472 -0.02183317 -0.0037701528 -0.064044505 -0.008052728 0.11906952 -0.037273053 -0.041260388
-0.05965647 0.08575625 0.00672455 0.016842859 -0.027628025 -0.018512024 0.07350003 0.10760924
-0.003167657 0.022874175 0.056144956 0.07805893 0.07445905 0.046630632 -0.014800435 0.02427882
0.14928918 0.0781013 0.0668445 -0.021285614 0.011368189 0.039074413 0.10788252 0.12070474
0.124459445 0.019449253 -0.036537375 0.09867482 0.11879733 0.13282962 -0.001498844 0.12465567
0.07116223 0.03923622 -0.045014534 -0.02057843 -0.0015594454 -0.024159975 -0.057728514 -0.06272889
-0.022065002 0.025771527 0.08889891 -0.03056786 0.045816638 0.07957265 0.054659303 0.105259925
0.07313769 -0.045361113 -0.021799225 -0.103203185 0.11727601 0.009997386 0.040827423 -0.009634583
0.020054106 0.067265965 -0.08188688 -0.07928547 -0.03699156 -0.005811401 -0.04590063 -0.10655407
-0.1565766 -0.10682047 -0.0147447325 -0.03065442 -0.1179062 -0.017840287 -0.0056524356 -0.051596552
-0.06523175 -0.038911395 -0.04384147 -0.10360404 0.027558843 0.0012932807 -0.04641056 0.016508844
0.046316106 0.008408632 -0.15328369 -0.05332143 -0.10985473 -0.055986 -0.15178151 -0.14091435
-0.083840095 0.0094897635 -0.09473141 -0.026815057 -0.042530373 -0.09659747 -0.07435931 -0.16760479
-0.0760064 -0.14715728 -0.071093515 -0.17096232 0.033329237 0.030635614 -0.08271867 0.009786823
-0.003184367 -0.0857617 -0.048104536 -0.13196968 0.013550328 -0.15601392 0.15185948 0.12673865
0.085797146 0.17742127 0.08112925 0.17055154 0.09157888 0.102961816 0.15527587 0.14133553
0.09666722 0.18327609 0.069026865 0.13089648 0.146039 0.091729224 0.17400901 0.08893265
0.21300523 0.17314555 0.16025375 0.06734751 0.19501485 0.12283113 0.08746526 0.1129034
-0.010940076 0.02821916 0.07160044 0.111198924 0.11351139 0.09415048 0.15035336 0.05523917
0.011163532 0.082700476 0.0018294789 0.10247251 0.046999454 0.084800206 0.04555122 0.05882677
0.1397726 -0.019868048 0.0014463031 0.07989513 0.11487525 0.10866515 0.0046530473 0.15247
0.0016215657 -0.0084006265 0.08277404 -0.028364109 0.08797195 0.101373754 0.0883747 0.05790229
0.13052523 0.05861489 0.15300061 -0.002878689 0.09304981 0.03155938 0.057369348 0.024715908
0.08703414 0.025449611 0.062639475 -0.0068536415 0.05453338 0.08112946 0.12235609 0.080782086
0.07006941 -0.113796495 0.05272329 -0.02787737 -0.11349073 -0.036343195 -0.10749528 0.053590517
-0.04125947 -0.02156592 -0.036552604 -0.0740772 0.008299736 0.096789435 0.05605539 0.04249992
0.04623515 0.027910812 0.10081165 0.06275902 0.027875809 0.052174438 -0.0030256382 0.03928436
-0.006453231 0.03994036 0.051166963 0.101957045 0.03334652 0.10996443 0.038327567 0.10016363

dec_layer_3.0.bias f4 [3]
00000000: d709 fb3c 163c f63c 18d4 c3bc
0.03064434 0.030057948 -0.023904845
