save/large_attn/gen_model.pt (torch, 117796 bytes, 13 tensors)

enc_layer_1.0.weight f4 [32, 3, 5, 5]
000000 c6 d2 4b 3d 6d c9 a5 3d f1 c4 67 3d ea c9 c8 bd
       0.049761556 0.080950595 0.056584302 -0.09804137
000010 1f 5f 50 bd a2 3f 6d 3d a8 ba 7a bb ae 35 be bd
       -0.050871965 0.057922013 -0.0038258228 -0.09287582
000020 9e d2 d3 bc 52 4e b8 3d 94 ab 99 3d 6b 38 c3 3c
       -0.025857266 0.089993134 0.07503429 0.023830613
000030 81 94 5a 3d 26 c5 de 3d 46 89 37 3d a6 02 5f bc
       0.05336428 0.10877447 0.04480865 -0.013611471
000040 44 25 d0 3d f4 d9 9c bd 61 86 5e 3d 51 f1 9d bc
       0.10163358 -0.07658759 0.054327372 -0.019280108
000050 2b ed 88 3c 85 08 a1 bd 1c 67 b6 bc d2 43 96 bc
       0.016714653 -0.07862953 -0.022265963 -0.018342886
000060 23 d1 2a bd fa 97 56 3c a0 ca 03 be db 98 22 bc
       -0.041703355 0.0130977575 -0.12870264 -0.009924139
000070 83 80 17 3d 79 15 3e bb 95 71 5f 3d 89 bd 5a bc
       0.036987793 -0.0029004498 0.05455168 -0.013350853
000080 46 a2 fe bb b9 65 51 bd bd 57 7b 3c b7 20 5f 3d
       -0.0077708093 -0.0511224 0.015340743 0.05447456
000090 b9 e9 5c bd c6 f3 92 bc 76 a1 c9 bd e0 83 c6 bd
       -0.053933833 -0.017938506 -0.09845249 -0.09693122
0000a0 84 5d 84 3d ff 8d ec bd d3 b7 ad 3d f7 8e 8a 3d
       0.06463149 -0.11550521 0.08482327 0.0676555
0000b0 b0 ca 6b 3d f1 96 84 3d 96 af 0f 3d e5 65 05 3c
       0.057566345 0.06474102 0.03507956 0.008141969
0000c0 2d 03 9c bd b7 07 16 be 80 e2 07 3d 14 1c 52 bd
       -0.07617793 -0.1465138 0.03317499 -0.05129631
0000d0 4e 8d 2f bd 84 a7 0c 3c 67 b1 1e bd e6 55 07 bc
       -0.042859368 0.008584861 -0.038743403 -0.008260226
0000e0 9d 64 93 3d 9e 49 df 3d a3 25 50 3d be c9 23 bd
       0.07196925 0.10902713 0.050817143 -0.03998732
0000f0 6e f9 fa 3d c3 eb 06 bd a8 e4 ff bc ea 5a dc bc
       0.12254606 -0.032939684 -0.031236961 -0.02689882
000100 aa 32 62 bd 63 69 db bc 4f 55 04 bd 08 d1 bb 3c
       -0.0552241 -0.02678365 -0.03230792 0.022926822
000110 32 23 5c bd 8c c0 13 bc 88 f3 5c 3d 2c c8 1c bc
       -0.053744502 -0.009018075 0.053943187 -0.009569209
000120 ae 65 6e bd 4f 13 d3 3c 84 8e 91 3d b2 e3 11 bc
       -0.058202438 0.025766043 0.07107261 -0.008904384
000130 b8 51 93 bd f2 19 22 be 55 68 91 3d aa 7e c6 3c
       -0.07193321 -0.1583021 0.07099978 0.02423032
000140 5c 31 c5 3d 3d e0 6c 3d 82 2e d1 3d 56 37 95 3d
       0.09628555 0.057831038 0.10213949 0.07285945
000150 f9 be cb 3d d5 8c ef 3d 3d 32 ba bb 58 ae 78 3c
       0.099485345 0.116967835 -0.0056822584 0.015178286
000160 a8 ab 99 3c 50 1a cd 3d 1d a2 a1 bd 6f 65 af 3d
       0.01875861 0.10014784 -0.07892249 0.08564269
000170 f8 bc 63 bd 38 c9 dd 3d 36 78 dc 3a ca 17 03 3d
       -0.055600137 0.10829395 0.0016820494 0.03200511
000180 fe 30 f9 bc 82 63 c9 bd 27 3a a9 bc 98 72 d3 3c
       -0.03041887 -0.09833433 -0.020657612 0.025811478
000190 5a f2 f4 3b 65 90 37 3d ef 26 38 bd a7 a2 85 bd
       0.0074751796 0.04481544 -0.044959005 -0.06525164
0001a0 3a cf 20 bd 9e d5 e2 3d 0d 79 82 3d 08 e1 48 3d
       -0.039260127 0.110759005 0.06370745 0.04904273
0001b0 af 06 dd 3d 35 71 76 3c 2a 5f a7 bc 68 a2 d3 3d
       0.107922904 0.015041639 -0.02043112 0.10333711
0001c0 14 59 bf 3d 06 a0 1f 3d 71 e3 89 bc a8 43 80 3c
       0.09343162 0.03897097 -0.016832085 0.015657261
0001d0 ec 87 8e 3d 6f 47 83 3d 7e 9a bb bd c9 b2 fd bb
       0.06959519 0.06410109 -0.091603264 -0.00774226
0001e0 fd 13 b6 3d cd ba 35 bc 44 08 10 3d 9d c4 77 b9
       0.08890531 -0.0110919 0.035164133 -0.00023629
0001f0 de c3 bf bd 0c d5 62 3b ac 59 89 3c 3b 94 cb bd
       -0.093635306 0.003461185 0.016766392 -0.09940382
000200 a7 77 89 bd 14 ae 42 3c 51 7f 45 bd 18 09 ac 3d
       -0.06712275 0.011882324 -0.04821712 0.08400172
000210 d9 26 0e be f9 b6 4e bd cc 6d 8b 3d 96 7d 40 bd
       -0.13882007 -0.050467465 0.068080515 -0.046994768
000220 cc 89 75 bc bb 3c 75 bd b6 37 ea bc 4e 8f 8d 3c
       -0.014986467 -0.05987237 -0.028591018 0.017280247
000230 05 91 35 bd c8 a6 e6 3d 09 8b 47 bd c9 9b b7 bd
       -0.044327755 0.1126228 -0.04871658 -0.089652605
000240 f9 8b 5e bd bb 4e ea 3d ae c3 96 3b 59 be 6f 3d
       -0.054332707 0.11440798 0.0046009636 0.05853114
000250 07 4a ee 3d b1 43 b9 3c 68 0d 4a be 15 be af bd
       0.11635213 0.022615286 -0.19731677 -0.08581177
000260 03 f4 2e be 66 53 75 3d e3 a8 0d be 0f b4 04 be
       -0.1708527 0.059893988 -0.13833956 -0.12959312
000270 72 cf 04 3d 40 8c 78 bd 73 32 cd bd 04 84 ae bd
       0.032424398 -0.060680628 -0.10019388 -0.08521274
000280 14 27 db bd e4 8c bd 3d de e1 01 be cf 02 63 3b
       -0.10700813 0.092553884 -0.12683818 0.0034639125
000290 22 c7 8b 3d 90 49 10 bd 88 a4 17 be 27 a6 f1 bd
       0.06825091 -0.035226405 -0.14808857 -0.11799269
0002a0 bc c4 d0 bd 1c ad 41 bd d1 b5 91 bc d8 06 62 bd
       -0.10193774 -0.04728423 -0.017786892 -0.055182308
0002b0 b3 f1 4a 3d e0 dc da bd 4d 26 cc bd b5 99 b3 3d
       0.04954691 -0.1068666 -0.09968243 0.08769552
0002c0 07 c6 88 3d f5 4b fb bc 43 3c bf 3d 7e 98 f5 3c
       0.06678396 -0.030675868 0.09337666 0.02997994
0002d0 f9 e3 33 3c c3 57 52 bd b3 c3 fc bc 77 8e 07 3e
       0.010979646 -0.051353227 -0.030855035 0.1323794
0002e0 86 68 57 3d b3 14 12 3d 6f 35 38 3a 6f d7 a9 39
       0.052589916 0.03566427 0.0007027005 0.00032394702
0002f0 16 c2 95 3d e6 7b 38 3d 04 7b bd 3b 23 c0 05 3e
       0.073124096 0.045040034 0.005782487 0.13061576
000300 a7 30 db 3d b0 47 8a bd 83 8f 90 3d b1 d3 cb 3c
       0.10702639 -0.067519546 0.07058623 0.024881216
000310 59 a0 52 3d a7 2a a6 3c 06 34 a5 3d 24 1f 83 3d
       0.05142245 0.02028401 0.08066563 0.06402424
000320 67 56 e4 3b e3 ee 9b bd f0 33 ef 3d e1 c0 2b 3d
       0.006968308 -0.076139234 0.11679828 0.04193199
000330 a1 27 be 3d 47 d9 37 3a 1c 7e 9d 3d 27 0b cc 3d
       0.09284902 0.0007013273 0.07690069 0.09963065
000340 be c7 72 3d 45 b4 b5 bd a1 37 a8 ba ba b8 bd 3d
       0.05927252 -0.08872274 -0.0012833962 0.092637494
000350 86 4d b1 3a 4b 08 ae bd 38 ed c1 bd 22 77 d8 3c
       0.0013527132 -0.084976755 -0.09469074 0.026423994
000360 96 f1 24 bb 3f 1c dd bd b8 1b 81 bc 2e ad 61 3b
       -0.002516841 -0.10796403 -0.015760288 0.0034435499
000370 4a 14 10 bd 91 cb 9e bc e5 14 d6 3c bb eb 21 bc
       -0.0351756 -0.019384177 0.02613301 -0.009882863
000380 48 1b 7e 3d 55 9a 25 3b 7e d4 6d 3c 96 c3 cc bd
       0.062037736 0.002526899 0.014515994 -0.099982426
000390 94 42 a4 b9 fa 71 93 3d bf 51 f1 3c 0a 5e aa bb
       -0.00031330122 0.07199474 0.029457925 -0.0051991986
0003a0 55 b0 e5 3d 0c cb c1 bb f9 e3 10 3c d7 d8 14 3e
       0.11215273 -0.0059140977 0.008843415 0.14535843
0003b0 a6 70 06 3e bf 3e 73 bd 47 dd 71 3d b7 7b 8c bc
       0.1312891 -0.05938601 0.059048917 -0.017148836
0003c0 af 91 c6 3d 1c 5e 08 3e 42 fe 8b bc e7 15 dd 3d
       0.09695756 0.1331715 -0.017089013 0.10795193
0003d0 2b 96 a8 3d 01 c1 80 3d 19 4b 37 3d 04 fb b4 3d
       0.08231767 0.062868126 0.044749353 0.0883694
0003e0 19 c8 e5 3d 88 9b 3b bd 21 69 b5 bd e8 ac 18 bc
       0.11219806 -0.045802623 -0.088579424 -0.009318568
0003f0 4e 0c ba 3d 3f 28 31 3d 0d bd cb 3d f1 a9 b4 3d
       0.09084378 0.043251272 0.09948168 0.08821476

enc_layer_1.0.bias f4 [32]
000000 78 36 f7 be c1 0e 51 3c 5e 2d d0 bc f8 0c 86 bc
       -0.48283744 0.012759865 -0.025412258 -0.016363606
000010 58 c6 53 bd 95 f6 12 bd d2 c3 eb bd ad 5d 6a 3e
       -0.051702827 -0.03587969 -0.11511959 0.22887297
000020 2f 31 b3 3d 3a 16 02 be 77 70 22 3e bf 50 82 3c
       0.087496154 -0.12703791 0.15863214 0.015907643
000030 b3 21 54 3d 63 81 a6 bc dc d5 d6 3d 4d 5f ff 3a
       0.05178995 -0.020325368 0.10490009 0.0019483358
000040 6e 43 9e be 0a eb 7e be 22 82 a2 bb 2e a7 50 3e
       -0.3091082 -0.24894348 -0.0049593607 0.20376274
000050 75 59 fa bd c2 39 9e 3d 5d 68 e5 bd c9 b5 40 be
       -0.12224094 0.0772586 -0.11201546 -0.18819346
000060 2d 38 8e 3d f4 ec 38 3e c1 8b 48 3e f4 d1 9a bd
       0.069443084 0.1805914 0.19584562 -0.07559577
000070 c2 0a 3f 3e 3a d4 d8 bd b6 93 06 3c 8d 5a c7 bd
       0.18656448 -0.10587354 0.008213928 -0.09734068

enc_layer_2.0.weight f4 [16, 32, 3, 3]
000000 be 69 0f 3c 46 61 7c bd 58 22 19 be ea 08 18 be
       0.008753238 -0.061616205 -0.14954507 -0.1484715
000010 b0 c7 46 be ca 02 37 bd 66 0b b0 bc cc f1 c6 3d
       -0.19412112 -0.044680394 -0.02148981 0.09714088
000020 15 68 af 3d d3 ce 20 ba dc fd 39 3c f7 6d 98 3c
       0.08564774 -0.0006134335 0.011352029 0.018607123
000030 ee 9a 71 bd c3 03 b6 bd 0e 3b d3 bc d9 d3 69 bd
       -0.058985643 -0.08887436 -0.025784995 -0.0570868
000040 72 17 84 bd 10 76 2f 3d 59 3b cd bd 5e cd a4 bd
       -0.06449784 0.042837203 -0.10021085 -0.08046983
000050 1e 17 56 bd fc dd b0 bc 78 5d ae bc 12 cb 19 3c
       -0.05226814 -0.021590225 -0.021284804 0.009386795
000060 88 33 86 bd 13 70 74 bd 5c 4e bb bc 9d 36 fd 3d
       -0.065527976 -0.059677195 -0.022864513 0.12363932
000070 63 b9 c3 3d 98 e1 84 3d 7d b4 80 3d 32 6f 76 3d
       0.09556844 0.06488341 0.062844254 0.060164638
000080 db da 2f 3c 73 34 17 bc 71 53 10 3d aa 46 98 3c
       0.010733332 -0.009228813 0.035235826 0.018588383
000090 c7 9a 10 bd 31 ec 01 bd ad 83 94 bc 3c 19 bd 3c
       -0.035303857 -0.03171939 -0.018129194 0.023083322
0000a0 15 fd 77 bc 2c f0 e5 bc 4b 29 1d bb 82 51 1b bd
       -0.015136023 -0.028068624 -0.0023980911 -0.03791953
0000b0 c5 58 02 bd 52 dd 4c bc b2 ff 30 3c 38 a6 6d bc
       -0.03182294 -0.012503939 0.01080315 -0.014504962
0000c0 b9 04 1a 3d ff 2d 08 3c 95 b1 a8 bb 46 2d 9f 3d
       0.03760216 0.008311748 -0.0051481226 0.07772307
0000d0 51 47 96 3d 9a f0 7b 3d e6 db 0b 3d 8e 96 8d 3d
       0.07337821 0.061508752 0.03414526 0.06913482
0000e0 3c 04 27 3e df 1f 17 be ee c6 5f be d6 2c fa bd
       0.16310209 -0.14758252 -0.2185323 -0.12215583
0000f0 ea ac ae 3d 9c 1e 1d bd a2 7d 02 3d ee ae c4 3d
       0.085290745 -0.03835927 0.031858094 0.09603678
000100 f2 f5 e8 3d c0 54 c6 3d 3a fe f0 3d 10 18 d4 3d
       0.11375035 0.096841335 0.1176724 0.10356152
000110 49 7b 0e 3e b8 52 96 3d 4e 24 68 3d ef 36 67 3d
       0.13914217 0.07339996 0.056675248 0.056448873
000120 9f 4d ea bc 18 a3 ba bd d8 37 da bd ee 09 f1 bc
       -0.028601466 -0.09113139 -0.106551826 -0.02942368
000130 31 81 2f bb 3d 10 80 3d d9 ce ca bc 03 42 7f bd
       -0.0026779885 0.06253097 -0.024756836 -0.062318813
000140 aa 8b 97 bb 56 10 e8 ba f1 fd 86 3d 8e 87 a8 3c
       -0.0046248036 -0.0017705064 0.06591404 0.02057245
000150 d0 fd ee bd 80 6b 32 3d 30 d4 1e 3d ba f6 dd 3d
       -0.11669505 0.04355955 0.038776577 0.10838075
000160 4a df 9a 3c 98 d9 5c bd 04 23 ac 3b d7 95 0e bc
       0.0189053 -0.05391845 0.0052531976 -0.008702717
000170 5f 16 6d 3d 8b c1 9d bd 6a c1 1c bd ba 81 54 3d
       0.057882663 -0.07702931 -0.03827039 0.05188153
000180 ef 3b 33 3b 2b 86 16 bd c0 19 d9 bc 86 65 de bc
       0.0027348956 -0.036749046 -0.026501536 -0.02714802
000190 5d 6d a7 bd a5 bb b0 bd e6 56 79 bc bc c9 87 3c
       -0.08175156 -0.0862954 -0.015218472 0.016575687
0001a0 1a 5e 55 3d e7 d5 8f bd 50 f0 61 bd 34 f3 f1 bb
       0.052091695 -0.070232205 -0.05516082 -0.0073837284
0001b0 98 76 c2 bb 68 98 1b be 20 57 62 bd da a8 d6 bb
       -0.0059345476 -0.15194857 -0.05525887 -0.0065508904
0001c0 df 2c d9 3d e1 38 57 3d ff e3 d9 3d eb 2b d8 bc
       0.106042616 0.05254448 0.1063919 -0.02638813
0001d0 7c 29 c1 3c 45 be 36 bd c4 f8 c9 bd ce c4 19 bc
       0.023579352 -0.04461505 -0.098619014 -0.009385301
0001e0 38 1b 53 3d dc 3d 9e 3d f6 11 84 3d 82 a8 c4 3c
       0.05153963 0.077266425 0.06448738 0.024006132
0001f0 80 e0 2f 3d 2b ea 1a 3c 84 01 01 3d 89 56 9a 3d
       0.04293871 0.009455244 0.031495586 0.075360365
000200 42 c4 14 bd fb bc 84 bb ef d9 ad bd e8 72 fa bb
       -0.03631998 -0.0040508485 -0.08488833 -0.0076430924
000210 f3 ad c6 bc 85 71 1a 3c 34 ac 13 bd e2 2e 08 3d
       -0.024252867 0.009426479 -0.036052898 0.033247836
000220 cf d5 97 bd b5 f9 dd 3a d9 31 81 bd 3a 68 cf 39
       -0.07413828 0.001693538 -0.06308336 0.00039559772
000230 37 75 be 3c ac c1 1f bd 02 7a d5 bc f2 62 73 bb
       0.023249252 -0.03900306 -0.026059154 -0.0037137833
000240 29 cc 25 bd 70 dd 65 3d 08 e1 03 3e a9 7e 79 3e
       -0.040477905 0.056119382 0.12878811 0.24364723
000250 2c 09 87 3d 73 59 b1 3a 5a 0a 1a bd e2 f6 ae 3d
       0.06593546 0.0013530686 -0.03760753 0.08543183
000260 28 7a 4f bc f9 b4 e0 bd fe d0 2c be b4 db 55 bd
       -0.012663402 -0.10972018 -0.16876599 -0.05221148
000270 3e 01 fa bd db af 00 be 6e 6b 51 bc 7b 07 11 3d
       -0.12207268 -0.12567084 -0.012781961 0.035407525
000280 3d aa d1 bc cb 61 10 bd 4d 70 d2 bc 12 6c d9 bc
       -0.025593871 -0.035249513 -0.025688315 -0.02654079
000290 f9 db 31 bd ed 8a f5 3b ee 3c fa bb 63 d2 61 3d
       -0.043422673 0.007493368 -0.007636658 0.05513228
0002a0 02 16 2d bb 31 37 a4 bc 02 ef 9c 3c c7 48 03 bd
       -0.0026410823 -0.020045849 0.019156937 -0.032051828
0002b0 a3 f8 36 bc c8 cf 82 bd 24 90 4d bd 3f 52 48 bd
       -0.011167678 -0.063872874 -0.05018629 -0.04890656
0002c0 17 1b 99 bd 8a 4d 91 bd 4c 67 5c bd cb c2 7c bd
       -0.0747587 -0.070948675 -0.05380945 -0.061709207
0002d0 92 a9 15 bd ab 90 1a be 17 8e 0f bd 50 51 5e 3d
       -0.036538668 -0.15094249 -0.035047617 0.054276764
0002e0 b3 98 2c 3c 3e 6d 15 bd 3b 56 97 bd d3 ea 9d 3d
       0.010534453 -0.036481135 -0.07389494 0.07710805
0002f0 cf a5 2f bd a0 8e 6e bd f9 3d 5e 3c 2d 71 03 3d
       -0.042882737 -0.058241487 0.01356458 0.032090355
000300 06 64 b3 bd f3 91 12 bd 4c f6 06 bd 92 12 84 3c
       -0.08759312 -0.03578372 -0.03294973 0.016122136
000310 a1 95 d7 3c 45 35 43 3d ed d5 20 3b 8a 47 7a bc
       0.026316466 0.047658224 0.0024541572 -0.015275845
000320 ce 11 42 bd f8 75 4a bd 48 e2 0e 3d df 5e 7c bc
       -0.04738026 -0.04942891 0.034883767 -0.015403478
000330 74 6d aa bd 80 f1 3f bd 03 d1 a8 bd 5a 31 1e bd
       -0.08321658 -0.04686117 -0.08242991 -0.038621284
000340 ac 6d dc bd 71 ae f9 bd 67 ba b2 bd fd 79 64 bd
       -0.10763106 -0.12191475 -0.0872696 -0.0557804
000350 c1 67 66 bd 5b 77 f0 bb 52 85 2b 3b 12 9d ba bd
       -0.05625129 -0.007338447 0.0026171994 -0.0911199
000360 00 60 2a bd 4a be a6 bd 5a 4e de 3b 2e 45 a1 bc
       -0.04159546 -0.081417635 0.0067842426 -0.019686308
000370 44 66 9d bd 4d 95 36 bc 9f 42 5d bd b5 bf 27 3c
       -0.07685521 -0.0111439945 -0.054018613 0.010238578
000380 8e d4 4f 3d 8c fd 71 bb 22 97 4c bd 1d 86 cf bb
       0.050739817 -0.0036924807 -0.04994882 -0.006333126
000390 25 1f 64 3d 83 0c aa 3d 28 ae 7b bc 69 66 28 3d
       0.055693764 0.08303168 -0.015361346 0.04111329
0003a0 0f 69 70 bd 5f 55 67 3d a7 d1 db bc cc eb bc 3d
       -0.05869394 0.0564779 -0.026833368 0.09224662
0003b0 85 37 b2 3d 2e 07 c2 3c a0 47 16 3d f6 ab b7 3d
       0.08701996 0.023685064 0.0366894 0.08968346
0003c0 cb f8 84 bb c9 cb 0b bc 95 22 10 bc 73 1f b6 3d
       -0.0040579787 -0.008532473 -0.0087973075 0.08892717
0003d0 a4 f6 d8 3c 9c 08 47 be 1f db 7f 3d 31 a6 9f 3c
       0.026484795 -0.19436878 0.06246483 0.019488426
0003e0 af 6f b2 bc 80 0f 94 bd c3 bc 62 bd 04 e4 39 3c
       -0.02178177 -0.07229519 -0.0553558 0.011345867
0003f0 ac 3e e6 bd de 09 4e bd 4f 66 a2 bd f1 ee 3a 3b
       -0.112424225 -0.05030238 -0.0792967 0.0028523768

enc_layer_2.0.bias f4 [16]
000000 ea a3 85 3d 48 2e 9f bd 55 8b 77 bd 04 93 bb bb
       0.06525405 -0.07772499 -0.06043561 -0.0057243127
000010 37 e1 0d 3c 65 c8 0f be 3b 90 2b bd 1c 66 63 3d
       0.008659652 -0.14041288 -0.041885596 0.0555173
000020 69 d7 d4 bd ba 95 7a 3d 52 4c 29 3d be 1e cc 3a
       -0.10392649 0.061177947 0.04133255 0.0015573127
000030 b8 85 58 3b 83 60 4f 3c 4f e3 ac 3c d3 7a b2 bd
       0.0033038687 0.0126572875 0.021104483 -0.08714833

large_attention.to_qkv.weight f4 [768, 16, 1, 1]
000000 6c c2 37 bd 24 ce 76 3c 92 6f 65 3d b4 ad 2a be
       -0.04486315 0.015063796 0.056014605 -0.16667825
000010 43 86 6d 3e 72 64 83 3e 6d b1 7a 3e 13 09 01 be
       0.23195748 0.2566257 0.24481745 -0.12601118
000020 91 e0 74 be c4 08 25 3e f5 53 25 bd 62 c5 2d be
       -0.2391379 0.16116625 -0.04036327 -0.16969827
000030 f2 ac 63 3e 85 32 08 3e 4a 67 4f be 24 bd 50 3d
       0.22233942 0.13300522 -0.20254245 0.05096163
000040 81 fd da 3d c6 c2 7b be 61 bd 71 be f9 98 1c be
       0.10692883 -0.24586019 -0.23607399 -0.1529273
000050 32 c6 67 3e c1 ec e4 3d 76 db 84 3e 02 3d 00 be
       0.226342 0.1117797 0.25948685 -0.12523273
000060 23 4c 1f be 99 b5 0b be 07 78 23 bd a1 3a e7 3c
       -0.15556388 -0.13643493 -0.03990939 0.028226199
000070 36 ca 3a 3e 3f 3b 6c 3e 9d 1b 54 be f4 73 3d be
       0.182412 0.23069476 -0.20713659 -0.18501264
000080 3b f5 97 3d 17 7a 4e 3b a0 3d f6 bd 64 07 f7 bd
       0.07419821 0.0031505877 -0.12023473 -0.120619565
000090 68 f4 23 ba 8d f8 ae bd 13 5b 20 bd f7 7c f2 3d
       -0.0006254376 -0.08543501 -0.039149355 0.118402414
0000a0 93 48 21 3e 01 24 44 3e f0 69 f8 bd 97 35 9a bc
       0.15750341 0.1915436 -0.12129581 -0.018824382
0000b0 a4 22 0f bc 7d 6c a6 3c 61 87 70 bd 25 d0 2c be
       -0.008736286 0.020315403 -0.058722857 -0.16876276
0000c0 1b a0 0c be c4 76 99 bb 64 89 07 3d f2 79 34 bd
       -0.1373295 -0.0046833474 0.03309001 -0.04406161
0000d0 61 4d f9 3c 7a 92 d1 bd d4 b9 2c 3e 9d 69 77 be
       0.030432405 -0.10233016 0.16867763 -0.24161382
0000e0 9e 0a 54 3e c5 45 cc 3d 7a 89 38 3e ef d5 9d bc
       0.20707175 0.09974245 0.18021193 -0.01926705
0000f0 b4 e9 f5 3d d0 75 1c 3d 79 15 63 be 0f 6d af 3d
       0.12007466 0.038198292 -0.2217616 0.08565723
000100 3f 3b 66 3e fe 7e b0 bd 91 0a 3c be 80 2f 72 3e
       0.22483538 -0.08617972 -0.18363406 0.23650932
000110 16 98 69 3e 65 96 bf bd 4f 67 22 be 32 7e 22 be
       0.22811922 -0.09354857 -0.15859722 -0.15868452
000120 c2 07 49 3e 33 c6 82 3d 51 22 2a 3e e4 46 20 3e
       0.19631866 0.0638546 0.16614653 0.15652043
000130 14 a1 e7 3c ce 1f 4c 3c b2 9a 3d 3e 24 36 a7 3d
       0.02827505 0.012458755 0.18516043 0.081646234
000140 d8 16 39 3e 09 ba 17 3e d5 1b 49 3e 7f ef 00 be
       0.1807512 0.1481706 0.19639523 -0.1259136
000150 7d 56 81 3e bd a1 cc bd db 4b 0e 3e 1d 18 73 be
       0.25261298 -0.09991787 0.13896124 -0.23739667
000160 d5 b5 68 3d cf e8 34 bd 11 2e 01 3e 37 42 b5 bd
       0.056814034 -0.044167336 0.12615229 -0.0885052
000170 9b 92 8d 3e 8f c7 81 3d df b9 89 be 6d 5b 58 3e
       0.27650914 0.06336891 -0.2689962 0.21128626
000180 b9 6b 5a 3e 16 38 24 be ea 92 63 be d4 d2 02 be
       0.21330155 -0.1603702 -0.22224012 -0.12775737
000190 f3 6d 4e 3e c1 fc 42 3c 5c 3c f5 3d 85 6c 18 3e
       0.2015913 0.011901082 0.11974403 0.14885147
0001a0 fa 55 38 3e bf 66 40 3e 5c e6 1a 3e d3 01 13 3e
       0.18001547 0.18789195 0.15126938 0.14356165
0001b0 e1 7f a7 bd 6b fa bf bd 8a 06 8d bd 4c 06 0d 3d
       -0.08178688 -0.09373935 -0.06886013 0.034429833
0001c0 35 9b 8b bc 48 31 cc 3d da 41 43 3d c9 cb 96 bd
       -0.017041782 0.09970337 0.047670223 -0.07363088
0001d0 db 76 2a be 01 4b 2d 3e 38 07 6c 3d 13 d9 51 be
       -0.16646902 0.16923143 0.05762407 -0.20492963
0001e0 c5 e5 40 3e f6 ad 39 3e 51 a7 1e 3e d8 ed 08 3e
       0.1883765 0.18132767 0.15493514 0.1337198
0001f0 9e ee b0 3d 02 9b 9a 3d c2 e6 11 be 79 74 57 3e
       0.086392626 0.07549097 -0.14248183 0.21040525
000200 e9 fb 0b 3e 19 1a 1c be 4a b7 6a 3e 32 9a 17 bd
       0.13670315 -0.1524433 0.22921482 -0.037012286
000210 93 3c 68 bd 0b 66 3c be 50 6d 38 be 7d cd 52 be
       -0.056698393 -0.18398301 -0.1801045 -0.205862
000220 60 0d 2a be df 6c cb bc ec e4 69 be ea 82 0e be
       -0.16606665 -0.024832187 -0.22841233 -0.13917127
000230 d4 bc 23 be 0a 0a 28 be 41 98 92 be 4f b7 02 be
       -0.15990001 -0.1641008 -0.28631786 -0.12765239
000240 05 b1 74 be 5b 2b 66 3e 4a 31 25 3e 78 eb 50 bd
       -0.23895653 0.22477476 0.16132084 -0.05100581
000250 a6 f5 9b bc 18 a3 3e 3d 3c 0e b9 3d 94 a7 9c be
       -0.019038033 0.046542257 0.09035918 -0.30596602
000260 3d f3 83 3d 3b 42 f5 bb 44 2e c5 3d 60 a4 62 be
       0.064428784 -0.007484702 0.09627965 -0.22133017
000270 0d 00 6a 3e cf 97 59 be d7 66 70 3d f6 2d ed bd
       0.22851582 -0.21249317 0.058691826 -0.11581032
000280 b2 32 3d 3e e1 85 1f 3c d4 52 5e be 02 dd 26 be
       0.1847637 0.009736509 -0.21711284 -0.16295245
000290 bc 97 de 3d 20 9f d2 bd 0e 46 2e 3e 30 a1 80 be
       0.10868785 -0.10284257 0.17018911 -0.25122976
0002a0 d9 83 8d bd a5 ef b1 3d d0 ed cc bd 6f e4 07 be
       -0.069099136 0.08688287 -0.10006297 -0.13270734
0002b0 48 1d 6c 3c 3d 91 1f be 22 dc e6 3d 74 c6 76 3d
       0.014411278 -0.15582748 0.11272456 0.060247853
0002c0 32 10 31 bd 9c f4 8c 3a 1d 11 40 be 08 ad 58 be
       -0.043228336 0.0010754052 -0.18756528 -0.21159756
0002d0 a9 32 c7 3c 4d 4a 0f 3e 2a 8a 07 be d2 29 aa bd
       0.024316149 0.13993187 -0.13236299 -0.08308758
0002e0 34 0b 69 be 64 4f df bc f6 c7 5d be 2a 22 3a 3e
       -0.2275818 -0.027259536 -0.2165831 0.18177095
0002f0 ca 6e c2 bd b0 5f 7d bd 5e 9f b8 bd 2b 4e 8c 3e
       -0.094937876 -0.061858833 -0.09014772 0.27403387
000300 4f 7d 4a 3e b6 f9 e0 bc 70 5d e1 3d 76 d8 6a 3e
       0.19774364 -0.027462821 0.1100415 0.22934136
000310 36 1e 01 bd 7e 29 67 bc 3c 0c 04 be 17 64 d7 bd
       -0.031522952 -0.014109014 -0.12895292 -0.105171375
000320 b6 cb a4 3c 99 44 a0 bc ae 3b 02 be 51 14 b9 bc
       0.020116668 -0.01956396 -0.12718078 -0.022592695
000330 f4 0f 9e bd 8e 66 39 be 21 80 6f 3d 03 d4 11 3d
       -0.077178866 -0.18105528 0.058471803 0.03560258
000340 2b 4e 0a be 34 8c 7d 3e 1c 08 40 3e 30 61 2f 3e
       -0.13506381 0.24760514 0.18753093 0.17126918
000350 0f 2b 4d bc 46 14 0e 3e b4 4b 84 3e 32 8a 9f 3d
       -0.012522473 0.13874921 0.25839007 0.077900305
000360 ba f1 a0 3d 85 13 e2 bd 4b ad 7d be ce e4 3c be
       0.07858606 -0.11038879 -0.24773137 -0.18446657
000370 7a b3 2d be 38 24 75 3d 01 73 d0 bc 12 e1 c0 bd
       -0.16962996 0.059848994 -0.025445463 -0.09417929
000380 e3 a1 c1 3c b7 f0 67 3e 8d e5 02 bd c4 60 37 be
       0.023636764 0.22650419 -0.031957198 -0.17908007
000390 02 ff 6b 3e 73 e3 30 bd 83 e8 bb bd 3e c5 32 bd
       0.23046497 -0.043185662 -0.091752075 -0.043645136
0003a0 67 e9 0b 3e 85 a8 85 be 27 85 1b 3e 0e b7 15 3d
       0.13663255 -0.26105133 0.15187512 0.036551528
0003b0 ce b5 51 3c 73 6f 8b 3d 22 a0 ca 3d 88 24 36 3d
       0.012799693 0.068083666 0.09893824 0.044468433
0003c0 3d 86 a4 3c 21 44 5a be e4 d5 8a bd b9 e2 87 bd
       0.020083541 -0.21315052 -0.06779078 -0.06635041
0003d0 ee 4f 23 3e 9d 5c df 3c 8e dc ed bd b7 ab d9 3a
       0.1594846 0.027265841 -0.11614333 0.0016606961
0003e0 da 24 79 bd a2 da 49 be 9f 62 a7 bd 0e 40 81 be
       -0.06082616 -0.19712308 -0.08173107 -0.25244182
0003f0 cb 05 f5 bc 3c 33 c4 bc a0 a0 8a 3d 06 76 0d 3e
       -0.029909989 -0.023950212 0.06768918 0.13814554

large_attention.to_out.weight f4 [16, 256, 1, 1]
000000 ae 71 a4 bd 7a 59 43 bd a1 2f 9c 3d be 7f 53 bc
       -0.08029495 -0.047692753 0.07626272 -0.012908874
000010 c3 c1 6e bd 17 1c 93 bd 16 af bb bc ae 09 e9 bc
       -0.058290254 -0.07183092 -0.022910636 -0.028446998
000020 18 4d f6 3c a6 a5 8d 3c ae 56 1f 3d 29 3e ff 3c
       0.030066058 0.017290901 0.038901024 0.03115757
000030 f4 e7 80 bd 0c 9e 88 3b 57 58 ac 3d 39 8a 5a bd
       -0.062942415 0.0041692313 0.08415287 -0.053354476
000040 bf 8d e4 3d 30 9b 0a bc 6c 5d 7d 3d e6 fd 38 3d
       0.111598484 -0.008459851 0.061856672 0.04516401
000050 e0 cb 69 bd cb 8d 0b 3d 53 6e 87 bb fd 8e 02 bc
       -0.057079196 0.03407077 -0.0041330247 -0.007968661
000060 77 40 95 bc c3 65 d2 bc 4b 0f 16 3d c3 16 11 bd
       -0.018219216 -0.02568329 0.03663568 -0.035422098
000070 ac 33 45 3d 95 99 37 3d 3d 41 68 3d e0 9f dd bc
       0.04814498 0.0448242 0.05670284 -0.027053773
000080 8c 7d 8d bc 09 cd 68 bc 07 5b bc bd ec 1f 1b 3c
       -0.01727178 -0.01420904 -0.091970496 0.00946806
000090 0c f4 0d bd d9 ca cc bc 42 c0 04 3d 9c 2d 5c bc
       -0.03465657 -0.024999069 0.032409914 -0.0134386085
0000a0 38 10 2f bc 93 16 7d 3b ad 57 6f 3d 5a 46 9f bc
       -0.010685019 0.0038618192 0.058433224 -0.019442726
0000b0 5e c7 32 bd ba e8 b5 3d bc d4 a7 bc 5c c8 75 bc
       -0.043647163 0.0888228 -0.020487182 -0.015001383
0000c0 04 ab d5 3d e9 2f 1e 3d 45 e1 80 3b 83 f3 bd 3b
       0.10433009 0.03861991 0.003933104 0.005796851
0000d0 fd ed 05 bc a4 bf b5 bd 00 06 eb 3d dc df 5d 3d
       -0.008174417 -0.08874443 0.11475754 0.054168567
0000e0 e1 8f 9b 3d 5d b5 f5 3c 71 70 86 bc de c4 de bd
       0.07595802 0.029993707 -0.016411038 -0.10877393
0000f0 ca 85 8f 3c 31 db ca bd 0f 80 df 3d db 36 6b bd
       0.01751985 -0.09905089 0.10913097 -0.05742536
000100 85 27 de bc ef cc 67 bd a0 0b 95 bc d3 72 19 3d
       -0.027118454 -0.056591924 -0.01819402 0.03746302
000110 f3 98 6c bc f0 cb c8 bc 85 16 e7 3c 05 df 6c bc
       -0.014440763 -0.024511307 0.02820898 -0.014457469
000120 1f 8c b5 3c e0 91 09 bd 77 42 05 bc f6 7e cc bc
       0.022161542 -0.033586383 -0.008133522 -0.024962883
000130 1e 70 aa 3c ce 19 af bc 81 0c 52 3c 19 2e c0 bc
       0.020805415 -0.02137461 0.012820364 -0.023459481
000140 c9 02 ec bc 8e a2 09 3d 7b 28 d2 bb 6a 66 3e 3d
       -0.028809922 0.03360229 -0.006413517 0.04648439
000150 e4 fd 95 3c 9a 82 84 bc ad bd 2e 3c 87 58 85 3d
       0.018309541 -0.016175557 0.010665339 0.06511026
000160 5c 99 07 3d b9 df 98 bd cb dc 7b 3d 1d 33 4c 3c
       0.03310524 -0.07464547 0.06148986 0.012463358
000170 1b 9e 28 bc 9b a6 36 ba fa 5b 00 3d a2 f3 13 ba
       -0.0102916015 -0.0006967575 0.031337716 -0.0005643909
000180 04 e9 47 3b ca 8c 16 bd eb 6b 03 bd e0 2d 30 3d
       0.0030503878 -0.03675536 -0.03208534 0.0430125
000190 04 ed b6 bd f9 f9 d8 3c 40 80 15 3b 2b 56 1a 3c
       -0.08931926 0.026486384 0.0022812039 0.009419958
0001a0 36 0a b8 bc 57 27 0f 3d 57 03 fc 3b 67 c2 ee bc
       -0.022465806 0.034949627 0.007690828 -0.029145433
0001b0 4a 67 38 bc 88 2a 88 3c a0 2e 97 3d 56 82 39 bd
       -0.011255095 0.016621843 0.0738194 -0.045290314
0001c0 36 f4 b2 bd b8 32 df bc ee 5d a3 3c cb 36 89 3d
       -0.08737986 -0.027245864 0.01994225 0.06699904
0001d0 15 26 12 3d 65 71 d2 bb fc 87 41 3d d8 d5 77 3c
       0.03568085 -0.006422209 0.047248825 0.015126668
0001e0 68 8e f7 bc ff 78 b6 bc 94 08 4d bd 09 8e f0 bc
       -0.030219272 -0.022274492 -0.05005701 -0.029364603
0001f0 16 48 d6 bb 3f 29 c2 3c 54 75 d4 bc f8 07 6f bd
       -0.006539355 0.023701308 -0.025934853 -0.05835721
000200 75 93 e0 bd 98 cb 36 3d 4c 85 fa 3c 71 56 01 3e
       -0.10965625 0.044627756 0.030581139 0.12630631
000210 14 c1 b0 bd fb a8 24 3d bf 62 38 3c 7c cd d6 3d
       -0.08630577 0.040200215 0.011254012 0.10488412
000220 86 9c c7 bc 27 b3 69 bd 49 4e b6 3c 4e 12 11 3c
       -0.024366628 -0.05705562 0.022254126 0.008854462
000230 c8 8c 3c 3d 18 36 94 3c 7f 90 02 3e bd 98 bc bc
       0.046032697 0.0180922 0.12750433 -0.02302205
000240 d1 c2 e2 bd 3f 5e 63 b9 82 c9 ab bd 57 2f 6d 3d
       -0.110723145 -0.00021683516 -0.08388044 0.057906475
000250 13 53 85 bc 2c 98 52 3d 37 4d 96 3d fb 61 a4 3d
       -0.016274964 0.051414654 0.07338946 0.08026501
000260 32 15 8a 3d 36 95 88 3c 29 8e 7e 3d 21 7f 83 3d
       0.06742324 0.016672712 0.062147293 0.06420732
000270 81 c8 26 bd bf ac 87 3d 05 e9 3d bd 70 a7 35 bc
       -0.04071856 0.066247456 -0.046364803 -0.0110872835
000280 bb 8a ea 3b f6 90 0e bd 01 3c 94 3c a8 bd 6c bd
       0.0071576512 -0.034806214 0.018095018 -0.057798058
000290 c8 a1 6b 3d 27 db 5f bd e7 b8 32 bc f3 37 97 3d
       0.057527333 -0.05465236 -0.010908342 0.07383718
0002a0 bf e6 79 3d 03 b5 2e 3e cb 99 78 bc 74 e2 06 3d
       0.061011072 0.17061238 -0.015173386 0.032930806
0002b0 35 cb 3a 3d e1 66 00 bd 27 9b 86 bd c9 79 4a 3d
       0.04560395 -0.031348113 -0.06572562 0.04943255
0002c0 45 7f 14 bc 08 5a af 3c 37 a2 c2 3c 5b 7b 7d bd
       -0.009063547 0.021405235 0.02375899 -0.06188522
0002d0 f0 27 0a 3d 3e 62 9e 3d ee 4c 86 bd 3b 90 8f 3c
       0.033729494 0.07733582 -0.06557642 0.01752483
0002e0 a1 24 b0 bd a4 dc a0 3d a8 73 92 3c de 84 29 3e
       -0.086007364 0.07854584 0.017877415 0.16554591
0002f0 72 48 62 3d 19 a0 2a bd cc bd ff bd c3 47 af bd
       0.05524487 -0.041656587 -0.12487373 -0.08558609
000300 31 15 a9 bd e2 65 10 bc 2b 2a f7 3c c4 38 b9 3d
       -0.08255995 -0.008813353 0.030171474 0.0904403
000310 5a 76 2d 3d b8 bf 04 3d 4f 8c ea 3d d4 09 b2 3c
       0.042349197 0.0324094 0.11452543 0.021733202
000320 79 26 51 3d 0c 13 b0 bc 22 f1 0b 3c fc 16 05 bd
       0.05106208 -0.021493457 0.008541377 -0.032492623
000330 bc 1b 11 bd 34 b7 a1 bd 25 50 16 bd bc d1 20 3d
       -0.03542684 -0.07896271 -0.036697526 0.03926252
000340 75 15 e4 bd 30 35 22 bc 25 13 10 bd 5b 5d 16 bd
       -0.11136905 -0.009900376 -0.035174508 -0.036710124
000350 a3 56 34 3d ea dd de 3d 2c ff 0b 3d 87 fa 46 3c
       0.044027936 0.108821705 0.034178898 0.012144691
000360 cf ff 28 3c 8b 12 66 bd 00 74 aa 3d f8 4e 1b 3d
       0.010314896 -0.056170028 0.083229065 0.037917107
000370 99 70 e1 bc 0d fa 22 be 50 ed 99 bc 17 4b b0 3d
       -0.027519511 -0.159157 -0.018789917 0.08608072
000380 9b 80 14 bd e7 f0 16 3c 0a 2d 8f 3d dc 57 c2 bc
       -0.03625546 0.009212709 0.069910124 -0.023723535
000390 01 72 b0 bd 9a cd ec bc 28 f5 bd 3c 1e 4e 8c 3d
       -0.086154945 -0.028906632 0.023188189 0.06850837
0003a0 6f 30 d4 3c bd d6 b0 bd b4 42 84 bd dc 30 be 3c
       0.025902001 -0.08634708 -0.06458035 0.023216657
0003b0 2c bd 2b bc 75 45 43 3d 19 60 1b bd d3 af 4e 3d
       -0.010482114 0.04767366 -0.037933443 0.050460648
0003c0 1a 55 85 bc b0 60 2a 3c 4a 90 ea 3c 0c 5d 9b bd
       -0.016275931 0.010399029 0.028633256 -0.07586107
0003d0 3f d4 2f bd a7 af 1c 3d 97 d5 38 3c 11 4c 60 3d
       -0.042927023 0.038253453 0.011281393 0.054760043
0003e0 fb fc 21 3c 2c 72 db 3c 04 ac 4e 3d bf bc 33 3d
       0.009886975 0.02678784 0.050457016 0.043881174
0003f0 ea d6 10 bc 9e ec b1 bd 5e 3f e7 bc a7 a9 7f 3d
       -0.008840302 -0.08687709 -0.028228458 0.062417652

large_attention.to_out.bias f4 [16]
000000 2e cd 69 bc 56 9c 5b 3c e0 7c 9d 3d f0 45 22 bc
       -0.01427011 0.013403973 0.07689834 -0.00990437
000010 26 2a a6 3c 1b be 9e bd ac 99 9a 3c 04 e8 98 bd
       0.02028377 -0.077511035 0.018872105 -0.074661285
000020 d0 04 ae bc ba dc 2f 3d db d7 09 3d cd 1c 8e 3d
       -0.02124253 0.04293511 0.03365312 0.06939087
000030 0f b2 74 bb 34 e7 9e 3d 66 bc 0d be 01 35 06 3c
       -0.0037337577 0.07758942 -0.138414 0.008191348

enc_layer_large.0.weight f4 [12, 16, 3, 3]
000000 c6 8d 9a 3a a7 ac 90 3d ec 03 52 bd 2f 20 5f be
       0.0011791519 0.07064181 -0.05127327 -0.21789621
000010 52 02 50 bc 5c b4 e4 bc 2f 77 ec 3c 37 77 0e bd
       -0.012695866 -0.027918033 0.028865425 -0.03478166
000020 8d 9d 8f 3c 54 de 26 3e b4 b8 73 bd e5 78 ac bc
       0.01753118 0.16295749 -0.05950232 -0.02105374
000030 f7 d7 1d 3e c8 41 c4 bd 23 a7 76 bd d1 6d 6c 3d
       0.15414415 -0.09582859 -0.060217988 0.057721917
000040 75 16 2f 3d 91 4d 2c bd 45 93 9d 3c 12 c0 8c bd
       0.042746026 -0.04206616 0.019235263 -0.06872572
000050 aa b9 31 3b c8 ef 0c be d3 ce 62 3d d5 1b 27 bd
       0.002711872 -0.13763344 0.055373024 -0.040798027
000060 6b 5a 06 3e dd 0b 51 bd aa 4e 52 bd ad 9d 68 bc
       0.13120429 -0.051036704 -0.05134455 -0.014197749
000070 55 67 1c 3e 24 05 cb bc 9c 8a 8e 3c 5c e0 4c bc
       0.15273793 -0.024782725 0.017400078 -0.012504663
000080 28 c0 14 3a 1a ca 83 bc 39 92 30 3d 13 70 cc 3c
       0.00056743855 -0.01608758 0.0431082 0.024955785
000090 ff 08 83 3c 64 b5 bc 3c 06 87 b4 3c 3c c1 ca 3c
       0.0159955 0.023035713 0.02203704 0.024750344
0000a0 40 4a 83 3d 88 ce 93 3c 2a e3 6c 3d a9 0b 7d bd
       0.064106464 0.018042818 0.057833828 -0.061778698
0000b0 5d e6 bc 3d 9d 6c 71 3d aa bf 24 3e b9 3f 57 3c
       0.09223626 0.058941472 0.16088739 0.013137751
0000c0 6d c9 04 3d 07 94 de 3d 82 63 df bc 4a e4 7e 3d
       0.032418657 0.10868078 -0.027269129 0.062229432
0000d0 e3 88 86 3d 89 7e 0d 3d 01 43 8a 3d eb d4 60 bc
       0.06569078 0.0345445 0.06751061 -0.013722639
0000e0 ca 46 b1 bb f5 a4 70 bc d9 98 9e bd b3 00 df bc
       -0.00541005 -0.014687766 -0.07743997 -0.027222013
0000f0 ae 27 38 3c 87 3e ca bc dc b5 f1 3c 4c 06 bb 3d
       0.011239929 -0.024688018 0.029505663 0.091320604
000100 9d d3 54 bd 42 66 25 3d 9d 8e a2 bd 34 f4 39 bd
       -0.051959623 0.040380724 -0.079373576 -0.045398906
000110 b7 6f 2a bd 81 ab 92 bc 22 6e 47 3d fb c2 aa 3c
       -0.041610446 -0.017904045 0.048689015 0.020844927
000120 f9 5c 40 3e 39 09 10 3e 6e 9c a2 bc a4 0c 10 bd
       0.18785466 0.14066018 -0.019849982 -0.035168305
000130 6f 57 19 3e b2 08 f5 bc 89 be 30 bd f5 23 00 bd
       0.1497476 -0.029911373 -0.04315046 -0.03128429
000140 f1 83 55 ba 12 0c a6 bd fe 54 aa 3d 59 e9 ba bc
       -0.0008144966 -0.08107771 0.08316992 -0.022816347
000150 e9 b6 2c be 8f 37 8e bb 6e 28 05 3d ff 0a ed 3c
       -0.1686665 -0.004340119 0.03250926 0.028935907
000160 d3 f5 5c 3c 89 03 9b bc 57 1c 84 bd 06 13 0f be
       0.013486343 -0.018922584 -0.06450718 -0.139721
000170 1e cc a2 bc 47 5a fd bd d1 f8 bc bd 29 9e 2f 3d
       -0.019872721 -0.12370735 -0.092271455 0.042875443
000180 58 b8 0c 3d 33 f6 35 bd fb 5d 0d 3d aa 50 b1 bb
       0.03435549 -0.044424247 0.034513455 -0.0054112272
000190 a9 c3 f6 3c 7c c2 87 3d b6 80 c1 3d 6a ce 02 bd
       0.030122595 0.06628892 0.09448378 -0.031935133
0001a0 1d 90 f1 bc 60 98 94 3d 6c 5f 33 bd a3 a1 aa 3d
       -0.029487664 0.07255626 -0.043792173 0.08331611
0001b0 30 3d 47 bd 09 5a 27 bd bf 9f 93 bb 56 25 aa bc
       -0.048642337 -0.04085735 -0.004505127 -0.020769756
0001c0 57 89 92 3d a9 98 33 3d 96 e7 7e 3c ed c2 56 3d
       0.07155102 0.04384676 0.015558144 0.05243199
0001d0 bf bb 57 bd 84 2a 5a 3d 91 f2 50 bb 7d 5e 2a bd
       -0.052669283 0.053263202 -0.0031882862 -0.041594017
0001e0 f1 1e 1e 3e 8e 03 51 bc 87 c2 c2 3b 51 56 9a 3d
       0.1544149 -0.012757195 0.0059435996 0.07535995
0001f0 d8 b8 cf bc 5c 68 ed 3c a5 26 0a 3e 5c 0a c1 3a
       -0.025356695 0.028980426 0.13491304 0.0014727819
000200 18 7d c2 bc 21 f2 f7 3c ba f3 14 bc 2c 31 80 3d
       -0.02374129 0.030266823 -0.009091312 0.06259379
000210 27 80 3b bc 97 f3 26 bd da c7 2f 3b 03 75 2b 3e
       -0.011444128 -0.04075965 0.0026822002 0.16743855
000220 33 4a 93 bd 3b 09 3d 3d 0d 83 31 be e5 13 72 bd
       -0.07191887 0.04615138 -0.17335148 -0.059101004
000230 bd 66 5d 3d 21 b2 11 3c 89 fa 33 3d 0e ab 41 3d
       0.054053057 0.008892567 0.0439401 0.04728227
000240 cf d7 cf 3d e8 ee 30 3d 70 f6 46 bd 7c 0b c9 3d
       0.10148584 0.04319659 -0.048574865 0.098166436
000250 82 3e e1 bd 55 00 4d 3d a7 1b 8d 3d d0 e6 3e bd
       -0.109982505 0.050049145 0.0689004 -0.04660684
000260 4c 5d 34 3d 37 2b 02 3d 11 81 5d bc a6 50 2a 3d
       0.044034287 0.031779494 -0.013519541 0.04158082
000270 18 b3 44 3d 92 ba cd bd ff 7e 7e bc 15 c1 a2 3d
       0.04802236 -0.10045351 -0.015533208 0.07946984
000280 02 02 33 3b 87 1d 8e bc 46 ae 71 3d f9 83 18 3c
       0.002731443 -0.017348064 0.05900409 0.0093088085
000290 83 3c 15 3d dc 0a aa 3d 9f ce 63 3d 10 37 52 3d
       0.03643466 0.083028525 0.05561697 0.051322043
0002a0 83 86 c4 bc ff b3 1b 3b cb c9 bf 3a 73 04 31 bd
       -0.023989921 0.002375841 0.0014632283 -0.043217134
0002b0 7b fe a1 3b e8 55 26 bd d5 61 8c bc bc fa 38 bd
       0.0049436665 -0.04060927 -0.017136494 -0.045160994
0002c0 71 9b c8 3c a2 c2 9a bc 4a e4 d7 3c 1f 96 fc 3c
       0.024488183 -0.018891636 0.026353974 0.030833302
0002d0 25 57 70 3d 27 93 83 3c 85 7a 8b bd 79 c5 d4 3d
       0.058676858 0.016061379 -0.06810478 0.103892274
0002e0 80 88 85 bc 28 87 f6 bc 36 6d 88 bd d6 fa 7c 3c
       -0.01630044 -0.030093744 -0.06661455 0.015440663
0002f0 80 ff 77 3c 08 a3 55 3d 09 e6 f7 b9 75 2c 34 3d
       0.0151366 0.05215743 -0.000472829 0.04398771
000300 a4 3b 39 bb 01 4b 15 3c 34 24 94 3d e5 ef 8b 3d
       -0.0028264308 0.009112121 0.07233468 0.068328656
000310 73 cb b9 3a 71 d2 ef 3c f0 d5 33 3e 6d 7a 91 3c
       0.0014175012 0.029275151 0.1756208 0.017758572
000320 93 83 63 bb 72 be fa bd ba 1b 99 bd cc d9 47 3c
       -0.0034715876 -0.12243356 -0.074759915 0.012197923
000330 a1 45 62 bb d5 31 0a bc a4 03 10 3c 2e ea dc bd
       -0.0034526365 -0.008434732 0.0087899305 -0.10786854
000340 c0 f1 6b 3d 1b d5 30 3a 9e 3b 52 3d ea 20 d4 3d
       0.057603598 0.00067456224 0.051326387 0.1035784
000350 52 bb e6 bc c1 bc 58 bd bf f7 65 3c 2b dd b3 bb
       -0.028165493 -0.052914385 0.014036118 -0.0054890118
000360 9d e1 eb bd b3 6c 3a bc 5e de fb bd d6 49 bf 3d
       -0.11517642 -0.011378455 -0.122982726 0.09340255
000370 6a dd 2e 3b ba ce cc bd bd d8 25 bd 77 6e d9 bc
       0.0026682266 -0.100003675 -0.0404899 -0.026541932
000380 63 4e 14 bd 27 0d d0 3c 83 e2 a5 3c 8e 71 54 bd
       -0.036207568 0.025396897 0.02024961 -0.051866107
000390 b6 d4 dc 3d 01 09 97 3a eb 1b a6 3d e9 bd b5 3b
       0.10782759 0.0011523069 0.08110794 0.0055463207
0003a0 cb 9b e3 bc df 9a 1e bd 4e 8a d6 bc e3 5d 5e bd
       -0.027784249 -0.038721915 -0.026188996 -0.054288756
0003b0 56 24 6e bc 00 5b bb 3d 9b 7b 35 3e a3 bf e5 3c
       -0.01453503 0.09148216 0.17722933 0.028045481
0003c0 11 5f 36 3d a1 fd 77 bc f2 35 7d bc 02 e6 a1 bd
       0.044524256 -0.015136153 -0.015454756 -0.07905199
0003d0 3f d7 81 bd be a2 17 3d 82 f8 c5 ba 40 a9 87 bd
       -0.06339883 0.037020437 -0.0015103968 -0.06624079
0003e0 7c 28 87 3d 20 74 e2 3c 24 8e 88 3d a7 f0 82 3d
       0.06599519 0.027643263 0.06667736 0.06393557
0003f0 7d 2c 15 bc 1d b0 8f bc 87 19 c3 bd 7b c6 9d bc
       -0.009104845 -0.017540032 -0.09526353 -0.019259682

enc_layer_large.0.bias f4 [12]
000000 f2 02 31 bd a1 76 04 3d 2d 2d a0 3d 35 da ef bc
       -0.0432157 0.032339696 0.078211166 -0.029278854
000010 d4 7b dc 3d 13 ad 28 bd 16 7a 61 be ef a1 0d bd
       0.10765806 -0.04118068 -0.22019228 -0.03457826
000020 66 a1 76 bc d1 56 0e bd 4d 85 b3 3d b4 35 ab 3c
       -0.015053129 -0.034750763 0.087656595 0.020899631

dec_layer_2.0.weight f4 [12, 8, 5, 5]
000000 91 80 29 bc 39 9c 18 3d 50 24 bc 3d 72 73 29 3d
       -0.010345594 0.03725836 0.091866136 0.041369863
000010 55 6a c7 3c f5 ac ed bc cc d9 dd 3c 1b fe f1 bc
       0.024342695 -0.029013136 0.027081393 -0.029540112
000020 ee df 35 3e af 9f f8 3d 01 42 cf 3a 87 95 8f bd
       0.17761204 0.12139832 0.0015812517 -0.07010942
000030 1c 28 1f bd b3 9f 00 be 33 5d 56 bd c8 60 4b 3c
       -0.03885661 -0.1256092 -0.052334975 0.012413211
000040 85 77 f7 bc 72 51 df bb 07 f0 c7 3d ee d9 52 3b
       -0.030208359 -0.006815129 0.097625785 0.0032173353
000050 b0 dd 23 bc 37 28 ee 3c b9 f0 7f 3d be 8a a7 3c
       -0.010001585 0.02907191 0.06248543 0.0204519
000060 d2 cf 0e 39 20 42 00 3d a5 32 f3 3c c5 06 57 bc
       0.00013619594 0.03131306 0.029687235 -0.013124173
000070 0b 63 4d 3d 1a 1b 84 3d 6b f8 cf 3c cd b9 77 3c
       0.050143283 0.06450482 0.02538701 0.015119982
000080 19 b8 45 3d 71 d5 d5 3d c8 55 38 3d b2 b4 17 bd
       0.048271272 0.10441101 0.045003682 -0.03703756
000090 a4 0d 01 bc 64 45 59 3c 14 21 4f 3d 10 ad 52 bd
       -0.007876787 0.013261173 0.050568655 -0.051434577
0000a0 65 15 97 3c 54 a2 cc 3d 65 41 15 3c 43 00 97 3d
       0.018442819 0.09991899 0.00910983 0.07373097
0000b0 2c 3d 94 bd 3b af 9d 3c 24 10 4b bc dc f2 09 3e
       -0.0723823 0.019248595 -0.012393985 0.1347155
0000c0 ce 09 7f 3d c6 43 e3 bc 02 c7 85 3c a2 10 88 3c
       0.06226521 -0.027742278 0.016330246 0.016609494
0000d0 4f c2 2d bb 8a 0b b0 3c a8 53 39 3c cf 7b 7f 3d
       -0.0026513522 0.021489877 0.011311449 0.062373932
0000e0 51 fd a8 bc 22 7d 40 bd 0f 75 39 3e da fc 6c 3d
       -0.020628603 -0.046994336 0.1811106 0.057858326
0000f0 d9 d6 97 3b 84 3d 54 bd 7c 4d 9d bc 46 27 cd 3d
       0.004633766 -0.05181648 -0.019201986 0.100172564
000100 a3 68 3c 3c 58 f8 8c bb db f8 5b be 3e 58 42 3d
       0.011499557 -0.004302066 -0.2148165 0.047447436
000110 45 b1 87 bd 21 8c 46 3d 74 7b ad bc 96 49 7b bd
       -0.06625608 0.04847348 -0.021177031 -0.061349474
000120 8f 6e bd bd 81 ce 33 bd c2 5d 44 3d 77 52 d1 bb
       -0.09249603 -0.04389811 0.047940977 -0.0063880044
000130 b5 65 ba 3b 2f 14 1c 3b 7a d5 5f 3c b1 6b 37 3b
       0.005688394 0.0023815741 0.013661737 0.0027987773
000140 ec e4 fd 3c a7 6c af 3c 16 1d 77 3c 4c 45 2e 36
       0.030992948 0.021414114 0.015082618 2.5968357e-06
000150 9e 6d 2f 3d a3 a1 b2 3c 7a 14 8b ba 2a 1b 2c bc
       0.04282915 0.02180559 -0.0010610961 -0.010504523
000160 ac 3c b5 3d c2 7a da 3c 4f 2f 15 3d 11 c5 ec 3d
       0.08849463 0.026669864 0.03642207 0.11561025
000170 b8 ab 11 bb 8e bb a0 bc 92 10 16 3c d0 37 8c 3c
       -0.0022227596 -0.019620683 0.009159224 0.017116457
000180 b8 68 59 3d 13 86 39 3d 1e 75 be bc 4d 46 11 bc
       0.053078383 0.04529388 -0.023249205 -0.008866859
000190 15 24 50 3a 8b d8 e3 3b cb b0 c1 3b 24 da 27 bc
       0.0007939947 0.006953304 0.005910968 -0.01024488
0001a0 d1 7c 82 bb 6d b2 d1 bb a2 0d e9 3c 09 b2 16 bd
       -0.0039821644 -0.006399444 0.028448883 -0.03679088
0001b0 53 97 37 3a 26 67 0b 3d 1d 9f c6 3b e2 aa 14 bd
       0.0007003445 0.034033917 0.0060614482 -0.03629578
0001c0 a4 0f 82 bc 80 f6 9a 3c 17 3e cb bc ca 28 a2 3c
       -0.015876599 0.018916368 -0.02480988 0.01979484
0001d0 ec fd d3 3d 8e b5 00 3e ad 65 ea 3d 64 ba aa 3c
       0.10351166 0.12569258 0.11445174 0.020840831
0001e0 bc 6c 2c 3c e3 cf 5f 3d f1 98 f3 3d d6 fa 77 3d
       0.010523971 0.054641616 0.11894406 0.06054195
0001f0 62 8f e4 3a 44 dc 3a 3b a0 d3 75 bc 6c d2 23 bd
       0.0017437751 0.0028512636 -0.015004069 -0.039995596
000200 97 54 71 bb b7 23 0c bc d4 2b 5d 3c c9 13 f8 bb
       -0.00368241 -0.008553437 0.013499219 -0.007570718
000210 cc 30 36 3d 32 11 ac 3c ad 55 7e 3d 19 c5 88 bc
       0.04448013 0.021004293 0.062093426 -0.016695546
000220 97 cf 5d 3c 88 5b 86 3c 88 5b 9d 3d 07 e5 11 bb
       0.013538263 0.016401067 0.07683474 -0.0022261755
000230 35 1a 40 bc 63 b1 e5 3c 69 4d 1b be c5 87 c9 3d
       -0.011724998 0.028038686 -0.15166248 0.09840349
000240 5f 53 63 3c 47 04 86 bb 24 de 7f 3d a9 f3 46 3e
       0.013874858 -0.0040898654 0.06246771 0.19428886
000250 fa 01 a3 3d 74 c0 53 bb 62 8e d4 bc be 90 14 bd
       0.079593614 -0.0032310756 -0.0259468 -0.03627085
000260 19 c7 b7 bc b5 b9 01 bc 67 ff b4 3c 55 7c 9e bc
       -0.022433804 -0.007917811 0.022094442 -0.019346396
000270 bc 94 6e bd e5 36 99 bb d6 5d 31 3c 60 45 90 3c
       -0.058247313 -0.0046757334 0.010825595 0.017611206
000280 23 4a a8 3b e3 1b a0 bd c3 9c 1d bd ff 69 14 3d
       0.005135791 -0.07817819 -0.038479578 0.0362339
000290 41 68 ae 3c d9 48 f3 bc 61 9e 69 bd 5f 7d fc bd
       0.021289947 -0.029697822 -0.057035808 -0.123286
0002a0 29 14 05 bc 24 f8 ac bb 5c 5e 8a bc f7 cb a2 bc
       -0.008122482 -0.005278604 -0.016890697 -0.019872649
0002b0 3f 6c a5 bc f5 eb 31 bd 6f 22 37 bd c1 a1 cd bb
       -0.020193217 -0.043437917 -0.044710573 -0.006275386
0002c0 dc 75 68 bc e4 af 5e bc d7 b8 7f 3c 94 8c 8a 3c
       -0.014188256 -0.01359174 0.015608034 0.016912736
0002d0 c8 9f 2e bc 73 e3 08 3d 3d 08 98 3d fb 1e 80 3d
       -0.010658212 0.033420037 0.07423446 0.06255909
0002e0 30 b9 db 3d 00 ee 01 3c 87 32 d9 bd c7 37 bf bc
       0.10728681 0.007930279 -0.106053405 -0.023342026
0002f0 00 38 c7 3d f6 34 ef 3c 50 ba b8 3c e7 ec f8 3d
       0.09727478 0.029200058 0.022549778 0.121545605
000300 a2 3d 8c 3d bc cb 98 3d 56 a9 19 3d 87 1f b3 3c
       0.06847693 0.07460734 0.037515007 0.02186562
000310 34 3e 11 3d 41 e3 a9 3d 59 e2 58 3d f4 d9 ba 3c
       0.035459712 0.08295298 0.052950237 0.022809006
000320 9b aa 65 3b a3 9c de bd 5e b6 1a 3d 07 ab 72 bc
       0.0035044316 -0.1086972 0.037771575 -0.014811284
000330 3d 20 7d 3a de 76 14 bc 5f 02 28 bd 25 e6 49 bd
       0.0009655988 -0.009061543 -0.041017886 -0.04929175
000340 cb b4 3f 3d 23 bd ea bc 02 01 b3 3c 70 6f e0 39
       0.046803277 -0.02865464 0.021851066 0.00042807637
000350 a4 c9 45 3d b2 a5 0a 3e 28 26 07 3e 43 64 4b bd
       0.048288003 0.1353977 0.13198149 -0.049656164
000360 86 32 05 3e f8 6c e7 bd 02 50 c2 bd 6a 69 47 bd
       0.13007554 -0.11300081 -0.094879165 -0.048684515
000370 55 97 e3 3c 4b ab 32 bd ff cd 81 bd 17 3d ec bd
       0.027782122 -0.04362039 -0.06338119 -0.115350895
000380 be 4d 8a bd a8 6b 83 bd 14 6a d4 bb a2 0a e5 3b
       -0.067531094 -0.06417018 -0.006482372 0.006989793
000390 18 4c b2 bc 2f e7 ce 3c dc 62 ee bd 18 9b 3c 3d
       -0.0217648 0.025256721 -0.1163995 0.046046346
0003a0 62 d5 1e bd 08 58 9c 3c bf 54 0e bb f4 d6 2f bd
       -0.038777716 0.019084945 -0.0021717993 -0.042929605
0003b0 4c bb a3 3b e0 4c b8 bd e4 ec 13 bd d9 56 68 bd
       0.0049966928 -0.08999038 -0.03611459 -0.05672345
0003c0 3e 59 01 bd f5 d8 84 3b d5 10 71 bd ec 07 8a 3b
       -0.03157925 0.0040541836 -0.058853943 0.00421237
0003d0 b7 de 3b be 5b e1 8f 3c a3 ba c1 bd cb 97 b3 bc
       -0.18346678 0.017563513 -0.09459426 -0.021922966
0003e0 ae b8 c3 bc ac 89 17 be a6 e1 50 bc 16 78 58 bd
       -0.023891773 -0.14798611 -0.012749111 -0.052848898
0003f0 69 b5 4a bc a1 fe be 3c d2 0c 2e bd 12 b6 b6 3c
       -0.012372353 0.023314776 -0.042492695 0.022303615

dec_layer_2.0.bias f4 [8]
000000 4d 86 3b bd 71 31 13 bc a7 a9 85 3b e5 eb 0c 3d
       -0.045782376 -0.008983956 0.004079062 0.034404654
000010 e4 b7 ca 3c d6 20 94 bc 59 97 be 3d 9d 77 b0 bc
       0.024745889 -0.018082064 0.09306211 -0.021541411
