save/large_attn/gen_model.pt (torch, 117796 bytes, 13 tensors)

enc_layer_1.0.weight f4 [32, 3, 5, 5]
0.09107744 0.10381614 -0.048604395 0.07652523 0.07668592 0.017051166 0.109395415 0.118256256
0.12980084 -0.07887992 0.08114671 -0.046364672 0.030171253 -0.06716426 -0.08134536 0.112931445
0.11440874 -0.010610219 0.056396365 -0.085039414 0.07054587 0.10782902 -0.074507296 0.12392226
0.014270047 0.122857094 0.014856845 0.030090267 -0.03389131 -0.0044400473 -0.050938785 -0.10164604
0.039149623 0.022599563 0.014313377 -0.07071735 -0.0121828 0.09442722 0.05032156 -0.049673416
-0.046496402 0.069165595 0.05521434 0.008603164 0.10112526 0.108696595 0.023645526 0.111844316
-0.097541764 0.038858972 0.046151605 0.054253083 0.0682496 -0.029333843 0.03915782 0.071598835
-0.049337704 0.08857122 0.012468501 0.0483372 -0.029538393 -0.053070407 -0.06966884 -0.06916534
0.0099250395 0.10702929 0.046090256 0.0807333 0.035437077 0.1034226 -0.025109978 -0.055633895
-0.1054492 0.08979256 0.07649372 -0.05565611 0.11161312 0.03330383 0.10629363 0.024229372
0.116583146 0.094993375 -0.073344074 0.025986508 0.115242444 -0.08064411 -0.07777653 0.079822615
0.049182117 0.06131286 0.018445984 0.09893331 0.122677594 -0.06699432 -0.07937446 -0.061970957
-0.04861976 -0.0020462244 0.11644692 -0.005698351 0.068396546 -0.021141749 0.0721887 -0.028818013
-0.018364212 -0.032372907 0.03764616 0.07199944 -0.08187611 0.07728052 0.10203712 0.015154242
0.002231545 0.029812727 -0.09114824 0.047068615 -0.052623596 -0.08649063 0.105235524 -0.06643536
-0.0651761 -0.11455511 0.040567208 -0.05520187 0.00801329 0.056863368 -0.039068285 0.09836601
-0.04498985 0.06433096 -0.04291815 -0.022074126 -0.039914552 0.042321555 0.009122077 -0.0147056505
-0.047364943 -0.038797673 0.06274718 -0.11182964 0.08817384 0.006614225 -0.098317444 -0.009159507
0.039331615 -0.020055413 0.03952278 0.0509346 0.0069474727 -0.09570765 0.074986234 -0.03440873
0.09965318 -0.12389115 -0.019600581 -0.096701495 -0.024981858 0.08324401 -0.08469338 0.018905856
0.10766788 0.04529767 -0.05774326 0.11243482 -0.044249408 0.031230662 -0.10345987 -0.0011653013
-0.08517084 -0.09429162 0.096188806 -0.06993563 -0.11458249 -0.06795148 -0.049164176 -0.075100355
-0.043697745 0.005618601 0.018103572 -0.043239467 0.056267135 -0.048801217 0.03656202 0.022942891
0.061005846 -0.07097835 0.11808893 0.019467061 -0.05271885 0.12169503 -0.054339927 -0.020046575
0.01067513 0.025429783 -0.057574715 -0.100634314 0.09861307 0.028769283 0.060340226 0.070755005
0.07856767 0.025903434 -0.032152582 -0.03597772 -0.0695006 0.006080963 0.103771865 -0.025416622
0.006863891 -0.013435619 -0.056424875 -0.047551643 -0.089403845 -0.037619554 0.12195185 0.08063298
0.11058831 0.08496561 0.06364038 -0.01221291 0.0029849007 0.111754365 -0.0136621315 0.025562694
0.010296842 0.04263401 0.007255595 -0.06299003 0.10470138 -0.04101628 0.08539826 -0.005216941
0.0939996 0.0765703 0.12480498 -0.08291801 0.09026659 0.077010766 0.00081912207 -0.065624505
0.09695602 -0.043528423 0.0015690419 -0.057579387 -0.025116697 0.016470548 0.03429585 -0.08056807
0.049389057 0.048871957 0.024934664 -0.014042496 0.11233901 0.04803753 0.09659453 0.10516462
00000000: cf86 ba3d 8e9d d43d 6715 47bd 43b9 9c3d
00000010: 820d 9d3d e3ae 8b3c b40a e03d 5630 f23d
00000020: 83ea 043e cc8b a1bd 3f30 a63d e2e8 3dbd
00000030: b429 f73c 6a8d 89bd 6598 a6bd 9a48 e73d
00000040: 214f ea3d 7cd6 2dbc e0ff 663d 2529 aebd
00000050: 5a7a 903d 76d5 dc3d 4897 98bd f4ca fd3d
00000060: eacc 693c 809c fb3d 206a 733c dd7f f63c
00000070: 9dd1 0abd d17d 91bb 30a5 50bd cd2b d0bd
00000080: 5b5b 203d b822 b93c a882 6a3c 42d4 90bd
00000090: 5e9a 47bc 0f63 c13d fb1d 4e3d 5a76 4bbd
000000a0: 0373 3ebd b1a6 8d3d 6f28 623d 49f4 0c3c
000000b0: c31a cf3d 529c de3d 43b4 c13c a20e e53d
000000c0: fac3 c7bd 962a 1f3d 7709 3d3d 7b38 5e3d
000000d0: 72c6 8b3d 874d f0bc f363 203d 69a2 923d
000000e0: 5516 4abd d464 b53d af48 4c3c 3afd 453d
000000f0: 80fa f1bc 5b60 59bd 89ae 8ebd 8fa6 8dbd
00000100: a29c 223c 2c32 db3d 23c9 3c3d 8057 a53d
00000110: 7826 113d 3acf d33d 71b3 cdbc 5ee0 63bd
00000120: c0f5 d7bd 29e5 b73d bda8 9c3d a9f7 63bd
00000130: 6b95 e43d 9969 083d 7ab0 d93d ad7c c63c
00000140: 25c3 ee3d e38b c23d 6b35 96bd a8e1 d43c
00000150: 3b04 ec3d bd28 a5bd 4d49 9fbd 0a7a a33d
00000160: 3073 493d 3223 7b3d 081c 973c 8c9d ca3d
00000170: 643e fb3d 5134 89bd 148f a2bd 42d5 7dbd
00000180: 8325 47bd f319 06bb b97b ee3d 3cb9 babb
00000190: 7d13 8c3d 7631 adbc abd7 933d c113 ecbc
000001a0: 8b70 96bc 7499 04bd dc32 1a3d 7174 933d
000001b0: a9ae a7bd 4045 9e3d d6f8 d03d 7f49 783c
000001c0: 1d3f 123b d239 f43c eeab babd 05cb 403d
000001d0: d78b 57bd 0022 b1bd b985 d73d 430f 88bd
000001e0: 0c7b 85bd df9b eabd cd29 263d 5b1b 62bd
000001f0: 2d4a 033c 90e9 683d 1106 20bd 1e74 c93d
00000200: 4747 38bd f3bf 833d f1ca 2fbd ccd4 b4bc
00000210: 717d 23bd 5e59 2d3d c474 153c f8ef 70bc
00000220: be01 42bd 4fea 1ebd 9881 803d f006 e5bd
00000230: 7c94 b43d 24bc d83b a85a c9bd c211 16bc
00000240: 301a 213d 404b a4bc a3e2 213d cda0 503d
00000250: a0a7 e33b 5f02 c4bd 6292 993d 2bf0 0cbd
00000260: f716 cc3d a5ba fdbd 6691 a0bc 6f0b c6bd
00000270: c1a6 ccbc d67b aa3d b973 adbd 74e0 9a3c
00000280: fa80 dc3d 0d8a 393d 3284 6cbd 3a44 e63d
00000290: de3e 35bd 72d7 ff3c c5e2 d3bd 06bd 98ba
000002a0: 0d6e aebd f71b c1bd a3fe c43d 693a 8fbd
000002b0: 39aa eabd 252a 8bbd 6060 49bd 37ce 99bd
000002c0: 68fc 32bd 3e1c b83b f14d 943c de1b 31bd
000002d0: 5e78 663d c9e3 47bd 0fc2 153d bbf2 bb3c
000002e0: 44e1 793d 195d 91bd 9cd8 f13d 6379 9f3c
000002f0: b9ef 57bd 3e3b f93d 8b93 5ebd b738 a4bc
00000300: bee6 2e3c 1f52 d03c 77d3 6bbd 5d19 cebd
00000310: a6f5 c93d 8fad eb3c 5027 773d 00e8 903d
00000320: 16e8 a03d 7033 d43c 6db2 03bd 605d 13bd
00000330: 5556 8ebd d142 c73b 5886 d43d 8536 d0bc
00000340: 7eea e03b 1221 5cbc c51d 67bd 83c5 42bd
00000350: 5d19 b7bd f616 1abd e4c1 f93d e722 a53d
00000360: 207c e23d 7302 ae3d e355 823d a818 48bc
00000370: 539e 433b 79df e43d 22d7 5fbc db68 d13c
00000380: 16b4 283c 00a1 2e3d 58c0 ed3b eb00 81bd
00000390: ad6d d63d b000 28bd 48e5 ae3d dff2 aabb
000003a0: dd82 c03d e4d0 9c3d c199 ff3d ebd0 a9bd
000003b0: b1dd b83d d2b7 9d3d 5aba 563a 2466 86bd
000003c0: e190 c63d dc4a 32bd 4fa8 cd3a 5dd8 6bbd
000003d0: 88c1 cdbc 3eed 863c ce79 0c3d df00 a5bd
000003e0: 2e4c 4a3d f62d 483d c843 cc3c 7f12 66bc
000003f0: ff11 e63d 00c3 443d 5ad3 c53d 8c60 d73d

enc_layer_1.0.bias f4 [32]
-0.015239966 -0.088627644 0.13336588 -0.028966663 0.10060368 -0.12660892 0.10963181 0.07446151
0.033731245 -0.021688659 -0.009143727 0.07475855 0.027571023 -0.055851243 -0.05984076 0.0950155
-0.04446398 -0.036306042 0.09024601 -0.06632255 -0.086339094 0.070602305 -0.028215379 -0.017602643
0.11095982 0.046266258 0.086122915 -0.056511246 0.11834321 -0.072868444 0.05640379 -0.12992418
00000000: 0db1 79bc 6982 b5bd 1191 083e 7f4b edbc
00000010: 4d09 ce3d c5a5 01be a486 e03d 477f 983d
00000020: c629 0a3d 6aac b1bc 92cf 15bc 031b 993d
00000030: a0dc e13c 46c4 64bd 961b 75bd 7d97 c23d
00000040: dd1f 36bd a5b5 14bd e6d2 b83d 1ed4 87bd
00000050: 8dd2 b0bd f197 903d f023 e7bc 6b33 90bc
00000060: e73e e33d b081 3d3d 3661 b03d 5678 67bd
00000070: ed5d f23d 0d3c 95bd a907 673d d80a 05be

enc_layer_2.0.weight f4 [16, 32, 3, 3]
-0.014011002 0.050342444 -0.044412322 -0.059300557 -0.038759768 -0.025992317 -0.023172267 -0.0073849135
0.024732506 -0.05395236 -0.021437986 -0.044554256 -0.111056946 -0.048216328 0.012188833 -0.033345494
-0.023048352 -0.05221005 -0.043088816 -0.0282371 -0.09088189 -0.016671745 -0.05516969 -0.010257006
-0.01012431 -0.012565673 -0.09010851 0.005587693 0.030919515 -0.018301949 0.04658731 0.0037339814
-0.045722883 0.022279784 0.032775335 0.048328646 0.041590434 0.07523351 0.029602336 -0.045473628
-0.01574053 0.03756055 -0.02816931 -0.025354031 -0.05335724 -0.05315451 0.02378078 -0.04775633
-0.057462234 -0.013425439 -0.011585668 0.005184647 -0.02384552 -0.05218194 -0.0149645815 0.03887037
-0.041653033 0.06116132 0.04913685 -0.03739986 0.041976277 0.06478132 0.019481339 -0.032735195
0.10302974 -0.0097545525 -0.07300938 0.010613989 0.024933415 -0.038023032 0.04965417 0.031988364
0.034279235 0.05136535 0.10243099 0.02387478 -0.008346476 0.020685295 -0.015247304 -0.0020832985
0.05322144 -0.06467968 -0.08323532 -0.016041696 -0.011513536 -0.048607804 0.043902457 -0.045579858
0.025439719 -0.015392892 -0.004699419 -0.07683279 -0.039355736 -0.04682657 0.033665497 -0.028312337
0.047229417 -0.05567328 -0.02689174 0.0031532038 -0.016155317 0.005211581 0.019955188 -0.022484068
-0.005020177 -0.030950159 -0.044753466 0.048186023 -0.0005964747 -0.054380126 -0.014242073 0.04924515
0.04199695 -0.018854756 0.053953156 0.058973555 0.00056426803 0.008798731 -0.008701071 0.0362901
0.024882322 -0.013747542 -0.04033611 -0.056538858 -0.033926133 -0.065342695 0.0034143736 0.0142634725
-0.038218822 -0.0036523615 -0.029022118 0.043910794 -0.047173858 0.035062212 -0.03899997 -0.008755411
-0.035641164 -0.029051023 -0.030228587 0.0058413413 0.0046936204 -0.0062951515 0.073069714 0.0072472296
0.054008685 -0.039913584 0.013830053 0.036155913 -0.02461519 0.022358777 0.016030736 0.0042158733
-0.0128444 0.012469402 -0.0051057087 0.033092517 -0.003479033 -0.07187869 0.038890988 0.053457394
0.028040595 -0.015738185 -0.040511142 0.013754515 0.044939075 0.03323852 0.048904244 0.044459086
0.021019308 0.06608365 -0.0114087 0.025042564 0.011147877 0.008098902 0.012386148 0.07705699
0.07865511 0.02230456 0.03654855 0.08488609 -0.06874474 0.002263384 -0.035704024 -0.03165719
0.001068946 0.026237871 -0.047889855 -0.030939875 0.0178453 0.014547128 0.054138005 0.0499238
-0.010232783 0.002571199 0.018774416 0.0733858 0.020789996 -0.03739519 0.04604845 0.060731016
0.050033912 0.09405829 0.023591973 0.060150813 0.061776023 0.041673105 0.027325578 -0.001253913
-0.0058283405 -0.025157873 -0.11531086 -0.010933541 0.0016533026 -0.04380398 -0.0045293183 -0.033041064
-0.106170945 -0.11445109 -0.12969267 0.027078716 0.0070187794 -0.0258794 -0.04951151 -0.041719448
-0.0036948235 -0.1211582 -0.007845814 -0.060610443 -0.11339035 -0.034206826 0.003754939 -0.11471148
-0.027459607 -0.031566314 0.123047605 0.029003892 0.032974012 0.07194176 0.08099659 0.026928913
0.071978986 0.048764072 -0.0037578128 0.007281625 0.0065549524 -0.029286707 0.015086744 0.01348469
-0.025583845 -0.004298432 -0.027350921 -0.024512501 0.038361665 -0.017115824 0.0036694861 -0.031332973
00000000: 678e 65bc e133 4e3d b2e9 35bd 24e5 72bd
00000010: 90c2 1ebd d7ed d4bc c4d3 bdbc 25fd f1bb
00000020: d39b ca3c 26fd 5cbd b79e afbc 867e 36bd
00000030: d371 e3bd 7c7e 45bd acb3 473c 4995 08bd
00000040: e6cf bcbc 35da 55bd e67d 30bd 7e51 e7bc
00000050: 4920 babd 2f93 88bc 9df9 61bd 000d 28bc
00000060: 6fe0 25bc 41e0 4dbc cf8a b8bd f718 b73b
00000070: ec4a fd3c f8ed 95bc 56d2 3e3d d0b5 743b
00000080: eb47 3bbd 1884 b63c 6e3f 063d 42f4 453d
00000090: bb5a 2a3d 0714 9a3d 9980 f23c 8e42 3abd
000000a0: 49f2 80bc 17d9 193d 53c3 e6bc 42b3 cfbc
000000b0: 1f8d 5abd 8bb8 59bd e9cf c23c 249c 43bd
000000c0: 855d 6bbd 5ff6 5bbc d0d1 3dbc f9e3 a93b
000000d0: ae57 c3bc bbbc 55bd 012e 75bc 8936 1f3d
000000e0: 5f9c 2abd 4b84 7a3d b943 493d 9830 19bd
000000f0: 51ef 2b3d 12ac 843d 5497 9f3c 5715 06bd
00000100: 4201 d33d 8fd1 1fbc f185 95bd 4ce6 2d3c
00000110: 2941 cc3c 0abe 1bbd 2c62 4b3d 3b06 033d
00000120: 6268 0c3d 7964 523d 57c7 d13d 0b95 c33c
00000130: a8bf 08bc 3574 a93c d4cf 79bc f387 08bb
00000140: bafe 593d c876 84bd 4877 aabd e069 83bc
00000150: 45a3 3cbc fa18 47bd 10d3 333d f2b1 3abd
00000160: f566 d03c 7832 7cbc 95fd 99bb 835a 9dbd
00000170: 7b33 21bd 38cd 3fbd d5e4 093d 46ef e7bc
00000180: a273 413d aa09 64bd 114c dcbc fba5 4e3b
00000190: 2858 84bc e9c5 aa3b 1079 a33c 8230 b8bc
000001a0: 4c80 a4bb 308b fdbc 694f 37bd b55e 453d
000001b0: bd5c 1cba b2bd 5ebd 9557 69bc 48b5 493d
000001c0: fe04 2c3d 4a75 9abc fcfd 5c3d 418e 713d
000001d0: 63eb 133a 8d28 103c f08e 0ebc eea4 143d
000001e0: 03d6 cb3c 5f3d 61bc 7a37 25bd 4a95 67bd
000001f0: 21f6 0abd 64d2 85bd afc3 5f3b 57b1 693c
00000200: 578b 1cbd 755c 6fbb cbbf edbc cedb 333d
00000210: 6039 41bd 659d 0f3d 6fbe 1fbd db72 0fbc
00000220: 78fc 11bd 69fc edbc f1a1 f7bc b968 bf3b
00000230: f1cc 993b 8f47 cebb 93a5 953d 2b7a ed3b
00000240: 3638 5d3d 6d7c 23bd 7297 623c 3918 143d
00000250: cca5 c9bc c129 b73c e452 833c 4f25 8a3b
00000260: 5171 52bc 764c 4c3c ca4d a7bb 058c 073d
00000270: 7d00 64bb 2235 93bd 284c 1f3d 24f6 5a3d
00000280: 64b5 e53c 5eed 80bc 03ef 25bd 9e5a 613c
00000290: 0912 383d 1d25 083d d14f 483d bb1a 363d
000002a0: af30 ac3c dd56 873d 8eeb 3abc 1026 cd3c
000002b0: 96a5 363c 42b1 043c 45ef 4a3c 0ed0 9d3d
000002c0: ee15 a13d 0db8 b63c efb3 153d c2d8 ad3d
000002d0: 0bca 8cbd 4855 143b 623e 12bd f8aa 01bd
000002e0: e01b 8c3a cef0 d63c 2728 44bd 9f75 fdbc
000002f0: 4e30 923c 1457 6e3c d0bf 5d3d e67c 4c3d
00000300: 67a7 27bc 9081 283b cecc 993c 4b4b 963d
00000310: c84f aa3c b32b 19bd 4d9d 3c3d 16c1 783d
00000320: 5cf0 4c3d a2a1 c03d f443 c13c b360 763d
00000330: db08 7d3d 6bb1 2a3d e4d9 df3c 575a a4ba
00000340: aafb bebb e217 cebc 1a28 ecbd 9822 33bc
00000350: a1b3 d83a cd6b 33bd ad6a 94bb 1156 07bd
00000360: 2770 d9bd 5565 eabd 28ce 04be 2fd4 dd3c
00000370: cafd e53b 0901 d4bc 95cc 4abd 03e2 2abd
00000380: da24 72bb ca21 f8bd bb8b 00bc a842 78bd
00000390: 3339 e8bd 751c 0cbd 6c15 763b daed eabd
000003a0: f8f2 e0bc ae4b 01bd 6200 fc3d 9299 ed3c
000003b0: c20f 073d 3456 933d 8ae1 a53d 069a dc3c
000003c0: b869 933d d6bc 473d a345 76bb b39a ee3b
000003d0: edca d63b adea efbc 642e 773c e4ee 5c3c
000003e0: 3695 d1bc dcd9 8cbb 0a0f e0bc 71ce c8bc
000003f0: 1f21 1d3d 7c36 8cbc c37b 703b 0157 00bd

enc_layer_2.0.bias f4 [16]
0.06003714 -0.02221466 -0.03425902 -0.09830012 -0.046952143 0.06823177 0.024011122 0.018796546
0.030379571 0.0427643 -0.032002322 0.04137239 0.025807085 -0.024097048 -0.09848388 0.0076569393
00000000: 81e9 753d 85fb b5bc 3053 0cbd 9351 c9bd
00000010: e450 40bd 19bd 8b3d f9b2 c43c 37fb 993c
00000020: 94de f83c 9e29 2f3d de14 03bd 1876 293d
00000030: 6169 d33c 2c67 c5bc ebb1 c9bd 10e7 fa3b

large_attention.to_qkv.weight f4 [768, 16, 1, 1]
0.16873461 -0.1403247 -0.1643317 -0.16560464 0.12826844 0.032893 -0.24067359 0.24702987
-0.03473992 -0.13046737 0.1583532 0.14050537 -0.112063006 0.19207084 0.012089236 0.065094285
-0.15045398 0.16603842 -0.10120332 0.23061763 -0.117892586 0.114688516 0.17562495 -0.1212645
-0.1579716 0.15265769 -0.116012044 0.026632478 -0.06392766 -0.060966566 0.10836778 -0.02038282
-0.0700372 0.24037005 -0.056546114 0.21996711 -0.12000362 0.25243464 0.022563037 0.061350852
0.24688382 0.20295845 -0.09599721 -0.24145663 0.06844229 -0.087779455 0.084467374 0.06680335
-0.072025895 0.1255763 0.11968268 -0.119055316 0.17616744 -0.21738136 0.19701634 -0.10619021
0.109911524 0.24542236 0.17900768 0.07986883 0.10542565 0.11811596 0.078964494 -0.1300621
-0.09878829 0.13646266 -0.16883048 0.10056518 0.05182835 -0.1830478 0.22501224 0.027236864
0.18213065 -0.0032059716 -0.10369092 0.16614872 0.21988776 -0.23752654 -0.22282498 -0.18778796
0.24026304 -0.04639412 0.13794419 0.18203175 -0.105380334 0.22933157 -0.09677882 -0.09052254
0.15453885 0.23845091 -0.055478144 -0.11285073 -0.07832052 -0.023763347 0.07503534 0.2510497
0.19180816 0.09211313 0.24329983 -0.028251747 0.07216209 0.08445723 -0.17530264 -0.025174199
-0.18062618 -0.17527577 -0.2422875 0.2382229 -0.0008305129 0.21606714 0.09550989 0.19578369
-0.023494992 -0.049155112 0.10110319 -0.2286405 -0.18888317 -0.059528366 0.11914126 0.20846872
0.024726184 0.12387376 0.04077977 -0.14894316 0.08409531 0.17307743 0.1745878 -0.1822963
0.006544793 0.15942201 0.18131919 -0.2316454 0.0025607173 0.16886416 0.013939221 0.07987946
-0.2221704 -0.02366774 -0.17111388 -0.058894366 0.20336428 -0.19901851 0.017135104 0.08448126
0.22733861 0.19017532 0.043144662 -0.07286231 -0.08304566 0.21361773 0.13236207 -0.09272003
0.055731807 0.17579864 -0.123353146 -0.11925828 0.19732706 0.07856222 -0.15313351 -0.037629377
-0.21651787 -0.17729363 -0.21071656 -0.22727753 -0.0073737493 0.03329207 0.14885786 -0.20227838
0.21546507 0.08630837 0.15296139 -0.18215717 0.030467033 0.1432811 -0.20213822 0.18116854
0.053428143 -0.18637636 0.24901319 -0.22513641 0.0708373 -0.120651305 -0.027544474 -0.22985418
-0.11170885 0.16129142 0.13848883 -0.003088355 0.15024453 -0.19194505 -0.017348493 0.24490531
-0.25067466 -0.13041432 0.21011002 -0.10198935 0.09018666 -0.18448405 0.13441668 -0.04145656
0.18264592 -0.17560735 -0.066061385 -0.08649351 -0.1528131 0.22087926 0.100626744 -0.19132555
-0.1913549 0.21221496 0.014605673 -0.018141687 -0.11992349 -0.00064046076 -0.23253098 0.066994034
0.25643426 0.1268129 0.1030443 0.12687783 0.05703398 0.18096836 0.018498609 0.1420943
0.14668828 0.14349012 0.14123197 0.15126266 -0.07292019 -0.007894143 -0.07290994 0.23034008
-0.16591562 0.114343874 -0.17551973 -0.029652903 0.010228389 -0.12745953 -0.10111581 -0.22154732
-0.19373322 0.11361689 0.067102656 0.18561722 0.07189482 0.05405579 0.17936356 -0.079210185
-0.17620096 -0.022884399 -0.21197422 0.1824978 0.043216027 -0.18455002 -0.15947115 0.10197255
00000000: c4c8 2c3e 47b1 0fbe 9246 28be 4394 29be
00000010: cd58 033e cfba 063d 2373 76be 66f5 7c3e
00000020: 724b 0ebd 3d99 05be 5727 223e a4e0 0f3e
00000030: 4a81 e5bd 38ae 443e ee11 463c 2750 853d
00000040: 9c10 1abe fa05 2a3e b043 cfbd 0727 6c3e
00000050: ab71 f1bd d0e1 ea3d 07d7 333e 8659 f8bd
00000060: 4fc3 21be 4c52 1c3e b997 edbd 5b2c da3c
00000070: 81ec 82bd 14b8 79bd edef dd3d dff9 a6bc
00000080: aa6f 8fbd 9123 763e e69c 67bd 0f3f 613e
00000090: 75c4 f5bd 1d3f 813e 1ed6 b83c 084b 7b3d
000000a0: 1dcf 7c3e 57d4 4f3e 2f9a c4bd 6840 77be
000000b0: 792b 8c3d b7c5 b3bd 3bfd ac3d 32d0 883d
000000c0: 5082 93bd 1397 003e 311c f53d 46d3 f3bd
000000d0: 3d65 343e 3899 5ebe a7be 493e 417a d9bd
000000e0: 4b19 e13d 0050 7b3e ca4d 373e 4592 a33d
000000f0: 67e9 d73d c8e6 f13d 23b8 a13d 002f 05be
00000100: 8451 cabd debc 0b3e e6e1 2cbe 1ef5 cd3d
00000110: f749 543d e270 3bbe 9c69 663e d81f df3c
00000120: 7580 3a3e 471b 52bb e85b d4bd e422 2a3e
00000130: 422a 613e 283a 73be 3b2c 64be 7d4b 40be
00000140: 8407 763e c307 3ebd 3e41 0d3e 8866 3a3e
00000150: a5d1 d7bd e5d5 6a3e f933 c6bd e263 b9bd
00000160: 6f3f 1e3e 7a2c 743e 0d3d 63bd 491e e7bd
00000170: 8266 a0bd 5aab c2bc 21ac 993d 9689 803e
00000180: 5c69 443e cfa5 bc3d 9723 793e 3570 e7bc
00000190: b8c9 933d eaf7 ac3d 8982 33be 1f3a cebc
000001a0: 12f6 38be 7e7b 33be 371a 78be b4f0 733e
000001b0: c7b6 59ba b440 5d3e b09a c33d 857b 483e
000001c0: 9278 c0bc df56 49bd 300f cf3d bc20 6abe
000001d0: 976a 41be 04d4 73bd 5500 f43d d378 553e
000001e0: 918e ca3c 87b1 fd3d b008 273d 8e84 18be
000001f0: 293a ac3d 363b 313e 25c7 323e e2ab 3abe
00000200: b475 d63b 863f 233e bdab 393e 7434 6dbe
00000210: b5d1 273b baea 2c3e 5561 643c d897 a33d
00000220: a380 63be d9e2 c1bc 7a38 2fbe 383b 71bd
00000230: ba3e 503e 82cb 4bbe eb5e 8c3c 8304 ad3d
00000240: 74cb 683e 52bd 423e 75b8 303d d638 95bd
00000250: d813 aabd 9bbe 5a3e ec89 073e 00e4 bdbd
00000260: 0947 643d 8f04 343e 93a0 fcbd af3d f4bd
00000270: 1b10 4a3e 3be5 a03d 08cf 1cbe 4321 1abd
00000280: dcb6 5dbe 768c 35be 15c6 57be 71bb 68be
00000290: 7e9f f1bb 445d 083d 326e 183e 1022 4fbe
000002a0: e0a2 5c3e 71c2 b03d e9a1 1c3e 6987 3abe
000002b0: 0096 f93c 48b8 123e 52fd 4ebe 3f84 393e
000002c0: 78d7 5a3d 72d9 3ebe 50fd 7e3e 298a 66be
000002d0: 2513 913d 0818 f7bd f3a4 e1bc e55e 6bbe
000002e0: 9cc7 e4bd 9429 253e 04d0 0d3e 0066 4abb
000002f0: b4d9 193e 3e8d 44be 6d1e 8ebc 75c8 7a3e
00000300: 6e58 80be 558b 05be 1527 573e cbdf d0bd
00000310: c9b3 b83d 63e9 3cbe 87a4 093e 5bce 29bd
00000320: 8807 3b3e 6ad2 33be 314b 87bd 8223 b1bd
00000330: 0a7b 1cbe 2c2e 623e 6515 ce3d d8ea 43be
00000340: 8af2 43be e14e 593e a24c 6f3c e09d 94bc
00000350: 729a f5bd 98e4 27ba 9a1c 6ebe 2b34 893d
00000360: 5a4b 833e 3edb 013e e408 d33d 43ec 013e
00000370: 769c 693d c54f 393e 658a 973c 2b81 113e
00000380: 7435 163e 13ef 123e 1d9f 103e 99e4 1a3e
00000390: 2e57 95bd 7056 01bc ce51 95bd 45de 6b3e
000003a0: c9e5 29be 1f2d ea3d 72bb 33be a5ea f2bc
000003b0: f994 273c c084 02be ce15 cfbd 4ddd 62be
000003c0: 0062 46be f9af e83d 1e6d 893d 7112 3e3e
000003d0: 973d 933d 9b69 5d3d 15ab 373e f338 a2bd
000003e0: 066e 34be 1078 bbbc c50f 59be b4e0 3a3e
000003f0: 4a03 313d aefa 3cbe 684c 23be fcd6 d03d

large_attention.to_out.weight f4 [16, 256, 1, 1]
-0.058457997 0.025110656 0.021890406 -0.050181396 0.053020515 -0.04007359 0.014365875 -0.012530476
0.067534916 0.04321454 0.01781811 -0.0264197 -0.04694985 -0.06886893 -0.017915135 -0.040096965
-0.012405791 -0.008231979 0.045130245 0.027091078 0.03170175 0.07382961 -0.03063024 0.02585328
-0.0049224095 0.02909078 -0.0262051 0.024507796 -0.014968742 0.009765238 0.065644324 -0.040308144
0.0017436274 0.006068645 -0.009836838 -0.054657727 -0.055753 0.0023083186 -0.06759308 -0.022526372
-0.04310071 -0.028429706 -0.002765676 -0.07667856 -0.032650445 -0.03976366 -0.015179671 0.06372845
0.0036357031 0.010243362 0.056072008 -0.05812187 -0.05442599 0.04245075 0.0061082854 -0.07991093
0.016389074 -0.010412768 -0.02215235 0.027525293 -0.025320832 0.024415217 0.023144508 0.08192891
-0.027755594 0.029275682 0.05329843 -0.03667294 -0.0023054685 0.019657433 0.03327761 -0.050807174
-0.035985246 -0.03994291 -0.022937749 -0.0431786 -0.05027645 0.002264431 -0.021391587 -0.013342907
0.0038685019 0.0420184 -0.020568717 0.018804237 -0.00873218 -0.019924294 0.0542962 0.03828118
-0.020535672 0.05019385 -0.050877973 0.024912002 0.044878695 0.05241059 0.007959998 -0.069282286
0.046159588 -0.020870902 0.04859564 0.05820046 -0.02569849 -0.005083152 0.032754023 -0.052873235
-0.027673548 0.013032691 0.084879674 -0.03591635 -0.05535793 -0.008910445 0.040470876 -0.02932085
-0.00668107 -0.004137388 -5.979641e-05 -0.0049557732 -0.068448395 -0.010596428 -0.06342741 -0.038567193
0.008331112 -0.012258582 -0.036473475 0.09482255 -0.012679718 -0.042417523 -0.01514861 -0.06872724
-0.018513145 -0.04514017 0.016032318 -0.043973416 0.018604737 -0.021873666 -0.003336903 0.045255773
-0.04570319 -0.020566078 0.045248173 0.043289553 0.06706404 0.04856302 -0.0018203416 -0.0776759
-0.05546201 0.033146862 0.017377399 -0.020951815 -0.02862861 -0.061076526 0.0045345947 0.002436999
-0.054429423 0.045816645 0.066881515 -0.02083054 0.015799379 0.05440618 -0.05547509 -0.013636201
0.049919777 -0.084222466 -0.05805088 0.023122638 0.00864773 0.040135637 0.051231418 0.036100123
-0.037741758 0.0077211754 -0.0063930694 0.022146396 0.021054128 -0.007200054 0.0402212 -0.07062382
0.03012746 0.06977432 -0.042495355 -0.0024670858 -0.054742817 0.04378619 -0.021149997 -0.000999179
0.061496902 -0.024092715 0.008567829 -0.03200612 -0.067882635 0.06297835 0.032537594 0.062208354
-0.0025543591 0.008377219 0.007351367 0.038181517 0.048496746 0.037193887 0.012001879 0.030796943
-0.018717173 0.0345796 -0.057012808 -0.048734758 -0.03287822 0.061541576 0.003958082 0.049772665
-0.06370443 0.035687406 0.06991611 0.07291067 0.04917639 0.0065908353 -0.021043751 -0.020678325
-0.030834446 0.018831631 0.017343858 -0.004987657 0.06083912 -0.04435288 -0.017848423 0.05336264
0.011272585 0.059421673 0.04851302 -0.0501776 -0.04568336 0.004556397 -0.032682195 0.054220557
0.084069036 -0.05914642 -0.04160757 0.03957665 -0.06577762 -0.0067251315 0.005666264 -0.015482219
-0.016253415 -0.020047745 -0.012632519 -0.036962185 0.014046764 -0.04086475 -0.051979546 -0.0353812
-0.014981551 0.005090137 -0.04149156 -0.06470772 0.055903044 0.085166216 -0.00039418507 0.027301991
00000000: a771 6fbd ddb4 cd3c 8253 b33c 028b 4dbd
00000010: 0a2c 593d 3424 24bd d95e 6b3c a04c 4dbc
00000020: bf4f 8a3d bb01 313d 49f7 913c 206e d8bc
00000030: 7c4e 40bd 270b 8dbd c3c2 92bc b73c 24bd
00000040: a941 4bbc 6cdf 06bc 7eda 383d 1cee dd3c
00000050: b2d9 013d fb33 973d 45ec fabc 42ca d33c
00000060: 2a4c a1bb ca4f ee3c 14ac d6bc 93c4 c83c
00000070: 743f 75bc 60fe 1f3c 8870 863d 271a 25bd
00000080: 6d8a e43a 7cdb c63b b02a 21bc c8e0 5fbd
00000090: 425d 64bd 2947 173b 3e6e 8abd 3a89 b8bc
000000a0: 5f8a 30bd 6ae5 e8bc 5840 35bb a609 9dbd
000000b0: 79bc 05bd 38df 22bd 28b4 78bc 1084 823d
000000c0: fa44 6e3b c6d3 273c c3ab 653d 3311 6ebd
000000d0: c9ed 5ebd d6e0 2d3d 0328 c83b 57a8 a3bd
000000e0: 6142 863c 519a 2abc d878 b5bc b97c e13c
000000f0: a26d cfbc 6c02 c83c 8d99 bd3c 58ca a73d
00000100: b35f e3bc 8ed3 ef3c 744f 5a3d 5d36 16bd
00000110: 5817 17bb a008 a13c 1a4e 083d 2f1b 50bd
00000120: 4465 13bd 2d9b 23bd f2e7 bbbc 0bdc 30bd
00000130: aeee 4dbd d966 143b 693d afbc 359c 5abc
00000140: b186 7d3b 7c1b 2c3d ba7f a8bc 580b 9a3c
00000150: 6b11 0fbc 4638 a3bc b165 5e3d bacc 1c3d
00000160: 6d3a a8bc 1198 4d3d 6c65 50bd 4114 cc3c
00000170: b9d2 373d 7dac 563d a76a 023c dfe3 8dbd
00000180: d611 3d3d 74f9 aabc 390c 473d 9b63 6e3d
00000190: a485 d2bc 9290 a6bb 1529 063d 9b91 58bd
000001a0: a3b3 e2bc 1187 553c 65d5 ad3d 061d 13bd
000001b0: ffbe 62bd 1dfd 11bc cac4 253d 4732 f0bc
000001c0: e1ec dabb ed92 87bb e8cd 7ab8 0a64 a2bb
000001d0: ac2e 8cbd a49c 2dbc 3be6 81bd a2f8 1dbd
000001e0: 377f 083c 38d8 48bc 3665 15bd 5332 c23d
000001f0: 98be 4fbc ffbd 2dbd e031 78bc dec0 8cbd
00000200: e1a8 97bc e6e4 38bd 3556 833c 781d 34bd
00000210: f668 983c 6730 b3bc f1af 5abb 1e5e 393d
00000220: 4533 3bbd 317a a8bc 2656 393d 6350 313d
00000230: df58 893d 04ea 463d 8798 eeba 8b14 9fbd
00000240: 222c 63bd 01c5 073d 0c5b 8e3c 24a3 abbc
00000250: 8c86 eabc 612b 7abd f096 943b 0fb6 1f3b
00000260: 63f1 5ebd 3caa 3b3d 2df9 883d cfa4 aabc
00000270: b36d 813c 04d9 5e3d d939 63bd 5f6a 5fbc
00000280: ae78 4c3d d47c acbd c2c6 6dbd b06b bd3c
00000290: 35af 0d3c 4465 243d 09d8 513d b9dd 133d
000002a0: 1a97 1abd ea01 fd3b f47c d1bb 5c6c b53c
000002b0: b579 ac3c 6eee ebbb fcbe 243d 39a3 90bd
000002c0: ddcd f63c d7e5 8e3d 9c0f 2ebd d5ae 21bb
000002d0: 013a 60bd 2659 333d c242 adbc e2f6 82ba
000002e0: 2de4 7b3d 165e c5bc 1460 0c3c d918 03bd
000002f0: 0d06 8bbd cbfa 803d 2446 053d 30ce 7e3d
00000300: 0967 27bb 9a40 093c bce3 f03b 3964 1c3d
00000310: 86a4 463d 9e58 183d 87a3 443c df49 fc3c
00000320: c254 99bc 57a3 0d3d 4386 69bd 199e 47bd
00000330: 50ab 06bd 0513 7c3d ccb2 813b 6cde 4b3d
00000340: 7877 82bd f52c 123d 2d30 8f3d 3052 953d
00000350: 2f6d 493d eff7 d73b f263 acbc 9765 a9bc
00000360: 8598 fcbc cb44 9a3c b514 8e3c 806f a3bb
00000370: 7132 793d 5eab 35bd db36 92bc c992 5a3d
00000380: a6b0 383c 2464 733d 97b5 463d 0787 4dbd
00000390: 7a1e 3bbd d44d 953b c4dd 05bd 6016 5e3d
000003a0: 632c ac3d 8443 72bd b36c 2abd 201b 223d
000003b0: 6bb6 86bd 7e5e dcbb 11ac b93b 22a9 7dbc
000003c0: e225 85bc 2b3b a4bc a0f8 4ebc a965 17bd
000003d0: 6624 663c cc61 27bd 81e8 54bd e1eb 10bd
000003e0: 2e75 75bc 2acb a63b 0ef3 29bd 7b85 84bd
000003f0: 97fa 643d a06b ae3d a0aa ceb9 6da8 df3c

large_attention.to_out.bias f4 [16]
0.082637966 0.051027343 -0.048501447 -0.026517639 -0.041550685 -0.026095597 0.020830732 0.025356503
0.061556898 -0.031338997 0.09667146 0.08389586 0.05280959 -0.0131500885 0.06449982 0.006291006
00000000: 183e a93d 0c02 513d 74a9 46bd 853b d9bc
00000010: 0d31 2abd 6fc6 d5bc 36a5 aa3c 71b8 cf3c
00000020: 1623 7c3d 525d 00bd b0fb c53d 98d1 ab3d
00000030: de4e 583d 7873 57bc 7b18 843d c924 ce3b

enc_layer_large.0.weight f4 [12, 16, 3, 3]
-0.013786974 -0.06209454 -2.5738193e-05 -0.007926262 -0.020037418 0.02929921 -0.0011090981 -0.012875785
-0.07418633 -0.0618509 -0.052487396 0.07396522 0.016918559 -0.0773677 -0.008217976 -0.03568765
0.04776743 0.03008091 -0.037598655 -0.007869534 -0.029695032 0.0041208672 -0.0121216895 -0.07472969
-0.023292972 0.07355519 0.04110441 0.05663097 -0.067097306 0.049072217 -0.03418819 0.036703903
0.03973853 -0.08565847 -0.07151643 0.045780327 -0.003481883 0.0761848 -0.068688475 -0.041387834
0.03716743 0.020729423 -0.042883318 0.04018047 -0.003518241 -0.04271996 0.10072904 0.043582078
0.0949829 0.0364423 0.0851755 0.042874243 0.05978774 0.081729576 -0.06290221 0.042195037
-0.056376282 0.02227102 -0.018483004 -0.030230908 0.046707876 -0.06833878 -0.05573066 -0.02068616
-0.040062252 -0.09332062 -0.0633502 0.03273851 -0.054341674 0.07389516 -0.02638955 0.0023422912
-0.04048875 0.08991003 0.09937066 -0.050422505 -0.064236835 -0.03703006 0.06080733 -0.023951327
0.06515081 0.044847935 0.06531079 0.0478648 -0.014799641 -0.03060096 0.041945633 -0.02397226
0.06617053 0.0739466 -0.078692585 0.058990847 0.014084365 -0.027813166 -0.060440756 -0.028632244
0.03342529 -0.06647434 -0.03585184 0.028152999 -0.013146361 -0.062285118 -0.05307208 -0.07913001
0.040616047 -0.007631751 -0.044472236 0.06579605 0.07205303 0.04344865 0.049468603 0.06785624
0.03245914 0.08053373 0.08760315 -0.0015214115 0.06603374 0.040876534 0.094250776 0.013964228
0.011652103 -0.086012766 0.017598944 -0.010056675 0.07883844 0.09277888 -0.0072894027 0.043867543
0.045344904 0.027374435 0.025767546 -0.046488762 -0.028050208 -0.049414583 -0.06549607 -0.03478188
0.028397879 0.06536877 0.10082113 -0.058091175 -0.0744861 -0.038123094 0.010034422 0.0405544
0.03837636 -0.026029194 -0.058903363 0.028804202 0.06310364 0.025840143 0.0048779505 0.05690844
-0.031005966 0.016726237 0.024094628 0.06621494 0.03356054 0.08706073 -0.06503869 -0.07155652
0.014603453 0.012333678 -0.00681374 -0.02972731 0.017927365 0.04802759 0.01128827 -0.0032575142
-0.08681887 0.0024926849 -0.028936714 0.039130855 -0.044717103 -0.043615233 0.032480467 0.044795975
-0.043930307 -0.011023015 0.06302965 -0.0105049 -0.00068588794 -0.054784242 0.084133655 0.048928272
0.028468525 -0.07288064 0.015951376 -0.00078723545 0.060963273 0.029127853 -0.07184049 -0.062331636
0.052867852 -0.091426544 -0.053795524 0.051062576 0.06417776 0.0068521877 -0.10210373 -0.09906541
-0.0417948 0.0074336454 0.04648778 -0.039933026 -0.06964807 -0.041238975 0.07326108 -0.016580867
0.08246088 -0.001648345 0.039874934 -0.07370942 -0.031555105 0.06271606 -0.031871226 0.008460248
-0.014892226 0.021206163 0.03103195 -0.036386646 0.08507616 0.048950233 0.05445401 -0.07218058
-0.11240981 0.07968948 0.074484676 -0.017952057 -0.05130677 -0.12869813 0.0149916075 -0.017672848
0.052239563 -0.046782 0.012610263 0.03614088 0.0050374074 -0.082970634 -0.06139365 0.051516034
0.05033566 0.06310304 0.079458006 -0.08670779 -0.027471596 -0.043149855 0.026878633 -0.050665915
-0.02849685 0.07073572 -0.046418317 -0.039584916 -0.04560249 -0.09437218 0.0129918875 -0.03506117
00000000: c3e2 61bc d856 7ebd 59e8 d7b7 27dd 01bc
00000010: 8325 a4bc e604 f03c 285f 91ba f5f4 52bc
00000020: 01ef 97bd 5f57 7dbd 06fd 56bd 147b 973d
00000030: ca98 8a3c f572 9ebd b1a4 06bc 372d 12bd
00000040: c8a7 433d 3e6c f63c 0c01 1abd 38ef 00bc
00000050: ff42 f3bc 5708 873b 0d9a 46bc e10b 99bd
00000060: e7d0 bebc 1aa4 963d 195d 283d e0f5 673d
00000070: 506a 89bd f3ff 483d ea08 0cbd d556 163d
00000080: dec4 223d b56d afbd 3577 92bd 2784 3b3d
00000090: 4e30 64bb c706 9c3d 8bac 8cbd 4a86 29bd
000000a0: e03c 183d c0d0 a93c 6ba6 2fbd 4794 243d
000000b0: 4a92 66bb 20fb 2ebd 074b ce3d 1f83 323d
000000c0: 6586 c23d 8544 153d 7e70 ae3d e79c 2f3d
000000d0: fde3 743d d661 a73d e0d2 80bd b4d4 2c3d
000000e0: d1ea 66bd b771 b63c ab69 97bc cfa6 f7bc
000000f0: c250 3f3d 34f5 8bbd d545 64bd 0676 a9bc
00000100: 5118 24bd e21e bfbd c0bd 81bd d118 063d
00000110: 6095 5ebd 5856 973d e62e d8bc 2081 193b
00000120: 88d7 25bd c022 b83d d882 cb3d d487 4ebd
00000130: 9a8e 83bd d5ac 17bd 1b11 793d 9335 c4bc
00000140: ca6d 853d 78b2 373d aac1 853d e10d 443d
00000150: 327a 72bc ddae fabc 2fcf 2b3d 7961 c4bc
00000160: 6a84 873d 5171 973d 9429 a1bd 63a0 713d
00000170: 1cc2 663c 70d8 e3bc ba90 77bd 2b8e eabc
00000180: f5e8 083d b323 88bd 61d9 12bd 1ea1 e63c
00000190: d663 57bc ae1e 7fbd 1c62 59bd ea0e a2bd
000001a0: 035d 263d c413 fabb 8528 36bd 14c0 863d
000001b0: 8a90 933d 36f7 313d 979f 4a3d 36f8 8a3d
000001c0: e0f3 043d deee a43d 4869 b33d 196a c7ba
000001d0: b33c 873d 276e 273d 8d06 c13d 38ca 643c
000001e0: 76e8 3e3c 7627 b0bd a92b 903c c1c4 24bc
000001f0: 0c76 a13d da02 be3d f1db eebb 74ae 333d
00000200: 94bb 393d 5a40 e03c 7616 d33c 006b 3ebd
00000210: 8dc9 e5bc f266 4abd ce22 86bd 7277 0ebd
00000220: aba2 e83c 10e0 853d 4f7b ce3d 03f1 6dbd
00000230: 2b8c 98bd f626 1cbd 6b67 243c 5f1c 263d
00000240: 8830 1d3d 2d3b d5bc a744 71bd caf6 eb3c
00000250: 7b3c 813d b5ae d33c 37d7 9f3b d318 693d
00000260: 3900 febc 7605 893c 1962 c53c b39b 873d
00000270: c776 093d e54c b23d 0133 85bd 3a8c 92bd
00000280: 5243 6f3c 3213 4a3c cb45 dfbb b086 f3bc
00000290: 69dc 923c 94b8 443d 70f2 383c 057c 55bb
000002a0: 17ce b1bd 505c 233b b00c edbc ad47 203d
000002b0: 4829 37bd e3a5 32bd 3d0a 053d fc7b 373d
000002c0: 44f0 33bd e099 34bc b015 813d be1c 2cbc
000002d0: 29cd 33ba 7165 60bd 444e ac3d 0369 483d
000002e0: d336 e93c 7242 95bd 76ac 823c 7a5e 4eba
000002f0: a0b4 793d 899d ee3c 1b21 93bd 754f 7fbd
00000300: f68b 583d d73d bbbd b258 5cbd fe26 513d
00000310: a16f 833d 5188 e03b c31b d1bd cee2 cabd
00000320: 0631 2bbd f095 f33b f869 3e3d d090 23bd
00000330: a6a3 8ebd 33ea 28bd e809 963d 99d4 87bc
00000340: 40e1 a83d 480d d8ba e653 233d f7f4 96bd
00000350: ed3f 01bd 4771 803d 678b 02bd da9c 0a3c
00000360: 86fe 73bc 8cb8 ad3c b736 fe3c 2a0a 15bd
00000370: 693c ae3d 0a80 483d 2b0b 5f3d 69d3 93bd
00000380: 1d37 e6bd 3d34 a33d 6c8b 983d 3110 93bc
00000390: 0c27 52bd 71c9 03be 5c9f 753c a6c6 90bc
000003a0: 27f9 553d 7c9e 3fbd 479b 4e3c 7608 143d
000003b0: d610 a53b 82ec a9bd e877 7bbd 7a02 533d
000003c0: c42c 4e3d 2b3c 813d e1ba a23d db93 b1bd
000003d0: 1d0c e1bc e7bd 30bd 9430 dc3c 1087 4fbd
000003e0: 3a72 e9bc e4dd 903d 2221 3ebd cb23 22bd
000003f0: adc9 3abd 3446 c1bd eddb 543c 4d9c 0fbd

enc_layer_large.0.bias f4 [12]
-0.06977439 0.0033019888 -0.03131878 -0.08197739 -0.04881969 0.050525986 0.09818929 0.055128492
0.065308645 -0.021327967 -0.017283184 0.03811866
00000000: e0e5 8ebd 2e66 583b 1f48 00bd c3e3 a7bd
00000010: 28f7 47bd 56f4 4e3d 7717 c93d 6ace 613d
00000020: 8ac0 853d fdb7 aebc 7795 8dbc 5022 1c3d

dec_layer_2.0.weight f4 [12, 8, 5, 5]
-0.019257803 -0.01787524 0.04508185 -0.043740924 -0.013213875 0.021170871 0.080372006 0.05005831
0.02560274 0.021184307 0.022600854 0.011779253 -0.03222527 -0.029455053 0.050287295 -0.023907995
-0.010968994 0.008062884 -0.026610045 -0.076934874 -0.016534653 -0.0035153204 -0.06163771 -0.04238757
-0.039822634 0.007535328 0.008850693 -0.044769555 0.0035885118 0.059653535 0.0022566465 -0.009916887
-0.0010480483 -0.013526182 -0.039685197 0.05445621 -0.0077905976 0.0031728575 -0.00012193989 0.03837033
-0.048814464 -0.018447377 0.034555614 0.0035410142 -0.06603769 -0.03212678 0.04394003 -0.074417815
-0.059593532 -0.016116422 0.021700028 -0.03194764 -0.028176572 0.068155356 -0.048991647 0.027625747
-0.06330644 -0.050711025 -0.047173467 0.015437628 -0.011864297 -0.019656146 0.06087321 -0.062259287
-0.057934187 0.058129307 0.028389508 -0.06068286 0.020893529 -0.059193302 0.009612708 0.018425312
-0.014400395 -0.045843113 -0.041847672 -0.037225276 0.068468474 0.0021533545 0.0049932944 0.049887516
-0.009953907 0.015117417 0.04651996 -0.03981736 -0.0045081857 -0.0075052655 0.034717552 -0.014302059
0.029489964 -0.003639528 -0.03832785 -0.011810344 -0.058012024 -0.0059410324 0.0036597592 0.03595547
0.019721046 -0.008253189 -0.037559893 -0.026973905 -0.007995389 0.01881674 -0.02914355 0.045102257
-0.032186687 -0.0128370775 -0.026653621 -0.017381767 -0.03589171 -0.026145676 -0.03177924 0.022178493
0.027864523 -0.040531006 0.012018493 -0.027964842 0.024732517 0.047778446 0.09285286 -0.015917147
-0.030826703 -0.035647057 -0.015013366 0.018114677 -0.06580775 -0.0042882646 -0.032435097 0.09378727
0.02173311 -0.0848285 -0.0059619937 -0.0069258898 0.03543623 -0.05992234 -0.03439612 0.08807824
-0.007230385 0.0077059027 -0.024784893 -0.04214995 0.0555657 -0.006233542 0.084860586 0.079405084
-0.035778932 0.061589736 0.088396356 0.02951813 0.022546522 -0.08230601 0.035160165 -0.037507933
-0.04622305 0.026498841 0.03377647 0.018129235 -0.03739851 -0.00020290441 -0.013936644 -0.026253812
-0.03372032 -0.014743088 0.0022383537 -0.058092013 -0.010408621 0.017487217 -0.018118693 -0.09196036
-0.03753852 -0.020928353 0.029032959 0.0030324436 -0.016898124 -0.047056545 -0.08420191 -0.020327585
-0.032955095 0.039055146 -0.0077806646 -0.0161266 -0.025766898 0.06369765 0.082484685 -0.031497106
0.01961249 0.011482575 -0.03512602 -0.046121452 0.06371779 0.032944113 0.048740797 0.02456022
0.04342067 0.00879271 0.031802878 0.028205937 0.07254168 0.008225224 0.052021652 0.03629559
0.0226847 -0.0036920346 0.02796268 -0.013690799 0.04536675 -0.031736214 -0.040766425 -0.02868649
-0.0015962536 -0.032693908 0.0069232252 -0.09140262 0.0043239733 -0.0099149225 -0.0337744 0.049082354
0.027031567 -0.037780322 0.09334662 0.08461081 -0.03772963 -0.029993799 -0.06276954 0.07384892
-0.009938276 0.06683201 0.014152037 -0.013885885 0.041899864 0.008548958 -0.03177581 -0.0029386473
0.019626912 -0.043308508 0.02098292 0.043667007 0.0016983298 -0.059389435 -0.038180187 -0.025967581
-0.013819555 -0.008851268 0.045955822 0.056529343 0.04101308 0.06783072 0.002414497 0.021445962
0.01060152 0.046776704 0.005588871 -0.017807527 -0.03617003 0.009714794 -0.008585607 -0.023607349
00000000: 8ac2 9dbc 186f 92bc bfa7 383d af29 33bd
00000010: 027f 58bc 896e ad3c 149a a43d f109 4d3d
00000020: d6bc d13c b68a ad3c 6d25 b93c c5fd 403c
00000030: a5fe 03bd b94b f1bc 0dfa 4d3d b3da c3bc
00000040: 4cb7 33bc 301a 043c 4ffd d9bc 0890 9dbd
00000050: ae73 87bc 4a61 66bb d377 7cbd 979e 2dbd
00000060: 0f1d 23bd eaea f63b 7f02 113c 4860 37bd
00000070: 3d2d 6b3b 4457 743d 3fe4 133b 707a 22bc
00000080: aa5e 89ba eb9c 5dbc f28c 22bd 7a0d 5f3d
00000090: 4548 ffbb b7ef 4f3b fbb9 ffb8 352a 1d3d
000000a0: adf1 47bd f41e 97bc 308a 0d3d 5c10 683b
000000b0: c53e 87bd 5f97 03bd 76fa 333d 5e68 98bd
000000c0: 5918 74bd 9606 84bc 42c4 b13c 87db 02bd
000000d0: 8ed2 e6bc 0995 8b3d 77ab 48bd 644f e23c
000000e0: cfa6 81bd 5db6 4fbd f738 41bd 1bee 7c3c
000000f0: 7862 42bc ed05 a1bc 3056 793d 9803 7fbd
00000100: 664c 6dbd ff18 6e3d 1d91 e83c 978e 78bd
00000110: e828 ab3c ad74 72bd 9f7e 1d3c aef0 963c
00000120: a2ef 6bbc fdc5 3bbd 7768 2bbd 8879 18bd
00000130: 3339 8c3d 4b1f 0d3b ca9e a33b da56 4c3d
00000140: b615 23bc 0baf 773c b78b 3e3d 8717 23bd
00000150: 67b9 93bb bbee f5bb fe33 0e3d 2f53 6abc
00000160: f094 f13c 2685 6ebb aafd 1cbd 2c80 41bc
00000170: 049e 6dbd feac c2bb 92d8 6f3b 0b46 133d
00000180: 088e a13c 6238 07bc 67d8 19bd 61f8 dcbc
00000190: 18ff 02bc 9025 9a3c 74be eebc 25bd 383d
000001a0: 30d6 03bd 9b52 52bc b258 dabc 3564 8ebc
000001b0: 3003 13bd 752f d6bc f32a 02bd acaf b53c
000001c0: 2444 e43c d703 26bd 37e9 443c 8616 e5bc
000001d0: d99b ca3c 55b3 433d a429 be3d ad64 82bc
000001e0: 4888 fcbc a602 12bd 9ffa 75bc 3b65 943c
000001f0: 37c6 86bd 9284 8cbb aada 04bd 8a13 c03d
00000200: a309 b23c 91ba adbd d45c c3bb 93f2 e2bb
00000210: 9525 113d 2171 75bd f2e2 0cbd 5d62 b43d
00000220: deec ecbb cc81 fc3b b009 cbbc 6da5 2cbd
00000230: dc98 633d be42 ccbb 63cb ad3d 229f a23d
00000240: ee8c 12bd 8545 7c3d 2609 b53d 01d0 f13c
00000250: 7cb3 b83c 0e90 a8bd 1b04 103d eba1 19bd
00000260: 6254 3dbd 1914 d93c 3259 0a3d c383 943c
00000270: 2e2f 19bd bdc2 54b9 8656 64bc 3c12 d7bc
00000280: 511e 0abd fe8c 71bc 58b1 123b e4f1 6dbd
00000290: ec88 2abc 5a41 8f3c a76d 94bc b755 bcbd
000002a0: fec1 19bd f071 abbc 87d6 ed3c f6bb 463b
000002b0: ef6d 8abc 5dbe 40bd 0d72 acbd 0986 a6bc
000002c0: ecfb 06bd 4af8 1f3d f2f4 febb ee1b 84bc
000002d0: 1a15 d3bc ea73 823d bbed a83d 1c03 01bd
000002e0: 5faa a03c 6921 3c3c 4de0 0fbd d9e9 3cbd
000002f0: 797e 823d 68f0 063d 6ea4 473d 8432 c93c
00000300: dfd9 313d 4c0f 103c bc43 023d 2310 e73c
00000310: bb90 943d 17c3 063c a814 553d afaa 143d
00000320: 44d5 b93c 10f6 71bb fe11 e53c 5f4f 60bc
00000330: 7cd2 393d d5fd 01bd b2fa 26bd eeff eabc
00000340: 6239 d1ba 0cea 05bd 39dc e23b 4c31 bbbd
00000350: 1eb0 8d3b 3372 22bc 0657 0abd 940a 493d
00000360: 4e71 dd3c 8abf 1abd 832c bf3d 6f48 ad3d
00000370: 628a 1abd 8eb5 f5bc 518d 80bd 1a3e 973d
00000380: 27d4 22bc 39df 883d f2dd 673c 9f81 63bc
00000390: 319f 2b3d ee10 0c3c 5a27 02bd 5296 40bb
000003a0: 9ec8 a03c 4364 31bd 5fe4 ab3c 2ddc 323d
000003b0: 7e9a de3a 5642 73bd d462 1cbd f7b9 d4bc
000003c0: 6a6b 62bc e904 11bc 2c3c 3c3d 508b 673d
000003d0: 55fd 273d d5ea 8a3d 8a3c 1e3b 71af af3c
000003e0: ffb1 2d3c ee98 3f3d d922 b73b 17e1 91bc
000003f0: 0627 14bd cd2a 1f3c a5aa 0cbc 3364 c1bc

dec_layer_2.0.bias f4 [8]
0.030769559 0.08106108 0.05044166 0.032308284 0.047557373 0.056555733 0.06465154 0.056564055
00000000: 7110 fc3c 5a03 a63d ea9b 4e3d b155 043d
00000010: 85cb 423d fca6 673d 0768 843d b6af 673d

dec_layer_3.0.weight f4 [8, 3, 5, 5]
-0.0754848 0.079150535 0.05867939 -0.046641856 -0.07767584 0.028534628 0.04291458 0.050191186
0.076968916 -0.0443223 -0.042871106 0.12837428 -0.00069950736 0.12948829 0.07885001 0.05646579
-0.062001303 0.16655637 0.12982808 0.073380515 -0.05736618 -0.08328267 0.13218321 -0.044333946
0.06769757 -0.046904534 -0.050601304 0.013234208 -0.03305794 -0.10707757 0.087700725 0.031840187
0.039897926 0.08557505 0.07750686 0.0023976194 0.026585666 0.08854276 -0.063423246 0.045199957
0.015403047 0.06618183 0.049392417 0.008718467 0.026207315 0.03151094 0.069874704 -0.067786716
0.08126673 0.07289151 0.061383113 -0.09860605 0.025017569 0.018740298 -0.040318504 0.117012076
0.05199347 0.11724611 0.0044687805 -0.02432952 0.013571113 -0.0040425668 0.06794022 0.039427496
-0.06489462 0.11056838 -0.0095272055 0.090701684 -0.03853226 0.1041367 -0.06712545 0.0124327475
0.07997885 0.049864583 -0.08802187 0.10484086 0.113321446 0.05506727 0.114512116 0.017534832
0.03474573 0.08450938 0.020591741 0.07167505 0.0401677 0.08716401 0.087595016 0.03709882
0.05245213 0.11386127 0.09123551 0.043673176 0.025536343 -0.050898932 0.020323412 -0.007649207
0.071673274 0.021073002 -0.013672933 0.032569863 0.0881305 -0.0023394923 0.11159531 0.040842496
0.013511989 0.07260925 0.10731667 -0.054064635 0.025939621 0.07280945 -0.0036046037 0.09188551
-0.02320508 0.12667188 0.017699238 0.036719754 0.022331256 0.03469961 0.025738353 -0.017997434
-0.034186993 0.05458081 0.09935352 0.08082454 0.0063310647 -0.04840111 -0.061060928 0.032364137
0.046406936 -0.063879974 0.06373492 0.040387653 0.025933066 0.04640215 -0.0035228527 0.033964943
0.014695926 -0.01392733 0.03891651 -0.04061092 -0.031526897 -0.0059950347 0.0907893 0.039435826
-0.07500394 -0.021675546 0.030202245 0.007983833 -0.0044441065 0.026663072 0.0023426968 0.091325656
0.0050962986 -0.014634885 0.08953231 0.060932036 0.12502955 0.15698317 0.08491176 0.04013251
0.09152242 0.0824859 0.010468452 0.11248512 0.15525566 0.07511892 0.06617586 0.10282874
0.08858666 0.12313175 0.066249534 0.025555803 0.12096428 -0.015418202 0.062133208 -0.04824785
-0.078776315 -0.0024675159 -0.004235771 -0.011158342 -0.029559249 0.025399365 -0.030392112 -0.061644
-0.061714385 -0.10225655 -0.039128646 -0.11114037 -0.07391397 -0.03194229 0.015159848 -0.017891452
-0.07487885 -0.03959087 -0.062390324 -0.012752187 -0.035824414 -0.08135033 -0.038305867 -0.014719769
-0.03134373 -0.056673512 -0.053815857 -0.02295962 0.036987197 -0.0038977594 -0.02302763 -0.02051563
-0.017124338 0.033129122 -0.009157267 -0.06225234 -0.12148715 -0.067515016 -0.10306396 -0.0007841876
-0.037789702 -0.038038645 -0.04747887 0.022670344 0.012621086 0.020770831 -0.018342065 -0.043199725
-0.045909103 -0.018782672 0.049477767 -0.0029994329 -0.048751242 -0.019114181 -0.035827495 0.07046112
0.08970023 -0.050876793 -0.053176288 0.052174844 0.08949269 0.15941775 0.104062065 -0.060114082
0.029145911 0.08479611 -0.009154954 -0.038504682 0.12068673 0.061913695 0.09525418 0.010104996
0.0050336057 0.08848198 0.0636775 0.06877049 -0.033579092 0.04453492 0.029143946 -0.039905075
00000000: c697 9abd ad19 a23d cd59 703d 880b 3fbd
00000010: 8314 9fbd 74c1 e93c 33c7 2f3d 4695 4d3d
00000020: e1a1 9d3d 4d8b 35bd 9d99 2fbd 8c74 033e
00000030: 255f 37ba 9498 043e 1d7c a13d ac48 673d
00000040: 14f5 7dbd c18d 2a3e a7f1 043e 8648 963d
00000050: cdf8 6abd 1b90 aabd 095b 073e 8397 35bd
00000060: 06a5 8a3d f81e 40bd 5043 4fbd 4bd4 583c
00000070: c367 07bd 7c4b dbbd 709c b33d db6a 023d
00000080: 026c 233d f941 af3d ebbb 9e3d 6121 1d3b
00000090: 2fca d93c e855 b53d 0ce4 81bd 9723 393d
000000a0: 105d 7c3c 578a 873d b44f 4a3d e7d7 0e3c
000000b0: b9b0 d63c 9e11 013d 781a 8f3d c3d3 8abd
000000c0: 2c6f a63d 2548 953d dc6c 7b3d f8f1 c9bd
000000d0: a5f1 cc3c 4185 993c 0425 25bd 07a4 ef3d
000000e0: 1bf7 543d bb1e f03d d96e 923b b44e c7bc
000000f0: 6059 5e3c 8277 84bb 3e24 8b3d ba7e 213d
00000100: 78e7 84bd ad71 e23d ff17 1cbc cec1 b93d
00000110: 01d4 1dbd 9f45 d53d 1179 89bd b9b2 4b3c
00000120: f4cb a33d ce3e 4c3d cf44 b4bd ceb6 d63d
00000130: 1315 e83d 388e 613d 5485 ea3d 35a5 8f3c
00000140: 8a51 0e3d 4113 ad3d 03b0 a83c 5eca 923d
00000150: e386 243d 0b83 b23d 0465 b33d eff4 173d
00000160: 0bd8 563d 1930 e93d afd9 ba3d a5e2 323d
00000170: 9831 d13c 667b 50bd 497d a63c 33a6 fabb
00000180: 70c9 923d 4aa1 ac3c 7004 60bc fa67 053d
00000190: c37d b43d 2b52 19bb 158c e43d 764a 273d
000001a0: 6461 5d3c 29b4 943d d8c8 db3d e172 5dbd
000001b0: 547f d43c 1f1d 953d 373b 6cbb 782e bc3d
000001c0: 9418 bebc 46b6 013e fefd 903c 7467 163d
000001d0: 0af0 b63c 2e21 0e3d 3dd9 d23c 5b6f 93bc
000001e0: a907 0cbd 2190 5f3d dc79 cb3d 5687 a53d
000001f0: d274 cf3b 3e40 46bd 061b 7abd 4290 043d
00000200: 3315 3e3d 81d3 82bd 7487 823d 866d 253d
00000210: 9571 d43c 2e10 3e3d a9df 66bb d31e 0b3d
00000220: 2ec7 703c 752f 64bc eb66 1f3d a357 26bd
00000230: 5922 01bd ff71 c4bb beef b93d 7687 213d
00000240: aa9b 99bd ea90 b1bc b36a f73c 9fce 023c
00000250: de9f 91bb 846c da3c ee87 193b f208 bb3d
00000260: dafe a63b 28c7 6fbc b75c b73d df93 793d
00000270: bf07 003e 32c0 203e 38e6 ad3d fd61 243d
00000280: 1b70 bb3d 5eee a83d df83 2b3c 995e e63d
00000290: 57fb 1e3e f3d7 993d 3687 873d e097 d23d
000002a0: ec6c b53d 802c fc3d d6ad 873d 675a d13c
000002b0: 1fbc f73d a09c 7cbc 647f 7e3d 8a9f 45bd
000002c0: 7a55 a1bd 0cb6 21bb 39cc 8abb 7ad1 36bc
000002d0: 3d26 f2bc 5412 d03c e1f8 f8bc 6b7e 7cbd
000002e0: 39c8 7cbd e26b d1bd 5c45 20bd 909d e3bd
000002f0: 3560 97bd ebd5 02bd 0361 783c 1891 92bc
00000300: 155a 99bd 092a 22bd ff8c 7fbd 8dee 50bc
00000310: 9fbc 12bd 009b a6bd 9de6 1cbd 302b 71bc
00000320: 4862 00bd 7c22 68bd 046e 5cbd d015 bcbc
00000330: e37f 173d 8d71 7fbb 71a4 bcbc 6510 a8bc
00000340: 5748 8cbc 67b2 073d 5d08 16bc 4ffc 7ebd
00000350: 41ce f8bd 5045 8abd 3313 d3bd f091 4dba
00000360: 60c9 1abd 69ce 1bbd 3479 42bd 28b7 b93c
00000370: acc8 4e3c 9727 aa3c 1942 96bc 32f2 30bd
00000380: 2f0b 3cbd 1ede 99bc 33a9 4a3d 2292 44bb
00000390: 62af 47bd 5895 9cbc dabf 12bd eb4d 903d
000003a0: c1b4 b73d 2f64 50bd 61cf 59bd 4ab5 553d
000003b0: f247 b73d 683e 233e 7e1e d53d 2f3a 76bd
000003c0: 68c3 ee3c 95a9 ad3d a9fe 15bc 16b7 1dbd
000003d0: 9b2a f73d 3799 7d3d a014 c33d 6d8f 253c
000003e0: f2f0 a43b 0a36 b53d 5969 823d 8bd7 8c3d
000003f0: 3b8a 09bd 406a 363d 49bf ee3c 8173 23bd

dec_layer_3.0.bias f4 [3]
0.039018296 0.0235485 0.033048686
00000000: a6d1 1f3d c9e8 c03c 0f5e 073d
