save/updated_model_large/gen_model.pt (torch, 51145 bytes, 10 tensors)

enc_layer_1.0.weight f4 [32, 3, 5, 5]
0	0x3d1218b6	0.035668097
1	0x3c9a6d4d	0.018850947
2	0x3c9c656e	0.019091334
3	0x3d5bf815	0.053703386
4	0xbdcd48a9	-0.100236244
5	0x3daf96c2	0.08573677
6	0x3dc5a317	0.096502475
7	0xbddaa002	-0.1067505
8	0x3db3db5d	0.087820746
9	0xbc3d54bf	-0.01155585
10	0xbdc66d6e	-0.09688841
11	0x3d6b8a4a	0.05750493
12	0x3cdd151a	0.026987601
13	0x3d54f662	0.05199278
14	0xbdbf8c36	-0.09352915
15	0x3d0919da	0.03347192
16	0xbd85ff23	-0.06542804
17	0x3d8f2e94	0.06991306
18	0x3ca8d7d1	0.020610722
19	0xba3d46ab	-0.0007220308
20	0xbdcc1d6a	-0.09966548
21	0x3db1ebf8	0.086875856
22	0x3d791d79	0.060819123
23	0xbda82da9	-0.08211834
24	0xb9799180	-0.00023800693
25	0xbe073c52	-0.13206604
26	0x3d07438e	0.03302341
27	0xbdbaeac9	-0.09126813
28	0xbc37d695	-0.011220594
29	0x3d65783a	0.05602286
30	0xbe006a3c	-0.12540525
31	0xbcf7aca3	-0.030233687
32	0xbabf380b	-0.0014588846
33	0x3d8a025e	0.06738733
34	0xbdb75a45	-0.089527644
35	0xbca509d9	-0.020146297
36	0x3cdd02f3	0.026978945
37	0x3d529ed9	0.05142102
38	0xbcda4b22	-0.026647154
39	0x3db8003e	0.08984421
40	0x3cbd9be7	0.02314563
41	0x3bb08086	0.005386415
42	0xbdd4def9	-0.10394091
43	0xbd9cd914	-0.07658592
44	0xbd067b55	-0.032832462
45	0xbabad560	-0.0014254265
46	0xbd590781	-0.052985672
47	0xbdd15128	-0.102205575
48	0xbd7bb22d	-0.06144922
49	0xbe150038	-0.14550865
50	0xbdc978da	-0.09837504
51	0x3d4ca0d3	0.04995806
52	0xbc85e5a1	-0.016344847
53	0xbd2260c1	-0.039643053
54	0x3c7373e6	0.014859175
55	0x3db7c3ee	0.089729175
56	0x3e09526e	0.1341035
57	0x3d75d33d	0.060015906
58	0x3dc50dac	0.09621748
59	0xbcbab5c5	-0.022791753
60	0x3e071e61	0.13195182
61	0x3d8652a3	0.065587305
62	0x3e049cb5	0.12950404
63	0x3df0dedc	0.11761257
64	0x3c55928a	0.013035426
65	0x3df4cdfe	0.119533524
66	0x3e2dc642	0.1697016
67	0x3dbafba6	0.091300294
68	0x3d3bde3f	0.045866247
69	0xbb495020	-0.0030717924
70	0x3e05177d	0.12997241
71	0x3d873044	0.06601003
72	0x3c2118c4	0.009832565
73	0x3d4f65ec	0.05063431
74	0x3dd58e8f	0.104275815
75	0x3dd11b86	0.10210328
76	0x3de61c1b	0.112358294
77	0xbd8945fb	-0.06702801
78	0x3ca2b4d2	0.019861612
79	0x3d36b7e9	0.044608984
80	0x3de6902e	0.11257969
81	0xbd1ab112	-0.037766524
82	0xbd56f481	-0.05247927
83	0x3d99e0ca	0.07513578
84	0x3ddd7560	0.10813403
85	0x3dba6e98	0.09103125
86	0x3ca0bdc1	0.019621732
87	0x3d32a480	0.04361391
88	0xbb8b009e	-0.004242017
89	0x3df61951	0.120165475
90	0x3d76ae20	0.060224652
91	0x3e0aa7fb	0.13540642
92	0xbd9192fa	-0.07108112
93	0x3cbe28e7	0.023212863
94	0x3ddaf337	0.10690921
95	0xbc90a2dc	-0.017655782
96	0x3e120b4d	0.14262123
97	0x3db0b239	0.08627743
98	0xbd8bc306	-0.06824307
99	0x3de5bbd6	0.112174675
100	0xbd0a95ae	-0.033834152
101	0x3dd51d4b	0.10405978
102	0x3c86849a	0.016420651
103	0x3ce473e4	0.027887292
104	0xbd4f4321	-0.05060113
105	0x3dbfce37	0.09365504
106	0xbd4ce8a4	-0.05002655
107	0x3da0b27b	0.078465424
108	0x3d51f8c0	0.051262617
109	0x3c3c6e30	0.01150088
110	0xbe1128b7	-0.14175688
111	0xbdaca9c4	-0.08430818
112	0x3d700305	0.05859663
113	0xbde73e10	-0.11291134
114	0xbde5a798	-0.112136066
115	0xbcba9765	-0.022777269
116	0xbde68189	-0.112551756
117	0xbd086e8e	-0.03330856
118	0xbd5f1c29	-0.054470215
119	0xbdd75c96	-0.10515706
120	0xbdc4eb14	-0.0961515
121	0xbbfdb0f9	-0.007742044
122	0xbe09f038	-0.13470542
123	0xbd87b793	-0.06626811
124	0xbdb815eb	-0.089885555
125	0x3b2b6a7a	0.0026155994
126	0x3dace149	0.08441407
127	0x3e1c0746	0.1523715
128	0xbd15fd7c	-0.036618695
129	0x3dd2057b	0.102549516
130	0x3df0fd15	0.117670216
131	0xbd3094c3	-0.04311062
132	0x3de52d90	0.11190331
133	0xbcf93d06	-0.030424606
134	0xbd084a86	-0.033274196
135	0xbc7c392a	-0.015394488
136	0x3ce644d4	0.028108992
137	0xbd1c5d73	-0.038175058
138	0x3cfc539b	0.030801585
139	0xbdc56262	-0.09637906
140	0xbd512a3a	-0.05106566
141	0xbd05f1b3	-0.032701205
142	0xbdcd51fe	-0.100254044
143	0xbdccc86b	-0.09999164
144	0xbd3718eb	-0.044701498
145	0x3db2850b	0.08716782
146	0x3d4c735a	0.049914695
147	0xbd22094e	-0.039559655
148	0xbd1cad72	-0.038251348
149	0xbdb3e748	-0.08784348
150	0x3d8b0362	0.067877546
151	0x3cde4f05	0.027137289
152	0x3d8d9a9b	0.06914254
153	0xbd247c2d	-0.040157486
154	0xbcb4fbfc	-0.022092812
155	0xbda1e604	-0.079052
156	0x3e09e502	0.13466266
157	0xbd284867	-0.041084673
158	0x3d0f23a4	0.0349461
159	0x3bae79be	0.0053245714
160	0x3db06115	0.08612267
161	0x3cd0176d	0.025401795
162	0xbd99d7c4	-0.07511857
163	0xba729858	-0.00092542684
164	0xbd9ceded	-0.07662568
165	0x3d743fc7	0.059631135
166	0x3da6805c	0.08129951
167	0x3de6f551	0.11277259
168	0x3d26cee0	0.040724635
169	0xbcf450f0	-0.02982375
170	0xbdb0bdf7	-0.08629983
171	0xbd457f23	-0.04821695
172	0x3d9afbe6	0.07567577
173	0xbd57fe95	-0.052733023
174	0x3de5be95	0.11217991
175	0x3de5f51e	0.11228393
176	0x3e0ce9cf	0.13761066
177	0xbbf13e41	-0.0073621576
178	0xbdad8707	-0.0847302
179	0x3d8b6689	0.068066664
180	0xbc85e1ad	-0.016342962
181	0x3d5cd33f	0.053912397
182	0x3d99b680	0.07505512
183	0xbd6edca9	-0.058315907
184	0x3dd87780	0.10569668
185	0xbd591600	-0.052999496
186	0x3bc60746	0.0060433475
187	0xbd0b92c6	-0.03407552
188	0x3d529832	0.051414676
189	0x3cb4c7ca	0.022067923
190	0x3cd7cc97	0.026342673
191	0x3d33b8cd	0.04387741
192	0xbd85c8fb	-0.065324746
193	0xbc0b209e	-0.008491663
194	0x3ded77e1	0.11595131
195	0x3c52fb39	0.012877279
196	0x3cfad1b4	0.030617572
197	0xbdaed009	-0.08535773
198	0x3d1a270e	0.0376349
199	0x3aa6547b	0.0012689972
200	0x3c30ed42	0.010798754
201	0xbd9759b1	-0.07390154
202	0xbd501946	-0.050805353
203	0xbdc1e3cf	-0.09467279
204	0x3ca3d444	0.019998677
205	0x3b79b5ac	0.003810267
206	0x3d059677	0.032614198
207	0xbdb54bc3	-0.08852341
208	0x3de91350	0.11380637
209	0x3cb4c4ac	0.022066437
210	0x3c60e7ce	0.013727142
211	0xbd31e8e0	-0.043434978
212	0x3c907ae1	0.017636718
213	0xbd8fe140	-0.07025385
214	0xbdcd9fab	-0.1004022
215	0xbd4e60ef	-0.05038541
216	0x3dcfb2f1	0.10141552
217	0x3de1d6af	0.11027276
218	0x3dc36f67	0.09542733
219	0xbda01e2d	-0.078182556
220	0x3d3f0731	0.046637718
221	0xbc710bd6	-0.014712295
222	0x3d393f18	0.045226187
223	0x3c6f8226	0.014618432
224	0xbdd2b9bd	-0.10289333
225	0xbe5de630	-0.21669841
226	0xbbdf4ca7	-0.0068145576
227	0xbe074085	-0.13208206
228	0x3dc974e8	0.09836751
229	0xbcc72053	-0.024307406
230	0xbc34b3a9	-0.011029162
231	0xbdec9889	-0.11552531
232	0x3d95a633	0.073070906
233	0xbcbd6387	-0.023118747
234	0x3c82cae2	0.015965883
235	0xbe013c6b	-0.12620704
236	0xbcb54a4c	-0.022130154
237	0xbd98f820	-0.07469201
238	0x3ceea8c3	0.029133206
239	0x3e2e0a35	0.16996081
240	0xbdb0a0ff	-0.086244576
241	0xbe0290cf	-0.12750553
242	0xbcbf15bf	-0.023325799
243	0x3dfe2a5f	0.124104254
244	0x3e1b6e14	0.1517871
245	0xbe1590c4	-0.14606005
246	0x3d8cfb3b	0.06883856
247	0x3c91ef58	0.017814323
248	0x3e266bde	0.16252086
249	0x3d97d21c	0.07413122
250	0xbe06d18a	-0.1316587
251	0xbe0dade7	-0.1383587
252	0x3da7cba5	0.08193139
253	0xbcead778	-0.028667197
254	0x3dade5ff	0.08491134
255	0xbe290855	-0.16507085

enc_layer_1.0.bias f4 [32]
0	0xbebeea3c	-0.37288082
1	0xbe70ed71	-0.23528077
2	0xbec9e4c5	-0.3943235
3	0xbe08bdc5	-0.13353641
4	0xbd4b7b65	-0.049678225
5	0x3e105205	0.14093788
6	0xbec3c6f3	-0.38237724
7	0x3de70a0c	0.11281213
8	0xbe204bb0	-0.15653872
9	0xbec58b6d	-0.38582936
10	0x3d9d29ad	0.07673965
11	0xbe2f5b4d	-0.17124672
12	0xbe7bee0a	-0.24602523
13	0xbae43257	-0.0017410022
14	0x3d5b4566	0.05353298
15	0xbb8e41c3	-0.0043413355
16	0xbc42dc46	-0.011893338
17	0xbdbaadac	-0.091151565
18	0x3b87f1cb	0.004148697
19	0xbd381b5f	-0.044947978
20	0x3dd031da	0.101657584
21	0xbddc1a39	-0.10747189
22	0x3d9fb358	0.07797879
23	0xbeb638b2	-0.3559013
24	0xbe5b30f6	-0.21405396
25	0x3dc43985	0.095812835
26	0xbe12227c	-0.14270967
27	0x3e545e99	0.20739211
28	0xbebf5af6	-0.37374085
29	0x3ddc0bc8	0.107444346
30	0x3d4394d4	0.047749355
31	0xbe848777	-0.258846

enc_layer_2.0.weight f4 [16, 32, 3, 3]
0	0x3d35991e	0.044335477
1	0x3e07598f	0.13217758
2	0x3e2ceccb	0.16887204
3	0xbdcfedef	-0.10152804
4	0x39cc2ba6	0.00038942433
5	0x3ca664cf	0.020311741
6	0xbd63b04c	-0.05558805
7	0xbd191495	-0.037373144
8	0x3d3bb305	0.045825023
9	0xbdab024a	-0.08350046
10	0xbe3f1352	-0.18659714
11	0xbd08ba48	-0.033380777
12	0xbddba7cb	-0.10725363
13	0xbd2c8865	-0.042122263
14	0xbc1a1411	-0.009404198
15	0xbe1c1cd5	-0.15245374
16	0xbe52ac37	-0.20573507
17	0xbe3d25d9	-0.18471469
18	0x3e520af3	0.2051199
19	0x3e43fb19	0.19138755
20	0x3e5a05a9	0.21291222
21	0x3e2dc514	0.1696971
22	0x3e0f13aa	0.13972345
23	0x3e20d11c	0.15704769
24	0x3e060b7c	0.13090318
25	0x3d6d13e0	0.057880282
26	0x3d752c97	0.059856977
27	0xbc61f7c3	-0.013791981
28	0x3d20d997	0.03927001
29	0xbe43c89b	-0.19119494
30	0x3d4b8530	0.049687564
31	0xbd29ea10	-0.041482985
32	0xbe2e7c2a	-0.17039552
33	0x3e04501b	0.12921183
34	0xbd99a390	-0.075019
35	0xbe2e6c6b	-0.17033546
36	0xbcc63fb4	-0.024200298
37	0xbcca79b2	-0.024716232
38	0xbcb5242b	-0.022111973
39	0xbdd5886c	-0.10426411
40	0xbd9c123e	-0.07620667
41	0xbd53780a	-0.05162815
42	0xbd502fbe	-0.05082678
43	0x3c0d001c	0.008605983
44	0xbda6cd1d	-0.08144591
45	0x3ce63d26	0.02810533
46	0x3c930586	0.01794697
47	0x3bf99423	0.007616536
48	0x3bc706f6	0.006073828
49	0xbd592d93	-0.05302198
50	0x3cc3a0fc	0.023880474
51	0xbc054360	-0.008133739
52	0xbdb41ff0	-0.08795154
53	0xbcbde7b2	-0.02318177
54	0x3dae7121	0.085176714
55	0x3e6963ac	0.22791928
56	0x3e693e2e	0.22777626
57	0xbcdcd807	-0.026958479
58	0xbcd27b15	-0.025693456
59	0x3c8fe8be	0.017567035
60	0x3d93d764	0.07218817
61	0x3dd0e632	0.10200156
62	0x3dd76986	0.10518174
63	0xbcb9098c	-0.02258756
64	0x3dc935af	0.098246925
65	0x3bf16012	0.007366189
66	0xbc70a3e5	-0.014687513
67	0xbdf2d6e1	-0.11857391
68	0xbe3be056	-0.18347296
69	0xbb9c95f1	-0.0047786166
70	0x3dc5d9f7	0.09660714
71	0x3cc61149	0.024178164
72	0x3e078a0e	0.13236257
73	0x3d8c7ef7	0.06860154
74	0x3db77f43	0.0895982
75	0x3c975c95	0.018476764
76	0x3dc98287	0.09839349
77	0x3cc8ac30	0.024496168
78	0x3cbdc797	0.02316646
79	0xbc6444c6	-0.0139324125
80	0xbcadbe1b	-0.021208813
81	0xbc416b32	-0.0118053425
82	0x3daf3d55	0.0855662
83	0x3da8a909	0.08235366
84	0xbd45a0fb	-0.048249226
85	0x3cb3c58d	0.021944785
86	0x3c11cd74	0.0088990815
87	0xbd2c9b19	-0.0421401
88	0xbd8b484e	-0.068009004
89	0xbd09f8e0	-0.03368461
90	0x3d88b2db	0.06674739
91	0xbcd5e5a4	-0.026110478
92	0xbcf61920	-0.030041277
93	0x3e12d9fd	0.14340968
94	0x3dd5700e	0.10421763
95	0x3d9959ae	0.07487808
96	0x3d22278a	0.03958849
97	0x3d54b62f	0.051931556
98	0x3dac78a8	0.08421451
99	0x3df27657	0.11838978
100	0x3e2e6353	0.17030077
101	0x3d3b208d	0.04568534
102	0x3cae533a	0.02127992
103	0xbd8d6d87	-0.06905656
104	0xbd93cf0a	-0.07217224
105	0xbe11205e	-0.14172503
106	0xbe073e12	-0.13207272
107	0xbd6dc473	-0.058048677
108	0x3cad6abf	0.021169065
109	0xbd008252	-0.031374283
110	0xbcdedccd	-0.027204895
111	0xbc9ddd7b	-0.01927065
112	0x3de8de2e	0.113705024
113	0x3d823b93	0.06359019
114	0x3d1d7ca2	0.038448937
115	0xbc8a8b86	-0.016912233
116	0xbd5efc7c	-0.054440007
117	0x3e82bcf1	0.25534776
118	0x3db96f3b	0.09054419
119	0x3c792239	0.015205913
120	0x3e4b1b28	0.19834578
121	0x3d43f950	0.047845185
122	0xbca51f84	-0.02015663
123	0x3e7757b4	0.2415455
124	0x3d13fb42	0.03612829
125	0x3d28021d	0.04101764
126	0x3c5ee98f	0.013605489
127	0x3d28f58d	0.0412498
128	0xbd292ee9	-0.041304503
129	0x3ccc3c9b	0.024931243
130	0x3d8d62d9	0.06903619
131	0x3d444ed5	0.047926743
132	0xbd760854	-0.060066536
133	0xbc2634bf	-0.010144412
134	0xbd0a73d7	-0.03380188
135	0xbce8a323	-0.028398102
136	0xbd21b876	-0.039482556
137	0x3d952019	0.07281513
138	0xbd82063e	-0.06348847
139	0x3d7b53d9	0.06135926
140	0x3cab44ef	0.020906894
141	0xbd670b6f	-0.05640739
142	0x3c94eda0	0.018179715
143	0x3d5119c4	0.051049963
144	0x3cc8cab3	0.024510717
145	0x3ce8da44	0.02842439
146	0x3d214604	0.039373413
147	0x3d08d624	0.033407345
148	0x3dc03e26	0.09386854
149	0xbd569654	-0.052389458
150	0x3d566900	0.05234623
151	0x3d829dc7	0.0637775
152	0x3d50c7be	0.05097174
153	0xbd4621cd	-0.04837208
154	0x3d1d949b	0.0384718
155	0x3d050111	0.03247172
156	0xbddde454	-0.10834566
157	0xbe17d655	-0.14827855
158	0xbd8cd7f7	-0.068771295
159	0xbdb47b8c	-0.08812627
160	0xbd9fa0db	-0.077943526
161	0xbd8a9af8	-0.06767839
162	0xbdce0f96	-0.100615665
163	0xbd66d1c6	-0.0563524
164	0xbd486491	-0.048924033
165	0xbd0213ca	-0.031757154
166	0xbaf7e8e3	-0.001891401
167	0x3c8b2aac	0.016988121
168	0xbd8ffc10	-0.07030499
169	0xbaf6d3ee	-0.001883147
170	0xbc590f22	-0.013248237
171	0x3d89c1c5	0.06726412
172	0xbb92130f	-0.0044578384
173	0x3cb51ada	0.02210753
174	0x3ce7acee	0.028280701
175	0x3c3398f7	0.010961763
176	0x3d113118	0.03544721
177	0xbd0231cd	-0.031785775
178	0xbb175539	-0.0023091568
179	0x3d758e00	0.059949875
180	0xbdd783cc	-0.10523185
181	0x3bf2f7bb	0.0074147857
182	0x3d0459cc	0.0323122
183	0xbd719519	-0.05898008
184	0xbdafc580	-0.08582592
185	0x3c875e95	0.016524592
186	0xbc02c2a1	-0.007980973
187	0x3cb310c3	0.021858579
188	0xbd49ac3b	-0.049236517
189	0x3d0c3961	0.03423441
190	0x3b8eb3e8	0.0043549426
191	0x3c70ef3b	0.0147054745
192	0xbd875aa0	-0.06609082
193	0xbde955b2	-0.11393298
194	0xbe0f2420	-0.13978624
195	0xbd8092e7	-0.062780194
196	0xbdb9e8f5	-0.09077636
197	0xbdc90b33	-0.09816589
198	0x3e15d1b1	0.14630772
199	0x3e1a514f	0.1507008
200	0x3de900a7	0.113770775
201	0x3e2e66ce	0.17031404
202	0x3dcb12e6	0.09915714
203	0x3d825f32	0.06365813
204	0x3cc1cf25	0.023658345
205	0x3d984558	0.07435101
206	0xbcd2e344	-0.025743134
207	0x3dd137d5	0.10215727
208	0xbd1221ea	-0.035676874
209	0x3e81b4c5	0.2533323
210	0x3d7564cc	0.05991058
211	0xbce9cd9c	-0.028540425
212	0x3ded2a55	0.1158034
213	0x3cfe2728	0.03102453
214	0xbe0fb1ab	-0.14032619
215	0xbbb94529	-0.0056539965
216	0xbd633604	-0.055471435
217	0xbdf6dfbf	-0.12054395
218	0xbd631b57	-0.055445995
219	0xbdba2ed4	-0.09090963
220	0x3c332c61	0.010935874
221	0xbd05595e	-0.03255593
222	0xbd22524c	-0.039629266
223	0xbdce40cc	-0.10070953
224	0xbdbc9df8	-0.09209818
225	0xbb496fa1	-0.0030736702
226	0x3d6a8a8e	0.057261042
227	0x3cffc191	0.03122023
228	0x3d0bd55c	0.034139022
229	0xbda6db60	-0.08147311
230	0x3cb59a16	0.0221682
231	0xbca06f51	-0.01958433
232	0x3d942aca	0.07234724
233	0x3d5f1dfc	0.054471955
234	0x3d19a946	0.037514947
235	0x3de90867	0.11378556
236	0x3d3b5479	0.045734856
237	0xbd694b01	-0.056956295
238	0xbccee2fb	-0.025254717
239	0xbd9a3e81	-0.07531453
240	0xbcdce0c4	-0.026962645
241	0xbd40a9e7	-0.04703703
242	0xbd936557	-0.071970634
243	0xbd5e5850	-0.05428344
244	0xbdcc131e	-0.09964584
245	0xbd91a2f6	-0.071111605
246	0xbde58241	-0.112064846
247	0xbb2d1bca	-0.0026414269
248	0xbd501862	-0.050804503
249	0xbc1b6f33	-0.009486961
250	0x3d1a6f1e	0.037703626
251	0xbd66707f	-0.05625963
252	0x3e2035f4	0.15645581
253	0x3deba17c	0.1150541
254	0x3e1a4c2c	0.1506812
255	0x3e8f5110	0.27991533

enc_layer_2.0.bias f4 [16]
0	0xbd9f487c	-0.07777497
1	0xbd14baca	-0.03631095
2	0x3daa865e	0.0832641
3	0xbdab526c	-0.0836533
4	0x3d3dee32	0.04636974
5	0xbd481a90	-0.048853457
6	0xbd0d4939	-0.03449366
7	0x3da131b1	0.07870806
8	0xba14d303	-0.0005677195
9	0x3dbc909b	0.09207269
10	0x3cd102e6	0.025514077
11	0x3cddc17f	0.027069805
12	0x3be8af49	0.0071009737
13	0xbd5cf277	-0.05394217
14	0xbd85c094	-0.06530872
15	0xbdb0fdd5	-0.086421646

enc_layer_large.0.weight f4 [12, 16, 3, 3]
0	0xbe1f3fe1	-0.15551712
1	0xbca340ca	-0.019928355
2	0xbd17e15b	-0.03708015
3	0xbe0a66d1	-0.13515784
4	0xbd7c95e5	-0.061666388
5	0x3c2ec899	0.010667943
6	0xbd999bb9	-0.07500405
7	0xbdadd77c	-0.08488366
8	0xbdd7f4df	-0.10544752
9	0xbd8a153b	-0.06742331
10	0xbdcd2eca	-0.1001869
11	0xbd5896ef	-0.052878316
12	0x3ddbd4cc	0.10733947
13	0x3d4b375b	0.049613338
14	0x3cc9f504	0.024652965
15	0xbda91f12	-0.08257879
16	0x3cce6d9a	0.025198746
17	0xbcc6bf1f	-0.024261056
18	0xbe42720d	-0.1898882
19	0xbdb70ef2	-0.089383975
20	0xbd407de7	-0.04699507
21	0x3de20704	0.110364944
22	0xbc8e8dd0	-0.017401606
23	0x3c6b2648	0.014352389
24	0xbc4108a1	-0.011781842
25	0xbd2d37b2	-0.042289443
26	0x3d376d2f	0.04478186
27	0xbd90045d	-0.07032082
28	0x3d3e26e9	0.046423826
29	0x3d3c3c8c	0.04595618
30	0xbda8cfef	-0.08242785
31	0x3d9f3391	0.077735074
32	0x3d1d8716	0.038458906
33	0xbc758ba5	-0.014986907
34	0xbd27261a	-0.04080782
35	0x3d664240	0.056215525
36	0xbd6840c1	-0.05670238
37	0x3dcc65ca	0.09980352
38	0x3ba9ac0f	0.0051779817
39	0x3a393c10	0.000706614
40	0x3dcead09	0.100915976
41	0x3b657d1d	0.00350172
42	0xbc44e573	-0.012017596
43	0x3d052889	0.03250936
44	0x3c64dde4	0.0139689185
45	0xbe95de26	-0.29271048
46	0xbe61686d	-0.22012492
47	0xbd9d9258	-0.076939285
48	0xbc1b2dff	-0.009471416
49	0xbd5b0242	-0.05346895
50	0x3c54e9ae	0.012995167
51	0xbbe57f5f	-0.007003709
52	0xbd53711a	-0.051621534
53	0x3c24bd2f	0.0100548705
54	0xbcf99ab4	-0.030469276
55	0xbd967b00	-0.07347679
56	0xbd6bc3ed	-0.057559896
57	0xbd086458	-0.03329882
58	0x3e0ad5a4	0.1355806
59	0xbd09cb04	-0.033640876
60	0xbd22900b	-0.03968815
61	0x3b641b6b	0.0034806381
62	0x3c4f86f8	0.012666456
63	0xbd6c8ad8	-0.0577496
64	0x3d5486bc	0.051886305
65	0x3db09f13	0.08624091
66	0x3ca25588	0.019816175
67	0xbcd83939	-0.026394473
68	0xbd00cb94	-0.031444147
69	0x3d5eb83d	0.054374922
70	0xbb974090	-0.0046158507
71	0xbd7d203a	-0.06179831
72	0x3e9a9296	0.3018996
73	0xbb310e17	-0.0027016455
74	0x3d75c127	0.059998658
75	0x3da0e5bc	0.07856318
76	0x3d335cf7	0.04378983
77	0x3c2b1b7f	0.010443567
78	0x3c02d17f	0.007984518
79	0x3da991f2	0.0827979
80	0x3bdcc505	0.0067373537
81	0x3e45aa87	0.19303332
82	0x3de3bc95	0.111199535
83	0xbd2b8a71	-0.041880075
84	0x3e4fe9b3	0.20303993
85	0x3da87581	0.08225537
86	0xbd8f9630	-0.07011068
87	0x3d1c9952	0.038232155
88	0xbc7dab2c	-0.015482705
89	0xbb123383	-0.0022308535
90	0x3e30ce9d	0.17266317
91	0xbdf44c2c	-0.11928591
92	0x3cd13261	0.025536718
93	0xbcee6a96	-0.029103559
94	0xbe116f49	-0.14202608
95	0xbcd1293b	-0.025532356
96	0xbdaca42f	-0.08429753
97	0x3d5c9bac	0.053859398
98	0xbd8fca86	-0.0702105
99	0xbc73709c	-0.014858391
100	0xbe07e728	-0.13271773
101	0x3b0f6f26	0.0021886318
102	0x3d144bef	0.03620523
103	0xbd39d699	-0.045370672
104	0xbbbaf3c4	-0.0057053287
105	0x3d0287ff	0.031867977
106	0xbcff6370	-0.031175345
107	0x3d9ae2ea	0.07562812
108	0x3e9ececa	0.31017143
109	0x3dd0ae9b	0.10189553
110	0x3d4a1932	0.049340434
111	0xbd46cb54	-0.048533753
112	0xbdcbd85f	-0.09953379
113	0x3d895f53	0.06707635
114	0xbd2762d7	-0.040865745
115	0xbc45a074	-0.012062181
116	0x3de86836	0.11348002
117	0xbd020d7b	-0.031751137
118	0xbe0c666b	-0.13710944
119	0xbb51ce9a	-0.0032014013
120	0xbdcb8ecd	-0.099393465
121	0xbda21fa4	-0.07916191
122	0xbda8d49f	-0.08243679
123	0xbce99765	-0.028514573
124	0x3bace872	0.005276733
125	0x3bbcf456	0.005766432
126	0xbc00e321	-0.007866652
127	0xbd6d03ce	-0.057864957
128	0xbdca8ef9	-0.09890551
129	0x3e28e067	0.16491853
130	0x3d874aba	0.0660605
131	0x3cb9f45c	0.022699527
132	0xbc6cf0cb	-0.014461706
133	0x3da1b19f	0.07895207
134	0x3c9eca67	0.019383622
135	0xbdb6ff18	-0.08935374
136	0x3db3a209	0.0877114
137	0xbd39429d	-0.045229543
138	0xbd179785	-0.037009735
139	0x3e01ce5f	0.1267638
140	0xbc70ff66	-0.014709329
141	0x3d4df7d3	0.05028517
142	0x3d9c5883	0.0763407
143	0x3d7634ad	0.06010883
144	0x3c44424e	0.011978699
145	0x3e1b73eb	0.15180938
146	0x3d9ddeb9	0.077084966
147	0x3e0109e4	0.12601429
148	0x3c10ab56	0.008829912
149	0x3daf9d49	0.08574922
150	0xbd312260	-0.043245673
151	0x3c169f85	0.009193306
152	0xbc864fa4	-0.016395397
153	0x3dac63bd	0.08417461
154	0x3df8be48	0.12145668
155	0x3cf0ecc3	0.029409772
156	0x3d87d413	0.06632247
157	0xbca3027d	-0.019898647
158	0xbce58c75	-0.028021077
159	0xbbdc66bb	-0.0067261136
160	0xbba34167	-0.004982162
161	0xbc23902f	-0.0099831065
162	0xbe4395a3	-0.1910005
163	0xbe100bc3	-0.14066987
164	0xbcb75034	-0.022377111
165	0xbe457757	-0.19283806
166	0xbdeea32a	-0.11652215
167	0xbd1c0faa	-0.038100876
168	0x3d7339c3	0.059381258
169	0xbcab4b37	-0.020909889
170	0x3bd12a1f	0.006383195
171	0xbe19adff	-0.1500778
172	0xbd257b95	-0.04040106
173	0xbc0cf8dd	-0.0086042555
174	0xbe0f8cbc	-0.1401853
175	0xbd3f1678	-0.046652287
176	0x3d7285b2	0.059209533
177	0xbc07f85c	-0.00829896
178	0x3c20d968	0.009817459
179	0x3dc4daa3	0.09612014
180	0xbbe7783d	-0.007063894
181	0xbd5d33bb	-0.054004412
182	0xbd08e392	-0.033420153
183	0xbe8f1431	-0.27945092
184	0xbd874448	-0.066048205
185	0xbd00179b	-0.031272512
186	0xbd25f555	-0.04051717
187	0xbcce5da9	-0.025191145
188	0xbb9751d7	-0.0046179104
189	0xbe4edb5e	-0.2020087
190	0xba0e206f	-0.0005421703
191	0xbb98bc96	-0.004661153
192	0xbc319c21	-0.010840447
193	0x3d2f26fd	0.04276179
194	0x3d10670b	0.03525452
195	0x3cb70c6d	0.022344792
196	0x3d2c5613	0.042074274
197	0x3bbdb5ca	0.005789493
198	0xbda1278b	-0.0786887
199	0xbe456138	-0.19275367
200	0xbcb7f150	-0.022453934
201	0xbda854d8	-0.08219308
202	0x3b403f46	0.002933459
203	0x3c6a276d	0.014291626
204	0x3d17ac86	0.037029766
205	0xbd79ec19	-0.061016176
206	0xbc8571d2	-0.016289625
207	0x3d2ccb38	0.042185992
208	0x3cf8208c	0.030288957
209	0xbd8b8774	-0.06812945
210	0xbe0ea015	-0.13928254
211	0x3dc78b4d	0.097433664
212	0x3d888321	0.06665636
213	0xbda052c0	-0.07828283
214	0x3c1abe5a	0.009444797
215	0x3b21565f	0.0024618132
216	0xbbca4606	-0.006172898
217	0xbe0b956c	-0.13631219
218	0xbd017356	-0.031604134
219	0x3d52b07b	0.051437836
220	0x3cd9e828	0.026599959
221	0x3bbd1d43	0.0057713105
222	0xbd8f2bb1	-0.06990755
223	0x3c8b6a9d	0.01701861
224	0xbd1bf53b	-0.038075667
225	0x3d1e42b7	0.038637843
226	0x3e1a64c8	0.15077507
227	0xbd6746c3	-0.056463968
228	0xb9c83942	-0.00038189633
229	0x3dbb668e	0.0915042
230	0xbb3bcfca	-0.0028657787
231	0x3c0ab363	0.008465621
232	0x3cd58e66	0.026068877
233	0xbcc1afe4	-0.023643441
234	0xbda14de8	-0.078761876
235	0xbdff9b14	-0.12480751
236	0xbd6bc69f	-0.057562467
237	0xbd7cd937	-0.06173059
238	0x3d05f9dd	0.03270899
239	0x3c8e8aea	0.017400224
240	0xbdb8b11d	-0.09018157
241	0x3d06b04f	0.032882985
242	0x3ca598e8	0.020214513
243	0x3d7cbe86	0.061705135
244	0xbd649c8c	-0.055813357
245	0xbc2b0b51	-0.01043971
246	0x3e034fed	0.12823458
247	0x3c86ce57	0.016455812
248	0x3da78f12	0.08181585
249	0xbd071490	-0.032978594
250	0x3d5fb569	0.054616366
251	0xbd5db918	-0.054131597
252	0xbccd8eea	-0.02509256
253	0xbcd239db	-0.025662353
254	0xbcc2ba98	-0.023770615
255	0x3b931064	0.004488038

enc_layer_large.0.bias f4 [12]
0	0xbd3f2cf3	-0.046673726
1	0x3cac5137	0.02103482
2	0x3de6afa6	0.11263971
3	0xbd99ec9a	-0.07515831
4	0x3d3f01bf	0.046632525
5	0xbdc3adea	-0.09554656
6	0x3cd9dfec	0.026596032
7	0xbd2a91cb	-0.041642945
8	0xbccc1859	-0.024913954
9	0x3d2a6ac1	0.041605715
10	0x3e0a4017	0.13501011
11	0xbdaee16b	-0.08539089

dec_layer_2.0.weight f4 [12, 8, 5, 5]
0	0x3c3bf324	0.011471543
1	0x3a8dc353	0.0010815657
2	0x3d13574e	0.035971932
3	0x3d04dc1b	0.03243647
4	0x3c30976a	0.010778287
5	0xbd13c2e1	-0.036074523
6	0x3ce59a85	0.028027782
7	0x3d805100	0.062654495
8	0x3de1cd1b	0.11025449
9	0xbce624ad	-0.02809366
10	0xbd99298e	-0.07478629
11	0xbd367b40	-0.044551134
12	0x3d27c369	0.040957842
13	0xbacd8a9d	-0.0015681569
14	0xbda7aa05	-0.081867255
15	0x3d8aa6be	0.06770085
16	0xbe0ff916	-0.14059862
17	0x3db0ce61	0.08633114
18	0x3d57f456	0.05272325
19	0x3dbcc0fc	0.09216496
20	0xbc205989	-0.009786972
21	0xbc9742fb	-0.018464556
22	0xbcbd17ae	-0.02308258
23	0xbe00d573	-0.12581424
24	0xbd2183e6	-0.03943243
25	0x3bfa26a9	0.007634003
26	0x3b6f87da	0.003654948
27	0x3d2d40a9	0.042297993
28	0x3dba5438	0.09098095
29	0x3c435144	0.011921231
30	0xbccf07cd	-0.025272274
31	0xbca3481b	-0.019931844
32	0x3d1dc215	0.03851517
33	0x3d72f028	0.059311062
34	0xbd2f4111	-0.04278666
35	0x3c712dc1	0.014720381
36	0xbda4167d	-0.08012102
37	0x3ddc0b6c	0.10744366
38	0x3de0400f	0.10949718
39	0x3c7d8b4d	0.015475106
40	0xbc86affd	-0.01644134
41	0xbb256778	-0.0025238674
42	0x3c517f6b	0.0127867265
43	0xbd67762c	-0.05650918
44	0xbdb020f2	-0.08600034
45	0x3bcee3f3	0.0063137948
46	0xbc7af3bd	-0.015316901
47	0x3d633da3	0.055478703
48	0x3e529e56	0.20568213
49	0x3e0b8a46	0.13626966
50	0xbc2d1794	-0.0105647035
51	0xbcd83c89	-0.026396053
52	0xbd29a640	-0.041418314
53	0x3d2c256f	0.042027887
54	0x3d67a2f7	0.0565519
55	0x3d5e8c69	0.054333124
56	0xbd08a879	-0.033363793
57	0xb953c53c	-0.00020196004
58	0x3b79f9b3	0.0038143217
59	0xbd0138c0	-0.03154826
60	0x3d5b091e	0.05347549
61	0xbd8a24a2	-0.067452684
62	0x3df19d9a	0.11797638
63	0xbce5f33a	-0.028070081
64	0xbd7df077	-0.061996903
65	0x3cfcd351	0.030862482
66	0xbd5c4ee7	-0.053786185
67	0x3e2263cf	0.15858386
68	0x3deb74a1	0.114968546
69	0xbc943a8a	-0.01809432
70	0x3c93b8b4	0.01803241
71	0x3deb8f95	0.115019955
72	0x3d43ead8	0.047831386
73	0x3dd40002	0.10351564
74	0xba87e6a9	-0.0010368425
75	0xbc4c2b99	-0.012461566
76	0x3cecdc89	0.028913753
77	0x3d8e70b9	0.06955094
78	0x3ceb6d0b	0.02873852
79	0x3d22b9c1	0.03972793
80	0xbb977cfc	-0.0046230536
81	0x3dd90911	0.105974324
82	0x3d3d2d6e	0.046185903
83	0xbd2d38e4	-0.042290583
84	0x3b9f25d1	0.004856803
85	0x3d0d41cd	0.03448658
86	0xbd7096b1	-0.05873746
87	0x3dec501b	0.115387164
88	0x3d144e1d	0.036207307
89	0x3ad314a9	0.001610418
90	0x3d2bb98b	0.041924994
91	0xbcb5524d	-0.02213397
92	0x3c7932d5	0.015209873
93	0x3b75e9f1	0.0037523473
94	0x3dd438cb	0.10362395
95	0xbc410b36	-0.011782458
96	0xbd8bf757	-0.06834286
97	0x3c943f5e	0.018096622
98	0x3dc7fed7	0.09765404
99	0xbcb72a11	-0.022358926
100	0xbd2369fe	-0.039896004
101	0x3d91302d	0.07089267
102	0x3bc31e3f	0.0059545333
103	0x3bc52f5e	0.0060176095
104	0xbb89619a	-0.004192543
105	0x3d04408e	0.032288127
106	0x3d9f7508	0.07785994
107	0x3d42bcaf	0.047543224
108	0x3e13c1c6	0.14429387
109	0x3d3a8ff8	0.045547456
110	0x3cadc624	0.021212645
111	0x3d6d41d4	0.057924107
112	0x3e3d9172	0.18512514
113	0x3d66c561	0.05634058
114	0x3da9b56f	0.08286559
115	0x3d051ad4	0.03249629
116	0x3d6a9c80	0.057278156
117	0x3dea0aa7	0.11427813
118	0x3ca2bb7b	0.019864788
119	0x3b53e281	0.0032331052
120	0xbb160897	-0.0022893304
121	0x3c980d88	0.01856114
122	0x3dd16cbe	0.10225819
123	0x3d86b90e	0.06578265
124	0x3cffb10e	0.031212356
125	0xbc5cb1fe	-0.013470171
126	0xbbcecd06	-0.006311062
127	0x3d035a0e	0.032068305
128	0xbd2e74ca	-0.042591847
129	0x3de5279c	0.111891955
130	0x3d689bd7	0.056789245
131	0xbd8b3141	-0.06796504
132	0x3e275a75	0.163431
133	0xbc99d0e3	-0.018776363
134	0xbd7c5e76	-0.061613522
135	0xbc52b003	-0.012859347
136	0x3ce60dc1	0.02808273
137	0x3e6f6f40	0.23382282
138	0x3dea3d68	0.114374936
139	0xbd260d8f	-0.040540274
140	0xbc98404d	-0.018585349
141	0x3d4b599a	0.049645998
142	0xbd735592	-0.059407778
143	0x3d64208b	0.055695098
144	0xbd86e4dd	-0.06586621
145	0xbcda09c0	-0.026615977
146	0xbda9faa3	-0.08299758
147	0xbd23d340	-0.039996386
148	0xbb9ffd61	-0.0048825
149	0xbe159be1	-0.14610244
150	0xbd188bdf	-0.037242766
151	0xbd807f6f	-0.06274306
152	0xbc016bf3	-0.007899272
153	0xbceff886	-0.02929331
154	0x3ce0a0d4	0.027420439
155	0xbd3d23fb	-0.04617689
156	0xbda00661	-0.07813717
157	0xbcb67dca	-0.022276778
158	0x3d371fc2	0.04470802
159	0xbc3cbbde	-0.0115194
160	0xbd21aa07	-0.03946879
161	0xbd9926ce	-0.074781045
162	0x3d229020	0.03968823
163	0x3dc46cac	0.0959104
164	0xbc768557	-0.015046439
165	0xbd7c97ab	-0.06166808
166	0xbdd73ee5	-0.10510043
167	0x3d25d2d1	0.040484253
168	0xbdb5914f	-0.08865606
169	0xbd993f99	-0.074828334
170	0xbd8641ff	-0.065555565
171	0xbd949436	-0.072548315
172	0x3c8fa080	0.017532587
173	0xbd883ad1	-0.06651843
174	0x3c566925	0.013086592
175	0x3b8ccdc7	0.0042969915
176	0xbb0b0324	-0.0021211589
177	0xbbc9fa3e	-0.0061638644
178	0x3d022f67	0.031783488
179	0xbc55ffd0	-0.013061479
180	0xbc24f63c	-0.0100684725
181	0xbd5fa81e	-0.05460369
182	0xbd84afaa	-0.06478818
183	0xbc9f76b9	-0.019465791
184	0xbcf75340	-0.030191064
185	0xbcd8dfbe	-0.026473876
186	0xbd0cbdcc	-0.034360692
187	0x3dbe0cba	0.09279771
188	0xbb89ecc2	-0.004209132
189	0xbd2a3cb2	-0.04156179
190	0xbd6a757e	-0.057240956
191	0xbd42b778	-0.04753825
192	0xbd82657a	-0.06367011
193	0xbe3fd8a6	-0.18734989
194	0xbe1404a2	-0.14454892
195	0x3c91ea8d	0.017812038
196	0xbdacf1a5	-0.084445275
197	0xbdb68790	-0.08912575
198	0xbda95899	-0.08268852
199	0xbdc16c15	-0.09444443
200	0xbbe5ac91	-0.007009097
201	0xbaec7956	-0.0018041532
202	0xbc9b0def	-0.018927542
203	0xbbc2f7d7	-0.005949955
204	0x3d18c87d	0.037300576
205	0x3d8c6497	0.068551235
206	0x3d9d6bcf	0.076865785
207	0x3d7607f0	0.060066164
208	0x3bdc0f94	0.0067157242
209	0x3e181bb7	0.14854322
210	0x3b3c27e3	0.0028710298
211	0x3d879e4a	0.06621988
212	0xbd0a4d74	-0.03376527
213	0x3d7605a7	0.060063984
214	0x3d6fd104	0.058548942
215	0xbb4f81a0	-0.0031662956
216	0x3dafcfde	0.085845694
217	0x3d187683	0.037222397
218	0x3e22a602	0.1588364
219	0x3d3b77b6	0.045768462
220	0xbae5ff5d	-0.0017547418
221	0x3d8190fa	0.0632648
222	0x3d9b0187	0.07568651
223	0x3c95dd63	0.018294042
224	0x3d87af3e	0.06625222
225	0xbcdb1b69	-0.026746469
226	0x3d456df3	0.04820056
227	0x3c39e43d	0.01134592
228	0x3d6008d0	0.054695904
229	0x3dc6c434	0.097053915
230	0xbc54fa2e	-0.012999101
231	0x3dba5b0b	0.09099396
232	0xbd0c2813	-0.034217905
233	0x3ce43d37	0.02786122
234	0xbbaf13c9	-0.0053429347
235	0x3d83c1bd	0.06433437
236	0x3d4a2866	0.049354933
237	0x3d6f84ba	0.058476187
238	0x3d577e00	0.052610397
239	0x3a877715	0.0010335172
240	0x3cbb7d3e	0.022886869
241	0x3c685100	0.014179468
242	0x3e301a0c	0.17197436
243	0x3e25c272	0.16187456
244	0x3daf98d7	0.08574074
245	0xbc8186a4	-0.015811272
246	0x3cc8711d	0.024468
247	0xbc8811aa	-0.016609985
248	0x3cd09ddc	0.025465898
249	0x3c3587b9	0.011079722
250	0x3bbd149c	0.005770279
251	0x3a23294d	0.0006224111
252	0xbc86d32f	-0.016458122
253	0x3c7a60bf	0.015281855
254	0x3d552548	0.052037507
255	0x3b038218	0.0020066556

dec_layer_2.0.bias f4 [8]
0	0x3d859070	0.0652169
1	0x3d5d7696	0.05406817
2	0x3dc04d55	0.0938975
3	0xbc60ef71	-0.013728962
4	0x3e872b83	0.26400384
5	0x3d9572ba	0.07297273
6	0x3e522fae	0.20526001
7	0x3c06294b	0.008188556

dec_layer_3.0.weight f4 [8, 3, 5, 5]
0	0x3dbf2602	0.09333421
1	0x3e0c92db	0.13727896
2	0x3e05fd55	0.1308492
3	0x3ddbc46a	0.107308224
4	0x3d0a90ab	0.033829372
5	0x3e03ad73	0.12859134
6	0x3e4b73b0	0.1986835
7	0x3e79da39	0.24399652
8	0x3e28f710	0.16500497
9	0x3d80f41a	0.06296559
10	0x3dec3d71	0.115351565
11	0x3e6fa0ba	0.23401156
12	0x3ea9d154	0.33167517
13	0x3e6a6dec	0.22893494
14	0x3dddd9d1	0.10832561
15	0x3d15d4cf	0.036579903
16	0x3dcb789a	0.09935112
17	0x3e54ee83	0.2079411
18	0x3e1ed70b	0.1551172
19	0x3d9a3951	0.075304635
20	0x3c55a736	0.0130403545
21	0x3cbf5fbb	0.023361078
22	0x3d7a7e11	0.061155383
23	0x3d6a6d14	0.05723293
24	0x3c6a486a	0.014299491
25	0x3d92ebe0	0.07173896
26	0x3d6b3c58	0.057430595
27	0x3db01bce	0.08599053
28	0x3d8274f6	0.06369965
29	0x3d7862a1	0.060640935
30	0x3dac6b5e	0.08418916
31	0x3dd7e37d	0.10541437
32	0x3e32fb82	0.17478755
33	0x3de374c6	0.11106257
34	0x3d9aee39	0.075649686
35	0x3d852d9e	0.065028414
36	0x3df887e7	0.12135296
37	0x3e4351a0	0.19074106
38	0x3e038d1c	0.12846798
39	0x3d8eab68	0.06966287
40	0x3ca29f55	0.019851366
41	0x3dc1ade9	0.09456999
42	0x3e0effdf	0.13964795
43	0x3dbea5a6	0.09308939
44	0x3ca345db	0.01993077
45	0xbbbd016d	-0.005767992
46	0x3cb4fd44	0.022093423
47	0x3abd3fea	0.0014438604
48	0x3c12c213	0.008957404
49	0xbcbf3a4c	-0.023343228
50	0x3de54c43	0.111961864
51	0x3def08d5	0.116716065
52	0x3e127367	0.14301835
53	0x3dd54eef	0.10415446
54	0x3dc5d366	0.09659462
55	0x3e01eaa7	0.12687169
56	0x3e05c9f8	0.13065326
57	0x3e570190	0.2099669
58	0x3e00fdab	0.12596767
59	0x3dc55cc6	0.09636836
60	0x3e086616	0.13320193
61	0x3e2a4347	0.16627227
62	0x3e7e2a23	0.24820761
63	0x3df8a754	0.1214129
64	0x3db2ee7e	0.08736895
65	0x3d2127cb	0.03934459
66	0x3d82f587	0.06394487
67	0x3df2511d	0.118318774
68	0x3d107725	0.035269875
69	0x3b444bb0	0.002995234
70	0x3c95eca8	0.018301323
71	0x3d018522	0.031621106
72	0x3cd3c20c	0.025849365
73	0x3b97ef03	0.0046366467
74	0xba7913bb	-0.0009501536
75	0x3d990520	0.07471681
76	0x3e16cbd2	0.14726189
77	0x3de3f3ee	0.1113051
78	0x3d4797d2	0.04872877
79	0xbc360004	-0.011108402
80	0x3e1a23e4	0.15052754
81	0x3e5b62f7	0.21424471
82	0x3e833271	0.2562442
83	0x3dca7626	0.09885816
84	0x3d6ca701	0.057776455
85	0x3e1ce126	0.15320262
86	0x3e711bbf	0.2354574
87	0x3ea1b16f	0.31580684
88	0x3e2c899a	0.16849366
89	0x3db6df50	0.08929312
90	0x3da4e348	0.08051163
91	0x3e364e69	0.17803349
92	0x3e30b184	0.17255217
93	0x3d563a3f	0.05230164
94	0xbbbf975b	-0.0058469004
95	0x3d754692	0.059881754
96	0x3de7dc58	0.11321324
97	0x3db737db	0.089462005
98	0xbafe5fbc	-0.0019407193
99	0xbc401f16	-0.011726161
100	0x3d6622fd	0.05618571
101	0x3ce996d5	0.028514305
102	0x3cfab0e2	0.030601922
103	0xbc2062a1	-0.00978914
104	0x3bd7bc78	0.0065837465
105	0x3dc1d1b2	0.09463824
106	0x3dbebd0f	0.09313404
107	0x3e164818	0.14675939
108	0x3d1b749f	0.037953015
109	0x3d0f9aa1	0.035059575
110	0x3dd2de7e	0.10296343
111	0x3e00b08d	0.12567349
112	0x3e18be8f	0.14916442
113	0x3d4d808b	0.050171416
114	0x3cdbab36	0.026815038
115	0x3d73238d	0.059360076
116	0x3ddefaa1	0.108876474
117	0x3d88e246	0.06683783
118	0xbca762d7	-0.020432873
119	0xbd5861e1	-0.05282772
120	0x3d672eab	0.05644099
121	0x3dbc42b8	0.09192413
122	0xbbe1cc3e	-0.0068908026
123	0xbd8034d2	-0.06260075
124	0xbdb3a310	-0.08771336
125	0x3dcc82be	0.099858746
126	0x3dc23a77	0.094838075
127	0x3e02abc6	0.12760839
128	0x3d7f304f	0.06230193
129	0x3d8d50fb	0.069002114
130	0x3e0b20c0	0.13586712
131	0x3e071aea	0.1319386
132	0x3e4eba6b	0.201883
133	0x3d7c05e9	0.061529074
134	0x3d667375	0.056262452
135	0x3e2fa869	0.17154087
136	0x3e34efc7	0.17669593
137	0x3e674af7	0.2258719
138	0x3d7c2de5	0.061567206
139	0x3d644a7b	0.055735093
140	0x3dbda599	0.09260101
141	0x3dd27224	0.10275677
142	0x3dc52c58	0.096275985
143	0xbd146345	-0.036227483
144	0xbd322fb2	-0.043502517
145	0x3d9212cf	0.07132494
146	0x3dafa7d5	0.08576933
147	0x3d00c474	0.031437352
148	0xbd67cfe2	-0.056594737
149	0xbd434999	-0.04767761
150	0xbe205515	-0.15657456
151	0x3d9de230	0.077091575
152	0xbdff26e3	-0.12458589
153	0x3d3ef8f1	0.046624128
154	0xbdcd6c80	-0.1003046
155	0xbd1a128d	-0.037615348
156	0x3eae185c	0.3400296
157	0x3e1bae46	0.15203199
158	0x3e7f00fd	0.24902721
159	0xbd0f4bd6	-0.034984432
160	0xbcc47c18	-0.023984954
161	0x3e71aa94	0.23600227
162	0x3e568e2f	0.20952676
163	0x3e6c59af	0.23081087
164	0xbc8e6198	-0.01738052
165	0x3d9f5463	0.07779767
166	0x3e014a2d	0.12625952
167	0x3e7c8d43	0.24663262
168	0x3e98b3ff	0.29824826
169	0x3e088862	0.13333276
170	0x3db2f58b	0.0873824
171	0xbdde24c1	-0.10846854
172	0x3db9adeb	0.09066375
173	0x3da08e80	0.0783968
174	0x3e1375bd	0.14400382
175	0xbd079f96	-0.033111177
176	0x3e2521ac	0.16126126
177	0xbdc35ff0	-0.09539783
178	0xbd25da26	-0.040491246
179	0xbe1007cd	-0.14065476
180	0xbc9a0683	-0.018801933
181	0x3e81c6b9	0.25346926
182	0x3c012c99	0.007884168
183	0x3d4c0940	0.04981351
184	0xbe3fda95	-0.18735726
185	0x3ccdf368	0.02514048
186	0x3e2529e4	0.16129261
187	0x3dfa38ab	0.1221784
188	0x3dfd9aa2	0.123830095
189	0xbc640170	-0.013916358
190	0x3b49424d	0.0030709684
191	0x3d2fe034	0.042938426
192	0x3e2ab200	0.16669464
193	0x3e75abb4	0.23991281
194	0x3de2fa2e	0.11082874
195	0x3d9c8437	0.076424055
196	0x3d21a3ee	0.039462976
197	0x3e4284a2	0.18995908
198	0x3e11c86e	0.14236614
199	0x3e2c9005	0.16851814
200	0xbdcc3363	-0.09970739
201	0xbcd49384	-0.025949247
202	0xbe879d0b	-0.26487002
203	0xbd9e1bc8	-0.077201426
204	0xbe17cc4f	-0.14824031
205	0xbdec47eb	-0.11537155
206	0x3d883f57	0.06652706
207	0xbe509d2d	-0.20372458
208	0xbd866a7f	-0.06563281
209	0xbe804b3d	-0.25057402
210	0xbe7b99b9	-0.2457036
211	0xbd6829b2	-0.05668039
212	0xbe937a77	-0.2880437
213	0xbcbe66d6	-0.023242395
214	0xbe507279	-0.20356168
215	0xbe135173	-0.14386539
216	0xbd386d81	-0.045026306
217	0xbd93b4a8	-0.07212192
218	0x3dd36846	0.10322623
219	0xbd25caa3	-0.040476453
220	0xbe0ecf9a	-0.13946381
221	0xbdfc4c20	-0.12319207
222	0xbd1432aa	-0.03618113
223	0x3e1eec3a	0.15519801
224	0x3d921edd	0.07134793
225	0xbd6a6212	-0.057222433
226	0x3e055070	0.13018966
227	0x3c293076	0.010326495
228	0x3e811998	0.2521484
229	0xbe35de02	-0.1776047
230	0x3d818a69	0.06325228
231	0x3d7a47bb	0.061103564
232	0xbdc8fd00	-0.09813881
233	0x3d5b3562	0.053517707
234	0xbe716aee	-0.23575947
235	0xbe0e0fc6	-0.13873205
236	0x3d6905c9	0.056890283
237	0xbddbdf99	-0.10736007
238	0xbe4a213d	-0.19739242
239	0xbe6bc0f1	-0.2302282
240	0x3e5dee07	0.21672831
241	0x3edc16bf	0.42986104
242	0x3ec9c829	0.39410523
243	0x3db03fb0	0.086058974
244	0x3ec5c5ce	0.38627476
245	0xbe1a25cb	-0.1505348
246	0xbe548af7	-0.20756136
247	0xbb383cbf	-0.002811238
248	0xbe814d14	-0.25254118
249	0x3e8da04b	0.27661356
250	0xbe3d5fc1	-0.18493558
251	0xbe308bf2	-0.17240885
252	0xbdd1ddce	-0.10247384
253	0x3c8eb428	0.01741989
254	0xbe506bb2	-0.20353583
255	0xbe11a2cd	-0.1422226

dec_layer_3.0.bias f4 [3]
0	0x3ca025e1	0.019549312
1	0x3c34d171	0.011036263
2	0x3c9eff5a	0.01940887
