save/updated_model_large/gen_model.pt (torch, 51145 bytes, 10 tensors)

enc_layer_1.0.weight f4 [32, 3, 5, 5]
00000000: 1b4b aa3d 52d6 713d 6cd6 853d ce37 ad3d
00000010: 8c9b a1bd b4e9 073e 3012 fd3d 9d7c a3bd
00000020: 4ed2 c53d 54da b73b 4189 65bd 0cd7 9d3d
00000030: dcdd 083d 8d26 383d 1492 adbd b929 773d
00000040: 66ee 80bd c47b 813d 4409 0b3c a482 483a
00000050: da64 91bd 1e5e af3d 103e 323d 548c cdbd
00000060: f13e d63a 5a46 14be 769a 0b3d f202 9ebd
00000070: fa8e 73bc f331 203d 6176 fdbd 77a7 f7bc
00000080: ee80 9c3b 924b 5c3d f1b6 c7bd 5414 40bb
00000090: e125 273d ab09 663d 27f6 17bd 2fca bd3d
000000a0: 6558 da3c 169c b83a f3b4 e4bd b14e babd
000000b0: 8fb9 18bd 0064 db3a 4601 88bd 6136 03be
000000c0: 3a4c b7bd 891c 20be 473e d0bd 05d2 853d
000000d0: a8d9 123c 70ce 0fbd ee0f 2fbc 64ec b53d
000000e0: d71a 0b3e f61e 873d 2717 a83d ea10 3bbd
000000f0: 01ee 0d3e 7db5 933d 83e2 fe3d 8564 c83d
00000100: 2c6e d6bb 6a38 e73d eb2a 223e c422 993d
00000110: 3bf7 c13c 4d65 ecbc eb20 023e 845a 463d
00000120: 5d63 b2bc a782 8b3c 883f 953d f005 0a3e
00000130: 75ad 073e 9543 17bd 18dd 443d 3509 7f3d
00000140: acaf 083e 732e fcbb 2d19 0dbd ddd6 b33d
00000150: e2dd e33d 58a1 df3d d14c 293d 1dea 663d
00000160: aaf8 303c 845c fe3d 88ef 913d 701a 163e
00000170: 91e2 3abd 1487 4d3d be03 f43d 3474 10bc
00000180: b0d2 0e3e 429f e13d 9223 18bd 3779 023e
00000190: f429 52bd ce74 983d 10a9 2bb9 a3a9 7d3c
000001a0: 1bb9 95bd d068 683d 025b 8ebd 93f5 333d
000001b0: 92fa 843c fdce f8bc 017c 3cbe 30cd ebbd
000001c0: 69f6 873c 9243 16be fd34 1dbe 4698 a3bd
000001d0: 38e5 23be 685a 79bd 3c03 9dbd 4cc9 0cbe
000001e0: 7844 1abe 7a7f 8ebd 722e 24be 3c56 a4bd
000001f0: 67ea ebbd be5e 283c ee6d a03d a947 253e
00000200: 0a6a a0bc c299 da3d b77e e83d fc4e d2bc
00000210: 6194 e03d 4394 efbc c2f3 2abd a613 52bc
00000220: 97aa 363d 7add 12bd e915 443d 8f00 b8bd
00000230: bf52 7bbd 5d32 01bd a479 9abd ca14 82bd
00000240: 01b1 b1bc 984e ae3d d29e 1a3d a4ed 10bc
00000250: baa6 4a3c 9864 51bd 88f6 753d e8c6 533c
00000260: 0a5b 663d b33e 71bd a34f 45bd f4e1 8ebd
00000270: e326 073e dfed 1fbd b815 0e3d bedc 113b
00000280: fcb4 bd3d 00a1 973c 2709 a1bd eba3 153a
00000290: cf0b 87bd 4420 5f3d 09b1 6c3d eaff b43d
000002a0: ed61 c63c 7bf2 e8bc a869 b4bd 7203 88bd
000002b0: e376 403d 688e a2bd 7923 d63d 641b 083e
000002c0: ddcb 213e 7b9b 633c 3176 a2bd 941e 5b3d
000002d0: d2e2 da3c 5191 b63d dae4 ec3d fe19 e1bc
000002e0: ef81 f83d 96f3 6fbc 259b 093d 9783 1cbb
000002f0: 44b1 aa3d 4abe 583d d2cf 3f3d cc16 3f3d
00000300: b349 81bd f3a1 d4ba 021f 073e fe28 fc3c
00000310: 372b 033d 72b8 c3bd 10c4 d33c d126 753a
00000320: df15 023d 7c42 60bd cf04 09bd cc8e c7bd
00000330: 8387 95bc e66e f73c 0956 443d d68e 8fbd
00000340: cfa9 f33d 1ee0 1ebb f376 143d 6a18 12bd
00000350: e6df df3c 6fdb 80bd ff20 dabd e8e3 34bd
00000360: e7f8 ab3d dc35 b63d dcc4 9a3d b01b cfbd
00000370: 7b84 653d 1a63 eabc 2e89 6e3c ebce bbbc
00000380: 0554 11be e44a 6fbe 70bb 913a d914 e0bd
00000390: 8dd4 093e 8f88 ea3a 92ff b8bd ff25 05be
000003a0: 30a3 b13d 8339 9a3c ab68 6dbb 88dc 4bbe
000003b0: 7eea 31bd c7ff 5fbd b04b 6e3d deb8 073e
000003c0: c307 0cbe 73bf ebbd d975 e0ba c5b4 ed3d
000003d0: 174c ee3d d37e 24be 86f9 9b3d e613 bb3c
000003e0: 113c 113e c9ac 5b3d 2def 50be e2ac e8bd
000003f0: fac8 e23d f0fe 97ba dc50 a03d 88a1 90be
0.083151065 0.059042282 0.06535038 0.084579095 -0.07890996 0.13272744 0.123569846 -0.079827525
0.09659253 0.0056107435 -0.0560391 0.077070326 0.033414707 0.04495864 -0.08475128 0.060342524
-0.06295471 0.063224345 0.008486096 0.00076488615 -0.07099314 0.08562873 0.04351622 -0.10036531
0.0016345662 -0.14479962 0.034082852 -0.077154055 -0.014865631 0.039110135 -0.123760946 -0.03023122
0.004776112 0.053783007 -0.0975169 -0.0029308992 0.04080761 0.056161564 -0.037099984 0.09267079
0.026653478 0.0014084603 -0.11167326 -0.090970404 -0.037286337 0.0016738176 -0.06640868 -0.12813713
-0.08950086 -0.15635885 -0.101681285 0.06534199 0.008963026 -0.035108984 -0.01068495 0.088829786
0.13584457 0.06597702 0.08207541 -0.045670427 0.13860323 0.072123505 0.124455474 0.097847976
-0.006543895 0.11290057 0.15836684 0.07477334 0.023677459 -0.028856898 0.1270787 0.048426166
-0.021775896 0.017030073 0.07287508 0.13478827 0.13249762 -0.036929686 0.048062414 0.06226464
0.13348264 -0.007695967 -0.034447838 0.08781216 0.11126305 0.10919446 0.041333023 0.05637561
0.010801474 0.1241999 0.07125765 0.14658523 -0.045626227 0.05017765 0.11914776 -0.0088167675
0.13947558 0.11016704 -0.037143297 0.12741552 -0.05130954 0.07444154 -0.00016370811 0.015482339
-0.07310697 0.056740582 -0.06950952 0.04393537 0.016232762 -0.030372137 -0.18406679 -0.11513746
0.01659699 -0.14674214 -0.15352245 -0.07988028 -0.16005409 -0.060877234 -0.076666325 -0.13748664
-0.15065181 -0.06957908 -0.16033342 -0.080242604 -0.11519318 0.010276495 0.078334674 0.16140617
-0.019581813 0.10673858 0.11352294 -0.025672428 0.10965801 -0.029245501 -0.04173637 -0.012822067
0.04459628 -0.035855748 0.047872458 -0.089844815 -0.06135821 -0.03154217 -0.07542732 -0.063516214
-0.021690847 0.08511084 0.03774912 -0.00884572 0.012368852 -0.051121324 0.060049564 0.012925841
0.056239165 -0.058897685 -0.04817165 -0.06976691 0.13198428 -0.03904521 0.03468868 0.0022256817
0.09263036 0.018509388 -0.07863074 0.00057083246 -0.06594049 0.05447413 0.05778602 0.08837874
0.024216617 -0.028435936 -0.08809215 -0.06641282 0.04698838 -0.07937318 0.104559846 0.13291699
0.15800424 0.01389205 -0.079326995 0.05349596 0.026719484 0.08914436 0.115670875 -0.027478214
0.12134158 -0.014645478 0.033595223 -0.0023882145 0.08334592 0.05291585 0.046829052 0.0466526
-0.06312885 -0.0016222581 0.13195422 0.030781265 0.032023635 -0.095566645 0.025850326 0.00093517924
0.03175914 -0.054750904 -0.03345185 -0.09744033 -0.018253094 0.030204248 0.047933612 -0.07009666
0.11897623 -0.002424247 0.03624625 -0.035667814 0.027328443 -0.06291854 -0.10650825 -0.04416266
0.08397084 0.088969916 0.07557079 -0.10112703 0.056034546 -0.028611708 0.014559073 -0.022925815
-0.14192207 -0.23368412 0.0011118483 -0.109414764 0.13459988 0.0017893481 -0.09033121 -0.13002776
0.08673704 0.018826252 -0.0036225717 -0.19908345 -0.04343652 -0.054687288 0.05817765 0.13254115
-0.13674836 -0.115111254 -0.0017124965 0.11606745 0.11635607 -0.16064005 0.07615952 0.022836637
0.1418307 0.053631578 -0.20403738 -0.113611 0.110734895 -0.0011596363 0.07827923 -0.2824824

enc_layer_1.0.bias f4 [32]
00000000: a154 fdbe e064 3fbe 7b5a 04bf 0e79 16be
00000010: b00c cebd 0479 0b3e 7ac4 05bf 9c1f ae3d
00000020: 2802 67be 4432 f1be b6a5 d43d 86a9 a4be
00000030: e584 89be b9cd 3b3d 95e7 663d 8113 41bd
00000040: b71a b73c 06c8 27be 1313 a53c b18b 9bbd
00000050: 90c6 e33c 9b8c ffbd e594 793d 8a48 bbbe
00000060: 60f4 15be 5988 843d 2eb4 a3be adc5 8e3e
00000070: a498 08bf eb36 c13d 739f 8f3d b9bd efbe
-0.4947863 -0.18690825 -0.5170056 -0.14694616 -0.10061014 0.13620383 -0.52252924 0.08502123
-0.22559416 -0.47108662 0.10383169 -0.32160586 -0.26859203 0.04585049 0.056373198 -0.04713774
0.022351606 -0.16384897 0.020150697 -0.075950034 0.027804643 -0.1247799 0.060933013 -0.3657878
-0.14644003 0.06471319 -0.31973404 0.2788519 -0.5335791 0.09434303 0.070128344 -0.46824434

enc_layer_2.0.weight f4 [16, 32, 3, 3]
00000000: 36b4 d43c df10 f63d def6 b03d d146 f7bd
00000010: 6fdd bdbd 012b 35be 1c07 89bd c3c4 57be
00000020: f047 22be f14e cfbc 16a6 2bbe 5e55 c3ba
00000030: ccac 56be 18c0 97bd 9082 0cbd 7976 73be
00000040: eb33 78be f50c 30be cb9d 8c3e 0046 ad3e
00000050: 2065 a13e 6c23 323e 2869 0a3e cdda 1f3e
00000060: bb4a 453e f24c 08bd 5377 a0bd 35ec 0a3e
00000070: cf83 6b3b a4e5 81be 7933 3c3d 4219 b7bd
00000080: 0196 4abe 3e21 2b3d 59b4 fabd 97de 01be
00000090: fc2d 5f3d 7f5c 19bd 3357 3ebd 8ba1 96bd
000000a0: 77eb b8bd 2c02 16bd 751e d3bd 224f 4abd
000000b0: 6a91 c7bd 9bf1 bc3c 09fa d23c bc21 eb3c
000000c0: 8d24 1c3b ac03 a2bd 1702 613c 5a20 973b
000000d0: 86cd a8bd e53d 2dbd ce0c 723e e6f1 aa3e
000000e0: 1f49 ac3e ecd4 adbd 8fc5 60be fd20 d4bd
000000f0: 3b38 243b 9a7b cebd ed0a c5bd 2727 dbbb
00000100: 38cb 1f3e ca8c 983c c018 3d3d ffc1 c7bd
00000110: 0556 06be f593 a8bd 5feb c53d 14f9 8fbc
00000120: 3e19 e03d 1de1 783d 3f39 9c3c fe68 21bc
00000130: de05 953d be13 0b3d 3c75 243d 7776 92bb
00000140: 8ce8 6cbc 02b4 46bc 1405 063d d894 9a3d
00000150: 99e9 59bd fc2c 05bd 25df dd3b 90b6 663d
00000160: ea2b 2abd b600 c5bb 5b8a 933d 5966 30bd
00000170: 962f 0ebd fdd4 103e c5f8 e13d 8000 943d
00000180: 4165 b53c 3adf 173d c324 b13d 8348 c53d
00000190: 9e0d e43d 8734 80bd 2d4d d03b 8ead 6fbd
000001a0: 4917 9abc ee97 23be 7402 c3bd 4c74 0bbd
000001b0: 2ce9 0bbe 4022 37be 3656 9bbc 63b2 febd
000001c0: 7f29 ad3d 1ad2 1d3d d75a b3bc 4f72 39bd
000001d0: 282f cabc 3e8d 993e 854e b03d 44ac adbc
000001e0: 7111 1e3e dd91 e03c dacb 1abd a291 303e
000001f0: fd47 333c 9f63 063d dfc2 fa3c 09a7 3a3d
00000200: c4a3 37bd 4def f53b 47cb 8d3d dcb7 183d
00000210: d737 65bd c1ee 5dbc 200d 2ebd 7be3 00bd
00000220: f1c4 71bd 92e8 8f3d f322 dfbc d206 fd3c
00000230: 528f 173b e4bb 40bd 542c 0abd db2e 8a3c
00000240: cceb 543d e8a6 953d 043f 833c 0364 f53c
00000250: b8bc c43d a55d 12bd ff3c 7a3d f0d8 863d
00000260: 4528 4e3d 74b6 ae3c f26c da3d 108d 043e
00000270: 7058 d2bd 0ad8 ebbd 5f25 9dbc b33f 3ebe
00000280: 34d8 8dbd c3e9 3dbd 1cbc 1cbe a31c febd
00000290: 5e2c f13c 8be6 2abd 050d 6abd 8904 8e3c
000002a0: ac0c 93bd e540 12bd 2c9a 3c3c 58ab a93d
000002b0: de75 18bc cdb6 be3b a6e2 da3a 07f9 163c
000002c0: 5422 e83c 2e2c 08bd e47b 93bc 8678 8f3d
000002d0: 8956 12be 375b cdbc 596c cabc 80f0 e8bd
000002e0: 548e 1bbe 7400 00bd ecf2 87bd 0e23 e2bc
000002f0: f9cc f3bd c8f1 113e d3a6 e83d ba97 623d
00000300: fe4d 11bd d767 d3bd 21d1 cbbc 53c6 053d
00000310: da98 0b3c 4ad3 0bbd c173 c13d 3b3b 0d3e
00000320: 5b04 ab3d c3e4 f93d 9271 b13d 4de7 e53c
00000330: 6a7b 64bc 6941 ba3d e4ae 5f3b 307f 023e
00000340: 78f8 413e 943e b53e e769 79bd f2fc 553d
00000350: dbe0 af3d 3368 9ebb dc91 d63c 2100 5ebd
00000360: df5b 46bd 275e d9bd 480e 87bd 46e2 07be
00000370: a74a c7bb 6483 44bd d1b0 19bd 954b c8bd
00000380: 00e0 ddbd 1968 a73a 5065 a73d f31e 6e3d
00000390: 8deb 4d3d 328c 04be 1a3d 423c a1cb 65bd
000003a0: 3cbe 293d 6a6d f93c 70e3 333d daef 283e
000003b0: 5d9a 15bd 3844 adbd d528 9dbc d36d a5bc
000003c0: 8937 9ebd 6a53 55bd 43fa 87bd 83a9 30be
000003d0: 9e02 2cbe bade 02be 4a16 2abe 23e7 bfbc
000003e0: c804 77bd dc73 d3bb 8fbe 6f3d d53e d6bc
000003f0: 5417 c43e 365d a23e e021 593e f7d9 123f
0.025964838 0.12014937 0.08640836 -0.12074054 -0.09270751 -0.17692186 -0.06690809 -0.21071152
-0.15847754 -0.025306197 -0.16762576 -0.0014902761 -0.20964354 -0.07409686 -0.0343042 -0.23775662
-0.24238555 -0.17192443 0.27464136 0.33842468 0.31522465 0.17396325 0.13516676 0.1561081
0.19266789 -0.033276506 -0.07835259 0.13566668 0.0035936718 -0.25370514 0.045947526 -0.089403644
-0.19783784 0.04177975 -0.1224143 -0.12682568 0.054487213 -0.037441727 -0.04646988 -0.073550306
-0.09029286 -0.036623165 -0.103085436 -0.049391873 -0.097445324 0.023064425 0.025753992 0.02870261
0.0023825497 -0.079108566 0.013733408 0.004612011 -0.082423255 -0.042295355 0.23637697 0.3338768
0.33649537 -0.08487877 -0.21950363 -0.103578545 0.002505793 -0.10082169 -0.096212246 -0.006688017
0.15604866 0.018621821 0.04616618 -0.09753799 -0.13118751 -0.082313456 0.09664034 -0.017574824
0.109423146 0.06076156 0.019070266 -0.009851692 0.0727651 0.033954374 0.040150866 -0.0044696885
-0.01445974 -0.012127878 0.032719687 0.07547921 -0.05320129 -0.032513604 0.0067709857 0.05632645
-0.041545786 -0.0060120476 0.072041236 -0.043066356 -0.03471335 0.14143749 0.11033777 0.07226658
0.022143008 0.03707812 0.0864959 0.09632971 0.1113541 -0.06260019 0.0063568563 -0.058515124
-0.018809931 -0.15975925 -0.09521952 -0.034046456 -0.13663167 -0.17884159 -0.018962007 -0.12436368
0.084551804 0.038530447 -0.021893902 -0.04527503 -0.024680689 0.29990572 0.086087264 -0.021200307
0.15436341 0.027413303 -0.037792064 0.17243055 0.010942456 0.03280985 0.0306105 0.045569453
-0.044833913 0.0075053335 0.06923538 0.037284717 -0.055961456 -0.013545693 -0.042492986 -0.031466942
-0.05902571 0.07026781 -0.027238345 0.030887041 0.0023126197 -0.047054186 -0.03373368 0.016868046
0.051982686 0.073072255 0.01602126 0.029954916 0.09606308 -0.035733838 0.061093327 0.06584346
0.050331373 0.021327235 0.10665311 0.12944436 -0.10270774 -0.115158156 -0.019182859 -0.18578987
-0.06926003 -0.04636551 -0.15306133 -0.12407806 0.029440101 -0.04172377 -0.057141323 0.017336147
-0.07180151 -0.03570642 0.011511367 0.08284634 -0.0093054455 0.0058201314 0.0016699627 0.009214646
0.028336681 -0.033245258 -0.018003412 0.0700541 -0.14290823 -0.025067909 -0.024709867 -0.11373997
-0.15191013 -0.031250432 -0.066381305 -0.027604606 -0.1190433 0.14252388 0.11359944 0.05532048
-0.03547477 -0.1032254 -0.024879994 0.03265984 0.008520329 -0.034137048 0.094459064 0.13792126
0.0835044 0.12201836 0.0866424 0.028064394 -0.01394544 0.09094507 0.0034131343 0.1274383
0.1894244 0.35399306 -0.060892012 0.05224318 0.0858781 -0.004834199 0.026192598 -0.05419934
-0.04842746 -0.10613661 -0.06594521 -0.1326991 -0.0060818973 -0.047976866 -0.03752214 -0.09780041
-0.1083374 0.0012772112 0.08173621 0.058134984 0.050273467 -0.12944105 0.011855388 -0.0561024
0.041441187 0.03044768 0.043918073 0.16497746 -0.036524165 -0.08460277 -0.01918451 -0.02019397
-0.07725436 -0.052081503 -0.066395305 -0.17252164 -0.16797873 -0.12780276 -0.16610065 -0.023425644
-0.060307294 -0.0064530205 0.05853134 -0.026153008 0.38299048 0.3171174 0.21204329 0.5736384

enc_layer_2.0.bias f4 [16]
00000000: da63 babd 5e6b ddbc 5cd7 ab3d b901 9cbd
00000010: 3161 db3c f116 3dbd e130 b9bc da68 273d
00000020: 216f 0cbc de5c d13d 0212 5e3d 8bf4 0b3d
00000030: e7d7 93bb 93ef 76bd eb10 82bd 13dc 99bd
-0.091010764 -0.027028736 0.08390686 -0.07617516 0.026779743 -0.046164457 -0.022606315 0.04087148
-0.008571417 0.10222791 0.054216392 0.03416876 -0.0045118215 -0.06028707 -0.06350883 -0.07512679

enc_layer_large.0.weight f4 [12, 16, 3, 3]
00000000: 75c1 9bbc 01da 183e 75e3 c2bd 6035 80be
00000010: fd33 2ebd 178f 90bd 3edd f8bd 7b07 56bd
00000020: a964 e9bd 088c 0dbe 6b8f 22be 0a96 49bd
00000030: 2e9b d53d 7718 993d 4b17 f23b c8a5 1a3d
00000040: 3b39 a83d 8fce 503c b95f 59be 7ba0 35bd
00000050: 62a4 bf3d 2d21 f53d 6106 7d3c fa39 0f3d
00000060: 8ec5 d23b acf7 33bd cb42 d53d 4ba4 b6bd
00000070: 9e02 3d3c 4eb3 eb3c 9579 33be a467 223e
00000080: 8b81 c53c 7cd6 54bd 152d f0bc e7ca 663d
00000090: c9f7 f5bc 5f37 143d fd0b 88bd 0d9b d73d
000000a0: 6022 803d 332d 92bc 4fea 81bd 5462 65bc
000000b0: c876 10bd fdb2 9abe dfbc 55be cdb1 d4bc
000000c0: e796 80be 35ee a5bd 37f4 35bc 6d3f 05bd
000000d0: a429 eebd f711 22bd 1e5a 05be e1ff dcbc
000000e0: 4763 b3bd 0a8d d73d bed9 133e 6f6e 1ebd
000000f0: 1820 e33c eb88 8bbb a5bc 903d 6289 3cbd
00000100: e8f4 af3d 2717 02bc c856 2d3e dcc2 b5bd
00000110: 0b1b c1ba 9716 30bc 9f84 723c d215 a2bd
00000120: d7e6 9b3e 7a62 33bd 662e 80bb f887 063e
00000130: fb9c 0a3e e636 ffbc 3bce 5a3d 283d 9a3d
00000140: 697d 6bbc 1f56 043e 0893 3dbd fa50 9bbd
00000150: 976a 863e e3ee 403d f288 a0bd 5d1a 3f3d
00000160: 205b 3f3c f550 0fbc 0649 9e3d be1f cebd
00000170: 829f 1a3d dbe7 08be 7907 03be 8891 7abc
00000180: 8db3 64bc 8ec0 c73d 7f10 363d 98f4 c83c
00000190: 6428 01be 2209 6e3c 54b1 363d 5e0f a8bc
000001a0: a14c 29bd 083a 973d f1c9 aebc 3c4b 6a3d
000001b0: 82bf bb3e 3679 d53c 2e86 833c 1ad0 d03d
000001c0: af11 1dbe 5fa7 243d b836 8d3b 5676 a2bc
000001d0: 8667 543d 2b16 37bc 338d 07be 66e2 f3bc
000001e0: 0222 00be 638f 6fbd 22de 77bd 9c79 e1bc
000001f0: 4d68 863d 27a5 0e3d b4fa b1bd 7c53 293c
00000200: 4c82 b8bb 0426 303e b522 ea3c 663d dbbc
00000210: 9c39 e6bc dece ae3d d8e0 a7bb 4a51 09bd
00000220: 1b44 113d 5261 b33d 89d5 c5bc 4c61 4f3e
00000230: f90c 54bc 0468 c73d 87a5 043e 4cad f33c
00000240: 25d3 b43c 03e0 d53d 972f 1cbd 721d 2f3e
00000250: 0a59 fb3d b3d2 b83d 131a 5cbe 85df 3ebd
00000260: 7fda f0bb dc03 c83d c5ca 223e cf17 813c
00000270: bdd7 8c3d bbf2 4d3d ee2d 08bd 055b 733d
00000280: 905b 0e3d 9623 8fbd a06e 03be 7dab 0ebe
00000290: baf3 0c3d e3f9 4abe af68 51be 8d02 dd3b
000002a0: ed2d 8abd 9b7c 70bd 351a f83c 0dcf a6be
000002b0: ce75 9b3d 2912 a9bd 7975 5cbe 9e32 d1bc
000002c0: 7521 113b 7eae 1b3d 417b e43c 6fe3 9d3d
000002d0: 29be 103d 793e 71bd 2ad6 b6bc 3b5b 97be
000002e0: c388 d8bc 2509 983a 95e6 2dbd 2195 17bd
000002f0: aa1b 4c3c 9293 8bbe 479a 033e 4bdd edbb
00000300: c84a 903b 861a 643d 79ba 0fbd 1e2f e5bc
00000310: e759 52bd 0eab 34bd f1a1 10be d9b7 48be
00000320: 0eee 233d f5d5 64bd 8937 45bd 4770 143c
00000330: 1ab2 473d 80b3 d8bd 21b6 14bd 2158 d4bc
00000340: dc79 17bd b149 3ebc ffa0 70be b7f7 843d
00000350: b084 c73d 24b1 fcbb 4214 2d3d f7ec 3fbd
00000360: b1a0 44bd fe6c d8bd 156f 90bd f378 f23c
00000370: 0910 0e3d 3934 8cbd f428 c2bd 8de2 913c
00000380: ddc0 07bd f7b9 7dbe da06 c43d d6b6 ebbc
00000390: 7e4b d6bd 79b3 083e bbd1 693d a9ca e13b
000003a0: efc9 383d 7356 1ebc 769c 8dbd 82b0 3b3c
000003b0: a2c3 4bbc 5c90 c1bd 1a8f 4f3c b96e 503d
000003c0: 040c 3d3d 25a9 90ba 20ac 343c 7742 c33c
000003d0: b7e7 04be 9ed5 783c 0d09 8a3e 5042 9c3d
000003e0: 19b1 123e dffb ebbc ba49 e63d 3a51 903d
000003f0: 10cb a0bb 4669 a5bd e2e7 0fbd 6820 2bbe
-0.019013146 0.14926912 -0.0951604 -0.25040722 -0.04253005 -0.07058542 -0.121515736 -0.052253228
-0.113961525 -0.13822949 -0.15875022 -0.049215354 0.10429989 0.074753694 0.0073880306 0.037755758
0.08214041 0.01274456 -0.21227922 -0.0443425 0.093575254 0.119692184 0.015443415 0.0349674
0.0064322418 -0.04393737 0.104131304 -0.08918055 0.0115362685 0.028772023 -0.17526849 0.15859848
0.024109622 -0.05196236 -0.029318372 0.056345847 -0.03002538 0.03618562 -0.066429116 0.105276205
0.062565565 -0.017843818 -0.06343519 -0.014000494 -0.03526953 -0.30214682 -0.2087283 -0.025963688
-0.2511513 -0.08102075 -0.011105589 -0.03253119 -0.11629036 -0.039567914 -0.13022658 -0.026977481
-0.0875917 0.10524948 0.14438531 -0.038679536 0.027725264 -0.0042582653 0.07067231 -0.046029456
0.08591634 -0.00794009 0.16927636 -0.08875057 -0.0014732791 -0.010747573 0.014802127 -0.07914318
0.30449554 -0.043795086 -0.003911781 0.13137805 0.13536446 -0.031154107 0.053419333 0.07531196
-0.014373162 0.12923478 -0.046282798 -0.075838044 0.26253197 0.04710282 -0.0783862 0.046656
0.011679441 -0.008747329 0.07728772 -0.10064648 0.037749775 -0.13369696 -0.1279582 -0.015293486
-0.013958824 0.09753524 0.044449326 0.024530694 -0.12613064 0.014528545 0.044602707 -0.02051514
-0.041332845 0.073841155 -0.021336528 0.057200655 0.36669546 0.026058774 0.016055193 0.10195942
-0.15338777 0.04019868 0.0043095015 -0.019831818 0.05185654 -0.011174719 -0.13237457 -0.029771041
-0.12512973 -0.058486354 -0.060514577 -0.027523808 0.065628625 0.03482547 -0.08690396 0.010334846
-0.005630767 0.17202002 0.028581003 -0.026762675 -0.028103642 0.085355505 -0.005123239 -0.03352479
0.03546534 0.08758797 -0.024149673 0.2025196 -0.012942546 0.09736636 0.12953769 0.02974572
0.022073338 0.104431175 -0.038131323 0.17101076 0.12272842 0.09024563 -0.21494322 -0.046599884
-0.0073502655 0.09766361 0.15897663 0.015758423 0.06877086 0.050280314 -0.033246927 0.059412975
0.03475529 -0.06989209 -0.12835169 -0.13932605 0.034412123 -0.19821887 -0.2045009 0.006744689
-0.06747041 -0.058712583 0.030285934 -0.32579842 0.07590829 -0.08255417 -0.21529187 -0.025536831
0.0022145186 0.038008206 0.027890803 0.07709395 0.0353376 -0.05889747 -0.022318918 -0.2956179
-0.0264324 0.0011599405 -0.04245623 -0.037007455 0.0124577675 -0.27261025 0.12851821 -0.007259046
0.004403446 0.055689357 -0.035089944 -0.027976569 -0.05135527 -0.044108443 -0.14124276 -0.19601382
0.04002195 -0.055868108 -0.048148666 0.009059972 0.048753835 -0.10581112 -0.036306504 -0.02592093
-0.03698145 -0.011614249 -0.23498915 0.0649256 0.09742105 -0.0077115465 0.042255647 -0.046856847
-0.04800481 -0.105676636 -0.07052437 0.029598689 0.03468326 -0.06845898 -0.094804674 0.017808223
-0.033142913 -0.24777971 0.09571619 -0.028773706 -0.10463618 0.13349713 0.05708478 0.006890614
0.045114454 -0.009664166 -0.06914608 0.011455657 -0.012436779 -0.094513625 0.012668395 0.050886843
0.046154037 -0.0011036737 0.011027366 0.023835404 -0.12979017 0.015187649 0.2696003 0.076298356
0.1432537 -0.028806625 0.11244531 0.07046743 -0.0049070194 -0.0807672 -0.03513325 -0.16711581

enc_layer_large.0.bias f4 [12]
00000000: b828 a3bd 7a48 4bbc f386 a23d 5624 b4bd
00000010: b65a b53c b2a6 a2bd 333e d6bc 5a0e 06bd
00000020: b9a1 81bc 65e9 843d 853f 033e 4705 0ebe
-0.07966751 -0.0124074165 0.07935896 -0.08795993 0.02213798 -0.07941951 -0.026152706 -0.03272853
-0.015824186 0.06489829 0.128172 -0.138692

dec_layer_2.0.weight f4 [12, 8, 5, 5]
00000000: a267 48bb f6f7 c9bc 673a 2abc b6aa 443b
00000010: 9607 86bc 37ff de3a 6f32 ef3d 6a74 1a3e
00000020: 5df1 8b3d 91e4 9abc 9360 46bc c2bf 99bc
00000030: 7a6a 213d 44a9 31bc 266e 7bbd ddcd ebbd
00000040: 9add a2bd ef6d f93d f1f1 973d 4356 94bc
00000050: 1dab e1bc 328a 133c cbe6 223c 92b0 36ba
00000060: 9080 24bd a624 0f3c 1b82 4f3d 3718 953c
00000070: aa89 44bc 090d 1d3c f365 13bc a5f5 a4bd
00000080: b20d cebc 4b78 213d 46cb 84bc b499 833a
00000090: be1c 37bc 9092 e73d ee20 dc3d bb13 9a3b
000000a0: a8f2 d4bc d90a 32bd 8812 cbbd 4734 f1bd
000000b0: 64cd 12be 0977 7bbd d65c 00bb 3c3c c63d
000000c0: 0266 a83d 525b 833d 857c 36bd 1176 c8bc
000000d0: 9506 afbc a050 863c a461 d33c 4cb7 623c
000000e0: ba72 13be 1b96 da3b eca1 dfbc d3ef 79bd
000000f0: 077d 5cbd 0a4c f7bd 60a8 d73d 2ef6 69bd
00000100: 9942 d2bd 7ba2 7fbc f9b9 bcbc 3a7c 9d3d
00000110: af4b e53b ac6a 17bd b23c f2bd f6e5 163e
00000120: 4e49 ac3d 7bb8 d03d 2eb8 92bd b5ca 543c
00000130: d374 cb3c 0ab7 263d f2fd 0d3d 8c07 19bd
00000140: 91bf 323c 550d 2f3d 3c54 863d ea11 83bd
00000150: 1ec9 cc3c 300d a93d 714f c1bd c92b 4b3e
00000160: 3fcb a9bc dfc5 aebc 9e2f fe3c de70 37bd
00000170: 70cf 03bd 60c6 3cbd 90c2 dcbc 202e 92bc
00000180: 18f3 99bd 18e9 85bc 9eae 3dbd 9910 9dbd
00000190: 23a4 c43c c7ea 2e3c 5b7a af3c 6a4c b5bc
000001a0: 9bae f0bc 9ed5 983c c86a 4e3c b6c8 3e3b
000001b0: 24a5 2d3d a7e2 313c ace6 9ebb 97fd 263d
000001c0: 08ca 1d3e e643 f03d c894 5f3d 22a1 493c
000001d0: 6b1e a23d 77b5 4f3e 1f5b b13d 651c 58bc
000001e0: 5477 b5ba f155 c23c 736b e13d f37b 7c3d
000001f0: 9450 2e3c 6242 d1bd f3e2 413d 786c 503c
00000200: e65c d73c b347 a53d 9bd9 cdbd a928 b8bc
00000210: c862 843d 3e63 0dbc bbef a3bd e79f 2fbd
00000220: 32a2 d73c 3005 b73d eeee 48bd 7843 213c
00000230: 27ad 643c f52f 883b af1c c23d e675 b63d
00000240: efea debc 67cd c83c ccb7 d73c 7cad 9dbc
00000250: a805 bebc aed8 87bd 2326 7a3c 1f3f 523d
00000260: 3824 383d 520d e73c 61a7 933c 9eff b43c
00000270: e2cc 203d adf9 9f3c 6910 c93c 81c1 93bb
00000280: 62c2 123c 9b88 bfbc aef8 8b3d 0a9b d73d
00000290: 839b bbbb a078 80bd 5386 bbbd 5227 bdbb
000002a0: 1e8d 90bd 405f febd 672d 78bd 5234 7dbd
000002b0: 0c6d 29bd 2f63 b8bd b3f7 14be 8821 d73c
000002c0: 1209 173d 8405 a7bc 47b0 35bd 1d06 2e39
000002d0: cf6b eb3c 7e41 0c3d 5c19 32bd 3afa 6dbd
000002e0: fc3b e53c 5f85 23bd c9fe 6dbc c86b 193e
000002f0: 5750 c1bc 4233 55bd 3e6e 75bd e027 33be
00000300: 3e81 0bbe 68e7 35be 4e5b 2fbe 91e8 82bd
00000310: cd9b 27be 86b1 c3bd ec27 bcbd 1578 35be
00000320: be14 403a d5be 33bc a243 2cbc 35ec 10bc
00000330: bba4 fdbb 6ab3 033c 737c ef3d b08e d33d
00000340: 98f5 8b3d 94b1 ca3d e019 ff3c 5296 3c3d
00000350: 4465 5d3c 2642 2dbc a849 af3d 395e ddbb
00000360: d3be 923d b0dd e83d 8bc9 fb3d ff14 db3d
00000370: e261 b3bc ba20 bd3b 8342 d13d cf23 953b
00000380: 5f32 bf3c da0a 47bc b408 81bc 1bd2 233d
00000390: 4ed8 8c3d 2e91 9b3c ec55 2f3a 0676 44bb
000003a0: 45ab 8abd 33b7 61bc 7e14 513d 9997 433c
000003b0: 9f6f 863b b838 813d 1f92 b73d dceb 84bb
000003c0: ef01 363c bbdf f43b 68c1 353e da88 753e
000003d0: 984d 2e3e ad7a 0bbc ea27 813d c4f8 993d
000003e0: 4706 833d f4b3 d03d 88a2 5cbc 675b 3e3c
000003f0: c365 91bc fd79 1dbd 3189 fc3c 08bc 2f3d
-0.0030579348 -0.02465437 -0.010389901 0.0030008978 -0.01636104 0.0017013316 0.11679541 0.15083471
0.06833146 -0.018907817 -0.012107986 -0.018768195 0.039408185 -0.010843579 -0.061384343 -0.11513875
-0.079524234 0.12179171 0.074191935 -0.018107539 -0.027547413 0.009005116 0.009942721 -0.000696906
-0.04016167 0.008736765 0.050661188 0.018200023 -0.011995712 0.009585627 -0.008996475 -0.080546655
-0.025153015 0.03942136 -0.01621021 0.0010040314 -0.011176286 0.113072515 0.10748468 0.004702059
-0.025994614 -0.043467376 -0.09915644 -0.11777549 -0.14336163 -0.061392818 -0.0019586585 0.096794575
0.082225814 0.06413902 -0.044552345 -0.024470361 -0.021365443 0.016395867 0.025803395 0.013837647
-0.14399233 0.006670726 -0.02729889 -0.06101973 -0.053830173 -0.1207505 0.10530162 -0.05711954
-0.10266609 -0.015602703 -0.023037897 0.0768971 0.0069975476 -0.036966965 -0.11827983 0.1473616
0.08412419 0.10191437 -0.07164036 0.012987782 0.02483598 0.040701903 0.03466601 -0.037360713
0.010909931 0.042737324 0.06559035 -0.06399901 0.024998244 0.082544684 -0.0943898 0.19840921
-0.020726798 -0.021334587 0.031028565 -0.044785373 -0.03218025 -0.046087623 -0.026948243 -0.01784426
-0.075170696 -0.0163465 -0.046309106 -0.076691814 0.024004048 0.0106760925 0.021420648 -0.022131164
-0.029380133 0.018656548 0.012598701 0.0029111332 0.04239382 0.010857261 -0.0048492756 0.040769186
0.154091 0.117317006 0.05458525 0.012306483 0.07915958 0.20284067 0.08659958 -0.0131903635
-0.0013844767 0.02372262 0.110068224 0.061641645 0.0106393285 -0.1021774 0.047335576 0.012721173
0.026289415 0.08070316 -0.100512706 -0.022480326 0.064641535 -0.008629618 -0.08004709 -0.042877104
0.026322458 0.08936536 -0.049055986 0.009842746 0.013957298 0.0041561075 0.09478127 0.08909206
-0.027211634 0.024512006 0.026332758 -0.019247763 -0.023196056 -0.06633125 0.015267882 0.05132973
0.044956416 0.028204594 0.018024148 0.022094544 0.03925789 0.019528234 0.024543958 -0.0045091514
0.008957477 -0.023380568 0.06834541 0.10527618 -0.0057253256 -0.062730074 -0.0915648 -0.0057725096
-0.07058166 -0.12420511 -0.060590174 -0.061817475 -0.04136376 -0.09003293 -0.14547615 0.026261106
0.036873884 -0.020388372 -0.044357564 0.0001659621 0.02873793 0.034242146 -0.043481216 -0.058099963
0.027982704 -0.039922114 -0.014526078 0.14982522 -0.02359788 -0.052050836 -0.05991959 -0.1749568
-0.1362352 -0.17764056 -0.17124674 -0.06392015 -0.16368027 -0.09555344 -0.09187302 -0.17721589
0.00073273096 -0.010970791 -0.010514172 -0.008845379 -0.0077405847 0.008038381 0.11693659 0.1032995
0.06833953 0.098971516 0.031140268 0.046041794 0.013512913 -0.010574853 0.08558971 -0.006755617
0.07165303 0.113704085 0.12294301 0.10697364 -0.02189726 0.0057717236 0.10217764 0.004551388
0.023339448 -0.012148583 -0.01575122 0.039995294 0.06877194 0.018990126 0.00066885236 -0.0029977574
-0.06770948 -0.013776588 0.051044933 0.011937999 0.0041026617 0.06309646 0.08963417 -0.004056437
0.011108859 0.00747296 0.1774956 0.23977986 0.17021787 -0.008513135 0.06306441 0.075181514
0.06397682 0.10190573 -0.013466485 0.011618472 -0.01774872 -0.038446415 0.030827137 0.04290393

dec_layer_2.0.bias f4 [8]
00000000: 717c 713c c1d7 db3b ff27 4e3d 1916 d8bc
00000010: 542b 133e 0551 c2bc bf4c 283e 9b53 56bd
0.014739142 0.0067090695 0.050331112 -0.026377724 0.14371997 -0.023720274 0.16435526 -0.052325826

dec_layer_3.0.weight f4 [8, 3, 5, 5]
00000000: 23e3 8b3d a268 183e 2551 683e e649 1c3e
00000010: d4ae 143d 9423 e93d 271d 673e 0b0c b13e
00000020: 57a2 7c3e 055a f93d 8b6c 693e bd41 ae3e
00000030: 6ea1 db3e e377 5b3e 5ce7 d83d 284e 153e
00000040: f8bf 5d3e 6301 823e f9d9 f33d 17d4 313d
00000050: 9c20 7e3d b2e8 ac3d 92b3 b23d 97be ae3c
00000060: ac9d 71bb af52 8a3c 467d bd3b da7d 753d
00000070: d63e 733d 9085 473d 0093 eb3b 4383 993b
00000080: e751 903d bf10 5e3d a870 4d3d d356 7f3d
00000090: 3129 a53d 72d3 863d 68dd 2c3a 27d1 a2bc
000000a0: 755e 2f3d d1db b63c 8213 b23c 2ae6 28bb
000000b0: f59d 6b3c 8de7 323d 41fc 8fbc 7c9d 60bd
000000c0: 53ab 2bbd 5b41 463c 53e6 1a3d 9bc4 073d
000000d0: 3b2a eb3d f15a d63d 04e8 a13d 3a8d 6a3d
000000e0: 5435 8b3d 444b 153e 0609 b73d eb7c b93d
000000f0: 1860 163e ea0d 253e a8a9 2e3e 9b82 c43c
00000100: 5468 903c 8dd0 a63d 3213 9b3d 3231 9b3d
00000110: b770 b9bc 8542 93bc 6b2c 203d 02cc f23c
00000120: a256 55bc 634a a2bc 99d3 babc 8854 f93d
00000130: 2b53 203e 5ddc 023e cf27 e03b 1481 81bc
00000140: ea4a 793e a226 8c3e c87e 7a3e e8ec ea3b
00000150: 83be 54bc 135d 9b3e 4930 b23e c20d 9c3e
00000160: c9b6 433c d177 00bd dbef 493e 00db 883e
00000170: c757 223e 56ae e7bc b515 89bd 3ca6 f13d
00000180: aaed 1d3e d7de 843d 151e 6abd 5d31 9cbd
00000190: edb0 9a3d 3f5f c43d 4aa5 2b3d 11ba 3ebd
000001a0: f34d 80bd 3879 e03d 501f 203e 407e c63d
000001b0: f930 52bd eeb8 bebd f81c 153e 128d 323e
000001c0: aff3 843d 2774 a7bd 6016 e6bd 66bc c13d
000001d0: d15d 0f3e b6ab e83c 3295 9ebd 33ae e0bd
000001e0: 1941 b03d 2c97 e53d 34c0 093c ae7d 93bd
000001f0: c55a c4bd d01b b63d 7c86 aa3d d034 833d
00000200: 0e56 5fbc 53cb 5cbb 53c1 243e 6c67 2f3e
00000210: 6841 0a3e fe99 41bd aefe 31bd e190 483e
00000220: 140f 5f3e 1e12 053e ea00 89bd 69f3 a9bd
00000230: c881 063e e23b 323e 1f0d 4a3d 0b95 ccbd
00000240: c653 eebd 828d c73d 6795 f83d 4c7c d13c
00000250: fd77 8dbd de62 c2bd 0dfd 7c3d 829a 553e
00000260: eecd 303d 9135 80bc a200 d2bd b667 02bd
00000270: 4901 b63e 1d97 463e 8640 403e 982b 24be
00000280: 4697 d2bc f166 2d3e 0349 723e 0897 813e
00000290: 43a4 5e3d 7309 39bd 9b5c e3bd 86e7 853e
000002a0: ffc7 933e 32ff 943e f37e 013d d967 6fbe
000002b0: 73d7 ec3d 8300 063e f2f6 b63e d3bf 313e
000002c0: 9ffd 553e 0a6e 0d3e 5451 92bd 8a1d 52bd
000002d0: 6038 973d d496 dc3e 8b21 b33e 4f17 833e
000002e0: e924 b1bd 8e8e b33c 6477 793e 86cd da3e
000002f0: dfa1 cf3e bf08 3a3e d14a e6bd 97db a4bc
00000300: dcb8 ae3e 4ae1 f33e ca91 a63e 420f 5bbd
00000310: 3fac 5bbe 9e84 203e 41de 753e 0c43 c33e
00000320: a992 903d 1567 053e f7ff 323c 765f c2bd
00000330: e7f5 cbbd 937e 883d b4c7 753e 4424 6b3e
00000340: 9233 123e 5b79 07bd 175b 013d f66a 0a3e
00000350: d951 8b3e a153 763e 65fb 063e e583 59bd
00000360: f1cc 063b 0848 903e 75a7 ae3e 742d 753e
00000370: d325 bdbc f29f fdbd c930 d83d 0743 253e
00000380: be41 7f3e 23f8 693d 0099 803d 44e9 863c
00000390: aab5 b5bd d4ab adbd 1c9a f53d f06b f5bc
000003a0: 54a2 9a3d 0164 23be 947a b6b9 0ed4 293e
000003b0: ae7d 9ebe cdc3 313e d3be acbc f775 f63e
000003c0: 3f74 88bd 4321 8a3e 5053 073f 0058 0e3f
000003d0: 0082 aa3e 1197 6ebe 3b1e eb3e a924 933f
000003e0: daf1 51bf caf7 5c3d d155 4f3d 3e3a 7ebd
000003f0: f127 febc f145 d4bd 217f 253d cced 6b3e
0.06830432 0.14883664 0.22687204 0.15262565 0.03629954 0.11383739 0.22569714 0.345795
0.24671303 0.12175373 0.22795312 0.3403453 0.428966 0.21432452 0.10591003 0.14580595
0.21655262 0.25391683 0.11906809 0.043415155 0.062042817 0.084428206 0.087256566 0.021331115
-0.0036867661 0.01688513 0.005782756 0.059934475 0.059386097 0.04871136 0.0071891546 0.004684837
0.07046872 0.05421519 0.050156265 0.06233866 0.08064497 0.06583299 0.00065942714 -0.019875122
0.04281469 0.022321614 0.021737818 -0.0025771954 0.014380922 0.043677855 -0.017576339 -0.05483769
-0.041911434 0.012100543 0.03781731 0.033146482 0.11482664 0.104665644 0.079055816 0.05726359
0.06797281 0.14579493 0.08937268 0.09057029 0.14685094 0.16118589 0.17056906 0.023988059
0.017627873 0.08145247 0.075720206 0.07577743 -0.022636754 -0.017976055 0.03910486 0.029638294
-0.013021143 -0.019810861 -0.022805976 0.12174326 0.15656726 0.12779374 0.006840683 -0.01580862
0.24344984 0.27373224 0.24462426 0.0071693547 -0.012984875 0.30344447 0.34802464 0.30479246
0.011945435 -0.031364266 0.19720404 0.26729584 0.15853797 -0.028281372 -0.066935934 0.11799285
0.15422693 0.06487816 -0.057157595 -0.07626603 0.07553277 0.09588479 0.04190568 -0.046564166
-0.06264868 0.10960621 0.15636945 0.09692049 -0.051316235 -0.09312616 0.14561832 0.17436627
0.064917915 -0.08176451 -0.112347364 0.09459762 0.14000632 0.02840219 -0.077433005 -0.10970726
0.086061664 0.11210474 0.008407641 -0.07201706 -0.095876254 0.088920236 0.08326432 0.064065576
-0.013631357 -0.0033690527 0.16089372 0.17129296 0.13501513 -0.047266 -0.043455772 0.19586517
0.21783096 0.12995192 -0.066896275 -0.0829838 0.13135445 0.17405656 0.04932892 -0.09989365
-0.11637072 0.09743787 0.12137871 0.025571965 -0.069076516 -0.09491514 0.061764766 0.20859721
0.04316514 -0.015650542 -0.10254027 -0.031837188 0.35547855 0.19393583 0.18774614 -0.16032255
-0.025706898 0.169338 0.23660664 0.2531054 0.05435587 -0.045175027 -0.111016475 0.261532
0.28863522 0.2910095 0.03161521 -0.23379458 0.11564531 0.13086133 0.3573528 0.17358331
0.2089753 0.13811508 -0.07144418 -0.051297702 0.073837996 0.43083823 0.3498653 0.2560372
-0.08649618 0.021918561 0.2436195 0.42734927 0.40553185 0.18167399 -0.11244739 -0.02012424
0.34125412 0.4763282 0.32533103 -0.053481348 -0.21452425 0.1567559 0.24010564 0.3813709
0.07059223 0.13027604 0.010925285 -0.09490864 -0.099590115 0.06664767 0.24001962 0.22963053
0.14277485 -0.033074718 0.03158101 0.13517365 0.27210882 0.2405534 0.13181837 -0.0531043
0.0020568932 0.28179955 0.34112135 0.2394312 -0.023089325 -0.12384023 0.1055618 0.1613885
0.24927422 0.057121407 0.062791824 0.016468652 -0.0887254 -0.08480039 0.11992285 -0.029958695
0.07550493 -0.15956117 -0.00034805073 0.16584799 -0.3095526 0.17359848 -0.021087086 0.48136875
-0.06662797 0.26978502 0.528615 0.5560303 0.33302307 -0.23299815 0.45921502 1.1495563
-0.8200966 0.053947248 0.05061895 -0.062067263 -0.031024905 -0.10364903 0.040404443 0.23039931

dec_layer_3.0.bias f4 [3]
00000000: 0074 853a 13e9 8539 c84e a23b
0.0010181665 0.0002554139 0.004953239
