save/small_1/gen_model.pt (torch, 28443 bytes, 12 tensors)

enc_layer_1.0.weight f4 [16, 3, 5, 5]
000000 da cf 72 bc 98 a0 80 bd b7 52 d5 bd f8 6c 29 be
       -0.0148200635 -0.06280631 -0.10416167 -0.16545475
000010 56 02 45 bd 6d 0d 87 be e4 a6 80 be e3 70 10 be
       -0.04809793 -0.2637743 -0.25127327 -0.14105563
000020 b8 2e 87 be 4a e3 9a be 16 f8 63 3d 64 68 1a 3d
       -0.2640283 -0.30251533 0.055656515 0.03769721
000030 1c c9 00 bd c5 18 8b bd 23 b9 17 bd c4 f1 ae 3d
       -0.031441793 -0.06791834 -0.037041795 0.08542207
000040 4f 6c 17 3d 0d 6d 41 3e fd 49 18 3d 82 13 3d 3e
       0.036968525 0.18889256 0.037179936 0.18464473
000050 7b a5 5b 3e 03 72 8f 3e e0 c9 63 3e fa 25 f0 3d
       0.21449845 0.28016672 0.22244978 0.117259935
000060 6f e4 2f 3e ed c4 05 be a5 86 40 be 47 95 85 be
       0.17176984 -0.13063402 -0.18801363 -0.26090452
000070 85 bc 17 be 0b 73 5a bd a8 6d e1 bd 04 04 4a bc
       -0.14818008 -0.05333237 -0.110072434 -0.012330059
000080 1d 4e 8d be d6 43 4a be cd 3f 92 bd 52 9d 5e 3d
       -0.27598658 -0.1975244 -0.07141075 0.05434925
000090 03 f4 08 3e ba 3c 1b 3d 81 f2 a9 3d b7 b6 fe 3c
       0.13374333 0.03789971 0.08298207 0.031092985
0000a0 26 9a cf 3e f6 d5 d0 3e 5a 8c a8 3e 90 4b e8 3e
       0.40547293 0.4078824 0.3291958 0.4537015
0000b0 43 c2 d2 3e 5c 30 e4 3e ab 20 cb 3e a8 34 36 3f
       0.41163835 0.44568145 0.3967336 0.711741
0000c0 70 c8 18 3f 14 94 0f 3f 7d 65 62 be 5d 9c 93 bd
       0.59680843 0.56085324 -0.22109027 -0.07207558
0000d0 12 1b b7 be cf 13 9c bd de b1 53 be b4 59 d1 bd
       -0.3576284 -0.07620966 -0.2067332 -0.10222188
0000e0 2c 03 86 be ec 6b 62 be 5e 28 05 be bf 24 91 be
       -0.26174295 -0.22111481 -0.1300368 -0.28348348
0000f0 c2 51 11 bd 8c 9b db 3c 1f 40 f5 bd 9e 82 e1 bd
       -0.03547836 0.026807569 -0.11975121 -0.110112414
000100 fa 20 13 3c cc dd 75 3e f3 e7 28 3e 49 70 ba 3e
       0.00898003 0.2401039 0.16494732 0.36413792
000110 b4 a0 52 3e 06 3e 84 3e 68 ba b5 3e ee 3d be 3e
       0.20569116 0.2582857 0.3549378 0.37156624
000120 c0 ce d0 3e ad b8 df 3e e9 7e c5 3e 51 0a 81 bd
       0.40782738 0.43695584 0.38573387 -0.06300796
000130 e3 45 c1 bd e5 6b 3a be e2 51 aa bd 81 a7 21 be
       -0.09437158 -0.18205221 -0.08316399 -0.15786554
000140 76 f9 cd bd de 18 4a be 82 be df bc 1e e4 10 be
       -0.100573465 -0.19736049 -0.02731252 -0.1414952
000150 b7 0f 0a be a4 72 35 bd 40 97 1c be 1e ce db bd
       -0.13482557 -0.044298783 -0.15292072 -0.10732673
000160 29 3c fe bd 51 4d 05 bd c9 ca f3 bd 18 85 45 be
       -0.124138184 -0.032544438 -0.119039126 -0.19289052
000170 f8 7e a0 bd a2 ed af bd be ff 0b be 74 30 4b be
       -0.07836717 -0.08590247 -0.13671777 -0.19842702
000180 d3 2c d6 bd af 6f bb bd 60 f3 b8 bd f9 0a 08 be
       -0.10457768 -0.09152161 -0.09030795 -0.13285436
000190 0c b5 d4 3d 55 7c 94 bc 9d ac e2 3c 02 e5 1f 3d
       0.103860945 -0.018125692 0.027670199 0.03903676
0001a0 01 a5 6b 3d 71 5f a0 3b 9e 5a 2e bc 7d 87 15 3e
       0.057530407 0.00489419 -0.010641722 0.14602466
0001b0 22 ad ec 3d 53 c6 71 3a 96 71 e1 3d 85 22 4e 3d
       0.1155646 0.0009222973 0.11007993 0.05032589
0001c0 00 78 a9 3d d2 35 ec bc 17 04 0f 3e c5 a5 f2 3d
       0.08274841 -0.028834257 0.13966404 0.11848024
0001d0 77 15 be 3b 20 1b 50 3d 84 49 2b 3e 71 15 d5 bb
       0.0058008987 0.05080712 0.16727263 -0.0065028
0001e0 f6 de 1a 3e 9a bd d8 3c 05 1c 28 3d fe 33 2b 3e
       0.15124115 0.026457597 0.041042347 0.16719052
0001f0 95 94 3f 3e e0 38 87 3d 62 fc f0 3b 28 b0 62 3d
       0.18709023 0.06602645 0.007354305 0.055343777
000200 24 aa 46 3e be b5 04 3e 6b 5b 13 3e 57 70 2a 3e
       0.19400841 0.12959954 0.14390342 0.16644417
000210 7f bc ba 3d dc e5 ee 3d 24 79 ff 3d 8a 7b 20 3e
       0.09117984 0.11664936 0.124742776 0.15672126
000220 56 fd 45 3d 5e d6 3c 3e da 8a e8 3d 88 7e 6e 3d
       0.048337303 0.1844115 0.11354609 0.05822614
000230 67 ac cc 3d 26 a6 4f 3e ef 66 39 3e 2e 0e 9a 3c
       0.09993821 0.20278224 0.18105672 0.01880559
000240 c7 ef 0b 3e 6f 0c 86 3d 10 5d 41 3e 29 5f 83 3e
       0.13665687 0.0654534 0.18883157 0.2565854
000250 f8 d7 42 3d d4 ad f4 3d b3 50 38 bd 72 a9 fa bd
       0.047569245 0.119472176 -0.044998836 -0.122393504
000260 f5 96 bb bd 97 1a 60 bd 79 a6 9e 3d 8f c6 b3 3d
       -0.09159652 -0.054712858 0.07746596 0.087781064
000270 cc c8 85 3d e8 0b de 3c 70 c3 2e 3c fa e8 a9 3b
       0.065324396 0.027105287 0.010666713 0.0051852437
000280 8e 8a 7c bd c7 cf 20 bc 8c ac 6a bd 9a 74 dc 3c
       -0.061655574 -0.009815163 -0.05729346 0.026911069
000290 3b 69 43 3d a6 7e ca bc 86 60 73 bd 06 63 0c be
       0.047707777 -0.024718594 -0.059418224 -0.1370965
0002a0 a9 cd 32 3d f4 38 23 3c 1f ee d8 bd d3 74 a5 3d
       0.043653164 0.009962309 -0.10592293 0.08078923
0002b0 b5 c8 2b bc af dd 31 3c a0 4b 4e 3d ab 41 c3 bb
       -0.010484864 0.010856076 0.05036509 -0.005958756
0002c0 53 f6 fe 3c 94 d0 1d bd 01 a6 0c be a8 31 73 bd
       0.031123316 -0.038528994 -0.137352 -0.059373528
0002d0 e9 32 d9 bd 77 88 b5 bd b4 5a 1c 3b b2 e9 19 bd
       -0.106054135 -0.08863919 0.0023857774 -0.037576385
0002e0 e3 78 02 be 31 bb 6c 3c c1 97 07 3c 35 14 c6 bd
       -0.12741427 0.014448927 0.008275927 -0.09671823
0002f0 06 9b 9f bd 5c 9d 53 bd 57 e5 9c bd ee b0 71 3c
       -0.0779324 -0.05166374 -0.076609306 0.014751656
000300 ee 6b ce 3b fc a0 ad bd 76 47 7b 3b a6 26 e2 bd
       0.0062994873 -0.08477971 0.0038342155 -0.11042528
000310 0c 46 cf bd d4 f6 19 be 64 d5 ea bc 99 f5 ab bc
       -0.10120782 -0.15035564 -0.028666206 -0.020991134
000320 b5 4b 86 bd 61 fe 83 3d db af fe 3d 28 f0 c5 bc
       -0.06557409 0.06445003 0.124358855 -0.024162367
000330 e8 b4 ee b9 8b 4b a8 3c 84 16 f7 3b c7 63 82 3d
       -0.00045529683 0.020543834 0.007540526 0.06366687
000340 8e 81 ae bc a2 47 6f 3d c8 88 b2 3d f2 c0 94 3d
       -0.02130201 0.058417924 0.08717495 0.07263364
000350 b3 7c 91 bd 2c 94 99 bd f3 20 01 3b 22 6d 76 bd
       -0.071038626 -0.07498965 0.0019703477 -0.06016267
000360 fb 09 27 3d 69 17 ef ba b1 b4 4e bc cf ab b6 bd
       0.040781002 -0.001824123 -0.012616322 -0.08919489
000370 a2 7c ca bb 86 1b cb 3d ab c1 7f 3d fc c5 90 3c
       -0.006179408 0.09917359 0.062440556 0.017672531
000380 bd 3a cd bd 43 7b d2 bd 4e 0d 07 bd 4d d1 01 be
       -0.10020969 -0.102774166 -0.032971673 -0.12677498
000390 45 84 c0 bd 8c ac 34 be 3f 23 f4 bc 83 8d 04 bd
       -0.094002284 -0.17643946 -0.029801963 -0.03236152
0003a0 f7 d3 09 3e ba ad 10 3d af c6 a5 3d 6f 21 14 3d
       0.13459764 0.03532193 0.080945365 0.036164697
0003b0 fa b6 bb 3d 27 59 13 3e f0 f3 81 3d 8b 39 8e 3e
       0.091657594 0.14389478 0.063453555 0.27778277
0003c0 5f 77 47 3d 83 67 f3 3c d9 53 1a 3e c6 d6 37 3c
       0.048697826 0.029712444 0.15071048 0.01122064
0003d0 96 8e 80 3c c0 ee 49 bd 25 7b df bc f9 0a 3f bc
       0.01569299 -0.049299955 -0.0272804 -0.011660331
0003e0 39 7f a5 bd 03 e9 20 bd 0b 11 79 3a f1 0d fb bd
       -0.080809064 -0.039284717 0.0009501136 -0.122585185
0003f0 be 92 09 3d b8 13 d8 bd be 62 64 be 4d 5c e4 3b
       0.03358721 -0.10550636 -0.22303292 0.006969011

enc_layer_1.0.bias f4 [16]
000000 d0 02 77 3e 37 da 1f bf 2c df 73 be 87 c0 fa 3d
       0.24122167 -0.62442344 -0.23815602 0.12243753
000010 4b e2 cb be d3 7e e4 be b4 c1 a1 3d a9 f1 9b bc
       -0.39821085 -0.4462801 0.07898274 -0.019036131
000020 48 ea 8a bc 77 6a ce 3c 6b 9f b8 be 1a de 46 be
       -0.016957417 0.02519725 -0.36059126 -0.19420663
000030 f2 41 e9 be ae 5e 98 3d fc 7b 21 be 3c e4 92 bc
       -0.45558125 0.07439934 -0.15769953 -0.017931096

enc_layer_2.0.weight f4 [4, 16, 3, 3]
000000 47 d1 da 3d 77 2d 01 3e 45 5b 50 3e bc 2b 19 3e
       0.10684448 0.12615 0.20347317 0.1495809
000010 1d 90 c5 bd 73 41 8f bd 4b 2d 02 3e fa 71 36 3d
       -0.09646628 -0.06994905 0.1271259 0.04454229
000020 09 c1 a5 bd e1 e8 0e 3d 29 50 2c 3e c6 b8 29 3e
       -0.08093459 0.03489006 0.16827454 0.16574392
000030 6c 2d 0c 3e ad 0b b3 3d e9 f9 06 bd 74 69 40 3e
       0.13689202 0.08742461 -0.032953177 0.18790227
000040 ff 6d fb bc 39 95 72 be 7d 70 1a 3e e0 9f d8 3d
       -0.030692099 -0.23689736 0.15081973 0.10577369
000050 93 25 ba 3d ab d5 1b 3e cd a2 09 3e 64 ee 01 3e
       0.09089198 0.15218227 0.1344101 0.12688595
000060 6e ed 03 3e cb 19 cf 3d 35 d7 28 3e 04 64 26 bc
       0.12883541 0.101123415 0.16488345 -0.0101556815
000070 f3 7f d8 3c d6 bf 95 3d 99 35 0a 3e 07 35 b5 3d
       0.026428198 0.073119804 0.13497008 0.08848005
000080 5d 60 aa 3c 66 bc a6 3d f4 1c c8 bd 9e d2 d5 bc
       0.020797903 0.08141403 -0.09771147 -0.026101407
000090 2d 4b d0 bd ff 24 24 3e cb e5 86 3e 09 b3 d7 bb
       -0.10170589 0.16029738 0.26347193 -0.006582622
0000a0 8e 13 2d 3e ae e8 48 3d 66 d4 db 3c ce 74 20 3e
       0.16901991 0.049050026 0.026834678 0.15669557
0000b0 77 29 17 be 56 9d f7 3c 00 c4 04 3e 61 96 8f bc
       -0.14761911 0.03022639 0.12965393 -0.017527761
0000c0 a4 15 6d 3e 88 90 42 3e a1 59 d8 3d 67 98 34 3e
       0.23152786 0.19000447 0.1056397 0.17636262
0000d0 de e7 de bc 02 63 53 be 59 bb 54 3d 28 04 db bc
       -0.027210172 -0.20643237 0.05193648 -0.02673538
0000e0 62 eb d1 3d da 9a 0e 3d 07 35 f8 3d 65 93 14 3e
       0.10249974 0.034815647 0.12119489 0.14509352
0000f0 50 06 be 3d 19 2d 09 3e 25 09 52 3e 25 65 0c 3d
       0.09278548 0.1339611 0.20511301 0.034276146
000100 9e e3 04 3c c5 7f 03 bc 5f 48 ef 3c 92 72 4e 3d
       0.008110909 -0.008026068 0.029209314 0.05040223
000110 a3 f6 29 3d a7 f7 40 3e b9 f0 03 bd 21 73 32 bd
       0.041494977 0.18844472 -0.032211993 -0.043566827
000120 db e4 ba bd cd 2f 93 3d ff 4a 64 3d 88 7a dc 3c
       -0.09125682 0.07186852 0.055735584 0.026913896
000130 aa 4b 0a 3d 6c 03 93 3d e9 8a 6d bc 30 e1 d2 bd
       0.033763565 0.07178387 -0.014498451 -0.10296857
000140 2a 92 30 be 47 cc 1d 3d 94 7c e2 3d 06 43 0b bc
       -0.17243257 0.038524892 0.11058918 -0.008499866
000150 de 76 38 3e 99 d1 16 3e 6a 5d f3 3a 45 da 8d 3d
       0.18014094 0.14728393 0.0018567268 0.06926397
000160 f4 bc ae bc 59 8f c8 bd 96 72 1b 3e bc 8a 81 3e
       -0.021330334 -0.097929664 0.1518043 0.25301158
000170 c1 fc e5 3d 54 7e 51 3e 41 f7 13 3d e6 52 9d 3b
       0.112298496 0.20458347 0.03612447 0.004801142
000180 c8 53 7c 3e 03 93 80 3e a0 88 a7 3d 4b 49 ef 3d
       0.24641335 0.2511216 0.08180356 0.116839014
000190 1e 07 38 3e 8f e5 f3 3d 06 07 53 3e 91 71 12 3e
       0.17971465 0.11909019 0.20608148 0.14301135
0001a0 b9 06 51 3e 25 12 b5 3e 45 4b 96 3e a8 6d ab 3e
       0.2041272 0.35365406 0.293543 0.334821
0001b0 25 69 9a 3e 7d 1c b0 3e 42 c3 83 3e b9 60 a1 3e
       0.30158344 0.34396735 0.25734907 0.31519106
0001c0 95 33 54 3e 5b da c7 3d 7a 3f 36 3e 16 28 db 3d
       0.20722802 0.09758445 0.17797652 0.10701005
0001d0 e9 ba 72 3c ea e0 39 3d 2d ce 17 3e 64 79 07 3e
       0.014815071 0.04538051 0.14824744 0.132299
0001e0 e2 ca 6f 3d 48 82 cb bd 3a cd e4 bd 28 3a 99 3d
       0.058543094 -0.099369586 -0.11171956 0.074817955
0001f0 ec 79 e1 bd 28 6a 0c be 68 93 b6 bd 17 d9 a6 bc
       -0.11009583 -0.1371237 -0.08914834 -0.020367188
000200 dd 80 e1 3d 73 45 2c 3d b4 ce e2 3d 7f 2b 0f 3e
       0.11010907 0.04205842 0.11074582 0.13981436
000210 ba 25 89 3d 80 21 21 3e db ab 74 bc d3 da ce 3d
       0.06696649 0.15735435 -0.014933552 0.10100331
000220 ac b8 6c 3b ab 17 d6 bb 23 4c 36 bc 28 9f 1c bd
       0.0036120815 -0.006533583 -0.011126551 -0.03823772
000230 6a e1 ff bc 99 a2 00 3e 01 ab 7e bd 1a 6f 93 bd
       -0.031235415 0.12562026 -0.0621748 -0.07198925
000240 4b bb f7 bd 09 98 2e be 8d 87 b8 be a8 4c 92 3e
       -0.1209627 -0.17050184 -0.36040917 0.2857411
000250 a1 91 89 3e fe d9 12 3e d8 9f 81 be 9a 53 05 bd
       0.2686892 0.1434097 -0.25317264 -0.03255043
000260 bb c8 fb bd 9e b6 ae bd 5b a8 4b be 44 c7 f5 be
       -0.12294146 -0.08530925 -0.19888441 -0.4800359
000270 7a 27 d6 3e 13 77 35 3e 0d 0a a0 bd d1 44 1c 3f
       0.41826993 0.17721204 -0.07814417 0.61042506
000280 d3 e3 48 3f 2e 5b e7 3e 58 94 fd 3d 0b b5 0f bb
       0.7847263 0.45186752 0.1238181 -0.0021927978
000290 0c 10 89 3c 2c 5c 42 3e db c6 b9 3d 34 77 dd 3c
       0.016731285 0.18980473 0.09071132 0.02703438
0002a0 3c 45 7d 3e 17 e7 21 3e 60 82 fc 3d 11 8c 3f be
       0.24733442 0.1581081 0.123295546 -0.18705775
0002b0 2a 37 18 be cc 2d f5 bd 01 72 32 be b7 bd 89 be
       -0.14864793 -0.11971626 -0.17426302 -0.26902553
0002c0 2f 86 d4 be a3 fd 9c 3e c7 b7 63 3e 27 14 1d 3e
       -0.41508624 0.3066226 0.22238074 0.15339719
0002d0 45 e4 90 3e 89 66 47 3e fe fd b5 be a8 18 f4 3e
       0.28299156 0.19472708 -0.35545343 0.4767506
0002e0 8e 84 fa 3e 0f 7d b8 bc c5 35 66 bc a4 c7 12 3f
       0.48929256 -0.02252057 -0.014050906 0.5733588
0002f0 7f 3f c3 3d 5a ae 20 3e e8 dc df 3d 4d 82 61 3d
       0.09533595 0.1569151 0.109308064 0.055055905
000300 44 0e 91 ba c7 42 fa bd 55 6b 4a be 6e 42 c2 3e
       -0.0011066874 -0.12219768 -0.19767506 0.37941307
000310 9b ae 97 3e 5c b8 99 3e f5 c0 09 3d 03 f4 da 3a
       0.296254 0.30023468 0.033631284 0.0016704801
000320 38 b7 2e bd e6 de 4f 3e 30 11 82 3d ac f9 d8 b9
       -0.0426552 0.20299873 0.063509345 -0.0004138475
000330 2b f5 82 3e 10 d1 a9 3e 7f 79 aa 3e 45 18 9c 3e
       0.25577673 0.33167315 0.3329582 0.30487266
000340 43 c7 25 3e 39 d2 ca 3d 1f c0 9d 3e 7b 8c 37 3e
       0.16189294 0.09903378 0.3081064 0.17924683
000350 2e 1f bc 3d 51 c9 69 3e 2f 2f 6d 3e 72 e2 b6 3d
       0.091856346 0.22830702 0.2316253 0.0892991
000360 9d b0 83 3d ae c1 cd 3c 84 65 38 bd 78 e6 8e 3d
       0.06430171 0.025116768 -0.045018688 0.06977552
000370 95 a8 9b bd 58 95 3e be d5 ea 84 3e cd b4 b5 3e
       -0.07600514 -0.18611658 0.25960413 0.35489503
000380 e3 01 cf 3d e1 1d 17 3e 38 66 bf bd b5 60 03 bb
       0.10107782 0.14757492 -0.093456686 -0.0020046656
000390 36 28 5d 3e 4e e7 04 3e 96 70 10 bd 44 3e e0 3e
       0.2159737 0.1297886 -0.03526362 0.43797505
0003a0 5b 6c 95 3e 7c 65 82 3e 09 1a 31 3e dc fb fa 3d
       0.2918423 0.2546805 0.17295088 0.122550696
0003b0 d1 80 bf 3d b0 6d 4a 3e 00 c4 32 3e 0a c0 70 3e
       0.09350742 0.19768405 0.1745758 0.23510757
0003c0 f9 7b d2 bc ec 4f 29 be 16 65 5b be 7c fa c6 3e
       -0.02569388 -0.16534394 -0.2142528 0.3886298
0003d0 19 ef f2 3c cc b3 70 3e 02 5b 8f bd 15 da 02 bb
       0.029655026 0.23506087 -0.0699978 -0.0019966413
0003e0 ad 39 ca bd 60 4f 7a 3e d9 89 20 3c 2e ae 26 3e
       -0.09874282 0.24444342 0.00979849 0.16277382
0003f0 09 f1 ac 3e bb 89 80 3d 81 bd a1 bc f1 f4 e1 3e
       0.33777645 0.0627627 -0.019743683 0.44132188

enc_layer_2.0.bias f4 [4]
000000 81 24 bf bd 45 5b 8b bd 58 52 1b be 25 f2 41 3d
       -0.093331344 -0.06804518 -0.1516813 0.047350068

enc_layer_3.0.weight f4 [8, 4, 3, 3]
000000 54 44 1f ba ae ac fb 3d 09 a9 20 3e b4 75 97 3e
       -0.00060755503 0.122887954 0.15689482 0.29581988
000010 04 cd d7 3d 6e 63 8b 3e 16 11 05 3e 7c 62 67 3e
       0.105371505 0.27224296 0.12994799 0.22596163
000020 a4 d0 98 3e f1 da a5 bd d0 b3 31 3e d6 7a e3 bd
       0.2984668 -0.080984004 0.1735375 -0.111074135
000030 e9 7a 10 be 04 9b 61 3d 84 eb 47 bd a3 bc e7 3c
       -0.14109387 0.055079475 -0.04880859 0.028288191
000040 ff 4e 2e 3d e6 b7 82 3e 48 1c 1a bd 2c 97 21 be
       0.042555805 0.25530928 -0.037624627 -0.15780324
000050 8d 8e 25 be 42 d7 9f bd 78 6e 73 bd ea e5 90 3d
       -0.1616766 -0.07804729 -0.059431523 0.070751026
000060 78 6d 1f be ab 43 18 3b c8 67 a2 3d 51 d4 35 bd
       -0.15569103 0.0023233693 0.07929951 -0.044391934
000070 25 ac c0 3a 44 ba b9 3d bd ec 90 bc 19 ca 1e be
       0.001469974 0.090687305 -0.01769101 -0.15506782
000080 9d c8 0e be f5 ed 89 be 3e dd 35 be b0 f7 f6 bc
       -0.13943715 -0.2693936 -0.17760178 -0.030147403
000090 69 29 06 bd 26 2e 3b 3d 9f c6 3d be ac e6 6a 3d
       -0.032754336 0.045698307 -0.18532799 0.057348892
0000a0 90 76 b6 be 65 95 1e 3e c2 39 1a be c3 f8 da be
       -0.3563733 0.15486677 -0.15061095 -0.42767915
0000b0 ec 7c 8c 3d 54 2f d7 bc ae f9 e8 bd 76 69 30 bd
       0.068597645 -0.026267685 -0.113757476 -0.043069325
0000c0 51 2a a5 ba 7d 51 4f 3a c9 62 9d bb af e2 08 3d
       -0.0012601112 0.0007908566 -0.004803036 0.033419307
0000d0 f9 4d 50 3e 90 81 f6 3d b7 08 63 3d 90 bd c4 bd
       0.20342244 0.12036431 0.055428233 -0.09606469
0000e0 05 c5 30 3e 80 82 45 bc 78 25 15 bd c9 ed b7 bd
       0.17262657 -0.012055039 -0.036412686 -0.08980901
0000f0 43 48 79 bd de fc 5f 3e 4d 18 fd 3e 34 1a f0 bd
       -0.06085993 0.21873805 0.49432603 -0.11723748
000100 b8 5a 19 be c2 68 c6 bd 89 a8 48 3e 19 89 9e be
       -0.14976013 -0.0968795 0.19595541 -0.30963972
000110 91 d4 36 3d 1a 07 22 bd 53 80 0a 3e eb 2b a0 3d
       0.044636313 -0.039557554 0.13525514 0.07820877
000120 8a 71 1b be fc 6c 6d bd 5b 74 3e 3b d2 2d 01 3e
       -0.1518003 -0.057965264 0.0029061052 0.12615135
000130 3d e5 9c be 8f 90 6a be 97 3a a7 be 0f f0 a7 bd
       -0.30643645 -0.22906707 -0.32661888 -0.082000844
000140 09 b2 21 3e cd bb 4a bd ed 26 9b 3e 95 16 29 be
       0.15790571 -0.049495507 0.30303136 -0.1651252
000150 84 b5 8b be eb 74 e3 b9 21 25 40 3e 14 62 1d 3e
       -0.27286923 -0.00043383925 0.18764164 0.15369445
000160 d1 19 2d be be 6c 50 be ba 28 d3 bd 99 79 f7 bd
       -0.1690438 -0.20353982 -0.10310502 -0.1208374
000170 b7 76 bf 3d 94 8d 24 bc 90 80 40 bd a9 6e 79 be
       0.09348815 -0.0100435205 -0.046997607 -0.2435862
000180 4a b6 24 be 8a 4f 57 bd ab c2 40 be 16 6e d8 bc
       -0.16085163 -0.05256609 -0.1882426 -0.02641968
000190 f9 f7 c5 3d cc ca a7 bd 12 ba 15 be aa 23 a8 bd
       0.09666438 -0.08192977 -0.14621761 -0.082099274
0001a0 69 f3 c8 3c c7 42 f9 bd 41 17 1c 3e 6b 99 7a 3d
       0.02453013 -0.1217094 0.15243246 0.061181467
0001b0 9e e0 20 3d d7 9d b0 bd f4 0b eb 3d 84 0c 71 3c
       0.03927671 -0.086238556 0.11476889 0.014712457
0001c0 17 9c 31 3e 57 ea 2a 3d 8e b4 cf bc 6b ae ca 3e
       0.173447 0.04172739 -0.02535465 0.39586195
0001d0 54 a7 f4 bc 2e 71 03 3c 93 3b b4 be 9b 87 1a 3e
       -0.029864945 0.00802259 -0.35201702 0.15090792
0001e0 2c 4f 7f bd eb ed 25 3c bf 7d ab 3d b6 f5 b3 bd
       -0.062331364 0.010127525 0.083735935 -0.087871
0001f0 fe c8 94 3d 1a 7b c4 3d 9b a9 53 be 03 9e 56 be
       0.07264899 0.09593792 -0.20670168 -0.20958714
000200 3e ca af bd 88 13 4b be 11 86 10 be a2 e8 bc ba
       -0.085834965 -0.1983167 -0.14113642 -0.0014412592
000210 73 1a ee bd 50 62 03 3d 93 53 83 bd 7e 2b 90 3d
       -0.116261385 0.03207618 -0.06412425 0.070395455
000220 5f ea 81 bd 55 4e 04 be e6 37 fe bd 2b 0b 88 3d
       -0.06343531 -0.12920506 -0.124130055 0.06642755
000230 21 e5 0d be d4 11 9b bc a6 0b 19 bd 4a e0 e1 bb
       -0.13856937 -0.0189294 -0.037364624 -0.0068931924
000240 34 e6 9b 3d 06 90 1a 3b 3e e1 7b be 8e 41 0f bc
       0.07612267 0.002358438 -0.24597642 -0.008743657
000250 3c 14 6d bd 51 5c 71 bb 63 8c 92 3d 00 ed 75 3e
       -0.057880625 -0.0036828707 0.07155683 0.2401619
000260 4e b6 c3 3d 42 e9 ba bc 64 7c 10 be aa 1c 1e be
       0.09556256 -0.022816304 -0.14109951 -0.15440622
000270 2c b8 0a bc 17 9a b6 3e eb 4d 86 3e 39 5d e6 3c
       -0.008466762 0.35664436 0.26231322 0.028120624
000280 a7 84 03 be 06 55 3c bd 20 ea 4f bc 4c bb 08 bc
       -0.12843572 -0.045979522 -0.012690097 -0.008345436
000290 be f9 b6 3d 85 f2 ca 3d 86 e1 02 3e d1 a4 09 be
       0.08934353 0.09909538 0.12781343 -0.13441779
0002a0 b2 f9 0a 3d f7 9f ce bd 0a b7 c4 bc 8f 16 ee 3c
       0.033929534 -0.100891046 -0.024013061 0.029063491
0002b0 4f 2e 3c be 4e 3e 04 be cd 64 41 bc 79 ca 7b 3e
       -0.1837704 -0.12914392 -0.011803818 0.24588956
0002c0 13 59 0b be 11 08 c4 bd 79 46 9c bc c6 f0 cf 3d
       -0.13608198 -0.09571851 -0.019076573 0.10153346
0002d0 fa 3a 16 3d cc bb 48 bd f5 3b 60 bd 90 1f 36 be
       0.03667734 -0.049007222 -0.05474468 -0.17785478
0002e0 74 ed 73 bd ac 3a aa 3e 9e 4b 4b be 96 8b 0f 3d
       -0.059552625 0.33247888 -0.19853064 0.03504523
0002f0 7b 03 e1 3c 19 d6 a3 bd af a1 21 be 78 2f 93 3d
       0.02746748 -0.0799982 -0.15784334 0.07186788
000300 34 90 8b bd 61 20 86 3e 0d 56 43 3e b0 99 00 3e
       -0.06814614 0.26196578 0.19075795 0.12558627
000310 1f 82 3a be 69 f7 28 be b7 90 32 3a 56 60 4d 3e
       -0.182137 -0.1650063 0.00068117253 0.2005628
000320 1b 78 85 bd 82 22 84 bd b6 e7 a5 3e a5 ea 8e 3e
       -0.06517049 -0.06451894 0.32403344 0.27913395
000330 ec e1 27 bd 86 7d 4e be fa e4 11 be d4 83 13 bd
       -0.04098694 -0.20165071 -0.14247504 -0.036014393
000340 4e 14 d7 bd 6a cc d7 3d a4 15 19 be 01 65 69 3e
       -0.1050192 0.10537036 -0.14949661 0.22792436
000350 34 a1 d2 3e 70 7a bf bd c9 29 fa 3c 58 69 a1 3c
       0.41138613 -0.09349525 0.030537503 0.019703552
000360 cf 75 71 3c 0e 75 0f bb fa 86 4d bd 0a ea 02 3d
       0.01473756 -0.0021889838 -0.05017755 0.03196148
000370 d0 7d 11 bd a1 b9 db bc ce dd 1f 3e 70 cb 16 3e
       -0.035520375 -0.026821913 0.15611956 0.14726043
000380 97 ea 60 3e 15 97 90 3d aa 8a 80 bc a9 1f 91 3c
       0.21964489 0.070600666 -0.01569112 0.017715292
000390 60 e4 70 3c 0f 70 01 bc 6e 62 10 bc 24 86 9e bd
       0.014702886 -0.007900252 -0.00881253 -0.07740429
0003a0 ab 09 0c be d4 2d 3a be 06 bc 30 be 9d ba 3c bc
       -0.13675563 -0.18181545 -0.17259225 -0.011519101
0003b0 e9 09 87 bb 4c 15 33 3d 29 cc 00 bf 7c 53 53 3e
       -0.0041210544 0.043721482 -0.50311524 0.20637316
0003c0 77 d5 e2 3d 13 79 3a bd 67 6f 41 be 13 41 7c 3d
       0.110758714 -0.04552562 -0.18890153 0.061585497
0003d0 f9 74 41 be 1d a3 ce 3d ba c4 6c 3e 06 91 3e be
       -0.18892278 0.10089705 0.2312192 -0.1861001
0003e0 f6 51 bd 3e cf 94 15 3e 1a bf 91 bc b2 d1 fc 3d
       0.36976594 0.14607547 -0.01779132 0.12344684
0003f0 26 11 b9 3d 67 af c7 bc 72 e2 28 bd 42 c2 29 3d
       0.09036474 -0.02437563 -0.04123158 0.041445024

enc_layer_3.0.bias f4 [8]
000000 51 7e d5 bc be ca c7 3d 07 06 50 3e 25 43 0a be
       -0.026061209 0.09755467 0.20314799 -0.13502176
000010 e6 36 93 3d 33 7d af bd 89 fd 9e 3d e4 e3 05 bd
       0.071882054 -0.08568802 0.07763202 -0.032688037

dec_layer_1.0.weight f4 [8, 12, 3, 3]
000000 6c 17 ba 3c ee cc 1d 3d bb 1b ff ba ff fa 94 3d
       0.022716247 0.038525514 -0.001946322 0.07274436
000010 3d db 04 be f9 d9 1e be fb 25 2a be 0c da 42 bd
       -0.12974258 -0.15512837 -0.16616051 -0.047571227
000020 a8 eb 2a 3d 56 95 77 be eb 75 84 3c 46 a0 90 3d
       0.041728646 -0.24178061 0.016169509 0.0706182
000030 3d 12 00 bd 61 de 4e be b3 a1 a4 3c ff 0e 5a 3d
       -0.031267393 -0.20202018 0.020096635 0.053236958
000040 16 48 43 bd 52 eb 93 3c a4 d5 01 bd e4 63 89 bd
       -0.04767617 0.018056545 -0.031697884 -0.06708506
000050 99 56 ac bd 48 0a 32 be 8d f2 8d be ce de b9 bd
       -0.08414955 -0.17386734 -0.27724114 -0.090757
000060 24 78 31 be 1e 3b 2c be 53 17 06 be 78 03 66 be
       -0.17330986 -0.16819426 -0.13094835 -0.2246226
000070 b2 d1 d8 bc 1c 65 1c be e7 eb 53 3d 05 d7 26 3e
       -0.026467178 -0.15272945 0.051738646 0.16292961
000080 4d a8 43 bb 23 26 44 3e b5 af 86 3e 39 a8 24 3e
       -0.0029854954 0.19155173 0.2630593 0.16079797
000090 df 64 6f 3d 94 51 fc 3d a8 5a 91 3d 9d af 3e 3c
       0.058445808 0.12320247 0.070973694 0.011638549
0000a0 bb 07 2c be a7 10 08 be 20 a4 90 3b ce 93 b9 3c
       -0.16799824 -0.13287602 0.0044140965 0.022653487
0000b0 ff 4a c1 3c be 45 f8 bd 2b 2a 3b 3e 7b 7c ad 3d
       0.023595331 -0.12122677 0.18277805 0.084710084
0000c0 27 14 3e 3d 10 e6 25 3e 97 58 f7 3d d1 d3 2f 3e
       0.046405938 0.16201043 0.12077444 0.17170645
0000d0 aa 60 76 bc 5b 9b 33 3a c2 c0 d8 bc 60 a5 8c be
       -0.015037695 0.0006851458 -0.026459102 -0.2746992
0000e0 31 0c 39 bc c1 58 05 bd ec 96 a4 be c0 cd 1e 3d
       -0.011294411 -0.032555345 -0.32146394 0.038770437
0000f0 57 c7 ba 3c ca 34 cf 3c f5 5b 90 3d a5 7e 66 bd
       0.02280013 0.025293726 0.070487894 -0.05627312
000100 c9 48 04 3e b5 3b 70 3d 24 88 d7 bd 81 40 08 be
       0.1291839 0.05865069 -0.10524014 -0.13305856
000110 76 80 0d be e3 15 98 3e b4 df c9 bd 63 74 5c 3e
       -0.13818535 0.29704198 -0.09857121 0.21528773
000120 b9 09 1e be f6 fa 91 3c ce ac 69 bd 93 a8 2b bc
       -0.15433396 0.017819863 -0.057049565 -0.010477203
000130 b7 54 08 be 5b 8b 72 3d 32 e9 a3 ba 13 25 9d bc
       -0.13313566 0.05921493 -0.0012505411 -0.019182717
000140 d7 e8 8a bc c4 7f 9a bd 2e be dc bc 9c 53 df bc
       -0.01695673 -0.075439006 -0.026946153 -0.027261548
000150 94 ea 51 bd 4d 55 85 bd f4 5d 98 3d 94 1e 9c be
       -0.0512491 -0.065104105 0.07439795 -0.3049208
000160 09 2c 9a bd 5e fe 28 be 97 57 ed 3d 3d 90 b9 bd
       -0.0752793 -0.16503283 0.11588972 -0.090607144
000170 ab 0a d8 3b 9d 3d 5d bc 9f 14 0d 3c 6f 22 1a 3e
       0.0065930686 -0.013503459 0.0086108735 0.15052198
000180 28 bc ce bc 56 d6 86 3d f9 d8 8a bb 1a 41 39 3d
       -0.025236204 0.0658385 -0.004237291 0.0452281
000190 08 c4 d5 3d 3e c8 de 3d ca c2 a7 3c 76 7f e0 3d
       0.104377806 0.10878037 0.020478625 0.10961811
0001a0 69 87 07 3e 43 ba 22 3d 8f 8a 39 be a8 a1 81 3c
       0.13235249 0.039728414 -0.18119262 0.015824154
0001b0 6c 5f 57 3d f0 a5 08 3e de 6b 6f 3d cb 6a af 3b
       0.052581236 0.1334455 0.05845248 0.005353307
0001c0 82 c3 c8 bc d7 b9 d1 be e1 c4 3e 3d 3d ed 5a 3e
       -0.024507288 -0.40962097 0.046574477 0.21379562
0001d0 92 1d bb 3d 70 e2 90 3d 0d 9b be 3d 5f 48 47 bd
       0.091364995 0.070744395 0.09306917 -0.048653003
0001e0 7c 70 08 3e 94 df fd 3c 09 ca 70 3d 1d e1 31 3e
       0.1332416 0.0309904 0.058786426 0.1737103
0001f0 65 5e f2 3d 7b 29 11 3e 95 17 86 bd ef ea 26 3e
       0.118344106 0.1417598 -0.06547467 0.16300558
000200 1f bf b2 3d 53 3a 65 bc ee 0a 1f 3e 91 5e 73 3d
       0.0872786 -0.013990956 0.15531513 0.059416357
000210 ab e4 e6 bd 4f 54 a6 3e bf 41 18 bd 52 85 aa 3d
       -0.11274084 0.32486197 -0.037172075 0.0832621
000220 58 45 c2 3d 59 0e be 3c 7f 2c 31 3e 2e 78 1a 3e
       0.094858825 0.0232002 0.1730213 0.15084907
000230 a0 0d 2f 3e 82 8e b0 3d 47 e5 77 3e e9 38 54 3e
       0.17095041 0.08620931 0.24208556 0.20724835
000240 06 c0 a8 bd 74 da 7e be a3 be 76 bc 87 ab 07 bd
       -0.082397506 -0.24888021 -0.0150601 -0.033122566
000250 5b 5f 58 be 3a 5a 95 3d 4a 10 02 3c 0b 9c 1c 3e
       -0.21130125 0.072926 0.007938454 0.152939
000260 a2 43 c8 3d 96 8b af bd 6b 60 9d 3b 58 88 24 be
       0.09778525 -0.08571546 0.0048027537 -0.16067636
000270 a8 0d 8e be 7c 2e 50 3e f2 0d 0b bd 7e 98 b9 bc
       -0.27744794 0.20330232 -0.033948846 -0.022655722
000280 47 6c 5c be 8d c2 37 bd d2 67 c1 3c a0 51 ca bd
       -0.2152568 -0.044863272 0.023609076 -0.0987885
000290 34 2b 22 3d 1a da 3f 3e f8 9a c2 bd 8a ed a1 3d
       0.039591983 0.18735543 -0.09502214 0.07906635
0002a0 64 7f 3b bd 4b ee 7c 3c 8a 14 73 3d 36 0b ba bb
       -0.045775786 0.015437673 0.05934576 -0.005677606
0002b0 9c 1e 86 be 41 10 53 3d 16 97 80 bd 85 5b 1d 3e
       -0.26195228 0.051529173 -0.06278817 0.15366943
0002c0 df 8c cb 3c 08 f2 a0 3d 6a bf 5c 3e e0 51 dd 3d
       0.024847446 0.07858664 0.21557394 0.10806632
0002d0 b3 57 8b 3d f6 5c 46 bd ec fd 45 bd 3a 0d 20 3d
       0.06803837 -0.0484285 -0.048337862 0.039075114
0002e0 93 ce 55 3d dd a1 85 3e 65 60 39 bd 24 ee 9b 3d
       0.052198958 0.26100054 -0.045257945 0.07613781
0002f0 28 5b 08 3e 48 78 2f be 7d 1b ac 3d 7c 6a 81 3d
       0.13316023 -0.17135727 0.084036805 0.063191384
000300 18 75 bc 3d 6f e1 b7 3d 40 b3 30 3e dd 4b c7 3d
       0.09202021 0.08978545 0.17255878 0.09731267
000310 c6 58 8c bd 35 cd 08 bc 89 ec a8 ba b8 89 92 3d
       -0.0685287 -0.008349706 -0.0012887876 0.07155174
000320 61 39 d7 3d 02 09 c3 3d 04 bb e0 3c f7 b7 f5 3c
       0.10508991 0.095232025 0.027432926 0.029994948
000330 0f 62 3f bc 10 8d b0 3d 50 85 03 3e ee b8 07 bd
       -0.011681094 0.086206555 0.12843823 -0.033135347
000340 93 49 57 3d 10 0d 71 bd 83 8c e7 bd 88 e8 77 bd
       0.0525604 -0.058850348 -0.11306097 -0.060524493
000350 39 f1 3e 3e c1 a8 02 3e de 5d 68 be c5 d4 b9 3c
       0.18646707 0.12759687 -0.22692057 0.022684464
000360 7d 88 95 bd fb 25 89 3d 85 8d 8c 3d 72 74 66 3e
       -0.07301424 0.06696697 0.0686293 0.22505358
000370 f0 17 82 bd 4a 9b 4a 3d 72 84 99 bd ac da 45 be
       -0.06352222 0.0494645 -0.07495965 -0.19321698
000380 f4 e1 a1 bc 30 a3 8d be b7 8f 13 3d c8 db 04 3d
       -0.019761063 -0.27663565 0.03602573 0.032436162
000390 01 3a d6 3c 0c cf 04 be 71 19 8a bc 60 b7 01 bc
       0.026150705 -0.12969607 -0.016857835 -0.007917255
0003a0 57 f1 63 bd 5b e7 7a 3c 7b b1 20 3d 4e 05 15 bd
       -0.05565008 0.0153139485 0.03923176 -0.036382012
0003b0 9f 8b 37 3c e5 da 3c bd 95 28 89 bd 57 24 5c bd
       0.011202722 -0.04610719 -0.066971935 -0.053745594
0003c0 a5 a1 29 bd bf df fb bd 3a 52 34 3d 78 79 ef bd
       -0.041413922 -0.122985356 0.04402373 -0.1169309
0003d0 27 5b 31 3d 0e 63 ad 3d bd 5e d4 bd 41 2a a3 bd
       0.04329982 0.08466159 -0.103696324 -0.07967044
0003e0 1c 14 cf 3c e4 e7 06 bd b9 e8 1e bd eb c7 02 be
       0.025278144 -0.032935992 -0.03879616 -0.12771575
0003f0 16 9d db 3d f6 a2 e2 bc dd 93 45 bd e9 8c af bd
       0.10723321 -0.027665596 -0.048236717 -0.08571798

dec_layer_1.0.bias f4 [12]
000000 92 76 92 3e 82 d2 c8 3d f3 22 f7 3c 6d d7 1d 3f
       0.28606087 0.09805776 0.030168032 0.6165684
000010 37 e3 8f bd bb fe e5 be c9 0b 3b 3e d2 b4 c7 be
       -0.0702576 -0.44920906 0.18266214 -0.39005142
000020 25 9b 0b be d6 3c c0 bd 8b 8b d3 3d 5d a9 2d be
       -0.13633402 -0.093866035 0.1032935 -0.16959138

dec_layer_2.0.weight f4 [12, 8, 5, 5]
000000 d7 50 69 bb 38 35 af bc 53 7f 25 3e df a3 b2 3c
       -0.0035601163 -0.021387681 0.16161852 0.021806655
000010 61 ba 17 3b 2c 15 b8 bc 52 85 46 bd 0b d9 39 3d
       0.0023151862 -0.022471033 -0.048466988 0.045373004
000020 45 fa 79 3d 3e 12 0c 3e b4 02 14 3c 81 87 98 bd
       0.06102969 0.13678834 0.009033848 -0.0744772
000030 ba 9f 6b 3d 41 13 c2 3b a8 91 7a 3c 82 b9 02 be
       0.057525374 0.0059227054 0.015293516 -0.12766078
000040 cb 37 c9 bd d9 7b 38 be 27 f0 e7 bc 6b 41 a3 bb
       -0.09825095 -0.18015994 -0.028312756 -0.0049821637
000050 c2 e5 ea b9 7b a4 60 bd 2d 87 43 be 23 6b 16 bd
       -0.0004480314 -0.05484436 -0.19094534 -0.036723267
000060 00 b4 d3 bd 34 52 a5 3c f4 3d 8e bb 32 a9 2c bd
       -0.10337067 0.020180799 -0.0043408815 -0.042153545
000070 b4 7b d5 bc 8a c8 2f bd de 05 f1 bc 1d 36 d9 bc
       -0.026059963 -0.04291586 -0.029421743 -0.026515061
000080 0a ab 84 bd da d6 fa bb d5 82 6a bd 26 b9 b4 bd
       -0.064779356 -0.007655007 -0.057253677 -0.08824377
000090 84 18 34 bd bd 36 e4 bd 68 38 90 bd 81 6f a9 bc
       -0.043968692 -0.11143253 -0.07042009 -0.020683052
0000a0 a0 95 98 bc 6d c2 4e bd cf d5 8b bd 95 92 82 bd
       -0.018626034 -0.050478388 -0.0682789 -0.063756146
0000b0 a0 e4 ae bc 5b f3 a1 39 d6 a4 07 bd b6 04 bc 3b
       -0.021349251 0.00030889627 -0.033116184 0.0057378663
0000c0 f3 72 44 3c 3e 3b 73 3c 8c 72 7e ba 7b 81 4a bc
       0.011990297 0.014845667 -0.00097064 -0.012359972
0000d0 66 2b 9b bd ce df f2 bc 41 8d 41 3c e3 bf 45 bd
       -0.07576637 -0.029647734 0.011813463 -0.0482787
0000e0 2c 97 8a bd ff 57 71 bd d1 85 57 bd 6a 7d 84 bc
       -0.06767115 -0.05892181 -0.05261785 -0.016173083
0000f0 89 8b e7 bc b4 4d 0e bd 3a 40 cf bd e0 62 48 bd
       -0.028264778 -0.034742072 -0.10119672 -0.04892242
000100 ad ce 3e bd 5e 69 50 bc 6c a4 1a bd 39 57 71 bc
       -0.04658382 -0.012720434 -0.03775446 -0.014730268
000110 d1 97 e9 bd 40 4f eb 3b 67 e6 38 bd 8d 19 11 bd
       -0.1140591 0.007181078 -0.045141604 -0.035424758
000120 31 9f 12 3b 18 90 1e bc 7c 14 23 3c f6 63 20 bd
       0.0022372718 -0.009677909 0.009953614 -0.03915783
000130 0b 30 96 bd a0 ac 86 bd d0 89 61 3c 8b 5c 03 bd
       -0.07333382 -0.06575894 0.013765767 -0.032070678
000140 ad 2c 5c bd 2c 0b 17 be 1f 3e b8 bd 49 de 84 bd
       -0.053753544 -0.14750355 -0.08996224 -0.0648771
000150 07 b5 65 bd dc 6e c4 bd cd 0e 08 be 5f 67 21 be
       -0.056080844 -0.09591457 -0.13286896 -0.15762089
000160 06 87 03 be c8 20 27 bd 7f b9 00 bd 70 92 ae bd
       -0.12844476 -0.040802747 -0.031426903 -0.085240245
000170 59 9b d5 bd 2d 01 f9 bd af a1 84 bd b4 9b 8b bd
       -0.10430021 -0.121584274 -0.06476151 -0.068168074
000180 44 a7 d4 bc 46 80 2f bd 4a ca c0 bd 08 d9 03 bd
       -0.025958665 -0.04284694 -0.094135836 -0.0321894
000190 1d ba c5 bd 8d 93 ad bd 44 a0 fb bd 0c f2 c0 3d
       -0.09654639 -0.08475409 -0.122864276 0.09421167
0001a0 0b f3 05 3d 02 37 91 bd ca 2e 88 3c 99 d7 79 bd
       0.032702487 -0.0709057 0.016623873 -0.060996626
0001b0 18 52 4c 3d cc 2a 4e be fc 74 97 be 80 a8 5e 3b
       0.04988298 -0.20133513 -0.2958144 0.0033974946
0001c0 19 f8 a4 be 48 f7 4c bc ea 35 66 be 4e 86 84 be
       -0.32220533 -0.012510128 -0.22481504 -0.25883716
0001d0 0b ed 2c be 8d 37 f3 be 67 10 f9 bd 65 4c 90 be
       -0.168873 -0.4750332 -0.121613316 -0.28183284
0001e0 75 8b 57 bd b7 31 be bd c6 61 38 bd c3 81 20 bd
       -0.05262323 -0.09286826 -0.04501512 -0.03918625
0001f0 0d f3 35 be 32 8e 0c bd 59 aa 14 3d 6f 62 b6 bd
       -0.17768498 -0.034315296 0.03629527 -0.089054935
000200 22 9b b8 3d 78 66 7c 3c ad 43 cb bd 77 48 82 3c
       0.09013964 0.01540529 -0.099250175 0.015903695
000210 62 d2 5a 3d c1 e9 e3 3d f8 47 b8 3c 57 d5 1c bf
       0.053423293 0.111285694 0.022495255 -0.6126303
000220 5c 12 97 3d 73 15 dc 3c 8a f8 ea 3d 1d 4d d8 be
       0.07376549 0.026865697 0.11473186 -0.42246333
000230 91 ac 17 bc df c8 09 be d1 78 f5 bd 83 f0 52 3d
       -0.009257452 -0.13455532 -0.119859345 0.0514989
000240 6b a6 27 3e 84 75 fe 3c ad 91 ef bd e0 67 4b 3d
       0.16372077 0.031061895 -0.11697707 0.04965961
000250 de 1e 8c bd 2c c6 a8 3c e9 6d 79 3c fb fc 6a bd
       -0.06841825 0.020602308 0.0152239585 -0.057370167
000260 2e 2a 21 3c 72 d2 62 bd 21 55 fd bc 4a a1 0f 3a
       0.009836717 -0.055376478 -0.030924382 0.0005479051
000270 96 71 1a be 7f 8d 51 bb ba 5d c8 3d 1a 25 d1 3b
       -0.15082392 -0.0031975207 0.09783502 0.0063825967
000280 0e 29 6e bd ce 4c 4c be e5 c5 af bd ab 5c a0 bd
       -0.05814462 -0.19951174 -0.08582667 -0.07830175
000290 e7 f7 72 3c 84 1d 32 3b 72 46 7c be 23 b9 01 be
       0.014829612 0.0027178237 -0.24636248 -0.1266828
0002a0 3b e2 74 3d b6 64 d9 38 02 36 23 bd 9a 7b 71 3d
       0.059786063 0.00010366125 -0.039846428 0.058955766
0002b0 81 0d ad bd b4 79 46 3e 90 4c b7 3b 6b 43 1e bd
       -0.08449841 0.19382364 0.0055938438 -0.038638514
0002c0 81 95 80 bd 87 d0 93 3c 77 45 21 3d cf b3 e2 bc
       -0.062785156 0.01804377 0.039372887 -0.02767363
0002d0 91 26 18 bd c1 60 56 bd ba 0e 95 bd ad 07 45 bd
       -0.037146155 -0.052338365 -0.072781995 -0.048103023
0002e0 1b f6 28 bd d3 2f c4 bd e6 85 0b be 84 37 2c be
       -0.04125033 -0.09579434 -0.13625297 -0.16818053
0002f0 88 65 e1 bd eb 1f 7d bd 06 2b 44 bd e0 4b fc bd
       -0.11005694 -0.061798017 -0.047892593 -0.123191595
000300 1b ad f9 bd cc 57 18 be 6c 8b 66 bd 5a 30 9f bd
       -0.121912204 -0.14877242 -0.056285307 -0.07772894
000310 06 48 81 bc 4d fb b0 bd 38 23 35 bd f5 93 27 bc
       -0.015781414 -0.08641682 -0.04422304 -0.010228147
000320 92 93 1c 3b 2b fe 8f ba 3d a6 40 bd 9b 68 84 bc
       0.002389167 -0.0010985782 -0.047033537 -0.016163161
000330 8d 08 02 bc 4a dc 25 3e 79 41 55 bc 55 82 39 3c
       -0.007936609 0.16197315 -0.013016098 0.0113225775
000340 3d 4e 1d bd c9 67 a6 bd f7 f4 a5 3c 33 cc 1c bc
       -0.038404692 -0.08125264 0.02025841 -0.009570169
000350 8d c4 c3 bd 99 7a ed bd 47 70 a4 bd fd 52 aa bb
       -0.095589735 -0.11595649 -0.08029228 -0.0051978813
000360 0d f4 ef bc 2c aa 24 be 26 5d 13 be 98 1f 9e bd
       -0.029291177 -0.1608054 -0.14391002 -0.0772087
000370 09 4c 0f be ca 9b ea bc d2 b5 d2 3d 09 92 57 bb
       -0.13993849 -0.02863874 0.10288586 -0.003289344
000380 6a 43 b2 3d ca c8 e0 3c ad 83 a4 3d f1 e5 87 3d
       0.087042645 0.027439494 0.08032928 0.06635655
000390 63 08 8d 3d 15 23 0c 3d 1c 61 7d 3d 55 da 39 3d
       0.06886365 0.034213144 0.06186019 0.045374233
0003a0 e7 1e 27 3d 4d 30 b8 3c ef d7 96 3c c4 ea ab 3d
       0.040800955 0.02248397 0.018413512 0.08394387
0003b0 7b 6d 25 3e 41 96 3c bc e0 80 8e 3d 9c 41 b3 3d
       0.16155045 -0.011510433 0.06958175 0.08752748
0003c0 b5 74 3b 3d 5a 40 81 3d 3d 1e 07 bd fb 67 a0 3c
       0.045765597 0.06311102 -0.03298782 0.019580832
0003d0 d0 89 99 3d d3 c3 2f 3a b4 0a c8 bc b7 47 f8 bb
       0.07496989 0.00067049003 -0.024419166 -0.0075769085
0003e0 66 62 32 3d 01 32 9d bc 50 35 8c 3d 77 cc e3 3d
       0.04355087 -0.019188883 0.06846106 0.11122983
0003f0 fd 08 32 3d 7e 28 4c 3d 52 85 94 ba 69 f5 9f 3d
       0.043465603 0.049843304 -0.0011331236 0.0781048

dec_layer_2.0.bias f4 [8]
000000 82 d5 ad be a8 97 68 3d b7 b4 20 be e8 c8 19 3e
       -0.33951956 0.056785256 -0.15693937 0.15018046
000010 f1 61 4d bd c0 ef e2 bd 6a 33 ca be b6 26 c3 3d
       -0.050142232 -0.11080885 -0.3949235 0.09528868

dec_layer_3.0.weight f4 [8, 3, 5, 5]
000000 9a 07 8e 3d 7a 3f 05 3e 28 0b 5f 3e aa 19 3d 3e
       0.06935044 0.13012496 0.217816 0.18466821
000010 e7 59 1a 3e 9d f6 08 3e 40 cd 86 3e d2 7b dc 3e
       0.15073358 0.13375326 0.26328468 0.43063217
000020 61 89 c5 3e cb 91 84 3e 8f 5a 94 3d 11 b7 86 3e
       0.38581374 0.2589248 0.07243835 0.26311544
000030 b6 eb d3 3e f2 e8 a6 3e c1 b5 14 3e 37 e3 8d 3c
       0.4139077 0.32599598 0.14522459 0.017320259
000040 41 c5 e8 3d f2 e5 52 3e 2b a6 01 3e 12 55 ee 3c
       0.11365748 0.2059553 0.12661044 0.029093299
000050 be a4 85 bb 1c 95 a6 3c 0f af ac 3c ce 44 67 bc
       -0.0040784767 0.020334773 0.021079568 -0.014115525
000060 40 e2 b0 bc 3e 03 d2 3d 9e 29 1b 3e 23 5d 36 3e
       -0.02159226 0.10254525 0.15152594 0.17808966
000070 e0 84 3c 3e 60 a1 fe 3d 54 14 34 3e b2 26 84 3e
       0.18410063 0.124331236 0.1758588 0.25810772
000080 55 04 9b 3e 7b 30 a0 3e b9 9e 48 3e 14 53 ad 3d
       0.30276743 0.31286988 0.19591798 0.084631115
000090 2f 99 3d 3e 83 b4 81 3e 0e dc 55 3e 36 3b 9a 3d
       0.18515466 0.25333032 0.20884725 0.07530825
0000a0 f6 19 a6 3c 26 78 85 3d b2 24 a0 3d f0 49 2c 3d
       0.020276051 0.06517057 0.07819499 0.0420627
0000b0 1d 9d bf bc 4c fa a6 bc 9c 5b ef bb 7a e5 1f bd
       -0.023390347 -0.020383023 -0.007304622 -0.039037205
0000c0 90 25 00 bd 20 c5 71 bd 0c c3 82 3d 04 89 d8 3d
       -0.031285822 -0.059025884 0.063848585 0.10573009
0000d0 df ff 2d 3e 5e 2a ca 3d 2e 69 16 3d 46 3f 3f 3e
       0.16992138 0.09871362 0.0367214 0.1867648
0000e0 f8 46 84 3e 90 e7 b8 3e 09 ef 78 3e ad 97 05 3e
       0.25835395 0.36114168 0.24309935 0.13046141
0000f0 5f aa 19 3e f0 dc 83 3e 3b b1 ad 3e c8 44 38 3e
       0.15006398 0.257545 0.3392428 0.17994988
000100 34 b2 a4 3d fa 6d 9b 3d 88 70 04 3e 8f db 54 3e
       0.08041802 0.07589336 0.12933552 0.2078688
000110 ff e8 4d 3d 85 f3 c8 3c 04 45 f3 bb c1 51 0e bc
       0.05027103 0.024530182 -0.007423999 -0.008686484
000120 ec 2d ca 3c 88 d9 f0 bc 6c 7a b9 bc c1 90 1f 3d
       0.0246801 -0.029400602 -0.022641383 0.038956407
000130 66 56 d3 3c 3f 7e 39 3d 24 e6 84 3d ec f4 89 3d
       0.025798034 0.045286413 0.06489208 0.06736168
000140 5b d7 39 3d 7a 88 41 3d 1a 3a 9b 3d 1b df 97 3d
       0.045371395 0.047249295 0.07579441 0.07415601
000150 3d d3 a3 3d 7b a8 99 3c f1 1b 4a 3d fd 2f 30 3d
       0.07999275 0.018757096 0.049343053 0.043014515
000160 a2 c8 a0 3d a0 98 9d 3d ed ac 88 3c 4c 28 b7 3b
       0.07850768 0.076951265 0.01668402 0.0055895206
000170 2f 78 2c 3d 97 bd 59 3c 0a 34 0b 3d 10 d6 aa bb
       0.042106804 0.013289831 0.033985175 -0.0052135065
000180 af 5b b3 bc a3 94 21 3c 1a 7b 74 bc b9 bb 47 3c
       -0.021894304 0.009862098 -0.014921928 0.012190753
000190 95 63 ad bd 79 13 9b bd c2 31 ee bd ec 83 64 bd
       -0.084662594 -0.075720735 -0.11630584 -0.055789873
0001a0 56 ce 85 bd 3f d5 a9 bd 61 00 c1 bd ab 00 04 be
       -0.06533496 -0.082926266 -0.094239004 -0.1289088
0001b0 69 a6 af bd d2 0e de bd 6a 29 14 be 82 5e 28 be
       -0.08576662 -0.108426705 -0.14468923 -0.16442302
0001c0 29 7b 19 be 48 0a 13 be 03 1c 06 be 92 71 b7 bd
       -0.14988388 -0.1435939 -0.13096623 -0.08957209
0001d0 60 74 b4 bd 6f e5 f9 bd a4 89 b0 bd 47 00 e9 bd
       -0.08811259 -0.12201964 -0.08620003 -0.11377006
0001e0 b1 d0 b9 bd 0b c5 7e bd 93 77 e2 bd 98 bd 94 bd
       -0.09073008 -0.062199634 -0.11057963 -0.07262725
0001f0 7a 24 bd bd 90 df b6 bb 89 e8 89 3c df c0 9d 3d
       -0.09235473 -0.00558085 0.016834514 0.07702803
000200 37 16 8a 3d f8 76 6f 3d 0c 58 41 3d b1 52 2d 3d
       0.067425184 0.058463067 0.04720311 0.04231519
000210 19 46 b0 3d b8 95 78 3d a7 7a f4 3c 60 27 7f 3d
       0.0860712 0.060689658 0.029843641 0.06229341
000220 fd 2c bc 3d f9 1c bb 3d 64 a2 f5 3d af ad af 3d
       0.09188268 0.091363855 0.11993864 0.085780494
000230 f8 28 a0 3c 5d a3 6b 3d 1b e8 c7 3d a7 1f dd 3d
       0.019550785 0.057528842 0.097610675 0.10797053
000240 06 e7 99 3d 1b 66 03 3c ba 8b b6 3c f8 ed 8d 3d
       0.07514767 0.008019949 0.022283424 0.069301546
000250 ee 4b 7d 3d cd d4 39 3d f3 89 2c bb a3 89 d3 3b
       0.06183999 0.04536896 -0.0026327341 0.0064556166
000260 f0 e7 3a 3d 35 25 58 3d c4 ae 26 3d 4b 01 49 3d
       0.04563135 0.05276986 0.040694013 0.0490735
000270 46 da e0 3d 60 eb 26 3e ec 58 cf 3d 0e b8 f8 3c
       0.10979132 0.16300726 0.101243824 0.030361202
000280 88 86 d0 3d 8d e5 45 3e 08 a1 38 3e c4 68 a2 3d
       0.1018191 0.19325848 0.18030179 0.07930139
000290 c5 83 4b bc 74 da d4 3d d7 80 2d 3e 8c 89 00 3e
       -0.012421553 0.10393229 0.1694368 0.1255247
0002a0 ce 37 33 3c 58 a5 57 bd 8b 0b 31 3d 73 49 8d 3d
       0.010938598 -0.05264792 0.0432239 0.06898775
0002b0 86 17 17 3c 42 0d e8 bc de 3d 33 bd 2e 05 73 3c
       0.009221917 -0.028326634 -0.043760173 0.014832778
0002c0 71 41 15 3d 6d 72 30 3d 5b b2 f6 3c 1d d1 0b 3c
       0.036439363 0.043077875 0.030114343 0.008533743
0002d0 f8 08 ad 3d a5 eb 0c 3e 36 26 34 3e f4 5f ce 3d
       0.08448976 0.13761766 0.17592701 0.10076895
0002e0 8e 43 1e 3d 79 fa fc 3d 5b c9 56 3e f9 76 69 3e
       0.038638644 0.12352461 0.20975249 0.2279929
0002f0 8c 2e e6 3d 4c dd a2 3c ab b1 00 3e 7f 20 3e 3e
       0.11239347 0.019880913 0.12567775 0.18567084
000300 cf 34 3b 3e 02 93 84 3d a1 04 35 bb 3f 9e 88 3d
       0.18281864 0.06473352 -0.0027621167 0.06670808
000310 fb b8 a7 3d a1 36 56 3d 25 30 89 bc 0d c7 04 bd
       0.08189579 0.052298192 -0.01674659 -0.032416392
000320 06 ee 0b 3d 3b 9b 53 3d 26 35 81 3d 72 7c e9 3c
       0.034162544 0.05166171 0.063089654 0.028501723
000330 d3 c0 be 3b 60 98 bc 3d 98 10 1b 3e 24 b2 46 3e
       0.0058213263 0.09208751 0.15143049 0.19403893
000340 32 d0 d7 3d 3d cb 25 3d 55 47 13 3e f0 c3 71 3e
       0.10537757 0.040477026 0.1438268 0.236099
000350 c1 a3 7f 3e 87 9f e7 3d 20 b9 b9 3c 3c 0a 15 3e
       0.24964811 0.11309724 0.022671282 0.14554685
000360 47 cd 47 3e a9 59 38 3e f2 b2 14 3d 95 25 1c bc
       0.19511901 0.18002953 0.036303468 -0.009530445
000370 69 33 8f 3d 38 93 9b 3d 59 46 5c 3d ca c7 99 bc
       0.069922276 0.07596439 0.053778026 -0.018772025
000380 64 6e ab bc 13 c0 3f 3d f5 97 0d 3d 02 2d ac 3d
       -0.020926662 0.046814036 0.034568746 0.08407022
000390 d2 be 4d 3d 28 0f 27 3d 29 58 08 3e ed 8d 3d 3e
       0.05023081 0.04078594 0.1331488 0.18511172
0003a0 50 d3 7b 3e 74 50 2b 3e 58 84 d4 3d 0c 2b 23 3e
       0.24592328 0.16729909 0.10376805 0.1593439
0003b0 c1 40 96 3e 40 fa e5 3e 2b 18 92 3e 3a b7 1e 3e
       0.29346278 0.44917488 0.28534064 0.15499583
0003c0 44 40 e5 3d e9 ef 81 3e 8a 43 bd 3e cc 94 7e 3e
       0.11193898 0.2537835 0.3696559 0.24861449
0003d0 15 ce 00 3e 85 16 37 bc c0 0b 9e 3d eb af 45 3e
       0.12578614 -0.011174803 0.07717085 0.19305389
0003e0 6d 62 15 3e a5 ea 89 3d 6b 01 05 bc 57 11 f6 39
       0.14588328 0.06734208 -0.008118014 0.00046933696
0003f0 20 e7 fd bb 3b 02 9e bc ab ed 34 bd ce a3 8e 3c
       -0.0077484995 -0.019288173 -0.04417197 0.017412093

dec_layer_3.0.bias f4 [3]
000000 79 bc c7 3c f5 ba 05 3d 30 6a 10 3d
       0.024381863 0.032649 0.03525752
