save/small_1/model_small_1.pt (torch, 28443 bytes, 12 tensors)

enc_layer_1.0.weight f4 [16, 3, 5, 5]
0.16573952 0.022623312 0.05900461 0.07521991 0.16485693 -0.09790916 -0.01508709 -0.054025598
0.11723949 0.047747716 0.06625299 -0.088012226 0.008586928 -0.0023612662 -0.01723559 -0.11690746
0.020334799 0.056793522 -0.015166756 -0.07173294 0.05077767 -0.10467215 0.06366117 -0.021363232
-0.07031352 -0.079291835 0.03202735 0.026069025 -0.03862078 -0.0067970715 0.14017817 0.06622729
0.15400377 -0.054493047 0.13059631 0.036148354 0.083101705 -0.009205617 0.08703255 0.090400666
-0.06426619 -0.1744105 -0.20961873 -0.0043703476 -0.010518806 -0.14571571 -0.1271617 -0.046876635
0.032965563 0.0010147067 0.094125465 0.04060234 0.06048138 0.035312016 0.20422575 0.13788953
-0.05315344 -0.021096446 0.11615084 -0.024990328 0.13586535 0.07988141 0.05033433 -0.04961252
0.07653266 -0.08925605 -0.0810812 -0.05412483 -0.0757735 -0.03902952 0.07142149 0.093484975
0.033872996 0.08837115 -0.07603315 -0.029311964 0.12169526 0.07720408 0.053051557 0.12540033
0.11749549 -0.005850523 0.100724265 0.097661465 -0.037008714 -0.041739173 0.064270474 -0.03574001
-0.07960834 -0.015714288 -0.11385157 0.0071285656 0.020630026 0.08379006 0.028781597 -0.07306344
0.0032125933 -0.113122955 0.06563004 0.089598 -0.009296564 0.074454546 0.090359576 0.16365652
0.23792456 0.33335182 0.25908306 0.21642032 0.2567662 0.45616418 0.23843439 0.15612145
0.17084682 0.2869578 0.21926981 -0.2791877 -0.15419541 -0.15275352 -0.11327323 -0.20496805
-0.020090511 -0.014646705 0.08262602 -0.004656349 -0.08126424 0.12091495 0.2031172 0.30451897
0.39472443 0.29290843 0.07913669 0.27027288 0.22535796 0.31833223 0.22435944 0.015421883
0.15115933 0.10518429 0.1503158 0.038040195 -0.12934956 -0.09746806 -0.14251909 -0.056943618
-0.06562959 0.04965039 0.08517964 -0.044297453 0.08382784 -0.031507514 -0.08850725 0.029604137
-0.035627283 -0.10075912 -0.050688744 -0.20572887 -0.1545165 -0.080627374 -0.046242017 -0.20422332
-0.026874285 -0.17487846 -0.17762779 -0.17433886 -0.14935887 -0.03525979 0.07886746 -0.07869529
0.06754133 -0.11659913 0.025671082 0.24297258 0.21097024 0.090255 0.14500917 -0.09805131
0.03749837 0.045866337 0.0470281 -0.050388645 0.05202846 0.21586186 0.15618551 0.092969425
0.063049234 0.17030606 0.11026765 0.11681642 0.13545033 0.20254788 -0.16459301 -0.12337376
-0.058885828 -0.06721578 -0.110961564 0.15211259 0.29410082 0.30357686 0.12136272 0.22979848
0.29662713 0.19995637 0.26262632 0.39701036 0.36984164 0.3685053 0.16794623 0.19752969
0.24329054 0.44364873 -0.17344214 -0.11435447 -0.0047428417 0.044044886 -0.04629331 -0.07758684
-0.2261257 -0.09134282 -0.058642473 -0.12413179 0.036237326 -0.036359753 0.06362051 -0.020443674
0.18405512 -0.007237426 0.048951957 -0.04971565 -0.12999812 -0.12694874 -0.090000354 0.02324534
0.04327552 0.03243308 -0.0018469077 0.07654108 -0.068721145 -0.057854977 0.04209751 -0.035204403
0.057031408 0.1272214 0.11215865 -0.026894815 0.06358057 -0.050080642 0.036533874 0.07214027
0.1191381 -0.051166143 0.1317487 0.010015948 0.10274028 0.0064137843 0.08570619 0.11795016
00000000: 9fb7 293e 8654 b93c d1ae 713d e50c 9a3d
00000010: 41d0 283e 9984 c8bd d82f 77bc f249 5dbd
00000020: 421b f03d 1c93 433d a6af 873d c13f b4bd
00000030: 30b0 0c3c 79bf 1abb a731 8dbc 2e6d efbd
00000040: 2a95 a63c 53a0 683d fc7d 78bc b8e8 92bd
00000050: 3ffc 4f3d 5a5e d6bd ca60 823d f201 afbc
00000060: 8900 90bd c263 a2bd 1c2f 033d b58e d53c
00000070: d330 1ebd f8b9 debb de8a 0f3e 2ca2 873d
00000080: 2ab3 1d3e 1a34 5fbd 0abb 053e 4c10 143d
00000090: 3a31 aa3d 28d3 16bc 1f3e b23d fc23 b93d
000000a0: fe9d 83bd ab98 32be 4ba6 56be 2235 8fbb
000000b0: 1257 2cbc 8036 15be ad36 02be b701 40bd
000000c0: e606 073d e8ff 843a dac4 c03d a44e 263d
000000d0: 53bb 773d 55a3 103d 8e20 513e ea32 0d3e
000000e0: 6cb7 59bd 74d2 acbc 7ee0 ed3d 84b8 ccbc
000000f0: 4920 0b3e dd98 a33d 5f2b 4e3d 7f36 4bbd
00000100: 28bd 9c3d e0cb b6bd e60d a6bd ffb1 5dbd
00000110: 232f 9bbd 6bdd 1fbd 6e45 923d 0d75 bf3d
00000120: 69be 0a3d effb b43d 45b7 9bbd a51f f0bc
00000130: 5d3b f93d 2c1d 9e3d 974c 593d f268 003e
00000140: 7aa1 f03d beb5 bfbb 8648 ce3d bc02 c83d
00000150: 7396 17bd b2f6 2abd 3da0 833d 1e64 12bd
00000160: b309 a3bd 40bb 80bc 032b e9bd be96 e93b
00000170: 4d00 a93c 1f9a ab3d 62c7 eb3c 49a2 95bd
00000180: 5f8a 523b 02ad e7bd 0b69 863d 287f b73d
00000190: 9e50 18bc a07b 983d 710e b93d 9395 273e
000001a0: 7fa2 733e 17ad aa3e 89a6 843e 4a9d 5d3e
000001b0: dc76 833e 5a8e e93e 2528 743e 4dde 1f3e
000001c0: 78f2 2e3e 22ec 923e 4488 603e b1f1 8ebe
000001d0: 67e5 1dbe 6b6b 1cbe ccfb e7bd 25e3 51be
000001e0: db94 a4bc bcf8 6fbc d537 a93d 4994 98bb
000001f0: de6d a6bd 42a2 f73d f5fd 4f3e e9e9 9b3e
00000200: 5219 ca3e 18f8 953e 6b12 a23d 3561 8a3e
00000210: 3dc4 663e 71fc a23e 7bbe 653e 11ac 7c3c
00000220: 83c9 1a3e dc6a d73d 63ec 193e 09d0 1b3d
00000230: 3674 04be 569d c7bd 86f0 11be b63d 69bd
00000240: ce68 86bd 355e 4b3d aa72 ae3d 3f71 35bd
00000250: eead ab3d 060e 01bd 4a43 b5bd 6084 f23c
00000260: eaed 11bd cc5a cebd 009f 4fbd 97aa 52be
00000270: 9339 1ebe f71f a5bd 4568 3dbd eb1f 51be
00000280: 7627 dcbc 5713 33be 0fe4 35be e385 32be
00000290: 88f1 18be 926c 10bd 4385 a13d ff2a a1bd
000002a0: 1c53 8a3d 86cb eebd 294c d23c cecd 783e
000002b0: 9508 583e 9dd7 b83d 497d 143e 20cf c8bd
000002c0: e497 193d 57de 3b3d 89a0 403d 5364 4ebd
000002d0: cb1b 553d e40a 5d3e 18ef 1f3e c166 be3d
000002e0: f51f 813d b664 2e3e 01d4 e13d 723d ef3d
000002f0: 7eb3 0a3e b668 4f3e 128b 28be 62ab fcbd
00000300: 4432 71bd 6da8 89bd d13f e3bd 67c3 1b3e
00000310: 6294 963e 6d6e 9b3e 058d f83d 4b50 6b3e
00000320: 83df 973e 5dc1 4c3e f576 863e f144 cb3e
00000330: e25b bd3e baac bc3e 19fa 2b3e 3945 4a3e
00000340: 2821 793e ed25 e33e d19a 31be ad32 eabd
00000350: d769 9bbb 6968 343d 0e9e 3dbd d9e5 9ebd
00000360: 7f8d 67be f211 bbbd 1733 70bd cf38 febd
00000370: 976d 143d f7ed 14bd 784b 823d 7e79 a7bc
00000380: f278 3c3e ee27 edbb d981 483d a3a2 4bbd
00000390: 3a1e 05be dafe 01be 1b52 b8bd 036d be3c
000003a0: ac41 313d 8dd8 043d f013 f2ba 92c1 9c3d
000003b0: acbd 8cbd 57f9 6cbd 706e 2c3d 7e32 10bd
000003c0: c499 693d 5446 023e 6fb3 e53d 8452 dcbc
000003d0: 8836 823d 5c21 4dbd 8ba4 153d 47be 933d
000003e0: adfe f33d 9793 51bd 22e9 063e ee19 243c
000003f0: 7f69 d23d b92a d23b ba86 af3d da8f f13d

enc_layer_1.0.bias f4 [16]
0.27530134 0.42430234 0.4465747 -0.04537293 0.11078784 0.2367213 0.28359842 0.17722674
0.44093162 -0.09265977 0.48715985 0.11961509 0.31285405 0.13549666 0.046887953 -0.08864212
00000000: 4cf4 8c3e 283e d93e 70a5 e43e f7d8 39bd
00000010: bce4 e23d 1267 723e d033 913e ed7a 353e
00000020: cac1 e13e 68c4 bdbd 046d f93e c2f8 f43d
00000030: 682e a03e a3bf 0a3e 950d 403d 008a b5bd

enc_layer_2.0.weight f4 [4, 16, 3, 3]
0.06930456 -0.008304253 0.060617264 -0.00046991554 0.11289796 0.11051337 -0.04701178 -0.005625846
-0.049739547 -0.015132477 0.10932288 0.023654148 0.05872655 0.16223463 0.082505375 -0.017999684
0.019443301 0.016611645 0.110658385 0.11590897 0.13890646 -0.06544123 0.03269724 0.070008926
0.031701036 0.0022947402 -0.07943749 0.05789481 0.15073164 0.07626188 -0.011723853 0.1036163
0.15521851 -0.025144583 0.09446426 -0.08450179 -0.02682079 0.14095378 -0.014621313 -0.0060341707
0.070102744 0.08586074 -0.104065046 -0.032592386 0.019054584 0.10637776 0.15686041 0.03853516
-0.02370029 0.083555885 0.08002569 -0.10150523 -0.04786373 -0.10258402 -0.2122125 -0.15500094
-0.22706804 0.037585024 0.112348385 0.11292292 0.058496445 0.020808086 -0.022976233 -0.01708516
0.020650784 -0.047291588 0.053963523 0.04645301 0.04470259 -0.070661835 -0.032978877 -0.0997997
0.1144087 0.18350247 0.025185278 -0.0853169 0.012157069 -0.094334714 0.016139034 0.060453076
0.044700302 0.15564589 0.20497999 0.18412524 0.06648922 0.08721089 0.054741945 0.0047244946
-0.045047387 0.07152639 0.11907494 0.15689558 0.104713865 0.06080737 0.14164576 0.1270838
-0.0011612957 0.078967094 0.045501653 0.338516 0.37326688 0.25632817 0.27768204 0.3409707
0.3275211 0.039741788 0.110771485 0.03977575 -0.08767423 -0.10983928 -0.08461248 0.06026134
-0.030118743 -0.042408776 0.021963581 -0.029105008 0.007881931 0.36712316 0.30834046 0.40226746
0.077980295 0.25067472 0.09926881 -0.17630152 -0.049000207 -0.023430226 -0.089612834 -0.0073382314
-0.027310422 -0.03269965 0.021215748 -0.06489174 0.04243571 -0.04923872 -0.069412604 0.030619731
0.19266766 0.07013312 0.12009266 0.02290936 0.02375154 0.016930593 -0.003091337 0.06268734
-0.017864345 0.063146 0.036848437 0.1579199 0.05522815 0.004331372 -0.047448535 -0.028854754
-0.041600604 0.14462447 0.10632561 -0.012566279 0.0712238 0.13579984 0.06360789 -0.03144773
0.0028348607 -0.032834776 0.22489278 0.24574931 0.13997926 0.07642702 0.140705 0.10509558
0.07747743 0.12866841 0.07864976 -0.044790827 0.008022577 -0.082956985 0.04767334 -0.024087016
-0.006230561 0.06536659 -0.058254916 -0.09127131 0.15716171 0.03748057 0.05652521 -0.01675093
0.054954845 -0.002034806 -0.07229565 0.04821275 0.042551033 0.1637337 0.18537489 0.12358005
0.027762914 -0.01989466 -0.017465543 -0.05289057 -0.044585694 -0.0057735005 -0.71184975 -0.77622825
-0.80270123 0.09563584 0.16889122 0.22102611 0.1521456 0.14992887 0.23495227 0.043983176
-0.06069781 -0.024499822 0.083904035 0.09408446 -0.009247666 -0.08475134 0.006088418 -0.12804554
0.31048593 0.385743 0.34323284 -0.041415423 -0.033439126 -0.037985675 0.0034026233 0.1310806
0.08045814 -0.085176565 -0.013016937 -0.14073755 -0.08034225 -0.121828154 -0.1481344 -0.028109206
0.13668658 0.07038479 0.1398186 0.20093863 0.09907114 0.06128727 0.1353924 0.15801701
-0.1270405 -0.07611481 0.05299264 -0.1375759 -0.20598638 -0.12148141 0.2549007 0.4422303
0.48790777 0.1251972 0.26810452 0.30812335 -0.106793515 -0.17293856 -0.10566529 0.13446009
00000000: 8def 8d3d 900e 08bc cf49 783d ff5e f6b9
00000010: 0c37 e73d d554 e23d 6d8f 40bd 0459 b8bb
00000020: b2bb 4bbd 35ee 77bc ade4 df3d 58c6 c13c
00000030: 408b 703d d620 263e 94f8 a83d 1374 93bc
00000040: 8f47 9f3c 2515 883c dda0 e23d af61 ed3d
00000050: 7f3d 0e3e 0d06 86bd 8bed 053d d760 8f3d
00000060: f2d8 013d 5a63 163b 1fb0 a2bd 1c23 6d3d
00000070: 6559 1a3e 302f 9c3d 6715 40bc c834 d43d
00000080: 9af1 1e3e 03fc cdbc 7a76 c13d 460f adbd
00000090: 46b7 dbbc 3056 103e 3b8e 6fbc 4bba c5bb
000000a0: 0792 8f3d c1d7 af3d 0e20 d5bd 987f 05bd
000000b0: 5c18 9c3c 95dc d93d 04a0 203e 0bd7 1d3d
000000c0: 1c27 c2bc 591f ab3d 82e4 a33d f9e1 cfbd
000000d0: c20c 44bd 9217 d2bd 3c4e 59be 91b8 1ebe
000000e0: 8684 68be c1f2 193d e916 e63d 2244 e73d
000000f0: f899 6f3d b875 aa3c a738 bcbc 2df6 8bbc
00000100: d52b a93c d3b4 41bd db08 5d3d 8345 3e3d
00000110: 101a 373d 27b7 90bd dc14 07bd c963 ccbd
00000120: 1c4f ea3d 12e8 3b3e 5b51 ce3c a0ba aebd
00000130: 712e 473c 8f32 c1bd 0236 843c a59d 773d
00000140: aa17 373d a361 1f3e 46e6 513e 548b 3c3e
00000150: 802b 883d a09b b23d 1739 603d efcf 9a3b
00000160: 9c83 38bd 6e7c 923d 90dd f33d 3ca9 203e
00000170: 3974 d63d 2611 793d 960b 113e 4122 023e
00000180: 9e36 98ba 80b9 a13d f15f 3a3d f851 ad3e
00000190: d61c bf3e 723d 833e 572c 8e3e b693 ae3e
000001a0: d8b0 a73e 49c8 223d 29dc e23d e6eb 223d
000001b0: 8c8e b3bd 6bf3 e0bd 4f49 adbd 98d4 763d
000001c0: 95bb f6bc d3b4 2dbd f8ec b33c a06d eebc
000001d0: 3723 013c 91f7 bb3e cdde 9d3e 00f6 cd3e
000001e0: 22b4 9f3d 7058 803e 724d cb3d 6388 34be
000001f0: 71b4 48bd bff0 bfbc ef86 b7bd 8c75 f0bb
00000200: 1bba dfbc 11f0 05bd a6cc ad3c f6e5 84bd
00000210: 11d1 2d3d 8aae 49bd 3228 8ebd 3bd6 fa3c
00000220: ac4a 453e f4a1 8f3d 24f3 f53d 69ac bb3c
00000230: 9792 c23c 07b2 8a3c 0798 4abb 3862 803d
00000240: 3f58 92bc b152 813d 63ee 163d c1b5 213e
00000250: ea36 623d 2fee 8d3b 6559 42bd ce60 ecbc
00000260: 6565 2abd 7018 143e 3ec1 d93d cbe2 4dbc
00000270: c9dd 913d 1d0f 0b3e da44 823d 56cf 00bd
00000280: 12c9 393b c27d 06bd 4b4a 663e b5a5 7b3e
00000290: b956 0f3e c585 9c3d f914 103e 5a3c d73d
000002a0: 7dac 9e3d a7c1 033e 2013 a13d 9676 37bd
000002b0: 2071 033c 5ae5 a9bd 1f45 433d 2252 c5bc
000002c0: bc29 ccbb ebde 853d b59c 6ebd 74ec babd
000002d0: 00ef 203e 3a85 193d fb86 673d 3f39 89bc
000002e0: 5518 613d 615a 05bb be0f 94bd bc7a 453d
000002f0: fe49 2e3d cfa9 273e ead2 3d3e 8a17 fd3d
00000300: 0d6f e33c 20fa a2bc e613 8fbc c8a3 58bd
00000310: 7d9f 36bd a22f bdbb c93b 36bf e5b6 46bf
00000320: d47d 4dbf b9dc c33d d2f1 2c3e ab54 623e
00000330: 0ecc 1b3e f486 193e 5497 703e b427 343d
00000340: 449e 78bd dab3 c8bc e1d5 ab3d 5aaf c03d
00000350: 8683 17bc 1c92 adbd 5a81 c73b 5f1e 03be
00000360: 03f8 9e3e 1b80 c53e 37bc af3e 38a3 29bd
00000370: 77f7 08bd de96 1bbd 8cfe 5e3b fe39 063e
00000380: 3dc7 a43d 0d71 aebd fe44 55bc 811d 10be
00000390: 7a8a a4bd 0a81 f9bd 8bb0 17be 4745 e6bc
000003a0: 91f7 0b3e e725 903d 9b2c 0f3e dbc2 4d3e
000003b0: cfe5 ca3d 5c08 7b3d 4ea4 0a3e 36cf 213e
000003c0: e816 02be 15e2 9bbd cf0e 593d b2e0 0cbe
000003d0: 18ee 52be 3fcb f8bd 5882 823e 036c e23e
000003e0: 0ccf f93e b233 003e ff44 893e 58c2 9d3e
000003f0: 8fb6 dabd ce16 31be 0b67 d8bd e8af 093e

enc_layer_2.0.bias f4 [4]
-0.0048453826 0.15180516 0.22981493 0.030570751
00000000: 04c6 9ebb d072 1b3e 9b54 6b3e 836f fa3c

enc_layer_3.0.weight f4 [8, 4, 3, 3]
0.08883244 0.003950218 -0.11979821 -0.06015458 0.07481026 -0.10032854 -0.053602796 -0.0863604
-0.35117286 0.28974086 0.1708706 0.25890663 0.24172276 0.24752057 -0.03467961 0.2027753
0.008632702 -0.10003312 -0.12578718 0.029852184 0.027599053 0.056275506 -0.05613846 0.1800981
0.0768593 -0.07100769 -0.010218277 0.2792864 0.34169483 0.44459644 -0.113845445 0.18099454
-0.013259701 0.05530051 -0.040890228 0.24099533 0.07028981 0.19423321 0.1931476 -0.09684438
0.09763514 -0.081028536 0.07079043 -0.023621682 -0.08752863 0.32940236 0.077515475 0.23432945
-0.18046324 -0.13671067 -0.020909566 0.11078518 0.021846859 0.1157982 0.16966148 0.087432
0.10773664 -0.0044042896 -0.21862651 -0.18276314 -0.04445493 0.018065285 0.028785754 -0.03569179
-0.18496957 -0.331718 -0.05839415 0.09552732 -0.1205876 -0.11180545 -0.061298426 -0.102798
-0.019026173 -0.023189602 0.046285976 -0.03832921 0.06323918 0.13116902 0.08891215 0.06649952
0.12158844 0.08930389 -0.21459465 0.11996042 0.104725085 -0.14983878 -0.025381785 0.15718715
-0.14531828 0.13813092 0.29667172 0.27199572 0.18532254 0.07109936 0.13501647 0.021269768
-0.12267427 0.017884396 0.108141825 0.108336985 -0.007997913 0.015505638 0.10943273 -0.0013884456
-0.0659862 0.16666377 0.010071306 0.07690569 0.32334867 0.09916767 -0.036326233 0.12665763
0.13756594 -0.0150188925 0.15224363 -0.088841505 -0.07299106 -0.071012355 -0.2522897 -0.1620353
0.384837 0.28486505 -0.07784618 0.113334075 -0.14131361 -0.04975143 -0.086209394 -0.16855675
-0.21778439 -0.0314003 0.007564358 0.1563666 -0.03528529 0.083080135 0.09871887 -0.17725827
-0.3027759 -0.44292694 0.18742815 -0.022037212 -0.014460926 -0.14022252 -0.039737213 -0.002351037
-0.204359 -0.4200691 -0.094185084 -0.19996546 -0.26117963 -0.08659016 -0.045543227 -0.17448044
-0.004735898 0.03870753 -0.03589689 -0.11836594 -0.15600608 -0.00537689 0.07051037 -0.003507704
0.02806848 0.18359336 0.20665605 0.1726162 0.20566478 0.0021266562 0.092031986 -0.09709511
0.20525365 0.20990913 0.010024882 -0.0620582 0.015273106 -0.07334627 -0.016757613 0.050515354
-0.010820654 -0.08293609 -0.0403179 -0.21768087 -0.050418984 -0.09253929 -0.22185454 0.04401584
-0.06410443 -0.050010547 0.082440585 0.16714205 0.06741003 0.096996844 0.35901126 0.21376127
0.07983447 -0.1866916 -0.17905864 0.14147992 -0.08687306 0.108582616 -0.19269907 -0.0008746805
-0.10280678 0.17082025 0.05171062 0.14714071 0.07860716 0.015986096 0.03158661 0.17257223
0.07299424 0.23636855 -0.14235307 -0.21921155 -0.12757927 -0.056326155 -0.027820518 -0.048781216
-0.07248104 0.13266267 0.17534088 -0.11445533 -0.016951256 0.05912137 -0.15997268 -0.13151132
0.108471 0.05568631 -0.11402038 0.013289106 -0.00704037 -0.05428073 0.16729748 -0.17718722
0.020130761 0.19667748 -0.035300832 0.047928616 0.15234685 0.23103654 -0.058982432 -0.092699096
0.19103053 0.12018275 0.1409664 -0.14655001 -0.10102292 -0.287054 0.04042845 0.02779825
0.051338762 0.009841781 0.20381345 0.1869384 0.028133767 -0.22086242 0.079041526 0.021613264
00000000: c8ed b53d d570 813b c458 f5bd a664 76bd
00000010: 1f36 993d 0d79 cdbd 9b8e 5bbd b9dd b0bd
00000020: eecc b3be ea58 943e b4f8 2e3e 698f 843e
00000030: 2c86 773e 0876 7d3e 350c 0ebd 54a4 4f3e
00000040: 2d70 0d3c 2ade ccbd 5bce 00be 918c f43c
00000050: 6917 e23c 2581 663d 71f1 65bd a36b 383e
00000060: 6968 9d3d 7b6c 91bd 8f6a 27bc a1fe 8e3e
00000070: a0f2 ae3e 25a2 e33e cd27 e9bd a256 393e
00000080: 383f 59bc ca82 623d 837c 27bd 7bc7 763e
00000090: 1bf4 8f3d 12e5 463e 7cc8 453e 5956 c6bd
000000a0: eff4 c73d 4af2 a5bd 93fa 903d 4282 c1bc
000000b0: 3642 b3bd 6da7 a83e 6fc0 9e3d 0ff4 6f3e
000000c0: 5bcb 38be e2fd 0bbe 8a4a abbc 57e3 e23d
000000d0: 2ff8 b23c 9b27 ed3d bdbb 2d3e 8c0f b33d
000000e0: 07a5 dc3d dc51 90bb a1df 5fbe 4326 3bbe
000000f0: 5f16 36bd a6fd 933c 1ad0 eb3c 8e31 12bd
00000100: aa68 3dbe f1d6 a9be b42e 6fbd d4a3 c33d
00000110: a2f6 f6bd 41fa e4bd 0f14 7bbd c287 d2bd
00000120: c7dc 9bbc 1ff8 bdbc 5d96 3d3d 17ff 1cbd
00000130: 8b83 813d 2c51 063e 9317 b63d e630 883d
00000140: 5c03 f93d f5e4 b63d b3be 5bbe cfad f53d
00000150: 1b7a d63d 566f 19be 76ed cfbc abf5 203e
00000160: 51ce 14be 3172 0d3e 5be5 973e 0643 8b3e
00000170: 31c5 3d3e 8b9c 913d c241 0a3e f03d ae3c
00000180: a63c fbbd 4c82 923c 7679 dd3d c8df dd3d
00000190: ae09 03bc 5c0b 7e3c 441e e03d 81fc b5ba
000001a0: c623 87bd e8a9 2a3e 1e02 253c bb80 9d3d
000001b0: f58d a53e 6b18 cb3d d1ca 14bd 8ab2 013e
000001c0: 16de 0c3e cd11 76bc c1e5 1b3e 89f2 b5bd
000001d0: 567c 95bd ed6e 91bd 1e2c 81be 95ec 25be
000001e0: 5b09 c53e d5d9 913e d16d 9fbd b21b e83d
000001f0: 84b4 10be 28c8 4bbd 8d8e b0bd 249a 2cbe
00000200: df02 5fbe 9a9d 00bd 6fde f73b 911e 203e
00000210: 4f87 10bd eb25 aa3d 1e2d ca3d 3183 35be
00000220: 7105 9bbe 52c7 e2be 2aed 3f3e 6287 b4bc
00000230: 85ed 6cbc 7e96 0fbe 7dc3 22bd db13 1abb
00000240: 7c43 51be 4c13 d7be 1ce4 c0bd bfc3 4cbe
00000250: 56b9 85be 2f56 b1bd 898b 3abd 00ab 32be
00000260: 982f 9bbb c98b 1e3d 9e08 13bd d869 f2bd
00000270: 0fc0 1fbe 9f30 b0bb be67 903d 82e1 65bb
00000280: deef e53c e6ff 3b3e a59d 533e 4dc2 303e
00000290: ca99 523e 5f5f 0b3b 447b bc3d cdd9 c6bd
000002a0: 032e 523e 6bf2 563e 673f 243c bd30 7ebd
000002b0: 0d3c 7a3c 9236 96bd 4347 89bc 30e9 4e3d
000002c0: 1d49 31bc 66da a9bd 6224 25bd bce7 5ebe
000002d0: 2384 4ebd 3d85 bdbd d62d 63be f449 343d
000002e0: 2f49 83bd dcd7 4cbd 9cd6 a83d 4927 2b3e
000002f0: 450e 8a3d 48a6 c63d 53d0 b73e 3ce4 5a3e
00000300: 4180 a33d 152c 3fbe 265b 37be 1de0 103e
00000310: 81ea b1bd 9060 de3d e852 45be d14a 65ba
00000320: 5c8c d2bd 81eb 2e3e 84ce 533d 0eac 163e
00000330: cafc a03d 46f5 823c f660 013d c6b6 303e
00000340: 017e 953d 990a 723e 01c5 11be fe78 60be
00000350: 24a4 02be 41b6 66bd dbe7 e3bc d0ce 47bd
00000360: f170 94bd b9d8 073e 8f8c 333e 8e67 eabd
00000370: 5cdd 8abc 4029 723d e1cf 23be e7aa 06be
00000380: 0b26 de3d 5417 643d 8483 e9bd 8dba 593c
00000390: e7b2 e6bb 7955 5ebd 0850 2b3e 9170 35be
000003a0: 44e9 a43c d265 493e 9b97 10bd cc50 443d
000003b0: d000 1c3e d894 6c3e 9097 71bd 06d9 bdbd
000003c0: 829d 433e 6022 f63d 7f59 103e 3511 16be
000003d0: 1be5 cebd bef8 92be 4d98 253d 28b9 e33c
000003e0: 9848 523d 6c3f 213c 79b4 503e c86c 3f3e
000003f0: c978 e63c c229 62be 86e0 a13d 4d0e b13c

enc_layer_3.0.bias f4 [8]
-0.1625932 -0.10267853 -0.19774495 0.1780229 -0.013979191 0.17668496 0.077296935 0.097183995
00000000: d57e 26be 1f49 d2bd a77d 4abe a34b 363e
00000010: fa08 65bc e7ec 343e db4d 9e3d 6708 c73d

dec_layer_1.0.weight f4 [8, 12, 3, 3]
0.057470158 0.020653246 0.09352605 0.09543483 0.083600834 0.03150675 0.32991973 0.24623059
0.112541474 0.051306993 0.15348244 0.116156235 0.062117044 0.06625719 0.09816764 0.03501597
0.04970033 -0.0917746 -0.059271984 -0.094753385 -0.050697 0.09262107 -0.15085375 0.05464548
0.26718023 0.17813146 0.091743775 -0.06270235 0.08136744 -0.039596193 -0.14852507 0.06313837
-0.084986575 0.09138578 0.14773719 0.013450881 0.02079508 0.14462362 0.0109885875 0.027636902
-0.031371 0.091541864 0.10984749 0.118110925 0.065880716 0.0945065 -0.03149036 0.018120626
0.41643697 0.19730689 -0.14565532 0.13099742 0.15390295 0.09686647 -0.025095616 -0.027822208
-0.0010246095 -0.026014263 0.17685425 0.05706316 0.1031384 0.13233066 0.16446392 -0.089075394
0.017736815 -0.017481957 0.18818769 0.076867715 -0.32874906 0.27999994 0.122697644 -0.091025114
-0.043413866 0.1931353 0.07734467 0.043728244 0.1906405 0.15018412 0.102889225 0.1784334
0.09394408 -0.024604509 -0.029668706 -0.04056739 -0.111746825 0.05672613 0.023664378 -0.3006042
-0.022985961 0.18028022 0.06644764 0.10666276 0.11148551 0.2825251 0.08953089 -0.10145216
0.22249563 -0.015632264 -0.05092982 -0.056392964 -0.0016906792 -0.15129001 0.031059658 0.18014422
0.12907659 0.29535002 0.04857652 0.1391474 0.1373905 0.112604484 0.14631264 -0.052626774
0.030457288 0.016112773 -0.29287913 -0.13870452 -0.21740179 -0.19736606 0.06666831 -0.15403615
-0.07984 -0.16768934 0.01925152 0.12854531 0.039901827 0.13726723 -0.121625826 0.19620883
0.084304005 0.03199674 -0.21796833 0.12133554 -0.046334423 0.08792995 0.030075531 0.047217306
-0.124520265 0.1245829 -0.052871957 -0.030092938 0.04526208 0.23671564 0.10055232 0.12812364
-0.0050646164 0.01686559 -0.052497026 -0.12863089 -0.06931093 -0.05240454 0.025563681 -0.046154782
-0.072861694 -0.04188408 0.028820107 -0.16216417 -0.34832627 -0.40555388 -0.23956122 -0.20778446
-0.079242446 -0.15953965 0.10223945 -0.28400192 0.009748928 0.011739696 -0.12738757 -0.029349534
0.0134992795 -0.2711599 0.040587116 -0.25026932 -0.01801552 -0.088944264 -0.18837701 0.120160595
0.013139388 -0.23950042 0.019159524 -0.14124158 -0.22390498 -0.06378062 -0.121163554 -0.21190873
-0.16722724 -0.041011337 0.018950813 -0.029395241 0.21856506 0.29633808 -0.1443719 -0.028607324
-0.062556 -0.21316141 -0.20302716 -0.37646914 -0.36385807 -0.3220695 -0.04173442 0.046545364
0.1657337 -0.114365645 -0.18191826 -0.20522311 -0.17336749 -0.15735833 -0.10859284 0.3197364
0.06278885 0.267128 0.035630994 -0.13047661 -0.1471737 -0.027453993 0.03038429 -0.08167768
-0.18591224 -0.15449254 -0.21160896 0.11125018 -0.08461443 -0.021137772 -0.2187767 -0.17320393
-0.18879572 -0.03708024 -0.095912874 0.043520816 -0.040693305 -0.08985781 -0.052926913 -0.14572483
-0.20450316 -0.07086779 -0.13404688 -0.12577626 -0.07328163 -0.006103892 -0.17964531 -0.08647449
-0.14390266 -0.14243098 -0.23656446 0.07157363 -0.037614644 -0.05440789 -0.2752588 -0.018675491
-0.20344397 -0.13498813 0.017798986 -0.14965068 -0.037647396 0.013374379 -0.115643725 0.075695224
00000000: d465 6b3d ff30 a93c 968a bf3d 5673 c33d
00000010: ea36 ab3d 390d 013d 3deb a83e df23 7c3e
00000020: 257c e63d 4827 523d 802a 1d3e 52e3 ed3d
00000030: 716e 7e3d dab1 873d 1e0c c93d e86c 0f3d
00000040: 9392 4b3d 52f4 bbbd 2ec7 72bd 100e c2bd
00000050: a8a7 4fbd 1eb0 bd3d 6879 1abe f0d3 5f3d
00000060: d9cb 883e 1868 363e 29e4 bb3d 176a 80bd
00000070: f9a3 a63d 9e2f 22bd f516 18be b14e 813d
00000080: 710d aebd 7828 bb3d 6b48 173e 1561 5c3c
00000090: 725a aa3c 3718 143e 7a09 343c c966 e23c
000000a0: e17e 00bd 4d7a bb3d b9f7 e03d 24e4 f13d
000000b0: 78ec 863d a08c c13d 09fc 00bd b571 943c
000000c0: 3a37 d53e d10a 4a3e ab26 15be 3024 063e
000000d0: bc98 1d3e ee61 c63d 5295 cdbc 66eb e3bc
000000e0: 314c 86ba dd1b d5bc 4819 353e 0fbb 693d
000000f0: 3a3a d33d b081 073e 3b69 283e 296d b6bd
00000100: cc4c 913c 5236 8fbc 46b4 403e d26c 9d3d
00000110: cc51 a8be 275c 8f3e e748 fb3d 606b babd
00000120: bdd2 31bd 43c5 453e e266 9e3d 631c 333d
00000130: 4337 433e dec9 193e 96b7 d23d 3fb7 363e
00000140: c165 c03d 658f c9bc c90b f3bc fe29 26bd
00000150: 85db e4bd a959 683d ccdb c13c cbe8 99be
00000160: 0e4d bcbc 619b 383e b315 883d 0172 da3d
00000170: 8452 e43d 21a7 903e f95b b73d 26c6 cfbd
00000180: e5d5 633e 3c0f 80bc c99b 50bd 4ffc 66bd
00000190: c899 ddba c5eb 1abe d370 fe3c ba77 383e
000001a0: a72c 043e 1e38 973e 2cf8 463d a87c 0e3e
000001b0: 18b0 0c3e 2e9d e63d fbd2 153e 2c8f 57bd
000001c0: 9081 f93c effe 833c 41f4 95be 8f08 0ebe
000001d0: 939e 5ebe 541a 4abe 6589 883d a7bb 1dbe
000001e0: 2783 a3bd c1b6 2bbe 5db5 9d3c 62a1 033e
000001f0: 1970 233d c88f 0c3e f616 f9bd f8ea 483e
00000200: 94a7 ac3d 030f 033d 1733 5fbe c57e f83d
00000210: 2ac9 3dbd 9e14 b43d f660 f63c ef66 413d
00000220: 7b04 ffbd 5225 ff3d 4490 58bd 7785 f6bc
00000230: bb64 393d 9665 723e 60ee cd3d d832 033e
00000240: 15f5 a5bb b529 8a3c 1f07 57bd d1b7 03be
00000250: e4f2 8dbd 25a6 56bd ed6a d13c cc0c 3dbd
00000260: 8338 95bd a48e 2bbd 2518 ec3c 5d0e 26be
00000270: d257 b2be c2a4 cfbe 894f 75be 73c5 54be
00000280: dd49 a2bd 5d5e 23be eb62 d13d b368 91be
00000290: f8b9 1f3c db57 403c e371 02be 6f6e f0bc
000002a0: 152c 5d3c 78d5 8abe ad3e 263d 4d23 80be
000002b0: 4995 93bc 6928 b6bd e7e5 40be c216 f63d
000002c0: 9646 573c 993f 75be 6ff4 9c3c a2a1 10be
000002d0: 5947 65be 6a9f 82bd 9924 f8bd 9afe 58be
000002e0: 9e3d 2bbe 81fb 27bd bc3e 9b3c 4ace f0bc
000002f0: 85cf 5f3e a0b9 973e 3ad6 13be e859 eabc
00000300: 5c1d 80bd fc46 5abe 5ae6 4fbe 90c0 c0be
00000310: 9b4b babe 4be6 a4be b6f1 2abd 5aa6 3e3d
00000320: 18b6 293e 8938 eabd c848 3abe 0226 52be
00000330: 3f87 31be 8b22 21be ec65 debd 7db4 a33e
00000340: 7197 803d 00c5 883e cef1 113d a99b 05be
00000350: b4b4 16be 32e7 e0bc 79e8 f83c a146 a7bd
00000360: c75f 3ebe 4b33 1ebe 05b0 58be 22d7 e33d
00000370: 554a adbd 1f29 adbc 0007 60be 5f5c 31be
00000380: aa53 41be 73e1 17bd f86d c4bd e242 323d
00000390: 06ae 26bd 5f07 b8bd e4c9 58bd e438 15be
000003a0: 4769 51be 2223 91bd 9643 09be 7ecb 00be
000003b0: ae14 96bd 2803 c8bb f1f4 37be 8a19 b1bd
000003c0: 385b 13be 6dd9 11be f43d 72be 3295 923d
000003d0: d011 1abd cfda 5ebd b9ee 8cbe 58fd 98bc
000003e0: 9e53 50be 543a 0abe 2ecf 913c 073e 19be
000003f0: 2834 1abd 3620 5b3c 9ed6 ecbd 1906 9b3d

dec_layer_1.0.bias f4 [12]
-0.073064625 0.0043369005 0.10769816 0.05957285 -0.28752527 0.013320886 0.0066970065 -0.07684633
0.06560122 0.08030033 -0.06678334 0.008572629
00000000: e8a2 95bd 8f1c 8e3b da90 dc3d a902 743d
00000010: 8336 93be d83f 5a3c 9072 db3b 9c61 9dbd
00000020: ef59 863d 8074 a43d b4c5 88bd 3674 0c3c

dec_layer_2.0.weight f4 [12, 8, 5, 5]
-0.042585753 -0.02418663 0.047621164 -0.061193388 -0.005175754 -0.041747574 -0.0019461799 0.028541582
0.019288765 -0.01107304 0.06869794 0.13313839 0.08212255 -0.0025770017 -0.038220942 0.051672842
0.06648298 0.13427293 -0.010628924 -0.047632743 0.08413405 0.14077927 0.1602738 0.12521562
0.052953377 -0.11617348 -0.042399358 -0.10202526 -0.06689851 0.0048822626 -0.13171409 -0.13272065
-0.10192808 -0.057376716 0.0051868022 -0.19154815 -0.102961525 0.029770413 -0.046112746 -0.12109752
-0.13418458 0.06708838 -0.004094976 -0.022969555 -0.123352125 -0.13937154 0.0643752 -0.09200564
-0.016634803 -0.030029945 0.0748408 0.07687299 0.036581896 -0.011638381 0.0019890598 -0.08128986
0.039088972 0.031540897 -0.097006835 -0.085980855 0.06477496 0.11897652 0.05969332 -0.05571146
-0.0059919967 0.06292683 0.15113339 0.17021628 0.041923963 0.029532915 0.17673087 0.16407055
0.1973117 0.104994155 0.041304894 0.00031609478 -0.00019013559 -0.049256273 0.0030689898 0.07807289
-0.08200788 0.008455795 -0.1401449 -0.02162699 -0.023848653 -0.04162312 0.11405672 -0.023192344
-0.05687118 0.014309233 -0.07915544 0.035248775 -0.07036757 0.0163378 0.021435851 0.003222792
0.078945205 0.077242546 0.0012913962 -0.005831881 0.08586332 0.20286357 0.08714374 0.086250775
0.084405504 0.027639346 0.18193296 0.117422424 0.14101385 0.10215987 0.034640286 0.21256752
0.13678274 0.09519315 0.12106535 0.08949144 0.20906511 0.20353122 0.10790413 0.080680795
0.07563963 0.22227187 0.15765584 0.118021116 0.031213483 -0.121776894 -0.09498098 -0.21973196
-0.032727867 0.004652727 0.087687984 0.022475895 0.13904294 -0.020052426 -0.044854283 -0.04434562
0.08992085 0.031158015 -0.04210092 0.015832292 0.031881727 0.18802531 0.01243062 0.100126944
0.025092842 0.22259517 0.2141356 0.29282546 0.09799832 0.20238352 -0.07866379 -0.012216888
-0.011119959 -0.08726108 -0.012415106 -0.12504005 -0.06417232 -0.15060005 -0.12207334 -0.060770635
-0.05056513 0.08401924 -0.054534547 -0.08661401 0.007485311 -0.0074605895 0.091272846 0.04042388
0.055629298 0.05475864 0.079621814 0.13371204 0.13882872 0.14036998 0.04356668 0.002488702
-0.01954343 -0.0064133974 0.0316928 0.07212399 -0.2234089 -0.03385273 -0.081344716 -0.14980449
0.02015115 -0.06089053 -0.038827084 -0.0030849378 0.00363781 0.023978693 -0.028920058 -0.021113696
-0.075995766 0.01712973 0.11521492 -0.11852198 -0.13126814 -0.08185439 -0.04914398 -0.020654446
0.06330768 0.09893978 0.09952649 0.10213046 0.05694769 0.03872445 0.14774047 0.11740521
0.15233234 0.081799366 0.06750659 0.13600487 0.14533679 0.11744646 0.09584182 0.111165024
0.18368551 0.12615983 0.14964 0.0635601 0.08387065 0.12088487 0.1395449 0.049108937
0.046028994 0.10025806 0.038946398 -0.01214722 -0.063270815 0.013656342 -0.0114865815 -0.07025379
-0.065099515 -0.021749886 -0.047886387 -0.09484098 -0.013436113 -0.05404584 0.014416479 -0.040836107
-0.043998413 -0.033131663 0.0013983848 -0.041352876 0.013714672 0.009324883 0.10253629 0.20535149
0.11938899 0.01704563 0.03024042 0.09648121 0.09599546 0.12653846 0.06259952 0.13090988
00000000: 666e 2ebd 0a23 c6bc 690e 433d eba5 7abd
00000010: 5f99 a9bb 81ff 2abd f616 ffba 09d0 e93c
00000020: 7903 9e3c b26b 35bc 81b1 8c3d 6e55 083e
00000030: de2f a83d eae2 28bb 908d 1cbd e7a6 533d
00000040: 3b28 883d d87e 093e f024 2ebc 8d1a 43bd
00000050: 794e ac3d 7128 103e d11e 243e 8638 003e
00000060: a4e5 583d 5dec edbd f3aa 2dbd 9ff2 d0bd
00000070: 1602 89bd 63fb 9f3b 0fe0 06be ece7 07be
00000080: abbf d0bd d903 6bbd 0df6 a93b 3325 44be
00000090: 7edd d2bd 15e1 f33c b8e0 3cbd fa01 f8bd
000000a0: af67 09be a265 893d 262f 86bb a62a bcbc
000000b0: 0aa0 fcbd 6ab7 0ebe 25d7 833d 746d bcbd
000000c0: b645 88bc 5c01 f6bc 2246 993d 966f 9d3d
000000d0: e6d6 153d e8ae 3ebc e35a 023b 4c7b a6bd
000000e0: c21b 203d 0731 013d 85ab c6bd bb16 b0bd
000000f0: bca8 843d f6a9 f33d fc80 743d b331 64bd
00000100: 8358 c4bb c8df 803d b6c2 1a3e 2d4d 2e3e
00000110: 76b8 2b3d 03ef f13c f0f8 343e 1c02 283e
00000120: 140c 4a3e 2d07 d73d 522f 293d 86b9 a539
00000130: 225f 47b9 f2c0 49bd 1b21 493b aee4 9f3d
00000140: bff3 a7bd 2d8a 0a3c 2582 0fbe 162b b1bc
00000150: 405e c3bc 017d 2abd 9296 e93d dffd bdbc
00000160: c1f1 68bd 4671 6a3c 3f1c a2bd 0561 103d
00000170: df1c 90bd dad6 853c 3d9a af3c 7a35 533b
00000180: 06ae a13d 5731 9e3d 1144 a93a 5d19 bfbb
00000190: 1cd9 af3d 78bb 4f3e 6b78 b23d 3fa4 b03d
000001a0: cbdc ac3d e96b e23c a24c 3a3e 2b7b f03d
000001b0: ef65 103e 3239 d13d f9e2 0d3d 4dab 593e
000001c0: c610 0c3e a0f4 c23d 1cf1 f73d 4a47 b73d
000001d0: 2a15 563e 7d6a 503e d7fc dc3d f93b a53d
000001e0: f3e8 9a3d 3d9b 633e 8870 213e 0eb5 f13d
000001f0: 6bb3 ff3c 2a66 f9bd 6385 c2bd 6a01 61be
00000200: a80d 06bd e775 983b c295 b33d 5e1f b83c
00000210: 4661 0e3e fc44 a4bc 20b9 37bd c1a3 35bd
00000220: 6c28 b83d 183f ff3c 0472 2cbd b9b2 813c
00000230: 6a96 023d b589 403e cda9 4b3c 5b0f cd3d
00000240: 818f cd3c fdef 633e 5d46 5b3e 38ed 953e
00000250: 58b3 c83d a03d 4f3e 7b1a a1bd 5829 48bc
00000260: 7d30 36bc f0b5 b2bd bb68 4bbc 800a 00be
00000270: c76c 83bd e636 1abe 9601 fabd a1ea 78bd
00000280: 621d 4fbd 4812 ac3d 9e5f 5fbd b062 b1bd
00000290: 5747 f53b f677 f4bb 42ed ba3d 8393 253d
000002a0: 8cdb 633d 984a 603d c310 a33d cfeb 083e
000002b0: 1e29 0e3e 26bd 0f3e fa72 323d 7e19 233b
000002c0: 8b19 a0bc 7a27 d2bb 4fd0 013d beb5 933d
000002d0: 4dc5 64be 29a9 0abd 0f98 a6bd 5966 19be
000002e0: 0614 a53c 5968 79bd 2609 1fbd ab2c 4abb
000002f0: 5368 6e3b f76e c43c c2e9 ecbc a1f6 acbc
00000300: aba3 9bbd a653 8c3c cdf5 eb3d a7bb f2bd
00000310: 286b 06be 46a3 a7bd 334b 49bd 8333 a9bc
00000320: 75a7 813d f0a0 ca3d 8bd4 cb3d c629 d13d
00000330: fb41 693d 879d 1e3d 4749 173e 2572 f03d
00000340: 02fd 1b3e 6d86 a73d e540 8a3d dc44 0b3e
00000350: 2bd3 143e c587 f03d b748 c43d 7daa e33d
00000360: 0e18 3c3e 0b30 013e 3a3b 193e cc2b 823d
00000370: 60c4 ab3d 7d92 f73d dce4 0e3e 7426 493d
00000380: e688 3c3d 1954 cd3d 4286 1f3d 2205 47bc
00000390: 2194 81bd dabe 5f3c 3732 3cbc 38e1 8fbd
000003a0: e552 85bd d12c b2bc 8424 44bd fd3b c2bd
000003b0: 2423 5cbc 2c5f 5dbd 1833 6c3c c343 27bd
000003c0: ae37 34bd 11b5 07bd 024a b73a a261 29bd
000003d0: 81b3 603c 65c7 183c 8cfe d13d a947 523e
000003e0: 3782 f43d 47a3 8b3c c2ba f73c f197 c53d
000003f0: 4599 c43d 4c93 013e 2d34 803d 3d0d 063e

dec_layer_2.0.bias f4 [8]
0.21127954 0.004625928 -0.14616035 0.034186892 -0.2809574 -0.17981501 -0.05065359 -0.1671225
00000000: aa59 583e 1995 973b 0fab 15be 8e07 0c3d
00000010: a6d9 8fbe 6d21 38be 247a 4fbd 2922 2bbe

dec_layer_3.0.weight f4 [8, 3, 5, 5]
-0.0682383 -0.046466462 -0.08519048 -0.050436247 -0.07738785 -0.107550085 -0.082084954 -0.11936675
-0.08403006 -0.114494085 -0.09345913 -0.06756089 -0.088288076 -0.07569096 -0.08421063 -0.049151585
-0.035633035 -0.05065396 -0.042472176 -0.043117967 0.015354561 0.014631908 0.011291632 -0.0020585775
0.0022716995 -0.018879846 0.043791335 0.095926926 0.12316244 0.081974916 -0.010871075 0.06831906
0.13463333 0.13421483 0.053553544 0.019120475 0.10971376 0.19866498 0.1290345 0.054193232
-0.0031943195 0.050506033 0.08586085 0.033383783 -0.009402079 -0.019792158 0.009466479 0.0051224665
-0.008885913 0.0071556093 -0.005298955 0.00012517613 0.020207545 0.010955563 -0.022517653 0.030469576
0.06913299 0.09837826 0.0474913 -0.007036761 0.13899629 0.25694308 0.39277458 0.25485075
0.11865125 0.16215412 0.27734843 0.39818755 0.26422042 0.15033412 0.11986943 0.18839514
0.3122773 0.22135727 0.14145859 0.091380306 0.15188572 0.21330395 0.121685624 0.07356283
0.20266457 0.22973222 0.33816665 0.19334918 0.17521483 0.32214344 0.35587403 0.57873297
0.32099012 0.2789907 0.23080723 0.24088265 0.37017742 0.19941874 0.18206593 0.115646094
0.17807151 0.2650791 0.14470413 0.078552805 0.049772996 0.01666923 -0.0013663318 -0.04953813
-0.030869868 -0.00014495992 0.015484967 -0.004683471 -0.004712891 -0.0051049083 0.03882257 0.048028108
0.06473075 0.04228617 0.029268026 0.015534886 0.03967602 0.06932697 0.08679706 0.06490407
0.1033943 0.059685327 0.121584944 0.086495616 0.08087472 -0.00035816408 0.005270111 0.030450603
-0.0050515323 -0.0030850484 -0.00044114233 0.010952766 0.01509686 0.012314623 0.014654737 -0.025211522
-0.0023556566 0.013362397 0.002204993 -0.0067823185 -0.05326842 -0.028182056 -0.059785232 -0.0378062
-0.042727314 -0.03746643 -0.011916617 -0.038766153 -0.054143876 -0.06686824 -0.03720921 -0.040731955
-0.084743485 -0.05412786 -0.056529775 0.0031854915 0.0027530252 -0.035904873 -0.033849943 -0.033806156
-0.042558033 -0.03323708 -0.118660755 -0.070787296 -0.08824447 -0.00089360465 -0.008321749 -0.043187503
-0.022411956 -0.016689511 -0.056247935 -0.061861735 -0.099575624 -0.0575586 -0.047006972 0.16472575
0.3200684 0.43144205 0.34511328 0.26812953 0.36637318 0.5081273 0.6798686 0.4618117
0.3707521 0.4897541 0.61507887 0.8365502 0.5273713 0.4616779 0.35956055 0.45587537
0.6151008 0.40169898 0.32186338 0.24798183 0.32024422 0.43678716 0.256843 0.19370204
-0.032808624 -0.05167616 -0.09795383 -0.08545773 -0.058038536 -0.031044563 -0.060862686 -0.12750067
-0.13183206 -0.11062809 -0.049557537 -0.062379707 -0.06754363 -0.11338304 -0.07693144 -0.075767405
-0.09907111 -0.106020935 -0.100971006 -0.06643887 -0.021470008 -0.018171702 -0.0005191323 0.0032904884
0.009728635 0.19809788 0.27316153 0.40565658 0.1936503 0.118669756 0.29783833 0.35393235
0.55859786 0.25319427 0.22367424 0.48734596 0.5882493 1.0306569 0.47933936 0.4114284
0.3371402 0.39192644 0.66933125 0.29882804 0.28339162 0.17929398 0.28327462 0.43219945
0.19818564 0.12000759 0.07400943 0.04255759 0.048641387 -0.053878378 -0.04714138 0.0043871007
00000000: 86c0 8bbd 9e53 3ebd 5978 aebd 3d96 4ebd
00000010: 857d 9ebd 3843 dcbd 281c a8bd 8e76 f4bd
00000020: f417 acbd e07b eabd 8067 bfbd 5d5d 8abd
00000030: 61d0 b4bd dd03 9bbd 9f76 acbd 2c53 49bd
00000040: f2f3 11bd 877a 4fbd 4ef7 2dbd 779c 30bd
00000050: b291 7b3c acba 6f3c 8a00 393c 33e9 06bb
00000060: cbe0 143b e8a9 9abc 8b5e 333d 5675 c43d
00000070: 973c fc3d 77e2 a73d 981c 32bc ddea 8b3d
00000080: 52dd 093e 9d6f 093e f65a 5b3d 8ba2 9c3c
00000090: 9cb1 e03d d56e 4b3e 9f21 043e b9f9 5d3d
000000a0: ca57 51bb 6adf 4e3d d0d7 af3d 6fbd 083d
000000b0: 2d0b 1abc 2a23 a2bc 4a19 1b3c 5dda a73b
000000c0: 3896 11bc 9a79 ea3b dba2 adbb b641 0339
000000d0: 4b8a a53c f67e 333c f176 b8bc 559b f93c
000000e0: 9995 8d3d 8b7a c93d 3d86 423d a194 e6bb
000000f0: 0b55 0e3e 0b8e 833e c019 c93e cc7b 823e
00000100: 6dff f23d bb0b 263e 9d00 8e3e 3ddf cb3e
00000110: e647 873e 30f1 193e 1b7e f53d a8ea 403e
00000120: cfe2 9f3e 7bab 623e 85da 103e 9925 bb3d
00000130: ee87 1b3e 5a6c 5a3e 5036 f93d 1ca8 963d
00000140: 4d87 4f3e ec3e 6b3e 2e24 ad3e 54fd 453e
00000150: 846b 333e fcef a43e 1f35 b63e d827 143f
00000160: d158 a43e ded7 8e3e bb58 6c3e f1a9 763e
00000170: e587 bd3e 6d34 4c3e 7e6f 3a3e dcd7 ec3d
00000180: 6158 363e 73b8 873e 522d 143e 4be0 a03d
00000190: c5de 4b3d e98d 883c 7d16 b3ba 7fe8 4abd
000001a0: cee2 fcbc 6200 18b9 a9b4 7d3c cd77 99bb
000001b0: 986e 9abb 1347 a7bb 6a04 1f3d 1fb9 443d
000001c0: 8e91 843d 4334 2d3d 80c3 ef3c 0986 7e3c
000001d0: 5383 223d 4cfb 8d3d a8c2 b13d 6dec 843d
000001e0: 64c0 d33d 9a78 743d 8701 f93d 9d24 b13d
000001f0: a5a1 a53d f8c7 bbb9 e5b0 ac3b 8b73 f93c
00000200: 5387 a5bb 862e 4abb 1f49 e7b9 3b73 333c
00000210: d258 773c 46c3 493c 6c1a 703c 6588 cebc
00000220: 5c61 1abb f5ed 5a3c a581 103b 363e debb
00000230: fd2f 5abd 0ede e6bc 5ce1 74bd adda 1abd
00000240: d602 2fbd 6676 19bd ea3d 43bc 42c9 1ebd
00000250: f8c5 5dbd 37f2 88bd af68 18bd 8dd6 26bd
00000260: fe8d adbd 2db5 5dbd c48b 67bd aec3 503b
00000270: 196c 343b fd10 13bd 3da6 0abd 5378 0abd
00000280: 5551 2ebd 9b23 08bd 6904 f3bd eef8 90bd
00000290: 84b9 b4bd cb40 6aba f257 08bc 61e5 30bd
000002a0: 4799 b7bc 71b8 88bc 3c64 66bd bb62 7dbd
000002b0: 4eee cbbd 91c2 6bbd 628a 40bd dead 283e
000002c0: 01e0 a33e f9e5 dc3e b0b2 b03e 4648 893e
000002d0: 4495 bb3e a114 023f de0b 2e3f 9572 ec3e
000002e0: 38d3 bd3e 0dc1 fa3e cf75 1d3f 2728 563f
000002f0: ce01 073f 0c61 ec3e 5218 b83e 7f68 e93e
00000300: 3f77 1d3f 7dab cd3e 47cb a43e f3ee 7d3e
00000310: 0df7 a33e 91a2 df3e ed80 833e d459 463e
00000320: 5662 06bd 62aa 53bd 059c c8bd 7604 afbd
00000330: d1b9 6dbd 2b51 febc 274b 79bd 898f 02be
00000340: fcfe 06be fb90 e2bd d8fc 4abd dd81 7fbd
00000350: 5154 8abd 5e35 e8bd 3b8e 9dbd f12b 9bbd
00000360: cbe5 cabd 8121 d9bd e3c9 cebd 1a11 88bd
00000370: dfe1 afbc d2dc 94bc 6116 08ba 3ca5 573b
00000380: da64 1f3c 2cda 4a3e d4db 8b3e 38b2 cf3e
00000390: 444c 463e 2109 f33d 447e 983e 9f36 b53e
000003a0: 4500 0f3f aea2 813e dc0a 653e 6985 f93e
000003b0: 8297 163f 91ec 833f f86b f53e bea6 d23e
000003c0: a49d ac3e 95aa c83e 4b59 2b3f fdff 983e
000003d0: b518 913e d798 373e 5f09 913e 3f49 dd3e
000003e0: 2df1 4a3e 8ac6 f53d 4292 973d de50 2e3d
000003f0: 313c 473d 93af 5cbd 5217 41bd abc1 8f3b

dec_layer_3.0.bias f4 [3]
0.014302279 -0.014003144 -0.07703395
00000000: 1b54 6a3c 716d 65bc fac3 9dbd
