save/small_1/model_small_1.pt (torch, 28443 bytes, 12 tensors)

enc_layer_1.0.weight f4 [16, 3, 5, 5]
0	0x3e394b27	0.18095075
1	0x3d102702	0.03519345
2	0x3d8af4b5	0.067849554
3	0x3da7ba9d	0.081898905
4	0x3e2b9c8e	0.1675894
5	0xbdc4ed52	-0.09615578
6	0xbc5746a3	-0.0131394
7	0xbd6a2203	-0.057161342
8	0x3de7059a	0.11280365
9	0x3d28d1cb	0.0412157
10	0x3d802583	0.06257155
11	0xbdbba007	-0.09161382
12	0x3a88f32f	0.0010448451
13	0xbc254ab6	-0.010088613
14	0xbcf04183	-0.029328113
15	0xbe05dc44	-0.13072306
16	0x3bed84ab	0.0072484813
17	0x3d2aabec	0.041667864
18	0xbcefbdfd	-0.029265398
19	0xbdbac6cf	-0.09119951
20	0x3d2de65b	0.042456012
21	0xbde39a97	-0.1111347
22	0x3d661198	0.056169122
23	0xbce1d29e	-0.02756625
24	0xbda420d9	-0.08014078
25	0xbd86c594	-0.06580654
26	0x3d345aac	0.044031784
27	0x3d0eb8ff	0.034844395
28	0xbd06334d	-0.032763768
29	0xbafc8521	-0.001926575
30	0x3e28a10d	0.16467686
31	0x3db43055	0.08798281
32	0x3e2dcab5	0.16971858
33	0xbd27e762	-0.04099215
34	0x3e12d097	0.14337383
35	0x3d304e4b	0.043043416
36	0x3dabe8a7	0.08393984
37	0xbc74c02a	-0.014938394
38	0x3d9d851b	0.076914035
39	0x3da1c347	0.07898574
40	0xbd7a2499	-0.06107006
41	0xbe343fc1	-0.17602445
42	0xbe60895f	-0.21927403
43	0xbc9745ac	-0.01846584
44	0xbccf4cbb	-0.025305143
45	0xbdfb3023	-0.12265041
46	0xbddeb25c	-0.10873863
47	0xbd100db6	-0.035169326
48	0x3d2c2a70	0.04203266
49	0x3bcb463e	0.006203442
50	0x3db736ec	0.089460224
51	0x3d13962b	0.036031883
52	0x3d57a58b	0.05264811
53	0x3cb43313	0.02199701
54	0x3e3f2f44	0.18670374
55	0x3dfa2208	0.12213522
56	0xbd84dd34	-0.06487504
57	0xbd0ff098	-0.035141557
58	0x3dc22d26	0.09481268
59	0xbd467ba9	-0.048457775
60	0x3e0f0ead	0.13970442
61	0x3dad68ef	0.0846728
62	0x3d50ccb6	0.050976478
63	0xbd5c2f91	-0.0537563
64	0x3d9046ff	0.070447914
65	0xbdc9ba2c	-0.098499626
66	0xbdbe878f	-0.093031995
67	0xbd958c92	-0.07302202
68	0xbdc98154	-0.098391205
69	0xbd7f152c	-0.06227605
70	0x3d84e3e1	0.06488777
71	0x3da4d803	0.080490135
72	0x3c5b57cb	0.013387631
73	0x3d7ac5c6	0.061223768
74	0xbdd71b43	-0.10503247
75	0x3c06cc34	0.008227397
76	0x3e24ad6f	0.16081785
77	0x3de468a3	0.1115277
78	0x3db05dcf	0.086116426
79	0x3e19a740	0.15005207
80	0x3dedb762	0.11607243
81	0xbb270269	-0.0025483614
82	0x3dc65c66	0.09685592
83	0x3db84924	0.089983255
84	0xbd4d9190	-0.050187647
85	0xbd4f176e	-0.050559454
86	0x3d5d75b3	0.054067325
87	0xbd5f51b6	-0.054521285
88	0xbdd3d410	-0.10343182
89	0xbd48f623	-0.04906286
90	0xbe11fc68	-0.14256442
91	0xbcc2305f	-0.023704706
92	0xbc8c6136	-0.017136198
93	0x3d2b25f6	0.04178425
94	0xbcba4f6c	-0.02274295
95	0xbd9c064e	-0.0761839
96	0x3b7b2cec	0.0038326336
97	0xbdf253f9	-0.11832423
98	0x3d741579	0.05959079
99	0x3da070fc	0.0783405
100	0xbc9433b2	-0.018091056
101	0x3d8df068	0.069306195
102	0x3d9f0777	0.07765096
103	0x3e18e8ee	0.14932606
104	0x3e5bc55c	0.21462005
105	0x3eb24e1e	0.34825224
106	0x3e8fc8d9	0.28082922
107	0x3e66f8aa	0.22555795
108	0x3e887320	0.26650333
109	0x3ee9e987	0.4568598
110	0x3e752113	0.23938398
111	0x3e24ad0c	0.16081637
112	0x3e28f684	0.16500288
113	0x3e8d0ff4	0.27551234
114	0x3e4bc8b7	0.19900785
115	0xbe8b4e48	-0.2720816
116	0xbe15ff26	-0.14648113
117	0xbe217554	-0.15767413
118	0xbe03a56d	-0.12856074
119	0xbe6785f8	-0.22609699
120	0x3c1ed449	0.009694167
121	0x3c0507ba	0.008119518
122	0x3dba50f8	0.09097475
123	0xbbe9291e	-0.0071154973
124	0xbdc3324a	-0.09531076
125	0x3df54526	0.1197608
126	0x3e5d1f73	0.21594028
127	0x3ea4e50e	0.32206005
128	0x3ecec695	0.4038588
129	0x3e956402	0.29177862
130	0x3dae0616	0.084972546
131	0x3e9b0646	0.30278224
132	0x3e84c606	0.2593233
133	0x3eaf4f4c	0.34240186
134	0x3e752205	0.23938759
135	0xbd78f368	-0.060779005
136	0x3db671d5	0.089084305
137	0x3d067a85	0.032831687
138	0x3d9efcd8	0.0776307
139	0xbd3a92c0	-0.045550108
140	0xbe2b39b4	-0.16721231
141	0xbe007682	-0.12545207
142	0xbe3c1cc5	-0.1837035
143	0xbdc29047	-0.09500175
144	0xbde2cb92	-0.11073984
145	0x3d14d50e	0.036335997
146	0x3da14b24	0.0787566
147	0xbd7a13be	-0.061053984
148	0x3d80b266	0.06284027
149	0xbd7431b4	-0.059617713
150	0xbd820c77	-0.06350034
151	0x3d60d01d	0.054885972
152	0xbc3de15f	-0.011589377
153	0xbd98ad01	-0.07454873
154	0xbceb91f7	-0.028756125
155	0xbe47a7a2	-0.1949754
156	0xbe11fc25	-0.14256342
157	0xbd8d143b	-0.06888624
158	0xbd0381a8	-0.03210607
159	0xbe423825	-0.1896673
160	0xbcc32da0	-0.023825467
161	0xbe30b8f7	-0.17258058
162	0xbe31f56e	-0.1737878
163	0xbe29f5b6	-0.16597638
164	0xbe0e90a8	-0.1392237
165	0xbd1f76a7	-0.038931515
166	0x3d987b23	0.074453615
167	0xbda4c274	-0.080449015
168	0x3d91adb9	0.07113213
169	0xbde2baf9	-0.110708185
170	0x3d753442	0.05986429
171	0x3e8e9eb8	0.27855468
172	0x3e80078c	0.25005758
173	0x3e09b9c9	0.13449778
174	0x3e448916	0.19192919
175	0xbde601cc	-0.112308115
176	0x3cba3929	0.022732334
177	0x3cc8a5af	0.024493067
178	0x3ccd41bc	0.025055759
179	0xbda69181	-0.081332214
180	0x3d8fbe95	0.070187725
181	0x3e6f9f06	0.23400506
182	0x3e2c7a1b	0.16843455
183	0x3ddd9de0	0.10821128
184	0x3d90db02	0.070730224
185	0x3e47c6a5	0.1950937
186	0x3e0a2844	0.13491923
187	0x3e0dac22	0.13835195
188	0x3e22d356	0.15900931
189	0x3e62b868	0.22140658
190	0xbe12a8d4	-0.14322215
191	0xbdd0fa33	-0.10203972
192	0xbd23d21a	-0.03999529
193	0xbd3dc6ab	-0.046332043
194	0xbdb6a995	-0.08919064
195	0x3e3d6364	0.18494946
196	0x3ea618d0	0.32440805
197	0x3eaabfa3	0.33349332
198	0x3e1f9c39	0.15586938
199	0x3e8835e7	0.26603624
200	0x3e8cfa9f	0.2753496
201	0x3e3f125e	0.1865935
202	0x3e7f5c9c	0.24937671
203	0x3ec1e7b1	0.3787208
204	0x3eaed371	0.34145692
205	0x3eb77ad2	0.35835892
206	0x3e2c192d	0.16806479
207	0x3e49732a	0.19672838
208	0x3e74c571	0.23903443
209	0x3edce7c8	0.43145585
210	0xbe834d32	-0.25644833
211	0xbe46755d	-0.19380708
212	0xbdbc3403	-0.09189608
213	0xbd2a60e1	-0.041596297
214	0xbe0e6e0b	-0.13909166
215	0xbded5763	-0.11588933
216	0xbe86777b	-0.2626303
217	0xbe0a7ba7	-0.13523732
218	0xbdc8b96c	-0.098009914
219	0xbe2d9a53	-0.16953401
220	0x3d2aea5a	0.0417274
221	0xbceb2a9b	-0.02870684
222	0x3d89034b	0.06690081
223	0xbc6ac1e6	-0.014328456
224	0x3e3f1fd0	0.1866448
225	0xbb0cd1cb	-0.002148735
226	0x3d501f41	0.050811056
227	0xbd53eaaa	-0.051737465
228	0xbe09d73a	-0.13461009
229	0xbe0d03a9	-0.13770927
230	0xbdb4939f	-0.08817219
231	0x3cb3704c	0.021904133
232	0x3d1898ff	0.037255283
233	0x3cb869ab	0.022511324
234	0xbc970e75	-0.01843951
235	0x3db00be0	0.08596015
236	0xbd825e3a	-0.063656285
237	0xbd72787c	-0.059196934
238	0x3d10ed12	0.035382338
239	0xbd49c1ae	-0.049256973
240	0x3d9dabca	0.07698782
241	0x3e11ec7d	0.1425037
242	0x3df4f10f	0.11960041
243	0xbcccc142	-0.024994496
244	0x3d6ff467	0.05858269
245	0xbcb5e182	-0.022202257
246	0x3d72b2e5	0.05925264
247	0x3db1260b	0.08649834
248	0x3e028af0	0.12748313
249	0xbd4adfad	-0.04952972
250	0x3dfdd0b0	0.123933196
251	0x3baf9137	0.005357887
252	0x3dc4bf52	0.09606804
253	0xba91f2c2	-0.001113497
254	0x3d9b28ca	0.07576139
255	0x3dd5ff67	0.10449105

enc_layer_1.0.bias f4 [16]
0	0x3e9fa335	0.31179205
1	0x3eff3461	0.4984465
2	0x3f01be9d	0.5068148
3	0xbcaa8d9b	-0.020819476
4	0x3ddb0855	0.106949486
5	0x3e8e4ed8	0.27794528
6	0x3e9f4974	0.31110728
7	0x3e450094	0.19238502
8	0x3ee42fe3	0.44567785
9	0xbda0e2bf	-0.078557484
10	0x3f054dfc	0.5207212
11	0x3e2560a9	0.16150154
12	0x3ea469e0	0.32112026
13	0x3dfabed3	0.12243428
14	0x3cd4d0b9	0.025978433
15	0xbda55325	-0.08072499

enc_layer_2.0.weight f4 [4, 16, 3, 3]
0	0x3d96aac3	0.07356789
1	0x3c6358c7	0.013876147
2	0x3d8ee207	0.06976705
3	0x3c8ab25b	0.01693075
4	0x3e0a9c57	0.13536201
5	0x3df0681b	0.117386065
6	0xbd34d470	-0.04414791
7	0x3bc5c58b	0.006035512
8	0xbd7b3af8	-0.061335534
9	0xbc7f770b	-0.015592347
10	0x3df9ed2a	0.122034386
11	0x3c932e8a	0.017966527
12	0x3d82ace8	0.063806355
13	0x3e33cbf3	0.17558269
14	0x3d91b691	0.071149
15	0xbcb0b90f	-0.021572618
16	0x3cd7e382	0.026353601
17	0xbbc4b85a	-0.0060034217
18	0x3df16f93	0.11788859
19	0x3e0c8247	0.13721572
20	0x3e168244	0.1469813
21	0xbd8272a4	-0.06369522
22	0x3d5176d5	0.051138718
23	0x3d85a3f0	0.06525409
24	0x3cb9e535	0.022692302
25	0x3be21edf	0.006900653
26	0xbdc66f4f	-0.09689199
27	0x3d6b1e06	0.05740168
28	0x3e230669	0.15920414
29	0x3d860dec	0.06545624
30	0xbca25c8f	-0.019819526
31	0x3ddcd3ac	0.10782561
32	0x3e05aaaf	0.13053392
33	0xbd0ff6bb	-0.03514741
34	0x3dc65e36	0.09685938
35	0xbde75770	-0.11295974
36	0xbd1ce566	-0.03830471
37	0x3e165e4a	0.14684406
38	0xbccda462	-0.025102798
39	0xbb85ef4a	-0.0040873634
40	0x3da44b4a	0.08022173
41	0x3d92dd4e	0.07171117
42	0xbddf36c0	-0.108991146
43	0xbce3eea8	-0.027823761
44	0xbb77a586	-0.0037787869
45	0x3dba4e6f	0.09096991
46	0x3e2b60ad	0.16736098
47	0x3d25be3a	0.040464617
48	0xbccad3ad	-0.024759138
49	0x3dcd3f1b	0.10021802
50	0x3d9e3eb2	0.07726802
51	0xbde56ecb	-0.11202773
52	0xbd39e511	-0.04538447
53	0xbdf86254	-0.121281296
54	0xbe3ff77f	-0.18746756
55	0xbe04995d	-0.12949128
56	0xbe646d1a	-0.22307244
57	0x3d093e5b	0.033506732
58	0x3df562bb	0.11981722
59	0x3dc3fe0c	0.0956994
60	0x3d7ba2f3	0.061434697
61	0x3d274819	0.040840242
62	0xbcf542eb	-0.029939136
63	0xbc3c6455	-0.01149853
64	0x3d0fbadc	0.035090312
65	0xbd5d0639	-0.053961013
66	0x3d89e777	0.067336015
67	0x3d892a64	0.066975385
68	0x3d2a7355	0.041613895
69	0xbd6761d0	-0.056489766
70	0xbc1bf994	-0.009519953
71	0xbdd5c811	-0.1043855
72	0x3d0de403	0.034641277
73	0x3e256c8a	0.16154686
74	0x3d461278	0.048357457
75	0xbe33fca1	-0.17576839
76	0xbcb6a96f	-0.02229759
77	0xbddf2b58	-0.10896939
78	0xbcbecbba	-0.023290504
79	0x3d4addef	0.04952806
80	0x3d4ba127	0.049714234
81	0x3e2389e6	0.15970573
82	0x3e52f4c1	0.20601179
83	0x3e21e632	0.15810469
84	0x3d4a2b9f	0.049358007
85	0x3d92a7fa	0.07160945
86	0x3ba98772	0.005173617
87	0xbc92bf09	-0.017913358
88	0xbd771647	-0.06032398
89	0x3cb28b8d	0.021795059
90	0x3dd33ac5	0.10313944
91	0x3e35afa2	0.1774278
92	0x3e09c005	0.13452156
93	0x3d94ce73	0.072659396
94	0x3e362376	0.17786965
95	0x3e1cf603	0.15328221
96	0x3b2dc518	0.0026515182
97	0x3dc4c991	0.09608758
98	0x3d403aa3	0.04693092
99	0x3eb0d615	0.34538332
100	0x3ed16a2c	0.40901315
101	0x3e9b5cd7	0.3034427
102	0x3e833a55	0.2563044
103	0x3eb26496	0.34842366
104	0x3ea435b3	0.3207222
105	0x3c5c3ff7	0.013442985
106	0x3dd98ae3	0.10622194
107	0x3cc2d47c	0.023782961
108	0xbd973a4c	-0.07384166
109	0xbdbdaae8	-0.092611134
110	0xbdb801e9	-0.08984739
111	0x3d8d7449	0.06906945
112	0xbc6498e6	-0.013952469
113	0xbd4ee170	-0.050507963
114	0x3d051563	0.0324911
115	0xbbda9b14	-0.006671319
116	0x3b67a9dc	0.0035349047
117	0x3f08aa61	0.5338498
118	0x3ef4a6a6	0.47783393
119	0x3f142c2c	0.578799
120	0x3e388b34	0.18021852
121	0x3ebc2c94	0.3675276
122	0x3e4b557a	0.19856825
123	0xbde05c3a	-0.10955091
124	0x3ce8c9c8	0.02841653
125	0x3d4b332d	0.049609352
126	0xbdc51111	-0.09622396
127	0xba45db53	-0.00075476355
128	0xbd2b6bcb	-0.041850846
129	0xbbf372ca	-0.0074294554
130	0x3d4b1fce	0.04959088
131	0xbd7d53ec	-0.061847612
132	0x3d855c80	0.065117836
133	0xbcaf3a63	-0.021390146
134	0xbd8fb66e	-0.070172176
135	0x3cd2a000	0.02571106
136	0x3e45996f	0.19296812
137	0x3d49fda0	0.04931414
138	0x3de6b3a3	0.11264732
139	0x3cc17276	0.02361415
140	0xbbb6d9bc	-0.005580155
141	0x3c1227c1	0.008920611
142	0xba639096	-0.0008680908
143	0x3d106612	0.03525359
144	0xbc076626	-0.0082641
145	0x3d9f0862	0.07765271
146	0xbc2249b3	-0.009905267
147	0x3e4532c5	0.19257648
148	0x3db3b557	0.08774822
149	0x3ca93639	0.020655738
150	0xbca35f87	-0.019943012
151	0xbc23ab82	-0.009989621
152	0xbd34e4e4	-0.0441636
153	0x3e22164d	0.1582882
154	0x3de217c7	0.110396914
155	0xbd4e86c8	-0.050421506
156	0x3da970ab	0.08273443
157	0x3e1b013a	0.15137187
158	0x3d92cedf	0.07168364
159	0xbd137822	-0.03600324
160	0x3c21de6b	0.009879689
161	0xbcb01071	-0.021492215
162	0x3e8cf6fc	0.27532184
163	0x3e92a6d6	0.2864291
164	0x3e19af38	0.15008247
165	0x3d95c9f6	0.073139116
166	0x3e19ec3d	0.15031524
167	0x3dc851be	0.09781216
168	0x3d8e5822	0.06950404
169	0x3e10c92c	0.14139241
170	0x3dd08b59	0.101828285
171	0xbd08e61e	-0.03342258
172	0x3c4463f2	0.011986719
173	0xbdbbb76c	-0.09165844
174	0x3d49f086	0.049301647
175	0xbc329235	-0.010899116
176	0x3c81d4b3	0.015848493
177	0x3d466391	0.048434798
178	0xbd5ecfa5	-0.054397244
179	0xbd98aa38	-0.07454342
180	0x3e22f3a0	0.15913248
181	0x3d07d188	0.03315881
182	0x3c21ce04	0.009875778
183	0xbc64cf15	-0.013965388
184	0x3d785f70	0.06063789
185	0xba6cf8f0	-0.000903978
186	0xbdb65502	-0.08902933
187	0x3d3b10d4	0.045670345
188	0x3d53bc6f	0.051693376
189	0x3e467bf0	0.19383216
190	0x3e54eed2	0.20794228
191	0x3dc372d3	0.09543385
192	0x3cf33708	0.029689327
193	0xbc3b10ad	-0.01141755
194	0xbcd67461	-0.02617854
195	0xbd9d3fa2	-0.076781526
196	0xbd6f2fa9	-0.05839506
197	0xbbcea301	-0.0063060527
198	0xbf383ce7	-0.7196793
199	0xbf4c30e0	-0.7976208
200	0xbf54ba25	-0.83096534
201	0x3da21db1	0.079158194
202	0x3e2dc9b8	0.16971481
203	0x3e77285f	0.24136494
204	0x3df612e2	0.1201532
205	0x3e0c2f3b	0.13689892
206	0x3e61fb38	0.22068489
207	0x3d77782c	0.06041734
208	0xbd484e00	-0.04890251
209	0xbd1ba228	-0.03799644
210	0x3db4c645	0.088268794
211	0x3dcec9d8	0.100970924
212	0x3ac38250	0.0014916155
213	0xbdbdc524	-0.09266117
214	0x3be8f6d8	0.007109504
215	0xbe044fae	-0.1292102
216	0x3eafe536	0.34354562
217	0x3ee5f77b	0.44915375
218	0x3ebafbe4	0.36520302
219	0xbd96ec8c	-0.073693365
220	0xbd2d798d	-0.042352248
221	0xbdaa1f22	-0.08306719
222	0x3d6fe98a	0.05857233
223	0x3e33506e	0.1751115
224	0x3db8aa41	0.09016848
225	0xbd979f42	-0.07403423
226	0xbbc47cef	-0.0059963386
227	0xbe0edf75	-0.1395243
228	0xbd7c82a1	-0.061648015
229	0xbdc66bd6	-0.09688537
230	0xbe009a6f	-0.12558912
231	0xbca127ad	-0.01967224
232	0x3e392aeb	0.18082778
233	0x3e03d166	0.12872848
234	0x3e345cd3	0.17613535
235	0x3e6d27ae	0.23159668
236	0x3d739b63	0.05947436
237	0x3dfe5a4c	0.124195665
238	0x3e4ad18f	0.19806503
239	0x3e3ec7f3	0.18630962
240	0xbdc9c763	-0.09852483
241	0xbd8712bb	-0.065953694
242	0x3d23a7b7	0.039954867
243	0xbdeb38c4	-0.114854366
244	0xbe3d9fe2	-0.18518022
245	0xbe19ca51	-0.15018584
246	0x3ea4a687	0.321583
247	0x3f0801a1	0.53127486
248	0x3f07d10d	0.5305336
249	0x3d921ba8	0.07134181
250	0x3e5f8832	0.21829298
251	0x3e64bd42	0.22337821
252	0xbdc42a64	-0.09578398
253	0xbe2d7ea8	-0.16942847
254	0xbdef62a6	-0.116887376
255	0x3e0f2234	0.13977891

enc_layer_2.0.bias f4 [4]
0	0x3ccfb31e	0.025353964
1	0x3e3fdc6c	0.18736428
2	0x3e8a37b6	0.2699563
3	0x3b98f4df	0.004667863

enc_layer_3.0.weight f4 [8, 4, 3, 3]
0	0x3de65aaf	0.11247765
1	0x3c9a10d7	0.018806858
2	0xbe48cc06	-0.19609079
3	0xbdb1f04e	-0.086884126
4	0x3cd1d728	0.02561529
5	0xbe1e623a	-0.15467158
6	0xbd9e70a0	-0.07736325
7	0xbda2580a	-0.07926948
8	0xbeaea84d	-0.34112778
9	0x3e9cb09f	0.306035
10	0x3e65cc39	0.22441186
11	0x3e34d74a	0.17660251
12	0x3e74f3d4	0.23921138
13	0x3e821e52	0.25413758
14	0xbd2aae97	-0.041670408
15	0x3e4ccc28	0.19999754
16	0x3cb00ce2	0.021490518
17	0xbd979469	-0.07401354
18	0xbe279819	-0.16366614
19	0x3c75d037	0.015003256
20	0x3be0d7b8	0.006861653
21	0x3c9b01f9	0.01892184
22	0xbda34dd7	-0.07973831
23	0x3e3bcf18	0.18340719
24	0x3cb6fb4a	0.02233662
25	0xbdb2a65d	-0.087231375
26	0x3bcdf95c	0.0062858295
27	0x3ea2797a	0.31733304
28	0x3ece354a	0.4027503
29	0x3ec72bd3	0.38900623
30	0xbdee35c8	-0.11631352
31	0x3e2c20fa	0.16809455
32	0x3c0095d9	0.007848226
33	0x3cc8c9f8	0.024510369
34	0xbcf03e79	-0.029326664
35	0x3e9bf40c	0.3045963
36	0x3d489b4a	0.04897622
37	0x3e302bbf	0.17204188
38	0x3e402256	0.18763098
39	0xbdda66ec	-0.10664162
40	0x3d90ad81	0.07064343
41	0xbd801400	-0.06253815
42	0x3d74eef8	0.05979821
43	0xbd560aff	-0.05225658
44	0xbda72f42	-0.081633106
45	0x3ec28ebd	0.37999526
46	0x3e2c497f	0.16824912
47	0x3e859b7c	0.26095188
48	0xbe485c90	-0.1956656
49	0xbe3e6591	-0.18593432
50	0xbd4eb193	-0.050462317
51	0x3e29b550	0.16573071
52	0x3d0a751b	0.033803087
53	0x3e0a38f3	0.13498287
54	0x3e1651af	0.14679597
55	0x3d5dfa71	0.054193918
56	0x3db99b87	0.090628676
57	0x3c42f7e4	0.011899922
58	0xbe5cd536	-0.21565709
59	0xbe2ae94f	-0.16690563
60	0xbc9fae60	-0.019492328
61	0x3d07a92f	0.03312033
62	0x3d524e1a	0.051344015
63	0xbd5a6ae1	-0.053324584
64	0xbe5496ab	-0.207606
65	0xbebab170	-0.364635
66	0xbd591dcc	-0.053006932
67	0x3d9a855f	0.0754497
68	0xbde62646	-0.11237769
69	0xbddbb7d7	-0.10728424
70	0xbd8e2af4	-0.069417864
71	0xbdf53307	-0.11972623
72	0xbd070486	-0.0329633
73	0xbcace2a2	-0.02110416
74	0x3ce62ca3	0.028097456
75	0xbc83d27c	-0.016091578
76	0x3db7ae56	0.08968799
77	0x3dbac47a	0.09119506
78	0x3e23c23f	0.15992068
79	0x3ddc771e	0.10764907
80	0x3de00b7b	0.1093969
81	0x3d2dd270	0.042437017
82	0xbe865b21	-0.262414
83	0x3e17697f	0.14786337
84	0x3e033695	0.1281379
85	0xbe10861b	-0.14113657
86	0xbd8d87e4	-0.06910685
87	0x3e406391	0.18787982
88	0xbdc19a8a	-0.09453304
89	0x3e23cafb	0.159954
90	0x3ea60d4c	0.3243202
91	0x3ea20ac3	0.31648836
92	0x3e44acaf	0.19206499
93	0x3d9165d2	0.07099499
94	0x3e186425	0.14881952
95	0x3ba5d11d	0.0050603286
96	0xbe09a3e8	-0.13441432
97	0x3b1b9303	0.002373875
98	0x3d9bd8d2	0.076097146
99	0x3db8eb7c	0.0902929
100	0xbc641f7c	-0.013923522
101	0xbb303e50	-0.002689261
102	0x3dadb0ac	0.08480963
103	0x3a509dce	0.0007958085
104	0xbe0bc89a	-0.13650742
105	0x3e214cb2	0.15751913
106	0x3cd4a76c	0.02595874
107	0x3d816dfe	0.063198075
108	0x3ea003bb	0.31252846
109	0x3e0db6dc	0.13839287
110	0xbd378620	-0.044805646
111	0x3df14108	0.11779982
112	0x3e3c42a4	0.18384796
113	0xbd35bb4c	-0.044368073
114	0x3dd78644	0.10523656
115	0xbdcb80d0	-0.099366784
116	0xbe164602	-0.14675143
117	0xbe4588c2	-0.1929045
118	0xbe9bc2eb	-0.30422148
119	0xbe0df08d	-0.13861294
120	0x3ea07a19	0.31343153
121	0x3ea6ed17	0.3260276
122	0xbd8f3433	-0.06992378
123	0x3e01b0eb	0.12665145
124	0xbda613d0	-0.08109248
125	0xbd4db14e	-0.05021792
126	0xbd57705c	-0.05259739
127	0xbdfda55a	-0.12385054
128	0xbe55fbc5	-0.20896824
129	0xbd030d39	-0.031995032
130	0x3cd46e02	0.025931362
131	0x3e1e3a33	0.15451889
132	0xbd5dcf5a	-0.054152824
133	0x3da5a518	0.0808813
134	0x3dc1bb61	0.09459568
135	0xbe3b3a24	-0.18283898
136	0xbea13b36	-0.31490487
137	0xbef54dd5	-0.47910944
138	0x3e589787	0.21151553
139	0x3c852582	0.016253237
140	0xbcd0a82f	-0.025470821
141	0xbde15edb	-0.1100442
142	0xbc86b03c	-0.016441457
143	0xbc7ee70d	-0.0155580165
144	0xbe7ff466	-0.24995574
145	0xbee45304	-0.44594586
146	0xbdb967e5	-0.090530194
147	0xbe2a4006	-0.16625986
148	0xbe3f1628	-0.18660796
149	0xbd4f043f	-0.05054116
150	0xbc28362b	-0.010266821
151	0xbe23e0bf	-0.16003703
152	0x3a01848f	0.0004940712
153	0x3dc162cc	0.09442672
154	0xbdcb760b	-0.09934624
155	0xbde25ecd	-0.11053238
156	0xbdf04152	-0.11731209
157	0x3c78f17b	0.015194292
158	0x3d8757ab	0.06608518
159	0xbd95ce50	-0.073147416
160	0xbd32bb1f	-0.043635484
161	0x3dcc7778	0.09983724
162	0x3e561b57	0.20908867
163	0x3e44cbc5	0.19218357
164	0x3e7423d5	0.23841794
165	0x3ba0da59	0.0049088416
166	0x3dc811c6	0.09769015
167	0xbdd3da6c	-0.10344395
168	0x3e7cd4c7	0.24690543
169	0x3e59001a	0.21191445
170	0xbc0beb89	-0.008540043
171	0xbd84a88d	-0.06477461
172	0x3b827946	0.003981742
173	0x3c1b9467	0.009495831
174	0xbd6c6eff	-0.05772304
175	0x3d7fbf52	0.062438317
176	0xbd0d9314	-0.034564093
177	0xbdc0dc16	-0.09416978
178	0xbd80bb70	-0.06285751
179	0xbe85f35b	-0.26162228
180	0xbd51db3e	-0.051234476
181	0xbdd6fd9f	-0.10497593
182	0xbe702ce6	-0.23454627
183	0x3d0f84ea	0.035038866
184	0xbdfb0786	-0.12257294
185	0xbd31533a	-0.04329226
186	0x3d65329d	0.05595647
187	0x3e151921	0.14560367
188	0x3dc2fce2	0.0952089
189	0x3d9d999d	0.07695315
190	0x3edf400f	0.4360356
191	0x3e40612b	0.18787067
192	0x3dfe1a29	0.124073334
193	0xbe172794	-0.14761192
194	0xbe0e8221	-0.13916828
195	0x3e0d3efe	0.13793561
196	0xbdc83b72	-0.09776963
197	0x3ded418b	0.11584767
198	0xbe3ae2e9	-0.18250622
199	0xbcf7a27e	-0.03022885
200	0xbe012424	-0.12611443
201	0x3e3b7cf7	0.18309389
202	0x3cdbe293	0.026841437
203	0x3e12b232	0.14325789
204	0x3dbddfdb	0.09271213
205	0x3caa591d	0.020794446
206	0x3d42d3f4	0.047565416
207	0x3e48498b	0.19559304
208	0x3dd124a0	0.10212064
209	0x3e44ea6e	0.19230053
210	0xbdb81b3f	-0.08989572
211	0xbe714ba1	-0.23564006
212	0xbdbd5ac7	-0.0924583
213	0xbd75d7ac	-0.060020134
214	0xbd3483e3	-0.04407109
215	0xbcb581dc	-0.022156648
216	0xbd9d5ec3	-0.0768409
217	0x3e0586f2	0.13039759
218	0x3e53d3a5	0.20686205
219	0xbdeb2512	-0.1148168
220	0x3a04a88d	0.00050605164
221	0x3dc355b1	0.09537829
222	0xbe241ed5	-0.16027386
223	0xbe0d25c7	-0.13783942
224	0x3dcadefa	0.09905811
225	0x3d86d265	0.06583098
226	0xbe00d68c	-0.12581843
227	0x3c36f21b	0.011166121
228	0xba09b943	-0.00052537414
229	0xbd461fb8	-0.048370093
230	0x3e421b09	0.18955626
231	0xbe415902	-0.1888161
232	0xbc91cf3f	-0.017799018
233	0x3e1b79e1	0.15183212
234	0xbcb7f6d6	-0.022456568
235	0x3d5861cb	0.052827638
236	0x3e3c44ae	0.18385574
237	0x3e6e93e1	0.23298599
238	0xbd7e6c78	-0.062115163
239	0xbdade6e3	-0.08491304
240	0x3e4925a5	0.19643266
241	0x3de368ca	0.11103971
242	0x3dfdb5ce	0.12388192
243	0xbe11b2ec	-0.1422841
244	0xbdfef184	-0.12448409
245	0xbe85e14f	-0.2614846
246	0x3d53a03f	0.051666494
247	0x3d1eecce	0.038800053
248	0x3da4c8f3	0.080461405
249	0x3d19619a	0.037446596
250	0x3e53595e	0.2063956
251	0x3e26ae84	0.1627751
252	0x3cbe717c	0.023247473
253	0xbe7c8a30	-0.2466209
254	0x3dbb5f2f	0.09149014
255	0x3cb48210	0.022034675

enc_layer_3.0.bias f4 [8]
0	0xbe482e23	-0.1954885
1	0xbdc3f6d8	-0.09568566
2	0xbe117859	-0.14206065
3	0x3e46a357	0.19398247
4	0xbc5129db	-0.012766327
5	0x3e3d8e18	0.18511236
6	0x3d14ebab	0.036357563
7	0x3e044097	0.12915264

dec_layer_1.0.weight f4 [8, 12, 3, 3]
0	0x3cfa1ed7	0.030532284
1	0x3d05c588	0.032659084
2	0x3dfb97a1	0.1228478
3	0x3d5fad8d	0.05460887
4	0x3da7beb1	0.081906684
5	0x3d41423a	0.0471823
6	0x3e8851b4	0.26624835
7	0x3d935564	0.07194021
8	0x3dff0bd3	0.12453427
9	0xbc8e9025	-0.017402718
10	0x3dfe30c2	0.124116436
11	0x3df923c1	0.12165023
12	0x3d398b5c	0.04529892
13	0x3d6470dc	0.055771694
14	0x3e194b1c	0.14970058
15	0xbd79c820	-0.06098187
16	0x3d4fdb7a	0.05074642
17	0xbe06a09d	-0.13147207
18	0xbd1d8a9a	-0.03846226
19	0xbd1fa113	-0.03897197
20	0xbcf6d53a	-0.030130971
21	0x3e0dd30a	0.13850036
22	0xbd3232a0	-0.04350531
23	0x3c8dc153	0.017304098
24	0x3e911a5a	0.28340417
25	0x3e46831b	0.1938595
26	0x3d8e5b93	0.0695106
27	0xbcef2876	-0.029194098
28	0x3d8daef1	0.06918133
29	0xbd167893	-0.036736082
30	0xbedad074	-0.42737162
31	0x3dd06b72	0.101767436
32	0xbd100141	-0.035157446
33	0x3dcefc1d	0.101066805
34	0x3e096fbc	0.1342153
35	0xbc6a7e30	-0.014312312
36	0x3c0dd902	0.008657696
37	0x3e2a50ed	0.16632433
38	0xbc6990e6	-0.014255738
39	0x3cdc69c1	0.026905896
40	0x3bfa323e	0.007635384
41	0x3db79597	0.08964079
42	0x3d52b198	0.051438898
43	0x3dc994b8	0.09842819
44	0x3d90284d	0.07038937
45	0x3dcd49d7	0.100238495
46	0xbd1d8d53	-0.038464855
47	0xbb55bc89	-0.0032613596
48	0x3effefc4	0.49987614
49	0x3dd92d58	0.10604352
50	0xbe894464	-0.2680999
51	0x3e1bc7c4	0.15212923
52	0x3e16c705	0.14724357
53	0x3cfcd0d8	0.030861303
54	0x3aa2cd80	0.0012420863
55	0x3c022de0	0.007945508
56	0x3ce92a2e	0.028462496
57	0xbd407fe8	-0.04699698
58	0x3e53d524	0.20686775
59	0x3d59676b	0.053077143
60	0x3da4c8b1	0.08046091
61	0x3e59a3dc	0.21253914
62	0x3dfeb973	0.124377154
63	0xbdef2062	-0.116760984
64	0x3bb4cb8a	0.005517428
65	0xbc57c1fe	-0.01316881
66	0x3e144b0e	0.14481756
67	0x3d95a152	0.0730616
68	0xbddbc17f	-0.10730266
69	0x3e99ab81	0.3001366
70	0x3e0c1e64	0.13683468
71	0xbce999b8	-0.028515682
72	0xbd4181fb	-0.0472431
73	0x3e519fdf	0.20471142
74	0x3d6a20ce	0.05716019
75	0x3c9f9616	0.019480746
76	0x3e683c7e	0.22679326
77	0x3de23e23	0.11047008
78	0x3d521433	0.051288795
79	0x3e3a1b2b	0.18174426
80	0x3df672c7	0.12033611
81	0x3c82c4cb	0.015962979
82	0xbd8d2d01	-0.068933494
83	0xbd93b409	-0.07212073
84	0xbdef0eec	-0.11672768
85	0x3d966256	0.07342975
86	0xbb841012	-0.004030236
87	0xbe62be55	-0.22142918
88	0x3d562ef1	0.05229086
89	0x3de01a8b	0.10942563
90	0x3d68e6ca	0.056860723
91	0x3da8172f	0.08207547
92	0x3e00c790	0.12576127
93	0x3ecbed7b	0.3982962
94	0x3dd85b58	0.105642974
95	0x3e16abd4	0.14713985
96	0x3e5486ec	0.20754594
97	0xbddf5c61	-0.10906292
98	0xbda5d22d	-0.080967285
99	0xbd722817	-0.059120264
100	0x3a178866	0.0005780518
101	0xbe20f8f3	-0.15719967
102	0x3c8f5a9f	0.017499266
103	0x3e4b3e53	0.19847994
104	0x3dbda7da	0.09260531
105	0x3e8832ee	0.26601356
106	0x3d914950	0.070940614
107	0x3e0d840b	0.13819902
108	0x3dcd1956	0.10014598
109	0x3dfb90e2	0.122834936
110	0x3dcbb21d	0.09946082
111	0xbd51f092	-0.051254816
112	0x3d58d7b2	0.052940078
113	0xbc92a588	-0.017901197
114	0xbe8f315c	-0.27967346
115	0xbe3f46c3	-0.18679337
116	0xbe66c2ea	-0.22535291
117	0xbe218b1f	-0.15775727
118	0x3d23256e	0.039830618
119	0xbe317e97	-0.17333446
120	0xbdba1862	-0.09086682
121	0xbe5f5b19	-0.21812095
122	0xba9e15b5	-0.0012060913
123	0x3deccad7	0.11562126
124	0x3dede008	0.11614996
125	0x3e2dd5c0	0.1697607
126	0x3c9fa822	0.019489352
127	0x3dc2f89a	0.09520073
128	0x3e876e6c	0.26451433
129	0x3d099a28	0.03359428
130	0xbe5a4d90	-0.2131865
131	0x3d44218b	0.04788355
132	0xbdaf9b5c	-0.08574554
133	0x3cf100b9	0.02941929
134	0xbd15826c	-0.036501333
135	0x3e1adfb8	0.15124404
136	0xbe28f7d1	-0.16500784
137	0x3e4d2b5c	0.20036072
138	0xbd961c63	-0.07329633
139	0xbc594f8c	-0.013263594
140	0x3d9bf88e	0.076157674
141	0x3e5cbce6	0.21556434
142	0x3d3f0589	0.046636138
143	0x3daf9893	0.08574023
144	0xbdad855a	-0.084727004
145	0xbc15ae36	-0.009135773
146	0xbe2c6616	-0.16835818
147	0xbdcd7320	-0.10031724
148	0xbe16fe17	-0.14745365
149	0xbde921f3	-0.113834284
150	0xbd258123	-0.040406357
151	0xbe295567	-0.16536485
152	0xbddcf51f	-0.10788941
153	0xbba5e6e8	-0.0050629266
154	0x3c8e10ad	0.017341936
155	0xbe309cca	-0.1724731
156	0xbeaedf6f	-0.3415484
157	0xbed6354e	-0.41837543
158	0xbe8a25d4	-0.26981986
159	0xbe4e3c53	-0.201402
160	0xbda6394a	-0.08116396
161	0xbe20d3a4	-0.15705734
162	0x3db89372	0.09012498
163	0xbea38c75	-0.31943098
164	0x3bcfa4e9	0.0063367975
165	0xbd691286	-0.05690243
166	0xbd826179	-0.06366248
167	0xbc90450f	-0.017611055
168	0x3db99d09	0.09063155
169	0xbeac1c67	-0.3361542
170	0x3dbc3bfd	0.09191129
171	0xbe6bbbf6	-0.2302092
172	0x3c8d45f5	0.017245272
173	0xbd5baeae	-0.053633384
174	0xbe5e5643	-0.21712594
175	0x3dc67820	0.09690881
176	0x3bccdf62	0.0062522152
177	0xbe5a5fe3	-0.2132564
178	0x3cabda43	0.020978099
179	0xbdd8f6c5	-0.105939426
180	0xbe26a0d7	-0.16272293
181	0xbdd95712	-0.106123105
182	0xbddbebfd	-0.107383706
183	0xbe42f48a	-0.19038597
184	0xbe361a10	-0.1778338
185	0xbdc76a5e	-0.09737085
186	0x3d9f30ea	0.077730015
187	0xbdcfa7ee	-0.10139452
188	0x3e6c57e4	0.23080403
189	0x3e8f0d06	0.27939624
190	0xbe3db282	-0.18525127
191	0xbdd8759e	-0.10569309
192	0xbd9dda0e	-0.07707606
193	0xbe2a9cf1	-0.16661431
194	0xbe228e49	-0.1587459
195	0xbec686dd	-0.38774768
196	0xbec4852a	-0.38382846
197	0xbeab1e11	-0.33421376
198	0xbc685818	-0.014181159
199	0x3dc40a9f	0.09572338
200	0x3e52a337	0.20570074
201	0xbe037c1f	-0.12840317
202	0xbe20d63f	-0.15706728
203	0xbe5882fb	-0.21143715
204	0xbe3fb14b	-0.18719976
205	0xbe406e0d	-0.18791981
206	0xbdc40ff6	-0.09573357
207	0x3e9536c1	0.29143336
208	0x3cafc340	0.021455407
209	0x3e514a6c	0.20438546
210	0x3dcf5383	0.101233505
211	0xbe0143f4	-0.12623578
212	0xbddb2035	-0.106995024
213	0xbc8192d2	-0.01581708
214	0x3c0d1e44	0.008613173
215	0xbd3e047a	-0.046390988
216	0xbe421d32	-0.1895645
217	0xbe08b1f1	-0.1334913
218	0xbe5b2f57	-0.21404777
219	0x3e1820cf	0.14856265
220	0xbdac7fe4	-0.08422831
221	0xbc843956	-0.016140621
222	0xbe6b36cd	-0.22970124
223	0xbe6e5704	-0.23275381
224	0xbe486221	-0.19568683
225	0x3c23436f	0.009964808
226	0xbd62d314	-0.05537708
227	0x3dd05508	0.101724684
228	0xbd2304bb	-0.039799433
229	0xbdbd743c	-0.092506856
230	0xbd62cfdb	-0.055374008
231	0xbe2b6c34	-0.16740495
232	0xbe6622be	-0.2247419
233	0xbdab19e8	-0.083545506
234	0xbe46d68f	-0.19417785
235	0xbdd7f659	-0.10545034
236	0xbde951ee	-0.1139258
237	0xbc435433	-0.01192193
238	0xbe64594f	-0.22299694
239	0xbd8dbdfe	-0.06921004
240	0xbe0cdb99	-0.13755645
241	0xbdf3b9e5	-0.11900691
242	0xbe75122b	-0.23932712
243	0x3db52403	0.08844759
244	0xbd0014b0	-0.03126973
245	0xbd6d6dad	-0.057965923
246	0xbec40e4a	-0.38292152
247	0xbce89008	-0.028388992
248	0xbea52bd6	-0.32260007
249	0xbe139819	-0.1441349
250	0x3cb1da83	0.02171064
251	0xbe4034b7	-0.18770109
252	0xbd16f80d	-0.036857653
253	0xbb1c8c5c	-0.0023887372
254	0xbdb916c4	-0.09037545
255	0x3db6e03b	0.08929487

dec_layer_1.0.bias f4 [12]
0	0xbdbf986d	-0.09355245
1	0xbd4e99d3	-0.050439667
2	0x3dd5a146	0.10431151
3	0x3d9be9b1	0.076129325
4	0xbe985e1c	-0.297593
5	0x3d514039	0.051086638
6	0xbc3d1585	-0.011540775
7	0xbdba15e0	-0.090862036
8	0x3d9b16e2	0.07572724
9	0x3de6c7f7	0.11268609
10	0xbe031ee6	-0.12804756
11	0x3d137707	0.036002185

dec_layer_2.0.weight f4 [12, 8, 5, 5]
0	0xbd8357fa	-0.064132646
1	0xbce7f7ab	-0.02831634
2	0xbd14ce98	-0.036329836
3	0xbdebda3d	-0.11516235
4	0x3b612f97	0.003436064
5	0xbb46d7f7	-0.0030341127
6	0x3d66ae03	0.056318294
7	0x3c1a94e3	0.009434911
8	0xbcd01b51	-0.02540365
9	0x3b40f573	0.0029443174
10	0x3d892c82	0.06697942
11	0x3da3d54f	0.0799967
12	0x3a9d20ac	0.0011987886
13	0xbd6580ed	-0.056031156
14	0xbdd4d188	-0.103915274
15	0x3de1a7f3	0.11018362
16	0x3d51a1fd	0.051179875
17	0x3e1037d6	0.140838
18	0x3ced8644	0.028994687
19	0x3c8d9fa6	0.01728804
20	0xbb4b7062	-0.0031042327
21	0x3d9ceaeb	0.076619945
22	0x3dc2bcf9	0.095087
23	0x3d8764a6	0.06610994
24	0x3dcd0cad	0.10012183
25	0xbd90539a	-0.07047196
26	0x3d7fe540	0.06247449
27	0xbd82abfb	-0.06380459
28	0xbd59b8f8	-0.053154916
29	0xbceef471	-0.029169293
30	0xbd9294e0	-0.07157302
31	0xbe135732	-0.14388731
32	0xbdf81d85	-0.121150054
33	0xbde3ad1f	-0.111170046
34	0xbd279edf	-0.040922996
35	0xbe3fa81c	-0.18716472
36	0xbe1a8b00	-0.15092087
37	0xbcf811d5	-0.03028194
38	0xbd9d8fe3	-0.0769346
39	0xbe40ccc2	-0.18828109
40	0xbe00ab84	-0.12565428
41	0x3d8725c8	0.06599003
42	0xbd3db918	-0.046319097
43	0xbdf14a62	-0.117817655
44	0xbd88a107	-0.066713385
45	0xbe0065c7	-0.12538825
46	0x3d77fd63	0.060544383
47	0xbd9f6f84	-0.07784942
48	0xbd8c2319	-0.06842632
49	0xbce46a5f	-0.027882753
50	0x3dbf7113	0.09347739
51	0x3df5767a	0.11985488
52	0x3e0e934b	0.13923375
53	0x3d2ff4ac	0.042957947
54	0x3c0adad3	0.008475023
55	0xbe13ea18	-0.14444768
56	0x3e1a8e99	0.15093459
57	0x3d90823e	0.07056092
58	0xbd31e084	-0.043427005
59	0xbe239ab8	-0.1597699
60	0x3deb4729	0.11488182
61	0x3de61e2e	0.11236225
62	0x3c109855	0.008825381
63	0xbc0c4398	-0.0085610375
64	0xbcff4eac	-0.031165443
65	0xbd8b8b54	-0.06813684
66	0x3e35a772	0.17739657
67	0x3e3b9ca3	0.18321471
68	0x3d451b08	0.048121482
69	0x3c90418a	0.017609376
70	0x3e6e5444	0.23274332
71	0x3e586556	0.21132407
72	0x3e1b971f	0.15194367
73	0x3e122c16	0.1427463
74	0x3dc20afe	0.09474753
75	0x3dc6ee03	0.09713366
76	0xbb3e381d	-0.0029025145
77	0xbdbfc5ae	-0.09363876
78	0x3da5464f	0.08070051
79	0x3e222ae5	0.15836675
80	0xbd0e439f	-0.034732457
81	0x3d93148e	0.07181655
82	0xbe01e02f	-0.12683176
83	0xbd61fdda	-0.055173732
84	0xbd9df5e9	-0.07712919
85	0x3cc88dc1	0.024481656
86	0x3e38b0e6	0.18036231
87	0xbc9d55c0	-0.019205928
88	0xbdb6e2fe	-0.08930014
89	0x3c4fb44f	0.012677266
90	0xbd33c963	-0.04389323
91	0x3d949a89	0.07256038
92	0xbda01106	-0.07815747
93	0xbc3198f7	-0.010839692
94	0x3d4f9534	0.0506794
95	0xbd9a4b57	-0.07533901
96	0x3d72ac04	0.059246078
97	0x3ad1e8ea	0.0016014848
98	0x3c921d7f	0.01783633
99	0xbd2f0dc8	-0.042737752
100	0x3d0d1971	0.03444809
101	0x3e2cfd4f	0.16893505
102	0x3d751b52	0.059840508
103	0x3d1c8c03	0.038219463
104	0x3d88195a	0.066454604
105	0x3c2b2c5f	0.010447591
106	0x3e6ae025	0.22937067
107	0x3e0878f2	0.13327387
108	0x3e1dd89d	0.15414663
109	0x3d7c7d51	0.06164295
110	0x3d5ae417	0.05344018
111	0x3e69c431	0.22828747
112	0x3e2c9b2e	0.16856071
113	0x3dc4f99f	0.09617924
114	0x3d65f7ab	0.056144398
115	0x3dea92a8	0.11453754
116	0x3e20ce05	0.1570359
117	0x3e3e532b	0.18586414
118	0x3d6abd34	0.057309344
119	0x3d0ecc16	0.0348626
120	0x3da58ace	0.080831155
121	0x3e821914	0.25409758
122	0x3dfeac99	0.12435264
123	0x3d8c7b63	0.06859472
124	0x3db1886c	0.086685985
125	0xbda5fa84	-0.08104423
126	0xbd66a3f3	-0.056308698
127	0xbe761d18	-0.24034536
128	0xbd36215a	-0.0444654
129	0xbbe9677b	-0.0071229315
130	0x3e535fc5	0.20642002
131	0x3d8e5e1b	0.06951543
132	0x3e8b03d9	0.27151373
133	0xbc5a1671	-0.0133110145
134	0x3cde7740	0.027156472
135	0x3cb981cc	0.0226449
136	0x3dbd6308	0.09247404
137	0x3d5bf52d	0.053700615
138	0xbc79a720	-0.0152376
139	0x3dc7931d	0.097448565
140	0xbca9a112	-0.020706687
141	0x3e5e472c	0.21706837
142	0xbda78daa	-0.08181317
143	0x3dce43aa	0.100715
144	0xbb832704	-0.0040024538
145	0x3e0e6241	0.13904668
146	0x3e05f950	0.13083386
147	0x3df7947c	0.12088868
148	0x3d42f39a	0.047595598
149	0x3d994788	0.07484347
150	0xbc840c98	-0.016119286
151	0x3d6af3db	0.057361465
152	0x3c232972	0.009958612
153	0xbdb014d7	-0.08597725
154	0xbd95616a	-0.07293971
155	0xbc626604	-0.013818268
156	0xbccd78b2	-0.025081966
157	0xbdd84022	-0.10559107
158	0xbe1805f9	-0.14846028
159	0xbd13c1ac	-0.03607337
160	0xbd8becb0	-0.06832254
161	0x3d1b7039	0.03794882
162	0xbdf1b553	-0.11802163
163	0xbe1728e7	-0.14761697
164	0xbde9e78c	-0.11421117
165	0xbce1e924	-0.02757699
166	0xbd447c77	-0.04797026
167	0xbd505e62	-0.05087126
168	0xbcc307b8	-0.023807392
169	0x3d1cc028	0.038269192
170	0x3db76627	0.08955031
171	0x3dd9aa74	0.106282145
172	0x3db6ead6	0.0893151
173	0x3e06cf9b	0.13165133
174	0x3cf2717c	0.02959513
175	0xbd1e34b6	-0.038624488
176	0xbc8644e7	-0.016390277
177	0x3d9b06ad	0.07569633
178	0x3c7a43e0	0.015274972
179	0xbcfc8dd1	-0.030829342
180	0xbe4ae4a7	-0.19813786
181	0xbd374e43	-0.04475237
182	0xbde23890	-0.11045945
183	0xbe34104b	-0.1758434
184	0xbc323b61	-0.010878415
185	0xbc35d953	-0.011099177
186	0xbd0d4e6a	-0.03449861
187	0x3c8ae7af	0.016956178
188	0xbd420d18	-0.04737577
189	0xbd0b0a4f	-0.033945378
190	0xbd0f0d0c	-0.03492455
191	0x3a07ea7d	0.0005184783
192	0xbce16c89	-0.027517574
193	0xba986728	-0.0011627423
194	0x3da1e85c	0.07905647
195	0x3c002f3d	0.0078237625
196	0xbde9110f	-0.11380207
197	0xbdadd514	-0.08487907
198	0xbd27b5c0	-0.040944815
199	0x3c339518	0.01096084
200	0x3db996b6	0.09061949
201	0x3e15d18d	0.14630719
202	0x3df16eff	0.11788749
203	0x3e13d5f3	0.14437084
204	0x3db94b34	0.09047547
205	0x3da929b4	0.08259907
206	0x3e311981	0.17294885
207	0x3e0e7328	0.13911116
208	0x3de9650c	0.11396226
209	0x3da8c1a3	0.08240058
210	0x3de6ca93	0.11269107
211	0x3e4c2a25	0.19937952
212	0x3e4c7c67	0.1996933
213	0x3e277a66	0.16355285
214	0x3e002f94	0.1251815
215	0x3dcdeb66	0.10054664
216	0x3e469254	0.19391757
217	0x3e2852fb	0.16437905
218	0x3e128338	0.14307868
219	0x3d9c5fd4	0.07635465
220	0xbbff9998	-0.007800292
221	0x3daa9827	0.08329802
222	0x3e05d66a	0.13070074
223	0x3d6b481c	0.057441816
224	0x3c2ff60a	0.010739813
225	0x3d8ebbd8	0.06969422
226	0x3c0e865e	0.008699028
227	0xbcf43ad5	-0.02981321
228	0xbd5b92f4	-0.053606942
229	0x3c5c2615	0.013436814
230	0x3c91cd1a	0.017797995
231	0xbd186912	-0.037209578
232	0xbcfb9677	-0.030711396
233	0xbd8260c8	-0.06366116
234	0xbcb0cae4	-0.02158112
235	0xbe0dbac3	-0.13840775
236	0xbd0fb5ed	-0.035085607
237	0xbe154025	-0.1457525
238	0x3d1031c7	0.03520372
239	0xbd62a4e9	-0.05533305
240	0xbc22b74f	-0.0099313995
241	0xbd31f76a	-0.043448843
242	0x3c8a169e	0.016856488
243	0x3bea2066	0.0071449755
244	0x3d073b4e	0.03301554
245	0x3b1d0959	0.002396187
246	0x3dc2b39c	0.09506914
247	0x3e1a1f8b	0.15051095
248	0x3d5753b0	0.052570045
249	0x3d02945a	0.03187976
250	0xbd5a503f	-0.053299185
251	0xbd2bc326	-0.041934155
252	0xbb589c69	-0.0033052212
253	0x3c120637	0.008912615
254	0x3d3b85a6	0.045781754
255	0x3d11cc90	0.035595477

dec_layer_2.0.bias f4 [8]
0	0x3e02b8c3	0.12765794
1	0x3ca27ca9	0.019834833
2	0xbe0e2b53	-0.13883714
3	0x3cfbd73a	0.030742276
4	0xbe66143f	-0.22468661
5	0xbe59a494	-0.21254188
6	0xbca91bbd	-0.02064311
7	0xbe073d0a	-0.13206878

dec_layer_3.0.weight f4 [8, 3, 5, 5]
0	0xbd61b09c	-0.05510007
1	0xbd1f672f	-0.038916763
2	0xbd95c46f	-0.07312857
3	0xbcc57e5c	-0.024108104
4	0xbd8012c5	-0.0625358
5	0xbdaa3c3f	-0.08312272
6	0xbd46bcc0	-0.04851985
7	0xbde4fbc3	-0.11180832
8	0xbd4f7dac	-0.05065696
9	0xbdb9b952	-0.0906855
10	0xbd97cb88	-0.074118674
11	0xbd34b31b	-0.04411612
12	0xbdb3fdf1	-0.0878867
13	0xbd0b067a	-0.033941723
14	0xbd88f0f8	-0.06686586
15	0xbca715fb	-0.020396223
16	0xbb8cfac7	-0.004302356
17	0xbc74880a	-0.014925012
18	0xbb1cb8e6	-0.002391392
19	0xbc151b86	-0.0091008
20	0x3ce89a79	0.02839397
21	0x3c8280b4	0.015930511
22	0x3d3329d1	0.04374105
23	0x3ca20b99	0.01978092
24	0x3ca9e0a4	0.020737
25	0xbc05eae9	-0.008173683
26	0x3d6d0238	0.057863444
27	0x3dd919e1	0.10600639
28	0x3ddf1db7	0.108943395
29	0x3d4f2597	0.050572958
30	0x3c66fe79	0.014098757
31	0x3da4d30c	0.080480665
32	0x3e2d1199	0.16901244
33	0x3e14b2af	0.14521287
34	0x3d73ac6b	0.059490602
35	0x3d10522b	0.03523461
36	0x3dd0988a	0.101853445
37	0x3e73fe00	0.23827362
38	0x3e08e32c	0.13367909
39	0x3d56ee42	0.052473314
40	0x3aadaecf	0.001325095
41	0x3d2c1d70	0.04202026
42	0x3da28640	0.079357624
43	0x3d361d1b	0.04446135
44	0xbac7798b	-0.0015218718
45	0xbcea957d	-0.028635735
46	0x3b680245	0.0035401743
47	0xbc2c794a	-0.010526964
48	0xbac5c39e	-0.0015088206
49	0xbc6e5c4a	-0.014548371
50	0x3a43daea	0.00074712804
51	0x39e82906	0.00044281053
52	0x3d378e52	0.04481346
53	0x3c75a446	0.014992779
54	0xba84742c	-0.0010105423
55	0x3d621daa	0.05520407
56	0x3dc6ac57	0.0970084
57	0x3e1e00f0	0.15430045
58	0x3dadfe3c	0.08495757
59	0x3d35a0f2	0.044342943
60	0x3e2d4d09	0.16923918
61	0x3e8fa96a	0.2805894
62	0x3ecdbe55	0.40184274
63	0x3e879111	0.26477864
64	0x3e0c774f	0.13717388
65	0x3e424a3c	0.1897363
66	0x3e9caf0c	0.306023
67	0x3eda750a	0.4266742
68	0x3e96a853	0.29425296
69	0x3e33b0f8	0.17547977
70	0x3de0f87b	0.10984894
71	0x3e34d7c9	0.1766044
72	0x3e91848a	0.28421432
73	0x3e5b3ddb	0.21410315
74	0x3e0ada87	0.13559924
75	0x3d966df1	0.073451884
76	0x3e04d778	0.1297282
77	0x3e8095fe	0.25114435
78	0x3e0c7baf	0.13719057
79	0x3dbaa46a	0.09113391
80	0x3e6f22e8	0.2335316
81	0x3e897550	0.26847315
82	0x3ee3f7e4	0.44525063
83	0x3e68f38c	0.22749156
84	0x3e5c691c	0.21524471
85	0x3ec6e4e2	0.388465
86	0x3ee5c188	0.44874215
87	0x3f40ae33	0.75265807
88	0x3eb6c5de	0.35697836
89	0x3ead80e0	0.33887386
90	0x3e9aa4a3	0.30203733
91	0x3ea5c25c	0.32374847
92	0x3ef7cc94	0.48398268
93	0x3e612ef4	0.21990567
94	0x3e566977	0.20938669
95	0x3df9083d	0.121597745
96	0x3e3a5f67	0.18200456
97	0x3e8cb484	0.27481472
98	0x3e1163fc	0.14198297
99	0x3d99b623	0.07505443
100	0x3d1f1610	0.0388394
101	0x3c9e0548	0.019289628
102	0xbb701313	-0.0036632463
103	0xbd6a1555	-0.05714925
104	0xbd1389b7	-0.036020007
105	0xbb105d15	-0.0022028137
106	0x3caa4d36	0.02078877
107	0x3c81fb55	0.015866915
108	0xbd10414a	-0.035218515
109	0xbc489b27	-0.012244022
110	0x3d591a04	0.053003326
111	0x3d987b95	0.074454464
112	0x3e071e46	0.13195142
113	0x3d9bb2a7	0.076024346
114	0x3d8605c9	0.06544072
115	0x3d20df53	0.03927548
116	0x3da3ebd6	0.080039665
117	0x3e224998	0.15848386
118	0x3e1c17f2	0.1524351
119	0x3e053517	0.13008533
120	0x3deae862	0.11470105
121	0x3dc6a93b	0.09700247
122	0x3e30067b	0.17189972
123	0x3df8cd2d	0.12148509
124	0x3dcf3a20	0.10118508
125	0x3cb1204b	0.021621844
126	0x3c3be570	0.011468276
127	0x3d0f4341	0.034976248
128	0x3bce8431	0.0063023795
129	0x3be220fd	0.006900905
130	0x3cb9dd88	0.022688642
131	0x3c87634a	0.016526837
132	0x3d1f71cf	0.038926896
133	0x3ca1e504	0.019762523
134	0x3c5907b5	0.013246466
135	0xbd1d37a0	-0.038383126
136	0xbc9b0e01	-0.018927576
137	0xbbb07883	-0.00538546
138	0xbcab2d17	-0.020895524
139	0xbd069cda	-0.03286443
140	0xbdb4c0ad	-0.088258125
141	0xbd3d0df5	-0.04615589
142	0xbda1c62f	-0.07899129
143	0xbd1b55e8	-0.037923723
144	0xbd3c7aea	-0.046015657
145	0xbd681a06	-0.056665443
146	0xbc66a6c5	-0.014077847
147	0xbd823efa	-0.06359668
148	0xbd53f7e1	-0.051750068
149	0xbd808b55	-0.062765755
150	0xbd1251f9	-0.035722706
151	0xbcd1b991	-0.02560118
152	0xbd5d19b8	-0.053979605
153	0xbd3e9b32	-0.046534725
154	0xbd4a2ba2	-0.049358018
155	0xbd8b0ca5	-0.06789521
156	0xbd0c4474	-0.03424497
157	0xbda07b08	-0.07835966
158	0xbd7806b2	-0.06055326
159	0xbda69dc0	-0.08135557
160	0xbd9fd8e9	-0.07805044
161	0xbd09aa8c	-0.03360991
162	0xbdcd74f4	-0.10032073
163	0xbd650737	-0.055915084
164	0xbdede10e	-0.116151914
165	0xbd9b8c1b	-0.07595082
166	0xbd563561	-0.052297
167	0xbd983d03	-0.07433512
168	0xbd66c4c9	-0.056340013
169	0xbd873f35	-0.06603853
170	0xbdbc4f8c	-0.0919486
171	0xbdb5633c	-0.08856818
172	0xbdb868e6	-0.09004383
173	0xbd5dc35d	-0.05414139
174	0xbd6dfdd3	-0.058103394
175	0x3e1878a6	0.14889774
176	0x3e8a2dda	0.26988107
177	0x3ee9a501	0.456337
178	0x3e7da54a	0.24770084
179	0x3e0f60de	0.14001796
180	0x3ebe0da1	0.37119773
181	0x3f080785	0.53136474
182	0x3f3d65d1	0.73983485
183	0x3ee5e755	0.44903055
184	0x3eb7bf99	0.35888365
185	0x3f1ae0c2	0.60499203
186	0x3f3b95eb	0.7327563
187	0x3f7b24f0	0.9810324
188	0x3f2470e7	0.64234775
189	0x3f10c7b6	0.56554735
190	0x3f0e06da	0.55479205
191	0x3f2a7c39	0.665958
192	0x3f472892	0.7779628
193	0x3f0b87f3	0.5450432
194	0x3ed04692	0.4067884
195	0x3edd3396	0.4320342
196	0x3f026579	0.50936085
197	0x3f237995	0.63857394
198	0x3ebcab96	0.3684966
199	0x3e830e02	0.25596625
200	0xbe02c754	-0.1277135
201	0xbe3b8859	-0.18313731
202	0xbe7e2710	-0.24819589
203	0xbe6636ee	-0.22481892
204	0xbe22dc33	-0.15904312
205	0xbc338150	-0.0109561235
206	0xbd909ce6	-0.07061176
207	0xbe10280c	-0.14077777
208	0xbe3e5d62	-0.1859031
209	0xbe0fb088	-0.14032185
210	0xbe07519e	-0.13214728
211	0xbdd407f2	-0.10353078
212	0xbdd749de	-0.10512136
213	0xbe47dd1f	-0.19517945
214	0xbdc8a1b6	-0.09796469
215	0xbd847962	-0.064684644
216	0xbddecf0e	-0.10879336
217	0xbe43bc4a	-0.19114795
218	0xbe6c8a0d	-0.23099537
219	0xbe3e2fc4	-0.18572909
220	0xbcc31a88	-0.023816362
221	0x3c4623cd	0.0120934965
222	0x3ca2f2f8	0.019891247
223	0xbd2c48d9	-0.04206166
224	0xbc755c7d	-0.014975664
225	0x3e1ba156	0.15198264
226	0x3e6b9f22	0.23009923
227	0x3eca073a	0.39458638
228	0x3e36d738	0.17855537
229	0x3df17755	0.11790339
230	0x3ea69213	0.3253332
231	0x3ecbeb67	0.39828035
232	0x3f250e63	0.6447508
233	0x3ea27603	0.3173066
234	0x3e9a5270	0.3014102
235	0x3f05ec2f	0.5231351
236	0x3f208efe	0.6271819
237	0x3f84d721	1.0378152
238	0x3ef062a1	0.46950248
239	0x3ed837e2	0.42230135
240	0x3ecc3823	0.3988658
241	0x3eeef8f7	0.4667432
242	0x3f2e8e0e	0.6818551
243	0x3ea2035e	0.31643194
244	0x3e92d8da	0.2868107
245	0x3e203207	0.15644084
246	0x3e85c9ab	0.26130423
247	0x3eb9b2c6	0.36269206
248	0x3e37533d	0.17902847
249	0x3dcc97dc	0.099899024
250	0x3d8e9fd7	0.06964081
251	0x3d8392e9	0.06424505
252	0x3cff5924	0.031170435
253	0xbdb89813	-0.09013381
254	0xbd9741a3	-0.07385566
255	0x3caf034c	0.021363877

dec_layer_3.0.bias f4 [3]
0	0x3c8a2c01	0.016866686
1	0x3b853612	0.0040652836
2	0xbcb5e302	-0.022202972
