save/small_upsample/gen_model.pt (torch, 44187 bytes, 12 tensors)

enc_layer_1.0.weight f4 [32, 3, 5, 5]
0	0xbdabbcaa	-0.08385594
1	0x3c170f4d	0.009219957
2	0x3c2ecece	0.010669423
3	0x3d95b33e	0.07309578
4	0x3d7aa65f	0.06119382
5	0xbe080a4e	-0.13285181
6	0xbda03c15	-0.0782396
7	0xbc4c0a47	-0.012453622
8	0xbcfb0866	-0.030643653
9	0x3deaf5c2	0.11472656
10	0xbd885ebe	-0.06658696
11	0xbd9b50a0	-0.075837374
12	0x3da13f13	0.078733586
13	0xbc2638b6	-0.010145357
14	0x3e1347b8	0.14382827
15	0xbddac0c6	-0.106813
16	0xbd1189ec	-0.035531923
17	0x3d9e7cbc	0.07738635
18	0xbdbaf345	-0.09128431
19	0x3e0b6e96	0.13616404
20	0xbd38452e	-0.04498785
21	0xbdea47fe	-0.11439513
22	0x3b867d45	0.0041042888
23	0x3db977c2	0.09056045
24	0x3d3cbab3	0.046076488
25	0x3d7ee5e1	0.06223095
26	0xbd485323	-0.04890741
27	0x3d386d46	0.045026086
28	0x3b287738	0.0025705826
29	0x3d675d78	0.056485623
30	0xbe1d17a1	-0.15341045
31	0x3d8976ce	0.06712113
32	0x3c857762	0.016292278
33	0xbd9768c8	-0.07393032
34	0x3e424f14	0.18975478
35	0xbe0f97fb	-0.1402282
36	0x3d9e44b2	0.07727946
37	0xbd039968	-0.03212872
38	0x3c979b87	0.018506778
39	0x3e448440	0.19191074
40	0xbcc6b0eb	-0.024254283
41	0xbdea80d3	-0.114503525
42	0x39fba722	0.00047998974
43	0x3d9223ce	0.071357355
44	0x3e53441e	0.20631453
45	0xbe04c35f	-0.12965153
46	0xbe00352e	-0.12520286
47	0xbc93cd09	-0.018042104
48	0x3d891b61	0.06694675
49	0x3c279982	0.01022947
50	0x3d4290e7	0.04750147
51	0x3d9da0bd	0.07696674
52	0x3d97eaae	0.074178085
53	0x3b9824f6	0.004643078
54	0x3db0b55e	0.08628343
55	0xbc1c2746	-0.009530848
56	0xbcdd9d48	-0.027052537
57	0x3df262b6	0.11835234
58	0x3e052583	0.13002591
59	0x3e05b1cd	0.13056107
60	0xbddd1315	-0.10794655
61	0x3cdce8fb	0.026966562
62	0x3d1e46da	0.038641788
63	0x3e32275c	0.17397827
64	0x3e753021	0.23944141
65	0xbe04f9a6	-0.12985858
66	0xbdc54dee	-0.096340045
67	0xbd6d7059	-0.05796847
68	0x3dff8e5c	0.12478325
69	0x3e48929e	0.1958718
70	0xbe7988da	-0.24368611
71	0xbd1cfcc2	-0.038326986
72	0x3dd3c01a	0.10339375
73	0x3dec87b3	0.1154932
74	0x3e51bb54	0.20481616
75	0xbcc2b852	-0.023769531
76	0xbd5155d2	-0.051107235
77	0x3c1cb94e	0.009565664
78	0x3d2122b1	0.039339725
79	0xbe429f57	-0.19006096
80	0xbcd1388e	-0.025539663
81	0xbd7a769e	-0.06114828
82	0x3d982e06	0.07430653
83	0xbe05698e	-0.13028547
84	0xbc735f3a	-0.014854247
85	0x3ddabb23	0.10680225
86	0x3e08e9f9	0.13370503
87	0x3db83d78	0.08996099
88	0x3d08582a	0.033287205
89	0xbdd81522	-0.10550906
90	0x3e21f1db	0.15814917
91	0x3e2aef13	0.16692762
92	0x3d75caa4	0.060007706
93	0x3e22f740	0.15914631
94	0xbd98ab25	-0.07454518
95	0x3d3df60f	0.046377238
96	0x3e6cf50a	0.2314035
97	0x3d734c9e	0.05939924
98	0x3d486a93	0.048929762
99	0x3c8613e4	0.016366906
100	0xbd8e33fd	-0.0694351
101	0xbcf38b8d	-0.029729629
102	0xbe02990d	-0.12753697
103	0xbe0a22b5	-0.13489802
104	0xbe248acb	-0.1606857
105	0x3ce913d5	0.02845184
106	0x3da61368	0.0810917
107	0xbadcfead	-0.0016860567
108	0xbe047f8e	-0.12939283
109	0xbe338a4f	-0.1753323
110	0x3c25b101	0.010113002
111	0xbd88ac3e	-0.066734776
112	0x3d0da206	0.034578346
113	0xbc1d35c3	-0.009595337
114	0x3cde56d4	0.027141012
115	0x3e2806ab	0.16408794
116	0x3cc45bb0	0.023969501
117	0x3e177a9a	0.14792863
118	0x3dcee996	0.10103147
119	0xbde39bde	-0.11113714
120	0x3d8495d4	0.0647389
121	0x3d99a0d7	0.07501381
122	0x3e4a6bfc	0.19767755
123	0x3dca61a5	0.098819055
124	0x3db01f61	0.08599735
125	0x3cfcf189	0.030876892
126	0xbd0c6ada	-0.03428159
127	0xbe0f85ca	-0.1401588
128	0xbdd03177	-0.10165685
129	0xbe724a16	-0.23661074
130	0xbdc60dae	-0.09670578
131	0x3d66dafb	0.05636118
132	0x3cc4e08d	0.024032855
133	0xbdfaec45	-0.12252096
134	0xbe4aa8b3	-0.19790916
135	0xbcf2367f	-0.029567001
136	0xbe0576cb	-0.13033597
137	0xbca89aa3	-0.020581549
138	0xbd11588e	-0.035484843
139	0xbdbd1436	-0.092323706
140	0xbc6edde0	-0.014579266
141	0x3d3a4c3a	0.04548285
142	0xbda5f806	-0.08103947
143	0xbc1c9afd	-0.009558436
144	0xbc407f70	-0.0117491335
145	0xbd422f55	-0.04740842
146	0xbd5a74f0	-0.053334177
147	0xbd4e86c6	-0.0504215
148	0xbd782a9a	-0.060587503
149	0xbd9644b8	-0.07337326
150	0x3ddfa7c9	0.10920674
151	0xbcdfd33f	-0.02732241
152	0x3d5fa5ab	0.054601353
153	0x3c9de1ba	0.019272674
154	0x3daea500	0.08527565
155	0x3c27ca40	0.010241091
156	0xbd113736	-0.035453044
157	0x3d819cf0	0.063287616
158	0xbbd57769	-0.006514479
159	0x3d8b677d	0.06806848
160	0x3d800881	0.06251622
161	0xbcde2e8e	-0.027121808
162	0x3cad4c99	0.021154689
163	0xbd4735d9	-0.048635338
164	0x3e0f4475	0.13990958
165	0x3dd20bea	0.10256179
166	0x3d422e1a	0.047407247
167	0xbd875cc6	-0.06609492
168	0xbdaf1ea7	-0.08550768
169	0xbd405603	-0.046957027
170	0x3d9d76fe	0.076887116
171	0xbd46fb01	-0.04857922
172	0x3d4ff909	0.050774608
173	0x3d8b0844	0.06788686
174	0xbd56c642	-0.052435167
175	0xbdf81a94	-0.121144444
176	0xbd2746e4	-0.04083909
177	0xbd9bbb0a	-0.07604034
178	0x3d8baa29	0.06819565
179	0xbd0becb3	-0.03416128
180	0xbc327c17	-0.010893843
181	0x3d9fa865	0.077957906
182	0xbdbface0	-0.09359145
183	0xbdb1f64b	-0.08689555
184	0xbd174c78	-0.03693816
185	0x3d639636	0.055563174
186	0xbe094fc1	-0.1340933
187	0x3a4b7124	0.0007760695
188	0x3d7f40d1	0.062317673
189	0x3d71598d	0.058923293
190	0xbdba1c39	-0.09087414
191	0xbc87833f	-0.016542075
192	0xbdcfdfa8	-0.10150081
193	0x3d2f6be8	0.042827517
194	0x3c739e69	0.014869311
195	0xbd342a83	-0.043985855
196	0xbd3c7ecd	-0.046019364
197	0x3d851372	0.064978495
198	0xbda2bc6a	-0.079460934
199	0xbdfbfe7a	-0.12304397
200	0x3d33b339	0.043872092
201	0xbd0c1ad1	-0.03420526
202	0x3e0c9110	0.13727212
203	0xbd654c1a	-0.05598078
204	0x3e162f27	0.14666425
205	0x3dfe80f6	0.12426941
206	0x3da6274b	0.08112963
207	0x3db2819b	0.087161265
208	0x3df7a468	0.12091905
209	0x3e0a6e2c	0.1351859
210	0x3d4274f6	0.047474824
211	0x3d9b8e33	0.07595482
212	0xbd34e1b1	-0.04416055
213	0xbcbdca36	-0.02316771
214	0xbd6b9bf7	-0.057521787
215	0x3dca1b2c	0.09868464
216	0x3df73c18	0.12072009
217	0xbc886945	-0.016651759
218	0x3ccab929	0.024746494
219	0xbbaabe75	-0.0052106925
220	0x3e049972	0.1294916
221	0xbd1388d8	-0.036019176
222	0x3d640c81	0.055675987
223	0x3d5460dc	0.051850185
224	0x3e03e19b	0.1287903
225	0xbd6b00e9	-0.057373915
226	0x3da91866	0.08256607
227	0x3c83656b	0.01603957
228	0xbcba8200	-0.022767067
229	0xbdb2c7ce	-0.08729516
230	0xbd67fdf0	-0.056638658
231	0xbba9203b	-0.005161313
232	0xbcec7df7	-0.028868658
233	0xbad67046	-0.0016360364
234	0x3ce2772c	0.027644716
235	0xbda3dda4	-0.08001259
236	0x3cda346f	0.02663633
237	0xbc83ed27	-0.016104294
238	0xbda3dba9	-0.08000881
239	0xbdbd5f37	-0.092466764
240	0xbde4fdc1	-0.11181212
241	0xbc793cd8	-0.01521226
242	0xbd516708	-0.05112365
243	0xbdc5ca90	-0.09657776
244	0xbd8d1ae6	-0.06889896
245	0xbb8390b3	-0.004015052
246	0xbdd6c8d7	-0.10487526
247	0x3bfa493c	0.0076381247
248	0xbdc54bb3	-0.09633579
249	0xbd85c957	-0.06532543
250	0xbcefbef6	-0.029265862
251	0x3cee1b30	0.029065698
252	0x3d17ac57	0.03702959
253	0x3e13ec86	0.14445695
254	0x3e357fac	0.17724484
255	0x3e49ecb3	0.197192

enc_layer_1.0.bias f4 [32]
0	0xbe942243	-0.2893239
1	0x3e5fe55c	0.21864837
2	0xbe471fef	-0.19445775
3	0x3d45b2ec	0.048266336
4	0x3db50ed0	0.08840716
5	0x3dbffe6e	0.093747005
6	0xbe4325b0	-0.19057345
7	0xbcf72dfd	-0.030173296
8	0xbe677855	-0.22604497
9	0x3eb65b13	0.3561636
10	0x3eb1657f	0.34647748
11	0xbe4839e6	-0.19553337
12	0x3ea33f8b	0.31884417
13	0x3e8498ae	0.25897735
14	0x3c78f9b7	0.015196255
15	0x3eb23326	0.34804648
16	0x3e8b11ad	0.27161923
17	0x3e61e1de	0.22058818
18	0x3e984966	0.297435
19	0xbe8370ab	-0.25671896
20	0x3ddce619	0.10786075
21	0x3e4db1bd	0.20087333
22	0x3e18aa1f	0.14908646
23	0xbe145be0	-0.14488173
24	0x3e502ce7	0.20329629
25	0x3e88b7ae	0.26702636
26	0xbdd131ef	-0.10214602
27	0x3edcc974	0.43122447
28	0x3ec7b8f1	0.39008287
29	0xbe0c7feb	-0.13720672
30	0x3e9a971c	0.30193412
31	0xbe49d0e1	-0.19708587

enc_layer_2.0.weight f4 [16, 32, 3, 3]
0	0xbd562a0a	-0.052286185
1	0xbdd839d3	-0.10557904
2	0xbd996824	-0.074905664
3	0xbdcdff4a	-0.10058458
4	0x3c3891bb	0.011265214
5	0xbde14991	-0.1100036
6	0xbd2486fa	-0.040167786
7	0xbb64ef41	-0.0034932646
8	0xbcc941eb	-0.024567565
9	0xbe4b0216	-0.19825014
10	0xbe36a06c	-0.17834634
11	0xbe4dc4ce	-0.20094606
12	0xbdcded00	-0.1005497
13	0x3c200057	0.009765706
14	0x3c430c8c	0.011904847
15	0x3d87b3ea	0.06626113
16	0x3ca4dc66	0.020124625
17	0x3d9c19b3	0.07622089
18	0xbdb6a209	-0.089176245
19	0x3d4fc0fd	0.050721157
20	0xbd71ad16	-0.05900296
21	0xbd083f67	-0.03326359
22	0xbc4916ff	-0.012273549
23	0xbbde112a	-0.0067769485
24	0x3d3c8924	0.046029225
25	0x3d85ee03	0.06539538
26	0xbb98a928	-0.004658837
27	0xbe85b8cf	-0.2611756
28	0xbe826291	-0.25465825
29	0xbe7c5ffe	-0.24645993
30	0x3d46c73f	0.04852986
31	0x3ce17e8a	0.027526159
32	0x3d4c6b65	0.049907107
33	0x3d054379	0.03253505
34	0xbdbd4590	-0.092417836
35	0xbd843eca	-0.064572886
36	0xbe7cc382	-0.24683955
37	0xbe4647b5	-0.19363292
38	0xbe453796	-0.19259486
39	0xbcbf8983	-0.023381
40	0x3c3ae17a	0.011406297
41	0x3ae07e9a	0.0017127574
42	0xbd3da678	-0.046301335
43	0xbcd423c2	-0.025895957
44	0xbc3c2b51	-0.011484937
45	0xbe25cc97	-0.16191326
46	0xbdb0cc15	-0.086326756
47	0xbe2dcf68	-0.1697365
48	0xbc8d45ce	-0.0172452
49	0xbb1f6773	-0.0024323135
50	0x3dd98d4a	0.10622652
51	0x3d4db97d	0.050225724
52	0x3cca1b58	0.024671242
53	0x3dcc3be4	0.09972361
54	0xbd04ed31	-0.032452766
55	0xbbd60004	-0.0065307636
56	0xbd86ce98	-0.065823734
57	0x3cb9c096	0.02267484
58	0x3c137659	0.009000384
59	0xbc4e80a1	-0.01260391
60	0x3d1ea31b	0.03872977
61	0x3d26859e	0.04065477
62	0x3dcfd15f	0.10147356
63	0xbe27e21f	-0.16394852
64	0xbda22613	-0.07917418
65	0xbe183565	-0.14864118
66	0xbcf34e47	-0.029700411
67	0xbc060326	-0.008179462
68	0xbd48abd7	-0.048992004
69	0x3d53f163	0.051743876
70	0x3d87d652	0.06632675
71	0x3d1ba159	0.03799567
72	0xbe4c6f96	-0.19964442
73	0xbd70823d	-0.058717955
74	0xbde9a55f	-0.11408495
75	0xbd440903	-0.047860157
76	0xbc173f81	-0.009231449
77	0xbdae1eac	-0.08501944
78	0xbc7226fe	-0.014779804
79	0xbdfaa20b	-0.122379385
80	0xbe0bfe56	-0.1367124
81	0xbe3a34a6	-0.18184146
82	0xbe221a3d	-0.15830322
83	0xbe1d62d9	-0.15369739
84	0xbdab9275	-0.08377544
85	0xbcb4b4c2	-0.022058848
86	0x3d4b288e	0.049599223
87	0xbd4502e4	-0.04809846
88	0x3d6cbbd2	0.057796307
89	0x3dc5e730	0.09663236
90	0xbe3b1c0d	-0.1827242
91	0xbdca3684	-0.09873679
92	0xbdd9cc9c	-0.10634729
93	0xbd8f3553	-0.06992593
94	0xbd1181ae	-0.035524063
95	0x3d22f886	0.03978779
96	0xba2661be	-0.0006346962
97	0x3d6e964c	0.058248803
98	0x3c98045b	0.018556764
99	0xbbd29612	-0.006426581
100	0xbdd898b6	-0.10576002
101	0xbd49b79f	-0.04924738
102	0xbd151baf	-0.036403354
103	0xbd9fc9ae	-0.07802139
104	0xbda5518a	-0.08072193
105	0x3dc2b7d5	0.095077194
106	0x3df357ae	0.11881958
107	0x3cf5a868	0.029987529
108	0xbd1cc1f2	-0.0382709
109	0xbe1da46f	-0.15394758
110	0xbdb1c2f4	-0.086797625
111	0xbc2a123a	-0.010380322
112	0x3ce98929	0.028507786
113	0x3dbc685a	0.09199591
114	0x3d792cbe	0.060833685
115	0x3c86b458	0.016443416
116	0x3d439a84	0.04775478
117	0xbe440264	-0.19141537
118	0xbe4ff7db	-0.20309393
119	0xbe0e3b6d	-0.13889857
120	0xbc966cba	-0.018362392
121	0x3c8c0882	0.0170939
122	0x3d773e86	0.06036236
123	0xba997180	-0.0011706799
124	0x3d14ee50	0.036360085
125	0x3cc4135c	0.023935013
126	0x3d018c5a	0.03162799
127	0xbe33e172	-0.1756647
128	0xbe6f8c8d	-0.2339346
129	0x3e34beb8	0.17650878
130	0xbd262a3f	-0.040567633
131	0xbdb18f0b	-0.086698614
132	0xbe5061b3	-0.2034977
133	0xbe67744b	-0.22602956
134	0xbe9e1f56	-0.30883282
135	0xbe22e9fc	-0.1590957
136	0xbe32a058	-0.17443979
137	0xbdad4d6e	-0.08462034
138	0x3b8d8ab5	0.0043195137
139	0xb9588e48	-0.00020652369
140	0x3da28d0d	0.079370596
141	0x3b7d0c7e	0.0038612182
142	0x3dd86e67	0.105679326
143	0x3da158ae	0.078782424
144	0xbe1740b2	-0.14770773
145	0xbe59ed43	-0.21281914
146	0xbd944d35	-0.072412886
147	0xbd578738	-0.05261919
148	0x3ccdb710	0.025111705
149	0x3d3a18da	0.045433857
150	0xb9e937e0	-0.00044482853
151	0xbc8f46f5	-0.01748989
152	0x3d7aa758	0.061194748
153	0xbe162eb4	-0.14666253
154	0xbe1bf410	-0.15229821
155	0xbd153ba1	-0.03643382
156	0xbc17e634	-0.009271193
157	0x3c685d71	0.014182434
158	0x3e22045d	0.15821977
159	0x3d8fa150	0.0701319
160	0x3d18dd0e	0.03732019
161	0x3d9feaf7	0.07808488
162	0xbd9ebe85	-0.077511825
163	0xbe206726	-0.15664348
164	0xbe14edd3	-0.14543848
165	0x3dd18d14	0.10231987
166	0x3d5c2ae0	0.053751826
167	0x3d4842d3	0.048891854
168	0x3dd4bd0b	0.103876196
169	0x3d1ad72e	0.037802868
170	0x3c12188f	0.008916988
171	0xbd5d3ab9	-0.05401108
172	0xbc6066d8	-0.013696395
173	0xbd8a0557	-0.067393
174	0x3d3b23ce	0.045688443
175	0x3d4e4838	0.050361842
176	0xbd878728	-0.06617576
177	0x3ba9ab63	0.0051779016
178	0xbd9b0c10	-0.0757066
179	0xbde51400	-0.11185455
180	0xbdd9f275	-0.10641948
181	0xbe3b156d	-0.18269892
182	0xbe2aca81	-0.16678812
183	0x3dd020f9	0.10162539
184	0x3df3a917	0.11897486
185	0x3de960ba	0.11395402
186	0x3e56a3e3	0.20960955
187	0x3e7f90a9	0.24957527
188	0x3e1d70e7	0.153751
189	0xbdceb3f9	-0.10092921
190	0xbe1aaeb6	-0.1510571
191	0xbdc47f7f	-0.095946305
192	0x3c141ca4	0.009040032
193	0xbb6f1a69	-0.0036484248
194	0x3d802c5d	0.062584616
195	0xbce822d5	-0.028336922
196	0x3dc1bd78	0.094599664
197	0x3ded771e	0.115949854
198	0xbd8a0107	-0.06738477
199	0xbe322db2	-0.17400244
200	0xbe13517e	-0.14386556
201	0xbe2b3d65	-0.16722639
202	0xbd97c46a	-0.0741051
203	0xbc1e9b68	-0.009680606
204	0x3dce5e06	0.10076527
205	0x3d167868	0.036735922
206	0x3d50f19c	0.051011667
207	0xbd8db59f	-0.06919407
208	0xbda1b234	-0.07895318
209	0xbd8f77df	-0.070052855
210	0xbd598136	-0.05310174
211	0xbccd18ef	-0.025036303
212	0xbdc8d239	-0.09805722
213	0xbcc345d8	-0.023837015
214	0x3d0167c5	0.031593103
215	0xbb1d34a0	-0.0023987666
216	0xbe0c3c69	-0.1369492
217	0xbe06a046	-0.13147077
218	0xbdc16377	-0.094427995
219	0xbd387ebf	-0.04504275
220	0x3c829e7b	0.01594471
221	0x3d070715	0.03296574
222	0x3d7ee778	0.062232465
223	0x3cec1b59	0.028821634
224	0x3da24d43	0.07924893
225	0xbe004db9	-0.12529649
226	0xbe1dde84	-0.15416914
227	0xbdc3c53c	-0.09559104
228	0xbaf0d75a	-0.0018374727
229	0x3c32b359	0.010907018
230	0x3dd35aab	0.10320028
231	0x3d1ccaa6	0.038279198
232	0xbc2f7ce9	-0.010710933
233	0x3d4493ef	0.047992643
234	0xbd54d20a	-0.05195812
235	0xbd822d28	-0.06356269
236	0xbddc8262	-0.10767056
237	0x3b8a973d	0.004229455
238	0x3d2455a4	0.040120736
239	0xbd194eb6	-0.03742858
240	0x3cfbdf60	0.030746162
241	0x3d49a46a	0.049229063
242	0x3cef2880	0.029194117
243	0xbe1b401d	-0.15161176
244	0xbdcd989c	-0.100388736
245	0xbd681a99	-0.05666599
246	0xbc827cd9	-0.015928673
247	0x3d707732	0.058707424
248	0x3d895670	0.0670594
249	0x3de49e17	0.11162966
250	0x3dd1e4b6	0.10248701
251	0x3d5e1231	0.054216567
252	0xbdfb1c46	-0.12261252
253	0xbdeef50b	-0.11667832
254	0xbe325aee	-0.174175
255	0x3caf76e2	0.021418992

enc_layer_2.0.bias f4 [16]
0	0x3ca1ce19	0.019751595
1	0x3d63b312	0.055590697
2	0x3e13ae1d	0.14421888
3	0x3e114181	0.14185144
4	0x3e290c74	0.16508657
5	0x3d1d2703	0.038367283
6	0x3de5d7ec	0.112228245
7	0x3e06b7eb	0.13156097
8	0x3da2093e	0.07911919
9	0x3d6a38cf	0.057183083
10	0x3e3d0e09	0.18462385
11	0x3de0838a	0.10962589
12	0x3df7e974	0.121050745
13	0x3d1881c9	0.037233148
14	0x3e5145bb	0.20436756
15	0x3ddf3b20	0.10899949

enc_layer_small.0.weight f4 [12, 16, 3, 3]
0	0x3e389155	0.1802419
1	0x3e3e82e7	0.18604623
2	0x3df9df7f	0.122008316
3	0x3e6b0d62	0.22954324
4	0x3e332bcc	0.17497176
5	0x3d7c1e22	0.061552174
6	0x3d9b7202	0.07590105
7	0x3dee30db	0.11630412
8	0x3e08ea12	0.1337054
9	0xbd230df7	-0.03980824
10	0x3c193b00	0.009352446
11	0x3d0cdf87	0.03439286
12	0xbdbe0bbe	-0.092795834
13	0x3bda400a	0.006660466
14	0x3d955ce9	0.07293112
15	0x3d5c490b	0.053780597
16	0xbd8107c7	-0.063003115
17	0xbe20372c	-0.15646046
18	0xbc470fd0	-0.012149766
19	0xbc7fc915	-0.015611907
20	0x3d534a7c	0.051584706
21	0x3d087bdf	0.033321258
22	0x3cfa87a8	0.030582264
23	0x3d42f0f7	0.047593083
24	0x3de98d31	0.11403883
25	0x3e40b1c8	0.18817818
26	0x3db9feec	0.090818256
27	0xbd3dc042	-0.04632593
28	0xbcf7dfaa	-0.030258019
29	0x3df3d698	0.11906165
30	0x3c80afca	0.015708823
31	0x3d2c1b64	0.04201831
32	0xbd29a20e	-0.041414313
33	0xbc97b871	-0.018520566
34	0x3cad9fee	0.021194424
35	0xbd93daa5	-0.072194375
36	0xbc9ec6c9	-0.019381898
37	0xbce630b7	-0.0280994
38	0xbd549e58	-0.05190882
39	0xbe024980	-0.1272335
40	0xbd6e06a9	-0.05811182
41	0xbd996230	-0.07489431
42	0xbe157fae	-0.14599487
43	0xbdc8e5e3	-0.098094724
44	0xbdd0e0dc	-0.101991385
45	0x3ba65e83	0.0050771846
46	0x3c00c008	0.007858284
47	0xbd4e592c	-0.05037801
48	0xbce2a3b3	-0.027665948
49	0xbd952347	-0.07282119
50	0xbe0cdf00	-0.13756943
51	0x3d88e50e	0.06684314
52	0x3d1efdbe	0.038816206
53	0xbe959d00	-0.29221344
54	0xbe04b58b	-0.12959878
55	0x3d027241	0.031847242
56	0x3b186f42	0.0023259674
57	0xbbf9e4c1	-0.0076261465
58	0x3c14478e	0.009050263
59	0xbdbf1c51	-0.09331573
60	0x3d3e88cc	0.04651718
61	0xbd150e96	-0.036390863
62	0x3c3d3cdc	0.011550155
63	0xbe283987	-0.16428195
64	0xbc681a65	-0.014166449
65	0x3d8045f5	0.06263343
66	0xbe03cd67	-0.12871324
67	0x3c8d6e73	0.01726458
68	0x3cd606c7	0.026126279
69	0xbe09b828	-0.13449156
70	0xbe29df95	-0.16589196
71	0xbe0fe3d2	-0.1405175
72	0x3e471013	0.19439726
73	0x3b8e9a4f	0.004351891
74	0x3d54936b	0.0518984
75	0xbcc7c189	-0.024384277
76	0xbdd8e155	-0.10589854
77	0xbe2ceaf9	-0.1688651
78	0x3d6a997b	0.057275277
79	0xbdcbcd07	-0.09951215
80	0xbd5bc72f	-0.053656753
81	0xbdbd7d16	-0.09252374
82	0xbd6632ab	-0.056200664
83	0xbd474be7	-0.04865637
84	0xbde15559	-0.11002607
85	0xbd82b7ed	-0.06382737
86	0xbe0f4176	-0.13989815
87	0xbdb7a1ad	-0.08966384
88	0xbc72aca4	-0.014811669
89	0xbd8f6945	-0.070025004
90	0x3cd6149d	0.026132876
91	0xbd078da4	-0.033094063
92	0x3d297246	0.041368745
93	0xbcb2e905	-0.021839628
94	0xbda59b5c	-0.08086273
95	0xbd0dfba0	-0.034663796
96	0xbc8daa19	-0.017293023
97	0x3d482504	0.048863426
98	0x3d9eb87c	0.07750031
99	0xbe12a088	-0.1431905
100	0xbd7a1cd7	-0.06106266
101	0xbe0e8082	-0.1391621
102	0xbd855d39	-0.065119214
103	0xbd93fecf	-0.07226335
104	0xbdd95e93	-0.10613742
105	0xbde53a2e	-0.111927375
106	0xbd3863b3	-0.045016956
107	0xbde4211a	-0.11139126
108	0x3e68c284	0.22730452
109	0x3e4bdc31	0.19908215
110	0xbcd1998d	-0.025585914
111	0x3d2845cf	0.0410822
112	0x3de62713	0.112379216
113	0x3dbfa0bb	0.09356829
114	0xbca8c425	-0.020601342
115	0x3d6f9734	0.058493808
116	0x3e3f7ff0	0.18701148
117	0x3cc62932	0.024189565
118	0x3c693f10	0.014236227
119	0x3d02760e	0.031850867
120	0x3da80918	0.082048595
121	0xbcf94924	-0.030430384
122	0x3d4ad3ea	0.049518503
123	0x3cfb17ac	0.030650936
124	0x3dbeb872	0.09312524
125	0x3dfae79b	0.122512065
126	0x3d1e5561	0.038655642
127	0xbd8fcdb2	-0.07021655
128	0xbe0fdb40	-0.14048481
129	0xbdbc87ab	-0.09205564
130	0xbdd1270f	-0.10212528
131	0xbb7d87a8	-0.0038685594
132	0xbd4fbd30	-0.050717533
133	0xbc03eca9	-0.00805203
134	0xbdcd50a7	-0.10025149
135	0xbd0e36b6	-0.034720145
136	0x3d96c34d	0.073614694
137	0x3dca345b	0.09873267
138	0x3ddb619b	0.10711976
139	0x3d4c751e	0.04991638
140	0x3e0119ef	0.12607549
141	0x3e1d2c11	0.15348841
142	0x3d933336	0.07187502
143	0x3dbf80b8	0.09350723
144	0x3e1a9af1	0.15098168
145	0xbdf7ab85	-0.12093262
146	0xbdc1a5d5	-0.09455458
147	0xbdbec8fc	-0.093156785
148	0x3e385a27	0.1800314
149	0x3e9c498f	0.3052487
150	0x3da36c74	0.0797967
151	0x3e24c38e	0.16090223
152	0x3e703c3a	0.23460475
153	0x3dbdc1ba	0.09265466
154	0x3ba677ed	0.0050802142
155	0xbd877eda	-0.06615992
156	0xbb6da0ca	-0.0036259168
157	0xbd60ccd5	-0.054882843
158	0xbe0e1e82	-0.13878825
159	0xbbceb2a3	-0.0063079163
160	0x3df52543	0.11969998
161	0x3e1ada9e	0.15122458
162	0xbb9783f3	-0.004623884
163	0x3d876e4a	0.06612833
164	0x3b005b2d	0.0019585595
165	0xbd8c179c	-0.06840441
166	0xbd6c01c9	-0.05761889
167	0x3bf5ffd9	0.007507306
168	0xbd5d7f96	-0.054076754
169	0x3dc5bd62	0.096552625
170	0x3d936047	0.07196098
171	0xbd136d2e	-0.035992794
172	0xbd958f12	-0.07302679
173	0xbdf718a9	-0.120652504
174	0xbdc66fdd	-0.09689305
175	0xbc5bc8e8	-0.013414599
176	0xbd8196a1	-0.06327558
177	0xbe21560f	-0.15755485
178	0xbc44d322	-0.012013229
179	0xbc4fe61c	-0.01268914
180	0xbca4ebaf	-0.020131914
181	0xbbb95122	-0.0056554237
182	0x3d69a073	0.057037782
183	0x3d0e4c5f	0.034740802
184	0xbd05f918	-0.032708257
185	0x3d2fc26d	0.04291003
186	0x3d39db10	0.04537493
187	0x3d92c4e5	0.07166461
188	0x3cf2d410	0.029642135
189	0x3e10a924	0.14127022
190	0xbd9759cf	-0.073901765
191	0xbebfff2a	-0.37499362
192	0x3d66d00c	0.056350753
193	0xbc86e0f2	-0.016464684
194	0xbe723006	-0.23651132
195	0xbdf82bd2	-0.12117733
196	0xbd59d7aa	-0.05318419
197	0xbe34a0de	-0.17639491
198	0x3cb0c623	0.021578854
199	0xbdd63eef	-0.104612224
200	0xbe353652	-0.17696503
201	0xbbd1d4e9	-0.0064035547
202	0xbd2ebf77	-0.042663064
203	0x3c2715d4	0.010198075
204	0xbe19baf5	-0.15012725
205	0xbe25e836	-0.16201863
206	0xbdd9b8fe	-0.106309876
207	0xbb5bc9b8	-0.0033536982
208	0xbd28df4b	-0.041228574
209	0xbe619786	-0.22030458
210	0x3de78965	0.11305503
211	0xbd81d6f7	-0.063398294
212	0xbdc1d195	-0.09463803
213	0x3c88ebbe	0.016713973
214	0xbbe92f6f	-0.00711625
215	0xbdfabfd5	-0.1224362
216	0x3e2f6619	0.17128791
217	0x3db7cc08	0.08974463
218	0x3e30fe2d	0.1728446
219	0x3d1d3a34	0.038385585
220	0x3df46ed4	0.11935201
221	0x3d93a938	0.0721001
222	0x3d8c542a	0.068519905
223	0x3e35cc26	0.17753658
224	0x3e226d26	0.1586195
225	0x3c8353f2	0.01603124
226	0x3dcb0b2d	0.09914241
227	0x3dff1dca	0.12456854
228	0x3d986d4e	0.07442723
229	0x3d96a1f6	0.0735511
230	0xbce7292f	-0.02821788
231	0x3d017058	0.03160128
232	0x3ddbb6ca	0.107282236
233	0x3e1c7518	0.15279043
234	0x3ce9022e	0.028443422
235	0x3d1d16a7	0.03835168
236	0x3d7a462d	0.06110208
237	0x3d16ef53	0.03684933
238	0x3d05a4b7	0.032627787
239	0x3da4ab18	0.08040446
240	0x3d49fce6	0.04931345
241	0xbd9d3364	-0.076758176
242	0xbcb071f9	-0.021538721
243	0xbb689369	-0.0035488254
244	0xbd134d93	-0.035962652
245	0x3ceca1b4	0.0288857
246	0xbd15d462	-0.036579497
247	0x3dad9072	0.084748164
248	0x3d63ca5a	0.0556129
249	0x3d5fe86b	0.05466501
250	0x3da54889	0.080704756
251	0x3e1abf1f	0.1511197
252	0xbda1e602	-0.07905199
253	0x3a484be0	0.0007640701
254	0x3e50221e	0.20325515
255	0xbdc1841d	-0.09449027

enc_layer_small.0.bias f4 [12]
0	0x3d236614	0.03989227
1	0x3e0c415f	0.13696812
2	0x3e5968f6	0.21231446
3	0xbaac0ced	-0.0013126411
4	0x3d6b1d18	0.057400793
5	0x3d072249	0.03299168
6	0x3d9e5640	0.07731295
7	0xbdf7e7b2	-0.12104739
8	0xbbd9c4e3	-0.006645785
9	0x3ceb9f5c	0.028762512
10	0xbd0cb767	-0.034354594
11	0xbe7a2e9e	-0.24431846

dec_layer_1.1.weight f4 [12, 12, 2, 2]
0	0x3ddee584	0.108836204
1	0xbe08cfb9	-0.1336049
2	0xbdd4c68a	-0.10389431
3	0x3cc0b2c6	0.023522746
4	0xbc5b32c5	-0.013378804
5	0xbe1203dc	-0.14259285
6	0xbe4336f7	-0.19063936
7	0xbcae76a5	-0.021296808
8	0x3df88157	0.121340446
9	0x3d71f241	0.059068922
10	0x3b8d883d	0.0043192194
11	0x3da9ebc0	0.08296919
12	0x3d90880a	0.070571974
13	0x3c0288f8	0.007967226
14	0xbc9484db	-0.018129757
15	0x3d8610ce	0.06546174
16	0xbd7ca97d	-0.061685074
17	0xbd26f510	-0.040761054
18	0x3d230894	0.039803103
19	0x3d98630c	0.07440767
20	0x3d82c492	0.06385149
21	0xbd85c723	-0.06532123
22	0x3cfe3ae2	0.031033937
23	0x3daedd54	0.08538309
24	0x3dd739a1	0.10509039
25	0xbdb33d5e	-0.08751939
26	0xbd059045	-0.03260829
27	0xbd757734	-0.059928134
28	0x3e21b2e0	0.15790892
29	0x3e4479e9	0.1918713
30	0xbc0a166c	-0.008428197
31	0x3d88a2d0	0.06671679
32	0xbd716567	-0.058934595
33	0xbe2155ac	-0.15755337
34	0xbd2b27a8	-0.041785866
35	0xbd9b2596	-0.07575528
36	0x3dbdcd6d	0.092676975
37	0x3e56979d	0.20956273
38	0x3e44ceea	0.19219556
39	0x3e4fde60	0.20299673
40	0xbc3bb823	-0.011457476
41	0x3b88e966	0.004178214
42	0xbda0d211	-0.07852567
43	0xbe22694d	-0.15860482
44	0x3e83058f	0.25590178
45	0x3e19ccfe	0.15019605
46	0x3e1369cb	0.14395826
47	0x3e46ae60	0.19402456
48	0x3de2e220	0.11078286
49	0xbab5b9b2	-0.0013864546
50	0x3e1efbd7	0.15525757
51	0x3da89c89	0.08232982
52	0x3bb0c7de	0.00539492
53	0xbdab461b	-0.08362981
54	0xbc1a9845	-0.009435718
55	0x3e2b320a	0.16718307
56	0x3e49be8a	0.19701591
57	0x3d5ed1e0	0.05439937
58	0xbd644d3c	-0.05573772
59	0x3db700f1	0.089357264
60	0xbd3775f6	-0.04479023
61	0x3e0869bd	0.13321586
62	0x3c996bf1	0.018728228
63	0x3d98f4db	0.074685775
64	0xbd59e787	-0.053199317
65	0x3e20a3be	0.15687463
66	0x3e1a63fe	0.15077206
67	0xbc32fd33	-0.010924625
68	0xbd2a1d7f	-0.041532036
69	0x3de5bffa	0.11218257
70	0x3d8bbc58	0.06823033
71	0x3dbd2b71	0.092368014
72	0x3d23b1f4	0.03996463
73	0x3df0a023	0.11749294
74	0x3e0464f5	0.12929137
75	0xbdfb8e88	-0.12283045
76	0x3daf9d5a	0.08574934
77	0x3d63b477	0.055592027
78	0x3d150a1c	0.036386594
79	0xbdb365f3	-0.0875968
80	0x3d3bda54	0.04586251
81	0x3d9bbd5f	0.07604479
82	0x3ccf5734	0.025310136
83	0xba42e6f4	-0.00074349274
84	0xbe11f8ec	-0.14255112
85	0xbdb3a1a6	-0.08771066
86	0xbd7ca42c	-0.061680004
87	0x3d80a273	0.06280985
88	0xbd9fcb8e	-0.07802497
89	0x3e2546d2	0.16140297
90	0xbd890ac6	-0.06691508
91	0x3d82c6d5	0.063855805
92	0xbd1f8071	-0.03894085
93	0xbc96a51b	-0.018389275
94	0xbe34882a	-0.17630067
95	0xbceb67f3	-0.02873609
96	0xbd93d6a8	-0.07218677
97	0x3ded0b7f	0.11574458
98	0xbc33cfcf	-0.010974838
99	0xbd9098e9	-0.07060415
100	0xbd5e77fb	-0.05431364
101	0xbdee0056	-0.11621158
102	0xbdc59fc5	-0.09649614
103	0x3d80e26c	0.062931865
104	0xbe5a28d7	-0.21304642
105	0xbdf97747	-0.121809535
106	0xbe5c1617	-0.21492802
107	0xbdf6f0dc	-0.12057659
108	0x3d882758	0.06648129
109	0x3e122a68	0.14273989
110	0xbda62de8	-0.08114225
111	0xbdffb609	-0.12485892
112	0xbd747d3b	-0.05968974
113	0xbe33681e	-0.17520186
114	0x3d606081	0.054779533
115	0xbe2519f2	-0.16123179
116	0x3dcd5a0c	0.10026941
117	0x3e4ac879	0.19803037
118	0x3e0a2fd6	0.1349481
119	0x3c252580	0.0100797415
120	0x3da9c75a	0.082899764
121	0xbdd65b2b	-0.10466608
122	0x3e22296f	0.15836118
123	0x3d690e9a	0.05689869
124	0x3d9ceb43	0.0766206
125	0xbe2d991a	-0.16952935
126	0xbd80bc3b	-0.06285902
127	0xbc4a6a2c	-0.012354415
128	0xbbaebbf6	-0.0053324653
129	0xbe40254d	-0.18764229
130	0x3d86789f	0.065659754
131	0xbe04a06a	-0.12951818
132	0xbe1fa386	-0.15589723
133	0x3dae9a6f	0.085255496
134	0xbdeaf7cd	-0.114730455
135	0xbd8c0635	-0.068371214
136	0xbadf628b	-0.0017042918
137	0xbdd1a467	-0.102364354
138	0xbc16dc37	-0.009207777
139	0xbc3c1eb4	-0.01148193
140	0xbdfc2941	-0.12312556
141	0x3d4fbfec	0.05072014
142	0xbd296692	-0.041357584
143	0xbc94c5f4	-0.018160798
144	0x3d65fc9f	0.05614912
145	0x3d129101	0.035782818
146	0x3e3b7f1f	0.18310212
147	0xbcb65084	-0.02225519
148	0x3da25572	0.07926454
149	0x3b60d4cb	0.0034306522
150	0x3e4f01e5	0.20215566
151	0x3e8856d7	0.26628754
152	0xbe31b78d	-0.17355175
153	0xbe50e7fa	-0.20400992
154	0xbc046fbe	-0.008083282
155	0xbe449fc3	-0.1920157
156	0xbdece2a6	-0.11566667
157	0xbdff4b9d	-0.12465594
158	0x3ccc8d33	0.024969673
159	0xbd6e4972	-0.05817551
160	0xbe022c7c	-0.12712282
161	0xbd0ce9dd	-0.034402717
162	0xbe69ad44	-0.22820002
163	0xbdca6d32	-0.098841086
164	0x3e0a47ab	0.13503902
165	0xbc89ac2b	-0.016805729
166	0x3daadf23	0.08343341
167	0x3e08fb6d	0.13377161
168	0xbd5bd1e9	-0.053666983
169	0xbe19adcd	-0.15007706
170	0xbdeb4400	-0.11487579
171	0xbcfd51a9	-0.030922728
172	0x3dfd4645	0.123669185
173	0x3e26050b	0.16212861
174	0x3e7e8360	0.24854803
175	0x3ccaf3f0	0.024774522
176	0xbd24603c	-0.04013084
177	0x3dd4b411	0.103859074
178	0x3d8c0aca	0.06837995
179	0x3c9f4779	0.01944326
180	0xbc1011a8	-0.008793272
181	0xbdd03d06	-0.10167889
182	0xbe5d8ce3	-0.21635775
183	0xbd2d2819	-0.04227457
184	0xbbcbe86e	-0.006222776
185	0x3d0bbb07	0.03411391
186	0x3dd71e79	0.10503859
187	0xbd20d3e6	-0.039264582
188	0xbeacf75c	-0.3378247
189	0xbe962edd	-0.2933263
190	0xbe242d98	-0.16033018
191	0xbe97542e	-0.29556412
192	0x3d977c4b	0.07396754
193	0xbd492df3	-0.049116086
194	0x3e2eb0ae	0.17059585
195	0xbd2d1165	-0.042252917
196	0x3e0959cd	0.13413163
197	0xbcb27c76	-0.021787863
198	0xbdd536c9	-0.1041084
199	0x3dca59bb	0.09880396
200	0x3ac08a71	0.0014689696
201	0x3c3c6b00	0.01150012
202	0xbe4a6fc0	-0.19769192
203	0x3c2f2def	0.010692104
204	0x3dd49681	0.10380269
205	0xbdb6faa3	-0.08934524
206	0xbd37926a	-0.044817366
207	0xbdbd6729	-0.09248192
208	0x3ac01593	0.0014654867
209	0xbd24f98e	-0.040277056
210	0xbcec2ecb	-0.028830906
211	0xbe3dedb5	-0.1854771
212	0x3d2381a0	0.039918542
213	0xbd7fd47c	-0.0624585
214	0xbd1176ca	-0.035513677
215	0xbda7c218	-0.08191317
216	0x3dc3e72a	0.095655754
217	0xbd7d7a12	-0.061883993
218	0xbcb60f1c	-0.022224002
219	0xbd6157e6	-0.055015467
220	0x3d80761d	0.06272528
221	0x3e3ea88d	0.18618985
222	0x3d6cd702	0.057822235
223	0x3df7f97e	0.12108134
224	0x3d4cc39d	0.04999124
225	0x3e20d318	0.15705526
226	0x3d8c792e	0.06859051
227	0x3b187a92	0.0023266417
228	0xbe287ec0	-0.16454601
229	0xbdd1ec90	-0.10250199
230	0x3ba131c3	0.004919262
231	0xbdefe9d6	-0.117145225
232	0x3d97bace	0.07408677
233	0x3c98cdc4	0.018652804
234	0xbd8a50ed	-0.067537166
235	0x3ca924fc	0.020647518
236	0xbdbba7d2	-0.091628686
237	0xbdc66540	-0.09687281
238	0xbd8e8c6c	-0.06960377
239	0xbd987c33	-0.07445564
240	0x3e13be7f	0.14428137
241	0xbcd61e62	-0.026137535
242	0xbd048d36	-0.03236123
243	0x3c6483c9	0.013947436
244	0x3e5a5a89	0.21323599
245	0x3d998f59	0.074980445
246	0xbbd11922	-0.00638117
247	0x3e0f3022	0.13983205
248	0xbde84a4f	-0.11342298
249	0xbd335c91	-0.04378945
250	0xbe384c35	-0.1799782
251	0xbe7120df	-0.23547696
252	0x3d81e7f4	0.0634307
253	0xbdaf25dc	-0.08552143
254	0x3b47bc48	0.0030477215
255	0xbcb8f99c	-0.02257996

dec_layer_1.1.bias f4 [12]
0	0x3dba3670	0.090924144
1	0x3e035319	0.12824668
2	0xbe3194d9	-0.17341937
3	0x3d7c5792	0.06160695
4	0xbe104c70	-0.14091659
5	0x3d942513	0.07233634
6	0xbc0780ff	-0.008270501
7	0xbbc40bad	-0.005982837
8	0x3dff57bd	0.124679066
9	0x3e989479	0.29800776
10	0xbd85a75a	-0.065260604
11	0xbe8e3422	-0.2777415

dec_layer_2.1.weight f4 [8, 12, 2, 2]
0	0xbc50a80a	-0.012735376
1	0xbd014129	-0.031556282
2	0x3df7844f	0.12085783
3	0x3e482142	0.19543937
4	0x3b1ac1fe	0.0023614164
5	0xbe1c8d85	-0.1528836
6	0xbc24e931	-0.010065363
7	0xbe1c8692	-0.1528571
8	0xbd734a26	-0.059396885
9	0xbd8914d3	-0.06693425
10	0xbcf46938	-0.029835328
11	0x3d8f687a	0.07002349
12	0x3e19f4bf	0.1503477
13	0x3e877704	0.2645799
14	0x3e753a4d	0.23948021
15	0x3e5f0af4	0.21781522
16	0xbd0217d0	-0.03176099
17	0x3c5808d9	0.013185703
18	0xbd7647ee	-0.06012719
19	0xbca1d8b8	-0.01975666
20	0xbcd1c603	-0.025607115
21	0xbc70e5cc	-0.014703225
22	0x3c8d6059	0.017257856
23	0x3e5d4255	0.21607335
24	0x3d49f2f5	0.049303968
25	0x3e12e60c	0.14345568
26	0xbc7e52f4	-0.015522707
27	0x3e015f1a	0.12633935
28	0x3e891f59	0.2678173
29	0x3ec88ca3	0.39169797
30	0x3e1f08fb	0.1553077
31	0x3e931f72	0.28734928
32	0x3db33c84	0.08751777
33	0x3dcc949a	0.09989281
34	0x3d47d660	0.04878843
35	0x3e1000a3	0.14062743
36	0xb9c71ea3	-0.00037979064
37	0xbcc218ac	-0.023693405
38	0x3db0ca6b	0.08632358
39	0x3e4c065d	0.19924302
40	0x3e13aeac	0.14422101
41	0xbda039b4	-0.07823506
42	0xbd7756de	-0.060385577
43	0x3d71bff3	0.059020948
44	0xbdbc4188	-0.091921866
45	0xbe2cf3de	-0.16889903
46	0xbe3d3bf9	-0.18479909
47	0xbd892acb	-0.06697615
48	0xbc5efa33	-0.013609457
49	0x3d8814f1	0.06644619
50	0x3d873092	0.06601061
51	0xbdaa41b7	-0.08313315
52	0xbe4fb2f8	-0.20283115
53	0xbd350889	-0.044197593
54	0xbe48f087	-0.19623004
55	0x3d486100	0.04892063
56	0xbe28964e	-0.16463587
57	0xbc4694d5	-0.012120445
58	0xbd17e2cb	-0.03708152
59	0xbe29b8b2	-0.16574362
60	0xbe3e6d45	-0.1859637
61	0xbddcb411	-0.107765324
62	0xbcc522d3	-0.024064457
63	0x3b02a4ae	0.0019934583
64	0x3d013c0d	0.03155141
65	0x3da7e4b5	0.08197919
66	0xbe1aa2a2	-0.15101102
67	0xbdc4e144	-0.096132785
68	0xbdcd532b	-0.10025629
69	0xbd4ed551	-0.050496403
70	0xbda686d2	-0.08131184
71	0xbad71733	-0.0016410112
72	0xbe064f36	-0.13116154
73	0xbd899d8b	-0.06719502
74	0x3d6d4fe3	0.057937514
75	0xbdcbd0e0	-0.09951949
76	0xbddd13a7	-0.10794764
77	0xbe028318	-0.12745321
78	0xbcd19581	-0.025583984
79	0xbd55b6d5	-0.052176315
80	0x3d56af23	0.052413117
81	0x3d3b39cb	0.045709413
82	0x3e0940db	0.13403647
83	0x3e128d3c	0.14311689
84	0x3e3b9758	0.18319452
85	0xbce8e402	-0.028429035
86	0x3e470a8b	0.19437616
87	0x3e4ef85f	0.20211934
88	0x3d25c1cc	0.040468022
89	0x3dbe512a	0.092928246
90	0x3d18cef1	0.03730673
91	0x3dd82668	0.105542004
92	0x3d49722d	0.049181152
93	0x3dabad28	0.08382636
94	0x3d48ddc9	0.049039636
95	0x3bb6fa32	0.005584025
96	0xbe809d3e	-0.25119966
97	0xbd701db6	-0.058622085
98	0xbe55e291	-0.2088721
99	0xbe29cf31	-0.16582943
100	0x3d63bbdd	0.055599082
101	0xbca3e4db	-0.020006588
102	0x3e055c4a	0.13023487
103	0xbde54c3a	-0.1119618
104	0xbe0bc153	-0.13647966
105	0xbd436e8b	-0.047712844
106	0xbb0b317a	-0.0021239207
107	0xbd8501c6	-0.06494479
108	0xbda744b6	-0.081674024
109	0xbde4df8b	-0.1117545
110	0x3d033e01	0.032041553
111	0x3c815f15	0.015792409
112	0xbe0303bc	-0.12794393
113	0xbe0e40a2	-0.13891843
114	0xbd8e92aa	-0.06961568
115	0xbc8cb02d	-0.01717385
116	0x3aed15e0	0.0018088184
117	0x3e559c05	0.20860298
118	0x3e051501	0.12996294
119	0xbd0197e1	-0.031638984
120	0xbe58608c	-0.2113058
121	0x3c5783f5	0.01315402
122	0xbdefa04f	-0.11700498
123	0xbd70bbf1	-0.058772985
124	0x3e0e2c41	0.13884069
125	0xbdacf183	-0.08444502
126	0xbdb1366d	-0.08652959
127	0xbc713162	-0.014721246
128	0xbbe744c6	-0.007057759
129	0x3e011d19	0.12608756
130	0x3d3def60	0.046370864
131	0x3c1fb9b1	0.009748862
132	0x3bd547ec	0.006508818
133	0x3e627e8c	0.22118586
134	0x3e4d76f9	0.20064916
135	0x3c5b129f	0.013371139
136	0x3dd9e5b9	0.10639519
137	0x3e03cc11	0.12870814
138	0xbdab413f	-0.08362054
139	0x3e42e841	0.1903391
140	0x3e68d7ca	0.22738567
141	0x3e89e3bf	0.2693157
142	0x3e79c686	0.24392137
143	0x3eccbd74	0.3998829
144	0x3d1652c5	0.03670003
145	0xbd1ab486	-0.037769817
146	0xbe45743a	-0.19282618
147	0xbdcc5c6b	-0.09978565
148	0x3e13a7f0	0.14419532
149	0x3df9e483	0.12201788
150	0xbcd2e46b	-0.025743684
151	0x3e261cc0	0.16221905
152	0x3e0a7410	0.13520837
153	0xbd267280	-0.04063654
154	0x3e5412c5	0.20710285
155	0x3d747fc9	0.059692178
156	0x3e6c7b60	0.23093939
157	0x3e57c131	0.2106979
158	0x3da1d22e	0.07901417
159	0x3e0196aa	0.1265513
160	0xbd1b586c	-0.037926123
161	0xbc378cf1	-0.011203037
162	0x3e417f31	0.18896176
163	0x3e13a8ba	0.14419833
164	0xbddad09e	-0.10684322
165	0xbd47e14f	-0.048798855
166	0xbda65ea6	-0.081235215
167	0x3d703b8c	0.05865054
168	0x3ee8d9aa	0.45478565
169	0x3ea5778b	0.32317767
170	0x3e5b5914	0.214207
171	0x3ec7a2fd	0.38991538
172	0xbd4c6cf8	-0.04990861
173	0x3e2d649b	0.16932909
174	0x3e3cc2a3	0.18433623
175	0x3e43127e	0.19050023
176	0x3ce0642c	0.027391516
177	0x3cf6ef20	0.03014332
178	0x3c28ca7c	0.010302182
179	0xbd8362d8	-0.06415337
180	0xbdc55c3c	-0.09636733
181	0x3d5696d8	0.05238995
182	0xbcac6078	-0.021042094
183	0xbdc11198	-0.09427184
184	0xbda03d9d	-0.07824252
185	0xbd0dd799	-0.034629438
186	0x3ccecb82	0.025243524
187	0x3d98ea7f	0.074666016
188	0xbe993d7f	-0.2992973
189	0xbe7fcb57	-0.24979912
190	0xbec36a5a	-0.38167077
191	0xbe985d34	-0.29758608
192	0x3cc67a81	0.024228336
193	0xbe0ecc5a	-0.13945141
194	0x3db4715c	0.08810684
195	0x3d1b6df7	0.037946668
196	0xbdda13e4	-0.10648325
197	0xbc8d3381	-0.017236473
198	0xbd8164e3	-0.06318071
199	0x3c8b84a5	0.017031023
200	0xbb18014c	-0.0023194132
201	0xbe163d49	-0.14671816
202	0x3da639a2	0.08116461
203	0xbd83e602	-0.06440355
204	0xbc220c87	-0.009890682
205	0x3ce64e6b	0.028113564
206	0x3d4ccc4f	0.04999953
207	0xbd808bac	-0.0627664
208	0xbc4024c5	-0.011727517
209	0xbc669ebd	-0.014075932
210	0x3ddd80bf	0.10815572
211	0xbe243c65	-0.16038664
212	0x3d6e96d7	0.05824932
213	0x38953818	7.115322e-05
214	0x3d1b6342	0.037936457
215	0x3cce0355	0.025148073
216	0xbe4b366c	-0.19844979
217	0xbe211a59	-0.15732707
218	0xbdaa9a11	-0.08330167
219	0xbdf2758b	-0.11838826
220	0xbd1bacd7	-0.03800663
221	0x3e0d1a43	0.1377955
222	0x3e2b0086	0.16699418
223	0x3da9ab63	0.082846425
224	0xbdbaaf84	-0.09115508
225	0x3d9d492a	0.076799706
226	0x3d97361a	0.07383366
227	0x3c3331eb	0.010937194
228	0xbdf9a76c	-0.12190136
229	0x3d78a778	0.060706586
230	0xbda18a93	-0.07887759
231	0x3d6bce03	0.057569515
232	0xbe0964ab	-0.13417308
233	0x3a89e50a	0.001052053
234	0xbdf29ad1	-0.11845935
235	0xbe013e46	-0.12621412
236	0xbd3a3d23	-0.04546846
237	0xbd978b1d	-0.07399581
238	0xbe04006f	-0.1289079
239	0xbbdd00e9	-0.0067444933
240	0x3e030744	0.1279574
241	0x3d0d1ed9	0.034453247
242	0x3dcc6c9a	0.099816516
243	0x3aed2fcb	0.0018095908
244	0xbdace549	-0.0844217
245	0x3e024a1f	0.12723587
246	0xbdc3c07d	-0.095581986
247	0xbdb36c71	-0.08760918
248	0x3c2e0ee4	0.010623667
249	0xbbd1f806	-0.0064077405
250	0x3d939628	0.072063744
251	0x3dce5636	0.10075037
252	0x3ed25438	0.4107988
253	0x3e34701d	0.17620893
254	0x3e98856d	0.29789296
255	0x3ed47ac1	0.41499904

dec_layer_2.1.bias f4 [8]
0	0x3d04d9b9	0.0324342
1	0x3abdf037	0.0014491145
2	0x3db26efb	0.08712574
3	0xbd19318a	-0.03740076
4	0xbe4c92bd	-0.19977851
5	0x3d478860	0.04871404
6	0xbcd7fa09	-0.026364343
7	0x3dbaca5f	0.091206305

dec_layer_3.1.weight f4 [3, 8, 2, 2]
0	0x3e38f79a	0.18063203
1	0x3e20cbfe	0.15702817
2	0xbde01300	-0.10941124
3	0xbd00ceb3	-0.031447124
4	0x3e95d50e	0.2926411
5	0x3e397041	0.18109228
6	0xbc91ac35	-0.01778231
7	0x3d94a363	0.07257726
8	0xbe612455	-0.21986516
9	0xbe8418a4	-0.2580005
10	0xbe89c309	-0.26906613
11	0xbe74a09b	-0.23889391
12	0x3e6ea183	0.233038
13	0xbcd4c630	-0.02597341
14	0xbd574c97	-0.052563276
15	0x3e89babf	0.26900288
16	0x3d0ace2e	0.033888035
17	0xbe24fb91	-0.1611159
18	0x3ded8488	0.11597544
19	0xbdf03d45	-0.11730436
20	0x3d9dbcc5	0.077020206
21	0xbe0fa2d8	-0.14026964
22	0x3de452e0	0.1114862
23	0xbe305d10	-0.17223
24	0x3e82d85e	0.255557
25	0x3f0841e2	0.5322553
26	0x3e3fac18	0.18717992
27	0x3e7bdc11	0.24595667
28	0xbe24fcb4	-0.16112024
29	0xbc106fe4	-0.008815739
30	0x3dd54965	0.104143895
31	0x3d3ee4dd	0.04660498
32	0xbd803317	-0.062597446
33	0x3d94ee2d	0.07271991
34	0xbd425444	-0.047443643
35	0xbde5315e	-0.11191057
36	0x3d594a7d	0.053049553
37	0xbda79ac7	-0.08183818
38	0xbe6565d4	-0.22402126
39	0xbe61d6ba	-0.22054568
40	0xbe543cbf	-0.20726298
41	0x3d695941	0.056969885
42	0xbe700467	-0.2343918
43	0xbe44e4c5	-0.19227894
44	0xbe0cf069	-0.13763584
45	0xbe10414b	-0.14087407
46	0x3dabbb29	0.08385307
47	0xbddd4116	-0.1080343
48	0x3de151f8	0.110019624
49	0xbe0d92f8	-0.13825595
50	0x3ddc6c24	0.10762814
51	0xbe4a37f0	-0.19747901
52	0x3cdbb652	0.026820336
53	0xbd874fc3	-0.0660701
54	0x3e538f44	0.2066012
55	0xbd4770cc	-0.048691556
56	0x3dea2094	0.11431995
57	0x3ca4ff08	0.02014114
58	0x3dc6564d	0.09684429
59	0x3dcf36ef	0.101178996
60	0x3e8726f1	0.26396897
61	0x3e8ba11c	0.27271354
62	0x3e603eda	0.21898976
63	0x3e0963d3	0.13416986
64	0x3e7f9aca	0.24961391
65	0x3d8baa5e	0.06819604
66	0xbcca5af5	-0.024701575
67	0x3e3967e4	0.18106037
68	0xbe5e0346	-0.21680936
69	0xbe164bc7	-0.14677344
70	0xbe3a3227	-0.18183194
71	0xbd06d9a5	-0.032922406
72	0xbdcd9346	-0.10037856
73	0xbde03b85	-0.109488524
74	0x3da87cc0	0.08226919
75	0xbe30d0fe	-0.17267224
76	0x3e087a71	0.13327958
77	0xbcb30b9d	-0.021856124
78	0x3e2bf59c	0.16792911
79	0x3e2b548c	0.16731471
80	0xbe02f9ba	-0.12790576
81	0xbdb7c9a8	-0.0897401
82	0xbe03933e	-0.12849137
83	0x3e48fafb	0.19626991
84	0x3ead33a9	0.33828476
85	0x3e764701	0.24050523
86	0x3e7d2aa3	0.24723296
87	0x3e69ba70	0.22825027
88	0x3e34d196	0.17658076
89	0x3d862add	0.06551144
90	0xbddb2874	-0.10701075
91	0xbdd198e1	-0.102342375
92	0xbd57d5a3	-0.052693974
93	0x3d072c84	0.033001438
94	0xbdf1ddd3	-0.11809888
95	0x3d39b857	0.045341816

dec_layer_3.1.bias f4 [3]
0	0x3e5e2ea8	0.21697485
1	0xbd04cec8	-0.032423764
2	0x3d917ccf	0.071038835
