save/small_2/model_small_2.pt (torch, 28443 bytes, 12 tensors)

enc_layer_1.0.weight f4 [16, 3, 5, 5]
0.10862836 -0.010564747 -0.029296868 0.097944975 0.048042092 -0.05821094 0.060403902 -0.016997205
-0.08242899 0.05691624 0.04357368 0.09508835 0.105553135 -0.09760091 0.08856285 0.079902865
0.0017040399 0.0492427 0.09216965 -0.07576697 -0.00021695162 0.03484325 -0.033333138 -0.0657165
0.045752484 0.09011422 0.013848122 0.07120196 0.009923042 -0.054768473 -0.028517075 0.12287289
0.017902188 -0.045081835 0.11892253 0.0021040626 -0.021834997 0.061644938 0.03982849 0.13599868
-0.03580608 0.0024163793 0.038810246 -0.05402187 0.13657457 0.031708498 0.07444373 -0.0071858536
0.10281507 -0.08887383 0.029044107 0.03114032 -0.021669991 -0.03554142 -0.027454648 -0.043208566
0.053996317 0.053946357 0.10806222 -0.07374643 -0.045682345 -0.027976187 0.08240893 -0.07999298
-0.06395037 -0.09844398 0.032414455 -0.0056749904 -0.014598642 -0.10145307 -0.11328961 0.07420373
-0.091979444 -0.088882394 -0.044521283 -0.08291053 -0.08194173 -0.084464595 0.043400664 -0.029383808
-0.010869664 0.11613839 -0.04644263 0.09475097 0.033874623 -0.0015607964 0.1244102 0.12976882
-0.06962705 -0.041241903 0.03541572 -0.100155585 0.09620251 0.07253258 0.05001741 0.022659156
0.09819149 0.021106133 -0.0056069884 0.047644142 -0.10701922 -0.056314778 -0.15045005 -0.062381573
-0.0055058016 0.01450715 0.14358106 -0.013530483 0.14964208 0.08218186 0.11866099 0.12606514
-0.020414283 0.1062496 0.076558664 0.05503959 -0.055079296 -0.015895838 0.13900687 0.10170344
0.066999964 0.12948462 -0.03829714 -0.009143932 -0.079147585 -0.105678834 -0.06545783 0.00640309
-0.093698174 -0.14600176 0.08644507 -0.061269734 0.02665989 0.11194206 0.059464008 0.06802958
-0.023474472 0.040085837 -0.04676537 0.06330104 0.04405828 -0.004929377 0.08062379 0.14801328
0.09564008 0.118891455 -0.021794237 0.058914557 0.025576841 0.11581874 0.074501365 -0.022302382
-0.109707214 -0.03848449 -0.13785225 -0.05871092 -0.05237409 -0.04697277 -0.022377575 -0.080194116
-0.10593165 0.010989702 0.068846844 -0.054405678 0.03594051 -0.02522129 0.07600208 -0.046663493
-0.08702598 -0.06364349 -0.06558304 -0.06791525 -0.09320293 0.08646054 -0.013599033 0.10603058
0.14862277 0.060598593 -0.019559283 0.11624322 -0.0008149381 0.02797458 -0.06679112 -0.07450048
0.1190344 0.048305776 -0.071211174 -0.0148890475 -0.003531821 0.12408897 0.09668135 -0.034452006
0.027051711 -0.018689128 0.058413636 0.064417645 -0.04947038 0.016628768 0.14644338 -0.0066991216
0.07560541 0.045685235 0.05713349 0.02878024 0.06582433 -0.08815961 -0.050795883 0.03935324
-0.058806393 0.089063935 -0.05824235 -0.112811275 -0.08472728 0.060580887 -0.0057801614 -0.09226404
-0.06432121 0.041837037 0.019677062 -0.09464681 -0.011608454 -0.07647321 -0.03357069 0.08707955
-0.0781353 -0.10544408 0.042664867 -0.10511884 0.03764957 0.009906126 -0.0043939603 0.034746982
0.07447747 0.07148466 -0.015754249 -0.030760087 -0.027958967 0.08853278 -0.10215881 0.029199881
0.024612587 0.0038670092 -0.03533572 -0.06492839 0.052160416 0.031725414 0.039470382 -0.022810796
-0.02060864 -0.0074696653 -0.109629124 -0.1003083 0.04142639 0.11288179 -0.06261555 0.016056852
00000000: 8c78 de3d c317 2dbc fcff efbc 6097 c83d
00000010: c9c7 443d 986e 6ebd 156a 773d b93d 8bbc
00000020: 88d0 a8bd 0121 693d 517a 323d aebd c23d
00000030: 3e2c d83d fce2 c7bd 7160 b53d 1da4 a33d
00000040: 175a df3a b7b2 493d 71c3 bc3d b72b 9bbd
00000050: 827d 63b9 ccb7 0e3d 5488 08bd 5f96 86bd
00000060: f566 3b3d ce8d b83d 3ce3 623c 55d2 913d
00000070: 4194 223c e854 60bd a49c e9bc c8a4 fb3d
00000080: 9ca7 923c bba7 38bd a88d f33d 50e4 093b
00000090: 4fdf b2bc 677f 7c3d 3323 233d 3d43 0b3e
000000a0: 65a9 12bd 1e5c 1e3b 7ef7 1e3d 0946 5dbd
000000b0: 34da 0b3e c5e0 013d f475 983d 4f77 ebbb
000000c0: b590 d23d 7c03 b6bd e8ed ed3c fc19 ff3c
000000d0: 4485 b1bc e193 11bd 92e8 e0bc 77fb 30bd
000000e0: 3e2b 5d3d dbf6 5c3d ba4f dd3d 5e08 97bd
000000f0: 691d 3bbd 512e e5bc 03c6 a83d 5cd3 a3bd
00000100: 69f8 82bd ff9c c9bd 05c5 043d 45f5 b9bb
00000110: 242f 6fbc a1c6 cfbd 6204 e8bd 20f8 973d
00000120: b85f bcbd f907 b6bd f35b 36bd ffcc a9bd
00000130: 11d1 a7bd c6fb acbd e5c4 313d 50b6 f0bc
00000140: ad16 32bc f7d9 ed3d a13a 3ebd cc0c c23d
00000150: 1ec0 0a3d a393 ccba c6ca fe3d 1ee2 043e
00000160: a098 8ebd 45ed 28bd 1310 113d 5f1e cdbd
00000170: d205 c53d f68b 943d 0edf 4c3d b29f b93c
00000180: 9f18 c93d c5e6 ac3c d4ba b7bb 8126 433d
00000190: e52c dbbd 53aa 66bd 940f 1abe d283 7fbd
000001a0: 036a b4bb 66af 6d3c ea06 133e f5ae 5dbc
000001b0: c63b 193e f74e a83d 8804 f33d 3817 013e
000001c0: db3b a7bc 6499 d93d caca 9c3d 3171 613d
000001d0: d49a 61bd fd37 82bc d157 0e3e e549 d03d
000001e0: 4737 893d 9e97 043e 76dd 1cbd 6ed0 15bc
000001f0: 2118 a2bd 256e d8bd c10e 86bd 03d1 d13b
00000200: d4e4 bfbd 7c81 15be 1d0a b13d f9f5 7abd
00000210: d765 da3c e141 e53d 8890 733d 1853 8b3d
00000220: 894d c0bc 0c31 243d 0b8d 3fbd faa3 813d
00000230: 7476 343d 9d86 a1bb 161e a53d cb90 173e
00000240: f2de c33d 5d7d f33d d489 b2bc 6450 713d
00000250: 8686 d13c 6032 ed3d 2c94 983d 7cb3 b6bc
00000260: 2dae e0bd eaa1 1dbd 2429 0dbe dd7a 70bd
00000270: 3786 56bd 8566 40bd 2d51 b7bc d03c a4bd
00000280: b1f2 d8bd 270e 343c 93ff 8c3d 7dd8 5ebd
00000290: 5b36 133d e19c cebc fba6 9b3d 3822 3fbd
000002a0: ad3a b2bd 8557 82bd 6750 86bd 2717 8bbd
000002b0: 2ee1 bebd 3912 b13d 7ace 5ebc 9026 d93d
000002c0: 9130 183e 3b36 783d ca3a a0bc ed10 ee3d
000002d0: 92a1 55ba f22a e53c c8c9 88bd b593 98bd
000002e0: 4fc8 f33d 47dc 453d 2ad7 91bd 31f1 73bc
000002f0: 2076 67bb 5c22 fe3d df00 c63d 8c1d 0dbd
00000300: 8d9b dd3c f119 99bc 2343 6f3d 66ed 833d
00000310: 74a1 4abd 0e39 883c 41f5 153e 4e84 dbbb
00000320: 02d7 9a3d 7120 3b3d ce04 6a3d 8ac4 eb3c
00000330: e8ce 863d 078d b4bd 580f 50bd dd30 213d
00000340: f9de 70bd 2767 b63d 888f 6ebd 9909 e7bd
00000350: 7f85 adbd aa23 783d 8267 bdbb eef4 bcbd
00000360: d7ba 83bd 505d 2b3d ca31 a13c 30d6 c1bd
00000370: 6331 3ebc fc9d 9cbd 6b81 09bd c356 b23d
00000380: 6605 a0bd 11f3 d7bd 5bc1 2e3d 8c48 d7bd
00000390: 6f36 1a3d 4e4d 223c 36fb 8fbb da52 0e3d
000003a0: a587 983d 8d66 923d 0e0f 81bc 94fc fbbc
000003b0: 340a e5bc ad50 b53d a338 d1bd 9734 ef3c
000003c0: 56a0 c93c a66d 7d3b 30bc 10bd 2df9 84bd
000003d0: 29a6 553d 82f2 013d b2ab 213d b5dd babc
000003e0: 73d3 a8bc 18c4 f4bb 3c85 e0bd 706e cdbd
000003f0: b8ae 293d 912e e73d 953c 80bd a989 833c

enc_layer_1.0.bias f4 [16]
-0.070535995 -0.09135615 -0.06298241 0.009531008 -0.109335534 0.13569893 -0.107006185 -0.06893944
-0.002921789 0.03381958 -0.06490408 -0.06355285 0.027473606 0.07259028 0.082546294 0.016032105
00000000: 2d75 90bd ef18 bbbd ecfc 80bd f227 1c3c
00000010: 4feb dfbd a9f4 0a3e 0f26 dbbd 1f30 8dbd
00000020: 7c7b 3fbb 6686 0a3d 6eec 84bd ff27 82bd
00000030: 5410 e13c 36aa 943d 080e a93d c355 833c

enc_layer_2.0.weight f4 [4, 16, 3, 3]
0.081641294 -0.03683034 -0.065160334 -0.0027804817 0.019256841 0.09009821 0.11516625 0.10583747
0.015772218 0.044457417 -0.06594883 -0.07374921 0.033304363 0.027469471 -0.0077039045 -0.01613862
-0.048330996 0.008380604 0.085426986 0.06890039 0.0510925 0.024312606 0.0014329659 0.007722187
0.112207845 0.07751404 -0.023589062 -0.0011081148 0.067532875 0.03335544 -0.017107338 0.10654983
0.09171566 -0.020975465 0.025430202 -0.0046625156 0.042019736 0.09882896 0.13175778 0.09275451
0.15645456 0.122466475 0.057497866 0.112315424 0.15424329 -0.09752359 -0.18323635 -0.1853722
-0.12488293 -0.0006646353 -0.13714263 -0.13875175 -0.013888455 -0.13594188 0.09074884 0.14981328
0.1649902 0.10172385 0.11344738 0.08279032 0.05318288 0.1481391 0.11798405 0.074129656
-0.043388415 0.0034127678 0.066543795 0.104455866 0.09388458 -0.037994947 -0.057785194 0.09573291
-0.09853408 -0.12064296 -0.0040442734 -0.044398334 0.07883444 0.034991413 -0.009679933 0.08618123
0.08362199 0.017516375 -0.022680156 -0.03584478 0.00652011 0.06536347 -0.052153554 0.024122769
-0.015534833 0.049597673 0.07692323 0.10007757 0.0944677 0.09386136 0.046251703 0.07031717
-0.0031484645 0.09525316 -0.003463502 0.0073163556 0.056621075 0.0134348525 0.07690515 0.15027301
0.09948334 0.148115 0.10317299 0.019346805 0.035372082 -0.011573683 0.051376894 0.05703874
-0.00958779 0.07981331 0.07543498 0.04259845 -0.013135059 0.08130317 0.028832395 0.042925593
0.101732865 0.00039421907 0.018981392 0.079242915 0.024288902 0.1010356 0.04957407 -0.06794164
0.027380409 0.13093662 -0.019137586 0.0054815365 0.06208129 0.046831638 0.05704313 -0.1357574
-0.11904946 -0.15472405 -0.10820799 -0.08312867 -0.075678386 -0.073166445 -0.038217288 0.04062117
0.014103041 0.10994221 0.10487442 0.02771059 0.03806697 -0.04440842 0.12686001 0.024218686
0.035708793 0.07316862 -0.025503183 -0.03586746 0.032625247 0.01624557 0.011574134 0.020531833
-0.03469779 -0.00075118215 0.087203816 0.09835371 0.03581979 -0.028914684 -0.031537943 0.01604887
0.08235237 0.09391479 -0.026547885 -0.08627654 -0.012650834 -0.018193504 0.065106854 0.0441117
0.090184055 0.089309834 0.039718114 0.09492717 0.07327223 0.09156577 0.13740191 0.05376811
0.04142985 0.15656601 0.12936835 0.17115805 0.047702644 -0.050673593 -0.076066874 -0.08755466
-0.04027929 -0.07930195 -0.04606923 -0.10782213 -0.02879168 -0.10364786 0.033701316 0.0868349
0.005361516 0.08214108 0.12669767 0.10929083 0.126426 0.055153552 0.07071051 -0.03700951
0.014102048 0.01587556 0.03659946 0.08521572 0.11336191 0.10769727 0.061163753 -0.0010933148
-0.08800111 -0.056733083 0.009909008 0.008676935 -0.06459847 -0.016191425 0.08467771 0.01685915
0.0607836 -0.08895343 -0.0048282505 -0.027362378 -0.069414146 0.025873283 0.05037818 -0.054700956
-0.0486497 0.085179806 0.022517536 -0.051091377 0.09705274 -0.030686542 -0.035906862 0.0042447196
0.018314607 0.02046542 0.0035886206 0.0047007976 0.0107206805 0.050687477 0.11669401 0.07157505
0.039137255 0.10935292 0.10814035 0.06427191 0.022270637 0.04127277 -0.10210273 -0.061492413
00000000: 8d33 a73d 69db 16bd c872 85bd be38 36bb
00000010: 86c0 9d3c 6985 b83d 48dc eb3d 51c1 d83d
00000020: bd34 813c fb18 363d 2e10 87bd d309 97bd
00000030: 286a 083d a807 e13c 0971 fcbb 2435 84bc
00000040: b9f6 45bd cd4e 093c 58f4 ae3d a61b 8d3d
00000050: 5f46 513d 3b2b c73c 5bd2 bb3a 660a fd3b
00000060: 3acd e53d aebf 9e3d d93d c1bc 2a3e 91ba
00000070: ad4e 8a3d b79f 083d b024 8cbc cc36 da3d
00000080: 6cd5 bb3d bdd4 abbc 0053 d03c 04c8 98bb
00000090: e31c 2c3d d666 ca3d 83eb 063e 14f6 bd3d
000000a0: a035 203e b4cf fa3d e282 6b3d a105 e63d
000000b0: f4f1 1d3e 73ba c7bd 4fa2 3bbe 36d2 3dbe
000000c0: 9fc2 ffbd ec3a 2eba 1e6f 0cbe f014 0ebe
000000d0: 678c 63bc 5934 0bbe 87da b93d a768 193e
000000e0: 31f3 283e 9854 d03d 1a57 e83d f98d a93d
000000f0: 4bd6 593d c7b1 173e 9fa1 f13d 4ad1 973d
00000100: 0db8 31bd bea8 5f3b 1d48 883d f5ec d53d
00000110: 8f46 c03d 97a0 1bbd 2bb0 6cbd 9e0f c43d
00000120: 3ccc c9bd a813 f7bd d385 84bb 07db 35bd
00000130: f373 a13d 2853 0f3d 9598 1ebc c97f b03d
00000140: 0242 ab3d 807e 8f3c bccb b9bc fad1 12bd
00000150: a6a6 d53b 48dd 853d f79e 55bd 1d9d c53c
00000160: d085 7ebc ee26 4b3d ed89 9d3d 78f5 cc3d
00000170: 4878 c13d 623a c03d 6d72 3d3d 7302 903d
00000180: 7856 4ebb 1714 c33d ecfb 62bb 0abe ef3b
00000190: 80eb 673d db1d 5c3c 7380 9d3d 2be1 193e
000001a0: ecbd cb3d 75ab 173e 5c4c d33d 317d 9e3c
000001b0: 51e2 103d 8b9f 3dbc 9470 523d 74a1 693d
000001c0: 1b16 1dbc 2975 a33d a87d 9a3d b67b 2e3d
000001d0: 6e34 57bc 4782 a63d ea31 ec3c bfd2 2f3d
000001e0: 5259 d03d 30af ce39 dd7e 9b3c 1c4a a23d
000001f0: 85f9 c63c c1eb ce3d 2e0e 4b3d fd24 8bbd
00000200: e14c e03c 4014 063e 6dc6 9cbc 769e b33b
00000210: f348 7e3d 88d2 3f3d 0fa6 693d fd03 0bbe
00000220: 34d0 f3bd fb6f 1ebe 279c ddbd 5d3f aabd
00000230: 45fd 9abd 4ad8 95bd bb89 1cbd 6262 263d
00000240: 7110 673c 6229 e13d 66c8 d63d 5201 e33c
00000250: 1cec 1b3d 9ae5 35bd 97e7 013e 4466 c63c
00000260: 6243 123d 6ed9 953d 0dec d0bc c2e9 12bd
00000270: 0da2 053d 6e15 853c 70a1 3d3c 6032 a83c
00000280: 451f 0ebd fbea 44ba ea97 b23d ab6d c93d
00000290: c6b7 123d 7dde ecbc ee2d 01bd eb78 833c
000002a0: 5ca8 a83d 6656 c03d f37a d9bc c1b1 b0bd
000002b0: 7245 4fbc 8b0a 95bc be56 853d 78ae 343d
000002c0: 6bb2 b83d 13e8 b63d 76af 223d 2d69 c23d
000002d0: c00f 963d d686 bb3d 16b3 0c3e f33b 5c3d
000002e0: 59b2 293d d752 203e 2379 043e 0e44 2f3e
000002f0: d963 433d 1d8f 4fbd f3c8 9bbd dc4f b3bd
00000300: e6fb 24bd 1069 a2bd 17b3 3cbd d9d1 dcbd
00000310: 87dc ebbc 5445 d4bd 640a 0a3d 7fd6 b13d
00000320: a8af af3b 9539 a83d 09bd 013e dfd3 df3d
00000330: d175 013e b1e8 613d acd0 903d 4997 17bd
00000340: 470c 673c 760d 823c 51e9 153d 9485 ae3d
00000350: 4a2a e83d 6390 dc3d d886 7a3d 8f4d 8fba
00000360: ed39 b4bd f360 68bd 6459 223c b429 0e3c
00000370: 344c 84bd e1a3 84bc 826b ad3d 331c 8a3c
00000380: 39f8 783d 372d b6bd 4d36 9ebb 1127 e0bc
00000390: 0129 8ebd 35f4 d33c 5a59 4e3d 1c0e 60bd
000003a0: e844 47bd c072 ae3d b276 b83c 3145 51bd
000003b0: 96c3 c63d 5862 fbbc 1313 13bd 4a17 8b3b
000003c0: 8408 963c 19a7 a73c 102f 6b3b 2609 9a3b
000003d0: cba5 2f3c ac9d 4f3d 45fd ee3d f195 923d
000003e0: 634e 203d 6cf4 df3d b078 dd3d fea0 833d
000003f0: e970 b63c a30d 293d 3c1b d1bd 78df 7bbd

enc_layer_2.0.bias f4 [4]
-0.005008746 -0.032413043 0.015543711 -0.057354815
00000000: 6820 a4bb 8ac3 04bd 0dab 7e3c e2ec 6abd

enc_layer_3.0.weight f4 [8, 4, 3, 3]
0.092142984 0.060243163 0.015622049 -0.21257843 0.0069073997 -0.15858625 -0.27589557 -0.08529092
-0.057288993 0.06387539 -0.007812662 -0.054805025 -0.118779615 -0.018656889 -0.04182725 -0.09495596
0.09642421 -0.06664659 0.061421838 0.15287803 -0.017396942 -0.13671423 -0.113185935 -0.010574265
5.560122e-05 -0.15684614 -0.1982236 -0.0037841804 -0.070357315 -0.1831347 0.016484438 -0.13656855
-0.14297174 0.063280955 -0.19120222 -0.1585454 -0.07916351 0.029323842 0.17629692 0.25501505
0.091615126 0.281443 0.13339747 0.19213015 0.12035527 0.025779389 0.022468856 -0.018662056
0.1724311 0.12758638 -0.08768413 -0.09208574 0.07083325 0.18202317 -0.12936455 -0.041392457
0.011010786 0.29968002 0.010202934 0.19734684 0.062000543 0.17085443 -0.0722855 -0.04251338
0.1042646 -0.064602844 0.031523634 -0.004585911 0.037932605 0.15572353 0.061655276 0.034244366
0.12136137 0.08051064 0.08341254 0.046790995 0.0075767697 0.25977102 0.1844143 0.11829584
0.102318786 -0.005808087 -0.030309938 0.108317375 -0.041274194 -0.035171594 -0.03471196 0.10249246
0.041430105 -0.019590123 -0.0060387496 -0.04711204 -0.081248134 0.04916989 0.2611632 0.027991416
0.036982816 0.16022584 -0.08513948 0.14420694 0.15633377 -0.05738549 0.0012596307 0.13645767
0.22499393 0.14298607 -0.08765903 0.2266278 0.12005785 0.20679346 0.094652504 0.109187074
-0.023691371 0.07225182 0.1480261 -0.005277428 -0.0047706566 -0.034346934 0.13341138 0.11243771
0.14486001 0.22019698 0.21425907 -0.026039954 0.14293016 0.19426498 0.15492585 -0.14634041
-0.13828535 0.031047 0.13910465 0.17412667 0.08692649 0.17400591 0.07207273 0.042256758
0.15516391 -0.07785945 -0.017596103 0.12681077 0.044328835 0.09703626 -0.04819706 0.15449916
-0.06639469 0.19057025 0.054187126 0.075372875 0.16620749 0.12887375 0.26894933 0.24362028
0.14878076 -0.111655325 0.123425506 0.042962838 0.1148819 0.0023436127 0.13527766 -0.11476505
0.055032827 0.10227922 0.0107615935 -0.06812898 -0.12246391 0.32277912 0.2639485 0.20305718
0.06508075 -0.0046031214 0.18997647 0.08292237 -0.039361604 -0.03724978 0.11331411 0.0054924428
0.088467576 0.04984457 0.13981088 0.15239532 0.09473375 0.00428336 -0.09739445 -0.18333438
-0.055775993 -0.1963045 -0.084444664 -0.06365516 -0.22286585 -0.15028843 0.11704419 0.084311284
-0.106539994 -0.035659768 -0.024961533 0.06423816 -0.14040913 0.015212818 0.03599647 0.16350767
-0.038056992 -0.27373743 -0.3319033 -0.21854475 -0.19175377 -0.1837627 -0.1062463 0.16466123
-0.09217275 0.017947355 0.089833744 -0.13887018 -0.17173825 -0.11405623 0.019363364 -0.1525325
-0.0030892538 -0.016411094 -0.09237747 0.18430117 0.07345457 0.2687192 -0.029209167 0.22373383
-0.06566753 0.13955827 -0.1443363 0.06442258 0.0046461327 -0.076023564 -0.09431016 0.008210528
0.0056252927 0.16117293 0.007342567 0.06726371 0.011183562 0.12922414 0.11894236 0.17023501
0.119173564 -0.07917751 0.028395448 0.12991458 0.06435385 -0.0882489 0.15856034 0.062361453
0.032123905 0.041464407 0.18994239 0.15521696 0.036597624 -0.13593751 -0.035243038 0.00969789
00000000: 76b5 bc3d 89c1 763d 9ff3 7f3c 29ae 59be
00000010: 7857 e23b 6f64 22be 2f42 8dbe 02ad aebd
00000020: dda7 6abd 1ad1 823d ae00 00bc 3c7b 60bd
00000030: ba42 f3bd 55d6 98bc 0d53 2bbd 4578 c2bd
00000040: 0e7a c53d 027e 88bd 7795 7b3d 0f8c 1c3e
00000050: 0884 8ebc d1fe 0bbe 07ce e7bd af3f 2dbc
00000060: 5b35 6938 469c 20be 21fb 4abe 0300 78bb
00000070: 7f17 90bd aa87 3bbe 5f0a 873c a0d8 0bbe
00000080: 2f67 12be 7299 813d 84ca 43be ba59 22be
00000090: 7a20 a2bd 8e38 f03c 2e87 343e 5591 823e
000000a0: b6a0 bb3d 4c19 903e 5999 083e c4bd 443e
000000b0: d37c f63d 4c2f d33c 9b10 b83c 2be1 98bc
000000c0: c791 303e 01a6 023e bd93 b3bd 7397 bcbd
000000d0: 0611 913d 4864 3a3e 2478 04be 238b 29bd
000000e0: 9566 343c a96f 993e 352a 273c 4a15 4a3e
000000f0: 48f4 7d3d 77f4 2e3e 6c0a 94bd 8322 2ebd
00000100: ae88 d53d 7f4e 84bd ed1e 013d 6945 96bb
00000110: 385f 1b3d fd75 1f3e 3e8a 7c3d d243 0c3d
00000120: 4f8c f83d c3e2 a43d 32d4 aa3d eaa7 3f3d
00000130: 8d46 f83b b500 853e 1ad7 3c3e 1745 f23d
00000140: 838c d13d c451 bebb 8c4c f8bc 80d5 dd3d
00000150: 210f 29bd 1710 10bd 212e 0ebd 91e7 d13d
00000160: 9db2 293d 777b a0bc b4e0 c5bb 8ef8 40bd
00000170: 6c65 a6bd 5e66 493d 2fb7 853e 414e e53c
00000180: 4b7b 173d 3e12 243e 9c5d aebd fcaa 133e
00000190: f615 203e 0c0d 6bbd 311a a53a 8fbb 0b3e
000001a0: cf64 663e f16a 123e 9486 b3bd 1e11 683e
000001b0: e4e0 f53d aac1 533e 2cd9 c13d 799d df3d
000001c0: 6814 c2bc c3f8 933d 2794 173e 46ee acbb
000001d0: 2b53 9cbb 5faf 0cbd fe9c 083e be45 e63d
000001e0: 2f56 143e 517b 613e bb66 5b3e be51 d5bc
000001f0: 495c 123e 66ed 463e e2a4 1e3e 43da 15be
00000200: ad9a 0dbe 4756 fe3c 7371 0e3e 434e 323e
00000210: 8406 b23d 9b2e 323e de9a 933d 6c15 2d3d
00000220: 4ae3 1e3e c674 9fbd b425 90bc afda 013e
00000230: 2792 353d f2ba c63d 486a 45bd 0735 1e3e
00000240: f0f9 87bd d924 433e 52f3 5d3d 185d 9a3d
00000250: 4c32 2a3e 7bf7 033e bab3 893e 9877 793e
00000260: fc59 183e 8cab e4bd 83c6 fc3d cdf9 2f3d
00000270: 3447 eb3d 4c97 193b 3a86 0a3e f009 ebbd
00000280: 1a6a 613d c577 d13d 6551 303c 3587 8bbd
00000290: 5cce fabd 4e43 a53e 4224 873e 39ee 4f3e
000002a0: 0e49 853d c8d5 96bb 3189 423e 34d3 a93d
000002b0: a239 21bd 3a93 18bd 3a11 e83d f3f9 b33b
000002c0: 7d2e b53d d229 4c3d 952a 0f3e 850d 1c3e
000002d0: c503 c23d 6e5b 8c3b be76 c7bd 02bc 3bbe
000002e0: 5e75 64bd 0c04 49be 53f1 acbd a35d 82bd
000002f0: f236 64be 36e5 19be ddb4 ef3d 65ab ac3d
00000300: a431 dabd fa0f 12bd 217c ccbc 4c8f 833d
00000310: 69c7 0fbe 2f3f 793c 0971 133d 8e6e 273e
00000320: a6e1 1bbd 5027 8cbe 3bef a9be 32ca 5fbe
00000330: 1a5b 44be 4a2c 3cbe a997 d9bd f49c 283e
00000340: 11c5 bcbd 5506 933c c1fa b73d fc33 0ebe
00000350: 27dc 2fbe 5096 e9bd eb9f 9e3c 7b31 1cbe
00000360: 1475 4abb 8f70 86bc 6630 bdbd 72b9 3c3e
00000370: 596f 963d 9095 893e 1048 efbc 7b1a 653e
00000380: b37c 86bd 5de8 0e3e e5cc 13be fcef 833d
00000390: 963e 983b 3eb2 9bbd af25 c1bd 7385 063c
000003a0: 6054 b83b 840a 253e eb99 f03b 8ec1 893d
000003b0: 423b 373c 5553 043e 0d98 f33d 1652 2e3e
000003c0: 4511 f43d d227 a2bd 929d e83c 5408 053e
000003d0: f4cb 833d d7bb b4bd a45d 223e b96e 7f3d
000003e0: 5b94 033d 95d6 293d 4280 423e 32f1 1e3e
000003f0: 64e7 153d 3433 0bbe 015b 10bd e6e3 1e3c

enc_layer_3.0.bias f4 [8]
-0.05758951 0.077138215 -0.025394285 0.11352834 -0.16669865 0.010815896 0.0830059 0.046890683
00000000: fae2 6bbd a4fa 9d3d ad07 d0bc 8c81 e83d
00000010: 0db3 2abe 2835 313c fffe a93d 7210 403d

dec_layer_1.0.weight f4 [8, 12, 3, 3]
-0.09581463 -0.091921665 -0.05149624 -0.09748885 -0.1378893 -0.17214395 0.007795705 -0.118396804
-0.10449957 0.031246185 0.08253914 -0.07421712 -0.021854723 -0.060449135 0.05054083 0.060533814
-0.08996567 -0.089784466 -0.051458128 0.082729675 0.009762588 0.068702474 -0.032661926 -0.06541211
-0.05476278 -0.009164486 -0.039768018 0.04187772 -0.064024426 -0.025559535 -0.10453253 -0.073338374
-0.16315944 -0.12300871 -0.10325945 0.0070050433 0.007563337 -0.06439073 -0.07604892 -0.12316566
-0.09551694 -0.0967546 0.04278913 0.011226196 -0.021007445 0.04351927 0.023337115 -0.05910168
0.0002474712 -0.053489 -0.13872528 -0.061726097 -0.10220794 -0.09977451 -0.039358173 -0.15969637
-0.007106465 -0.11988017 -0.17171225 -0.13829738 -0.12745808 -0.14645177 -0.0509155 -0.007741163
-0.036415763 -0.06438366 -0.083132364 -0.09730461 0.008162104 -0.05726263 -0.015745603 -0.06647379
-0.020687638 -0.05438031 -0.056953315 -0.12990443 -0.13942035 -0.0020043566 -0.07796516 -0.12126263
-0.13381498 0.043221056 -0.006902501 0.031496998 0.01821952 -0.16686653 -0.07110154 -0.11846364
-0.116762236 -0.030132698 0.021607967 -0.08142933 -0.060172033 -0.10342478 -0.0041256244 -0.024953939
-0.073106825 0.01428866 0.022798259 0.089004 -0.04820673 0.08677897 -0.08552472 0.021748038
0.02378581 -0.0654123 0.003891085 0.06295235 -0.037605707 0.015966004 -0.03243201 0.17896971
0.16888657 0.032092974 0.031351753 0.03673705 0.085381776 -0.016058745 0.0035417092 -0.021413643
-0.03711519 -0.025272759 0.11974096 0.042309735 0.09490754 0.039568905 -0.028313009 -0.002997489
0.08867798 0.06211772 -0.047606807 0.006905446 0.07889831 -0.01821806 -0.07236611 0.123111896
0.12380719 -0.006673357 0.13682753 0.03963221 0.14120078 0.10821409 0.06414454 0.09277732
-0.009133881 0.06083088 0.09959379 0.15801863 0.05359428 0.048646998 0.053040404 -0.041431114
0.084267385 0.110835955 0.009883289 -0.006371498 0.11616051 0.039077923 0.050782606 0.111692674
0.11333725 0.021531416 0.03236367 0.013071897 0.0010173825 0.07633429 0.14964503 0.11002411
0.14181402 0.08883909 0.18048398 -0.016494839 0.062181048 -0.0098117795 -0.004837024 0.027559225
0.12956785 0.028448053 0.12915555 -0.03885528 0.13918225 -0.046277013 0.13568814 0.04815668
0.047033563 0.011492018 0.06976799 0.10732962 0.10578649 0.06569952 -0.00059440034 0.111668974
0.18995935 0.07679959 0.15416108 0.12334864 0.014325152 0.014592805 0.018010914 0.13075213
0.10837109 0.077036485 0.023192806 0.08223026 0.074823305 0.037676025 0.0367146 -0.017980076
-0.052194253 -0.04699022 0.058219735 -0.02552782 -0.10481117 0.04045346 -0.088989645 0.003423979
0.0005494145 0.01752678 0.074302696 0.13247459 0.10513857 0.044906426 0.07082382 0.13082604
0.106417805 -0.089351766 0.029754246 -0.066867076 0.0928921 -0.0029795931 -0.035082165 0.041425165
0.078414604 -0.10284245 -0.050193395 -0.07934759 0.1141216 -0.051958267 0.00968717 0.044422
0.04654713 0.058721993 0.089172386 0.034247063 0.0057167765 -0.009137349 0.079630494 0.15726878
0.04041032 0.005935847 0.075914845 -0.032420296 0.028091121 0.009490773 0.06537155 0.011887313
00000000: 763a c4bd 6d41 bcbd b9ed 52bd 3ca8 c7bd
00000010: da32 0dbe 8146 30be 1d73 ff3b 067a f2bd
00000020: df03 d6bd 00f8 ff3c 480a a93d 25ff 97bd
00000030: ad08 b3bc 8399 77bd e703 4f3d 4ef2 773d
00000040: ec3f b8bd ebe0 b7bd c2c5 52bd 2d6e a93d
00000050: 43f3 1f3c e2b3 8c3d 83c8 05bd c9f6 85bd
00000060: f04e 60bd a426 16bc cae3 22bd f987 2b3d
00000070: 3d1f 83bd 3b62 d1bc 2715 d6bd 6e32 96bd
00000080: 4513 27be feeb fbbd b179 d3bd 908a e53b
00000090: dfd5 f73b 49df 83bd 89bf 9bbd 473e fcbd
000000a0: 639e c3bd 4727 c6bd a843 2f3d 14ee 373c
000000b0: ce17 acbc 4341 323d 7a2d bf3c 9a14 72bd
000000c0: 06bf 8139 4817 5bbd 000e 0ebe 81d4 7cbd
000000d0: 6552 d1bd 9456 ccbd 0936 21bd 7287 23be
000000e0: 59dd e8bb bc83 f5bd 56d5 2fbe d49d 0dbe
000000f0: 5f84 02be 74f7 15be c58c 50bd 95a9 fdbb
00000100: b228 15bd 95db 83bd 4d41 aabd a447 c7bd
00000110: 58ba 053c 388c 6abd ecfc 80bc 6923 88bd
00000120: 1f79 a9bc e3bd 5ebd e147 69bd ab05 05be
00000130: 35c4 0ebe 865b 03bb 33ac 9fbd 8b58 f8bd
00000140: cb06 09be 9008 313d 602e e2bb ff02 013d
00000150: 1a41 953c 0fdf 2abe af9d 91bd 119d f2bd
00000160: 0a21 efbd d9d8 f6bc 3103 b13c 6cc4 a6bd
00000170: f376 76bd 5fd0 d3bd 3f30 87bb 346c ccbc
00000180: 08b9 95bd fc1a 6a3c 6ac3 ba3c bb47 b63d
00000190: 6c74 45bd 2cb9 b13d 9627 afbd f128 b23c
000001a0: 76da c23c e2f6 85bd 9301 7f3b 29ed 803d
000001b0: 7108 1abd 23cb 823c 6dd7 04bd d643 373e
000001c0: 9af0 2c3e ec73 033d b26a 003d 9779 163d
000001d0: a4dc ae3d a18d 83bc 051c 683b aa6b afbc
000001e0: 1906 18bd d108 cfbc c03a f53d f94c 2d3d
000001f0: e25e c23d 0113 223d aff0 e7bc 8571 44bb
00000200: cd9c b53d 266f 7e3d 5bff 42bd 1447 e23b
00000210: 7095 a13d 0a3e 95bc af34 94bd 1722 fc3d
00000220: a08e fd3d 2dac dabb 841c 0c3e 6255 223d
00000230: f096 103e 599f dd3d 365e 833d 0902 be3d
00000240: 46a6 15bc cd29 793d d4f7 cb3d a3cf 213e
00000250: ad85 5b3d 1342 473d e540 593d acb3 29bd
00000260: 6194 ac3d f6fd e23d 85ed 213c 00c8 d0bb
00000270: 90e5 ed3d 2c10 203d 6c01 503d 21bf e43d
00000280: 5c1d e83d a762 b03c c58f 043d 832b 563c
00000290: b159 853a 2755 9c3d 8c3c 193e 5254 e13d
000002a0: b237 113e 45f1 b53d cbd0 383e 2f20 87bc
000002b0: 8eb1 7e3d 96c1 20bc e67f 9ebb e2c3 e13c
000002c0: 6fad 043e e40b e93c 5a41 043e b726 1fbd
000002d0: cb85 0e3e f78c 3dbd d5f1 0a3e f03f 453d
000002e0: 44a6 403d 0449 3c3c 85e2 8e3d a2cf db3d
000002f0: 96a6 d83d 788d 863d 88d1 1bba b4b2 e43d
00000300: b484 423e 1a49 9d3d 67dc 1d3e 369e fc3d
00000310: 0bb4 6a3c a916 6f3c a08b 933c e3e3 053e
00000320: a9f1 dd3d 4ec5 9d3d d7fe bd3c 5768 a83d
00000330: f63c 993d 2d52 1a3d 0c62 163d f44a 93bc
00000340: a4c9 55bd d178 40bd d177 6e3d b81f d1bc
00000350: 3da7 d6bd 87b2 253d 3440 b6bd d664 603b
00000360: 9506 103a 5294 8f3c 032c 983d 6ba7 073e
00000370: e452 d73d cdef 373d 140c 913d 43f7 053e
00000380: 94f1 d93d 0ffe b6bd 2dbf f33c 9bf1 88bd
00000390: 373e be3d 4745 43bb 51b2 0fbd 6fad 293d
000003a0: d697 a03d 109f d2bd 9797 4dbd fd80 a2bd
000003b0: 96b8 e93d 31d2 54bd f0b6 1e3c d8f3 353d
000003c0: 34a8 3e3d 7986 703d 03a0 b63d a646 0c3d
000003d0: cc53 bb3b d2b4 15bc 5015 a33d 110b 213e
000003e0: 4b85 253d 7e81 c23b 3e79 9b3d 25cb 04bd
000003f0: 5a1f e63c 307f 1b3c 85e1 853d 01c3 423c

dec_layer_1.0.bias f4 [12]
0.025057694 -0.10398268 -0.12209211 0.02408093 -0.044438098 -0.028536052 0.054833136 -0.05292113
-0.025594689 0.007643718 -0.0382958 -0.10243474
00000000: cb45 cd3c dff4 d4bd 6e0b fabd 5f45 c53c
00000010: b904 36bd 70c4 e9bc b698 603d d4c3 58bd
00000020: f4ab d1bc 2778 fa3b 0fdc 1cbd 4ec9 d1bd

dec_layer_2.0.weight f4 [12, 8, 5, 5]
0.020161772 -0.005600693 -0.0084871305 0.07163302 -0.0010116631 0.062105708 0.08326471 0.10797429
0.08977734 0.0719173 0.09735499 0.0919825 0.045413516 0.10095951 0.08714398 0.11679737
0.12807922 0.04765316 0.111946225 0.01920042 0.09233798 0.03190681 0.09839706 0.084896415
-0.02092275 0.052724402 -0.05366453 -8.480693e-05 -0.050242547 0.007529322 0.043509863 0.031414263
0.05896292 -0.037489507 0.038597155 -0.012581252 0.012384008 -0.0132408105 -0.0012285055 -0.003959407
-0.030355975 0.063165024 -0.043188147 -0.05297633 -0.006027105 0.04685429 0.022108559 0.046697125
0.046449658 -0.04036307 0.07041744 -0.010427266 0.07439711 -0.020720482 -0.058062423 -0.017438784
0.008356264 0.06499245 0.0019008728 0.035134945 0.05061053 0.014145911 -0.0160992 0.034956977
0.014408833 -0.016392618 0.038605656 -0.06642991 0.04941074 -0.043513265 -0.0074881236 -0.031239767
-0.06258272 -0.03538625 0.010234503 0.08906543 0.082446896 0.060942814 0.044775955 0.057722162
0.08491539 0.069294415 0.06359992 0.027990311 0.12298159 0.04438122 0.0063265394 0.05655249
0.11346187 0.10763104 0.04491487 0.074434325 0.09334711 0.057647444 0.08800783 -0.006993778
0.035443857 0.055856727 0.0931037 0.11467328 0.044323094 0.011046412 -0.05824403 -0.054090697
-0.021868518 -0.04109856 0.083582826 0.030617237 0.07753115 -0.06382344 -0.0012293028 -0.042137746
0.06672383 -0.057073206 0.008733831 -0.010860723 0.025146555 0.073093474 -0.042016722 0.05488684
-0.051682338 -0.032385577 -0.0065653184 -0.04840622 0.02886325 -0.041117657 0.023753505 -0.04667742
-0.053561583 -0.048659414 0.0019683244 -0.017316896 0.04277302 -0.053311873 0.015830632 0.005025604
-0.04815834 0.028285004 0.056308772 -0.04231781 -0.05842332 -0.022625733 0.054624107 -0.050968967
0.013452373 0.05842106 0.04098263 0.012293565 -0.010779278 0.017179681 0.057070155 0.023047961
0.065190434 0.08417516 0.01685188 0.018511012 0.09632959 0.06736034 0.06418807 0.033649456
0.060713258 0.026019493 0.071863905 0.08000168 0.09145515 0.073187836 0.03806623 0.088933505
-0.011643026 0.007947165 0.032086387 0.05948693 0.08676303 0.07666581 -0.023008987 0.01020161
0.012818759 0.037268605 0.041819356 -0.03455195 -0.004432318 0.057304796 0.011817824 -0.034780256
-0.023632498 -0.01756687 0.013906069 0.08301769 0.07597253 -0.025743544 0.016142828 0.04448864
-0.05094988 0.003371636 0.0011293213 -0.048499223 -0.03346591 -0.064319596 0.02024273 0.034105647
0.07105682 -0.03452681 0.032090567 0.018936768 0.03889405 0.06996017 0.101527944 0.06619072
0.052738428 -0.01955711 0.027203133 0.08333693 -0.010755756 -0.035239995 0.017158384 0.01490687
-0.035721645 0.02993348 0.017372148 -0.043006666 0.077704534 0.052667823 0.016372183 -0.052735522
0.063153505 0.02928482 0.014948946 0.052459642 -0.030956851 -0.07595468 0.00811121 -0.014228286
0.020730171 -0.023370335 -0.034094438 0.09000259 0.054231215 -0.0029150143 0.010942128 -0.008445372
0.007651116 0.054176454 0.0026061311 0.041343596 -0.054656588 0.048698645 0.094344825 0.00046616935
-0.027645683 -0.0038925295 -0.056598205 -0.06521546 -0.026965264 -0.031415734 -0.025873698 0.066861674
00000000: 4d2a a53c 0586 b7bb 9b0d 0bbc 55b4 923d
00000010: c899 84ba 8e62 7e3d b086 aa3d a021 dd3d
00000020: 2fdd b73d 6149 933d 0e62 c73d 5261 bc3d
00000030: 8603 3a3d dcc3 ce3d 8b78 b23d 7633 ef3d
00000040: 3327 033e f62f 433d 1044 e53d 334a 9d3c
00000050: b21b bd3d b7b0 023d 6684 c93d 2cde ad3d
00000060: 3066 abbc 8bf5 573d 57cf 5bbd 60da b1b8
00000070: 21cb 4dbd 88b8 f63b 6637 323d 3eac 003d
00000080: 1a83 713d 998e 19bd 0d18 1e3d 9821 4ebc
00000090: 4be6 4a3c fcef 58bc ce05 a1ba eabd 81bb
000000a0: 18ad f8bc aa5c 813d 0ee6 30bd b5fd 58bd
000000b0: 057f c5bb 49ea 3f3d 021d b53c 7c45 3f3d
000000c0: ff41 3e3d bf53 25bd 0537 903d 20d7 2abc
000000d0: 835d 983d 00be a9bc ddd2 6dbd c8db 8ebc
000000e0: b6e8 083c c31a 853d b526 f93a a9e9 0f3d
000000f0: fd4c 4f3d 40c4 673c 78e2 83bc 0c2f 0f3d
00000100: 0713 6c3c d049 86bc f720 1e3d 680c 88bd
00000110: eb62 4a3d f73a 32bd ef5e f5bb 8aea ffbc
00000120: 5e2b 80bd 2cf1 10bd 9eae 273c f067 b63d
00000130: ebd9 a83d 2c9f 793d fe66 373d 136e 6c3d
00000140: 1fe8 ad3d 3bea 8d3d ad40 823d f04b e53c
00000150: c6dd fb3d 15c9 353d dc4e cf3b 95a3 673d
00000160: b25e e83d aa6d dc3d a8f8 373d 0671 983d
00000170: c52c bf3d ba1f 6c3d 733d b43d 102c e5bb
00000180: 942d 113d 06ca 643d 27ad be3d d3d9 ea3d
00000190: 228c 353d 03fc 343c 4b91 6ebd 358e 5dbd
000001a0: 9b25 b3bc f756 28bd 792d ab3d 00d1 fa3c
000001b0: a7c8 9e3d ddb5 82bd 8f20 a1ba a198 2cbd
000001c0: 81a6 883d 98c5 69bd 5818 0f3c 2df1 31bc
000001d0: 2600 ce3c 08b2 953d ba19 2cbd 06d1 603d
000001e0: dcb0 53bd bda6 04bd e221 d7bb 9a45 46bd
000001f0: 9f72 ec3c fd6a 28bd b696 c23c d330 3fbd
00000200: 6463 5bbd 184f 47bd 01ff 003b 2adc 8dbc
00000210: c332 2f3d 8d5d 5abd 3eaf 813c d2ad a43b
00000220: ae41 45bd f4b5 e73c 07a4 663d 7155 2dbd
00000230: 4b4d 6fbd 9a59 b9bc 87bd 5f3d d6c4 50bd
00000240: 5867 5c3c ec4a 6f3d 67dd 273d f36a 493c
00000250: 929b 30bc 67bc 8c3c 65c2 693d 14cf bc3c
00000260: 9082 853d 0764 ac3d f40c 8a3c 68a4 973c
00000270: 7348 c53d 38f4 893d 0975 833d 03d4 093d
00000280: 77ae 783d d526 d53c 622d 933d ecd7 a33d
00000290: d64c bb3d 81e3 953d 56eb 1b3d c522 b63d
000002a0: 64c2 3ebc d334 023c 046d 033d 91a8 733d
000002b0: d1b0 b13d f702 9d3d 587d bcbc a724 273c
000002c0: c605 523c f7a6 183d c64a 2b3d 5886 0dbd
000002d0: fa3c 91bb 6fb8 6a3d 8c9f 413c be75 0ebd
000002e0: f198 c1bc 66e8 8fbc 48d6 633c 2e05 aa3d
000002f0: 7c97 9b3d 20e4 d2bc f73d 843c b839 363d
00000300: d2b0 50bd aaf6 5c3b bc05 943a 1fa7 46bd
00000310: 8d13 09bd feb9 83bd 15d4 a53c 5db2 0b3d
00000320: 3d86 913d fc6b 0dbd 6671 033d 4821 9b3c
00000330: 5e4f 1f3d 4747 8f3d e2ed cf3d 008f 873d
00000340: 4004 583d 3b36 a0bc 1bd9 de3c 8dac aa3d
00000350: e938 30bc d057 10bd bd8f 8c3c f23b 743c
00000360: dc50 12bd 0f37 f53c 0950 8e3c c227 30bd
00000370: 8e23 9f3d 37ba 573d f51e 863c 3401 58bd
00000380: a056 813d b8e6 ef3c 6dec 743c ecdf 563d
00000390: 3999 fdbc 218e 9bbd e1e4 043c c21d 69bc
000003a0: 52d2 a93c 2573 bfbc 9ca6 0bbd 4753 b83d
000003b0: 8d21 5e3d d309 3fbb 9c46 333c 755e 0abc
000003c0: 36b6 fa3b 21e8 5d3d a0cb 2a3b e757 293d
000003d0: 96df 5fbd 3b78 473d dc37 c13d 3168 f439
000003e0: 3379 e2bc cf19 7fbb 85d3 67bd af8f 85bd
000003f0: 42e6 dcbc c9ad 00bd 14f5 d3bc c6ee 883d

dec_layer_2.0.bias f4 [8]
-0.011088079 0.0088126175 0.004576722 -0.07750431 -0.095754065 -0.11952377 0.12668061 -0.028998364
00000000: c6aa 35bc cc62 103c 54f8 953b 94ba 9ebd
00000010: b51a c4bd e1c8 f4bd 90b8 013e fa8d edbc

dec_layer_3.0.weight f4 [8, 3, 5, 5]
-0.06637536 -0.11188716 -0.04229477 -0.07285356 -0.040913086 -0.12721203 0.060212895 -0.07319771
-0.07301118 0.032048967 -0.032339416 0.04288428 0.0013323933 -0.09744795 -0.13265903 0.06762505
-0.013176356 -0.124640755 -0.09546337 -0.013456077 0.0165436 -0.06393418 0.09189667 0.038317572
-0.119526826 0.11781837 -0.08296544 0.03208498 0.05216294 -0.012163939 0.076949805 0.0009878406
0.020018507 0.043950267 -0.022414107 0.010390319 0.04747909 0.12894855 0.0029475745 0.09649563
-0.034671474 0.13732585 -0.06481669 -0.032682206 0.012555928 0.11695204 0.083479814 0.0066983993
0.033174146 0.09550525 0.10545428 -0.047595106 0.06797957 0.098055616 0.006773398 0.034522526
0.10383529 0.1058912 -0.056019418 -0.03458479 0.038295165 0.105828226 0.07852713 -0.0612893
0.113732524 0.009605763 -0.058186755 0.13310334 0.1362166 0.005579234 0.11489216 0.0019881858
0.006038022 -0.053102504 -0.008245814 -0.055893168 -0.02147908 -0.055457663 -0.017429285 -0.0063461885
-0.07413744 0.049281 0.10965889 -0.0843124 -0.10142085 -0.088557646 0.08571678 0.03341961
-0.07307712 -0.1070205 0.0074932226 -0.021587446 0.03718653 0.062221598 -0.059171535 0.0043342593
-0.015296794 -0.04369808 -0.010622319 0.021621976 0.0010226519 -0.052702636 0.0916403 0.08562532
-0.006846347 0.018059244 0.0673743 0.13468072 0.04203981 0.08606591 0.053228997 0.10248017
0.11631709 0.058551256 -0.029790133 -0.009745709 0.054876942 0.011531437 0.022588719 0.044219423
0.08411037 -0.022511909 -0.035182714 -0.09879133 -0.013654446 -0.030218568 0.062333737 -0.052916966
0.011968638 0.04621124 0.13391623 -0.048001353 -0.01552556 0.06049056 0.13896172 -0.07751877
-0.011300983 0.00020799883 0.070821874 -0.04044139 0.14703742 0.05438099 0.10770136 0.05865132
0.13449302 -0.09297445 -0.06296954 -0.056814965 -0.04235263 0.10990465 0.008203544 -0.06713442
0.08539444 -0.031539783 0.12515189 0.086376674 -0.019513506 0.037348036 0.022994693 0.017962307
-0.0032021413 0.07638713 0.03223711 -0.01272981 -0.0024799074 0.07980474 0.05640229 -0.011479951
0.021906227 -0.097025484 -0.0035840317 0.005754201 0.024381232 -0.10260755 -0.0024783714 0.11433731
0.0457456 0.03408702 0.10555812 -0.07910176 -0.022935327 0.07238672 0.12902477 0.056320496
-0.09486982 0.08594354 -0.09325756 -0.005972545 -0.032807186 -0.00417627 0.021712922 0.053145934
0.10007095 -0.056803014 -0.08154352 -0.018330412 -0.01820871 -0.04379094 0.09951118 -0.08703601
0.050037112 0.06118833 -0.06363263 0.036761858 -0.024218276 0.010536091 -0.038081843 -0.04418548
0.11630368 0.048363358 0.079476394 0.0068639275 0.11604258 0.12757427 -0.019878825 0.07625769
0.041269552 0.12527815 -0.0065448107 0.030914608 0.046717174 -0.032604575 0.055003427 -0.014868188
0.028763535 -0.07319852 -0.15822466 -0.038982417 0.034793165 -0.075320005 -0.011959873 -0.15644264
-0.10236308 -0.17432682 -0.035358075 -0.1673866 -0.14990517 -0.18764444 -0.053488128 -0.020467494
-0.16999453 -0.11476137 -0.20592636 -0.03569715 -0.005545408 -0.1273297 -0.06211705 -0.15512022
-0.011595935 -0.14533609 -0.1322573 0.005112629 0.012120916 -0.048893448 -0.15565516 -0.029416319
00000000: ceef 87bd 1825 e5bd 483d 2dbd 3f34 95bd
00000010: 7b94 27bd df43 02be cca1 763d aee8 95bd
00000020: e386 95bd c745 033d 5676 04bd 6da7 2f3d
00000030: b3a3 ae3a ca92 c7bd c5d7 07be 017f 8a3d
00000040: a5e1 57bc a743 ffbd 4d82 c3bd e176 5cbc
00000050: 7286 873c ecef 82bd 5234 bc3d e3f2 1c3d
00000060: 7bca f4bd c24a f13d c9e9 a9bd 8a6b 033d
00000070: cfa8 553d 424b 47bc dc97 9d3d 6e7a 813a
00000080: dafd a33c 3205 343d ca9d b7bc 283c 2a3c
00000090: 6f79 423d 170b 043e 182c 413b 809f c53d
000000a0: ad03 0ebd 269f 0c3e 9dbe 84bd c7dd 05bd
000000b0: 61b7 4d3c 8d84 ef3d 77f7 aa3d 3f7e db3b
000000c0: 9de1 073d 4298 c33d 6af8 d73d 16f3 42bd
000000d0: df38 8b3d 62d1 c83d 61f3 dd3b 7e67 0d3d
000000e0: 99a7 d43d 7cdd d83d 9e74 65bd c8a8 0dbd
000000f0: 64db 1c3d 78bc d83d d5d2 a03d 7d0a 7bbd
00000100: 99ec e83d 7d61 1d3c 3c55 6ebd 3e4c 083e
00000110: 5d7c 0b3e 02d2 b63b 954c eb3d 394c 023b
00000120: 9ada c53b 0382 59bd 7319 07bc 3cf0 64bd
00000130: e5f4 afbc 9327 63bd dcc7 8ebc b0f3 cfbb
00000140: 5fd5 97bd e0da 493d d794 e03d fbab acbd
00000150: bcb5 cfbd b65d b5bd 478c af3d 00e3 083d
00000160: 75a9 95bd 902d dbbd b589 f53b 28d8 b0bc
00000170: e750 183d 13dc 7e3d da5d 72bd 6706 8e3b
00000180: 679f 7abc c2fc 32bd 3c09 2ebc 9220 b13c
00000190: 810a 863a b8de 57bd e9ad bb3d 545c af3d
000001a0: 5257 e0bb fbf0 933c 89fb 893d bee9 093e
000001b0: f031 2c3d 5343 b03d a606 5a3d 20e1 d13d
000001c0: a837 ee3d 71d3 6f3d 700a f4bc 77ac 1fbc
000001d0: a5c6 603d 5aee 3c3c fa0b b93c 6d1f 353d
000001e0: 0f42 ac3d e56a b8bc c01b 10bd 1c53 cabd
000001f0: e6b6 5fbc ee8c f7bc a951 7f3d 76bf 58bd
00000200: 1b18 443c ff47 3d3d 5621 093e 119d 44bd
00000210: eb5e 7ebc f3c4 773d fb4b 0e3e 29c2 9ebd
00000220: c227 39bc 431a 5a39 0f0b 913d dfa5 25bd
00000230: fa90 163e 9abe 5e3d 8892 dc3d 5e3c 703d
00000240: 8ab8 093e 6369 bebd 2df6 80bd cfb6 68bd
00000250: f479 2dbd b015 e13d 2868 063c c57d 89bd
00000260: 48e3 ae3d dc2f 01bd d127 003e 41e6 b03d
00000270: cada 9fbc 41fa 183d 5e5f bc3c b025 933c
00000280: 04db 51bb db70 9c3d 0f0b 043d b190 50bc
00000290: f185 22bb ab70 a33d 1606 673d 6816 3cbc
000002a0: b074 b33c 4cb5 c6bd 13e2 6abb bd8d bc3b
000002b0: 26bb c73c e823 d2bd 2c6c 22bb ae29 ea3d
000002c0: bd5f 3b3d d59e 0b3d db2e d83d 1b00 a2bd
000002d0: dee2 bbbc 7d3f 943d 121f 043e 52b0 663d
000002e0: 1c4b c2bd 2b03 b03d d2fd bebd 57b5 c3bb
000002f0: d460 06bd 18d9 88bb 4cdf b13c 8daf 593d
00000300: 00f2 cc3d 47aa 68bd 4a00 a7bd a929 96bc
00000310: 6f2a 95bc 215e 33bd 84cc cb3d f03f b2bd
00000320: b7f3 4c3d 9da0 7a3d d351 82bd 9a93 163d
00000330: 6865 c6bc 929f 2c3c b5fb 1bbd d5fb 34bd
00000340: a030 ee3d a818 463d 85c4 a23d ccea e03b
00000350: bba7 ed3d d4a2 023e ebd8 a2bc fe2c 9c3d
00000360: 430a 293d ea48 003e da75 d6bb a240 fd3c
00000370: 825a 3f3d 608c 05bd 464b 613d b399 73bc
00000380: 81a1 eb3c 1be9 95bd a505 22be 07ac 1fbd
00000390: 4783 0e3d 6041 9abd 58f3 43bc 8032 20be
000003a0: bca3 d1bd bb82 32be a1d3 10bd 6567 2bbe
000003b0: be80 19be dd25 40be 5e16 5bbd 72ab a7bc
000003c0: 0c13 2ebe 0208 ebbd 5cde 52be 2d37 12bd
000003d0: 41b6 b5bb b862 02be 736e 7ebd d6d7 1ebe
000003e0: e0fc 3dbc fcd2 14be 756e 07be d787 a73b
000003f0: ce96 463c 7f44 48bd 1164 1fbe 7efa f0bc

dec_layer_3.0.bias f4 [3]
0.1786501 0.16896774 -0.06606806
00000000: 0df0 363e e105 2d3e b14e 87bd
