save/small_2/model_small_2.pt (torch, 28443 bytes, 12 tensors)

enc_layer_1.0.weight f4 [16, 3, 5, 5]
0	0x3e21216e	0.15735409
1	0x3d1e192c	0.038598225
2	0x3cfadb63	0.03062219
3	0x3e2ef651	0.1708615
4	0x3dea8cde	0.114526495
5	0xbd681302	-0.056658752
6	0x3d7026c0	0.058630705
7	0xbc2bec3e	-0.010493336
8	0xbd6cd17b	-0.057816964
9	0x3da0ee18	0.07857913
10	0x3da73339	0.08164067
11	0x3e03600c	0.12829608
12	0x3e165551	0.14680983
13	0xbd0f3b96	-0.034968935
14	0x3e1c605a	0.1527113
15	0x3e2e9cb9	0.17051972
16	0x3db80e89	0.08987147
17	0x3e1527b0	0.14565921
18	0x3e53ab22	0.2067075
19	0x3d3b18cb	0.04567794
20	0xbd4b2177	-0.04959246
21	0xbca70c08	-0.02039148
22	0xbda48f7e	-0.080351815
23	0xbdc7005e	-0.09716867
24	0x3c60670b	0.013696442
25	0x3d373997	0.044732656
26	0xbd17416a	-0.036927618
27	0x3cfa0d5e	0.030523952
28	0xbc3708d2	-0.0111715365
29	0xbd95b3bc	-0.07309672
30	0xbdbdf1cf	-0.09274637
31	0x3d4a109a	0.04933224
32	0xbd3b1223	-0.045671593
33	0xbdc2b98f	-0.09508049
34	0x3d89ea16	0.067341015
35	0xbd6115cb	-0.054952424
36	0xbdb3d545	-0.08780912
37	0x3beef8a1	0.0072928225
38	0xbb74afd3	-0.0037336245
39	0x3db76f79	0.089568086
40	0xbddbc514	-0.10730949
41	0xbda35939	-0.07976002
42	0xbd0d4f63	-0.034499537
43	0xbddef503	-0.10886576
44	0x3da9db4c	0.08293781
45	0xbe1116ed	-0.14168902
46	0xbde125ee	-0.10993563
47	0xbe3c0d2e	-0.18364403
48	0xbd4f9f64	-0.050689116
49	0xbe71f6ee	-0.23629352
50	0x3e8c723d	0.27430907
51	0x3e8e2d61	0.27768996
52	0x3e7f4240	0.24927616
53	0x3e822ab1	0.25423196
54	0x3e8f96f6	0.28044862
55	0x3dc133f2	0.09433736
56	0x3e49e731	0.19717099
57	0x3e5dff01	0.21679308
58	0x3e9561db	0.2917622
59	0x3e02b6f7	0.12765108
60	0xbe266c81	-0.16252328
61	0xbe15fc40	-0.14647007
62	0xbccac0fb	-0.024750223
63	0xbe2671ca	-0.16254345
64	0xbe0e5134	-0.13898164
65	0xbe4e691b	-0.20157282
66	0xbda00f8e	-0.07815467
67	0xbdd8d9a3	-0.10588386
68	0xbdc82aca	-0.09773786
69	0xbe3ab1e8	-0.18231928
70	0xbeab0aa4	-0.33406556
71	0xbe1c5135	-0.15265353
72	0xbe9cbed7	-0.3061435
73	0xbe93ed1c	-0.28891838
74	0xbe79bf5f	-0.24389409
75	0x3c6ec681	0.014573694
76	0x3c84ffa2	0.016235176
77	0x3ce41842	0.027843598
78	0x3e23c382	0.15992549
79	0x3dc13d9e	0.09435581
80	0xbcbdafe7	-0.023155166
81	0x3ddf05cd	0.10889778
82	0xbd5376da	-0.051627018
83	0x3dbba5fc	0.091625184
84	0x3d4e384c	0.050346658
85	0x3c9fa60e	0.01948836
86	0x3e102cf2	0.14079645
87	0x3e148dc8	0.1450721
88	0xbcb58ab6	-0.02216087
89	0x3cc74dd9	0.024329113
90	0x3d802e54	0.062588364
91	0xbd941d10	-0.07232106
92	0x3dfbf142	0.12301876
93	0x3e05c579	0.13063611
94	0x3e0db1eb	0.13837402
95	0x3d209763	0.039206874
96	0x3dd8290b	0.10554703
97	0x3d31c9bb	0.043405276
98	0x3cf62f55	0.030051867
99	0x3dc12f18	0.094328105
100	0x3cabc89b	0.02096968
101	0x3d90f85e	0.07078622
102	0xbd0b8b3c	-0.03406833
103	0x3d843d36	0.064569876
104	0x3dfe304d	0.124115564
105	0x3e560512	0.20900372
106	0x3eb69f91	0.35668615
107	0x3e41011a	0.18848076
108	0x3eb7bc0a	0.3588565
109	0x3e955b1e	0.2917108
110	0x3ea53054	0.32263434
111	0x3eafa125	0.3430263
112	0x3e54513a	0.2073411
113	0x3ea60f73	0.32433662
114	0x3e973a03	0.29536447
115	0xbe126f41	-0.14300252
116	0xbe7b0583	-0.24513821
117	0xbe5081a9	-0.20361961
118	0xbd369149	-0.04457215
119	0xbd79356c	-0.060841963
120	0xbdced290	-0.10098755
121	0xbd1b0564	-0.037846938
122	0xbe549dc3	-0.20763306
123	0xbe0f479f	-0.13992165
124	0xbe40b4f8	-0.18819034
125	0x3c577f77	0.013152949
126	0x3d409930	0.04702109
127	0x3e1be6f4	0.1522482
128	0x3d10053b	0.03516124
129	0x3bea0b42	0.0071424553
130	0x3e2a1a78	0.1661166
131	0x3d5eeac3	0.054423105
132	0x3e17af76	0.14813027
133	0x3e79e95f	0.2440543
134	0x3e5e4da3	0.21709304
135	0x3e06065a	0.1308836
136	0x3d96d513	0.073648594
137	0x3e044487	0.12916766
138	0x3d746dc5	0.059674997
139	0x3e3ac33b	0.18238537
140	0x3ddceb32	0.107870474
141	0x3d96927f	0.07352161
142	0x3e1346e4	0.14382511
143	0x3e5c0746	0.2148715
144	0x3e29eb34	0.16593629
145	0x3dc2b2ab	0.095067345
146	0xbd14844f	-0.03625899
147	0x3d52fb4a	0.05150918
148	0x3bc59247	0.0060294005
149	0x3dca3fe6	0.09875469
150	0x3da7fab7	0.08202117
151	0xbca80983	-0.020512348
152	0xbde71dec	-0.11285004
153	0xbd3fb575	-0.04680391
154	0xbe0f7dff	-0.14012907
155	0xbcf3ce8b	-0.029761573
156	0xbcf4c78e	-0.029880311
157	0xbcf6c8c1	-0.030125024
158	0xbc1ecbb0	-0.009692118
159	0xbd7d8b17	-0.061900225
160	0xbd919528	-0.071085274
161	0x3d15fa8f	0.036615904
162	0x3db0f136	0.08639757
163	0xbd1dd54d	-0.038533498
164	0x3d6a6b37	0.057231154
165	0x3cc21e79	0.023696171
166	0x3decdc3f	0.11565446
167	0xbc465045	-0.012104099
168	0xbd633997	-0.055474844
169	0xbcdcbdaa	-0.026945908
170	0xbc3de55c	-0.011590328
171	0xbca520f4	-0.020157315
172	0xbd4a8923	-0.04944719
173	0x3e005529	0.12532486
174	0x3cee6d3b	0.02910482
175	0x3dd46ee7	0.103727154
176	0x3e0fe529	0.14052261
177	0x3d454bc1	0.048167948
178	0xbd10df98	-0.035369486
179	0x3dd2f354	0.103003174
180	0x3d0e0acb	0.03467826
181	0x3d770258	0.06030497
182	0xbd15fee9	-0.036620054
183	0xbd3fd996	-0.046838365
184	0x3e18be71	0.14916398
185	0x3dbed11d	0.09317229
186	0xbcdf0815	-0.027225534
187	0x3ced63ca	0.028978247
188	0x3d1d4ef9	0.038405392
189	0x3e2da3c7	0.16957007
190	0x3dd2450b	0.10267075
191	0xbcffbb4d	-0.031217242
192	0x3ce6d5bc	0.028178088
193	0xbca2956a	-0.019846637
194	0x3d71e8be	0.05905985
195	0x3d737851	0.059440915
196	0xbd75a7e9	-0.059974585
197	0x3aa1a6de	0.0012333055
198	0x3e0636b2	0.13106802
199	0xbcad66b5	-0.021167139
200	0x3de3f8d5	0.11131445
201	0x3d92bfbf	0.07165479
202	0x3d98bd65	0.07457999
203	0x3d25304a	0.040329255
204	0x3da227a6	0.079177186
205	0xbd20a41d	-0.03921901
206	0xbc0effbf	-0.008727967
207	0x3d941709	0.07230956
208	0xbd000966	-0.031258963
209	0x3df349f1	0.118793376
210	0xbda42e5c	-0.08016655
211	0xbe1050df	-0.1409335
212	0xbdf69643	-0.12040379
213	0x3c96c9eb	0.018406829
214	0xbd3ae5a5	-0.045629162
215	0xbdef2e04	-0.11678699
216	0xbdc14249	-0.09436471
217	0x3bbaad68	0.005696941
218	0xbcb6bad6	-0.022305887
219	0xbe09b2ee	-0.13447163
220	0xbd2555d9	-0.040365074
221	0xbddeb881	-0.10875035
222	0xbd8e5738	-0.069502294
223	0x3d3d39af	0.04619759
224	0xbded280a	-0.115799025
225	0xbe2808cd	-0.16409607
226	0x3a79c918	0.00095285615
227	0xbe1322b3	-0.14368705
228	0xbbcf7a1a	-0.0063316943
229	0xbd472f7a	-0.04862926
230	0xbc339592	-0.010960953
231	0x3d4baf28	0.04972759
232	0x3db91d05	0.09038738
233	0x3dad4a50	0.084614396
234	0xbc737360	-0.0148590505
235	0x3c8ae600	0.016955376
236	0x3d26186e	0.04055064
237	0x3e22b983	0.1589108
238	0xbceaff41	-0.028686168
239	0x3dba34a4	0.09092072
240	0x3de54657	0.11195057
241	0x3de6a12d	0.112612106
242	0x3d9f23ea	0.07770522
243	0x3d4dda99	0.0502573
244	0x3e261788	0.16219914
245	0xbe55bafa	-0.20872107
246	0xbe39e2d9	-0.18152942
247	0xbe73b611	-0.23799922
248	0xbe71168b	-0.23543756
249	0xbe6d03b8	-0.2314595
250	0xbe6c68ba	-0.23086825
251	0xbe55b434	-0.20869523
252	0xbd8b9d71	-0.06817139
253	0x3b19176b	0.0023359905
254	0xbe32ab1e	-0.17448089
255	0x3dacb9c5	0.0843387

enc_layer_1.0.bias f4 [16]
0	0x3d0a3bc6	0.03374841
1	0x3dafbf65	0.085814275
2	0x3d7f185a	0.062279083
3	0x3df71913	0.120653294
4	0xbdca3fdf	-0.09875464
5	0x3e2badad	0.16765471
6	0x3ca83c2c	0.020536505
7	0x3bf960c6	0.0076104132
8	0x3d54a3d3	0.051914047
9	0x3ee4b70f	0.44670913
10	0xbdcb9a93	-0.09941592
11	0xbca1a649	-0.019732611
12	0x3e6a7d19	0.22899283
13	0x3d233728	0.039847523
14	0x3e641d37	0.2227677
15	0x3e1dafbc	0.15399069

enc_layer_2.0.weight f4 [4, 16, 3, 3]
0	0x3df1806b	0.11792072
1	0xbdfc57be	-0.12321423
2	0xbdc97e53	-0.098385476
3	0xbb81c1f5	-0.003959889
4	0xbd24082a	-0.04004685
5	0x3d09ecc4	0.033673063
6	0x3e599db6	0.21251568
7	0x3e60ef41	0.21966268
8	0x3de326d1	0.11091388
9	0x3d4f1f84	0.050567165
10	0xbd58625a	-0.05282817
11	0xbd7a952b	-0.061177414
12	0x3d99d91e	0.07512115
13	0x3dbb23f5	0.09137718
14	0x3d360836	0.044441424
15	0xbd412e2b	-0.04716317
16	0xbd83c116	-0.064333126
17	0xbca95c48	-0.020673886
18	0x3e35d728	0.17757857
19	0x3e30a2a0	0.17249537
20	0x3e0aefd0	0.13568044
21	0x3d746281	0.059664253
22	0x3d6210ff	0.05519199
23	0x3d2d7d44	0.04235579
24	0x3da04118	0.07824916
25	0x3d92fe02	0.071773544
26	0xbd067d3c	-0.032834277
27	0xbdc95ea3	-0.09832504
28	0xba44ce9c	-0.0007507594
29	0x3b110615	0.002212887
30	0x3e57d67e	0.21077916
31	0x3eceb0df	0.40369317
32	0x3edaa1b9	0.4270151
33	0xbe5e68c7	-0.21719657
34	0xbdf8ad7b	-0.12142464
35	0xbe231e7a	-0.15929595
36	0x3e59650a	0.2122995
37	0x3eb5856d	0.35453358
38	0x3eb4403f	0.35205266
39	0x3e78c81b	0.24295084
40	0x3ed0f314	0.40810454
41	0x3ebfec38	0.37484908
42	0x3dba45a6	0.09095316
43	0x3e472ddc	0.19451088
44	0x3e7c8c0c	0.24662799
45	0xbda95434	-0.082680136
46	0xbe2d0dc2	-0.1689978
47	0xbe25d2a0	-0.16193628
48	0xbdcbb297	-0.09946173
49	0x3d146de1	0.0362376
50	0xbde74341	-0.112921245
51	0xbe08d0ba	-0.13360873
52	0x3ac32cd5	0.001489068
53	0xbe0aa4a7	-0.13539372
54	0x3e11b647	0.1422969
55	0x3e6100b6	0.21972927
56	0x3e6a28f1	0.2286718
57	0x3e020973	0.12698917
58	0x3e2c5d1d	0.16832395
59	0x3e077a39	0.13230218
60	0x3c985366	0.018594455
61	0x3e0f39ec	0.13986939
62	0x3dd6072c	0.10450587
63	0x3e1009be	0.14066216
64	0x3d4e2dfe	0.05033683
65	0x3d9ae8c3	0.07563927
66	0x3e05210c	0.13000888
67	0x3e5fcd6f	0.2185571
68	0x3e400d5c	0.18755096
69	0xbdb3a98c	-0.08772573
70	0xbd844816	-0.06459062
71	0x3d8b82eb	0.0681208
72	0xbda8dacf	-0.082448594
73	0xbddbd9af	-0.10734879
74	0x3c94f013	0.018180883
75	0xbc6d01f2	-0.014465796
76	0x3df31f40	0.11871195
77	0x3d83625e	0.064152464
78	0xbbe6b1f0	-0.007040255
79	0x3dd51709	0.10404784
80	0x3db22b42	0.08699657
81	0xbdba0825	-0.09083585
82	0xbe4626f6	-0.193508
83	0xbe1f20b9	-0.15539826
84	0xbdd0b1c5	-0.10190157
85	0xbd9f4907	-0.07777601
86	0xbe29bbaa	-0.16575494
87	0x3d54b73d	0.051932562
88	0x3c97579e	0.018474396
89	0x3da55688	0.08073145
90	0x3e052392	0.1300185
91	0x3e50afa1	0.20379497
92	0x3e1e050b	0.15431611
93	0x3ce734a2	0.02822334
94	0x3d18738f	0.03721958
95	0x3d24244e	0.040073685
96	0xbe01e928	-0.12686598
97	0x3c40c33b	0.011765297
98	0xbdc1442b	-0.0943683
99	0x3e217056	0.15765509
100	0x3e8aa28e	0.27077144
101	0x3e355c34	0.17710954
102	0x3e19d7de	0.15023753
103	0x3e9b769d	0.30363932
104	0x3e755472	0.23957995
105	0x3d862b4e	0.065512285
106	0x3d7cda53	0.061731648
107	0xbccb8358	-0.024842903
108	0x3d0460a5	0.03231873
109	0x3c75f501	0.015012027
110	0x3d96bfda	0.073608115
111	0x3d9d46cc	0.07679519
112	0x3d5e4413	0.05426414
113	0x3e0f9fbe	0.1402578
114	0x3d039624	0.032125607
115	0x3d09668e	0.03354507
116	0xbcc2aa96	-0.023762982
117	0x3d803c3a	0.06261487
118	0x3d087c6b	0.03332178
119	0x3cf1f7d6	0.029537123
120	0x3de6d3bf	0.11270856
121	0x3d814eb5	0.0631384
122	0x3d809525	0.06278447
123	0x3c89601c	0.016769461
124	0xbcee8aac	-0.029118858
125	0x3d1e6c11	0.03867728
126	0x3c9d70a7	0.019218756
127	0xbdf53761	-0.11973453
128	0xbc678cdf	-0.014132707
129	0x3e0d7568	0.13814318
130	0xb9efbf0a	-0.00045727968
131	0x3c6233a0	0.013806254
132	0x3d92895a	0.07155104
133	0x3daa714d	0.08322392
134	0x3da63ed2	0.08117451
135	0xbdf99578	-0.12186712
136	0xbdfe49e5	-0.12416438
137	0xbe1790f7	-0.14801393
138	0xbdc046f3	-0.093885325
139	0xbd9b96ea	-0.07597144
140	0xbdaa78d1	-0.08323825
141	0xbd7fb245	-0.06242587
142	0xbc97472d	-0.018466556
143	0x3d268db3	0.04066248
144	0x3e9b5db4	0.30344927
145	0x3ed974df	0.42471978
146	0x3ee5f5e3	0.4491416
147	0x3d5144ec	0.05109112
148	0x3dbf9fc1	0.093566425
149	0xbaf03fb5	-0.0018329533
150	0x3e8bddf8	0.27317786
151	0x3e601170	0.21881652
152	0x3e81136a	0.25210124
153	0x3e1785be	0.14797112
154	0x3da1651e	0.07880615
155	0x3d7dff67	0.06201115
156	0x3d4f871c	0.05066596
157	0x3d8cd104	0.06875804
158	0x3d753c10	0.059871733
159	0x3d169ba2	0.036769517
160	0x3c048616	0.008088609
161	0x3cfb70cd	0.030693436
162	0x3dfd96a5	0.12382249
163	0x3e125abd	0.14292426
164	0x3d90d988	0.07072741
165	0xbe1cd86f	-0.15316938
166	0xbe1ce255	-0.15320714
167	0xbe0a7bc8	-0.13523781
168	0xbd0d6caa	-0.03452746
169	0x3c741a6d	0.0148988785
170	0xbdd6dd4c	-0.10491428
171	0x3e326d18	0.17424428
172	0x3e9b8fae	0.30383056
173	0x3e8a745c	0.270419
174	0x3c2e9770	0.010656223
175	0x3d482270	0.048860967
176	0x3e0b69d8	0.13614595
177	0x3f9390c3	1.1528553
178	0x3f9171d7	1.1362866
179	0x3f9f04dc	1.2423358
180	0x3e8a8279	0.27052668
181	0x3e8553d7	0.26040527
182	0x3e90643a	0.28201467
183	0xbe2418b0	-0.16025043
184	0xbe43357c	-0.19063371
185	0xbdbe8fe1	-0.093047865
186	0xbd4ac213	-0.04950149
187	0xbc3a1814	-0.01135828
188	0xbdfb0db7	-0.12258475
189	0xbb814165	-0.003944563
190	0x3b4fb6e2	0.00316947
191	0xbc542ed7	-0.012950621
192	0xbd4cbc37	-0.049984183
193	0xbd77a73b	-0.060462218
194	0xbd0d3d49	-0.034482274
195	0xbd8afded	-0.06786714
196	0x3d014fb6	0.03157016
197	0xbd839f75	-0.064268984
198	0x3db397ea	0.0876921
199	0x3e1baaca	0.1520187
200	0x3dacdc32	0.084404364
201	0x3c1cdc6d	0.009574038
202	0x3d9f2c5c	0.07772133
203	0x3d858519	0.06519527
204	0x3dc2fc55	0.09520785
205	0x3d71f48e	0.059071116
206	0x3dac9b4f	0.0842806
207	0x3de42525	0.11139897
208	0x3e05e3d3	0.1307519
209	0x3e0f933f	0.14021014
210	0x3dbb441f	0.091438524
211	0x3e3fa3ee	0.18714878
212	0x3e3f1146	0.18658933
213	0x3d9d91b2	0.07693805
214	0x3dab146a	0.08353503
215	0x3cc59c05	0.024122247
216	0x3b6fc71d	0.0036587187
217	0x3d852bec	0.06502518
218	0x3e0383e6	0.12843284
219	0xbc5f4a46	-0.013628548
220	0xbd6caa55	-0.05777963
221	0xbc63520e	-0.013874544
222	0x3dbafc96	0.09130208
223	0x3d4a000c	0.04931645
224	0x3dad5f93	0.08465495
225	0x3ded9751	0.11601127
226	0x3e80ad6f	0.2513232
227	0x3e6fb67f	0.2340946
228	0xbe0eb6f8	-0.13936985
229	0xbc4b47a0	-0.012407213
230	0x3b927120	0.004469052
231	0xbd77f792	-0.060538836
232	0xbcad1305	-0.021127233
233	0x3dce3edc	0.10070583
234	0xba47bdf1	-0.0007619551
235	0xbda317c9	-0.07963521
236	0x3d13a88b	0.036049407
237	0xbe0d10ba	-0.13775912
238	0xbe06e78e	-0.13174269
239	0xbde19409	-0.110145636
240	0xbc9462e3	-0.01811356
241	0x3ce182b3	0.027528143
242	0xbb9fede1	-0.0048806523
243	0x3d38ef8d	0.04515033
244	0x3b54d5db	0.00324761
245	0x3d11f919	0.03563795
246	0xbd526ae0	-0.051371455
247	0xbdb58d05	-0.08864788
248	0xbdbcf220	-0.09225869
249	0x3cb596a4	0.022166558
250	0x3bdfdc7e	0.0068317046
251	0xbd226a4b	-0.03965215
252	0x3d9bcbce	0.07607232
253	0x3da9f450	0.08298552
254	0xbd8f9817	-0.07011431
255	0xbdc7523e	-0.09732483

enc_layer_2.0.bias f4 [4]
0	0x3c5d3d69	0.013503411
1	0xbe05a8bd	-0.1305265
2	0x3d20e45b	0.039280277
3	0x3a8dceb1	0.0010819045

enc_layer_3.0.weight f4 [8, 4, 3, 3]
0	0xbe39b893	-0.18136816
1	0xbe588a18	-0.21146429
2	0xbe8eebbe	-0.27914232
3	0x3d9b5749	0.07585008
4	0x3d953cec	0.072870106
5	0xbe7bbd58	-0.24583948
6	0xbe8f7be9	-0.28024223
7	0xbde27e86	-0.11059289
8	0xbda3e844	-0.080032855
9	0x3cfca45d	0.030840093
10	0xbe56b27e	-0.20966527
11	0xbe204b09	-0.15653624
12	0xbdfef0e4	-0.1244829
13	0xbdb403b3	-0.08789768
14	0xbd746818	-0.059669584
15	0xbd34e4c8	-0.044163495
16	0x3e45b58e	0.19307539
17	0x3db273bd	0.087134816
18	0x3de21ea8	0.110410035
19	0x3df38b37	0.118917875
20	0xbd8ef10a	-0.06979568
21	0xbdd6ffb5	-0.10497991
22	0xbd54b947	-0.051934507
23	0x3cd89d5f	0.026442228
24	0xbe6912c0	-0.22761059
25	0xbeb481ba	-0.35255224
26	0xbebbed66	-0.36704558
27	0xbd436864	-0.047706977
28	0xbe782227	-0.24231778
29	0xbeac9fd6	-0.33715695
30	0x3e2c100b	0.16802995
31	0xbe62c4a2	-0.22145322
32	0xbe91ae97	-0.28453514
33	0x3e802ec4	0.2503568
34	0xbe23d259	-0.1599821
35	0xbcb0c6d3	-0.021579182
36	0xbcded1ad	-0.02719959
37	0x3dba5797	0.09098738
38	0x3e7fe01a	0.24987832
39	0xbbc6f6e7	-0.0060719135
40	0xbdbe97ac	-0.09306273
41	0xb9c7dc29	-0.0003812027
42	0x3e991f29	0.29906586
43	0x3ecb532f	0.39711902
44	0x3ea5384a	0.32269508
45	0x3db0357e	0.08603953
46	0x3e879cf3	0.2648693
47	0x3e0668ad	0.13125868
48	0x3e2c77d9	0.16842593
49	0x3e2c34e2	0.16817048
50	0xbddec9f8	-0.10878366
51	0xbe948ee8	-0.2901528
52	0xbe0d2d21	-0.13786747
53	0xbdfe1c2a	-0.124077156
54	0xbeec1218	-0.46107554
55	0xbed7be32	-0.42137295
56	0xbea12f76	-0.31481522
57	0x3ea8ccf0	0.32968855
58	0x3ccb22bd	0.024796838
59	0x3e4d97c8	0.20077431
60	0x3d101fa3	0.03518642
61	0x3dc0aa94	0.09407535
62	0xbde4eed5	-0.11178366
63	0xbe90250f	-0.28153273
64	0xbd2a52c2	-0.04158283
65	0xbea90a97	-0.33015892
66	0xbe4f7ee7	-0.20263253
67	0xbe0091c2	-0.12555602
68	0xbe5ae2e7	-0.21375619
69	0xbe2023e5	-0.15638693
70	0xbdf43467	-0.119240575
71	0xbeb1cc9f	-0.34726426
72	0x3ef1534d	0.47133866
73	0x3ef3fd19	0.47654036
74	0x3f03e4ac	0.515208
75	0xbe091ca0	-0.13389826
76	0x3dad9ec4	0.08477548
77	0x3efc09bd	0.4922618
78	0xb9c1d835	-0.00036972915
79	0xbc02519f	-0.00795403
80	0x3c5a3c8d	0.0133201005
81	0xbc92c030	-0.017913908
82	0xbd31c29e	-0.043398492
83	0x3d725728	0.05916515
84	0xbdec6467	-0.11542588
85	0xbe1d99fe	-0.15390775
86	0xbe0c610f	-0.137089
87	0xbca219fe	-0.019787785
88	0xbdffc156	-0.12488048
89	0xbe2a858a	-0.16652504
90	0x3d921189	0.07132251
91	0x3c2f7900	0.010710001
92	0x3d535341	0.05159307
93	0x3d819b75	0.06328479
94	0x3e7cbd4d	0.24681588
95	0x3d8e5769	0.06950266
96	0x3caa9fd1	0.02082816
97	0x3e2589db	0.16165869
98	0xbd477c50	-0.048702538
99	0x3ec72626	0.38896292
100	0x3ee5d95e	0.448924
101	0x3e789785	0.2427655
102	0xbd7f70dd	-0.062363494
103	0x3e2be804	0.16787726
104	0x3eb247be	0.3482036
105	0x3da5b8ed	0.080919124
106	0xbdad86b0	-0.08472955
107	0x3e7de84d	0.24795647
108	0x3ea2d972	0.31806523
109	0x3ef6dc30	0.48214865
110	0x3edd90ec	0.4327463
111	0x3d81716b	0.06320461
112	0x3dc79462	0.09745099
113	0x3d78fe75	0.060789544
114	0x3def8c37	0.11696666
115	0xbc3610f6	-0.011112442
116	0xbd062a98	-0.032755464
117	0xbd072495	-0.03299387
118	0x3eb3c486	0.35110873
119	0x3e5b5466	0.21418914
120	0x3db3dcc9	0.08782346
121	0x3ea4ac70	0.3216281
122	0x3e6d9573	0.23201542
123	0xbe125eb1	-0.14293934
124	0x3d5c166c	0.05373232
125	0x3be2c036	0.006919886
126	0xbde72a56	-0.11287372
127	0xbe70e5c3	-0.23525147
128	0xbe8191e9	-0.25306633
129	0xbd88e903	-0.066850685
130	0x3da8cddb	0.08242389
131	0x3d943227	0.07236128
132	0xbd2c3a68	-0.042047888
133	0x3d416342	0.0472138
134	0xbd5afb43	-0.053462278
135	0x39af4cf6	0.0003343594
136	0x3e0fd714	0.1404689
137	0xbdb725b3	-0.089427374
138	0xbe729943	-0.23691277
139	0x3dbf4bcb	0.09340628
140	0xbd35cbfd	-0.04438399
141	0x3ea50350	0.3222909
142	0x3eafa2c3	0.34303865
143	0x3ed1c7d1	0.4097276
144	0x3e7e7c0b	0.24852006
145	0x3f03f9ca	0.5155302
146	0x3ee406e7	0.44536516
147	0x3e4ea1d2	0.20178917
148	0x3ef7f532	0.48429257
149	0x3ef71291	0.48256353
150	0x3eefdae9	0.46846703
151	0x3ef0dc4f	0.47043082
152	0x3ecd864d	0.40141526
153	0xbe3af01a	-0.18255654
154	0x3d635cb3	0.055508327
155	0xbd603215	-0.054735262
156	0x3d81b5a6	0.06333475
157	0xbcfb69a3	-0.03069002
158	0x3df19889	0.11796672
159	0xbe9b54da	-0.30338174
160	0xbe0ddd8c	-0.13854045
161	0xbd98f0c7	-0.074678
162	0x3e74026c	0.23829049
163	0x3e6fc824	0.23416191
164	0x3e66645b	0.2249922
165	0x3e8743de	0.26418966
166	0x3e7b04e7	0.24513589
167	0x3e917920	0.28412724
168	0x3e05a4e9	0.1305119
169	0x3d494737	0.04914018
170	0x3e8d4ac5	0.27596107
171	0x3e9820b1	0.29712442
172	0x3e15c645	0.14626415
173	0x3dcba555	0.09943644
174	0x3e43c475	0.19117911
175	0x3d440e6f	0.047865327
176	0x3df287ee	0.11842333
177	0xbee3b0da	-0.44470865
178	0xbec7c518	-0.39017558
179	0xbef5140d	-0.4786686
180	0x3d09850f	0.03357416
181	0xbd9c1f1e	-0.07623123
182	0xbe6dda55	-0.23227818
183	0xbea864fc	-0.32889545
184	0xbe72a791	-0.23696734
185	0xbe75be13	-0.23998289
186	0xbe53a97a	-0.20670119
187	0xbe70353b	-0.23457806
188	0xbed5b6dc	-0.41741073
189	0xbe0def77	-0.1386088
190	0x3d9828de	0.0742967
191	0x3e250101	0.16113664
192	0xbe1b5f03	-0.15172963
193	0xbdd18bfd	-0.10231779
194	0xbca53762	-0.02016801
195	0x3e3f5578	0.18684947
196	0x3c6e5529	0.014546671
197	0x3e5ff912	0.21872357
198	0xbc6f18ff	-0.014593362
199	0x3bbe4b80	0.00580734
200	0xbe2ec9de	-0.17069194
201	0xbeab4454	-0.33450568
202	0xbed7218a	-0.42017776
203	0xbea39ca3	-0.31955442
204	0xbe029d4a	-0.12755314
205	0xbe1468d5	-0.14493115
206	0xbdf5d5bd	-0.12003658
207	0x3eca8ff8	0.39562964
208	0x3e14a3b8	0.14515579
209	0x3eb898df	0.3605413
210	0x3e809f7a	0.2512167
211	0x3d253c93	0.04034097
212	0x3e0c3472	0.13691881
213	0x3ecb4848	0.39703584
214	0x3f04f558	0.51936865
215	0x3f07d813	0.5306408
216	0x3dbfaea0	0.09359479
217	0x3e395f9b	0.18102877
218	0x3e255f4c	0.16149634
219	0x3ef4dc86	0.47824496
220	0x3efb32b5	0.49062124
221	0x3f10511f	0.5637378
222	0xbf58fe46	-0.8476299
223	0xbf13c034	-0.57715154
224	0xbf3d3c6a	-0.7392031
225	0x3e6f841b	0.23390238
226	0xbcd2f992	-0.02575377
227	0x3c35b908	0.011091478
228	0x3d797b3c	0.06090854
229	0xbd4ae44c	-0.049534127
230	0xbe23abd7	-0.1598352
231	0x3c68f383	0.014218214
232	0xbcb34c07	-0.021886839
233	0x3de53d08	0.111932814
234	0xbcac883f	-0.021061061
235	0x3d484d0d	0.048901606
236	0xbabf27d0	-0.0014584009
237	0x3ea99fbe	0.33129686
238	0x3e937e7c	0.28807437
239	0x3ebbd38f	0.36684844
240	0xbd08ee16	-0.03343018
241	0xbe4f7446	-0.20259199
242	0x3d27b3c4	0.040942922
243	0x3e9c2689	0.3049815
244	0x3ea39fe3	0.3195792
245	0x3ccde360	0.025132835
246	0x3e0c714c	0.13715094
247	0x3d2ebb2e	0.042658977
248	0xbe0a3228	-0.13495696
249	0x3ea28cd7	0.31748077
250	0x3edf4acc	0.43611753
251	0x3ea62580	0.32450485
252	0x3e3076d7	0.17232834
253	0x3cd3edfa	0.025870312
254	0x3db2047d	0.08692262
255	0xbe2c578f	-0.16830276

enc_layer_3.0.bias f4 [8]
0	0xbda10306	-0.07861905
1	0x3e150124	0.14551216
2	0x3d0f98ef	0.03505796
3	0xbe25c137	-0.16186987
4	0xbe73d981	-0.2381344
5	0x3ea412ca	0.32045585
6	0x3e81fbde	0.25387472
7	0x3e67da4d	0.22641869

dec_layer_1.0.weight f4 [8, 12, 3, 3]
0	0x3e1f8785	0.1557904
1	0x3dacbeba	0.08434816
2	0x3d2d42d4	0.04230006
3	0xbccfa37c	-0.02534651
4	0xbe9cf272	-0.3065372
5	0xbe767b9b	-0.24070589
6	0xbb08e397	-0.0020887607
7	0xbe8cb33e	-0.274805
8	0xbe59072e	-0.21194145
9	0x3dc6d234	0.09708062
10	0x3b95745b	0.00456099
11	0xbe3425ad	-0.17592497
12	0x3c74236d	0.014901024
13	0xbd08fe87	-0.03344586
14	0xbda9d282	-0.08292104
15	0x3e0a7640	0.13521671
16	0xbd2022a4	-0.039095536
17	0xbc7d959a	-0.015477562
18	0xbd3d8c12	-0.04627616
19	0x3dc9087c	0.098160714
20	0x3cd36a68	0.025807574
21	0xbda71e6c	-0.081600994
22	0xbc5da2da	-0.013527596
23	0xbe083c7e	-0.13304326
24	0xbd993ddb	-0.07482501
25	0x3cb9a91f	0.022663651
26	0xbcd9e8b0	-0.026600212
27	0x3e141fb8	0.14465225
28	0xbe66144a	-0.22468677
29	0xbd3f47e3	-0.046699416
30	0x3c9e1b95	0.019300262
31	0xbe2498e9	-0.16073956
32	0xbe5616eb	-0.2090718
33	0xbd3055c4	-0.043050542
34	0xbd5409cb	-0.05176715
35	0x3cf002c1	0.029298188
36	0x3ad8fd05	0.0016554898
37	0xbdea64de	-0.1144502
38	0x3c766534	0.015038777
39	0x3dba90a0	0.09109616
40	0x3e71b385	0.23603638
41	0x3e4988ad	0.19681044
42	0x3e378600	0.1792221
43	0x3d983db8	0.07433647
44	0x3dcb2461	0.09919048
45	0x3e07e975	0.1327265
46	0x3db9880f	0.09059154
47	0x3d75d2aa	0.060015358
48	0xbc4a9408	-0.012364395
49	0xbe027d47	-0.12743102
50	0xbe19cef0	-0.15020347
51	0xbc9ddebb	-0.019271245
52	0xbe0cab36	-0.13737187
53	0xbc544452	-0.012955742
54	0x3dc1baad	0.09459434
55	0x3cb3afe2	0.021934453
56	0x3e1f5756	0.1556066
57	0xbd920e1f	-0.071316
58	0xbe0ed094	-0.13946754
59	0xbd4874f0	-0.048939645
60	0xbe4e9875	-0.20175345
61	0xbe746905	-0.23868187
62	0xbde13a2e	-0.10997425
63	0x3d432928	0.04764667
64	0x3d3e12c1	0.046404604
65	0x3d35ea50	0.04441291
66	0x3e8cc827	0.27496454
67	0x3ee7621b	0.45192036
68	0x3f2b6cc1	0.6696282
69	0x3e643f51	0.22289778
70	0x3ec1f048	0.37878633
71	0x3ec49eab	0.38402304
72	0xba2056d6	-0.0006116455
73	0x3d63c0a6	0.055603646
74	0xbcb796e5	-0.02241082
75	0xbe93617d	-0.28785315
76	0xbe532147	-0.20618163
77	0xbe6916af	-0.2276256
78	0xbe39c707	-0.18142329
79	0xbe82475f	-0.25445077
80	0xbe49935a	-0.19685116
81	0x3e5ac854	0.21365482
82	0xbc2588d6	-0.010103425
83	0x3e3d0f42	0.18462852
84	0x3d07f577	0.033193078
85	0xbe18c0e4	-0.14917332
86	0xbdb196b7	-0.08671325
87	0x3d265704	0.04061033
88	0xbb2ae624	-0.0026077116
89	0x3dd6c2c5	0.10486368
90	0x3de2067f	0.11036395
91	0x3d33487e	0.043770306
92	0x3dc14493	0.094369076
93	0x3ec5255e	0.3850507
94	0x3f1143e5	0.56744224
95	0x3f29104b	0.66040486
96	0x3e958535	0.2920319
97	0x3eb9657b	0.36210236
98	0x3eec12eb	0.46108183
99	0x3d912762	0.0708759
100	0xbd3d8fa9	-0.046279583
101	0x3bd08e9a	0.0063646557
102	0xbddf7420	-0.10910821
103	0x3bc1b606	0.0059115915
104	0xbd2e91a9	-0.04261938
105	0x3c50f8bd	0.012754616
106	0x3c1b3af4	0.009474505
107	0x3e0141e9	0.12622799
108	0xbc16beee	-0.009200795
109	0xbe21b331	-0.15791012
110	0x3c7da906	0.015482193
111	0x3dcc2221	0.09967447
112	0x3dc0dbca	0.094169214
113	0xbdcfb463	-0.10141828
114	0xbc66963e	-0.0140739065
115	0xbe23b44d	-0.15986748
116	0xbdc0d596	-0.09415738
117	0x3e5bc74f	0.21462749
118	0x3e0c2d4a	0.13689151
119	0x3e3173e0	0.17329359
120	0x3e06796b	0.13132255
121	0xbdb06be2	-0.08614327
122	0x3e3ffbf9	0.18748464
123	0x3e228455	0.15870793
124	0xbd6af90c	-0.057366416
125	0xbdacb7e0	-0.08433509
126	0xbcfb3689	-0.030665653
127	0xbdc095dd	-0.09403584
128	0x3e1ab145	0.15106685
129	0xbd07927a	-0.033098675
130	0xbe1936b2	-0.14962271
131	0x3de5c325	0.112188615
132	0x3e6c207a	0.23059264
133	0x3e5817b0	0.21102786
134	0x3e852af2	0.26009327
135	0xbdacaf76	-0.08431904
136	0x3e4f871b	0.20266382
137	0xbe0001cc	-0.12500685
138	0x3eb9055d	0.36136904
139	0x3e94a8a1	0.29034904
140	0x3e8aee68	0.27135015
141	0x3e52b717	0.20577656
142	0x3e4267a6	0.18984851
143	0x3cb75d79	0.022383438
144	0xbe166999	-0.1468872
145	0x3dd144c6	0.102181956
146	0xbeb6baa0	-0.3568926
147	0xbeda3747	-0.42620298
148	0xbf0d2bd9	-0.5514503
149	0xbf2a251b	-0.6646287
150	0xbe582e1b	-0.21111338
151	0xbe809215	-0.25111452
152	0xbe4e7f96	-0.20165858
153	0x3ce6b5cb	0.028162858
154	0xbd135b85	-0.03597595
155	0x3e67aca1	0.22624446
156	0x3c05767b	0.008145924
157	0x3c276c14	0.010218639
158	0x3cec047e	0.028810736
159	0xbe161392	-0.14655903
160	0xbdf818e9	-0.12114126
161	0xbde5915a	-0.11209364
162	0x3ca13e99	0.01968317
163	0xbda30876	-0.07960598
164	0xbe3712de	-0.17878291
165	0x3ee160dd	0.44019213
166	0x3ec0df13	0.37670192
167	0x3ed6bab6	0.41939324
168	0x3cae0dd6	0.021246832
169	0x3e011294	0.12604743
170	0xbe33ecc0	-0.17570782
171	0x3e989e61	0.29808334
172	0x3ea3e24e	0.32008594
173	0xbda99c29	-0.08281738
174	0x3eb92332	0.36159664
175	0x3ee62305	0.44948593
176	0x3edeaefc	0.43492877
177	0x3d7f3277	0.062303986
178	0x3dfbce95	0.12295262
179	0xbb3d6331	-0.0028898234
180	0x3e3c35ea	0.18379942
181	0xbcada738	-0.0211979
182	0x3dc22373	0.09479418
183	0x3ce11d80	0.027479887
184	0x3e4a2661	0.19741203
185	0x3e7ad8ee	0.24496815
186	0x3eb17e15	0.34666505
187	0x3e8594c0	0.2609005
188	0x3e860706	0.26177233
189	0xbea12c07	-0.31478903
190	0x3e313430	0.17305064
191	0x3b6154d3	0.0034382835
192	0x3f0ef742	0.55846035
193	0x3dd686a9	0.10474903
194	0x3f132504	0.57478356
195	0xbc22cbfd	-0.00993633
196	0xbc3dfb12	-0.011595504
197	0xbe12531b	-0.14289515
198	0xbdd93818	-0.10606402
199	0xbdb28dbe	-0.087184414
200	0xbe3c0402	-0.18360904
201	0x3d4a2df7	0.04936024
202	0x3d32dcf7	0.04366776
203	0x3c4dbbe1	0.012557001
204	0xbe214ff1	-0.15753151
205	0xbdc8c4e6	-0.098031804
206	0xbe38a61a	-0.18032113
207	0xbddfc93c	-0.10927054
208	0xbd41c0ad	-0.04730289
209	0xbda7d682	-0.08195211
210	0xbd4b0657	-0.049566593
211	0xbea78b44	-0.3272344
212	0xbe423efc	-0.18969339
213	0x3de6b773	0.11265459
214	0xbdc0efe4	-0.094207555
215	0xbd585da2	-0.05282367
216	0xbe07ffac	-0.13281125
217	0xbb8d8e5d	-0.0043199495
218	0xbbe1e676	-0.006893928
219	0x3b7746da	0.003773144
220	0x3c5ce089	0.013481268
221	0xbdb8a0b7	-0.09015029
222	0x3dd842f3	0.105596446
223	0x3efcf50b	0.49405703
224	0x3e31f26f	0.17377637
225	0xbc59f1d4	-0.013302285
226	0xbde012b1	-0.10941065
227	0x3bdfe5b8	0.0068328045
228	0xbe2e70d0	-0.17035222
229	0xbedbb5f4	-0.42912257
230	0xbe8b1487	-0.271641
231	0xbd02c666	-0.03192749
232	0xbe1e9c38	-0.1548928
233	0xbe9844dd	-0.2974004
234	0x3dade2f6	0.08490555
235	0xbd9962a2	-0.07489516
236	0x3e151651	0.14559294
237	0xbdda5c4a	-0.10662134
238	0x3e00abbc	0.12565511
239	0xbdae25c2	-0.085032955
240	0xbd5c83eb	-0.053836744
241	0xbd227ed9	-0.039671753
242	0xbdbf687c	-0.09346101
243	0xbdccf028	-0.10006744
244	0x3d6b5769	0.057456408
245	0xbd8a2d22	-0.0674689
246	0x3d069c1e	0.03286373
247	0x3e137c15	0.14402802
248	0x3db182fb	0.08667561
249	0xbe86d7f1	-0.26336625
250	0xbdc1acd9	-0.09456796
251	0xbde4ef00	-0.11178398
252	0xbe4f510e	-0.20245764
253	0xbe172c48	-0.14762986
254	0xbe2468cd	-0.16055603
255	0xbe5180fa	-0.20459357

dec_layer_1.0.bias f4 [12]
0	0xbd32854c	-0.043584153
1	0xbe4f407e	-0.20239446
2	0xbe095673	-0.13411884
3	0xbe75b338	-0.23994148
4	0xbe368921	-0.17825748
5	0xbe56edae	-0.20989105
6	0x3cbdc951	0.023167284
7	0x3d8c7fe7	0.06860333
8	0x3d4e82ab	0.050417583
9	0xbd9024d5	-0.07038275
10	0xbe167201	-0.14691927
11	0xbe284c1c	-0.16435283

dec_layer_2.0.weight f4 [12, 8, 5, 5]
0	0x3d25426d	0.04034655
1	0x3da39092	0.07986559
2	0xbd0dc5a7	-0.034612324
3	0x3e10290b	0.14078157
4	0xbcd8ea28	-0.026478842
5	0x3debc48d	0.115120985
6	0x3da6d234	0.08145562
7	0x3dad13fe	0.08451079
8	0x3d1b8d7c	0.037976727
9	0x3d4cdfa4	0.050017968
10	0x3e3ffc07	0.18748485
11	0x3e27c53b	0.16383831
12	0x3d98115e	0.074251875
13	0x3da876ba	0.0822577
14	0x3ce9ad2b	0.028524956
15	0x3c53d57b	0.012929316
16	0x3e3706a1	0.17873622
17	0xbcdf7c4d	-0.02728095
18	0x3c902bde	0.017599043
19	0xbe4328ae	-0.19058487
20	0xbc06ba55	-0.008223136
21	0xbd52b8e5	-0.05144586
22	0xbd28a561	-0.041173343
23	0xbdae3c2e	-0.08507572
24	0xbe603850	-0.21896482
25	0x3d70b6e5	0.05876817
26	0x3cceb622	0.025233332
27	0x3c58cc4d	0.013232303
28	0xbd15dbab	-0.036586445
29	0x3c94a31d	0.018144185
30	0x3dd3ce40	0.103420734
31	0x3e20864b	0.15676229
32	0x3dff5f50	0.12469351
33	0x3d620a33	0.055185508
34	0x3db64e1c	0.08901617
35	0x3d82854e	0.06373082
36	0x3dcdb931	0.10045088
37	0x3e0ac2ba	0.13550845
38	0x3d3dee73	0.04636998
39	0x3d863c58	0.065544784
40	0xbcc7e4a6	-0.02440102
41	0x3ce53dbf	0.027983544
42	0x3cb89b67	0.02253504
43	0xbd48803a	-0.04895041
44	0xbcbad539	-0.02280675
45	0x3d897b47	0.067129664
46	0x3cd49846	0.025951516
47	0x3d1c3383	0.038135063
48	0xbc254fa2	-0.010089787
49	0xbd3e7701	-0.04650021
50	0x3d744aea	0.059641756
51	0x3df73e13	0.120723866
52	0x3db1a74a	0.08674486
53	0x3d06724d	0.03282385
54	0xbd1213b4	-0.03566332
55	0xbce6ac06	-0.028158199
56	0x3dc51594	0.09623256
57	0x3d9f2edd	0.0777261
58	0x3d07c9a8	0.0331513
59	0x3d8aa2c9	0.0676933
60	0x3d19efe6	0.0375823
61	0x3dd84cab	0.10561498
62	0x3d53c90e	0.051705413
63	0x3d733a9a	0.05938206
64	0x3d078591	0.033086363
65	0xbdb2cd71	-0.08730591
66	0x3e05a2c3	0.1305037
67	0xbc250c83	-0.010073784
68	0x3df066a3	0.117383264
69	0xbe003aad	-0.12522383
70	0x3d19ed19	0.03757963
71	0x3cc8db02	0.024518494
72	0x3d1ca336	0.038241588
73	0x3cf1eb39	0.029531108
74	0x3ddbeb69	0.1073826
75	0x3cc7bb9b	0.02438145
76	0xbd5da2f9	-0.0541105
77	0xbcceccb7	-0.0252441
78	0x3cae0d40	0.021246552
79	0xbc2449e4	-0.0100273825
80	0x3dbd17ad	0.092330314
81	0xbd4b3985	-0.0496154
82	0x3cafcbc2	0.021459464
83	0xbce7592e	-0.028240766
84	0x3dbde7c3	0.09272721
85	0xbcc738f5	-0.024319151
86	0xbd9a6683	-0.07539084
87	0xbd83645e	-0.06415628
88	0x3d8231af	0.06357133
89	0x3da10211	0.07861722
90	0xbcd16019	-0.025558518
91	0x3ca8444f	0.020540385
92	0x3bbac51d	0.0056997673
93	0x3d588e3a	0.052870013
94	0x3d35f019	0.044418428
95	0x3d3fd671	0.046835367
96	0xbd86e5a5	-0.0658677
97	0x3dc06cdf	0.093957655
98	0x3d5e4010	0.054260314
99	0x3e082391	0.13294818
100	0x3c062350	0.00818713
101	0x3d4e0f9d	0.05030786
102	0xbd81b683	-0.063336395
103	0xbca948ba	-0.020664562
104	0xbcb91f43	-0.022597915
105	0xbc81ab22	-0.015828673
106	0xbe05afc3	-0.13055329
107	0x3d6b8b37	0.057505812
108	0xbdacc5b3	-0.08436146
109	0xbd00feb1	-0.031492893
110	0xbd706d3a	-0.058697917
111	0xbd563bd6	-0.052303158
112	0xb9f542d7	-0.0004677984
113	0xbdc3e5e4	-0.095653325
114	0xbdeaa888	-0.11457926
115	0xbd86abb6	-0.0657572
116	0xbcb051fc	-0.021523468
117	0x3bd60266	0.0065310476
118	0xbde22cf9	-0.11043734
119	0xbd1b44d8	-0.03790745
120	0xbe10ba59	-0.14133586
121	0xbdd292bd	-0.10281894
122	0xbd976cd8	-0.07393807
123	0xbdd28579	-0.10279364
124	0xbd897330	-0.067114234
125	0x3beb2c90	0.007176943
126	0x3cc7a7d4	0.024372019
127	0x3c99a1c1	0.018753888
128	0xbdbf80ff	-0.09350776
129	0x3d07d3c4	0.03316094
130	0xbc3c3d26	-0.011489188
131	0x3d430619	0.047613237
132	0x3daed412	0.08536543
133	0x3c87b684	0.016566522
134	0x3d6ba650	0.057531655
135	0xbd3a3e5f	-0.045469638
136	0xbd32e222	-0.04367269
137	0x3b6e300c	0.0036344556
138	0x3caec0c6	0.021332156
139	0xbd9cd575	-0.07657901
140	0xbd701d9d	-0.05862199
141	0x3c80e339	0.015733348
142	0x3dba8d6d	0.09109006
143	0xbdb013f5	-0.085975565
144	0x3d9c2e73	0.07626047
145	0x3dbae0b5	0.09124891
146	0x3d8b3dbc	0.06798884
147	0x3cb431b9	0.021996366
148	0xbca8b6f6	-0.020595055
149	0x3d1c1c6d	0.038113046
150	0x3d541398	0.0517765
151	0x3d8bb808	0.068222106
152	0x3d5bf890	0.053703845
153	0x3d804e0a	0.06264885
154	0x3d2c7ac2	0.04210926
155	0x3dcdc8e4	0.100480825
156	0x3e2f07c2	0.17092803
157	0x3e101959	0.1407217
158	0x3d0143ce	0.031558804
159	0x3d31c9b9	0.04340527
160	0x3de8c3a5	0.11365441
161	0x3e154280	0.14576149
162	0x3e2e4f0f	0.17022346
163	0x3d9f5fb4	0.07781926
164	0x3d99f78b	0.07517918
165	0x3e032c8b	0.1280996
166	0x3e4b3983	0.19846158
167	0x3e5915bb	0.21199696
168	0x3a908450	0.001102576
169	0xbcf1b7fd	-0.029506678
170	0x3da6debd	0.08147953
171	0x3e514a95	0.20438607
172	0x3e0fa147	0.14026366
173	0x3e12914b	0.14313237
174	0x3c7044de	0.014664857
175	0x3d8b3e85	0.06799034
176	0x3df3862f	0.11890828
177	0x3dcad398	0.099036396
178	0x3da7e412	0.08197798
179	0xbcb57330	-0.022149652
180	0x3d22187d	0.039574135
181	0x3daed784	0.085372
182	0x3d9e561e	0.07731269
183	0x3c8a26bd	0.016864175
184	0x3bb98e36	0.005662705
185	0x3cf76019	0.03019719
186	0x3d8d26ad	0.068921424
187	0x3e28cd16	0.16484484
188	0x3db81fdb	0.08990451
189	0x3dab435e	0.08362459
190	0x3d92577e	0.07145594
191	0x3e478bd0	0.19486928
192	0x3ca38afb	0.019963732
193	0x3e11da9d	0.1424355
194	0x3d95cb9a	0.073142245
195	0xbd5f6d3b	-0.05454753
196	0xbd32066e	-0.043463163
197	0xbbdebd40	-0.0067974627
198	0xbbc2fb59	-0.005950373
199	0x3cd6a41f	0.026201306
200	0xbce1912e	-0.027535047
201	0xbc603d0b	-0.013686429
202	0xbd76fd6c	-0.060300276
203	0x3dd3f573	0.1034955
204	0x3d01cdfa	0.031690575
205	0xbd5a58a4	-0.05330719
206	0xbd6eed84	-0.05833198
207	0xbdead8b2	-0.114671126
208	0x3d494f44	0.04914786
209	0xbda84c3f	-0.08217668
210	0xbd042bf2	-0.032268472
211	0xbc9ba2b3	-0.01899848
212	0x3dae928a	0.08524044
213	0xbdb0a5e2	-0.0862539
214	0xbdaba01b	-0.08380147
215	0xbd9ef90a	-0.07762344
216	0xbe0111bc	-0.12604421
217	0xbe35c9ca	-0.17752758
218	0xbd95758c	-0.07297811
219	0xbd8233ba	-0.06357522
220	0x3bfbb70b	0.0076817325
221	0xbe6254d1	-0.22102667
222	0xbd8a099b	-0.06740113
223	0xbe5f76ec	-0.21822709
224	0x3b3e556f	0.0029042622
225	0xbd58f0fd	-0.0529642
226	0x3a8a79cb	0.0010564862
227	0xbb69fa73	-0.0035702258
228	0xbc04b83d	-0.008100566
229	0xbdde3c73	-0.108513735
230	0xbca7e62f	-0.020495502
231	0xbca1985e	-0.019725975
232	0xbb67ae07	-0.003535153
233	0x3cae70b9	0.021293985
234	0xbc684df7	-0.0141787445
235	0x3df4e9b2	0.11958636
236	0x3d90f748	0.07078415
237	0x3dbc490b	0.09193619
238	0x3d41116c	0.047135755
239	0xbc7d64d9	-0.0154659385
240	0x3e39220d	0.18079396
241	0x3e57f975	0.21091254
242	0x3e5bf71f	0.21480988
243	0x3e123519	0.14278068
244	0x3ccc2f48	0.02492489
245	0x3e168538	0.14699256
246	0x3e433d47	0.19066344
247	0x3e4a7c27	0.19773923
248	0x3e114c1a	0.14189187
249	0xbb183cc8	-0.0023229588
250	0xbdbf1edf	-0.0933206
251	0xbdd73000	-0.10507202
252	0xbe0e8d8e	-0.13921186
253	0xbdf0c292	-0.11755861
254	0xbd121370	-0.03566307
255	0x3d183338	0.03715822

dec_layer_2.0.bias f4 [8]
0	0xbccafa10	-0.024777442
1	0xba4d7a75	-0.0007838377
2	0xbd3ee47f	-0.04660463
3	0x3a855466	0.0010172247
4	0xbcaf958f	-0.02143362
5	0xbd83860e	-0.06422053
6	0xbbcd8778	-0.0062722526
7	0xbc3324c9	-0.010934063

dec_layer_3.0.weight f4 [8, 3, 5, 5]
0	0xbd06cf32	-0.03291244
1	0x3c65b403	0.014019969
2	0x3d8e59cb	0.069507204
3	0x3cc71c72	0.024305556
4	0xbcb37bf0	-0.021909684
5	0xbd459cf4	-0.048245385
6	0x3c42c486	0.011887675
7	0x3cb641b7	0.022248132
8	0x3d337c0e	0.04381948
9	0xbd4a85e2	-0.049444087
10	0xbd878c44	-0.066185504
11	0xbd828af7	-0.06374162
12	0xbdd836b1	-0.105573066
13	0xbd09c350	-0.03363353
14	0xbd9aa8db	-0.07551738
15	0xbddc07a5	-0.107436456
16	0xbe046bc8	-0.1293174
17	0xbe6203a4	-0.22071701
18	0xbddcd384	-0.10782531
19	0xbe06be0d	-0.13158436
20	0xbd99252b	-0.07477792
21	0xbd841131	-0.064485915
22	0xbe07ad67	-0.13249741
23	0xbd8cd37e	-0.068762764
24	0xbdc6191a	-0.096727565
25	0x3e8ae807	0.27130148
26	0x3ea259ba	0.3170908
27	0x3f06ec34	0.5270417
28	0x3eb24cd3	0.34824237
29	0x3e8c9e8d	0.27464715
30	0x3ece76b7	0.40324947
31	0x3f056fcb	0.5212371
32	0x3f3e536c	0.7434604
33	0x3f0596af	0.5218305
34	0x3ed4c838	0.41559005
35	0x3e9cf2bf	0.3065395
36	0x3edf009c	0.43555152
37	0x3f2214f5	0.6331323
38	0x3ed76bc9	0.4207442
39	0x3e9fdcfc	0.31223285
40	0x3cb3363a	0.021876443
41	0x3e1de345	0.15418728
42	0x3e5feba0	0.21867228
43	0x3e1c737c	0.15278429
44	0x3ce1de2e	0.027571764
45	0xbcf39773	-0.029735303
46	0x3d2adfc0	0.04171729
47	0x3d8a2ff3	0.06747427
48	0x3d54ba76	0.051935636
49	0xbcac86e2	-0.02106041
50	0x3d8c6881	0.0685587
51	0x3e29c51a	0.16579095
52	0x3e425494	0.18977576
53	0x3e2a6395	0.1663955
54	0x3dc4cad0	0.09608996
55	0x3e8b9c7d	0.2726783
56	0x3eafd728	0.3434384
57	0x3ed8eb08	0.42366815
58	0x3eac3b6c	0.33639085
59	0x3e86024b	0.26173624
60	0x3ec338a8	0.38129163
61	0x3ed8ac33	0.42318878
62	0x3f23b70f	0.639512
63	0x3eebe529	0.46073273
64	0x3ebc4c99	0.3677719
65	0x3e8d9d83	0.27659234
66	0x3eb3f0a9	0.35144547
67	0x3f0d1ea0	0.55124855
68	0x3ec12d4c	0.3772987
69	0x3e9528fb	0.29132828
70	0x3e5bbaa9	0.21457924
71	0x3e8390a6	0.25696295
72	0x3ed882c5	0.4228727
73	0x3e8020cb	0.2502502
74	0x3e32c653	0.17458467
75	0x3c1cc910	0.009569421
76	0x3ccfdf80	0.025375128
77	0x3d011661	0.031515483
78	0xbb80f137	-0.003935005
79	0xbc01c289	-0.007919916
80	0x3d7a0268	0.06103745
81	0x3df7e191	0.1210357
82	0x3de16031	0.11004675
83	0x3d8e2f03	0.069425605
84	0x3c8058be	0.015667316
85	0x3d6ac271	0.05731434
86	0x3df1b62b	0.11802324
87	0x3e0c3a65	0.13694151
88	0x3d910c3c	0.07082412
89	0x3c8cad7b	0.017172566
90	0x3d25f23f	0.040514227
91	0x3d828bc1	0.06374312
92	0x3da643b7	0.08118384
93	0x3d81050e	0.06299792
94	0x3d1287da	0.03577409
95	0xbc3cae2f	-0.011516138
96	0xbcdf8455	-0.02728478
97	0xbbc54629	-0.0060203266
98	0xbba427c7	-0.0050096246
99	0x3c5c6722	0.013452323
100	0x3da94ba7	0.08266383
101	0x3dbdb54e	0.09263097
102	0x3e44ad85	0.19206817
103	0x3dea1a9f	0.11430859
104	0x3dc36302	0.095403686
105	0x3e10c94a	0.14139286
106	0x3e35d782	0.17757991
107	0x3ea23863	0.31683645
108	0x3e598e50	0.21245694
109	0x3e284b1b	0.164349
110	0x3e24cef9	0.16094579
111	0x3e5f0fc6	0.21783361
112	0x3eb112db	0.34584698
113	0x3e50b075	0.20379813
114	0x3e0fae29	0.1403128
115	0x3db7aff4	0.08969107
116	0x3dfe075a	0.12403746
117	0x3e3dcfb5	0.18536265
118	0x3dec53a4	0.11539391
119	0x3da401c1	0.08008147
120	0x3d6ba787	0.057532813
121	0x3d053c43	0.032528173
122	0x3d45e8d9	0.048317764
123	0xbc75ecdd	-0.015010086
124	0x3c40ee83	0.011775616
125	0xbbacc7f5	-0.00527286
126	0x3d0c1203	0.034196865
127	0x3bf319ea	0.0074188607
128	0x3c804f0c	0.015662692
129	0xbcbfaa02	-0.023396496
130	0x3d8ec941	0.0697198
131	0x3d1e6d40	0.038678408
132	0x3e0e7d92	0.13915089
133	0x3d9982c9	0.074956484
134	0x3dc7854b	0.097422205
135	0x3c09bbde	0.008406607
136	0x3d9fb51a	0.07798214
137	0x3e255bcb	0.16148297
138	0x3de8c20a	0.11365135
139	0x3d372712	0.044714995
140	0x3d259257	0.040422764
141	0x3d0a1b2d	0.033717323
142	0x3e0193d5	0.1265405
143	0x3d74f00d	0.059799243
144	0x3d8338a4	0.06407288
145	0xbd089abf	-0.033350702
146	0xbbe0ebcc	-0.0068640467
147	0x3ce7a71d	0.028277928
148	0x3c65c4ce	0.014023973
149	0x3c98e775	0.018665055
150	0x3daa6909	0.08320815
151	0x3dde80a2	0.108643785
152	0x3e1ee440	0.15516758
153	0x3c40ee11	0.011775509
154	0xbc81da76	-0.01585124
155	0x3eaec973	0.3413807
156	0x3ec5e099	0.38647917
157	0x3f0b9fc7	0.54540676
158	0x3e958a0e	0.2920689
159	0x3e72b32f	0.23701166
160	0x3ecae8ca	0.3963073
161	0x3efa6241	0.48903087
162	0x3f495c79	0.7865673
163	0x3ed3a368	0.41335607
164	0x3ea5d7fa	0.3239134
165	0x3eb1aa8c	0.3470043
166	0x3ed14c17	0.40878364
167	0x3f219d40	0.6313057
168	0x3ebd5c90	0.36984682
169	0x3e932281	0.28737262
170	0x3e0a6a22	0.13517049
171	0x3e5f3b88	0.21800053
172	0x3ead29df	0.33821008
173	0x3e52537d	0.20539661
174	0x3e04f752	0.1298497
175	0x3cb95368	0.022622779
176	0x3d5a92cb	0.05336265
177	0x3d128637	0.03577253
178	0x3cd9cb37	0.026586158
179	0x3c2e0730	0.010621831
180	0x3ba073d1	0.004896619
181	0x3d121d66	0.035672568
182	0x3c588bfd	0.01321697
183	0xbbc603e6	-0.006042945
184	0xbd0d9d0b	-0.034573596
185	0xbd1eeff6	-0.038803063
186	0xbcc8f1f3	-0.024529433
187	0x3bab1abd	0.0052216933
188	0xbc455814	-0.012044925
189	0xbd3bda2b	-0.045862358
190	0x3c1a50f6	0.009418717
191	0x3d087dcf	0.033323105
192	0x3d2699ff	0.040674206
193	0x3c5736b8	0.013135605
194	0xbc4a9fed	-0.012367231
195	0xbca22ea8	-0.019797638
196	0x3a95451b	0.0011388393
197	0x3cd26d64	0.025686927
198	0x3c90941f	0.017648755
199	0xbd0445e0	-0.0322932
200	0xbd7ba1c1	-0.061433557
201	0xbd8935b2	-0.06699695
202	0xbd836c93	-0.06417193
203	0xbcaeb94f	-0.021328596
204	0xbcad1979	-0.02113031
205	0x3ca88177	0.020569546
206	0x3ca4cd16	0.020117324
207	0x3d9adba3	0.07561424
208	0x3dd017cb	0.10160788
209	0x3d9aba2c	0.07555041
210	0x3d4e070e	0.050299697
211	0x3dafb420	0.08579278
212	0x3e25c714	0.16189224
213	0x3e0cf9b5	0.1376713
214	0x3dc95a45	0.09831671
215	0x3d8dff4a	0.06933458
216	0x3ddf29f1	0.108966716
217	0x3e26b0d0	0.16278386
218	0x3e149652	0.14510468
219	0x3df1ba28	0.118030846
220	0x3c9bfb09	0.019040601
221	0x3da25634	0.07926598
222	0x3db4c080	0.08825779
223	0x3dba39ae	0.09093033
224	0x3d093b65	0.03350391
225	0x3cd6f8bc	0.026241653
226	0x3ce14568	0.027498916
227	0xbb31a26e	-0.0027104872
228	0x3bd85745	0.0066022
229	0x3c990076	0.018676978
230	0xbc926802	-0.01787186
231	0xbd800a81	-0.062520035
232	0xbda2417b	-0.07922646
233	0xbd5eabd0	-0.054363072
234	0xbbf51a30	-0.0074799284
235	0xbd682d6a	-0.056683935
236	0xbdf5889d	-0.119889475
237	0xbe1ca126	-0.15295848
238	0xbdd87c00	-0.10570526
239	0xbd6353b1	-0.055499736
240	0xbd1535e5	-0.03642835
241	0xbdb3cbfd	-0.08779142
242	0xbdee1d8b	-0.116267286
243	0xbde89807	-0.11357122
244	0xbd7fdb63	-0.062465083
245	0x3c871972	0.016491625
246	0x3bd286ed	0.006424776
247	0xbbe8c748	-0.0071038343
248	0xbd33e1f7	-0.04391667
249	0xbd3431c3	-0.04399277
250	0xbdcbdef4	-0.09954634
251	0xbddf9eab	-0.109189354
252	0xbe4802a0	-0.19532251
253	0xbdf910ec	-0.12161431
254	0xbdcfde39	-0.101498075
255	0xbde56e48	-0.11202675

dec_layer_3.0.bias f4 [3]
0	0x3c84a51b	0.01619201
1	0x3c023bd9	0.007948839
2	0x3cef7c39	0.029234039
