save/large_upsample/gen_model.pt (torch, 41097 bytes, 10 tensors)

enc_layer_1.0.weight f4 [32, 3, 5, 5]
0	0xbd6503f6	-0.05591198
1	0xbde437b1	-0.11143435
2	0xbc3ea274	-0.0116354115
3	0xbda45b51	-0.0802523
4	0x3bfc3e32	0.007697844
5	0xbc98a426	-0.01863296
6	0xbc69a13e	-0.014259635
7	0xbcc43e22	-0.023955408
8	0x3c930c50	0.017950207
9	0x3d88200b	0.06646737
10	0x3d2c215a	0.042023994
11	0x3db075a1	0.08616186
12	0x3e10d41c	0.14143413
13	0x3ca42f3e	0.020042058
14	0xbcd7397e	-0.026272532
15	0x3d9a4083	0.07531836
16	0x3e086c49	0.13322558
17	0x3cc3ec98	0.023916528
18	0xbce07ee1	-0.02740425
19	0x3e03e6a3	0.1288095
20	0x3e405953	0.18784074
21	0x3cfb03f0	0.030641526
22	0xbb2ade56	-0.0026072464
23	0xbd6336e6	-0.055472277
24	0x3d99b93c	0.07506034
25	0x3d06fe30	0.032957256
26	0xbd893af8	-0.067007005
27	0xbe0b8e3d	-0.13628478
28	0xbdcdf951	-0.10057319
29	0xbc33e4b7	-0.010979823
30	0xbd06d40a	-0.03291706
31	0x3d84cc7b	0.06484314
32	0xbdab1c6b	-0.0835503
33	0xbd362413	-0.044467997
34	0x3d65222e	0.0559408
35	0x3dd65ff6	0.10467522
36	0x3d83e005	0.06439213
37	0xbab7240b	-0.0013972534
38	0x3de09fba	0.109679654
39	0x3d81916c	0.06326565
40	0x3d82aa41	0.063801296
41	0x3df20002	0.11816408
42	0xbcc78b2d	-0.024358356
43	0x3dad27eb	0.084548794
44	0x3db82027	0.089905076
45	0x3e2b7da4	0.16747147
46	0x3d820c56	0.06350009
47	0x3de6887b	0.112565
48	0xbbfb7bcc	-0.00767467
49	0x3ca439db	0.020047119
50	0xbe1138b9	-0.14181794
51	0xbc2ab2f7	-0.010418645
52	0xbe073929	-0.13205399
53	0xbe285e32	-0.16442183
54	0xbe3a6d89	-0.18205847
55	0x3d81655a	0.063181594
56	0xbb6a6185	-0.0035763693
57	0xbca0db8f	-0.019635944
58	0x3d993163	0.07480123
59	0xbd90fbdc	-0.07079288
60	0x3e11db03	0.14243703
61	0x3d531557	0.051534023
62	0xbd11d324	-0.03560175
63	0xbd1ac766	-0.037787817
64	0xbbda6131	-0.006664418
65	0x3dd9d114	0.106355816
66	0x3db76d4c	0.089563936
67	0x3cb64f4c	0.022254609
68	0x3d3c3ec4	0.045958295
69	0x3b2ded9d	0.0026539334
70	0xbcffe71b	-0.03123813
71	0x3dc1e22e	0.094669685
72	0x3d94758d	0.072489835
73	0xbd542609	-0.051794086
74	0xbcb1bfd3	-0.021697914
75	0x3e69d7eb	0.22836272
76	0x3e5fb448	0.21846116
77	0x3db7d392	0.08975901
78	0x3e60dc92	0.21959141
79	0x3cb9fb1b	0.022702744
80	0x3e4593e6	0.192947
81	0x3db1de80	0.08685017
82	0x3c2b2dd0	0.010447934
83	0xbd471476	-0.048603497
84	0x3cb53545	0.022120127
85	0x3deb0ec8	0.11477429
86	0x3dbc6ccf	0.09200441
87	0x3d9c5a01	0.076343544
88	0xbdab0867	-0.08351212
89	0x3c2405f7	0.010011188
90	0xbd696632	-0.056982227
91	0x3cae1b8f	0.021253375
92	0xbb8cbc5b	-0.0042949147
93	0xbce18b31	-0.027532192
94	0x3d5e7dba	0.05431912
95	0x3d631c9f	0.055447217
96	0x3e1e8d3c	0.15483564
97	0x3dfeb35a	0.12436552
98	0x3e05e38e	0.13075086
99	0xbd4ac375	-0.04950281
100	0x3d11f699	0.035635564
101	0x3dbe7e86	0.09301476
102	0x3dccd987	0.100024275
103	0xbc891a56	-0.01673619
104	0xbdd1c9f1	-0.102435954
105	0xbd9ea4be	-0.07746266
106	0x3bab74c8	0.0052324273
107	0x3d2bc5d6	0.041936718
108	0xbd33aaf7	-0.043864217
109	0xbe0fb55e	-0.1403403
110	0xbd825466	-0.06363754
111	0xbe3c7dd4	-0.18407375
112	0xbd96717f	-0.073458664
113	0x3bf1d4f7	0.0073801237
114	0x3c075096	0.008258959
115	0xbe47bb05	-0.19504936
116	0xbd3e8ceb	-0.04652111
117	0x3c27d841	0.01024443
118	0xbd943126	-0.07235937
119	0xbdae85b2	-0.08521594
120	0x3ca1a03a	0.019729722
121	0xbd4d85b1	-0.050176326
122	0x3ce5d327	0.028054787
123	0x3b2ee648	0.0026687551
124	0xbe017c78	-0.12645137
125	0x3ddf0aef	0.10890757
126	0x3cec480e	0.028842952
127	0x3d876478	0.0661096
128	0x3d5e1e31	0.05422801
129	0x3dc3674f	0.09541189
130	0xbdbd6b7f	-0.09249019
131	0x3d799556	0.060933433
132	0xbdbde1dc	-0.09271595
133	0xbd81ca68	-0.06337434
134	0xbdff32de	-0.12460874
135	0xbd9b556b	-0.075846516
136	0xbe3dc814	-0.18533355
137	0xbe07ddb6	-0.1326817
138	0xbc5ac77e	-0.013353227
139	0xbe53be61	-0.20678093
140	0xbde5c4e0	-0.112191916
141	0xbe081fc4	-0.13293368
142	0xbe099855	-0.13437016
143	0xbe264e25	-0.16240747
144	0xbe30282b	-0.17202823
145	0xbde2d97e	-0.110766396
146	0xbd3a072f	-0.045417007
147	0xbcb28556	-0.021792095
148	0xbd177a6b	-0.03698198
149	0x3d9ad829	0.075607605
150	0xbda21921	-0.07914949
151	0xbd107c13	-0.035274576
152	0x3c8335f2	0.016016934
153	0xbe2703c1	-0.16310026
154	0xbdc79f17	-0.09747141
155	0xbe053a97	-0.13010632
156	0x3c84b091	0.016197475
157	0xbd69d89c	-0.05709134
158	0x3ce3d9e6	0.027813863
159	0xbdde1e88	-0.10845667
160	0xbe04b469	-0.12959446
161	0x3c2d6c8f	0.010584964
162	0xba447d59	-0.0007495485
163	0x3cd74ba1	0.02628118
164	0x3c495a4d	0.012289596
165	0x3dc3afb7	0.09554999
166	0x3db42050	0.087952256
167	0x3d9bafab	0.076018654
168	0x3db49d57	0.08819073
169	0xbd38cc78	-0.04511687
170	0xbd1d3c71	-0.03838772
171	0x3d01bed5	0.031676132
172	0xbd071d5c	-0.032986984
173	0x3dbd84d6	0.09253852
174	0xbc869108	-0.016426578
175	0xbc057ce5	-0.008147453
176	0x3dd7cf19	0.105375476
177	0xbdde5ce7	-0.108575635
178	0xbc04e0fa	-0.008110279
179	0x3d82cb77	0.06386464
180	0xbc92c391	-0.017915519
181	0x3dad23ef	0.084541194
182	0x3d4a8f65	0.049453158
183	0x3d95b9c6	0.07310824
184	0xbd96c761	-0.07362247
185	0x3d7ace6c	0.061232015
186	0x3caab098	0.02083616
187	0x3cae7502	0.021296028
188	0x3da5117a	0.08059974
189	0xbdf71aa0	-0.12065625
190	0xbc822f8b	-0.01589181
191	0x3d482fd6	0.048873745
192	0xbd8ff93d	-0.0702996
193	0xbca2828f	-0.019837646
194	0x3dbce13e	0.09222649
195	0x3a596f79	0.0008294504
196	0x3d9b6adf	0.075887434
197	0xbc669405	-0.014073377
198	0x3dc783eb	0.09741958
199	0xba9ffc8f	-0.0012206006
200	0xbd1c400c	-0.038147017
201	0x3d014c20	0.03156674
202	0xbd3b3a16	-0.045709692
203	0xbe078dda	-0.13237706
204	0xbdbb2279	-0.091374345
205	0xbc9535e1	-0.018214168
206	0x3b28c40a	0.0025751614
207	0xbc87161b	-0.016490033
208	0xbca72995	-0.02040557
209	0xbd7a55ee	-0.061117105
210	0xbd020358	-0.03174147
211	0x3d09483b	0.03351615
212	0x3d6cfd4b	0.057858746
213	0xbdab7687	-0.08372217
214	0xbc023102	-0.007946255
215	0xbdba0546	-0.09083037
216	0xbd31f098	-0.04344234
217	0xbca6fe57	-0.02038495
218	0xbd32fa7d	-0.043695915
219	0x3dbe40ed	0.09289727
220	0x3ce2dae6	0.02769227
221	0xbc8191d8	-0.015816614
222	0x3e02f55e	0.12788913
223	0x3c12d147	0.008961028
224	0xbdac6ea4	-0.084195405
225	0x3b9b860b	0.004746204
226	0xbe0d1431	-0.13777234
227	0xbd890a76	-0.066914484
228	0xbe42b64d	-0.19014855
229	0xbd9b249c	-0.07575342
230	0xbd88494c	-0.06654605
231	0xbc0c64bb	-0.008568938
232	0xbda61476	-0.08109371
233	0xbe16da9e	-0.14731833
234	0xbe4ead2d	-0.20183249
235	0x3c812a76	0.015767317
236	0x3d4dd128	0.050248295
237	0xbe0b8095	-0.13623269
238	0x3cc0dd0c	0.023542903
239	0x3b846bec	0.0040411856
240	0xbd563504	-0.052296653
241	0xbdb452d8	-0.08804864
242	0x3d6f8461	0.058475856
243	0x3cea6456	0.028612297
244	0x3d8fd278	0.070225656
245	0xbd846556	-0.06464641
246	0x3dd1c17d	0.10241983
247	0x3e0b2e68	0.13591921
248	0x3c8e0025	0.017334053
249	0xbd930a97	-0.07179754
250	0xbc66192b	-0.014044086
251	0x3d936d09	0.07198531
252	0x3ad18c04	0.0015987162
253	0xbd7eeda5	-0.062238354
254	0x3c8b18f0	0.016979665
255	0xbd46431f	-0.048403855

enc_layer_1.0.bias f4 [32]
0	0x3e6ee2d3	0.23328714
1	0x3d6bbb1f	0.0575515
2	0x3e21692b	0.15762775
3	0x3e211b16	0.15732989
4	0xbe20eef1	-0.15716149
5	0xbe1f81ab	-0.15576808
6	0x3e842408	0.2580874
7	0xbddd642c	-0.10810122
8	0x3e7078f1	0.23483635
9	0x3e4bd83c	0.19906706
10	0x3e1ac9df	0.1511607
11	0x3e046504	0.1292916
12	0x3e114bde	0.14189097
13	0x3e5d515d	0.21613069
14	0xbe1e42eb	-0.15455215
15	0x3d3e8b6f	0.046519693
16	0x3e05a127	0.13049756
17	0x3e03fcee	0.12889454
18	0x3c18e89b	0.009332801
19	0xbdb9fdc6	-0.090816066
20	0xbd9b29e9	-0.07576353
21	0xbdb8c395	-0.09021679
22	0xbd9d572c	-0.07682642
23	0x3e23d47e	0.15999028
24	0xbe00d40a	-0.12580886
25	0x3e5b2151	0.21399428
26	0x3e4ef5d8	0.2021097
27	0x3e7726e5	0.24135931
28	0x3df7f1c9	0.12106664
29	0xbe1bd01e	-0.15216109
30	0x3c98fb9f	0.01867467
31	0xbe666537	-0.22499548

enc_layer_2.0.weight f4 [16, 32, 3, 3]
0	0xbe89ab92	-0.2688871
1	0xbd8924cd	-0.06696472
2	0xbdd17cb1	-0.10228861
3	0xbcc86da5	-0.024466345
4	0x3c8046ba	0.015658725
5	0x3dac578f	0.08415138
6	0xbcc0e96d	-0.023548806
7	0x3d9a4a2f	0.07533681
8	0x3db255cc	0.08707771
9	0xbd1093f4	-0.03529735
10	0x3c0cf59d	0.008603481
11	0xbd2cfda1	-0.042234067
12	0x3d2cf73e	0.042227976
13	0x3aef8186	0.0018272854
14	0x3dade938	0.084917486
15	0xbd6dc61f	-0.05805027
16	0x3d68a888	0.05680135
17	0x3d7c51a0	0.06160128
18	0xbd8171e0	-0.06320548
19	0x3c76d5d1	0.015065626
20	0x3e0051e8	0.12531245
21	0xbdcbfa4e	-0.09959851
22	0xbda4bc48	-0.08043724
23	0x3de18e2d	0.11013446
24	0xbb934088	-0.0044937767
25	0xbd89a7c4	-0.06721452
26	0x3dad8f96	0.084746525
27	0xbe100897	-0.14065777
28	0xbdea9c65	-0.11455611
29	0xbe1e410c	-0.15454501
30	0xbe29ab95	-0.1656936
31	0xbe4b8ef2	-0.19878748
32	0xbe04c15f	-0.1296439
33	0xbdf15dac	-0.117854446
34	0xbe010b79	-0.12602033
35	0xbe360bfe	-0.17778012
36	0xbdebd1d7	-0.11514633
37	0xbd904dae	-0.07046066
38	0xbe042fb5	-0.12908824
39	0xbd886334	-0.066595465
40	0x3cff2d56	0.031149548
41	0xbd906a19	-0.070514865
42	0xbda872ab	-0.08224996
43	0xbd9cb3c3	-0.07651474
44	0xbdadd5e1	-0.0848806
45	0xbe8f3db1	-0.27976754
46	0xbe7c480d	-0.2463686
47	0xbe9add81	-0.3024712
48	0xbd8d3ea0	-0.068967104
49	0xbe0eb455	-0.13935979
50	0xbcdd5aa1	-0.027020754
51	0xbc3060f8	-0.010765307
52	0xbd2f15a0	-0.042745233
53	0xbe23a55e	-0.15981051
54	0xbe0bf90a	-0.1366922
55	0xbe1328af	-0.14370988
56	0xbcf14b82	-0.02945495
57	0xbddb99c7	-0.1072269
58	0xbe173fa5	-0.14770372
59	0xbd6fc03d	-0.058532942
60	0xbe7029af	-0.23453401
61	0xbe51708d	-0.20453091
62	0xbe0f211a	-0.13977471
63	0xbbb6b4b4	-0.0055757407
64	0xbdc105d2	-0.09424938
65	0xbdd5a4f1	-0.10431851
66	0xbcf25f0f	-0.029586343
67	0xbd6e30bf	-0.058151957
68	0xbd87fd53	-0.06640115
69	0x3b8b9fb1	0.00426098
70	0xbd5c252a	-0.05374638
71	0xbdf7eb35	-0.12105409
72	0xbd2fca8d	-0.042917777
73	0xbd39ab01	-0.045329098
74	0xbd378811	-0.044807497
75	0xbe0060fa	-0.12536994
76	0xbe01c920	-0.1267438
77	0xbdc265c8	-0.094920695
78	0xbe107967	-0.14108811
79	0xbe06d059	-0.13165416
80	0xbd71cf0a	-0.05903534
81	0xbd6e1cbe	-0.05813288
82	0xbd8bf0af	-0.06833016
83	0xbd5a6b4f	-0.053324994
84	0xbd2eb5da	-0.042653896
85	0xbd9f552d	-0.07779918
86	0xbd662560	-0.056187987
87	0xbd992d38	-0.07479328
88	0xbda53f29	-0.080686875
89	0xbd283f4d	-0.041075993
90	0xbe92feb2	-0.28709942
91	0xbe239a18	-0.15976751
92	0xbe123d3a	-0.14281169
93	0xbe726e74	-0.23674947
94	0xbe35d701	-0.17757799
95	0xbe01c60a	-0.12673202
96	0xbdc5c43f	-0.096565716
97	0xbd8afe9c	-0.06786844
98	0x3d18e17d	0.037324417
99	0xbdf00a62	-0.1172073
100	0xbd20f1b4	-0.039293006
101	0xbda817e0	-0.08207679
102	0xbdb9afa3	-0.09066703
103	0xbe1421f2	-0.14466074
104	0xbdfd9c3a	-0.123833135
105	0xbde74724	-0.11292866
106	0xbddcf81e	-0.10789512
107	0xbdc45ab8	-0.09587616
108	0xbe8d8e3d	-0.27647582
109	0xbe5b7d56	-0.2143453
110	0xbe9cba5c	-0.3061093
111	0xbd17f559	-0.037099216
112	0xbdb38b8d	-0.087668516
113	0xbdeb857c	-0.115000695
114	0xbd9944dc	-0.07483837
115	0xbd9dfa7d	-0.077137925
116	0xbe417c18	-0.18894994
117	0xbdd95f7e	-0.10613917
118	0x3d4f6316	0.050631605
119	0x3c2fa749	0.010721036
120	0xbd45a969	-0.048257265
121	0x3d91848c	0.071053594
122	0x3ce2626d	0.027634824
123	0xbe488199	-0.19580688
124	0xbdac1908	-0.08403212
125	0xbcb15020	-0.021644652
126	0xbe5a347c	-0.21309084
127	0xbe0f2cce	-0.13981935
128	0xbe640c5d	-0.22270341
129	0xbd1baa18	-0.03800401
130	0x3d6f3def	0.058408674
131	0xbd86bfa8	-0.06579524
132	0x3addf29c	0.0016933265
133	0xbd405a40	-0.04696107
134	0xbc653700	-0.013990164
135	0xbdff24d6	-0.12458198
136	0xbdfc9acb	-0.12334212
137	0xbd466cb5	-0.048443515
138	0xbdf5bb8c	-0.11998662
139	0xbdeb6504	-0.114938766
140	0xbd96e520	-0.07367921
141	0xbe369c85	-0.17833145
142	0xbe2c6206	-0.16834268
143	0xbd921345	-0.071325816
144	0xbda5cf2a	-0.08096154
145	0xbd44166e	-0.047872953
146	0xbda71602	-0.081584945
147	0xbdc04414	-0.09387985
148	0xbdb4af55	-0.088225044
149	0xbdd059c5	-0.10173372
150	0xbda7cbff	-0.08193206
151	0xbd57f135	-0.052720267
152	0xbde9893d	-0.11403129
153	0xbe7b7466	-0.24556121
154	0xbcf0ee2c	-0.029410444
155	0xbcfd6bda	-0.030935217
156	0xbdd04921	-0.10170198
157	0x3dc777b7	0.09739631
158	0x3d4d58f7	0.05013367
159	0xbd840c91	-0.06447709
160	0x3a989bc8	0.0011643106
161	0x3dbf2888	0.093339026
162	0xbc0c72f8	-0.008572333
163	0x3d66cd9b	0.056348424
164	0x3d65bf27	0.0560905
165	0x3bf6df86	0.0075339703
166	0x3d9a3bd6	0.07530944
167	0x3daf658d	0.08564291
168	0xbd0f2f9b	-0.03495751
169	0x3d7529e0	0.05985439
170	0x3d922165	0.07135276
171	0xbe21d298	-0.15802991
172	0xbb2e7450	-0.002661962
173	0xbce01956	-0.027355831
174	0xbd486910	-0.04892832
175	0x3d06d4a3	0.03291763
176	0xbd9353e3	-0.071937345
177	0xbc909696	-0.01764993
178	0x3d669d42	0.056302316
179	0x3d09ed59	0.033673618
180	0xbd4b76b6	-0.04967376
181	0x3c64e50d	0.013970626
182	0xbd638c95	-0.05555399
183	0x3c26d173	0.0101817725
184	0x3d8194cb	0.06327208
185	0xbd2243b8	-0.039615363
186	0x3cab75e2	0.020930234
187	0x3d971786	0.073775336
188	0xbd6c1e49	-0.05764607
189	0xbe8e6f14	-0.2781912
190	0xbe57211a	-0.21008721
191	0xbe3008d6	-0.1719087
192	0xbe567115	-0.20941575
193	0xbe3316d2	-0.17489174
194	0xbe2d04a0	-0.16896296
195	0xbe3a3927	-0.18185864
196	0xbdc5bd56	-0.096552536
197	0xbd7bad71	-0.061444703
198	0xbd67cac8	-0.05658987
199	0xbb8846de	-0.0041588387
200	0xbceb8203	-0.028748518
201	0xbc0734ac	-0.008252304
202	0x3b913b3f	0.0044321115
203	0x3d32b530	0.043629825
204	0xbd646af5	-0.055766065
205	0x3e004088	0.12524617
206	0x3af9c683	0.0019056353
207	0xbe685299	-0.22687759
208	0xbc70b2ce	-0.014691068
209	0x3e02a427	0.12757932
210	0xbdca0116	-0.098634884
211	0x3cb30d22	0.021856848
212	0x3d7c69c9	0.061624322
213	0xbdedd3c7	-0.11612659
214	0xbb40ec9d	-0.0029437908
215	0xbd817267	-0.06320649
216	0xbe2c42a2	-0.16822293
217	0xbe32f205	-0.17475136
218	0xbdcdbe4c	-0.10046062
219	0xbd8f64d8	-0.07001656
220	0xbd341097	-0.043961134
221	0xbd96c7ad	-0.07362304
222	0xbd7b2abe	-0.06132006
223	0xbd24fab2	-0.040278144
224	0x3c37eb11	0.011225478
225	0xbe4e0be5	-0.20121725
226	0xbe267882	-0.16256908
227	0xbe54abfb	-0.2076873
228	0xbe38236e	-0.17982265
229	0xbe779d7a	-0.24181166
230	0xbe8978dd	-0.26850024
231	0xbe17eb89	-0.14835943
232	0xbe7b6a18	-0.2455219
233	0xbe531633	-0.20613937
234	0xbda41f3b	-0.08013769
235	0xbcccdcb1	-0.025007578
236	0x3d41087b	0.04712723
237	0xbd8b4e94	-0.06802097
238	0x3d499f0e	0.049223952
239	0x3c1e33ea	0.009655932
240	0xbc68062a	-0.014161626
241	0x3c877b13	0.016538179
242	0x3dae3443	0.08506062
243	0xbe385852	-0.18002442
244	0xbd3b33d8	-0.04570374
245	0xbd7510e7	-0.059830572
246	0xbe77d14e	-0.24200937
247	0xbda39e1f	-0.079891436
248	0xbdb40ef3	-0.08791914
249	0xbdfd6caa	-0.12374242
250	0xbd003c16	-0.031307302
251	0xbcaa2b9c	-0.020772748
252	0xbe1d12d9	-0.15339221
253	0xbd9c3db3	-0.07628956
254	0xbdde0ccd	-0.10842285
255	0xbe5c9385	-0.21540649

enc_layer_2.0.bias f4 [16]
0	0xbdf1aab5	-0.11800138
1	0x3e0d13bc	0.1377706
2	0xbd086174	-0.033296064
3	0x3e33ad20	0.1754651
4	0xbd32c036	-0.043640338
5	0xbca7f172	-0.020500872
6	0xba11206a	-0.0005536141
7	0xbcda49a3	-0.02664644
8	0xbe22c167	-0.1589409
9	0x3cce10c7	0.025154484
10	0x3e1a3098	0.150576
11	0xbd2dbc7e	-0.04241609
12	0x3b259878	0.002526788
13	0x3e017319	0.12641563
14	0x3b7fe7e1	0.0039048123
15	0x3dbb73db	0.09152957

enc_layer_large.0.weight f4 [12, 16, 3, 3]
0	0xbde81af6	-0.113332674
1	0xbe0ae04e	-0.13562128
2	0xbe22f636	-0.15914235
3	0xbd78843a	-0.060672976
4	0x3b6a9725	0.0035795656
5	0xbc1261f7	-0.008934489
6	0xbdb1e478	-0.08686155
7	0xbdda5701	-0.10661126
8	0xbd6b56a5	-0.057455678
9	0x3dcaed00	0.099084854
10	0x3db57f76	0.08862202
11	0x3cad8997	0.021183772
12	0x3dcd1aa1	0.10014845
13	0x3e07fc78	0.13279903
14	0x3deab096	0.11459462
15	0xbcda8205	-0.026673326
16	0x3d0921e6	0.033479594
17	0xbd109c0e	-0.035305075
18	0x3df0a317	0.11749857
19	0x3c60af1e	0.013713626
20	0x3def7860	0.116928816
21	0xbcfc8b7f	-0.030828236
22	0xbd83e306	-0.06439786
23	0xbd0c27c6	-0.03421762
24	0xbd33bc35	-0.04388066
25	0x3a2bbc4f	0.00065511925
26	0x3d20b6c8	0.039236814
27	0x3a26b73f	0.0006359703
28	0x3dd7428d	0.105107404
29	0x3d236a9e	0.0398966
30	0xbc590a8e	-0.013247145
31	0x3db6ab35	0.08919374
32	0xbb5c0875	-0.0033574377
33	0xbe0e448a	-0.13893333
34	0xbd6f8604	-0.058477417
35	0xbe11ac2b	-0.14225833
36	0xbe20ac6b	-0.15690772
37	0xbd513330	-0.051074207
38	0xbd4052d9	-0.04695401
39	0xbd4b6110	-0.049653113
40	0xbda22bb4	-0.07918492
41	0x3ba98286	0.0051730303
42	0xbe50366b	-0.20333259
43	0xbd0b6a55	-0.034036953
44	0xbdf7e308	-0.1210385
45	0xbddbec50	-0.107384324
46	0xbd662c08	-0.056194335
47	0xbdd4ad13	-0.10384574
48	0x3dbef327	0.093237214
49	0xbddc4449	-0.10755212
50	0xbde62937	-0.1123833
51	0xbe0b8fc3	-0.1362906
52	0xbac91918	-0.0015342562
53	0xbce1f08d	-0.027580524
54	0xbd3cadca	-0.046064176
55	0x3d82cca5	0.06386689
56	0x3dd1a4c9	0.102365084
57	0x3d740abb	0.059580546
58	0x3bf2d139	0.007410195
59	0x3cdf1b4f	0.027234701
60	0x3d4a2ec2	0.049360998
61	0xbdf6de18	-0.1205408
62	0x3d42e199	0.047578428
63	0xbd3bc696	-0.045843683
64	0x3d8b40a8	0.067994416
65	0xbbd54370	-0.0065082833
66	0xbd7ebd2b	-0.062192123
67	0x3c95e260	0.01829642
68	0xbd3423e2	-0.043979533
69	0x3daf63cb	0.08563956
70	0x3e170732	0.14748839
71	0x3dd8cb7f	0.10585689
72	0xbe6c9145	-0.23102291
73	0xbe2de75b	-0.16982786
74	0xbe83d1b6	-0.25745934
75	0xbde1d2f3	-0.110265635
76	0xbe197432	-0.14985731
77	0xbdbd701c	-0.09249899
78	0xbe4289c0	-0.1899786
79	0xbe24f71a	-0.16109887
80	0xbe311321	-0.17292453
81	0xbdaea21e	-0.08527015
82	0xbd5ee718	-0.054419607
83	0xbde71b13	-0.11284461
84	0xbdd02dc4	-0.10164979
85	0xbd3e748e	-0.046497874
86	0xbd592688	-0.053015262
87	0xbd8048ba	-0.062638715
88	0x3cbe112a	0.023201544
89	0xbd1aa3ba	-0.037753798
90	0xbd74225a	-0.059603073
91	0xbca5ba68	-0.020230487
92	0xbc9de2c4	-0.01927317
93	0xbd4c9368	-0.049945265
94	0xbd215ff4	-0.03939815
95	0x3d5e5eb7	0.054289546
96	0xbcee2bb9	-0.029073583
97	0xbdb1722c	-0.08664355
98	0x3d53890d	0.051644374
99	0xbd7adcb0	-0.06124562
100	0x3e8e9568	0.27848363
101	0xbc881c1e	-0.01661497
102	0x3e37d291	0.17951418
103	0xbdc5eddf	-0.09664511
104	0x3e26198c	0.16220683
105	0x3d380402	0.044925697
106	0x3dfca9bb	0.12337061
107	0xbd820efd	-0.06350515
108	0xbd9c0d75	-0.07619754
109	0xbe119557	-0.14217125
110	0xbdb442bc	-0.08801791
111	0xbe2f0dfd	-0.1709518
112	0xbd9b5590	-0.07584679
113	0xbe1967f6	-0.14981064
114	0xbc6bcfad	-0.0143927755
115	0xbc19f4c2	-0.009396734
116	0x3c961547	0.018320693
117	0x3e17ef07	0.14837275
118	0x3cc664c0	0.024217963
119	0x3d9d9927	0.07695227
120	0x3d3121d9	0.04324517
121	0x3d286122	0.041108258
122	0x3bae0ce4	0.0053115953
123	0xba0b4298	-0.00053123524
124	0x3d83c9a1	0.06434942
125	0x3bde8e59	0.0067918715
126	0x3bd66e38	0.006543901
127	0x3cd8730d	0.026422048
128	0x3d31fdf3	0.043455075
129	0x3c5ac11f	0.013351708
130	0xbded9620	-0.116009
131	0xbdcb717b	-0.09933754
132	0x3d86fd08	0.06591231
133	0x3db2a959	0.08723707
134	0x3c9090ad	0.017647112
135	0x3dd6ab0a	0.10481842
136	0x3defc601	0.11707688
137	0x3da3261d	0.07966254
138	0xbd5ec90d	-0.054390956
139	0x3ddb49d1	0.10707439
140	0xbccb3ff7	-0.024810774
141	0x3d16ed5d	0.03684746
142	0x3ce64639	0.028109657
143	0x3e1a7c9d	0.15086599
144	0xbd05b74d	-0.032645512
145	0xbdb82a37	-0.08992427
146	0xbb30d01b	-0.002697951
147	0xbde1c317	-0.110235386
148	0xbd3d171e	-0.046164624
149	0xbd860f1e	-0.06545852
150	0xbd9e7b23	-0.0773833
151	0x3dbb946c	0.091591686
152	0xbd924d17	-0.0714361
153	0x3d13a172	0.036042638
154	0xbcd0ca2b	-0.025487026
155	0xbda8b97c	-0.08238503
156	0x3d7895df	0.060689803
157	0xbc58ab0d	-0.013224375
158	0x3cf71822	0.030162875
159	0x3d2b8a83	0.041880142
160	0xbd850a26	-0.06496076
161	0xbd3f11db	-0.046647888
162	0xbd8b37c8	-0.06797749
163	0xbc8152cd	-0.015786553
164	0xbdbd72f4	-0.09250441
165	0xbe0dc4b5	-0.13844569
166	0xbd0f12be	-0.034929983
167	0xbd7cd33e	-0.061724894
168	0x3da16ca0	0.07882047
169	0x3c811174	0.015755393
170	0xbd790663	-0.060797106
171	0xbce40d93	-0.027838504
172	0x3ba94556	0.005165736
173	0xbd89f02f	-0.067352645
174	0xbcfabb99	-0.030607032
175	0xbd097777	-0.033561196
176	0xbda16f95	-0.07882611
177	0xbcde12e5	-0.027108619
178	0xbd5cbd9d	-0.053891767
179	0xbd81a9e0	-0.06331229
180	0x3e007952	0.1254628
181	0xbdded222	-0.108799234
182	0xbdf8ebea	-0.12154372
183	0x3b7ada95	0.0038277258
184	0x3c952731	0.018207164
185	0xbd436c03	-0.04771043
186	0xbc0b61f8	-0.008507244
187	0xbe2c0eb5	-0.16802485
188	0x3e01f98d	0.12692852
189	0xbdaff8ea	-0.085923985
190	0xbd56336d	-0.052295137
191	0xbc15c5c1	-0.0091413865
192	0xbe0c8add	-0.13724847
193	0x3db29091	0.0871898
194	0x3c7fe7ca	0.015619228
195	0x3d3242de	0.0435208
196	0xbd26d7dc	-0.040733203
197	0x3de9872f	0.11402737
198	0x3c63f091	0.013912336
199	0xbd01b472	-0.031666227
200	0xbd82fdce	-0.06396066
201	0x3d66d74c	0.056357667
202	0xbdba8e0d	-0.09109125
203	0xbe10fade	-0.14158198
204	0xbe6107a7	-0.21975575
205	0xbc72a646	-0.0148101505
206	0xbdb185e8	-0.08668119
207	0xbd50f852	-0.051018067
208	0xbcad3115	-0.021141568
209	0x3d87f46d	0.066384174
210	0x3dddb36b	0.10825237
211	0xbcad3798	-0.021144673
212	0x3e1217f8	0.14266956
213	0x3dae74de	0.085183844
214	0xbdc68e2b	-0.09695085
215	0x3b1b958f	0.0023740267
216	0xbdbad344	-0.09122327
217	0xbe01d53f	-0.12679003
218	0xbe3a68cd	-0.18204041
219	0xbe11ae57	-0.14226662
220	0xbdc00785	-0.09376434
221	0xbddf887a	-0.10914703
222	0xbc833e13	-0.01602081
223	0xbdc09b41	-0.09404612
224	0xbdf4b880	-0.11949253
225	0x3ccbbb32	0.024869535
226	0x3d0d3e09	0.03448299
227	0x3ce08589	0.027407425
228	0x3cae7aa9	0.021298723
229	0x3bd2b464	0.0064301956
230	0xbdfaa654	-0.12238756
231	0xbd598e99	-0.053114507
232	0x3c11faef	0.008909925
233	0xbc39cd88	-0.011340506
234	0x3c905e6e	0.017623153
235	0x3df1ce77	0.11806958
236	0x3bbf21ee	0.005832902
237	0xbdc9da13	-0.098560475
238	0x39d0ce19	0.00039826406
239	0xbb5c3cc3	-0.0033605553
240	0x3d01f603	0.031728756
241	0xbddc57e5	-0.10758952
242	0xbd2116a3	-0.03932823
243	0x3e10ac8d	0.14128323
244	0xbdcbeffc	-0.09957883
245	0x3de96051	0.11395324
246	0x3dcf1d6c	0.10113034
247	0x3e899414	0.26870787
248	0xbcdf497d	-0.027256722
249	0x3d3972a3	0.04527534
250	0xbd7b5ece	-0.06136971
251	0x3e595a6f	0.21225904
252	0x3d785071	0.06062359
253	0xbddcf958	-0.10789746
254	0xbc9b15ed	-0.018931353
255	0xbc9e0f5a	-0.01929443

enc_layer_large.0.bias f4 [12]
0	0xbc7b6498	-0.015343808
1	0x3b381820	0.0028090551
2	0xbdcf2e08	-0.10116202
3	0x3ca47cf5	0.020079115
4	0x3ac4e44d	0.0015021652
5	0xbd4e3319	-0.0503417
6	0x3c91c312	0.017793212
7	0xba153b05	-0.00056926935
8	0x3e074d80	0.13213158
9	0xbcd9b96f	-0.02657768
10	0x3e1390d3	0.14410715
11	0x3ca5d78d	0.020244384

dec_layer_2.1.weight f4 [8, 12, 2, 2]
0	0xbd28c0e9	-0.0411996
1	0xbd200220	-0.039064527
2	0x3e45b105	0.19305809
3	0xbbc2514e	-0.0059301024
4	0x3da33c51	0.07970489
5	0x3d85d87d	0.065354325
6	0xbd3ac3dd	-0.045596946
7	0x3e2d8251	0.16944243
8	0xbd45de25	-0.048307557
9	0xbd369e3e	-0.044584505
10	0xbd486dea	-0.048932947
11	0xbe2c30d3	-0.168155
12	0xbbd2a946	-0.0064288704
13	0xbc8f177a	-0.01746725
14	0xbdf35bd9	-0.11882753
15	0xbdb6fcbf	-0.08934926
16	0x3d345444	0.044025674
17	0xbdfa3e4d	-0.12218914
18	0xbdc3e1a0	-0.09564519
19	0xbe38665a	-0.18007794
20	0x3d2292a8	0.039690644
21	0xbe1839c9	-0.14865793
22	0xbe495648	-0.1966182
23	0xbe4c6771	-0.19961335
24	0x3dd6b67c	0.10484025
25	0x3dcc5d11	0.099786885
26	0xbd0ad5aa	-0.033895172
27	0x3d8b0571	0.06788147
28	0x3e05a9b1	0.13053013
29	0x3e1dc306	0.15406427
30	0x3e6f740c	0.23384112
31	0x3e9899b5	0.2980477
32	0x3d64112e	0.055680446
33	0x3d8de7e3	0.069289945
34	0xbe105520	-0.14094973
35	0xbdf9787e	-0.12181185
36	0xbc51bdce	-0.012801601
37	0xbe4a7207	-0.1977006
38	0xbdffcdee	-0.1249045
39	0xbe5f25df	-0.2179179
40	0x3e11fa6c	0.14255685
41	0xbcdbd9fd	-0.026837343
42	0x3e0282a6	0.12745151
43	0x3e5f50b1	0.21808125
44	0x3e676c92	0.2260001
45	0xbc775662	-0.015096279
46	0x3e60032e	0.21876213
47	0x3e29e4fa	0.16591254
48	0xbe85a2d5	-0.26100793
49	0xbe75fd02	-0.24022296
50	0xbe5f80d3	-0.21826486
51	0xbe45f004	-0.1932984
52	0xbe45a704	-0.19301993
53	0xbe5d43bd	-0.21607871
54	0xbd5a1641	-0.05324388
55	0xbe4f067f	-0.20217322
56	0xbe13a7ba	-0.14419451
57	0x3be086e8	0.0068520196
58	0xbe22214f	-0.15833019
59	0xbe31f428	-0.17378294
60	0x3e25b64f	0.16182826
61	0xbce9fc29	-0.028562622
62	0x3e65edda	0.22454014
63	0x3dc31e1d	0.09527228
64	0x3cc03067	0.02346058
65	0xbcad2753	-0.021136915
66	0xbb40b0f7	-0.0029402354
67	0x3ce23685	0.027613888
68	0xbd5e6011	-0.054290835
69	0x3d8efe22	0.06982066
70	0xbde49fcd	-0.11163292
71	0xbdac5dcd	-0.084163286
72	0xbd975713	-0.07389655
73	0x3d92db60	0.07170749
74	0x3d2972e4	0.041369334
75	0x3dbf122f	0.0932964
76	0xbc6373d6	-0.013882598
77	0x3dc2b1b1	0.09506548
78	0x3df7a8d2	0.12092747
79	0x3e843b22	0.25826365
80	0xbd2d398c	-0.04229121
81	0x3e1dd868	0.15414584
82	0xbd4c3017	-0.04985055
83	0x3ce8d467	0.028421594
84	0x3c9c8b3f	0.019109366
85	0x3d925fc1	0.0714717
86	0x3d189cb8	0.037258834
87	0x3da2d95e	0.07951616
88	0x3d347275	0.044054467
89	0xbdbeaa3c	-0.093098134
90	0xbe079f0d	-0.13244267
91	0x3e0de7f2	0.13858011
92	0xbd6e1333	-0.05812378
93	0x3b8a27db	0.004216177
94	0x3d2472fc	0.04014872
95	0x3e0aebb4	0.13566476
96	0xbba48606	-0.0050208597
97	0xbc0c56cf	-0.008565619
98	0x3dd735e0	0.10508323
99	0x3daa00b3	0.083009146
100	0x3cb4e0d0	0.022079855
101	0x3dc1932a	0.094518974
102	0x3e01982d	0.12655707
103	0xbc654df0	-0.0139956325
104	0x3de154dd	0.110025145
105	0xbc1fdf5a	-0.009757841
106	0xbe09b35f	-0.13447331
107	0x3da327ac	0.07966551
108	0xbe63793f	-0.2221422
109	0xbe450769	-0.19241108
110	0xbe4c7931	-0.19968106
111	0xbd9353cc	-0.07193717
112	0xbe962110	-0.293221
113	0xbe8db1f5	-0.27674833
114	0xbe08efbf	-0.13372706
115	0xbeb009e8	-0.34382558
116	0x3dce1366	0.10062294
117	0x3dd99ab3	0.1062521
118	0xbe238d53	-0.1597188
119	0x3d8f2820	0.06990075
120	0xbd55025c	-0.052004203
121	0x3e263579	0.16231336
122	0x3e12aa9a	0.14322892
123	0xbd35c43d	-0.0443766
124	0x3e6393bd	0.22224326
125	0x3e6ca022	0.23107961
126	0xbced32a9	-0.02895482
127	0x3d7beb38	0.06150362
128	0x3e1313d9	0.1436304
129	0x3e053707	0.13009273
130	0xbd8cb636	-0.068706915
131	0xbd3af8b2	-0.04564733
132	0x3df4c3c9	0.119514056
133	0x3e7e5b16	0.24839434
134	0x3d75adb8	0.059980124
135	0x3e88e2aa	0.2673543
136	0x3da3f25d	0.080052115
137	0x3dcbddea	0.09954436
138	0x3e079334	0.13239747
139	0x3c9f52ec	0.01944872
140	0x3b73bba1	0.0037190693
141	0x3e38ef94	0.18060142
142	0x3e0a63c5	0.13514622
143	0x3d66b4a0	0.0563246
144	0x3d28259f	0.041051503
145	0x3df37a1b	0.11888524
146	0xbd202e1a	-0.039106466
147	0xbcf1719a	-0.029473115
148	0x3e099add	0.13437982
149	0x3e0a9ce6	0.13536415
150	0x3c848add	0.016179496
151	0xbb6d2341	-0.0036184343
152	0xbe6d2b27	-0.23160993
153	0x3bbfb9e4	0.0058510173
154	0xbd4f8bc1	-0.05067039
155	0x3cf82118	0.030289218
156	0x3e361e7c	0.17785066
157	0x3e6a2de2	0.22869065
158	0x3e6cb435	0.23115619
159	0x3de7d6f7	0.11320298
160	0xbe8ce820	-0.27520847
161	0xbde79a7d	-0.11308763
162	0xbe74e568	-0.23915637
163	0xbe6c38ba	-0.23068514
164	0xbe079040	-0.13238621
165	0xbda11822	-0.07865931
166	0xbb85dad4	-0.0040849242
167	0xbd8430e9	-0.06454641
168	0x3e35b9ec	0.17746705
169	0xbcb586ca	-0.022158999
170	0x3d4195bd	0.047261942
171	0x3e0ed4eb	0.1394841
172	0xbc983210	-0.01857856
173	0xbe883423	-0.26602277
174	0xbe1f848d	-0.15577908
175	0xbe687096	-0.22699198
176	0x3d788ddf	0.060682174
177	0x3d942dfd	0.07235334
178	0x3ddda3c9	0.10822255
179	0x3d7b373b	0.06133197
180	0xbe0e4a4a	-0.13895527
181	0xbe3ab440	-0.18232822
182	0xbe859734	-0.2609192
183	0xbe9b1733	-0.30291137
184	0x3c119266	0.008885002
185	0xbdea69d4	-0.11445966
186	0xbcba3b8b	-0.02273347
187	0xbdd898f5	-0.10576049
188	0xbc32d3ab	-0.010914723
189	0x3de83e53	0.113400124
190	0x3dd6b8aa	0.104844406
191	0x3e31a946	0.17349729
192	0xbc958434	-0.018251516
193	0xbdefa9d5	-0.11702315
194	0x3d9b014f	0.07568609
195	0xbdc6a923	-0.09700229
196	0xbe2171cd	-0.15766068
197	0x39b0998f	0.00033683746
198	0xbd30fdb1	-0.04321069
199	0xbe34ee32	-0.1766899
200	0x3d6d4b14	0.05793293
201	0xbe2b57b7	-0.1673268
202	0xbe0bf4b1	-0.13667561
203	0xbd0bb04b	-0.034103673
204	0x3e181b96	0.14854273
205	0xbd57c3ac	-0.05267684
206	0x3dfeb651	0.12437118
207	0x3df57b31	0.119863875
208	0x3d64dec0	0.055876493
209	0xbdb1a8f9	-0.08674807
210	0xbe174e41	-0.14775945
211	0x3d56068c	0.052252337
212	0x3df884c3	0.12134697
213	0x3b28d70b	0.0025762941
214	0x3d9faf18	0.07797068
215	0xbdd3fd95	-0.10351101
216	0x3dc4d32f	0.096105926
217	0x3e0b2887	0.13589679
218	0x3e291dd0	0.16515279
219	0x3dd0a229	0.101871796
220	0x3d9f915e	0.077913985
221	0x3ba97d21	0.005172387
222	0x3df6a9c8	0.12044102
223	0x3c8c3391	0.017114433
224	0x3d7a5e38	0.06112501
225	0xbce35134	-0.027748682
226	0xbce8d328	-0.028421
227	0xbdb6e063	-0.08929517
228	0x3e27f2a8	0.1640116
229	0x3db03b8d	0.086051084
230	0x3ca20ac6	0.019780528
231	0x3e1a8d1a	0.15092888
232	0x3d6072c1	0.054796938
233	0x3de1ea43	0.1103101
234	0xbd1715f6	-0.036886178
235	0x3c94c79d	0.01816159
236	0x3db20902	0.08693124
237	0xbdd84d49	-0.10561616
238	0xbddba00a	-0.107238844
239	0x3c01eb1e	0.007929591
240	0xbe4042cb	-0.1877548
241	0x3d47b206	0.04875376
242	0xbdd113e3	-0.10208871
243	0xbc9d2bfd	-0.019186014
244	0xbd18425b	-0.037172657
245	0xbc6dbc9f	-0.014510303
246	0x3e391813	0.1807559
247	0x3dc3dbfd	0.09563444
248	0x3ddf2933	0.1089653
249	0x3dcfe614	0.10151306
250	0xbbaba39d	-0.00523801
251	0xbc64d04d	-0.013965678
252	0x3e2c0c7d	0.16801639
253	0x3e9779d2	0.2958513
254	0x3e5c954c	0.21541327
255	0x3e3fc5c2	0.18727782

dec_layer_2.1.bias f4 [8]
0	0x3da20d2f	0.07912671
1	0xbe0a3283	-0.13495831
2	0x3e5ac9df	0.2136607
3	0xbda327cc	-0.07966575
4	0x3cb9e36c	0.022691451
5	0xbcd049c8	-0.025425807
6	0xbde4daba	-0.11174531
7	0x3dd4b479	0.10385985

dec_layer_3.1.weight f4 [3, 8, 2, 2]
0	0x3ebbbe89	0.36668804
1	0x3eb4234a	0.35183173
2	0x3ea8f3e9	0.3299859
3	0x3e5bb743	0.21456628
4	0x3df8a1ce	0.12140237
5	0xbd05fafb	-0.032710057
6	0xbdde3580	-0.10850048
7	0xbd3e8ef8	-0.046523064
8	0xbcede1c8	-0.029038325
9	0x3e17a676	0.14809594
10	0x3d108a55	0.035288174
11	0xbe1c8c71	-0.15287949
12	0xbc68058f	-0.0141614815
13	0xbd0ad098	-0.033890337
14	0xbe83ddbd	-0.2575511
15	0xbead89ea	-0.33894283
16	0xbe23b0d0	-0.15985417
17	0x3d20ac25	0.03922667
18	0x3da57448	0.080788195
19	0xbdf005b0	-0.11719835
20	0xbe590187	-0.21191989
21	0xbe11a370	-0.14222503
22	0x3c12edb8	0.008967809
23	0x3c57cd49	0.013171502
24	0xbe0def80	-0.13860893
25	0x3cd22ab6	0.025655132
26	0x3d57b25a	0.052660324
27	0xbe55ebfe	-0.20890805
28	0x3e203580	0.15645409
29	0x3e3ad340	0.18244648
30	0x3d6f21df	0.05838191
31	0x3d81c342	0.063360706
32	0x3e5069a6	0.20352802
33	0x3e4fc9d8	0.20291841
34	0xbd045ebd	-0.032316912
35	0x3e35ebfa	0.17765799
36	0xbdae5ffa	-0.085144
37	0xbdbe945c	-0.09305641
38	0x3e1c3e88	0.15258229
39	0xbc04626f	-0.008080109
40	0xbcad5788	-0.021159902
41	0xbd30dbe2	-0.043178447
42	0x3d6b7de3	0.0574931
43	0xbd72a7aa	-0.05924193
44	0x3e5066e9	0.20351757
45	0x3ea1a29a	0.31569368
46	0x3ea00917	0.31256935
47	0x3eb13d83	0.34617242
48	0xbb65f653	-0.0035089448
49	0xbc1f331e	-0.009716777
50	0xbe0bf82f	-0.13668893
51	0x3d4816e8	0.04884997
52	0xb9e5dd63	-0.0004384323
53	0x3e16db81	0.14732172
54	0xbc055e92	-0.008140223
55	0x3c6ed0ae	0.01457612
56	0xbecd2f35	-0.4007508
57	0xbedc8ed2	-0.43077713
58	0xbdd5d106	-0.10440259
59	0xbdbdd6ed	-0.092695095
60	0x3e0035cb	0.1252052
61	0x3e00ccde	0.1257815
62	0x3dfa4e48	0.12221962
63	0x3e0afd4b	0.13573186
64	0x3e5ace35	0.21367724
65	0xbd7bdaaa	-0.06148783
66	0xbd846342	-0.064642444
67	0x3e26206b	0.16223304
68	0x3e5b7362	0.21430734
69	0x3e89e2fe	0.26930994
70	0xbb2077c3	-0.0024485446
71	0x3e419066	0.1890274
72	0x3cc2c77b	0.02377676
73	0xbdf685ea	-0.12037261
74	0x3bc13ba2	0.0058970014
75	0x3daf486b	0.085587345
76	0x3e6d5097	0.23175274
77	0x3ea2b068	0.31775212
78	0x3e01c47f	0.12672614
79	0x3e88b694	0.26701796
80	0xbddb8d33	-0.10720291
81	0xbba3207d	-0.004978238
82	0xbb01dc25	-0.0019815054
83	0xbc9e7bb1	-0.01934609
84	0xbd96ab20	-0.07356858
85	0x3c110afd	0.0088527175
86	0xbe19ce1d	-0.15020032
87	0x3d93aef1	0.07211102
88	0xbb926b3f	-0.004468351
89	0x3e6c960d	0.23104115
90	0x3e4fb2f7	0.20283113
91	0x3dd640db	0.10461589
92	0x3dd02e58	0.10165089
93	0x3e31b010	0.17352319
94	0x3ccc6c1c	0.024953894
95	0xbd91cd97	-0.07119291

dec_layer_3.1.bias f4 [3]
0	0x3ed759c3	0.4206067
1	0x3e8c1ce1	0.27365783
2	0x3e7ab60f	0.24483512
