save/updated_model_small/gen_model.pt (torch, 57051 bytes, 12 tensors)

enc_layer_1.0.weight f4 [32, 3, 5, 5]
0	0x3d480275	0.04883047
1	0x3e51f53c	0.20503706
2	0x3e02703d	0.12738128
3	0x3e1fea5c	0.15616745
4	0x3e15ac00	0.14616394
5	0x3e05b0ad	0.13055678
6	0x3da86825	0.08222989
7	0x3e77776b	0.24166648
8	0x3e70393f	0.23459338
9	0x3ddfbfa1	0.10925222
10	0x3d8053d3	0.06265988
11	0x3db237d8	0.087020576
12	0x3e4c1156	0.19928488
13	0xbcc2bfc6	-0.023773085
14	0xbc8babeb	-0.01704975
15	0xbdce54b1	-0.10074747
16	0x3cf447fd	0.029819483
17	0xbd21a9eb	-0.039468687
18	0xbdaa6c37	-0.083214216
19	0xbe77689b	-0.24160998
20	0xbe2eb9e2	-0.17063096
21	0xbcd3fb50	-0.025876671
22	0xbda0819d	-0.07837222
23	0xbe5da3b2	-0.21644476
24	0xbea0bfbe	-0.31396288
25	0x3d1d80e8	0.038453013
26	0x3e5931fc	0.21210474
27	0x3e9ca220	0.30592442
28	0x3df2c6a5	0.11854295
29	0xbba6d2ae	-0.005091033
30	0x3e80136c	0.25014818
31	0x3e479986	0.19492158
32	0x3e073cb8	0.13206756
33	0x3d95c302	0.073125854
34	0x3e406cda	0.18791524
35	0x3e3302d8	0.17481554
36	0x3d9a0861	0.075211294
37	0x3e147e2a	0.14501253
38	0xbd90bae8	-0.070668995
39	0x3d3154da	0.04329381
40	0xbda0435b	-0.07825347
41	0xbd179154	-0.03700383
42	0xbe67b608	-0.22628033
43	0xbe1c330f	-0.15253852
44	0xbead585f	-0.33856484
45	0xbe64a3cc	-0.22328109
46	0xbe933f86	-0.28759402
47	0xbebd9d76	-0.37034196
48	0xbe95ea04	-0.29280102
49	0xbec56f61	-0.38561538
50	0x3e92af78	0.28649497
51	0x3e922144	0.28541005
52	0x3e831da9	0.25608566
53	0x3ea27257	0.3172786
54	0x3e7deccf	0.24797367
55	0x3e28d19a	0.16486207
56	0x3e879b5b	0.26485714
57	0x3e82f410	0.2557683
58	0x3dfb9085	0.12283424
59	0x3d71d4bd	0.059040774
60	0x3e162d0b	0.1466562
61	0x3e0272b7	0.12739073
62	0x3e1339be	0.14377496
63	0x3cb7a666	0.022418212
64	0x3d05b1cd	0.032640267
65	0x3d3afd5b	0.045651775
66	0x3d05b70d	0.032645274
67	0xbd93e7ce	-0.072219476
68	0x3c90d194	0.01767806
69	0xbe82b1a6	-0.2552616
70	0xbe0023be	-0.12513635
71	0xbc2dd712	-0.010610359
72	0xbe01ba0c	-0.12668628
73	0xbe41fb18	-0.18943441
74	0xbe9fe1b1	-0.31226876
75	0xbd0e4869	-0.034737024
76	0xbe286a5a	-0.1644682
77	0x3ded5da3	0.115901254
78	0x3d111360	0.035418868
79	0x3e621f48	0.22082245
80	0x3d5c3eb7	0.053770747
81	0x3d934860	0.07191539
82	0x3e0ea0a9	0.13928474
83	0x3e2d6597	0.16933285
84	0x3def942e	0.11698185
85	0xbdea41dc	-0.11438343
86	0x3d798a7e	0.060923092
87	0xbd6c57cf	-0.05770093
88	0x3dd18a0e	0.1023141
89	0x3e94d47d	0.29068366
90	0xbd6cbfb8	-0.057800025
91	0xbe170518	-0.14748037
92	0xbd985d73	-0.07439699
93	0x3d2cb65b	0.042166095
94	0x3dc88094	0.09790149
95	0xbd2068dd	-0.039162505
96	0xbe4858a2	-0.1956506
97	0xbe89ecf7	-0.26938602
98	0xbe1648d4	-0.14676219
99	0x3d4a701c	0.049423322
100	0x3b1df199	0.0024100302
101	0xbdf7b974	-0.12095919
102	0x3e10fe9c	0.14159626
103	0x3e9be90b	0.30451235
104	0x3e815af9	0.2526472
105	0x3df01a2c	0.11723742
106	0x3e29b74e	0.16573831
107	0x3deeca95	0.11659733
108	0x3e2e4501	0.1701851
109	0x3e4522de	0.19251582
110	0x3df72c2b	0.12068971
111	0x3d578e72	0.05262608
112	0x3d5dd50e	0.054158263
113	0x3e556bd4	0.20841914
114	0x3eb7136c	0.35757005
115	0x3ca1437e	0.019685503
116	0xbe27f6c2	-0.16402724
117	0x3d0fe532	0.035130687
118	0x3e24ea13	0.16104917
119	0x3e2fe6c4	0.17177874
120	0xbd6b3eae	-0.057432823
121	0xbe8b71b3	-0.27235183
122	0xbe6846fb	-0.22683327
123	0x3beae808	0.0071687736
124	0xbd8436b4	-0.06455746
125	0xbe73ca27	-0.23807584
126	0xbdfc20d2	-0.123109475
127	0x3d7d23ed	0.06180184
128	0x3de12858	0.10994023
129	0x3e3e98fa	0.18613043
130	0xbe059301	-0.13044359
131	0xbe35ddad	-0.17760344
132	0xbd0aa3d3	-0.03384764
133	0x3e070bb7	0.13188063
134	0x3e59befc	0.21264261
135	0xbe5874df	-0.21138333
136	0xbd44202e	-0.04788225
137	0xbd8a7cfd	-0.06762121
138	0x3d462fc6	0.048385404
139	0x3dd466f0	0.10371196
140	0xbd67ee4f	-0.056623753
141	0xbe8f92d1	-0.280417
142	0xbde5de1b	-0.11224004
143	0x3d8fe61f	0.07026314
144	0x3dcc619a	0.099795535
145	0xbe7e4f8d	-0.24835034
146	0xbe78702a	-0.24261537
147	0xbe83c515	-0.257363
148	0xbe0da9ec	-0.13834351
149	0xbd5ea620	-0.054357648
150	0xb9eca1af	-0.0004513389
151	0x3e07b106	0.13251123
152	0xbcde6e6f	-0.027152268
153	0x3ce0af3c	0.027427308
154	0x3d82d4bf	0.06388234
155	0xbdc13dc4	-0.09435609
156	0x3df727e0	0.120681524
157	0x3dd16633	0.10224571
158	0x3e045578	0.12923229
159	0xbd7c23e6	-0.061557673
160	0x3e170975	0.14749701
161	0x3c82fcec	0.015989743
162	0x3dca82d6	0.09888236
163	0x3e0c270e	0.13686773
164	0x3e250dcd	0.16118546
165	0x3dc87914	0.09788719
166	0x3de8aebc	0.11361453
167	0x3daf38cb	0.08555754
168	0x3e093b10	0.13401437
169	0x3e19831a	0.14991418
170	0x3ddef899	0.1088726
171	0x3db29ff4	0.08721915
172	0x3d105ad2	0.035242863
173	0xbcc4de24	-0.024031706
174	0xbdb00856	-0.0859534
175	0x3d696176	0.05697771
176	0xbcbab82b	-0.022792896
177	0x3d5ec4b5	0.054386813
178	0x3acf435f	0.0015812925
179	0xbda7ee4e	-0.0819975
180	0x3d11da95	0.035608847
181	0x3de0d0f5	0.109773554
182	0x3d965506	0.07340436
183	0x3db95d1e	0.09050964
184	0x3d3978da	0.04528127
185	0x3e1f4561	0.1555381
186	0x3e288486	0.16456804
187	0x3e8b8bc7	0.2725508
188	0x3e5be656	0.21474585
189	0x3da83edc	0.082151145
190	0xbd37a391	-0.044833723
191	0x3d2a3a94	0.04155977
192	0x3e34e6a7	0.17666112
193	0x3e0562d0	0.13025975
194	0x3db561a1	0.08856512
195	0xbd067de9	-0.03283492
196	0x3dc71a90	0.09721863
197	0x3d1c5e23	0.038175713
198	0x3c612c53	0.013743478
199	0xbd0b35d9	-0.0339869
200	0xbdb21faf	-0.086974494
201	0xbc49d980	-0.012319922
202	0xbd016dd1	-0.03159887
203	0x3d1e3585	0.03862526
204	0x3a8cc780	0.0010740608
205	0x3dcc6d37	0.099817686
206	0x3dfadd44	0.12249234
207	0x3e4c596a	0.19955984
208	0x3c526d21	0.012843401
209	0xbd3b2518	-0.045689672
210	0x3d95cb53	0.07314172
211	0x3d4053de	0.046954982
212	0x3c586fc6	0.013210243
213	0x3d78a075	0.0606999
214	0xbc9dd8b6	-0.019268375
215	0xbdf528b5	-0.11970655
216	0x3df15479	0.1178369
217	0x3e23e5af	0.16005586
218	0x3e255a3c	0.16147703
219	0xbcf26923	-0.029591149
220	0xbe241bd9	-0.16026248
221	0x3cc65aec	0.024213277
222	0xbde2027d	-0.11035631
223	0xbda95e77	-0.08269971
224	0x3d967b49	0.073477335
225	0xbd80dc07	-0.06291967
226	0xbe2d7896	-0.16940531
227	0x3c360761	0.011110158
228	0x3d7a1d85	0.06106331
229	0x3dbd7d4d	0.09252415
230	0xbcd2b5a6	-0.025721382
231	0xbd8bd6ed	-0.06828103
232	0xbe17fc32	-0.14842299
233	0x3d80d4e8	0.06290609
234	0xbd2e4e02	-0.042554863
235	0xbd7e414e	-0.062074
236	0xbd7befff	-0.061508175
237	0x3d28110b	0.04103188
238	0x3dcaeac5	0.0990806
239	0x3d483b5b	0.04888473
240	0xbdbcb5cb	-0.09214362
241	0x3c657fea	0.014007548
242	0x3d4732ed	0.04863255
243	0x3d0ac634	0.033880427
244	0x3c905bf9	0.017621981
245	0x3daaccb8	0.08339828
246	0xbde23ca0	-0.110467196
247	0x3dda08ed	0.10646234
248	0x3bd4a9e9	0.0064899814
249	0x3d6a40b4	0.057190612
250	0xbdf0484a	-0.11732538
251	0xbe18319e	-0.14862677
252	0x3cfe39d8	0.031033441
253	0xbd73c7d3	-0.05951674
254	0xbda065a3	-0.07831886
255	0xbdcc12ce	-0.09964524

enc_layer_1.0.bias f4 [32]
0	0xbf277411	-0.6541148
1	0x3de96d16	0.113977596
2	0x3d605298	0.054766268
3	0x3d269efd	0.040678967
4	0x3e30674f	0.17226909
5	0x3e62fac6	0.22165975
6	0x3d8d5458	0.06900853
7	0x3d5c36c7	0.053763177
8	0x3dc4460d	0.095836736
9	0xbf21ff5f	-0.6328029
10	0x3e07dae1	0.1326709
11	0x3db106ba	0.08643861
12	0xbf18c709	-0.59678704
13	0xbf216403	-0.6304323
14	0xbe41ad4d	-0.18913765
15	0xbc6c3918	-0.014417909
16	0xbe2e7ab0	-0.17038989
17	0x3dfb022c	0.122562736
18	0x3da68f9b	0.08132859
19	0x3d25b83f	0.040458914
20	0xbd17218c	-0.036897227
21	0x3e1eba65	0.15500791
22	0x3e07eb7c	0.13273424
23	0x3dfa00c8	0.1220718
24	0x3e63b373	0.22236423
25	0xbdf3a386	-0.11896424
26	0x3e2f26c7	0.17104636
27	0x3ec076fb	0.37590775
28	0xbdeaf9c2	-0.11473419
29	0x3d60e80c	0.054908797
30	0x3d4fb5eb	0.0507106
31	0xbe5a0eac	-0.2129466

enc_layer_2.0.weight f4 [16, 32, 3, 3]
0	0xbecf5b5c	-0.4049939
1	0xbf27b2c0	-0.65507126
2	0xbed78390	-0.42092562
3	0x3dc516f5	0.09623519
4	0x3f06b8c9	0.5262571
5	0x3e1aef2d	0.15130301
6	0xbe3bc9f4	-0.18338758
7	0x3da928e8	0.082597554
8	0x3da93b00	0.082632065
9	0x3c127f03	0.008941415
10	0xbd73e127	-0.059540894
11	0xbdb362a4	-0.087590486
12	0x3e101eb7	0.14074217
13	0x3e1f8f29	0.15581955
14	0xbd20bcc3	-0.039242517
15	0xbc9ee844	-0.019397862
16	0x3db72188	0.089419425
17	0x3df6bec0	0.120481014
18	0xbc437f36	-0.011932185
19	0x3d36959a	0.044576265
20	0x3cdfedd2	0.027335081
21	0x3d54470f	0.05182558
22	0x3e37d503	0.17952351
23	0x3d6a2793	0.057166647
24	0xbda4dbb9	-0.08049721
25	0x3d66914d	0.056290913
26	0x3d8e8ea6	0.06960802
27	0xbe324e20	-0.17412615
28	0x3d81c96d	0.06337247
29	0xbd890286	-0.066899344
30	0xbcc28794	-0.02374629
31	0x3d4933ad	0.049121547
32	0xbd05bc61	-0.032650355
33	0xbcdcbb1e	-0.026944693
34	0xbdb733da	-0.08945437
35	0xbda9d526	-0.08292608
36	0xbc0c92c2	-0.008579912
37	0xbe445ec6	-0.19176778
38	0xbe10a491	-0.14125277
39	0x3e28d1dc	0.16486305
40	0x3e8d89a0	0.27644062
41	0xbb8ffc48	-0.004394088
42	0xbd4ce8cd	-0.050026704
43	0x3e4e5bda	0.20152226
44	0x3df2b324	0.118505746
45	0xbc9522a0	-0.018204987
46	0x3c44e32b	0.012017052
47	0xbdd108e0	-0.10206771
48	0xbdacce6e	-0.08437811
49	0x3e836789	0.2566493
50	0xbd1cf740	-0.038321733
51	0xbe0ef207	-0.13959514
52	0x3d720dc6	0.059095167
53	0xbc62c734	-0.013841439
54	0x3e917f2d	0.2841734
55	0xbe9c6b0b	-0.30550417
56	0xbdbe82b7	-0.09302276
57	0xbd8bc176	-0.06824009
58	0xbee4a5b2	-0.44657665
59	0xbee6b23a	-0.4505785
60	0x3e5bff25	0.21484049
61	0xbe585872	-0.21127489
62	0xbebfad75	-0.37437025
63	0xbc0b3787	-0.0084971255
64	0x3c7fd408	0.015614517
65	0xbc749cf5	-0.01493
66	0xbd182a65	-0.037149806
67	0x3e176c45	0.14787395
68	0x3d2026a8	0.039099365
69	0xbcbbeb94	-0.02293948
70	0x3dcbe676	0.09956066
71	0x3ddfa2cd	0.10919724
72	0xbcac217c	-0.02101206
73	0x3e1818b2	0.1485317
74	0x3e1eb722	0.15499547
75	0xbdc86779	-0.09785361
76	0x3e2274cc	0.15864867
77	0x3e50b77e	0.20382497
78	0xbd97a0ea	-0.07403739
79	0xbcd27987	-0.025692714
80	0x3cb2b589	0.021815078
81	0x3dc0580a	0.09391792
82	0x3c9a0e83	0.018805748
83	0xbda0fba4	-0.07860497
84	0x3e848839	0.2588518
85	0x3f1287de	0.57238567
86	0x3df1dc7b	0.118096314
87	0xbe198e1d	-0.14995618
88	0x3da06fae	0.07833801
89	0xbd8338ab	-0.06407293
90	0x3e4b1ef6	0.1983603
91	0x3d685fd7	0.056732025
92	0xbdb78f29	-0.089628525
93	0x3d2d8f37	0.04237291
94	0x3e1d5d0a	0.15367523
95	0x3d16303b	0.03666709
96	0xbe02148c	-0.1270315
97	0x3e0d36a5	0.13790376
98	0x3dba8a94	0.09108463
99	0xbd482f4b	-0.048873227
100	0x3d6a38b3	0.05718298
101	0xbe1074b4	-0.14107019
102	0x3da4e6ff	0.080518715
103	0x3e3cd43a	0.18440333
104	0x3de2debc	0.110776395
105	0xbd8b7fd8	-0.06811494
106	0x3c2ea744	0.010659996
107	0x3b6dfcd2	0.0036314023
108	0xbdac2c18	-0.08406848
109	0x3eef5dc5	0.46751228
110	0x3e1e3b0d	0.15452214
111	0x3d79d393	0.06099279
112	0x3ea5e767	0.32403108
113	0x3e820ce0	0.25400448
114	0xbe9addd2	-0.3024736
115	0xbe831e26	-0.2560894
116	0xbe3a2c03	-0.18180852
117	0x3eca456e	0.39506096
118	0x3ed9e389	0.42556408
119	0x3e23b4dc	0.15986961
120	0x3e959c29	0.29220703
121	0x3f00f946	0.5038036
122	0x3eac1b4f	0.33614585
123	0xbe2c2e28	-0.16814482
124	0xbd9b91a9	-0.07596142
125	0xbdb266c1	-0.08711005
126	0xbd8ef8a2	-0.06981017
127	0xbd98f651	-0.07468856
128	0xbe53d704	-0.2068749
129	0x3e0bfd47	0.13670836
130	0x3e4198ef	0.18905996
131	0xbbf9eda6	-0.007627207
132	0xbded8522	-0.11597659
133	0x3abcd440	0.0014406517
134	0x3a611049	0.00085854955
135	0x3a9ca320	0.001195047
136	0xbd0e25ff	-0.034704205
137	0xbd292f34	-0.041304782
138	0xbdadfd33	-0.084955595
139	0x3e38d9e4	0.18051869
140	0x3da1c8a5	0.07899598
141	0xbd0ccb8f	-0.034373816
142	0x3e114f33	0.14190368
143	0x3ded2f68	0.11581308
144	0xbddd99ef	-0.10820376
145	0xbc077798	-0.0082682595
146	0xbd5e8b8e	-0.05433231
147	0xbd96ada1	-0.07357336
148	0xbcc438d2	-0.023952875
149	0x3ceb9456	0.028757256
150	0xbe1093c9	-0.14118876
151	0xbe1efae9	-0.15525402
152	0xbd981386	-0.07425599
153	0xbdbfca33	-0.09364738
154	0x3d8312dc	0.064000815
155	0x3de8fc07	0.113761954
156	0x3b59e58b	0.003324839
157	0x3e18c808	0.14920056
158	0x3df660c8	0.12030178
159	0x3c9bb500	0.019007206
160	0x3cbd6540	0.023119569
161	0x3d5ba98b	0.053628486
162	0xbc80c9ec	-0.015721284
163	0x3d187d81	0.037229065
164	0x3d8db94d	0.06920109
165	0xbdf75050	-0.12075865
166	0x3dfbb139	0.12289662
167	0x3dc77b23	0.09740283
168	0xbd28dd41	-0.04122663
169	0x3bf10bd5	0.007356147
170	0xbc195a9d	-0.009359983
171	0xbdd84df0	-0.105617404
172	0xba14080e	-0.0005646952
173	0xbd5c99d7	-0.05385765
174	0xbd63a4e5	-0.055577178
175	0x3e227c22	0.15867665
176	0x3d37a1e7	0.044832136
177	0xbdb0194a	-0.085985735
178	0x3d862be7	0.065513425
179	0x3a433905	0.0007447156
180	0xbd7a032c	-0.06103818
181	0x3e77712b	0.24164264
182	0x3cceffa6	0.025268387
183	0x3cb70e98	0.022345826
184	0x3e96b376	0.29433793
185	0x3ea63704	0.3246385
186	0xbcc599bc	-0.024121158
187	0xbd8d8983	-0.06910994
188	0x3ae719ef	0.001763163
189	0x3e9b44fc	0.30326068
190	0x3e1a0521	0.15041019
191	0x3ddf4e6b	0.10903629
192	0x3d8b6d62	0.068079725
193	0x3e323c01	0.17405702
194	0x3e513f56	0.20434317
195	0xbd7c523b	-0.06160186
196	0x3d2387f4	0.039924577
197	0x3da67ada	0.08128901
198	0xbda88bda	-0.082297996
199	0xbd6a092d	-0.057137657
200	0xbdb774d5	-0.08957831
201	0x3c2fcc91	0.010729925
202	0x3e36ef24	0.17864662
203	0x3dd88e5b	0.10574027
204	0xbdc0f2ad	-0.09421287
205	0x3d6da31c	0.05801688
206	0xbc518fa9	-0.012790599
207	0xbd85655c	-0.065134734
208	0x3ded9fc4	0.116027385
209	0xbdabf6cf	-0.083966844
210	0x3b3fab5c	0.0029246425
211	0x3e22acbd	0.15886207
212	0x3c66905d	0.014072505
213	0xbd1bca2b	-0.0380346
214	0x3d9155f6	0.07096474
215	0x3cc9054f	0.024538664
216	0x3d30d373	0.043170404
217	0x3db6c653	0.08924546
218	0x3d04b993	0.03240354
219	0x3d5835f7	0.05278584
220	0x3e5d7db2	0.2162998
221	0x3d43aedf	0.047774192
222	0xbd94dada	-0.07268305
223	0x3d928386	0.07153992
224	0x3d209ef1	0.03921408
225	0xbd3ede38	-0.046598643
226	0xbe10173c	-0.14071363
227	0xbdf4726d	-0.119358875
228	0xbd765fa8	-0.06014982
229	0x3e8701e5	0.26368633
230	0x3d9d1c16	0.076713726
231	0xbe407f46	-0.18798551
232	0x3d43d0b8	0.04780647
233	0x3de88107	0.11352735
234	0xbca5dedc	-0.02024787
235	0x3d8a4aef	0.06752574
236	0x3ab58783	0.001384959
237	0xbc14e7a5	-0.0090884315
238	0x3e25eaea	0.16202894
239	0x3dcdb27e	0.1004381
240	0xbd863127	-0.06552344
241	0x3d29b9b4	0.041436866
242	0x3da525a6	0.080638215
243	0x3dc154e1	0.094400175
244	0xbd651098	-0.05592403
245	0xbe180ba5	-0.14848192
246	0x3e3cb752	0.18429306
247	0x3e66a5df	0.22524212
248	0xbcd90d03	-0.026495462
249	0xbdab9b96	-0.08379285
250	0x3d8d4350	0.068976045
251	0x3d2c1551	0.042012516
252	0xbd821d81	-0.06353284
253	0x3cf8a083	0.030349975
254	0xbe384a2d	-0.17997046
255	0xbcd4f71f	-0.025996743

enc_layer_2.0.bias f4 [16]
0	0x3e81eb36	0.25374764
1	0xbe19f2ce	-0.15034029
2	0x3cb94ef1	0.02262065
3	0xbd8643e1	-0.065559156
4	0x3e1269a9	0.14298119
5	0x3e1ae6b8	0.15127075
6	0x3da867b3	0.08222904
7	0x3d34979d	0.044089902
8	0xbde27f55	-0.11059443
9	0x3d2bd961	0.041955356
10	0x3dbb9435	0.091591276
11	0xbd980fe9	-0.074249096
12	0x3ddd15af	0.107951514
13	0x3dec99f5	0.115528025
14	0xbdc9b252	-0.09848465
15	0x3e068898	0.13138044

enc_layer_small.0.weight f4 [12, 16, 3, 3]
0	0x3d930302	0.07178308
1	0x3de25e24	0.11053112
2	0xbdc8cfdf	-0.09805273
3	0x3e45a595	0.19301446
4	0xbe463c14	-0.19358855
5	0xbd159a03	-0.03652383
6	0x3e033a16	0.12815127
7	0xbd97e444	-0.07416585
8	0xbd033249	-0.032030378
9	0x3a046b30	0.00050513726
10	0xbe414d25	-0.18877085
11	0xbda2baa3	-0.079457544
12	0xbe65473d	-0.22390456
13	0xbe52e047	-0.20593368
14	0x3d168ed2	0.036757298
15	0x3c4a412f	0.012344643
16	0x3d96114d	0.073275186
17	0x3ddb061e	0.10694526
18	0x3d0db31b	0.034594636
19	0x3db6ea2e	0.08931385
20	0xbc842c74	-0.016134478
21	0xbcc6ad4b	-0.024252554
22	0xbe7498fc	-0.23886484
23	0xbe15e491	-0.14637972
24	0x3d525fb2	0.051360793
25	0xbdd198ad	-0.10234199
26	0xbc852338	-0.016252145
27	0xbdde4222	-0.108524576
28	0xba9a24f0	-0.0011760276
29	0xbe113e75	-0.14183982
30	0xbd572c23	-0.052532326
31	0xbe1ef27b	-0.15522186
32	0x3a4e8c35	0.0007879169
33	0xbd1fc2b5	-0.039004046
34	0xbdb82256	-0.08990924
35	0xbdb2235c	-0.086981505
36	0x3d62e3ea	0.055393137
37	0x3da587ff	0.0808258
38	0x3d3981c1	0.04528976
39	0xbe065bac	-0.13120908
40	0xbde40d9d	-0.11135409
41	0x3da9771f	0.08274674
42	0x3e09a57f	0.13442038
43	0xbcdcb911	-0.026943715
44	0xbc023592	-0.0079473425
45	0x3d46496b	0.04840986
46	0xbd15dddd	-0.03658854
47	0xbd73bb8d	-0.059505034
48	0x3e1b10fa	0.15143195
49	0xbe1ea9b3	-0.15494423
50	0xbe1faeee	-0.15594074
51	0xbd54d5e1	-0.051961783
52	0xbda79dad	-0.08184371
53	0xbd261b18	-0.040553182
54	0x3dde263c	0.108471364
55	0xbe800611	-0.25004628
56	0xbe2428ff	-0.16031264
57	0xbd9546c5	-0.07288889
58	0xbda218e3	-0.07914903
59	0x3e1416d4	0.14461833
60	0x3d76e964	0.060281172
61	0x3c7c8343	0.015412155
62	0xbdcdb467	-0.10044175
63	0xbdecf137	-0.115694456
64	0x3bd30e97	0.006440948
65	0x3d863a9f	0.0655415
66	0x3d075a8a	0.03304533
67	0x3e6354dc	0.2220034
68	0x3d57ffc5	0.052734155
69	0x3e1a3f8b	0.15063302
70	0xbc5c3581	-0.013440491
71	0x3db9619c	0.09051821
72	0x3bfccf8f	0.0077151726
73	0xbd8d764f	-0.06907331
74	0x3d85b128	0.065279305
75	0x3d242d10	0.040082037
76	0xbd7e0175	-0.06201311
77	0xbe69883b	-0.22805874
78	0x3d05ee34	0.03269787
79	0xbcc437f0	-0.023952454
80	0x3e073460	0.13203573
81	0x3c4979f5	0.012297143
82	0x3daa8475	0.083260454
83	0x3e0b456c	0.13600701
84	0x3cbcc292	0.023041997
85	0xbda0174f	-0.07816946
86	0x3d757c76	0.05993315
87	0x3d9e19e3	0.07719781
88	0x3d43bd6d	0.047788072
89	0x3d264bd5	0.040599663
90	0x3d8cb6b1	0.06870783
91	0x3d8084e6	0.06275348
92	0x3cd2e48e	0.025743749
93	0xbd8ffcea	-0.070306614
94	0xbdf06f28	-0.11739951
95	0xbabae7a0	-0.0014259703
96	0x3dd59dc8	0.10430485
97	0xbc86c0fa	-0.01644944
98	0x3dacbf24	0.08434895
99	0xbd779722	-0.060446866
100	0xbcda923a	-0.026681054
101	0xbd1c0a9d	-0.03809606
102	0xbb67c5d9	-0.003536573
103	0xbde04cec	-0.10952172
104	0xbe14c445	-0.14527996
105	0x3c1981c8	0.009369321
106	0xbe06a56c	-0.13149041
107	0xbd0dc227	-0.034608986
108	0xbcb36bce	-0.021901991
109	0xbd8dd988	-0.069262564
110	0x3a9811f0	0.0011602025
111	0xbcea4278	-0.028596148
112	0xbe292443	-0.16517739
113	0x3d6bba6a	0.057550825
114	0x3d185fa4	0.037200585
115	0x3c8fe3c4	0.017564662
116	0xbdca402d	-0.09875522
117	0x3bda4191	0.006660648
118	0xbd594c88	-0.0530515
119	0x3e0809f3	0.13285045
120	0xbd6c1bcb	-0.057643693
121	0xbde2bd58	-0.11071271
122	0x3db650f1	0.08902157
123	0x3e07ed9d	0.13274236
124	0x3e1055a3	0.14095168
125	0xbc8763c4	-0.016527064
126	0x3d425870	0.04744762
127	0xbd84376f	-0.064558856
128	0xbd8a2517	-0.067453556
129	0xbd79d5bb	-0.060994845
130	0xbe0bcd8e	-0.13652632
131	0x3d34bf98	0.04412803
132	0x3da0ad0a	0.078455046
133	0xbd0ae9a6	-0.03391423
134	0x3d1c954c	0.038228318
135	0xbda1a8d4	-0.078935295
136	0xbc559505	-0.013036017
137	0xbdf86c05	-0.12129978
138	0xbc5df86b	-0.013547997
139	0xbdce101b	-0.100616656
140	0xbd50f56e	-0.05101531
141	0xbd95e23f	-0.07318544
142	0xbc604619	-0.013688588
143	0xbd38435b	-0.04498611
144	0xbde9e948	-0.11421448
145	0xbda67cfc	-0.08129308
146	0xbd9c22ed	-0.07623849
147	0x3dba813b	0.0910668
148	0x3bf383a0	0.0074314624
149	0x3d88367d	0.06651018
150	0x3e1c2157	0.15247093
151	0x3d657fb3	0.056029987
152	0xbd7b4aa5	-0.061350483
153	0xbe4a0b51	-0.1973088
154	0x3d9819a8	0.074267685
155	0xbe0facbb	-0.14030735
156	0xbd1d7c30	-0.038448513
157	0x3d628639	0.055303786
158	0x3db2c9da	0.087299064
159	0x3de19b35	0.110159315
160	0x3dafc947	0.085833125
161	0x3e67ed64	0.22649151
162	0xbd09a8be	-0.03360819
163	0x3d66b290	0.056322634
164	0xbd90054c	-0.0703226
165	0xbd98acca	-0.07454832
166	0xbe3e436a	-0.18580404
167	0xbdc43a77	-0.09581464
168	0x3db27ac6	0.087148234
169	0xbdd02aab	-0.10164388
170	0xbdd6aa13	-0.10481658
171	0xbd95e5fb	-0.07319256
172	0xba127f44	-0.0005588422
173	0x3dce2448	0.10065514
174	0xbd631c37	-0.05544683
175	0x3e09761b	0.1342396
176	0x3e255f1f	0.16149567
177	0x3d8e7027	0.06954985
178	0xbdaca3df	-0.084296934
179	0x3d652331	0.055941764
180	0x3d394d52	0.045239754
181	0xbd447fa3	-0.047973286
182	0x3e04e502	0.12977985
183	0xbd902b1a	-0.07039471
184	0x3c7a13bf	0.015263497
185	0x3e1b7438	0.15181053
186	0x3de59900	0.11210823
187	0xbdbe3a8a	-0.09288509
188	0xbda7e6fc	-0.08198354
189	0xbd4d0be4	-0.050060168
190	0xbd6f8eed	-0.058485914
191	0xbd56c9f0	-0.052438676
192	0x3c53c880	0.012926221
193	0x3cb362e1	0.021897735
194	0xbdfcc072	-0.123413935
195	0x3d171ef9	0.036894772
196	0x3e38e125	0.18054636
197	0xbd97d4c1	-0.074136265
198	0xbdc08f58	-0.09402341
199	0xbd213ae1	-0.039362792
200	0xbdd4cea6	-0.103909776
201	0x3dc3944c	0.0954977
202	0xbdd1dcbb	-0.10247179
203	0x3da78801	0.081802376
204	0x3dc42470	0.095772624
205	0x3e2fcffc	0.17169183
206	0xbd32595e	-0.04354226
207	0x3cdfa7ac	0.027301632
208	0x3d5e26ac	0.0542361
209	0xbdd58afd	-0.104269005
210	0xbd9a75a5	-0.0754197
211	0x3df7d0a2	0.121003404
212	0xbce46c00	-0.02788353
213	0xbe3f9040	-0.18707371
214	0xbe326611	-0.17421748
215	0x3dfb4490	0.12268937
216	0x3cdd1859	0.026989149
217	0x3bd9bc46	0.0066447584
218	0x3ce82b95	0.028341094
219	0xbd2c0a0e	-0.042001776
220	0xbb388e33	-0.002816093
221	0xbe132918	-0.14371145
222	0xbb9121b4	-0.0044290666
223	0x3e1407ba	0.14456072
224	0x3d4447d9	0.04792008
225	0x3d895d1d	0.06707213
226	0x3d94d59f	0.072673075
227	0xbd6d2f37	-0.057906356
228	0x3c80d543	0.015726691
229	0x3e172075	0.14758475
230	0x3d29607d	0.041351784
231	0x3d8777c7	0.066146426
232	0x3e2cd5de	0.16878459
233	0x3e145be3	0.14488177
234	0xbd24534b	-0.040118497
235	0xbdbeafd3	-0.093108796
236	0xbd99bd8f	-0.075068586
237	0xbd79f948	-0.06102875
238	0x3c88887e	0.016666647
239	0x3d4b21d0	0.049592793
240	0x3d1d7fd9	0.038452003
241	0xbe155852	-0.14584473
242	0xbcf50f00	-0.02991438
243	0xbc6e4590	-0.014542952
244	0xbcfd9999	-0.03095703
245	0x3d89c39d	0.067267634
246	0xbd5f30da	-0.054489948
247	0x3ded6d17	0.11593073
248	0xbd504819	-0.050850008
249	0x3bb1c4cc	0.0054250713
250	0x3c792c38	0.0152082965
251	0x3c178113	0.009247082
252	0xbd7eacc5	-0.062176485
253	0xbd192d17	-0.037396517
254	0x3c983299	0.018578814
255	0x3e074bb6	0.13212475

enc_layer_small.0.bias f4 [12]
0	0xbe6f38d8	-0.23361528
1	0xbe909ce9	-0.28244713
2	0x3dcc13d2	0.09964718
3	0x3b419fa3	0.0029544614
4	0xbdbe535d	-0.09293244
5	0xbdbe6936	-0.09297411
6	0xbe0b6438	-0.13612449
7	0xbdcce0ef	-0.1000384
8	0x3dc4ffcf	0.09619104
9	0x3e2cfc6e	0.1689317
10	0xbd89202e	-0.06695591
11	0x3df5a215	0.11993805

dec_layer_1.0.weight f4 [12, 12, 3, 3]
0	0x3dd1e26f	0.10248267
1	0xbd87ec25	-0.06636838
2	0xbdfaab33	-0.12239685
3	0xbc939e87	-0.018019928
4	0xbe641fcd	-0.22277756
5	0xbd3d418b	-0.046205085
6	0xbdd9c753	-0.10633721
7	0xbd86f463	-0.06589582
8	0x3c245c1c	0.010031726
9	0xbd0da22b	-0.034578484
10	0xbdad013e	-0.084475026
11	0xbda9e770	-0.08296096
12	0x3d281551	0.041035954
13	0xbe04c54b	-0.12965886
14	0xbda4aee6	-0.08041172
15	0x3df7221b	0.12067052
16	0x3d929a3f	0.07158326
17	0x3d7f6012	0.06234748
18	0xbdc660ed	-0.09686456
19	0xbe00aabf	-0.12565134
20	0xbdbcaf27	-0.09213095
21	0xbdbd8fb6	-0.09255926
22	0x3dcce490	0.10004532
23	0x3da9875b	0.0827777
24	0x3b6d6827	0.003622541
25	0xbc9bbc67	-0.019010736
26	0xbdc377a5	-0.09544305
27	0x3de65bfc	0.112480134
28	0x3d79edc9	0.061017785
29	0x3c8fcfe6	0.017555188
30	0xbdaaf59c	-0.083476275
31	0xbe00e0f2	-0.1258581
32	0x3cf047bd	0.029331082
33	0x3da5b556	0.08091228
34	0xbd90bf26	-0.07067709
35	0xbd746665	-0.059667964
36	0xbdbe819a	-0.09302063
37	0xbddda470	-0.108223796
38	0x3da4dedd	0.0805032
39	0x3d9d2a49	0.07674081
40	0x3d582995	0.05277403
41	0x3c9e2241	0.019303443
42	0x3d0c8ae5	0.034312148
43	0xbd199f5d	-0.037505496
44	0x3dba52d1	0.09097827
45	0x3d08e519	0.03342161
46	0x3d1f93a4	0.03895916
47	0x3c88f32b	0.016717514
48	0xbde1849a	-0.1101162
49	0x3df0972a	0.11747582
50	0x3d449d12	0.048001356
51	0xbd9b0aef	-0.07570445
52	0xbd61a8f6	-0.055092774
53	0x3cb36eb2	0.02190337
54	0xbd77ebdd	-0.06052767
55	0x3e0da77a	0.13833418
56	0xbd7bf5bb	-0.061513644
57	0x3cb5d7ff	0.022197722
58	0xbe631edc	-0.2217974
59	0xbd900773	-0.07032671
60	0x3c8bdb7a	0.017072428
61	0x3df598af	0.11992013
62	0x3cb39430	0.021921247
63	0x3ce69199	0.028145598
64	0xbdac3532	-0.08408584
65	0xbd9450d6	-0.07241981
66	0xbc6ea1a6	-0.014564907
67	0xbd8aa188	-0.06769091
68	0xbd9e0129	-0.07715065
69	0x3c114d1b	0.008868481
70	0xbdb7ba93	-0.08971133
71	0xbcbf561a	-0.023356486
72	0xbdf109e3	-0.11769464
73	0xbe4391c8	-0.1909858
74	0x3cb83e19	0.022490548
75	0xbd668ade	-0.056284778
76	0x3d90e839	0.07075543
77	0xbdcff318	-0.10153788
78	0x3c107eb6	0.008819273
79	0x3d084e52	0.033277817
80	0x3cfa03a0	0.030519307
81	0x3d9223dc	0.07135746
82	0x3e701d5d	0.23448701
83	0x3d2e52a6	0.04255929
84	0x3d37e503	0.044896137
85	0x3d42358a	0.04741434
86	0xbce86360	-0.028367698
87	0xbd476a7a	-0.04868553
88	0xbcfd2cec	-0.03090521
89	0xbdbdc6b0	-0.09266412
90	0x3d3fc18d	0.046815444
91	0xbd6f82d8	-0.05847439
92	0x3d1a2239	0.037630294
93	0xbd53cf47	-0.051711347
94	0xbb973d36	-0.004615451
95	0xbbb587fd	-0.0055398927
96	0x3d4c8db8	0.04993984
97	0xbded2da1	-0.11580969
98	0xbd09dbf6	-0.033657037
99	0xbc069677	-0.008214585
100	0xbe7c8237	-0.24659048
101	0xbcbd5229	-0.023110466
102	0xbde35c3c	-0.11101577
103	0xbd23c06c	-0.03997843
104	0xbdbf298f	-0.093340985
105	0x3d83f7f3	0.06443777
106	0xbc6e3a6e	-0.014540298
107	0x3d0eba8d	0.034845877
108	0xbe480a5b	-0.195352
109	0xbe0a1ceb	-0.13487594
110	0xbcbd3113	-0.02309469
111	0x3d11aabe	0.035563223
112	0xbcef5990	-0.029217511
113	0xbe091a40	-0.1338892
114	0x3e41a922	0.18912175
115	0x3d9f1298	0.07767218
116	0xbe05cc49	-0.1306621
117	0xbb4046a9	-0.0029338992
118	0x3de3dd18	0.11126155
119	0xbc985584	-0.018595465
120	0xbe1ebf5e	-0.15502688
121	0x3dd4bb9b	0.103873454
122	0x3dff8e5f	0.12478327
123	0x3ba2250b	0.0049482635
124	0xbdc3e612	-0.09565367
125	0x3e253fcb	0.16137616
126	0xbdad51c8	-0.08462864
127	0xbe08cbb8	-0.13358963
128	0xbdbb5b2d	-0.0914825
129	0xbd607504	-0.054799095
130	0xbca18219	-0.019715356
131	0x3bc583bb	0.0060276664
132	0x3e09adac	0.13445157
133	0x3d12d0c9	0.035843644
134	0x3ce7abb7	0.028280122
135	0xbcd95616	-0.026530307
136	0xbcedc87e	-0.029026266
137	0xbdace47f	-0.0844202
138	0xbbee1c21	-0.007266537
139	0xbc93a62b	-0.018023571
140	0xbc9b1a35	-0.018933395
141	0x3c9b54a0	0.01896125
142	0x3a8bbbd6	0.0010660838
143	0x3d8e8b02	0.069601074
144	0x3e343ba0	0.1760087
145	0x3d4ae6f0	0.049536645
146	0xbd770183	-0.060304176
147	0x3e00216d	0.12512751
148	0xbd158342	-0.03650213
149	0x3982e953	0.00024969372
150	0xbe00bc4d	-0.12571831
151	0x3c499775	0.012304177
152	0x3e03af59	0.12859859
153	0x3dd73bd8	0.10509461
154	0x3e135174	0.1438654
155	0xbd33632d	-0.043795753
156	0x3d9b39a6	0.07579355
157	0x3e2feef4	0.17180997
158	0x3d16818c	0.03674464
159	0xbde38378	-0.1110906
160	0xbdd14f6a	-0.10220225
161	0x3e9ba0c8	0.30396104
162	0xbc813228	-0.015770987
163	0xbd196b48	-0.037455827
164	0xbd228c8e	-0.039684825
165	0x3e3ff0cf	0.18744205
166	0x3d8f0d13	0.069849156
167	0x3dd54593	0.10413661
168	0x3e233431	0.15937878
169	0xbb894665	-0.0041893
170	0xbd99e2be	-0.07513951
171	0xbe08e319	-0.13367881
172	0xbe2c5736	-0.16830143
173	0xbddc7d26	-0.10766058
174	0xbdda4c35	-0.106590666
175	0xbe3b238a	-0.18275276
176	0xbe40cb90	-0.18827653
177	0x3cfceddc	0.030875139
178	0xbd20688c	-0.039162204
179	0x3e75a094	0.23987037
180	0x3e132d69	0.14372791
181	0xbdb6516c	-0.08902249
182	0xbcaa5c7c	-0.020796053
183	0xbdcbe597	-0.099559
184	0xbd0ab351	-0.033862416
185	0xbca6cb2c	-0.020360552
186	0xbe40d8c1	-0.18832685
187	0x3a68e5db	0.0008884349
188	0x3e560c9f	0.20903252
189	0xbd81273b	-0.06306311
190	0xbdc7ab68	-0.0974949
191	0xbd472d2a	-0.048627056
192	0xbdefe350	-0.11713278
193	0xbe8c84cc	-0.27445066
194	0xbb56b0d9	-0.0032759218
195	0x3dcb4f48	0.09927231
196	0x3d97ac90	0.074059606
197	0xbd72c5e5	-0.05927076
198	0xbdaded1f	-0.08492493
199	0xbd8607f9	-0.065444894
200	0x3dfa8e0d	0.12234125
201	0xbe109cf1	-0.14122368
202	0xbd5177fe	-0.051139824
203	0xbdf022ed	-0.117254116
204	0x3db61d73	0.08892336
205	0xbd3aa2a5	-0.045565266
206	0x3d4f6839	0.050636504
207	0xbc20e21d	-0.009819535
208	0xbd8eacb5	-0.06966535
209	0xbd3e44c5	-0.046452302
210	0x3e00e367	0.12586747
211	0x3e5447f6	0.20730576
212	0xbe83f692	-0.25774056
213	0xbd30ea80	-0.043192387
214	0x3e707a70	0.23484206
215	0x3de54bb5	0.111960806
216	0x3d6c8a91	0.057749335
217	0x3e812a82	0.25227743
218	0x3d5b4806	0.053535484
219	0x3e1b5884	0.15170485
220	0xbdb8fd02	-0.090326324
221	0x3dcd8460	0.10035014
222	0xbcbc4bb7	-0.022985322
223	0x3ce879ec	0.02837845
224	0x3d29138a	0.0412784
225	0x3e041f4e	0.12902567
226	0x3de9801a	0.114013866
227	0xbd44f61b	-0.048086267
228	0xbc80ecff	-0.015738009
229	0x3e2d3b8b	0.16917245
230	0x3e2fec55	0.17179997
231	0x3dd50349	0.10401017
232	0xbcfff3fe	-0.031244274
233	0xbd4d00a7	-0.05004945
234	0xbc9fe126	-0.019516539
235	0xbd173753	-0.036917996
236	0x3e0b3931	0.13596036
237	0xbda1b1bc	-0.07895228
238	0x3d49ff45	0.04931571
239	0xbd149e85	-0.03628399
240	0x3e024b5f	0.12724064
241	0xbb407b55	-0.0029370387
242	0x3d62164e	0.055197053
243	0x3cfb01d2	0.030640516
244	0x3d2f7dcd	0.042844582
245	0xbc8e39f4	-0.017361619
246	0x3daf20e6	0.08551197
247	0xbe6364c8	-0.22206414
248	0x3d850e59	0.06496877
249	0xbc000ddd	-0.007815805
250	0x3dbe3613	0.092876576
251	0xbcbeb52c	-0.023279749
252	0xbdbe1c14	-0.09282699
253	0x3c7d9c62	0.015479179
254	0xbe246904	-0.16055685
255	0x3c67b59c	0.01414242

dec_layer_1.0.bias f4 [12]
0	0x3d8643ed	0.065559246
1	0xbe824aff	-0.25447842
2	0xbe80a322	-0.2512446
3	0xbd53fea4	-0.051756516
4	0xbbe33d92	-0.00693483
5	0x3e7df869	0.24801792
6	0xbe38100e	-0.17974874
7	0x3e82ded5	0.25560632
8	0x3dbc6d7f	0.09200572
9	0x3e89a6c1	0.26885036
10	0xbbc20514	-0.0059210155
11	0x3d877310	0.06613743

dec_layer_2.0.weight f4 [12, 8, 5, 5]
0	0x3c3ebd50	0.011641815
1	0x3c301ae4	0.010748599
2	0xbcc14647	-0.023593081
3	0xbd58844f	-0.052860554
4	0xbca1fe08	-0.019774452
5	0x3c81263a	0.015765298
6	0x3cb7f079	0.022453533
7	0xbca8f8ee	-0.020626511
8	0x3b1914ae	0.0023358273
9	0xbc9f3c37	-0.019437892
10	0x3d4548cd	0.04816513
11	0x3cc37908	0.023861423
12	0xbd0167cf	-0.03159314
13	0xbdecec38	-0.11568493
14	0x3af18e7d	0.0018429306
15	0x3b04cf95	0.002026533
16	0xbc970cbd	-0.018438691
17	0xbd66b3ba	-0.056323744
18	0xbd3cd2a3	-0.046099316
19	0xbcfa5b8f	-0.030561237
20	0x3d1631fb	0.03666876
21	0xbd0c5113	-0.034257006
22	0xbc46af3c	-0.01212674
23	0xbddd7b2e	-0.1081451
24	0x3c758adf	0.014986723
25	0x3e0a1e27	0.13488065
26	0x3cb20964	0.021732993
27	0xbde6a065	-0.112610616
28	0x3dd60881	0.10450841
29	0x3db80708	0.08985716
30	0xbd58194a	-0.052758493
31	0x3d0459b2	0.032312103
32	0x3c26f59a	0.010190392
33	0x3d490145	0.049073476
34	0x3e434788	0.19070256
35	0x3d849877	0.06474393
36	0xbc1cb6ae	-0.009565039
37	0xbcca1cd7	-0.024671955
38	0x3d130632	0.03589458
39	0x3d01ebb1	0.031718913
40	0x3d59ce6d	0.05317538
41	0xbcb1f347	-0.021722449
42	0x3bc0b257	0.0058806348
43	0x3d29a414	0.041416243
44	0x3d81e9da	0.06343432
45	0x3d5a6353	0.05331738
46	0x3c305fe0	0.010765046
47	0xbc099723	-0.00839785
48	0x3dd08fc6	0.101836726
49	0x3d976226	0.07391767
50	0xbd83f605	-0.06443409
51	0xbc6b9696	-0.014379164
52	0xbc4faca3	-0.012675437
53	0x3cf3eef8	0.029777035
54	0x3a0abb05	0.00052921503
55	0x3d2ae6cb	0.041724008
56	0x3d601c3d	0.05471443
57	0xbd969a3a	-0.07353635
58	0xbd2df2cc	-0.042467877
59	0xbd4ac4be	-0.049504034
60	0x3ce38c6e	0.027776923
61	0xbc4d0361	-0.012513013
62	0xbdf3cbfb	-0.119041406
63	0xbe0e65cb	-0.13906018
64	0xbbdd9289	-0.006761853
65	0xbcb9c691	-0.022677692
66	0xbcac27fa	-0.021015156
67	0xbde8f95c	-0.113756865
68	0xbe32b20c	-0.17450732
69	0xbd349138	-0.044083804
70	0x3d06f15f	0.032945033
71	0xbccccec1	-0.025000932
72	0xbd892d60	-0.06698108
73	0xbda7d7bd	-0.08195446
74	0xbcbeded3	-0.02329961
75	0xbc8590c2	-0.016304377
76	0x3d8754c8	0.066079676
77	0xbd5dde51	-0.054167096
78	0x3ce67204	0.028130539
79	0x3d400a29	0.04688469
80	0x3d6cd198	0.05781707
81	0x3e451f01	0.19250108
82	0xbc39a571	-0.011330948
83	0xbc26df7a	-0.010185117
84	0x3bc1e10a	0.0059167193
85	0x3d8212ad	0.063512184
86	0x3da13311	0.07871068
87	0xbe2e82de	-0.1704211
88	0xbd7db99b	-0.061944585
89	0x3c88f198	0.016716763
90	0x3d68044a	0.056644715
91	0x3d24e5c0	0.04025817
92	0xbde2d693	-0.11076083
93	0xbd9b0199	-0.07568664
94	0xbd1f6d57	-0.038922634
95	0x3d3ca525	0.04605593
96	0xbc87d00e	-0.0165787
97	0xbcd16470	-0.025560588
98	0xbd3961c4	-0.045259252
99	0xbba39c9f	-0.004993036
100	0xbcf4ba08	-0.029873863
101	0xbcd4a9b7	-0.025959833
102	0xbd750783	-0.059821617
103	0x3c6f8182	0.014618279
104	0x3c9bd3a5	0.019021818
105	0x3d2219b8	0.03957531
106	0x3d638211	0.055543963
107	0xbd6b672f	-0.05747145
108	0xbcdc563b	-0.026896587
109	0xbd2eee63	-0.042707812
110	0x3d31af35	0.04337998
111	0xbd770fff	-0.06031799
112	0xbe68ce69	-0.22734989
113	0xbe0a2ee8	-0.13494456
114	0xba7ae770	-0.000957123
115	0xbc3e51b2	-0.011616157
116	0xbdb1771c	-0.086652964
117	0xbe52f54c	-0.20601386
118	0xbe062db6	-0.13103375
119	0xbcb0d3df	-0.021585403
120	0x3bdca030	0.006732963
121	0xbd5e4055	-0.05426057
122	0xbda2e96d	-0.07954679
123	0xbdac3640	-0.08408785
124	0xbc7af9ea	-0.015318373
125	0x3d194cba	0.037426688
126	0x3d2504cc	0.040287778
127	0xbc834bf3	-0.016027426
128	0x3d79dda9	0.061002407
129	0x3d10a692	0.035315104
130	0x3cd8fc44	0.026487477
131	0x3da406a5	0.0800908
132	0xbd539c8c	-0.051662967
133	0xbdbdf9c6	-0.09276156
134	0x3d943717	0.0723707
135	0x3b7ee6ac	0.0038894815
136	0x3d4cf2e1	0.050036315
137	0xbd86196b	-0.06547817
138	0xbd99085e	-0.07472299
139	0xbce79a46	-0.028271805
140	0xbb8ea1e2	-0.004352794
141	0x3aeebed0	0.0018214826
142	0x3c980701	0.018558027
143	0x3b00b9c1	0.0019641968
144	0xbd2a9880	-0.04164934
145	0xb98cb107	-0.00026834777
146	0x3c35fbc1	0.011107386
147	0xbd11006e	-0.0354008
148	0xbc0e25a4	-0.008675966
149	0xbc5d5087	-0.013507969
150	0x3d281697	0.04103717
151	0x3d72e0ce	0.05929642
152	0x3d3de2d5	0.046358902
153	0xbd27bd3a	-0.040951945
154	0x3d9954b2	0.074868575
155	0xbe036820	-0.1283269
156	0x3e1c5526	0.15266857
157	0x3db3c043	0.087769054
158	0x3df5e17b	0.120058976
159	0x3c1aafb6	0.009441307
160	0x3cc95c7c	0.024580233
161	0x3e2989e3	0.16556506
162	0xbc76145f	-0.015019505
163	0x3d25239a	0.040317155
164	0x3dd87f2d	0.10571132
165	0x3d00cbbc	0.031444296
166	0x3cece552	0.028917942
167	0x3d685195	0.056718428
168	0x3e70b99c	0.23508304
169	0x3cc1b053	0.023643648
170	0x3c47869c	0.0121780895
171	0x3c6ec84d	0.014574123
172	0xbcaac804	-0.020847328
173	0xbc8379a5	-0.016049216
174	0xbccb62c5	-0.02482737
175	0x3c8124c6	0.015764605
176	0xbc97bbf1	-0.018522235
177	0xbd4318cb	-0.047631066
178	0xbd2e318d	-0.042527724
179	0xbb622bc8	-0.003451096
180	0x3da614a1	0.081094034
181	0xbcbc837d	-0.023011917
182	0xbe368233	-0.17823105
183	0x3cb8acc4	0.022543319
184	0x3b885799	0.004160833
185	0x3c46e5ef	0.012139781
186	0xbdadb6d1	-0.08482135
187	0xbdfe0f1a	-0.12405224
188	0xbe241aed	-0.16025896
189	0x3c33ee23	0.010982069
190	0xbd790ac1	-0.06080127
191	0xbe0f2dbd	-0.13982292
192	0xbe61589f	-0.22006463
193	0xbe05ec2e	-0.13078377
194	0x3cbdf96d	0.023190225
195	0x3bc4be7b	0.0060041524
196	0xbdc56374	-0.0963811
197	0xbdda659d	-0.106639124
198	0xbde04460	-0.109505415
199	0x3c80e6d6	0.015735071
200	0x3a89d481	0.0010515602
201	0x3d3b7994	0.045770243
202	0xbd523276	-0.051317655
203	0xbdd8be2a	-0.10583146
204	0xbc71fbc7	-0.014769501
205	0x3ca70087	0.020385994
206	0x3c960c39	0.018316375
207	0x3cc90f8d	0.024543548
208	0xbd165802	-0.036705025
209	0xbd97ef6a	-0.074187115
210	0xbb0a4b96	-0.0021102182
211	0x3d846d25	0.0646613
212	0xbccb68ef	-0.02483031
213	0xbdd4e6b7	-0.10395568
214	0xbd679562	-0.056538947
215	0xbcc38e52	-0.023871575
216	0xbbd4be53	-0.006492415
217	0xbd884529	-0.06653816
218	0xbda28d94	-0.0793716
219	0xbc2b85f5	-0.01046895
220	0xbd2161df	-0.039399978
221	0xbd46f29e	-0.04857122
222	0xbdbe4e17	-0.09292238
223	0xbe083b86	-0.13303956
224	0xbd6f8138	-0.058472842
225	0x3c1c6b8a	0.009547124
226	0xbcb1dcdc	-0.02171176
227	0xbe828012	-0.25488335
228	0x3cf9a601	0.030474665
229	0xbd2c2f81	-0.04203749
230	0x3d4f5c3f	0.050625082
231	0xbcd57178	-0.026055083
232	0x3d9aaf0d	0.075529195
233	0x3cf19f12	0.029494796
234	0xbd7bdc22	-0.061489232
235	0x3d910cfb	0.07082554
236	0xbd3eef31	-0.04661483
237	0x3cbcf3f5	0.023065547
238	0x3b73b06b	0.003718401
239	0x3db07803	0.086166404
240	0x3ce0a097	0.027420325
241	0x3c6d6191	0.014488594
242	0xbe297789	-0.16549505
243	0x3b291b75	0.002580372
244	0xbb2db14f	-0.002650339
245	0x3d375ab0	0.04476422
246	0xbd6a1159	-0.05714545
247	0x3c0a27c1	0.00843233
248	0x3c851c68	0.016248897
249	0xbdd8069f	-0.10548138
250	0x39d58c84	0.00040731218
251	0x3cc72eb7	0.024314268
252	0x3bc61fd9	0.006046277
253	0xbc198d54	-0.009372074
254	0x3d385e98	0.045012087
255	0x3cdb2339	0.026750194

dec_layer_2.0.bias f4 [8]
0	0x3e409d93	0.1881011
1	0xbe12e39e	-0.14344642
2	0x3e2c61b0	0.1683414
3	0xbe750c1a	-0.23930398
4	0xbe45f6f7	-0.19332491
5	0xbe13b14a	-0.14423099
6	0xbd44fbc4	-0.048091665
7	0x3ddee6a2	0.108838335

dec_layer_3.0.weight f4 [8, 3, 5, 5]
0	0x3cdcda5d	0.026959592
1	0x3d89adc4	0.06722596
2	0x3dd15c30	0.102226615
3	0x3dc45e12	0.09588255
4	0x3d360654	0.04443963
5	0x3cccd96c	0.025006019
6	0x3dd8371f	0.105573885
7	0x3dbf9e87	0.093564086
8	0x3dc28b25	0.09499196
9	0x3d0570d0	0.03257829
10	0x3da41e4a	0.0801359
11	0x3db3d887	0.08781534
12	0x3dc6526e	0.09683691
13	0x3dbaef00	0.09127617
14	0x3d56616b	0.052339
15	0x3ccda1f4	0.02510164
16	0x3d77264d	0.06033926
17	0x3d9ca90c	0.07649431
18	0x3dc0e0d9	0.09417886
19	0x3d312567	0.04324856
20	0x3d0067fe	0.031349175
21	0x3d265147	0.040604856
22	0x3dc71cca	0.09722288
23	0x3df3075b	0.11866637
24	0x3d2ace7a	0.041700818
25	0xbd9544f2	-0.07288541
26	0xbdbb56eb	-0.09147438
27	0xbe1ed4a0	-0.15510798
28	0xbda95d69	-0.0826977
29	0xbda26f91	-0.07931436
30	0xbd85b8ba	-0.065293744
31	0xbdc3e251	-0.09564651
32	0xbe1a1929	-0.1504866
33	0xbdc4a74e	-0.09602223
34	0xbdb414b5	-0.08793012
35	0xbdbe12f9	-0.092809625
36	0xbdee6db5	-0.11642019
37	0xbe30c711	-0.17263438
38	0xbde133af	-0.10996186
39	0xbdb498cd	-0.08818207
40	0xbd8cd4e7	-0.068765454
41	0xbdaeec78	-0.085411966
42	0xbe06e96d	-0.13174982
43	0xbd94d4d5	-0.07267157
44	0xbd888290	-0.06665528
45	0xbd46b83f	-0.048515555
46	0xbd61082d	-0.054939438
47	0xbe1e52e2	-0.15461305
48	0xbdbf2761	-0.09333683
49	0xbdad7316	-0.084692165
50	0x3d1aff07	0.03784087
51	0x3d9abb2f	0.07555234
52	0x3d578b38	0.052623004
53	0x3c8f8583	0.017519718
54	0x3c563869	0.013074973
55	0x3ca13284	0.019677408
56	0x3d6a8975	0.057259995
57	0x3ce809a2	0.028324906
58	0x3d1f9793	0.03896291
59	0x3ba14769	0.004921843
60	0x3d352a05	0.044229526
61	0x3d2b35e8	0.041799456
62	0x3c95b394	0.018274106
63	0x3cfe4126	0.031036925
64	0x3c894e74	0.016761042
65	0x3cba5349	0.022744792
66	0xbaa72605	-0.001275242
67	0x3b52f929	0.0032191968
68	0x3cad8d4f	0.021185545
69	0xbbd54b53	-0.0065092235
70	0x3c98d83c	0.018657796
71	0x3b14183b	0.002259745
72	0x3cc44f24	0.023963518
73	0x3d330d27	0.043713715
74	0x3c2ffa06	0.010740763
75	0xbd4b417b	-0.049622994
76	0xbdc208e4	-0.09474352
77	0xbd5142ce	-0.0510891
78	0x3e857e0c	0.2607273
79	0x3ecd8178	0.4013784
80	0x3dc751d8	0.09732407
81	0xbdb3376b	-0.087508045
82	0xbf01d8e7	-0.5072159
83	0xbea65216	-0.32484502
84	0xbe26c142	-0.1628466
85	0x3dd76001	0.10516358
86	0x3eb40727	0.35161707
87	0xbe09e3ec	-0.13465852
88	0xbeaa45d3	-0.33256397
89	0xbe2185df	-0.15773724
90	0x3f01f711	0.5076762
91	0xbdb81b04	-0.08989528
92	0x3e6c47b4	0.23074228
93	0xbda588d4	-0.080827385
94	0xbf361a66	-0.7113403
95	0x3f8bfab8	1.0935888
96	0x3ef08cda	0.4698246
97	0x3e89f198	0.26942134
98	0x3f3261d6	0.69680536
99	0x3f4b312f	0.79371923
100	0xbb16eb72	-0.002302852
101	0xbea1b82d	-0.31585827
102	0x3e4c896d	0.19974299
103	0x3ee68182	0.45020682
104	0x3f1099b5	0.5648454
105	0xbdebe616	-0.11518495
106	0xbeb0d0d0	-0.3453431
107	0xbf0ccdee	-0.55001724
108	0xbf256dce	-0.64620674
109	0xbf278cee	-0.65449417
110	0x3f02c526	0.51082075
111	0x3eaf24dc	0.3420781
112	0x3e230e90	0.15923524
113	0xbd475a32	-0.04867
114	0x3ba20ade	0.004945143
115	0x3db60c46	0.0888906
116	0x3ca2a7f4	0.019855477
117	0x3e2b3449	0.16719164
118	0x3d503791	0.050834242
119	0xbe697902	-0.22800067
120	0x3f6645b9	0.8995014
121	0x3f38b5f1	0.7215262
122	0x3f0da91c	0.55336165
123	0x3f00561a	0.5013138
124	0x3f3839a8	0.71962976
125	0xbea8cb17	-0.32967445
126	0xbd954e74	-0.07290354
127	0x3d5bc0b8	0.053650588
128	0x3e9e0820	0.30865574
129	0x3f0e8377	0.5566935
130	0xbe1b728d	-0.15180416
131	0xbe5bba13	-0.214577
132	0xbf0ad707	-0.54234356
133	0xbe697d3e	-0.22801682
134	0xbf293e6f	-0.6611089
135	0x3ecd00df	0.40039727
136	0x3e402d6a	0.18767324
137	0xbc49f283	-0.012325886
138	0xbde0dbff	-0.10979461
139	0xbcd79f45	-0.026321063
140	0x3efeca6f	0.4976382
141	0x3e82fb82	0.2558251
142	0x3e8c8211	0.27442983
143	0x3f18d79c	0.59703994
144	0xbd8501d0	-0.06494486
145	0x3f41c166	0.7568573
146	0x3e47b4e8	0.19502604
147	0x3eec490f	0.4614949
148	0x3ee30665	0.44340816
149	0x3f95410e	1.1660478
150	0xbd4feab5	-0.050760943
151	0xbd778a37	-0.060434546
152	0xbde48bdf	-0.11159491
153	0xbdb18981	-0.08668805
154	0xbd8879fb	-0.06663891
155	0xbdab1d1e	-0.08355163
156	0xbdb2894d	-0.08717594
157	0xbde94242	-0.11389591
158	0xbdc1b320	-0.094579935
159	0xbda408dc	-0.08009502
160	0xbda24099	-0.07922477
161	0xbd9b8aa0	-0.075948
162	0xbdc77a8a	-0.09740169
163	0xbdb462fb	-0.088079415
164	0xbd82170d	-0.06352053
165	0xbd69cde1	-0.057081107
166	0xbde80a13	-0.113300465
167	0xbd9f3a8a	-0.07774837
168	0xbd672c80	-0.056438923
169	0xbbf4fd54	-0.007476488
170	0xbcdc1b26	-0.026868414
171	0xbd96c425	-0.0736163
172	0xbd543e1a	-0.051817037
173	0xbc838470	-0.016054362
174	0x3cd6b876	0.026211005
175	0x3c79ab75	0.015238632
176	0x3d993bc9	0.07482106
177	0x3e144d6d	0.1448266
178	0x3dedf18d	0.11618338
179	0x3d8f8869	0.0700844
180	0x3c82a7e1	0.015949192
181	0x3d771f74	0.06033273
182	0x3e127f32	0.14306334
183	0x3dfae616	0.12250917
184	0x3d96373c	0.07334754
185	0x3d4056ae	0.046957664
186	0x3dc79016	0.09744279
187	0x3e573825	0.21017511
188	0x3e31ca09	0.17362227
189	0x3de7d762	0.11320378
190	0x3cd2c2db	0.02572768
191	0x3d024ea7	0.03181329
192	0x3dddffcf	0.10839807
193	0x3e03248e	0.12806913
194	0x3da98947	0.08278137
195	0x3d32d96a	0.043664373
196	0x3d5b6efc	0.05357264
197	0x3e01d5da	0.12679234
198	0x3e07a9f8	0.13248432
199	0x3dad2f53	0.08456292
200	0xbd42f2c3	-0.047594797
201	0xbd35d65b	-0.04439388
202	0xbd051c50	-0.032497704
203	0x3b844caa	0.0040374594
204	0xbb6f2e36	-0.003649605
205	0xbd5817bf	-0.05275702
206	0xbd5fa67a	-0.054602124
207	0xbd101b8d	-0.035182524
208	0xbc4d363f	-0.01252514
209	0xbc461ccc	-0.012091827
210	0xbda74d25	-0.08169011
211	0xbdce0aa9	-0.10060627
212	0xbd9ec004	-0.07751468
213	0xbcb5cd10	-0.022192508
214	0xbc855fb1	-0.01628098
215	0xbcf78e14	-0.030219115
216	0xbd84a4d2	-0.064767495
217	0xbd55bb6b	-0.05218069
218	0xbcb8e182	-0.022568468
219	0xba8991c3	-0.0010495711
220	0xbd1d9aad	-0.03847759
221	0xbd86b786	-0.06577973
222	0xbd793857	-0.060844745
223	0xbc658560	-0.01400885
224	0x3b25ce06	0.0025299801
225	0x3c34ad0b	0.011027585
226	0x3d4f9f61	0.050689105
227	0x3db6a69c	0.08918497
228	0x3d862b9c	0.065512866
229	0x3d0d3437	0.034473624
230	0x3d789536	0.060689174
231	0x3df641d8	0.120242774
232	0x3e30bdf7	0.17259966
233	0x3df04514	0.117319256
234	0x3d8a9c80	0.06768131
235	0x3de3acb9	0.111169286
236	0x3e369e7e	0.17833897
237	0x3e8b066c	0.27153337
238	0x3e253193	0.16132192
239	0x3dccdd8c	0.10003194
240	0x3db39573	0.087687396
241	0x3e00ec84	0.12590224
242	0x3e40d251	0.1883023
243	0x3de475c7	0.11155277
244	0x3d8b1b29	0.0679229
245	0x3d04f6ed	0.03246205
246	0x3d5b97fc	0.05361174
247	0x3dd61254	0.104527146
248	0x3d8084e2	0.062753454
249	0x3d1d0ce9	0.03834239
250	0xbcd3d7c9	-0.02585973
251	0x3bf1665f	0.00736694
252	0x3d563a75	0.052301843
253	0x3d47a656	0.048742615
254	0x3c747b11	0.014921919
255	0x3c1fd5e3	0.009755584

dec_layer_3.0.bias f4 [3]
0	0x3d8c49cb	0.068500124
1	0x3d8432fd	0.06455038
2	0x3d2a74dc	0.041615352
