save/updated_model_small/gen_model.pt (torch, 51145 bytes, 10 tensors)

enc_layer_1.0.weight f4 [32, 3, 5, 5]
-0.14123742 -0.07061795 0.035132736 0.05501996 -0.010912848 -0.093606316 -0.0037862298 0.05104583
0.050376236 -0.08584056 0.045894288 -0.0058022705 0.045995925 0.10278821 -0.014040874 -0.13257447
0.115086004 0.047016386 0.145871 -0.07021908 -0.12932287 0.08044042 0.12013575 0.03577218
0.0744855 0.05772189 0.17115217 0.12151673 0.002795562 0.006356534 0.0707897 0.17818934
0.2455519 0.08137434 -0.10315486 0.011013905 0.23345365 0.22476442 0.07495639 0.08419033
0.013577022 0.067787565 0.10975035 -0.027590547 0.059890788 -0.048746895 0.09916293 0.12553433
0.15252332 0.030733943 -0.0745045 0.008015477 -0.029977102 -0.12744543 -0.2292363 -0.02896796
0.14602838 0.042627767 -0.1308449 -0.13411306 0.045139123 0.08803024 0.19959477 0.0011996621
-0.08708906 -0.10295561 0.07322824 0.08952066 -0.01890806 -0.12163496 -0.19454421 -0.09799344
-0.06284781 -0.011569686 -0.03427162 0.08879116 -0.096347384 -0.01165353 0.043963667 -0.048062775
-0.017827231 -0.039811086 0.041135397 0.05986647 -0.046692684 0.043070335 0.12140253 -0.040255502
0.007897057 0.14620067 0.015523284 0.014084162 0.11075519 0.0041929064 -0.041773006 0.059761755
0.003050377 0.028357994 -0.012898765 0.10656141 -0.035650253 -0.09965644 -0.09855602 -0.14685577
0.013087668 0.1873659 0.083221704 0.090049274 -0.06367363 0.03414394 0.21651252 -0.016085988
0.10750025 -0.024116253 -0.056221105 0.08843154 0.14490674 0.019119766 0.018473327 0.07054011
-0.007072685 0.021695295 -0.11026887 0.055992946 -0.03056897 -0.18185541 -0.20081066 -0.108065024
-0.10174211 -0.050536368 -0.102477126 0.069999196 0.04626462 -0.009786222 -0.0196402 0.07964153
-0.11125452 0.03546945 -0.019317409 0.07145431 0.073261485 -0.12218965 -0.072806165 0.0127801355
-0.024757778 -0.032788172 0.015157747 0.1266476 0.016616156 0.03621193 -0.014124312 0.067397624
0.05483001 -0.12986454 0.0024235027 0.16266772 0.08131319 0.08103104 -0.015690522 -0.0780428
0.055356946 0.1007953 0.056872185 -0.057523157 -0.026247721 0.17969038 -0.012361212 0.15561447
0.11292073 -0.070845254 0.15485774 0.04159722 0.10299663 0.07004844 0.10200928 -0.088258766
-0.05177886 -0.061494857 -0.14162159 -0.18632415 -0.10030093 -0.020966247 -0.044145435 0.030634966
-0.032542262 -0.05507993 0.06388197 -0.09654874 -0.106325746 -0.15956335 0.061644673 0.080263175
-0.098175466 0.028328331 -0.040617928 0.13642609 0.12351473 0.022317218 -0.019381095 -0.09607933
0.050097313 -0.10314848 -0.078208975 -0.014010196 -0.11483285 0.08480453 0.13408889 0.08176534
-0.09590924 0.01014108 0.13775292 0.031046357 0.045468 -0.1104267 -0.039675485 0.028080566
-0.042192537 0.0525573 0.04033452 0.0057232203 -0.032855652 0.035247788 0.025493944 -0.077201754
0.09655426 -0.046131946 -0.02296224 0.027911702 -0.13067512 -0.16721022 0.044794373 0.042400625
0.094593845 0.082546435 0.048430115 0.15220734 0.0022058757 0.16954072 -0.008121926 0.01855399
0.07269615 0.14288269 -0.034429602 0.03338169 0.011373139 0.061925363 0.055937916 -0.03740204
-0.03989505 0.025334867 -0.033914894 -0.13732077 -0.12688841 -0.14141351 -0.19024199 0.069741204
00000000: 8ba0 10be 25a0 90bd 58e7 0f3d 9c5c 613d
00000010: cdcb 32bc abb4 bfbd 6522 78bb 6f15 513d
00000020: 5057 4e3d 2dcd afbd a6fb 3b3d f920 bebb
00000030: 3966 3c3d a082 d23d b20b 66bc 9ac1 07be
00000040: 36b2 eb3d 4194 403d 355f 153e 05cf 8fbd
00000050: 376d 04be f2bd a43d bb09 f63d d985 123d
00000060: db8b 983d ca6d 6c3d 8442 2f3e c3dd f83d
00000070: bf35 373b 794a d03b 31fa 903d 4477 363e
00000080: f571 7b3e 97a7 a63d db42 d3bd aa73 343c
00000090: 790e 6f3e a528 663e bc82 993d fb6b ac3d
000000a0: 2872 5e3c 35d4 8a3d cbc4 e03d 9205 e2bc
000000b0: 0b50 753d d3aa 47bd ef15 cb3d 128c 003e
000000c0: 132f 1c3e c0c5 fb3c d195 98bd 5953 033c
000000d0: 8a92 f5bc 0e81 02be ecbc 6abe 374e edbc
000000e0: 7788 153e 749a 2e3d 35fc 05be ef54 09be
000000f0: cde3 383d 3349 b43d 9262 4c3e fb3d 9d3a
00000100: c05b b2bd 64da d2bd b0f8 953d 9c56 b73d
00000110: 13e5 9abc c01b f9bd 9936 47be c9b0 c8bd
00000120: 5ab6 80bd c88e 3dbc 6660 0cbd 24d8 b53d
00000130: c751 c5bd 73ee 3ebc 3f13 343d 79dd 44bd
00000140: 6a0a 92bc f310 23bd 977d 283d 8b36 753d
00000150: d440 3fbd 856a 303d e4a1 f83d f4e2 24bd
00000160: a862 013c a1b5 153e 5f55 7e3c 42c1 663c
00000170: 9ed3 e23d a664 893b 2c1a 2bbd bec8 743d
00000180: d5e8 473b 064f e83c 5755 53bc de3c da3d
00000190: 0006 12bd ad18 ccbd bdd7 c9bd 5c61 16be
000001a0: a96d 563c d9dc 3f3e 2470 aa3d c16b b83d
000001b0: 5267 82bd 84da 0b3d 75b5 5d3e c3c6 83bc
000001c0: 1729 dc3d 738f c5bc 1a48 66bd 981b b53d
000001d0: 6f62 143e 0ea1 9c3c 6055 973c 5577 903d
000001e0: fbc1 e7bb 55ba b13c a5d4 e1bd dc58 653d
000001f0: c76b fabc 4e38 3abe 4fa1 4dbe 3251 ddbd
00000200: 2b5e d0bd 39ff 4ebd 87df d1bd bd5b 8f3d
00000210: f87f 3d3d 6456 20bc 7ce4 a0bc 191b a33d
00000220: 69d9 e3bd 6a48 113d 8b3f 9ebc a356 923d
00000230: 1e0a 963d 913e fabd 661b 95bd c663 513c
00000240: d3d0 cabc e44c 06bd 3358 783c e9af 013e
00000250: 9b1e 883c f652 143d a969 67bc c407 8a3d
00000260: 6f95 603d 36fb 04be a1d3 1e3b 5e92 263e
00000270: 8887 a63d 9af3 a53d 6989 80bc e7d4 9fbd
00000280: f7bd 623d c46d ce3d cff2 683d 679d 6bbd
00000290: 7605 d7bc c100 383e ae86 4abc 6659 1f3e
000002a0: fc42 e73d 5117 91bd 0793 1e3e d961 2a3d
000002b0: e6ef d23d 8e75 8f3d 3eea d03d 03c1 b4bd
000002c0: 1216 54bd 08e2 7bbd 4005 11be c2cb 3ebe
000002d0: 936a cdbd 68c1 abbc d8d1 34bd 2ef6 fa3c
000002e0: 094b 05bd 7e9b 61bd 8dd4 823d 59bb c5bd
000002f0: 50c1 d9bd 9364 23be 207f 7c3d 0561 a43d
00000300: 3810 c9bd d110 e83c fc5e 26bd 48b3 0b3e
00000310: 4af5 fc3d 99d2 b63c 1ac5 9ebc 3dc5 c4bd
00000320: d732 4d3d 833f d3bd 072c a0bd 058b 65bc
00000330: 7c2d ebbd ffad ad3d 994e 093e 9674 a73d
00000340: 106c c4bd c626 263c 1a0f 0d3e ee54 fe3c
00000350: a73c 3a3d 6527 e2bd c382 22bd 3709 e63c
00000360: 15d2 2cbd 5346 573d cf35 253d da89 bb3b
00000370: a693 06bd fc5f 103d add8 d03c f41b 9ebd
00000380: 3dbe c53d daf4 3cbd 4f1b bcbc 15a7 e43c
00000390: b3cf 05be 2839 2bbe 4e7a 373d 47ac 2d3d
000003a0: 6bba c13d 1b0e a93d a85e 463d 3edc 1b3e
000003b0: 7490 103b 159c 2d3e d411 05bc 8afe 973c
000003c0: b8e1 943d d74f 123e 0e06 0dbd 3dbb 083d
000003d0: 6756 3a3c 73a5 7d3d 281f 653d e232 19bd
000003e0: fe68 23bd 118b cf3c 58ea 0abd d19d 0cbe
000003f0: 09ef 01be b4ce 10be ccce 42be 7ad4 8e3d

enc_layer_1.0.bias f4 [32]
-0.019391228 0.070305444 0.13419956 -0.7485657 -0.15302765 -0.021338789 -0.031426303 0.16281317
-0.03789207 0.063934155 0.10748943 -0.5469009 0.064572945 0.057923965 -0.03847169 0.002571845
-0.18581706 -0.4403367 -0.26625878 0.26155567 -0.22675116 -0.040443685 0.18616483 -0.1649129
-0.74774104 -0.0944263 -0.17257349 -0.10700269 -0.40406463 -0.07590636 -0.107234485 0.12401207
00000000: 5ada 9ebc 4dfc 8f3d 9c6b 093e 00a2 3fbf
00000010: 48b3 1cbe afce aebc deb8 00bd 7fb8 263e
00000020: b734 1bbd e9ef 823d 6b23 dc3d b301 0cbf
00000030: d23e 843d ae41 6d3d 7e94 1dbd 668c 283b
00000040: d446 3ebe d073 e1be 1253 88be a0ea 853e
00000050: 7531 68be 47a8 25bd fea1 3e3e edde 28be
00000060: f56b 3fbf 9362 c1bd 1bb7 30be 3a24 dbbd
00000070: 8fe1 cebe cb74 9bbd c19d dbbd 0afa fd3d

enc_layer_2.0.weight f4 [16, 32, 3, 3]
0.08003687 0.037750695 -0.03651522 -0.00858956 0.103728466 0.054775327 0.043138914 0.04404326
0.07458426 -0.13204755 -0.024356013 -0.14634804 -0.15544797 -0.074289516 -0.01981959 -0.09241182
-0.039383188 -0.0018464305 -0.09669752 -0.047282092 -0.07102915 -0.10190586 -0.014353097 0.058033593
0.092625536 0.060139846 0.016780715 0.20853664 0.10165056 -0.054847088 -0.10440311 0.112858534
0.047601342 0.1722914 0.015304994 0.12734316 -0.20773774 -0.036197267 -0.028835142 0.06124179
0.10242771 -0.08105439 0.039756972 0.09700751 0.037011977 -0.015378887 0.032692723 -0.0033612791
-0.024403704 0.027006868 0.082618475 0.20637235 0.19391619 0.044407744 -0.06661421 -0.09536939
-0.09776356 -0.07915991 0.008552351 0.065878436 0.01582721 0.028551608 0.038563326 -0.19650266
-0.1521863 -0.07936769 0.024394576 0.08798101 0.05189254 0.0015249181 -0.041242357 0.049462497
0.0063388767 0.022948619 -0.005730131 0.16612066 0.056248493 0.0026008508 0.087740414 0.19554119
-0.006667556 0.019359214 0.0470331 -0.013258197 0.03369408 0.09008368 -0.0011005377 0.039582994
-0.009494377 -0.029980436 0.030464875 0.004103019 0.01478621 -0.037749935 0.00050164823 -0.022079697
0.091561384 0.02070343 -0.0102323415 -0.15141296 -0.19965176 0.051767316 -0.45366076 -0.43453088
-0.23417452 -0.35844746 -0.40459126 -0.1656696 0.038148712 0.044586677 0.029477436 -0.09195905
-0.1332074 -0.0622819 -0.08014569 -0.07667502 -0.105575874 0.048626117 0.018099742 0.023189792
-0.035995465 -0.043349158 0.056957394 0.0049011414 -0.03320321 0.051179364 0.0035384702 0.05953092
-0.05392355 0.0076534385 -0.0035154286 -0.006804646 0.042550754 0.027464034 -0.035003588 0.00641659
0.05680728 0.013025137 -0.064923115 0.104878776 0.07001542 -0.00238473 0.022473479 0.0247069
0.10383517 0.17785238 0.09688552 0.19413528 0.2584362 0.05397944 0.1806771 0.10571721
0.037845053 -0.015713882 -0.09835065 -0.10627232 -0.2151766 -0.20381437 -0.07053322 -0.03939366
-0.1824598 -0.11831573 0.2608456 0.16026178 0.12944835 -0.15943088 0.368468 0.051147018
0.0059042927 -0.15540563 -0.21950875 0.012857783 0.03852668 -0.02284127 0.025406638 0.03130932
0.0154641485 -0.009016706 -0.019746767 0.065449946 0.09736161 0.028207563 -0.060740877 -0.10368457
-0.10095865 -0.0069803884 -0.0832961 -0.14719431 0.037659798 0.103432104 0.04619394 0.18234181
0.037343904 0.007114371 -0.065349974 -0.21369968 -0.3514605 -0.17767979 -0.05569755 0.01797997
-0.18612324 0.08833874 0.049861386 -0.05583334 0.12908934 0.14326297 0.13265613 0.026062781
0.004731095 0.0083486475 -0.025967324 -0.046924543 -0.03898606 0.048708566 -0.029881282 0.05585736
-0.28841278 -0.3327287 -0.38639766 -0.042560637 -0.067014895 -0.018058585 0.6120688 0.5857616
0.5571358 -0.21684042 -0.13281722 -0.129204 0.046259444 0.18050645 -0.010813942 0.04811564
-0.004563085 -0.047544952 0.018000446 0.0076495986 0.1901948 -0.04689069 -0.2776968 -0.084807456
0.048777934 -0.2507955 -0.03891848 0.046892744 0.11187584 0.06683054 0.2341174 0.18415608
0.20878583 0.20916766 0.19283783 0.08103587 -0.0012872145 -0.04285403 -0.056790017 -0.024228763
00000000: 5fea a33d 79a0 1a3d fc90 15bd 3abb 0cbc
00000010: 976f d43d 185c 603d 6eb2 303d b566 343d
00000020: a2bf 983d 7937 07be 4386 c7bc 43dc 15be
00000030: c12d 1fbe 1a25 98bd b15c a2bc 6942 bdbd
00000040: 4450 21bd ed03 f2ba 5909 c6bd deaa 41bd
00000050: bb77 91bd 05b4 d0bd 4129 6bbc a2b4 6d3d
00000060: 75b2 bd3d 3355 763d b677 893c a18a 553e
00000070: 2b2e d03d 57a7 60bd 4cd1 d5bd 6022 e73d
00000080: a0f9 423d 286d 303e ccc1 7a3c 3f66 023e
00000090: 34b9 54be 9643 14bd ad37 ecbc acd8 7a3d
000000a0: 9fc5 d13d d8ff a5bd 35d8 223d e0ab c63d
000000b0: df99 173d baf7 7bbc cee8 053d e848 5cbb
000000c0: 47ea c7bc 823d dd3c e033 a93d 4653 533e
000000d0: f791 463e e5e4 353d 086d 88bd 0751 c3bd
000000e0: 4338 c8bd 971e a2bd 291f 0c3c 46eb 863d
000000f0: 11a8 813c 10e5 e93c 94f4 1d3d fe37 49be
00000100: bad6 1bbe 878b a2bd 22d7 c73c 632f b43d
00000110: 468d 543d c3df c73a bfed 28bd 3099 4a3d
00000120: 5ab6 cf3b befe bb3c d3c3 bbbb 891b 2a3e
00000130: d264 663d 0973 2a3b 3fb1 b33d f33b 483e
00000140: 837b dabb 3797 9e3c c8a5 403d e938 59bc
00000150: ce02 0a3d cb7d b83d eb3f 90ba c721 223d
00000160: 4e8e 1bbc 8899 f5bc 7991 f93c 9e72 863b
00000170: dc41 723c ad9f 1abd 0b81 033a 7be0 b4bc
00000180: 8984 bb3d 3d9a a93c 8da5 27bc 000c 1bbe
00000190: 8371 4cbe f709 543d 3946 e8be d57a debe
000001a0: 72cb 6fbe 6d86 b7be 9626 cfbe 4ba5 29be
000001b0: d341 1c3d 85a0 363d aa7a f13c 0755 bcbd
000001c0: 8567 08be 4e1b 7fbd 6c23 a4bd cb07 9dbd
000001d0: 2a38 d8bd 2e2c 473d e945 943c 85f8 bd3c
000001e0: fb6f 13bd e38e 31bd 284c 693d c199 a03b
000001f0: 1700 08bd 74a1 513d aee5 673b b2d6 733d
00000200: f1de 5cbd b2c9 fa3b 1b63 66bb 82f9 debb
00000210: b349 2e3d 41fc e03c ec5f 0fbd 4242 d23b
00000220: c0ae 683d 6267 553c 69f6 84bd afca d63d
00000230: 3f64 8f3d 2149 1cbb 4d1a b83c 2066 ca3c
00000240: 89a7 d43d ef1e 363e ea6b c63d 66cb 463e
00000250: c051 843e 8c19 5d3d 6b03 393e 4482 d83d
00000260: 6a03 1b3d 66ba 80bc 116c c9bd 4da5 d9bd
00000270: 4157 5cbe b7b4 50be b973 90bd 3f5b 21bd
00000280: bed6 3abe 844f f2bd 8e8d 853e aa1b 243e
00000290: 1c8e 043e d941 23be d6a7 bc3e 897f 513d
000002a0: cc78 c13b a722 1fbe e7c6 60be 73a9 523c
000002b0: 27ce 1d3d 9d1d bbbc 9521 d03c 343e 003d
000002c0: 575d 7d3c ceba 13bc f9c3 a1bc 9f0a 863d
000002d0: 8665 c73d 8c13 e73c 6dcb 78bd 9358 d4bd
000002e0: 69c3 cebd bebb e4bb 2597 aabd 1bba 16be
000002f0: 2941 1a3d 36d4 d33d db35 3d3d d0b7 3a3e
00000300: ecf5 183d ab1f e93b 35d6 85bd 17d4 5abe
00000310: a1f2 b3be b1f1 35be 1d23 64bd bb4a 933c
00000320: 1797 3ebe f1ea b43d 743b 4c3d 80b1 64bd
00000330: ff2f 043e 87b3 123e 02d7 073e 9d81 d53c
00000340: 4d07 9b3b c4c8 083c 6db9 d4bc f333 40bd
00000350: d9af 1fbd a282 473d 97c9 f4bc b0ca 643d
00000360: d7aa 93be 6b5b aabe ead5 c5be 1054 2ebd
00000370: 1b3f 89bd 99ef 93bc 8ab0 1c3f 79f4 153f
00000380: 74a0 0e3f 6a0b 5ebe 3d01 08be 0e4e 04be
00000390: 8b7a 3d3d afd6 383e f62c 31bc e814 453d
000003a0: ee85 95bb 7fbe 42bd ac75 933c 7ca9 fa3b
000003b0: 6dc2 423e 7410 40bd 462e 8ebe 88af adbd
000003c0: 5fcb 473d 4568 80be fc68 1fbd 9b12 403d
000003d0: 291f e53d 73de 883d 79bc 6f3e 6993 3c3e
000003e0: f4cb 553e 0c30 563e 4877 453e 22f6 a53d
000003f0: c0b7 a8ba b587 2fbd a69c 68bd 667b c6bc

enc_layer_2.0.bias f4 [16]
0.054801386 0.042470347 0.05908756 0.110727504 -0.0028767448 -0.010937883 -0.019956218 0.0017985003
0.019872623 -0.014443047 -0.051706113 -0.018046679 0.02693198 -0.054339804 0.009103974 0.00657573
00000000: 6b77 603d 63f5 2d3d cc05 723d 1ac5 e23d
00000010: c587 3cbb ce34 33bc 397b a3bc a8bb eb3a
00000020: e9cb a23c 88a2 6cbc cac9 53bd a1d6 93bc
00000030: 75a0 dc3c 6a93 5ebd d628 153c 3979 d73b

enc_layer_large.0.weight f4 [12, 16, 3, 3]
-0.13540244 0.015515708 0.031032724 0.022779213 0.052075595 -0.027632456 -0.071418434 -0.052308455
0.0030552351 0.28702334 0.19799525 0.017121049 0.2734072 -0.026033405 0.005830198 0.013331002
0.029409459 0.0035001251 0.25367025 0.025331007 -0.054201733 -0.10230626 -0.36600137 0.015585641
0.030899746 0.018934939 -0.01855374 0.08987905 0.1563456 0.094738714 0.0626287 -0.16210784
-0.0692723 0.0661588 0.037884355 0.041624557 0.10956107 -0.04513543 0.04362777 -0.041253064
-0.06833039 0.04622547 -0.05218078 0.020379083 -0.005441627 -0.10333374 -0.14049236 -0.00032082142
-0.10602591 -0.0824478 -0.03109419 0.007705207 -0.034663446 -0.024897112 0.07964725 0.007984575
-0.04251839 0.08302834 0.04562577 0.028894944 -0.055653892 -0.0025024135 -0.028052405 -0.061526604
-0.016768774 -0.04358211 -0.14381692 0.00073894137 -0.026717078 -0.019748889 0.00943405 -0.023532402
-0.16381848 -0.012549746 0.015262025 -0.12279323 -0.12056405 -0.020624364 0.015486738 -0.024570897
-0.031536736 -0.016408091 -0.07583409 -0.014032647 0.18214278 0.20188485 -0.07374641 0.04854254
-0.04012702 -0.04079143 -0.43167725 -0.26357433 -0.08379849 -0.14032479 0.06066279 0.041057095
-0.07247562 -0.020698717 -0.010117614 -0.032502472 0.15026748 -0.015913865 -0.11154032 0.10623247
-0.0018446846 -0.033140436 -0.023900654 -0.03967585 -0.3800169 0.16299595 -0.032664455 -0.25576803
-0.1742913 0.12376807 0.008571564 0.027450638 -0.010608833 -0.19639668 0.39058894 -0.02447797
-0.38385656 -0.1634608 -0.032854356 -0.037899576 0.017594492 -0.019900015 -0.0063926694 -0.034931775
-0.021435501 -0.0069229254 0.08410327 -0.009102939 0.040098954 -0.018527944 0.021867927 0.07597524
0.029300906 -0.02860513 0.15738861 0.030489944 0.06110379 -0.06003644 -0.07033596 -0.06717462
-0.25239366 -0.11956269 0.09453422 -0.13575114 -0.06219448 -0.02030424 0.004577146 -0.028717784
-0.019893082 0.1213618 -0.02786363 0.01951445 -0.00696826 0.014208713 0.051339023 -0.05282759
-0.05225577 0.006723158 0.118296176 0.11933144 -0.024327936 -0.058931034 0.01569656 0.05717972
0.074996434 -0.0019857604 -0.043264635 -0.12746258 0.022898616 0.01673286 -0.011958914 0.047322705
0.0052464684 0.091116145 -0.040440228 0.020940833 -0.050867353 0.009879898 0.00915211 0.03179954
-0.07372458 -0.053998318 -0.037743293 -0.0529135 -0.0062845247 0.121618696 0.02343509 -0.050012976
-0.12630504 -0.05146864 -0.08354245 0.0036838946 -0.049334105 -0.023491919 -0.21014243 0.19433345
-0.10355689 -0.1503726 -0.008142774 0.0047553377 0.034169 0.029388878 -0.014755442 -0.08704436
-0.11281624 -0.046650857 -0.009571625 -0.05784284 -0.009400242 -0.08217677 -0.05734777 -0.0023986164
0.003485874 0.021647504 -0.22644804 0.055482905 -0.07866592 -0.021424707 -0.0030467089 -0.016008947
0.016241493 -0.002494727 -0.080585755 0.004520609 -0.044374216 -0.031187199 -0.0136496825 -0.06340226
-0.0039391057 -0.031230131 -0.4629952 0.16078739 -0.13600117 -0.1491417 0.0900635 0.020947756
-0.03779014 0.049932733 -0.04703872 -0.095227815 0.0153068425 -0.02282872 -0.057091694 -0.11110535
-0.007116841 0.077925004 -0.03957895 0.03310629 0.07967967 -0.07277081 0.08087675 0.004400809
00000000: f0a6 0abe 9935 7e3c 5738 fe3c 799b ba3c
00000010: 384d 553d 765d e2bc d443 92bd 6441 56bd
00000020: 573a 483b b9f4 923e 44bf 4a3e 7141 8c3c
00000030: 07fc 8b3e 0244 d5bc 3f0b bf3b 466a 5a3c
00000040: 1bec f03c 5b62 653b 11e1 813e f982 cf3c
00000050: a302 5ebd f285 d1bd 8864 bbbe eb5a 7f3c
00000060: 7721 fd3c 721d 9b3c 03fe 97bc 8212 b83d
00000070: 1019 203e 5f06 c23d 7a43 803d 99ff 25be
00000080: a3de 8dbd 447e 873d a02c 1b3d 837e 2a3d
00000090: 8e61 e03d eedf 38bd 08b3 323d f9f8 28bd
000000a0: cef0 8bbd eb56 3d3d 83bb 55bd 09f2 a63c
000000b0: ad4f b2bb a4a0 d3bd 3bdd 0fbe ec33 a8b9
000000c0: 1d24 d9bd 64da a8bd 3eb9 febc f67b fc3b
000000d0: 42fb 0dbd 07f5 cbbc 191e a33d bcd1 023c
000000e0: c327 2ebd c30a aa3d 16e2 3a3d 17b5 ec3c
000000f0: 56f5 63bd 88ff 23bb 28ce e5bc 5203 7cbd
00000100: ab5e 89bc 2883 32bd be44 13be 84b5 413a
00000110: c6dd dabc 6cc8 a1bc 4691 1a3c 06c7 c0bc
00000120: 08c0 27be 739d 4dbc 930d 7a3c 047b fbbd
00000130: 49ea f6bd 6df4 a8bc 16bc 7d3c e848 c9bc
00000140: aa2c 01bd 436a 86bc e74e 9bbd 30e9 65bc
00000150: a383 3a3e e7ba 4e3e 5c08 97bd 8bd4 463d
00000160: 3b5c 24bd ea14 27bd cd04 ddbe 37f3 86be
00000170: 8b9e abbd 4db1 0fbe 8c79 783d 7c2b 283d
00000180: 196e 94bd 5b90 a9bc 59c4 25bc 5021 05bd
00000190: b8df 193e cb5d 82bc 406f e4bd 6990 d93d
000001a0: 58c9 f1ba 44be 07bd 4ecb c3bc 2583 22bd
000001b0: 9391 c2be 69e8 263e 2acb 05bd 07f4 82be
000001c0: 6b79 32be 1d7a fd3d bf6f 0c3c 29e0 e03c
000001d0: acd0 2dbc 361c 49be 46fb c73e 0686 c8bc
000001e0: d988 c4be 4562 27be 4a92 06bd 963c 1bbd
000001f0: 5322 903c 5b05 a3bc 9979 d1bb 9f14 0fbd
00000200: 8199 afbc b5d9 e2bb 563e ac3d 7e24 15bc
00000210: cd3e 243d eac7 97bc 5e24 b33c e898 9b3d
00000220: 7408 f03c 4e55 eabc 7b2a 213e 0cc6 f93c
00000230: f847 7a3d c5e8 75bd 4d0c 90bd d992 89bd
00000240: be39 81be 49dd f4bd 289b c13d 5902 0bbe
00000250: a4bf 7ebd 1455 a6bc e2fb 953b 8f41 ebbc
00000260: d1f6 a2bc 898c f83d 4442 e4bc c5dc 9f3c
00000270: 0056 e4bb a9cb 683c de48 523d be61 58bd
00000280: 250a 56bd f04d dc3b 4445 f23d 0b64 f43d
00000290: 614b c7bc ab61 71bd 1296 803c 4835 6a3d
000002a0: bb97 993d 8823 02bb 4236 31bd 8d85 02be
000002b0: e195 bb3c 5a13 893c 52ef 43bc 74d5 413d
000002c0: 91ea ab3b 1a9b ba3d a7a4 25bd 1c8c ab3c
000002d0: 495a 50bd 4cdf 213c bbf2 153c 3c40 023d
000002e0: eafc 96bd 572d 5dbd b698 1abd d4bb 58bd
000002f0: 6aee cdbb 3913 f93d f2fa bf3c 68da 4cbd
00000300: 1c56 01be c8d0 52bd 4e18 abbd 7f6d 713b
00000310: 8f12 4abd 2072 c0bc 942f 57be 59ff 463e
00000320: a215 d4bd 46fb 19be 4569 05bc aad2 9b3b
00000330: cbf4 0b3d f2c0 f03c cfc0 71bc 5044 b2bd
00000340: 330c e7bd f814 3fbd 4ed2 1cbc 9dec 6cbd
00000350: 7903 1abc 4b4c a8bd 7fe5 6abd 1b32 1dbb
00000360: 4373 643b 1b56 b13c ffe1 67be 0b42 633d
00000370: 991b a1bd de82 afbc 4bab 47bb 3225 83bc
00000380: e10c 853c 937e 23bb 250a a5bd 9e21 943b
00000390: bdc1 35bd 4c7c ffbc eba2 5fbc 0bd9 81bd
000003a0: 9d13 81bb 55d6 ffbc b50d edbe 73a5 243e
000003b0: e443 0bbe 9ab8 18be 3673 b83d a19a ab3c
000003c0: d5c9 1abd 4486 4c3d acab 40bd cd06 c3bd
000003d0: 8dc9 7a3c 4c03 bbbc fbd8 69bd 348b e3bd
000003e0: 6434 e9bb 2597 9f3d 891d 22bd 769a 073d
000003f0: 182f a33d dd08 95bd b6a2 a53d a934 903b

enc_layer_large.0.bias f4 [12]
0.00674992 -0.029493744 0.015214728 -0.048322886 -0.025972797 -0.05258786 -0.0500453 -0.09404038
0.010070662 0.058152433 0.08180611 -0.027112143
00000000: 6f2e dd3b dd9c f1bc 3247 793c 38ee 45bd
00000010: e7c4 d4bc 5e66 57bd 4dfc 4cbd 3e98 c0bd
00000020: 6bff 243c 3f31 6e3d f689 a73d 491a debc

dec_layer_2.0.weight f4 [12, 8, 5, 5]
-0.018772125 0.03230674 0.043823145 0.083589025 0.051928256 -0.040893517 0.035590764 -0.04690979
0.011820094 -0.03298593 0.023494385 0.06800555 0.04464718 -0.11728962 -0.07001049 -0.062342335
0.2079035 -0.077566475 -0.0059439517 -0.11755546 -0.017964974 0.123119585 0.14308463 0.031925213
-0.04259819 0.10615415 0.13484873 0.033070736 0.09909301 0.20637463 0.050371196 0.120525785
0.057673793 -0.061883934 -0.029550526 0.00608755 -0.009736517 0.055916198 0.23370953 0.29306743
0.21322446 0.024321854 0.20617656 -0.30614224 0.11511617 -0.014212767 -0.036326095 -0.028591624
-0.05223662 -0.0023365703 0.021841632 0.009203149 -0.012176305 -0.015625255 0.0326621 -0.016072921
0.05776535 0.03220147 -0.027486837 -0.0058261906 0.029870985 -0.01594686 0.07293686 -0.036228012
0.048789762 -0.03237513 -0.12419658 -0.12989125 -0.2559095 -0.046884496 -0.010029258 -0.038713362
-0.10638768 -0.08609626 -0.0702249 -0.006788388 0.03810841 0.049820863 0.042933643 0.023195555
0.0009615701 0.0040884316 0.07740493 -0.07768842 -0.027798511 -0.028769001 0.09561759 0.116150305
-0.23137176 -0.07076822 0.0069542644 -0.08138775 -0.047168262 -0.06362202 -0.025780814 0.019085176
-0.025153656 0.04584417 -0.002221848 -0.039971728 0.06674612 -0.018860517 0.23952885 0.032294765
0.39746246 0.086558774 -0.016591072 0.14160243 0.08105495 0.06374877 -0.5314591 0.011937478
0.42953926 -0.047505498 -0.24817325 -0.10122016 0.10118369 -0.064777106 -0.22269419 -0.061386477
-0.015961196 0.07340044 -0.067378625 0.0030084967 -0.04593579 0.014962636 0.052831274 0.04962312
-0.06775975 0.019729586 0.024921846 0.08995372 0.084839724 -0.028924642 0.066891685 0.0737786
0.06347539 0.056449212 0.047813885 0.064602055 -0.0036574202 -0.0026025304 -0.21123247 -0.24046063
-0.047512997 -0.021573748 -0.05009612 -0.06844308 -0.06685607 -0.06314445 0.0028261635 -0.010142097
0.027324354 0.01064845 0.046908565 -0.03765747 -0.06727162 -0.1343139 -0.03373844 -0.04466802
-0.084831394 -0.04757911 0.05978487 -0.27232087 -0.063544266 0.014824179 -0.15272555 -0.099645615
-0.101276085 0.000158719 0.0071771615 0.0007853806 0.034821752 0.13558248 0.045806777 -0.02603335
0.040553376 -0.015006669 0.18540493 0.025461162 -0.020968836 -0.2823457 0.008422365 -0.14426692
0.10899503 -0.039290655 -0.1509465 0.07577803 -0.22812353 0.012818419 0.03661165 0.03386419
-0.06126002 -0.09344344 0.023936016 -0.006071548 0.06481439 0.089009285 -0.25390592 0.020749459
-0.009122806 -0.0029471475 -0.01134646 -0.043714043 0.0036289007 -0.06290323 0.025184013 0.1120394
0.05581726 0.055771638 -0.025320595 -0.03495368 0.025191266 0.01701477 -0.028258484 -0.10917261
0.15588029 0.106649265 0.101339445 -0.11058845 -0.048795354 -0.058708936 -0.051079758 0.10407942
-0.05445594 0.082732946 -0.06133255 0.020059362 0.11605398 -0.1184064 0.009058256 0.057261214
0.10117059 0.038087968 0.0006912367 0.13570601 -0.088874795 0.13043049 0.17513314 0.15376288
0.044740092 -0.076057084 0.23606582 -0.027786564 -0.021438219 0.053431544 0.10861244 0.112675816
0.01998248 -0.024553804 0.022329308 0.027572514 0.00021798555 0.02359186 -0.02655324 0.02740998
00000000: 00c8 99bc 1254 043d e67f 333d b930 ab3d
00000010: b9b2 543d f67f 27bd 9fc7 113d 7b24 40bd
00000020: 11a9 413c 411c 07bd 4c77 c03c 7e46 8b3d
00000030: f6df 363d 8a35 f0bd a961 8fbd ad5a 7fbd
00000040: a8e4 543e 2cdb 9ebd 7bc5 c2bb ebc0 f0bd
00000050: 482b 93bc 1f26 fc3d c784 123e 03c4 023d
00000060: 717b 2ebd 5967 d93d c915 0a3e 2e75 073d
00000070: 47f1 ca3d df53 533e 0752 4e3d 39d6 f63d
00000080: 5b3b 6c3d 027a 7dbd f213 f2bc 127a c73b
00000090: ea85 1fbc 6208 653d 8d51 6f3e ef0c 963e
000000a0: 8357 5a3e a03e c73c f31f 533e adbe 9cbe
000000b0: 07c2 eb3d aadc 68bc acca 14bd fb38 eabc
000000c0: 11f6 55bd 2521 19bb 39ed b23c cec8 163c
000000d0: 207f 47bc 8900 80bc b2c8 053d 5cab 83bc
000000e0: 5c9b 6c3d b0e5 033d 132c e1bc a1e9 bebb
000000f0: ffb3 f43c fda2 82bc ec5f 953d d363 14bd
00000100: c6d7 473d c99b 04bd c75a febd 3602 05be
00000110: 9206 83be f509 40bd c251 24bc e791 1ebd
00000120: c9e1 d9bd 3c53 b0bd 13d2 8fbd 2071 debb
00000130: 9017 1c3d f610 4c3d 30db 2f3d 9b04 be3c
00000140: e111 7c3a 40f8 853b 7a86 9e3d 1b1b 9fbd
00000150: b4b9 e3bc f8ac ebbc 28d3 c33d 36e0 ed3d
00000160: b8ec 6cbe eeee 90bd 99e0 e33b 9fae a6bd
00000170: 8233 41bd 434c 82bd 4932 d3bc 8458 9c3c
00000180: 0a0f cebc 19c7 3b3d 6c9c 11bb 65b9 23bd
00000190: 31b2 883d 5f81 9abc 0d47 753e 8447 043d
000001a0: 3380 cb3e ba45 b13d 00ea 87bc 3a00 113e
000001b0: 2300 a63d b78e 823d b40d 08bf 6995 433c
000001c0: 92ec db3e 2095 42bd 2121 7ebe 844c cfbd
000001d0: 6539 cf3d dca9 84bd f209 64be 6370 7bbd
000001e0: 0ec1 82bc f852 963d cefd 89bd 332a 453b
000001f0: 2b27 3cbd d825 753c 9b65 583d 9d41 4b3d
00000200: a0c5 8abd f19f a13c e628 cc3c a839 b83d
00000210: 73c0 ad3d 5ff3 ecbc 82fe 883d 3c19 973d
00000220: 63ff 813d 4a37 673d 7ed8 433d 154e 843d
00000230: 54b1 6fbb 378f 2abb 534d 58be 503b 76be
00000240: fd9c 42bd 6ebb b0bc 9731 4dbd e32b 8cbd
00000250: d6eb 88bd e151 81bd 2837 393b 0a2b 26bc
00000260: 53d7 df3c d676 2e3c 3223 403d b83e 1abd
00000270: b4c5 89bd 9589 09be 5231 0abd d0f5 36bd
00000280: 15bc adbd 50e2 42bd fbe0 743d a46d 8bbe
00000290: 7f23 82bd 1de1 723c 1664 1cbe 0013 ccbd
000002a0: d669 cfbd cf6d 2639 652e eb3b 00e2 4d3a
000002b0: 41a1 0e3d 22d6 0a3e e39f 3b3d e443 d5bc
000002c0: 4c1b 263d 88de 75bc cada 3d3e ed93 d03c
000002d0: d6c6 abbc 9e8f 90be f6fd 093c b5ba 13be
000002e0: c938 df3d 3def 20bd b891 1abe 8331 9b3d
000002f0: 3799 69be 5904 523c 19f6 153d 2db5 0a3d
00000300: c9eb 7abd 465f bfbd 7715 c43c d6f3 c6bb
00000310: 68bd 843d 804a b63d f5ff 81be c5fa a93c
00000320: d277 15bc ee24 41bb 81e6 39bc 7f0d 33bd
00000330: dad2 6d3b 69d3 80bd b44e ce3c ea74 e53d
00000340: a4a0 643d cd70 643d 236d cfbc 972b 0fbd
00000350: ea5d ce3c 8f62 8b3c 567e e7bc e495 dfbd
00000360: 159f 1f3e ee6a da3d 0e8b cf3d 337c e2bd
00000370: a3dd 47bd c878 70bd 0239 51bd 9727 d53d
00000380: 310d 5fbd e46f a93d d737 7bbd 8853 a43c
00000390: b6ad ed3d 0e7f f2bd 1469 143c bc8a 6a3d
000003a0: 8732 cf3d 2102 1c3d 1c34 353a 84f6 0a3e
000003b0: fd03 b6bd 928f 053e 1a56 333e 0474 1d3e
000003c0: 6341 373d d1c3 9bbd 3dbb 713e a6a0 e3bc
000003d0: 349f afbc 09db 5a3d 3370 de3d 94c2 e63d
000003e0: 4cb2 a33c 0f25 c9bc f4eb b63c c1df e13c
000003f0: 0d93 6439 b743 c13c 2e86 d9bc e58a e03c

dec_layer_2.0.bias f4 [8]
0.04211674 0.052113567 -0.02110946 -0.005282213 -0.041915435 0.027952 0.06317672 -0.05995787
00000000: 9a82 2c3d 0975 553d bfed acbc 6a16 adbb
00000010: 85af 2bbd 98fb e43c cc62 813d 6296 75bd

dec_layer_3.0.weight f4 [8, 3, 5, 5]
0.21366298 0.034428094 -0.29804793 -0.49303028 0.044411022 0.072793454 0.24348946 -0.054164227
-0.35753787 -0.6011198 0.057478916 0.35320118 0.2880017 0.20864828 -0.09193718 -0.032426942
0.11354752 0.22320336 0.28290248 0.19131587 -0.015141014 -0.009771894 0.16126558 0.17922756
0.20234056 0.045671713 -0.13349636 -0.014005874 -0.11696518 0.08699324 0.10996904 0.03244503
-0.0091761965 -0.07562586 -0.2694885 0.010850407 0.22880141 0.30672958 0.3250125 0.087750316
0.028728884 0.12766047 0.266319 0.2566993 0.14604436 0.04466356 -0.0054607783 0.09087701
0.09417395 0.12695904 -0.044754453 -0.34208658 -0.049762316 -0.1374872 0.25518864 0.005547896
0.21291243 -0.17298536 -0.14287682 -0.45782974 0.011503928 0.07731095 0.18194245 0.17888653
0.104542315 -0.033849373 0.06645364 0.17785268 0.18758565 0.105841726 0.061213233 -0.0027544552
0.07025373 0.042474773 0.075773865 0.0850153 0.09231751 0.16976722 0.13658698 0.07705276
-0.0056230226 0.15197404 0.3518418 0.44388232 0.25010943 -0.017880414 0.575029 0.2703392
0.29766712 -0.28512263 0.16858208 0.45290804 0.408082 0.25211543 -0.19402483 0.5797656
-0.09568683 0.22273234 -0.26017532 0.49358517 0.19152038 0.058420673 0.062047474 -0.09258479
0.006608725 -0.17139187 -0.25424367 -0.02796379 0.13115402 0.20334737 0.14981751 0.15549818
-0.167573 -0.3775133 -0.3626064 -0.15789121 0.39418828 -0.045962684 0.10030385 -0.4369046
-0.0317404 -0.40986773 0.050955996 0.10287895 0.65738136 -0.23775358 0.017303871 0.09229846
0.31115788 0.07451335 -0.5140307 0.020847827 -0.05817726 0.3981905 -0.12872316 -0.2594825
0.51563853 -0.22824821 0.032013062 -0.7467051 -0.08412149 -0.21085896 -0.14566164 0.01634824
0.083290204 -0.040569436 -0.23166518 0.09285731 0.15714163 0.39777082 0.010906269 0.04113358
0.06839716 0.04854748 0.020600677 0.041115887 0.07492034 0.15797238 0.11149744 0.06590687
0.055441823 0.11842548 0.18786578 0.13543944 0.07645412 0.024136936 0.080884986 0.12987931
0.11459943 0.06953842 0.004736875 0.035677638 0.028923646 0.031059507 0.016201286 0.0035642264
0.0021246045 -0.0022660727 -0.014685793 -0.0058777295 0.0010821557 0.01022075 0.003977363 -0.016146889
-0.040475897 0.014499806 -0.0060134013 -0.020558937 -0.044166192 -0.026283221 0.0047305296 -0.03793365
-0.03775725 -0.030502595 0.005805511 -0.002741536 -0.053826578 -0.05707318 -0.023809157 0.039016634
0.013432252 0.03744299 0.10931797 0.07452136 0.05001855 0.04925629 0.07542886 0.18068403
0.14872794 0.10713638 0.08688095 0.12502128 0.25068113 0.1697146 0.13045645 0.037934262
0.04975684 0.13552703 0.11353262 0.10783921 -0.009421077 0.0056875576 0.064505376 0.059950102
0.05266933 -0.0146934865 -0.054817993 0.044766676 0.015481049 0.060095757 -0.01258665 -0.04660378
0.073688775 0.059961874 0.08855155 -0.0022628803 -0.03087715 0.20874578 0.19548108 0.22823995
-0.027982125 0.02139926 0.17336716 0.21524143 0.21074109 -0.005903894 -0.011753133 0.13612905
0.13567705 0.16193794 -0.008571932 0.014183349 0.0047784816 0.010601319 0.007787344 -0.012663752
00000000: 78ca 5a3e 7904 0d3d bd99 98be 776e fcbe
00000010: 55e8 353d bc14 953d 4d55 793e 4fdb 5dbd
00000020: 340f b7be fde2 19bf 036f 6b3d c9d6 b43e
00000030: f574 933e e5a7 553e 8f49 bcbd 1dd2 04bd
00000040: 9a8b e83d 6c8f 643e 98d8 903e 4fe8 433e
00000050: 0412 78bc 4b1a 20bc ce22 253e 6e87 373e
00000060: 5d32 4f3e 4312 3b3d 45b3 08be e578 65bc
00000070: 718b efbd 8329 b23d 7337 e13d 14e5 043d
00000080: c257 16bc bbe1 9abd 66fa 89be e8c5 313c
00000090: eb4a 6a3e a90b 9d3e 0a68 a63e 70b6 b33d
000000a0: d658 eb3c 6db9 023e f75a 883e 176e 833e
000000b0: a78c 153e 23f1 363d 54f0 b2bb ba1d ba3d
000000c0: 46de c03d 8d01 023e 7250 37bd f925 afbe
000000d0: 92d3 4bbd 72c9 0cbe 16a8 823e 20cb b53b
000000e0: b705 5a3e 1323 31be 4d4e 12be a968 eabe
000000f0: f97a 3c3c 3455 9e3d 1f4f 3a3e 082e 373e
00000100: 481a d63d a4a5 0abd d918 883d 031f 363e
00000110: 7416 403e 8cc3 d83d baba 7a3d 1784 34bb
00000120: 30e1 8f3d 07fa 2d3d 542f 9b3d 801c ae3d
00000130: f610 bd3d 75d7 2d3e 75dd 0b3e d6cd 9d3d
00000140: 5541 b8bb 159f 1b3e 9c24 b43e 8b44 e33e
00000150: 580e 803e f279 92bc 1a35 133f e669 8a3e
00000160: d367 983e 98fb 91be c8a0 2c3e 90e3 e73e
00000170: 20f0 d03e 4615 813e 72ae 46be 856b 143f
00000180: 75f7 c3bd f213 643e b335 85be 32b7 fc3e
00000190: eb1d 443e 844a 6f3d 7e25 7e3d 189d bdbd
000001a0: 018e d83b 5a81 2fbe 3a2c 82be 5114 e5bc
000001b0: 3d4d 063e 4b3a 503e c369 193e ea3a 1f3e
000001c0: 4298 2bbe 6c49 c1be 8ca7 b9be 3cae 21be
000001d0: 0cd3 c93e 5e43 3cbd 1b6c cd3d f6b1 dfbe
000001e0: 3902 02bd 2fda d1be 3cb7 503d 33b2 d23d
000001f0: 254a 283f ad75 73be d9c0 8d3c fa06 bd3d
00000200: 1650 9f3e 759a 983d 8497 03bf 10c9 aa3c
00000210: 474b 6ebd a0df cb3e 01d0 03be e4da 84be
00000220: e300 043f e6b9 69be 2120 033d 1128 3fbf
00000230: e347 acbd 69eb 57be 5328 15be bfec 853c
00000240: 0e94 aa3d 232c 26bd a339 6dbe f92b be3d
00000250: bce9 203e 9ea8 cb3e 35b0 323c af7b 283d
00000260: cf13 8c3d b9d9 463d c0c2 a83c 2269 283d
00000270: d66f 993d 83c3 213e c558 e43d 2efa 863d
00000280: f716 633d 0f89 f23d e35f 403e a3b0 0a3e
00000290: fa93 9c3d d3ba c53c 07a7 a53d 15ff 043e
000002a0: 1bb3 ea3d 296a 8e3d ca37 9b3b b722 123d
000002b0: 48f1 ec3c 8270 fe3c 8fb8 843c cc95 693b
000002c0: f33c 0b3b 6482 14bb ae9c 70bc f899 c0bb
000002d0: 1fd7 8d3a ef74 273c 8a54 823b 7b46 84bc
000002e0: 0eca 25bd 9890 6d3c 110c c5bb 376b a8bc
000002f0: 9ce7 34bd e94f d7bc 8f02 9b3b 5160 1bbd
00000300: 59a7 1abd 94e0 f9bc 283c be3b 57ab 33bb
00000310: 4279 5cbd 91c5 69bd 6c0b c3bc e8cf 1f3d
00000320: f312 5c3c d25d 193d 1ae2 df3d a89e 983d
00000330: 40e0 4c3d f7c0 493d 727a 9a3d 3c05 393e
00000340: 234c 183e 526a db3d a4ee b13d 9405 003e
00000350: 4759 803e aac9 2d3e 6096 053e f560 1b3d
00000360: d4cd 4b3d 99c7 0a3e ca83 e83d ceda dc3d
00000370: dc5a 1abc b15e ba3b 651b 843d 3d8e 753d
00000380: ccbb 573d f3bc 70bc d588 60bd 435d 373d
00000390: 3aa4 7d3c f826 763d 3d38 4ebc 9be3 3ebd
000003a0: 24ea 963d 959a 753d 845a b53d d54c 14bb
000003b0: 14f2 fcbc 74c1 553e 312c 483e bcb7 693e
000003c0: c53a e5bc 804d af3c 2987 313e 4068 5c3e
000003d0: 83cc 573e 7475 c1bb 3690 40bc 6a65 0b3e
000003e0: edee 0a3e 0fd3 253e 4a71 0cbc 4761 683c
000003f0: cf94 9c3b 28b1 2d3c fa2c ff3b a07b 4fbc

dec_layer_3.0.bias f4 [3]
0.011761408 0.014107338 0.011313335
00000000: ecb2 403c 7722 673c 915b 393c
