save/updated_model_small/gen_model.pt (torch, 51145 bytes, 10 tensors)

enc_layer_1.0.weight f4 [32, 3, 5, 5]
00000000: 6f89 06be e7e1 aebd b3f4 5f3d 3716 ec3d
00000010: a2db 793d 70f4 bbbd 51c7 ccbc 5257 213d
00000020: 0ae0 b83d 43f2 edbc 798d 5e3d b288 2bbd
00000030: 3e8c 9336 c5ab d43d 04c1 e83c 1284 fdbd
00000040: 3ec0 d93d 890b 053d 800f 253e eaaf 4bbd
00000050: f9b8 d7bd cae3 ad3d a9c9 e73d 45a0 093d
00000060: 72b5 9e3d 6b5e 943c 2ccd e53d c9d7 df3d
00000070: bbb0 eb3c 05b4 403d 558e ee3c c519 f63d
00000080: 464b 4e3e 00fd b63d 09b3 93bd 5d07 f0bb
00000090: 1a00 2f3e 79e5 1a3e 60e3 493d 3ac1 e73d
000000a0: 6ce3 94bb fd5d 1f3d 6f98 9a3d 90d4 0cbd
000000b0: 46d9 7c3d bd4e 3fbd b3ba b73d 351b d63d
000000c0: 38e3 053e 006b 813c 8e16 23be 85c8 6dbd
000000d0: cea6 2bbd 3c99 e1bd aec1 47be 4fc2 eebd
000000e0: 6510 a83d d9a5 4abb 127d 06be e69e dfbd
000000f0: cadb a8ba aee2 0c3d 92fb 0b3e 40c1 b0bc
00000100: 2e2a 4cbd 2a23 1bbe 65c4 5d3d 542d 8d3d
00000110: 3bbf aabc 74fe eabd 9cf5 67be da49 d5bd
00000120: feb7 9fbd bcf6 1fbd ff7b 5cbd 353e d63d
00000130: 859c 8fbd b622 ee3c 2fad 7b3d 5679 87bd
00000140: 181c c63b 87f1 b5bc cb50 713d 4a4b b43d
00000150: 6260 31bd 4bc0 2d3d a6f1 e73d c2b1 07bd
00000160: 5521 bb3c 5e92 0b3e c144 c23c a4ee 263c
00000170: e5e0 d73d 387b 7d3c 01e4 4dbd 1200 8f3c
00000180: f2d9 dfbc 2fd9 7f3b 1ac4 ecbc faf0 a33d
00000190: 5b01 253b 0ed5 5bbd 1fd3 41bd 4fb3 09be
000001a0: fac6 64bc e16f 563e 59d9 c53d b09a ba3d
000001b0: a3f7 7fbd b451 2c3c df31 6e3e cf36 4bbc
000001c0: cd6b f03d 1a02 a0bc 87c9 9ebd 647b e23d
000001d0: e065 153e d49c a03b 1f39 443c 5f3c 333d
000001e0: 2503 f1bc 631f 9d3b f736 0abe 55d5 da3c
000001f0: 4047 92bd 8391 e9bd 01b7 04be 4d94 33bd
00000200: b5a3 bfbd d3c3 b5bd 7d8c 3dbd 1093 e83d
00000210: ab3d 813d cc16 fabb 7740 48bd 7fe3 0e3e
00000220: 8805 8bbd c18e 963d 203b 483a d0b5 6d3d
00000230: 0ef3 f93d 93a8 d1bd d28c a6bd e119 963b
00000240: 2d38 6cbd 2468 98bd c148 d5bc 665f 8e3d
00000250: 7b16 43bd 26c1 23bd b50c 4cbc 45c6 9f3d
00000260: f297 a83d ee0f d2bd 1118 0d3d 4929 203e
00000270: f5ab a93d 8a65 c93d b808 dc39 70ef 60bd
00000280: fe9d 413d 56ef cc3d e3ad 963d a0ec 2cbd
00000290: 6afe 04bb 16f6 2d3e ec01 a6bc 875f 2a3e
000002a0: d031 023e 1fb6 47bd 56e3 0c3e 806c cf3c
000002b0: 0351 d13d 00ba 973d f4df ee3d 896c dfbd
000002c0: fb5a 8bbd b7d0 74bd ef5a 13be ab1a 43be
000002d0: 8e7f 00be 9887 2fbd 2233 4abd 1fb7 a73c
000002e0: bf16 2abd 4582 aabd 4589 1e3d a8e8 d2bd
000002f0: 6dbd f0bd fed4 2abe d6c3 0d3d 5b37 4c3d
00000300: 6732 debd 9a5b 9c3c 8b96 42bd d45f d93d
00000310: bc00 b73d 71f0 8c3b bc99 0dbd 3370 d8bd
00000320: 6898 ec3c 6f70 f5bd 4285 99bd e0b3 8abc
00000330: 305c f9bd 6ab6 6f3d 2a2a e23d 17da 9c3d
00000340: 3050 ddbd f2cb 4fbb be17 e23d 5757 cb3b
00000350: 28a7 2b3d fdd5 f6bd 2d2c 45bd 3d74 983b
00000360: 422a 90bd 4617 433d 9dfb 113d b82d 3339
00000370: 65ef 68bd 37d1 b63b 7f0a 6d3c dade afbd
00000380: 0929 b93d 5ac5 08be dca7 babd bfca 143c
00000390: 286a 18be 3a5c 25be 5ad3 223c 321a d33c
000003a0: 06f6 ca3d 05ba aa3d 7144 6f3d 649a f43d
000003b0: 59fb f8ba a717 2a3e 1d47 7fbc a7f0 543c
000003c0: 5382 113d 844c 193e b6ef e5bc 03fe 273d
000003d0: 5164 663b e5e1 0e39 8aa7 263d 8474 0fbd
000003e0: 2da9 1cbd 0822 f23c 725e 82bd 6505 1bbe
000003f0: 6efd aabd 7000 b6bd 2e59 d9bd 13f5 6d3d
-0.13138364 -0.08539181 0.054676723 0.11527675 0.061000474 -0.09177482 -0.024997385 0.039389916
0.09027107 -0.029046183 0.054334138 -0.04187841 4.3972677e-06 0.10384325 0.02841235 -0.12378706
0.106323704 0.032481704 0.16119194 -0.04972831 -0.105333276 0.08490713 0.113177605 0.03360011
0.07749452 0.018111428 0.11220774 0.109298296 0.028770795 0.04704668 0.029120604 0.12016634
0.20145902 0.08934975 -0.072118826 -0.0073250965 0.17089882 0.151266 0.049289107 0.11316152
-0.0045437124 0.038907994 0.07548606 -0.034382403 0.061730646 -0.04670595 0.08971157 0.10454408
0.13074958 0.015798092 -0.15926573 -0.05805256 -0.041907124 -0.11015555 -0.19507477 -0.11658155
0.08206252 -0.0030921607 -0.13133648 -0.10918979 -0.0012882885 0.034395866 0.13670185 -0.021576524
-0.049844913 -0.15150133 0.054142375 0.06893411 -0.020843139 -0.11474314 -0.22652286 -0.10414477
-0.077987656 -0.039053664 -0.05382919 0.10461084 -0.070122756 0.029069286 0.061444458 -0.0661494
0.0060458295 -0.022209896 0.05891494 0.08803423 -0.04330481 0.042419713 0.11325388 -0.033128507
0.022843042 0.13630053 0.023714425 0.010188732 0.10540942 0.015471272 -0.05026627 0.017456088
-0.027325604 0.0039039364 -0.028902102 0.08004947 0.002517781 -0.05366998 -0.04732048 -0.13447307
-0.013963455 0.20941116 0.096605964 0.091115355 -0.062492024 0.010517526 0.23261212 -0.012403204
0.11739311 -0.019532252 -0.07753282 0.11058691 0.14589643 0.004901508 0.011976509 0.043758746
-0.029420445 0.0047950014 -0.1349753 0.026713053 -0.07142496 -0.11404707 -0.12960435 -0.043842603
-0.093573965 -0.08875241 -0.04627656 0.11356175 0.0631059 -0.007632112 -0.048889603 0.1395397
-0.067881644 0.07351447 0.0007638205 0.058034718 0.12204562 -0.10237231 -0.08132328 0.0045807217
-0.05767076 -0.07441738 -0.026035668 0.069517896 -0.04762886 -0.039979123 -0.0124542015 0.07801489
0.08232106 -0.102569446 0.03444678 0.15640749 0.08284751 0.0983382 0.00041968166 -0.054915845
0.047269814 0.10006587 0.07357385 -0.04221785 -0.0020293244 0.16988406 -0.020264588 0.16638003
0.12714314 -0.04875767 0.13758597 0.025320292 0.1022053 0.074085236 0.116638094 -0.10909373
-0.068044625 -0.05976936 -0.14390157 -0.19053142 -0.12548658 -0.04285392 -0.04936517 0.020473061
-0.0415256 -0.08325628 0.03870513 -0.10298282 -0.1175488 -0.16682813 0.03461059 0.04985748
-0.10849457 0.019086648 -0.04750685 0.10613981 0.08935687 0.004301124 -0.03457044 -0.10568275
0.028881267 -0.11984336 -0.0749612 -0.016931474 -0.121757865 0.058523573 0.110431984 0.07658785
-0.1080631 -0.0031707254 0.11039685 0.00620548 0.04190746 -0.12052534 -0.048137832 0.0046525286
-0.0703931 0.047629617 0.035640348 0.00017087802 -0.05686893 0.0055791396 0.0144678345 -0.085874274
0.0904103 -0.13356534 -0.09114048 0.009081542 -0.14884245 -0.16148463 0.009938085 0.025769327
0.099102065 0.08336262 0.05841488 0.1194351 -0.0018995806 0.16610585 -0.01558092 0.012996829
0.035524677 0.14970595 -0.028068405 0.04101373 0.0035155008 0.00013626328 0.04068712 -0.035023227
-0.038247276 0.029557243 -0.0636567 -0.15138777 -0.08349119 -0.08886802 -0.10612713 0.05809505

enc_layer_1.0.bias f4 [32]
00000000: 8b31 76bd e880 4d3d 101c 223e 8369 bfbe
00000010: ed5e cfbd c0c6 a23d a4e6 91bd 71e0 133e
00000020: 1926 49be 9979 5b3d 7b82 b93d f298 c0be
00000030: c8e3 d2ba 572c a33d 23aa 933d fb2f 2a3c
00000040: 4642 65be 3933 5dbe 317b 05be a13d 8c3e
00000050: 8328 11be 7bc7 473c e497 2a3e c1ed 7bbe
00000060: 550a fbbe cada cebd 84bb 99be 489a 72bd
00000070: 24f0 2cbe e61d 8939 9c49 2bbe c160 d13d
-0.06010584 0.050171763 0.15831017 -0.37385187 -0.101255275 0.07948065 -0.07124069 0.14441086
-0.1964344 0.05358276 0.0905809 -0.37616688 -0.0016089613 0.079674415 0.072101854 0.010387416
-0.22388563 -0.21601571 -0.13035275 0.2739077 -0.1417561 0.012193556 0.16659504 -0.24602415
-0.4903132 -0.101003245 -0.30025876 -0.059229165 -0.16888481 0.00026152952 -0.16727298 0.102235325

enc_layer_2.0.weight f4 [16, 32, 3, 3]
00000000: c557 b03d 4e5a 4dbc 5ba4 d6bc 8ed8 fb3c
00000010: ee57 5a3d e791 193d 34b6 5f3d edf4 883d
00000020: 25d1 d03d f78a 85bd f277 db3c 8b62 d3bd
00000030: 70b2 b0bd 6dc2 d9bc 0760 5fbc 172a b7bd
00000040: 4df9 4ebd d6c4 5b3d ad5f 1a3d 360e 0f3d
00000050: e4c7 19bd 192c d5bb bc94 403d 7f19 413d
00000060: 06b9 d13d 8f47 a93d 2ae5 0e3d 9f22 ce3d
00000070: f18d 9e3d 71f6 5c3d 9701 d2bd 1d7a 94bc
00000080: b700 033d 9e9c b5bc 08f9 4c3d c660 fb3d
00000090: d3ea debd 92bf 86bd 582b 15bc 8f1e 1fbd
000000a0: 5ba0 1e3c f495 49bd bafd d8bb 18b8 493d
000000b0: 7458 d13c 9c78 ec3c 57c4 713d 1e9c 373d
000000c0: 4fe7 b73c cb28 143d ec34 a33c c906 a53d
000000d0: 8d0b 983d 7830 5e3b daa9 7bbd b458 a9bd
000000e0: fdd0 89bd e706 97bd 9306 91bb 2acf b63d
000000f0: 7da4 1a3d eef8 343d 6119 873d 7336 663c
00000100: 8bec 11bd 6f66 3abc 7592 be3d f0a7 4b3d
00000110: ab2e 823d 3211 b73d 3fe8 143d 451a 953d
00000120: ce79 73be 59bb 53be 3a93 2ebe 916f 91be
00000130: e4ce 63be 21af 4ebe afd9 5dbe 65b8 71be
00000140: 9094 3fbe 1158 093b ae3f 523d d390 a6b9
00000150: 0d6a 0f3d 65fb 4d3d 5eba c7bc a72a 863d
00000160: 53db 053d 9c88 333c 52af e03b 0e22 b3ba
00000170: 258f a53c 166c 3bbd 22e4 e53b c1e5 48bd
00000180: 9a79 b13d 8be2 d33c 3c97 003d c7bb 97be
00000190: 4e06 34be bd7d cbbd b3bf 67be e1ac 16be
000001a0: bd82 05be b176 11be 5d8e 0cbe 7d00 86bd
000001b0: 4adf 48be 0303 17be d372 ddbd 51f2 33be
000001c0: 1787 43be 61f3 bcbd 5cce dcbd 9f3e ecbd
000001d0: f04c d2bd 707d 3f3d 6e2e 75bd 47ed c73c
000001e0: 8a67 07bd cf8c 80bd 00fe 6d3d 4c1a cc3c
000001f0: 563d 3ebc e070 763d 65df 133c 8970 2c3d
00000200: fe28 693d 3827 193d 7a14 bd3c 7632 893d
00000210: a61a 2b3d 7a0b fe3c e23d de3c ccd1 e4bc
00000220: 0a31 243d 66ab aa3a b20f 61bd 7129 533d
00000230: c5dd 253d a3a7 4a3c a262 4c3d c91b 403d
00000240: 7eed 583d c7f4 bf3d 658a 533c 9084 573b
00000250: 1a01 833d 55ad 1c3c 3938 033e b13f a93d
00000260: fdf5 8f3d 2db4 61bc 6035 ae3d a6ca e63c
00000270: 3d81 95bd 8e92 b6bd 7473 073c 4d9b 3d3d
00000280: 5f4f e73c 9cee 613d c08c 3c3e 2f31 e93d
00000290: caab 3c3e d258 17be 3fc4 0abe f6c5 a8bb
000002a0: 90c3 32bd 2f5a 3ebe 7c89 ea3c bfc6 bfbb
000002b0: e2d2 a93c e181 0fbd 303f 753c 3a63 063d
000002c0: 3252 afba 2a8b 933c efea d23b b0e2 c63d
000002d0: 736d e73b a7c9 e8bc b76c 3fbc dfe4 c6ba
000002e0: 41c7 bcbd 610e 223b 0a4b 3f3d 67ce b5bd
000002f0: e1b6 3e3d 0a6b 953d 26fc db3d 7d80 ad3d
00000300: 4424 df3c 7f09 bdbd cfca 05be 0ec1 c13d
00000310: 8a9b fabd a28a 25ba 8b93 e1bd e4c9 e9bc
00000320: ec0a edbb 47bb 4d3b 5c3b 303d 09ea 3a3d
00000330: 656d a0bc a442 87bc 040d 853d 8b2e 14bd
00000340: 7d9c b1bc fce8 6a3c 6e46 c9bd 3bfa dabd
00000350: 2796 26bd ceaa 5a3d 545e 1abb d5c6 ca3d
00000360: 584d 573d 0e9a d53d a699 853d 3a3e 50bd
00000370: 7a8f 903c f16f 373e 0afa 1c3e 0827 823e
00000380: 2164 b03e daa3 eabd fbcc 28bd 5b64 00be
00000390: 929a 71bd cb66 4c3c a5a1 60bd d82e 443d
000003a0: 435f 28bb 95df f33c 5f09 f23b 0c43 8dbb
000003b0: 6529 d7bc 14a0 a3bc 7717 163d 7de8 30be
000003c0: 4857 b83d 6c44 bebd 431c 49bd b10c 513e
000003d0: 85da d23d 2a74 cd3d 5b36 3c3e b74d f93d
000003e0: ed24 2a3e 9b7c 7a3e ae7d 433e 86af 253e
000003f0: a14b e1bc 7a23 7abd 7b64 9fbd c252 05bd
0.08610491 -0.012533737 -0.026201418 0.03074291 0.053306513 0.03749266 0.05461712 0.06687341
0.10196141 -0.06520646 0.026790593 -0.1032153 -0.08627784 -0.026581967 -0.013633735 -0.08943575
-0.05053072 0.053654514 0.0376889 0.034925662 -0.037544146 -0.006505501 0.047016844 0.047143456
0.102403685 0.08265602 0.034886517 0.10065197 0.07741917 0.053945962 -0.102542095 -0.018124634
0.031983104 -0.022169407 0.050042182 0.122743174 -0.10884633 -0.06579508 -0.009104572 -0.038847502
0.009681786 -0.049215272 -0.0066220434 0.04924783 0.025554873 0.028866105 0.059025135 0.04482662
0.022449164 0.036171716 0.019922696 0.08057935 0.07424078 0.0033903401 -0.06144128 -0.08268872
-0.067293145 -0.073743634 -0.0044258325 0.08926232 0.037754524 0.04418271 0.065966375 0.014051068
-0.035625976 -0.011376961 0.09305278 0.049720705 0.063565575 0.089388266 0.0363543 0.07280401
-0.23776934 -0.20676936 -0.1704835 -0.2840543 -0.22246891 -0.20183994 -0.21665071 -0.23605497
-0.18709016 0.0020957033 0.05133026 -0.0003176989 0.035013247 0.050288577 -0.024380859 0.06551104
0.032679867 0.010957863 0.0068568373 -0.0013666765 0.020209858 -0.045757376 0.007015721 -0.049047235
0.08665772 0.02586486 0.03139423 -0.2963545 -0.1758053 -0.09936092 -0.22631721 -0.14714386
-0.13038154 -0.14205433 -0.13726182 -0.06543062 -0.19616428 -0.14747243 -0.108129166 -0.17572905
-0.19094501 -0.09226108 -0.107815474 -0.115353815 -0.10268581 0.046750486 -0.059858732 0.024405135
-0.033057727 -0.06276857 0.05810356 0.024914883 -0.011611303 0.06016624 0.009025429 0.04209951
0.05692386 0.037390918 0.023081053 0.06699078 0.04177346 0.031011332 0.027129117 -0.02793207
0.04008583 0.0013021051 -0.05494661 0.051553193 0.0404947 0.012369069 0.04989875 0.046901498
0.052960865 0.093728594 0.012911414 0.003288541 0.063966945 0.00956281 0.12814416 0.08264101
0.070293404 -0.013775867 0.08506274 0.028172802 -0.07300041 -0.08914672 0.008267272 0.046290684
0.02823609 0.055159196 0.18413067 0.11386334 0.18424907 -0.14779976 -0.13551424 -0.005150552
-0.043643534 -0.1858909 0.02863001 -0.00585255 0.02073044 -0.03503597 0.014968678 0.032809474
-0.0013375937 0.018010695 0.0064366977 0.09711206 0.007062608 -0.028416468 -0.0116836345 -0.001517441
-0.09217692 0.0024727809 0.046702422 -0.08877259 0.046561126 0.07295807 0.10741453 0.08471773
0.027238972 -0.09230327 -0.13065647 0.094606504 -0.12236698 -0.00063149084 -0.1101447 -0.028538652
-0.007233968 0.0031392144 0.04302536 0.04563335 -0.019583413 -0.016511269 0.06496623 -0.0361772
-0.021681065 0.014337774 -0.098278865 -0.10692259 -0.04067054 0.05338555 -0.002355476 0.099012055
0.052563995 0.10429774 0.06523447 -0.050840594 0.01764654 0.17913796 0.15329757 0.25420403
0.34451392 -0.114570335 -0.04121111 -0.12538283 -0.0589853 0.01247568 -0.054841656 0.047896236
-0.0025691546 0.029769698 0.007386371 -0.004310971 -0.026264856 -0.019973792 0.03664347 -0.17276187
0.090010226 -0.09290394 -0.049099218 0.20414998 0.102955855 0.10031922 0.1838011 0.12173026
0.16615649 0.24461596 0.19090912 0.16180238 -0.027501883 -0.06106899 -0.07782837 -0.032549627

enc_layer_2.0.bias f4 [16]
00000000: 8818 ac3d 00b3 823d 3bd6 883d 71c8 043e
00000010: ce9d 353c fa46 1a3c 194d 4bbb 05fd 043d
00000020: 8977 8e3c 0d75 e2bc 315e 5ebd f6ec 86bc
00000030: 0e80 ff3c d46a 57bd 3a97 0e3d 530d 7ebc
0.084031165 0.06381798 0.06681486 0.12967087 0.011084987 0.009416336 -0.0031021296 0.03246786
0.017390983 -0.027643705 -0.054289047 -0.016470414 0.03118899 -0.052592114 0.03481219 -0.015506106

enc_layer_large.0.weight f4 [12, 16, 3, 3]
00000000: 1502 b3bd e897 e0bc 2764 42bd a62e 913d
00000010: cd3a a53d 4476 0bbc 13fc 4a3c 61ca 26bc
00000020: fc4d 113c 8e2f 403e 4819 043e e756 0d3c
00000030: ce99 0e3e 07d6 0dbc 1ac1 b43b 03ab 6b3d
00000040: b965 0a3e c386 643c 1b1b 063e 5207 963d
00000050: a16a 193c 748b 31bd c2a6 96be af1d 6dbd
00000060: bd65 183d 64f8 593d ca66 513d d62e 0a3e
00000070: fdc0 3c3e 8c09 b03d 811d 0e3e 2aa2 d2bd
00000080: ee65 1ebd 1717 bf3c 5ded 863c 0440 483d
00000090: e221 613d 70d5 1ebd ad03 a33d 96e7 25bd
000000a0: 364b fdbc 7fa8 6b3d 513a 89bd f151 303d
000000b0: d302 973c 68a9 3ebd 2809 f1bd 0b29 dcbd
000000c0: eec9 36bd be50 99bd fb3a 0bbd b6b0 2bbc
000000d0: aa79 393c fe16 0e3d e777 b63d 7362 303d
000000e0: a5dd 4dbd 03e7 123d 5b34 633c ebf7 913d
000000f0: 4ce0 43bd 95ef cf3b c8cf 83bc dceb 42bd
00000100: 9eaa c9bc 45a7 7abd fb17 b4bd 02e4 283d
00000110: c5b2 3cba 5fd4 6cbd f039 8d3d ef83 72bd
00000120: ea64 19be a4a9 64bd 64e5 113d baae 89bc
00000130: 4354 bdbc 8c5a f43c 8ad3 b93d 0f78 ff3c
00000140: 78d0 513d 35cc 923d 8796 dcbd d561 3fbd
00000150: 9c74 0f3e fed6 e23d 3047 9cbd 833b a83c
00000160: 7668 95bd 1a44 00bc 7ffa 63be a87c 41be
00000170: bb41 94bd 6898 21be ec48 af3d 2573 713d
00000180: f9d1 013d 27c3 e03b 0ce9 3fbd 32c5 ca3d
00000190: 17f7 a53d bef5 13bd f95b be3c 7a72 32bd
000001a0: 0111 c03d e69a 3c3e 20ad 8bbc 890d 6dbd
000001b0: f874 d1be afcc 0d3e d265 83bd c68a 93be
000001c0: a83b 53be 5edc f63d 40f7 57bd fe1d f1bb
000001d0: 51d4 0cbd be2a 7ebe c980 8d3e 115d c63c
000001e0: c731 64be 24ba 83be 31bd 51bd 2a61 aabc
000001f0: 7737 8abd f73b 51bd caf3 2bbd 1e06 a6bd
00000200: 10f6 19bd 2b4c 77be 4ae9 85bd 4c0a 053c
00000210: 4e22 20bc 3aaa a33d 15aa 273d a112 4a3d
00000220: 6c98 5b3d 260b 6cbd b411 0f3e ff7e f93c
00000230: 28a0 0d3d f5f0 13bd cc0d a1bd d735 56bd
00000240: f2db 30be 858a 85bd c681 573d 74c0 2abe
00000250: bd52 f2bd 8dc5 3dbd 7c20 3bbd cd93 7ebd
00000260: 7a01 09bd bf26 433e 56f0 9abc c696 c73a
00000270: 3891 c93d 8762 873c 196d e1bc b944 9abd
00000280: dd70 c3bd 10fa 1cbd 8efd 103e 1959 0b3e
00000290: 9a79 a23c 941c dcbd ab73 3d3d ccf8 343d
000002a0: 30fd 153e ec42 e93c c41c b7ba 1646 f0bd
000002b0: f0f4 533d 2cdd c73d ce41 3b3b b08c d53d
000002c0: e0cb cf3c d74e a53d 1687 48bd d3d8 923d
000002d0: 246d 52bd a527 1c3d af21 84bc 4848 9bbb
000002e0: b3bf b8bd c84e d2bd 0ae1 a2bd 2db9 b1bd
000002f0: bd7f e8bc 60f5 433e 1b8c 4f3d 4a50 5dbc
00000300: d516 88bc 1e94 b9bc 65c1 9abd 9e1f 27bc
00000310: 83a8 4a3c d129 303d e818 13be e695 783d
00000320: 4614 94bd 7972 80bd cd6c 7d3d f91f 9d3d
00000330: 8732 70bd 2c79 b23c 2512 f6bc 09a4 6cbd
00000340: 492a b5bd d108 76bd d836 933c e5ac eebd
00000350: c90a 203d 9bdb c3bb 3d11 70bd a314 ba3d
00000360: 2d30 5f3c ffd8 023e f000 cbbd d9b4 c03d
00000370: a4e9 78bb 22d2 91bd 312b 4dbd c6b9 2fbd
00000380: 3fb4 60bd 24e9 79ba b192 c0bc ea0d e43c
00000390: d610 a63c c2ee a5bb e011 9cbc e971 12bd
000003a0: cea4 f13c 72cd 0abc e1ab acbe e139 38bc
000003b0: f334 4ebe 4358 de3c 4f6a 04bd 8b05 293d
000003c0: ac44 15bd df24 3cbd cc69 81bd 99ef 9bbd
000003d0: 1534 983d ea95 8cbb 395a a7bc 9a62 2abe
000003e0: 9a97 c53c 21d2 16bb 460c 953c 4574 f63c
000003f0: b2a2 5fbc ea79 09be 5187 783e 2191 bd3d
-0.087406315 -0.027416185 -0.047458794 0.070889756 0.08067856 -0.008512083 0.012389201 -0.010180087
0.008868691 0.1876814 0.12900269 0.008626676 0.1392586 -0.008656985 0.0055161836 0.057536136
0.13515367 0.013948145 0.13096277 0.07325615 0.009363801 -0.043345883 -0.294241 -0.057889637
0.0372064 0.0532154 0.051123418 0.13494429 0.18432994 0.08595571 0.13878442 -0.102848366
-0.038671426 0.02332644 0.016470606 0.048889175 0.054963954 -0.03877777 0.079596855 -0.04050406
-0.030919652 0.057533737 -0.06700576 0.043046895 0.018433964 -0.046548277 -0.117693245 -0.10750016
-0.04462617 -0.074861035 -0.033991795 -0.010479143 0.011320511 0.034689896 0.08909588 0.04306264
-0.050260205 0.03586484 0.013867463 0.07127365 -0.047821328 0.006345699 -0.016090289 -0.047588214
-0.02461749 -0.061194677 -0.087936364 0.04123307 -0.00071982696 -0.05781972 0.06895816 -0.059207853
-0.14979902 -0.055825844 0.035619155 -0.016806949 -0.023111468 0.029828332 0.09073551 0.031185178
0.051224202 0.07167856 -0.10770898 -0.04672416 0.14009327 0.11076163 -0.076307654 0.02053619
-0.07295315 -0.007828737 -0.22263525 -0.18895209 -0.072390996 -0.15780795 0.085588306 0.0589477
0.031694386 0.0068592015 -0.04685311 0.09900893 0.08103769 -0.03612303 0.023237215 -0.043566205
0.09378243 0.18418464 -0.017050326 -0.057874236 -0.40909553 0.13847612 -0.06415905 -0.28816813
-0.20628226 0.120537505 -0.05272603 -0.0073583117 -0.03438217 -0.24820992 0.27637318 0.0242143
-0.22284614 -0.25727952 -0.051205818 -0.020798285 -0.0674886 -0.051082578 -0.041980542 -0.081066355
-0.03758818 -0.2415015 -0.06538637 0.008120131 -0.009773804 0.079914525 0.040933687 0.049334172
0.053612158 -0.05762782 0.13971597 0.030456064 0.034576565 -0.036118466 -0.0786396 -0.05229744
-0.17271402 -0.06520561 0.052613996 -0.16674978 -0.11832187 -0.046330977 -0.045685276 -0.062152673
-0.033448674 0.19057749 -0.01891343 0.0015227429 0.098421514 0.016526474 -0.027517842 -0.07532639
-0.09543011 -0.038324416 0.14159223 0.13608207 0.019833375 -0.10747638 0.046252888 0.044182584
0.14647365 0.028474294 -0.0013970365 -0.11732118 0.051747262 0.09758982 0.0028573158 0.10427225
0.02536577 0.08071678 -0.048956953 0.07170262 -0.051373616 0.038123745 -0.016129343 -0.004738841
-0.09020939 -0.102689326 -0.07953079 -0.086778976 -0.028381223 0.19136572 0.050670724 -0.013507912
-0.01661245 -0.022653636 -0.07556418 -0.010200409 0.012369278 0.04300863 -0.1436497 0.06068983
-0.07230429 -0.06271834 0.06187134 0.07672114 -0.058641937 0.021786295 -0.030037949 -0.057773624
-0.08845956 -0.060067 0.017970487 -0.11654071 0.039072786 -0.0059771067 -0.05861019 0.090859674
0.013622326 0.1277809 -0.09912288 0.09409494 -0.0037981058 -0.07120158 -0.05009002 -0.042901777
-0.054859396 -0.0009533337 -0.023507448 0.027838666 0.0202717 -0.0050638625 -0.019051492 -0.035753164
0.02949753 -0.008471834 -0.33724883 -0.011244268 -0.20137386 0.027141696 -0.032327946 0.04126505
-0.036442444 -0.0459336 -0.06319007 -0.07614059 0.07431809 -0.004290332 -0.020428764 -0.16639176
0.02412014 -0.002301343 0.018194329 0.030084739 -0.013649629 -0.13425413 0.24270369 0.09256197

enc_layer_large.0.bias f4 [12]
00000000: 7f13 0b3d b524 15bd 75c7 7f3c dd13 a3bd
00000010: 8487 15bd f8b7 84bd c045 85bd 5c9f d6bd
00000020: 3027 a03b ec65 903d 2225 9d3d 60ad ba3c
0.03395414 -0.03641196 0.015611519 -0.07962773 -0.03650619 -0.06480402 -0.065074444 -0.10479614
0.004887484 0.0705069 0.07673098 0.02278775

dec_layer_2.0.weight f4 [12, 8, 5, 5]
00000000: 9926 1dbb ea2b 4cbc fd32 913d a719 5e3d
00000010: 1bee 1d3c 1771 02bd 655a ed3c 4de2 1cbd
00000020: e070 14bd 151d 3bbc cb8c ce3c 898f 93bb
00000030: b015 45bd fabc d9bd b9a2 ddbd 4f92 6d3d
00000040: 1645 093d 6295 cc3a 6ded 71be b485 a9bc
00000050: bd1e 9ebc a908 173e 9e8e fa3c 5f99 b23d
00000060: ab9c 293e e9ed 833d 9b5c f4bb ccee c33d
00000070: 7297 d43c 3e43 ea3d 1dfa 5e3d 80cb 6c3d
00000080: ffec 00bd c50f 8f3d b812 e93c 037c 3d3c
00000090: f25a 953d 3141 a1bd e3f4 9dbd 0bc2 52bd
000000a0: 7ad9 f13d ff42 42bd 0d7a 243e 3d17 53be
000000b0: cc99 7c3d c481 213d 1a06 f23d 0f08 73bd
000000c0: 0dc8 ca3c 36e2 893d e835 663d 658e 943b
000000d0: 6359 013d 3c66 9f3d d7b9 9a3d 78c7 333d
000000e0: 3a1e acbd d1bd 8e3c 8cd5 dbbc 5f78 cfbc
000000f0: d0e4 abbd feeb 483c a260 333d a0f5 91bc
00000100: aa42 da3c 54a4 2e3d 79f9 b6bd c289 8cbd
00000110: 75f9 89be 66a7 903d 6667 e7bd d297 a0bc
00000120: c287 b0bc a589 7bbd 9b22 79bd 566b 3f3c
00000130: 3570 ea3c b9d9 b7bc a27d a0bc 015c 0a3c
00000140: 8941 fabc 3b26 8e3c d816 fb3c 9c13 3b3d
00000150: 0398 3ebc 9b46 f9bc 8ce8 55bc 45cc afbb
00000160: 3264 c7bd 7fbd 573d 0166 6f3d c065 443d
00000170: 6bbc 21bd 77a3 a7bd 24b0 9b3d 5c5a 17bc
00000180: 338e 433c 523c 1c3d 60be 763d 85d9 9abd
00000190: 7fc2 38bd 7008 2d3d 3781 683c 612a 0f3d
000001a0: 5298 273d 2d5a 1e3e 0c4d 23bd 7db4 d0bc
000001b0: 2f78 15bd 644e 8d3d ab13 87bd 6825 103b
000001c0: 819e 563d b87c e83b c411 9ebe df86 cf3c
000001d0: 24c7 a73d 13cb 08be f8bf b3bd 00d5 9c3b
000001e0: 1c3a be3c 29fa b5bc 710c a2be e40b 2d3d
000001f0: 9c73 133e fe31 943c 644f 243d d3f8 ab3d
00000200: b579 6c3b 770e fc3c 9617 4b3d 882b 1c3e
00000210: 2504 b93c 0b7d 0cbd b028 273d d351 6a3d
00000220: a4fd 943d 73f9 3f3b 1e8b 4f3d da2a 313d
00000230: 7d81 0c3d 0c37 07be 042b 12be 640c 8fbe
00000240: 9422 d23c 8821 cbbd f368 00bd 74ad 98bd
00000250: d37e c73b 4c21 b3bd 35f2 1abc 093d 87bd
00000260: 4768 24bd e6cb aebc a95c 203c 82b4 b4bc
00000270: a31d 96bd 1d57 dbbc 21f9 6dbd 170a 11bd
00000280: e943 d7bd 75a8 593d 24d1 c2bd 101f ecbd
00000290: 47fe b6bd 6397 c13d 9b7b 603d 79f7 7f3d
000002a0: 873d 9039 ccb2 5c3c 3c5f 9a3d 5162 c13d
000002b0: bc9c a23d 2679 3e3e 1020 313d 4ad8 863b
000002c0: 6e4e c63b bfbc 183c 3314 b73d 3e48 c8bc
000002d0: 6404 243d dfba cdbc c04e 71bd 7a3c cf3d
000002e0: 8082 2e39 c109 05bd 4ff0 25be 6478 1e3e
000002f0: 7261 febd 7fbe 47bd 7c2a e53c 8d37 7a3d
00000300: 51e2 97bd 1d8a c6bd 97f9 d13c 7972 19bd
00000310: 121c d83d 9737 393d fed4 4dbe 3a04 fbbc
00000320: ec0b 63bd 60a7 83bc 5947 d33b d895 8fbd
00000330: 7653 4a3d 1065 71bd 9f7d 90bd f38a 8e3c
00000340: 25b5 b6bd e864 13bd 46dd 12bd 0ddf 30bd
00000350: 1c2a 0c3d 3cae 463d 3100 98bd 1eb0 c93d
00000360: f3cc 55bc a4d3 5c3e a537 aa3d 70bc 39bd
00000370: 2aae e13b cfec 4ebd 8361 08bd d9c8 263e
00000380: 75a4 92bc 8f9b 50bd 07d2 be3c 10cf 983c
00000390: ab23 643d 18f1 073d a3fc 823d c44d 1f3c
000003a0: 73b6 e53d 315d c2bc faf2 163d c2c2 b83c
000003b0: f978 bc3d 38b6 b63c b45f a53d 5c0f 663b
000003c0: 7218 ba3c c114 9cbd 9b6c 353e 9cb0 f33c
000003d0: 3a9f 393c 2ddb 3fbc e3e4 e0bb 7688 4f3c
000003e0: 26db a13d 01bb 05bd f73f cfbc d0d2 02bd
000003f0: 8254 26bd 2ffb e23c 2054 6fbd b13e 0dbd
-0.0023979305 -0.012461642 0.07089803 0.054223683 0.009639288 -0.031846132 0.028973768 -0.038301755
-0.03624046 -0.011420508 0.02521362 -0.0045031947 -0.048116386 -0.106317475 -0.108220525 0.05800086
0.03351315 0.0015608484 -0.23625727 -0.020693637 -0.019301767 0.14749397 0.030585583 0.087206595
0.1656367 0.06441862 -0.0074573285 0.09567031 0.025951121 0.11438607 0.054437745 0.05781126
-0.031476017 0.0698543 0.028451309 0.011565211 0.07292737 -0.078737624 -0.07712724 -0.051454585
0.118090585 -0.047427174 0.16062184 -0.20614333 0.06167011 0.039430395 0.1181757 -0.059333857
0.024753595 0.067325994 0.056203753 0.0045335763 0.031579386 0.077831715 0.075549774 0.0438914
-0.08404203 0.017424496 -0.026835226 -0.025325952 -0.08393252 0.012263296 0.043793328 -0.017817318
0.026643116 0.042637184 -0.08934302 -0.06862213 -0.26948133 0.07063179 -0.112990186 -0.019603644
-0.02154911 -0.061410565 -0.060824018 0.011683306 0.028617958 -0.022442685 -0.019591156 0.008444787
-0.030548828 0.017352214 0.030650541 0.045672998 -0.011632922 -0.030429175 -0.013055932 -0.005364927
-0.097359076 0.052670952 0.058446888 0.0479486 -0.03948633 -0.08185475 0.076019555 -0.009237852
0.011935758 0.038143463 0.06024015 -0.0756102 -0.04510736 0.042244375 0.0141909635 0.034952525
0.04091675 0.15464087 -0.0398684 -0.025476689 -0.03649157 0.068997175 -0.06595548 0.0021994952
0.052397255 0.0070949458 -0.3087293 0.025332866 0.0819228 -0.13358717 -0.087768495 0.0047861338
0.023221068 -0.022214012 -0.31650117 0.042247668 0.1439957 0.018090244 0.040114775 0.08397069
0.0036083285 0.030768616 0.04958304 0.15250981 0.022584984 -0.034298938 0.040810287 0.05720694
0.072749406 0.002929297 0.050669782 0.043253757 0.034303177 -0.13204592 -0.14274222 -0.2793914
0.025651254 -0.09918505 -0.031350087 -0.074549586 0.0060881167 -0.08746585 -0.009457161 -0.066034384
-0.04013851 -0.02133746 0.009787717 -0.02205873 -0.073298715 -0.026774937 -0.058098916 -0.035410013
-0.10511 0.05313917 -0.09512547 -0.11529362 -0.08935218 0.09452703 0.05480538 0.062491868
0.00027511662 0.013470363 0.07537696 0.094425805 0.07940051 0.18600902 0.043243468 0.004115139
0.00605183 0.009322344 0.089393996 -0.02444851 0.04004325 -0.025113521 -0.058912992 0.10118957
0.00016642548 -0.032480005 -0.16204952 0.15475613 -0.1242093 -0.048765656 0.02797436 0.061088134
-0.07416213 -0.09694312 0.025631709 -0.037462685 0.10552229 0.04521903 -0.20100781 -0.030641664
-0.05543129 -0.016071022 0.0064477143 -0.07011002 0.049396 -0.05893427 -0.0705521 0.01740024
-0.08921269 -0.035984904 -0.035855554 -0.043181468 0.034219846 0.048506007 -0.074219115 0.09848045
-0.013049352 0.2156511 0.083113946 -0.045345724 0.006887217 -0.050518807 -0.03329612 0.16287555
-0.017900685 -0.050929602 0.023293508 0.018653423 0.055698078 0.03318891 0.06395843 0.009723131
0.1121644 -0.023726078 0.036852814 0.022553805 0.09202761 0.022303686 0.080748945 0.003510437
0.022716735 -0.07621146 0.17717211 0.0297473 0.0113294665 -0.01170997 -0.006863223 0.012666812
0.07903127 -0.032649044 -0.025299056 -0.031939328 -0.040607937 0.027707664 -0.058429837 -0.034483615

dec_layer_2.0.bias f4 [8]
00000000: a98e 2c3d 6d81 d5bd 681b b33c 9430 c73d
00000010: b921 bdbd 7883 3d3d a97a cb3d ec18 7dbd
0.04212824 -0.10425077 0.021863654 0.097260624 -0.09234948 0.046267956 0.09935505 -0.061791345

dec_layer_3.0.weight f4 [8, 3, 5, 5]
00000000: 8e9d 553c b99f 963d bb54 0cbe e0fb ccbd
00000010: f609 41be 4be8 243d f6ef f03d bffe 00bc
00000020: 5902 a9bd 2be5 2abe 6ba5 03bb 3d45 883d
00000030: e202 8abd 59b6 0bbe 7c8b 60be 2000 c2bc
00000040: fc92 b53d 4532 e2bc d978 89bd 02f9 1cbe
00000050: a8c2 813c 5b9a f43d a899 993c f855 b3bb
00000060: 54b1 e5bc 992e 3c3e 86fa 583e a8d9 133e
00000070: 0ae1 79bd 15b2 8abd 04ec 213e 2979 643e
00000080: dd88 703e d55d 113e 71b0 263d aefa 353e
00000090: be8c 8c3e 2788 1e3e c991 d63d 6acc 563c
000000a0: b595 243e b3f2 7e3e 5f8c 7c3e 30e6 133e
000000b0: cfc8 5d3d 16b5 ad3d 4b63 493e bdbb 303e
000000c0: 36d7 913d 38be 4ebd e27d 473d 173c 9e3d
000000d0: b5dc e4bd 4473 05be ceec 18be f93d a03c
000000e0: b409 c23d fe67 9abd 30f2 ecbd e4ce 1ebe
000000f0: b72b 5a3b e99e d53d dd67 79bd 667b 0abe
00000100: 769f 6cbe 234d cfbc 4778 a13d da00 e4bc
00000110: 6693 a1bb 9dad f2bd ed70 51bc 099d 443d
00000120: 39a3 b7bd c249 4ebd 437f cebd e4d7 563e
00000130: 1311 cf3d 02ca e53d 14db bfbd 1af5 8b3c
00000140: e159 5f3d b39e f03d 4a3f 1a3e 52b7 9c3c
00000150: df94 14bd 41b0 f63d 2d2f 313e b94d 85bd
00000160: 166d 49be de3d 7fbe a979 183e 98c0 223e
00000170: f223 a73e ea49 7c3e 77cd da3d 966a 233e
00000180: cf7e 13bd bf5f ccbc 3b1b 1fbe fecc e63a
00000190: 1d7a 833e ab2e 723e e2ed f9bd 66b0 b9be
000001a0: 2899 a6be 4232 2ebe 845d fbbd bffb 1dbe
000001b0: 6316 8abd 130e 91bd 588b e53d f4d5 7fbc
000001c0: 6978 a2be 1328 f5be 29da b0be 52d2 3cbe
000001d0: af07 5cbe e588 50be 9d93 d8bd 2c63 9abd
000001e0: d03f dc3c 1d0a 8dbd 99d5 d7be 84e4 c4be
000001f0: 7ce1 32be 8ebf f7bc 7b1c 493c abd4 b8bd
00000200: 4c6d e8bd 6905 d8bd c596 e0bb b42e 33bd
00000210: 523f d1bd b10b afbd 62ae acbd 08c0 333d
00000220: 7681 053e 96c8 aebe d340 b6be cdc8 f1be
00000230: 5294 87bd c989 4d3c fe80 11be 1b52 bfbd
00000240: 8f37 1fbe 5a15 213c a58f 943c c90b 39bd
00000250: 76e6 463c 62fe c3bc 8781 83bd c77d cfbc
00000260: 8225 8b3c e41b 633d d9ae 4f3d fa24 e43c
00000270: 3355 203d b60c 663d f7aa fa3d bbc9 003e
00000280: a7ec 023d c799 b53d dc80 ea3d e621 283e
00000290: 9bf0 d53d 03c4 bf3c 4ad0 983d fd6a 0c3e
000002a0: f8c2 623e a795 293e f9da 02bd 7738 28bd
000002b0: 12f8 f33c 2fdc bf3d 654c c93c 6fbf 51bd
000002c0: b3ab a7bc c9a3 b8bd 5317 1b3d c8ae 693c
000002d0: 3db4 73bc ee0f 04bc a37c b33a 2ea1 7f3c
000002e0: e5db fabc 952b 9abd 64c6 88bb 4b95 f43d
000002f0: 327d c53c 2c0a 29bd 7bda 67bd db8b adbc
00000300: 1127 cb3c 1640 683d 869c 933c 975f 6dbd
00000310: 1e5e 6dbd 88f6 97bd 345c 6e3c a70f b8bb
00000320: d037 993c f25a 6d3d 4ba0 ec3d 31b4 c13d
00000330: c1de 713d e96c 273d 208d 8f3d b852 2b3e
00000340: a507 223e edd5 ca3d 89ab de3d 19dc 333e
00000350: 3d5e 6a3e 100a 763e 1371 243e 9b4a 533d
00000360: 6c7f b23d 06f7 343e af01 3f3e 295c 163e
00000370: 3460 b73c 200d 0f3d a14c 0a3e 77c5 053e
00000380: cb20 c93d a6b2 3d3a 31d3 573c ff35 8e3d
00000390: b4b0 a03d 8728 2f3d 1bca f93c 1dda 303d
000003a0: d2ad 0d3e 98c9 103e c71f ef3d 70cd 053d
000003b0: fe74 943d 1238 903e 2f7f 763e 2eb2 443e
000003c0: 681c d73c ab1e 903d 7c86 583e c945 3e3e
000003d0: 4c41 1b3e c5a3 b4bc 02b8 173d 9946 fc3d
000003e0: c453 023e 6391 993d 5490 00bc 2efd 7a3c
000003f0: ea80 523d 0753 473d 8dcf e73c b6ec 863b
0.013038052 0.073546834 -0.13704197 -0.10008979 -0.18851456 0.040260594 0.11764519 -0.007873236
-0.08252401 -0.16688983 -0.002008761 0.06653831 -0.06738831 -0.13643779 -0.21928209 -0.0236817
0.08865926 -0.027611861 -0.06712503 -0.15329364 0.01583989 0.119435035 0.018750027 -0.0054728948
-0.028038658 0.1837715 0.21189317 0.14438498 -0.06100563 -0.06772248 0.15812689 0.22311844
0.23489709 0.1419595 0.04069561 0.17771408 0.27451128 0.15481625 0.10477025 0.01311026
0.16072734 0.2489727 0.24662922 0.14443278 0.054146584 0.08481805 0.19666784 0.17259116
0.07121126 -0.050474375 0.048704036 0.07726305 -0.11174909 -0.13032252 -0.14934084 0.0195608
0.09474507 -0.07539366 -0.11569631 -0.1550861 0.0033290216 0.104307 -0.060890067 -0.13523635
-0.23107705 -0.025305336 0.07884269 -0.027832437 -0.0049309013 -0.1184952 -0.012783271 0.048001323
-0.08966679 -0.05036331 -0.10082867 0.20980793 0.101106785 0.112201706 -0.09367958 0.017084647
0.054529075 0.117490195 0.15063205 0.019130383 -0.036274787 0.120453365 0.17303152 -0.06508965
-0.19670519 -0.24925944 0.1489016 0.15893781 0.32644612 0.24637571 0.106837206 0.15958628
-0.036009606 -0.024947999 -0.15537731 0.00176087 0.25679103 0.23650615 -0.12203576 -0.36267394
-0.32538724 -0.1701136 -0.12273696 -0.15428065 -0.06742551 -0.070827626 0.11208218 -0.015614975
-0.3173249 -0.47882137 -0.34541443 -0.18439606 -0.21487306 -0.20364721 -0.1057503 -0.07538447
0.026885897 -0.068866946 -0.4215515 -0.38455594 -0.17468828 -0.030242708 0.012274857 -0.09024938
-0.11348972 -0.10547907 -0.0068539106 -0.04374571 -0.102171555 -0.08547152 -0.084316984 0.043884307
0.13037667 -0.3413741 -0.35596332 -0.4722351 -0.06620087 0.012545058 -0.14209363 -0.09341832
-0.15548538 0.009831751 0.018134901 -0.045177255 0.012139907 -0.02392501 -0.0642119 -0.02532853
0.016985659 0.05544652 0.050703857 0.027849663 0.039143752 0.056164466 0.1223964 0.12576954
0.03196397 0.08867221 0.11450359 0.16419181 0.104462825 0.023408895 0.07461603 0.13712688
0.22144687 0.16560994 -0.03194711 -0.041069474 0.029781375 0.093681686 0.02457256 -0.051207956
-0.020467615 -0.090156145 0.03786404 0.0142628625 -0.014874515 -0.008060439 0.0013693761 0.015602393
-0.030622432 -0.07527844 -0.0041740406 0.11942538 0.02410755 -0.041269466 -0.056604844 -0.021184852
0.024798902 0.056701742 0.018018972 -0.05795249 -0.057951085 -0.07420069 0.01454835 -0.0056171003
0.018703371 0.05794806 0.11554011 0.09458197 0.059050325 0.04087535 0.07009339 0.16730773
0.15823229 0.09904084 0.108725615 0.1756443 0.22887512 0.24027276 0.1605876 0.05158482
0.0871571 0.17672357 0.18652986 0.14683594 0.02238474 0.034924626 0.13505794 0.13063608
0.09820708 0.00072363985 0.013172911 0.06943893 0.078462034 0.04276326 0.03049188 0.04317676
0.13835838 0.14139402 0.11675983 0.032666624 0.07248877 0.28167778 0.24071954 0.19208595
0.026258662 0.070370995 0.21145052 0.18581308 0.15161628 -0.022050748 0.037040718 0.12318153
0.12727267 0.074984334 -0.0078469105 0.015319152 0.051392473 0.048663165 0.02829721 0.0041175736

dec_layer_3.0.bias f4 [3]
00000000: 9103 173c f2a3 253c 1516 28ba
0.009217159 0.010109888 -0.0006411982
