save/exp_upsample/gen_model.pt (torch, 43565 bytes, 14 tensors)

enc_layer_1.0.weight f4 [32, 3, 5, 5]
0	0xbe0f6ecf	-0.14007114
1	0xbd84c0c9	-0.06482083
2	0xbe375a90	-0.1790564
3	0x3c88cf3a	0.016700376
4	0xbe39d0f3	-0.18146114
5	0xbd34e1de	-0.044160716
6	0x3d0ef627	0.034902718
7	0x3c6a9aef	0.014319166
8	0xbdad31b0	-0.08456743
9	0xbc31388c	-0.0108167045
10	0xbcfc32dd	-0.030785972
11	0x3bb07819	0.0053854105
12	0x3d8b8ee4	0.068143636
13	0x3e17fd57	0.14842735
14	0xbd20cdd2	-0.039258786
15	0xbbe316e7	-0.0069302204
16	0xbbe7c571	-0.0070730974
17	0x3dc0d451	0.09415496
18	0x3d993dd3	0.07482495
19	0x3c884f17	0.016639275
20	0xbd2594b6	-0.040425025
21	0xbdae01a8	-0.0849641
22	0xbd14692a	-0.036233105
23	0x3d1d6e74	0.038435414
24	0x3db465bb	0.08808466
25	0xbc93cba7	-0.018041445
26	0xbdf702d9	-0.1206109
27	0x3c40060b	0.011720191
28	0x3d825da3	0.06365516
29	0xbd153605	-0.03642847
30	0x3dee9543	0.11649563
31	0x3b324350	0.0027200766
32	0x3b416ba8	0.002951363
33	0x3cf4e3f4	0.029893853
34	0x3d95d5b7	0.073161535
35	0x3dca36df	0.09873747
36	0x3dc235cf	0.094829194
37	0x3e1334e3	0.14375643
38	0x3df10edf	0.117704146
39	0x3d9d842d	0.07691226
40	0x3d2a3e5c	0.041563377
41	0xbc255786	-0.010091668
42	0x3d24ff9b	0.040282827
43	0x3d565c90	0.05233437
44	0xbc59e90a	-0.01330019
45	0x3cc1e5e3	0.023669189
46	0x3da8a410	0.082344174
47	0xbdb4d409	-0.08829505
48	0x3dcd07b5	0.100112356
49	0x3dfb62d1	0.12274707
50	0xbd037e86	-0.032103084
51	0xbda1a64f	-0.07893049
52	0xbd626d6e	-0.05528014
53	0x3c78d462	0.015187355
54	0xbe2728e1	-0.16324188
55	0xbcba80ee	-0.022766557
56	0xbdb40a51	-0.0879103
57	0xbd2cd145	-0.042191762
58	0x3db3d05c	0.08779976
59	0x3d44351d	0.047902215
60	0xbd15484c	-0.0364459
61	0xbd19834a	-0.037478723
62	0x3dbb8820	0.09156823
63	0x3db1db0d	0.08684359
64	0x3d436dd8	0.047712177
65	0x3d6d5490	0.057941973
66	0x3d2feb49	0.042948995
67	0xbdad1357	-0.084509544
68	0x3df6c97d	0.120501496
69	0xbdc943d8	-0.09827393
70	0x3c08921a	0.008335615
71	0x3ddbea03	0.107379936
72	0xbd0b23ce	-0.033969693
73	0x3db52aee	0.08846079
74	0xbc74125a	-0.0148969535
75	0x3b1ade1f	0.002363093
76	0x3dbb3d46	0.09142546
77	0xbd4ce9c3	-0.05002762
78	0xbd096eed	-0.033553053
79	0xbde5efca	-0.11227377
80	0xbd598914	-0.053109244
81	0xbbcbbec0	-0.0062178075
82	0xbdf3f7e8	-0.11912519
83	0x3da5853a	0.080820516
84	0x3d84ef34	0.06490937
85	0xbd4a1188	-0.049333125
86	0xbd038924	-0.03211321
87	0x3d7f16cf	0.06227761
88	0xbd645b1c	-0.05575095
89	0xbd59fbf0	-0.053218782
90	0x3c377768	0.011197902
91	0xbce7c941	-0.028294208
92	0x3d666a81	0.056253914
93	0xbdf72221	-0.120670564
94	0xbdaf2b6b	-0.08553203
95	0xbd66bf0d	-0.056334544
96	0xbce18d1f	-0.027533112
97	0xbdbcbacf	-0.092153184
98	0x3d92578e	0.07145606
99	0xbe146302	-0.14490893
100	0xbc65409e	-0.013992457
101	0xbde40d01	-0.11135293
102	0x3c487d39	0.012236887
103	0xbccbb996	-0.024868768
104	0xbddd278f	-0.10798561
105	0xbbbcc626	-0.005760926
106	0x3ddd30e6	0.10800342
107	0xbddbe912	-0.10737814
108	0x3daa7fd9	0.08325166
109	0xbb9f1081	-0.0048542623
110	0x3cda636e	0.02665874
111	0xbd1336b9	-0.03594086
112	0x3d1bf722	0.03807748
113	0x3d93a7e5	0.07209758
114	0xbdd6d48d	-0.104897596
115	0xbdbe07dc	-0.09278843
116	0x3d116e3f	0.03550553
117	0xbd71aa13	-0.059000086
118	0xbcb1c301	-0.02169943
119	0xbdd893a7	-0.105750374
120	0xbdef9aab	-0.116994224
121	0xbdb88cfe	-0.09011267
122	0xbd0aecd1	-0.033917252
123	0xbbde3540	-0.0067812502
124	0xbdab88e5	-0.0837572
125	0xbde762d0	-0.11298144
126	0x3dc87e56	0.09789722
127	0x3d484535	0.048894126
128	0x3d1c3021	0.038131837
129	0x3de91401	0.113807686
130	0x3ddf4c96	0.109032795
131	0xbce768e3	-0.028248256
132	0x3d9206ca	0.07130201
133	0x3d8edc7b	0.06975647
134	0x3c3b62c5	0.011437123
135	0x3d0e5adb	0.034754615
136	0x3d47eebe	0.048811667
137	0x3db61ba2	0.08891989
138	0xbdc4626f	-0.09589087
139	0xbcbb389a	-0.022854138
140	0xbde30910	-0.11085713
141	0x3dcf858d	0.10132895
142	0xbd646fb8	-0.055770606
143	0xbc4a970d	-0.012365115
144	0xbcab9a06	-0.020947468
145	0x3cdf5bb2	0.027265403
146	0xbd37d2db	-0.04487882
147	0x3d841dfb	0.06451031
148	0x3c29c7d0	0.01036258
149	0xbc5e1591	-0.0135549465
150	0x3cf59f92	0.029983316
151	0x3d49b376	0.049243413
152	0xbda88519	-0.08228511
153	0x3db2ad55	0.08724467
154	0x3d97cd7f	0.07412242
155	0x3d23562c	0.0398771
156	0xbd86515d	-0.065584876
157	0xbd6ae221	-0.05734456
158	0x3cbc812f	0.023010818
159	0xbda78de2	-0.08181359
160	0xbc0c9ead	-0.008582753
161	0xbd904a13	-0.070453785
162	0xbcb20b60	-0.02173394
163	0x3d0554f0	0.032551706
164	0xbe0c9416	-0.13728365
165	0xbe2d8e9d	-0.16948934
166	0xbe022e6f	-0.12713026
167	0xbdb4a269	-0.0882004
168	0x3d345f2c	0.044036075
169	0xbcc0a820	-0.023517668
170	0xbdafa2bb	-0.0857596
171	0xbd81280e	-0.06306468
172	0xbe2afd1f	-0.1669812
173	0xbd834056	-0.064087555
174	0xbc04b47e	-0.008099673
175	0x3e260cd7	0.16215836
176	0x3e17165b	0.14754622
177	0x3d950e0b	0.07278069
178	0x3d9d4283	0.07678702
179	0x3e44e823	0.19229178
180	0x3db2a249	0.0872236
181	0x3e3eb2b3	0.18622856
182	0x3e23d145	0.15997799
183	0x3c1a10e1	0.009403438
184	0x3d30403f	0.04303002
185	0xbc09b734	-0.008405495
186	0xbceccdf9	-0.02890681
187	0xbd52ed9b	-0.05149613
188	0x3a9fc277	0.0012188692
189	0xbc8292f5	-0.015939215
190	0xbcf1e815	-0.02952961
191	0x3c4871cf	0.012234165
192	0xbd12b153	-0.03581364
193	0x3dbfbc9a	0.09362145
194	0xbd779fce	-0.060455136
195	0x3d040ac3	0.032236826
196	0xbdd1e1f1	-0.10248173
197	0x3d5deca6	0.054180764
198	0xbdf874f6	-0.121316835
199	0x3d0a27ac	0.03372924
200	0x3e16e5ff	0.14736174
201	0x3e1c1bac	0.15244931
202	0x3de78740	0.11305094
203	0x3e203a04	0.15647131
204	0x3de21bf5	0.11040489
205	0x3e3c44ec	0.18385667
206	0x3e3d1d01	0.18468095
207	0x3b914487	0.004433218
208	0xbc9ab641	-0.018885734
209	0x3e153a49	0.14573015
210	0xbc7453b5	-0.014912535
211	0x3d86a582	0.06574537
212	0x3c68d638	0.01421123
213	0x3e0850a2	0.13312009
214	0x3c8a10c7	0.016853703
215	0x3cc5a538	0.024126634
216	0x3dc5b81c	0.09654257
217	0xbdf6bd95	-0.12047879
218	0x3c357fb7	0.011077813
219	0x3d5f4611	0.05451018
220	0xbdf0bf6c	-0.11755261
221	0x3b96df1e	0.0046042344
222	0xbdfaa8ab	-0.12239202
223	0xbe2142cc	-0.15748137
224	0x3d0f373e	0.034964792
225	0xbc2950d1	-0.01033421
226	0xbdf3dcf3	-0.11907377
227	0xbd921454	-0.071327835
228	0xbdcec75e	-0.1009662
229	0xbd9a1e7a	-0.07525344
230	0xbdf09929	-0.11747963
231	0x3cb69f97	0.022292895
232	0xbdf48cab	-0.11940893
233	0xbe0163fb	-0.12635796
234	0xbd044fb1	-0.032302562
235	0xbb93a21f	-0.0045054103
236	0x3d9da82c	0.07698092
237	0xbdcafe23	-0.09911754
238	0xbcdb3bcb	-0.02676191
239	0x3d9c3a4e	0.07628308
240	0x3d19dc45	0.03756358
241	0xbc3e1a5d	-0.011602965
242	0x3dfc339d	0.12314532
243	0x3b132b40	0.00224562
244	0x3d6e1b20	0.058131337
245	0xbd014880	-0.031563282
246	0x3dc146fb	0.094373666
247	0x3d68247d	0.056675423
248	0x3e03f413	0.12886076
249	0x3dea614c	0.11444339
250	0xbd9c58d2	-0.07634129
251	0xbcc39f30	-0.023879617
252	0xbc1a6dfa	-0.0094256345
253	0xbe460520	-0.19337893
254	0xbda55966	-0.08073692
255	0x3d0f2a10	0.034952223

enc_layer_1.0.bias f4 [32]
0	0xbe3b7296	-0.1830543
1	0xbe9f7f79	-0.3115194
2	0xbcc2a346	-0.023759495
3	0x3cdc8acf	0.026921658
4	0x3eb68d83	0.3565484
5	0xbdffebda	-0.12496157
6	0x3d7784e7	0.06042948
7	0x3e90b007	0.28259298
8	0x3e43d859	0.19125499
9	0x3d7aa54e	0.061192803
10	0xbd8c5de2	-0.06853844
11	0x3e1918c0	0.14950848
12	0x3daa14ea	0.0830477
13	0x3e7c4253	0.24634676
14	0x3d435b9c	0.047694787
15	0x3e9868c3	0.29767427
16	0x3e99bc28	0.30026364
17	0xbcf531c2	-0.029930953
18	0xbc0a3b94	-0.008437056
19	0x3e6c3760	0.23067999
20	0x3d3cf316	0.046130262
21	0xbe152378	-0.14564312
22	0xbe7e7ddc	-0.24852699
23	0xbdadee8f	-0.08492767
24	0xbea31b74	-0.31856883
25	0xbe6cddd4	-0.23131496
26	0xbe535468	-0.20637667
27	0x3e7c6047	0.24646102
28	0x3eaf3173	0.34217414
29	0x3e2f9a58	0.17148721
30	0x3e3dca6a	0.18534246
31	0xbe9c4500	-0.30521393

enc_layer_2.0.weight f4 [16, 32, 3, 3]
0	0xbd44b1ab	-0.048021
1	0xbd456dd7	-0.048200455
2	0x3c9ad86c	0.018902026
3	0xbd0c752b	-0.034291428
4	0x3c9b79ae	0.01897892
5	0x3b9e9d65	0.0048405402
6	0x3dd52c11	0.104087956
7	0x3d5752f8	0.05256936
8	0x3d8f4d11	0.06997121
9	0xbd461a53	-0.04836495
10	0x3d13cd76	0.036084615
11	0x3d09170b	0.03346924
12	0x3c239baf	0.009985848
13	0x3d830020	0.06396508
14	0x3dbade4c	0.09124431
15	0xbd0ca1cf	-0.034334
16	0x3da30f70	0.07961929
17	0x3cd291fa	0.025704373
18	0x3cfb2221	0.030655922
19	0x3ceb4f57	0.028724356
20	0xbd572049	-0.052521024
21	0x3db1506a	0.08657916
22	0x3d8180b7	0.063233785
23	0x3bb08036	0.0053863777
24	0x3bff45ac	0.007790288
25	0x3d28439f	0.041080114
26	0x3d854c59	0.06508703
27	0xbd818aab	-0.06325277
28	0x3d9f418f	0.07776176
29	0x3d3a373d	0.045462836
30	0xbd5ccbb8	-0.05390522
31	0x3d480144	0.048829332
32	0x3d0657e9	0.03279868
33	0xbded303b	-0.11581465
34	0xbd32f03a	-0.04368613
35	0xbdbe8a7f	-0.0930376
36	0xbb8e64be	-0.0043455055
37	0x3da0e26b	0.07855686
38	0xbcd73bf1	-0.0262737
39	0x3d7e0bd5	0.062023003
40	0x3d4dda55	0.050257046
41	0x3cd06bc7	0.025442017
42	0xba9b2630	-0.0011836942
43	0xbcb3d9d3	-0.021954453
44	0x3d4998a0	0.04921782
45	0x3d7277a2	0.059196122
46	0xbd2c2876	-0.042030774
47	0xbe0d1a98	-0.13779676
48	0xbdada457	-0.08478611
49	0xbdfb55c4	-0.12272218
50	0xbde88cd7	-0.11354988
51	0x3cadc245	0.021210799
52	0xbda29f40	-0.07940531
53	0xbdc4f10a	-0.09616287
54	0x3d64d1a6	0.055864
55	0x3d84fe9d	0.06493876
56	0x3d882926	0.066484734
57	0x3c9831f2	0.018578503
58	0x3cabe372	0.020982478
59	0x3cabdfaa	0.020980675
60	0xbd936d31	-0.07198561
61	0xbdc441b8	-0.09582847
62	0xbd8fb2f1	-0.07016552
63	0x3d6bc045	0.05755641
64	0x3d7130dd	0.05888449
65	0x3c688b46	0.014193362
66	0x3d35cb87	0.044383552
67	0x3ce13223	0.027489727
68	0x3c9eda1c	0.019391112
69	0x3c1a772c	0.009427827
70	0xbb12021b	-0.0022279087
71	0xbb230bea	-0.0024878928
72	0x3d444833	0.047920417
73	0xbd9ae7c0	-0.07563734
74	0x3d031976	0.032006703
75	0x3d28ec8f	0.041241225
76	0x3cc76c39	0.024343597
77	0x3d2b29ac	0.04178779
78	0x3d28e7bd	0.041236628
79	0x3cdac46f	0.026704995
80	0x3de5100e	0.11184703
81	0x3d6e06da	0.058112003
82	0x3cc8d488	0.024515405
83	0x3d723d38	0.059140414
84	0xbb4707d3	-0.0030369654
85	0x3dec1bd6	0.11528747
86	0x3df153c1	0.11783553
87	0x3d08fd13	0.033444475
88	0x3d7a5e91	0.06112534
89	0x395dd0b1	0.00021153946
90	0xbc64034e	-0.0139168035
91	0xbd6cea88	-0.057840854
92	0xbd27820e	-0.040895514
93	0xbd8ef417	-0.0698015
94	0xbdb600c6	-0.08886866
95	0xbdfff085	-0.12497047
96	0xbdd8ffa9	-0.10595638
97	0xbdc16517	-0.094431095
98	0xbd847c3a	-0.06469007
99	0xbc220aa6	-0.009890234
100	0xbdb23f83	-0.0870352
101	0x3bcca79b	0.006245566
102	0xbd383c2f	-0.04497927
103	0xbca8ae68	-0.020590976
104	0x3a330a3d	0.0006829834
105	0x3cab835a	0.020936657
106	0xbc9b612a	-0.01896723
107	0xbd38fb6f	-0.04516166
108	0x3deff61b	0.11716863
109	0x3dee6cc9	0.11641843
110	0x3dffb28b	0.12485226
111	0x3c8c51ca	0.017128844
112	0xbdfae033	-0.12249794
113	0xbd71d748	-0.0590432
114	0xbc8328ec	-0.016010724
115	0xba9a2fcb	-0.0011763511
116	0xbd2da960	-0.042397857
117	0xbe00cbc3	-0.12577729
118	0xbdcd035b	-0.10010406
119	0xbd54c695	-0.051947195
120	0xbdfcae47	-0.12337928
121	0xbdcefe9c	-0.10107157
122	0xbd40c241	-0.047060255
123	0xbd3d163d	-0.046163786
124	0xbd9ba94e	-0.07600652
125	0xbdf349d2	-0.118793145
126	0x3daf633c	0.08563849
127	0x3c0f659b	0.008752252
128	0x3e08ac0b	0.13346879
129	0x3d00548d	0.031330634
130	0x3d133bad	0.035945583
131	0x3cf38c08	0.029729858
132	0x3ca5dd79	0.020247208
133	0xbd3d1897	-0.04616603
134	0x3da1efeb	0.07907089
135	0x3d824fe9	0.06362898
136	0x3c43a468	0.011941053
137	0xbd31950a	-0.043355025
138	0x3d0b7e46	0.03405597
139	0xbc1d8384	-0.009613875
140	0x3d474cd7	0.048657265
141	0x3d0874ca	0.033314504
142	0x3cb796bd	0.022410745
143	0xbd844626	-0.06458692
144	0xbbd38cfa	-0.0064560147
145	0xbc7c89c5	-0.015413706
146	0x3d36a573	0.04459138
147	0x3d89fdb2	0.06737842
148	0x3d1bce5f	0.038038608
149	0x3c9579e9	0.018246608
150	0xbbdb07e7	-0.0066842916
151	0x3bbe4035	0.005805994
152	0xbd80d970	-0.06291473
153	0xbd242c25	-0.040081162
154	0x3d82eff1	0.063934214
155	0x3d29b7a0	0.041434884
156	0xbce918c5	-0.028454194
157	0x3d1f9e72	0.038969465
158	0x3d918a7b	0.07106491
159	0x3c001c6e	0.007819278
160	0x3d7d4842	0.06183649
161	0x3dde5f40	0.10858011
162	0x3dd3bf97	0.10339277
163	0x3e173086	0.14764604
164	0x3dec2331	0.1153015
165	0x3dbe5313	0.09293189
166	0x3dc143b9	0.09436745
167	0x3e16360a	0.14669052
168	0x3e415c13	0.1888278
169	0x3e73fdc0	0.23827267
170	0x3dff2039	0.12457318
171	0x3c43ff55	0.011962731
172	0xbd40888c	-0.04700522
173	0xbd907c3d	-0.070549466
174	0x3cc44c2c	0.023962103
175	0x3d3a4ceb	0.04548351
176	0xbd8d76ed	-0.06907449
177	0x3ca70120	0.020386279
178	0x3c15e5a7	0.009148992
179	0xbcfc6a42	-0.030812386
180	0xbd9f0700	-0.07765007
181	0xbdb68e45	-0.089138545
182	0x3bcf56be	0.006327479
183	0x3c2ba6dd	0.010476795
184	0x3c3ffdc8	0.011718221
185	0x3d2da350	0.042392075
186	0xbc8357df	-0.016033111
187	0xbc9ea64a	-0.019366402
188	0x3bdb9589	0.0067011756
189	0xbd28718e	-0.04112392
190	0x3ddbe6d2	0.10737385
191	0x3c2b616c	0.010460239
192	0xbe1f36be	-0.15548226
193	0x3d8ace9b	0.06777688
194	0xbd100e2b	-0.03516976
195	0xbdd909ef	-0.10597598
196	0x3d95c6c0	0.07313299
197	0xbd83404e	-0.064087495
198	0xbd8842d3	-0.06653371
199	0x3c071937	0.008245758
200	0x3cf986ad	0.030459726
201	0xbd662dca	-0.05619601
202	0x3d98b9a3	0.074572824
203	0x3c850533	0.01623783
204	0xbd30c6fc	-0.043158516
205	0x3d8f3844	0.06993154
206	0x3d87b10d	0.06625567
207	0x3cfc5f6e	0.030807223
208	0x3d21dc2f	0.039516624
209	0xbd0f5ce4	-0.035000697
210	0xbc173190	-0.009228125
211	0xbcf630ae	-0.03005251
212	0xbdd9e0b0	-0.10638559
213	0xbd9f1483	-0.07767584
214	0xba854e42	-0.0010170417
215	0x3c80336c	0.01564952
216	0xbd4440c2	-0.04791332
217	0x3d9a5dcd	0.07537422
218	0x3d216731	0.03940505
219	0x3ca44879	0.020054089
220	0x3dc60ec9	0.09670789
221	0x3cd34020	0.025787413
222	0x3d37c91f	0.04486954
223	0x3d499120	0.049210668
224	0x3c0c6844	0.008569781
225	0x3cd4f562	0.025995914
226	0xbc82182b	-0.015880665
227	0xbd6e3292	-0.058153696
228	0xbd732ffc	-0.059371933
229	0x3cbcb273	0.02303431
230	0xbd288c8c	-0.04114966
231	0x3b7b287b	0.0038323689
232	0x3d848c4b	0.06472071
233	0xbd8a112d	-0.06741557
234	0xbd92c1ae	-0.07165848
235	0xbd81784b	-0.06321772
236	0xbc9b06e9	-0.018924193
237	0xbdb475ac	-0.08811507
238	0xbc057ae0	-0.008146971
239	0xbda7e1e0	-0.08197379
240	0xbd8e6278	-0.06952375
241	0xbd916d3e	-0.071009144
242	0xbde16c12	-0.11006941
243	0xbd060ddd	-0.032728065
244	0x3c26e052	0.010185318
245	0x3ddb2e43	0.10702183
246	0x3c57e010	0.013175979
247	0x3ddf6d38	0.10909504
248	0x3cf39c06	0.029737484
249	0x3bcc30cf	0.0062314044
250	0x3dbae0a7	0.0912488
251	0x3c81277c	0.015765898
252	0xbd02696e	-0.031838827
253	0xbd5a40ef	-0.05328458
254	0xbb83d369	-0.004023005
255	0xbd6e1aec	-0.058131143

enc_layer_2.0.bias f4 [16]
0	0x3d208ae1	0.039194945
1	0xbd6f8eb6	-0.05848571
2	0x3ca50d38	0.020147905
3	0x3e206980	0.15665245
4	0x3e159a85	0.14609726
5	0x3cd1dc36	0.0256177
6	0x3cfbc8b6	0.030735355
7	0xbd9b4ad4	-0.07582632
8	0x3e64fd51	0.22362258
9	0xbc782392	-0.015145199
10	0x3e33161a	0.174889
11	0xbd34df39	-0.044158194
12	0xbcea2ce0	-0.028585851
13	0x3d889089	0.06668193
14	0xbd5d27c6	-0.05399301
15	0x3cbcd9fa	0.023053158

enc_layer_large.0.weight f4 [4, 16, 3, 3]
0	0x3c90b8f5	0.01766632
1	0xbd9d61c6	-0.076846644
2	0x3c2a2fad	0.010387343
3	0x3d06bcd8	0.03289494
4	0x3d80d436	0.06290476
5	0x3c386851	0.01125534
6	0xbdb6af73	-0.08920183
7	0xbdfb27b5	-0.12263433
8	0xbdbde8b4	-0.092729
9	0xbd19114c	-0.03737001
10	0xbd12bea7	-0.03582635
11	0x3e41c88b	0.18924157
12	0xbca74552	-0.020418797
13	0xbd4df7eb	-0.05028526
14	0xbe83d644	-0.2574941
15	0xbd321d0f	-0.043484744
16	0xbc7470f1	-0.014919505
17	0x3da608ca	0.08107145
18	0xbd259694	-0.040426806
19	0x3dd6d864	0.10490492
20	0x3dd40e3c	0.103542775
21	0xbd569c1e	-0.05239498
22	0x3e101e9c	0.14074177
23	0x3dda8b8a	0.10671146
24	0xbd71eda4	-0.059064522
25	0x3e6ea26f	0.23304151
26	0x3e21557f	0.1575527
27	0x3a64a5ab	0.0008722196
28	0xbe0c9be3	-0.13731341
29	0xbd1202c6	-0.035647176
30	0x3cf0386a	0.029323775
31	0x3d3befc8	0.04588297
32	0xbce12b47	-0.027486457
33	0xbccbc0d4	-0.024872221
34	0xbdb3a0e8	-0.08770925
35	0x3c011c91	0.007880346
36	0xbd66beaa	-0.056334175
37	0xbce4a8d5	-0.027912537
38	0xbdab347b	-0.08359619
39	0xbb6585d5	-0.0035022397
40	0xbc8a0938	-0.016850099
41	0x3c572aaa	0.0131327305
42	0xbdc18e25	-0.0945094
43	0x3c83a764	0.016071029
44	0xbdd591c9	-0.10428197
45	0xbca1d704	-0.019755848
46	0xbc1c8d54	-0.00955518
47	0xbbafe8ce	-0.0053683287
48	0x3daae70d	0.08344851
49	0x3ca9bb5b	0.02071922
50	0x3df89b7a	0.1213903
51	0x3cc030cb	0.023460766
52	0x38ee3ad0	0.00011359679
53	0x3c665663	0.014058682
54	0xbd2a8950	-0.041634858
55	0x3d796462	0.060886748
56	0xbd042d1f	-0.032269593
57	0xbcd73c40	-0.026273847
58	0x3cfaa313	0.030595338
59	0xbd9a45c5	-0.07532839
60	0xbcc16d78	-0.02361177
61	0xbc996b22	-0.018727843
62	0xbd137a81	-0.0360055
63	0xbca60011	-0.020263704
64	0xbc0b6ef5	-0.008510341
65	0x3a9287fd	0.0011179444
66	0x3d59df3a	0.0531914
67	0xbc986a54	-0.018605389
68	0xbd87e2ab	-0.0663503
69	0xbc5c9d42	-0.013465228
70	0x3d506b1c	0.050883397
71	0x3c977b4c	0.01849141
72	0xbd0f5f7a	-0.035003163
73	0xbca7b267	-0.020470811
74	0x3dcfd251	0.101475365
75	0x3dbb3795	0.09141461
76	0x3d8addde	0.06780599
77	0x3d5dda03	0.05416299
78	0xbdc37f90	-0.09545815
79	0xbd891b67	-0.0669468
80	0xbd1a99f7	-0.03774449
81	0xbce0d853	-0.027446901
82	0x3d049270	0.032366216
83	0xbd29c953	-0.041451763
84	0x3d62b68a	0.055349864
85	0xbc2e1a28	-0.010626353
86	0x3c94e32f	0.018174736
87	0xbbd2b437	-0.0064301747
88	0xbd8227f1	-0.063552745
89	0xbcb66cef	-0.02226874
90	0x3c42aa05	0.011881356
91	0x3db2f12d	0.08737407
92	0x3d24cab6	0.040232383
93	0x3d97805a	0.07397528
94	0x3e3da0c0	0.18518353
95	0x3d77b730	0.060477436
96	0xbc97c1f4	-0.018525101
97	0x3dd796cc	0.10526809
98	0xbacbdc04	-0.0015553241
99	0xbd0de7e2	-0.03464497
100	0x3d704b38	0.058665484
101	0xbe16ee87	-0.14739428
102	0x3cf834ab	0.030298552
103	0x3e804880	0.25055313
104	0x3d676b3d	0.056498755
105	0xbe2d7f35	-0.16943057
106	0x3dc3f90a	0.09568985
107	0xbe34cc9f	-0.17656182
108	0x3d77e142	0.060517557
109	0x3de7109c	0.11282465
110	0x3d09a043	0.033600103
111	0xbb4ba2c7	-0.0031072365
112	0x3d0a4e50	0.03376609
113	0xbd1e431c	-0.03863822
114	0x3d11f57e	0.03563451
115	0x3dccf875	0.10008327
116	0x3d5c5869	0.053795252
117	0x3deebfca	0.116576746
118	0x3ced34d1	0.028955849
119	0x3bdcfd74	0.006744081
120	0xbd2e0391	-0.04248387
121	0x3bff9a20	0.0078003556
122	0xbd6167d0	-0.055030644
123	0x3d7c5a8f	0.0616098
124	0x3cb7033f	0.022340415
125	0xbdd45c75	-0.10369197
126	0x3dc82ccb	0.097741686
127	0xbc27f9bf	-0.010252415
128	0x3e8e4d20	0.27793217
129	0x3d8a7100	0.06759834
130	0x3e443e79	0.19164456
131	0xbea77bd0	-0.3271165
132	0x3d749f92	0.05972249
133	0x3c37682f	0.011194273
134	0x3e884e5b	0.2662228
135	0xbe36c44c	-0.17848319
136	0xbe244014	-0.16040069
137	0xbe5e76d1	-0.21725012
138	0x3c476e28	0.012172259
139	0xbc97c258	-0.018525288
140	0x3d9decd5	0.07711188
141	0xbc88107c	-0.016609423
142	0x3dadfd59	0.08495588
143	0xbd2e8a04	-0.04261209
144	0xbde215ff	-0.11039352
145	0xbcf9669d	-0.030444438
146	0xbda6d6cf	-0.0814644
147	0xbdb41e3f	-0.087948315
148	0xbd9068bb	-0.07051226
149	0xbe21a4d0	-0.15785527
150	0xbe0bad80	-0.13640404
151	0xbc98baca	-0.018643755
152	0xbe505232	-0.20343855
153	0xbe3bc2a4	-0.18335968
154	0xbdcc56ba	-0.09977479
155	0x3db9e46e	0.09076773
156	0xbca3dde6	-0.02000327
157	0xbe125fab	-0.14294307
158	0xbdbb6fc8	-0.0915218
159	0xbd2da506	-0.042393707
160	0x3d0eae56	0.03483423
161	0x3c2e8f42	0.0106542725
162	0xbe5ffb69	-0.21873249
163	0xbe82426a	-0.25441295
164	0x3e2d0efa	0.16900244
165	0xbe13a6d7	-0.14419113
166	0xbe8915ab	-0.26774344
167	0xbe156ed6	-0.14593062
168	0xbdf16e32	-0.11788596
169	0xbd8c0c71	-0.068383105
170	0x3d3aef31	0.045638267
171	0xbdaf4608	-0.08558279
172	0xbe91dcd6	-0.28488797
173	0xbd06b1db	-0.03288446
174	0xbe09bf57	-0.13451897
175	0xbe66029c	-0.22461933
176	0x3d8e071e	0.06934951
177	0xbdf64434	-0.120247275
178	0xbe65a215	-0.2242511
179	0xbe2185a8	-0.15773642
180	0xbd872f15	-0.06600777
181	0xbdaecbfb	-0.08535
182	0x3d85d200	0.06534195
183	0xbd871d09	-0.06597335
184	0x3d239a10	0.039941847
185	0xbcd9adb3	-0.026572084
186	0xbe05307b	-0.13006775
187	0xbd08f09b	-0.033432584
188	0xbd8d3576	-0.068949625
189	0xbe7f61ce	-0.24939653
190	0xbe9eb69a	-0.3099869
191	0xbe54c98e	-0.20780012
192	0xbba9e70f	-0.005185015
193	0xbe065ee8	-0.13122141
194	0xbd8e1e4c	-0.069393724
195	0xbc5d62ba	-0.013512308
196	0xbe06e903	-0.13174824
197	0xbe2bfa83	-0.16794781
198	0x3d01d79c	0.03169976
199	0xbe65848f	-0.22413848
200	0xbe30a663	-0.17250971
201	0xbda3ad99	-0.079920955
202	0xbe5fc313	-0.21851759
203	0xbe3f5015	-0.18682893
204	0xbccf0f6f	-0.025275914
205	0xbe99cab8	-0.30037475
206	0xbe347c4e	-0.17625543
207	0x3e0d3fa4	0.13793808
208	0x3d177528	0.036976963
209	0x3de84c6a	0.113427
210	0x3e50368e	0.20333311
211	0xbbc74358	-0.006081026
212	0x3e1e464a	0.154565
213	0x3e1cb191	0.15302111
214	0x3e2a1ff9	0.16613759
215	0x3e728939	0.23685159
216	0xbdf34086	-0.11877541
217	0xbe0039f4	-0.12522107
218	0x3c3d95b7	0.011571339
219	0x3d37e280	0.04489374
220	0xbe09d75d	-0.13461061
221	0x3c505eb9	0.012717896
222	0x3d3dc49c	0.04633008
223	0x3d6a59ef	0.057214674
224	0x3e10682d	0.1410224
225	0xbd113d4e	-0.035458855
226	0xbe367247	-0.17817031
227	0xbe362dde	-0.17790934
228	0x3b72e91a	0.003706521
229	0xbe735d27	-0.23766004
230	0xbdd98fad	-0.10623107
231	0xbd5a73af	-0.05333298
232	0xbe3bb41f	-0.1833043
233	0xbd2e8bae	-0.042613678
234	0x3d2fda2d	0.042932678
235	0x3d12eee7	0.035872366
236	0xbd74c7e8	-0.059760958
237	0xbce31205	-0.027718553
238	0x38a3d392	7.811854e-05
239	0xbda520e0	-0.08062911
240	0x3da5a50b	0.0808812
241	0x3ce5f59c	0.028071217
242	0xbe12b907	-0.14328395
243	0x3e2ef3a1	0.17085125
244	0xbe8a1082	-0.2696572
245	0x3d8df8b2	0.069322005
246	0x3dbce699	0.092236705
247	0xbe91ba00	-0.2846222
248	0xbe67c182	-0.22632411
249	0x3e9b062d	0.3027815
250	0x3d01830d	0.03161912
251	0xbda7e032	-0.08197059
252	0x3e005578	0.12532604
253	0x3de30dcb	0.11086615
254	0x3e4db164	0.200872
255	0x3d467de2	0.048459895

enc_layer_large.0.bias f4 [4]
0	0x3e09013c	0.13379377
1	0xbdac5583	-0.084147476
2	0xbd697f5f	-0.057006236
3	0xba9011cd	-0.0010991633

enc_layer_small.0.weight f4 [8, 16, 3, 3]
0	0xbe2c66b0	-0.16836047
1	0xbd173b7e	-0.03692197
2	0xbda52fb9	-0.08065743
3	0xbced2dbb	-0.02895247
4	0x3d54d225	0.051958222
5	0x3dd9bd91	0.1063186
6	0xbda3b588	-0.07993609
7	0xbb6d2d19	-0.003619021
8	0xbd95d4e8	-0.07315999
9	0xbe51cde7	-0.20488702
10	0xbd61f45d	-0.055164684
11	0x3cde493e	0.027134534
12	0xbdc6240f	-0.096748464
13	0x3d41eee1	0.047346953
14	0x3e042b29	0.1290709
15	0xbbcb0a84	-0.006196322
16	0xbd0646d0	-0.032782376
17	0x3c744912	0.014909999
18	0x3d11b16e	0.0355696
19	0x3d0005d3	0.031255554
20	0xbd190c16	-0.03736504
21	0x3c976d7f	0.018484829
22	0x3d1a837d	0.037723053
23	0x3dc58c6d	0.09645925
24	0xbc943b4d	-0.018094683
25	0x3cf7aac2	0.03023279
26	0x3dcf05b0	0.10108507
27	0x3d03cefb	0.032179814
28	0xbc3d91a4	-0.011570368
29	0x3dff681c	0.12471029
30	0x3e0e87f0	0.13919044
31	0xbdde7035	-0.108612455
32	0x3d62835a	0.055301048
33	0x3d45dc14	0.048305586
34	0xbd84c4ba	-0.06482835
35	0x3d9e8520	0.07740235
36	0x3bf1f9e6	0.0073845265
37	0x3d625f7e	0.05526685
38	0x3c971d41	0.018446567
39	0xbd44dadb	-0.04806028
40	0x3ccbfd26	0.024900984
41	0x3d0e88eb	0.034798544
42	0x3cab0ca6	0.020880055
43	0x3b77b7bb	0.003779872
44	0x3d550159	0.05200324
45	0xbe0a658e	-0.13515303
46	0xbca19b7e	-0.019727465
47	0xbd118614	-0.035528257
48	0x3cd65a85	0.02616621
49	0x3d117320	0.035510182
50	0xbce72aca	-0.028218646
51	0xbdc0e2e8	-0.09418279
52	0xbc398efc	-0.011325594
53	0x3d79c61a	0.06097994
54	0x3ccbfe83	0.024901634
55	0xbd0ab593	-0.03386457
56	0x3d8bb70d	0.068220235
57	0xbdab6e81	-0.08370686
58	0xbe20b85f	-0.15695332
59	0x3d382cf1	0.044964734
60	0xbb30df99	-0.0026988743
61	0xbe8767a8	-0.2644627
62	0xbd20f841	-0.039299253
63	0xbd127dd1	-0.03576452
64	0x3d39e735	0.04538651
65	0x3db2a1c5	0.08722261
66	0xbd5c93bd	-0.05385183
67	0xbb603dca	-0.0034216517
68	0xbd109b6e	-0.03530448
69	0xbd16cb0d	-0.036814738
70	0xbca720f8	-0.020401463
71	0xbe409855	-0.1880811
72	0xbdc09c1e	-0.09404777
73	0xbe038689	-0.1284429
74	0xbe3d7580	-0.18501854
75	0xbd78f0fe	-0.060776703
76	0x3cf9dd1c	0.030500941
77	0x3b8ee796	0.0043611033
78	0x3ca5c8ee	0.020237412
79	0xbddcf15e	-0.10788225
80	0xbd092400	-0.033481598
81	0xbd1c5ffb	-0.03817747
82	0xbd074265	-0.033022303
83	0xbcfbb3ee	-0.030725446
84	0x3cca33e6	0.02468295
85	0x3d441f14	0.0478812
86	0x3cabf44d	0.020990515
87	0x3d15d65e	0.03658139
88	0xbd81c490	-0.063363194
89	0x3de6f781	0.112776764
90	0xbdbd37e4	-0.09239176
91	0xbdfece72	-0.1244172
92	0xbd8442c4	-0.06458047
93	0xbcfb27cd	-0.030658627
94	0x3d1142b7	0.035464015
95	0x3a841603	0.0010077361
96	0x3d1d04fb	0.038334828
97	0x3c03b056	0.008037647
98	0x3d16e9de	0.036844127
99	0xbce33796	-0.027736466
100	0xbd64c03b	-0.055847388
101	0x3dd78af1	0.10524548
102	0xbd7150eb	-0.05891506
103	0x3d8e9054	0.06961122
104	0x3da81687	0.08207422
105	0xbd8061fe	-0.062686905
106	0xbda496f6	-0.08036606
107	0x3e65fc83	0.22459607
108	0xbdf46d0d	-0.11934862
109	0xbdb9c4cf	-0.090707414
110	0xbe1984c3	-0.14992051
111	0xbc405e6e	-0.011741264
112	0xbd25f075	-0.04051252
113	0xbe4527b4	-0.19253427
114	0xbd9808fe	-0.0742359
115	0x3bbfa775	0.00584882
116	0xbd1fb755	-0.0389932
117	0xbd3099a5	-0.043115277
118	0x3d5d0663	0.05396117
119	0x3d0a6fa4	0.033797875
120	0x3dd30846	0.103043124
121	0x3dcfa817	0.101394825
122	0xbbabe2f1	-0.0052455594
123	0xbd251f93	-0.040313315
124	0xbd6b423e	-0.05743622
125	0xbd447cad	-0.047970463
126	0xbd3f58ec	-0.046715662
127	0xbdabfbd5	-0.083976425
128	0xbe0290a7	-0.12750493
129	0xbe36a2eb	-0.17835586
130	0x3c89f896	0.016842168
131	0x3e951978	0.29120994
132	0xbd4ddf62	-0.050261863
133	0xbd951a27	-0.07280379
134	0x3de42344	0.11139539
135	0xbd24eb76	-0.040263616
136	0x3dce1ff6	0.1006469
137	0x3d30b6d4	0.04314311
138	0x3d3c53e8	0.045978457
139	0x3e3ea7c7	0.1861869
140	0x3e46b6c2	0.19405654
141	0xbdaad430	-0.08341253
142	0x3d9b2459	0.07575292
143	0x3d0a1f6b	0.03372137
144	0xbe0e2b81	-0.13883783
145	0xbe2a6b13	-0.16642408
146	0xbe0f2d51	-0.1398213
147	0xbdd14b82	-0.1021948
148	0xbd816529	-0.06318123
149	0xbdcd2c8b	-0.100182615
150	0xbdcf013b	-0.101076566
151	0xbe1b7675	-0.15181907
152	0xbdc69d9d	-0.09698031
153	0xbc48e2b5	-0.012261082
154	0xbb6684da	-0.00351744
155	0xbd8f712a	-0.07004006
156	0xbdd422be	-0.10358189
157	0x3bec3ab1	0.007209145
158	0xbd2f7a74	-0.04284139
159	0xbd881c0b	-0.06645974
160	0xbba67752	-0.005080142
161	0xbd798e71	-0.06092686
162	0xbd6fd378	-0.05855128
163	0xbd32a8db	-0.043618064
164	0xbcb32b4f	-0.021871237
165	0x3d6c45eb	0.057683866
166	0xbd131474	-0.035908177
167	0x3e2d3124	0.16913277
168	0xbe006296	-0.12537608
169	0xbd34d914	-0.044152334
170	0x3e200f68	0.15630877
171	0xbd75b25f	-0.05998456
172	0xbda1ff8b	-0.07910069
173	0xbddf0853	-0.108902596
174	0xbc82b2e0	-0.015954435
175	0xbe102b60	-0.14079046
176	0xbe1e1680	-0.1543827
177	0xbd117046	-0.035507463
178	0xbd8fee71	-0.07027901
179	0xbdb53ac4	-0.08849099
180	0x3cd2e4d8	0.025743887
181	0x3d617b7a	0.055049397
182	0xbdb9d997	-0.09074705
183	0xbd24a8d6	-0.040200077
184	0xbd2a2db1	-0.04154748
185	0xbe04732c	-0.1293456
186	0xbc2c0c91	-0.010501043
187	0xbd05f260	-0.03270185
188	0xbe30ff82	-0.17284968
189	0x3bdd89b4	0.0067608003
190	0xbd87bf48	-0.06628281
191	0xbd145f89	-0.036223922
192	0x3ddb1db1	0.106990226
193	0x3c131635	0.008977463
194	0x3b773790	0.0037722327
195	0xbc574857	-0.013139806
196	0x3d03911f	0.03212082
197	0x3dfe3a18	0.12413424
198	0xbe1c45c5	-0.1526099
199	0x3ce2c6ee	0.027682748
200	0xbe03ea1c	-0.12882274
201	0x3dc63cbb	0.09679552
202	0x3e0782eb	0.13233535
203	0x3b8163f8	0.003948685
204	0xbc9f1e2b	-0.019423565
205	0x3e0c5bdf	0.13706921
206	0xbd7f8642	-0.062383898
207	0xbd0a1211	-0.033708636
208	0x3d87f5d0	0.06638682
209	0x3cc95f68	0.024581626
210	0xbb8f7179	-0.0043775407
211	0x3c315d9e	0.010825543
212	0x3cea281f	0.028583584
213	0xbb0b42c3	-0.002124951
214	0x3e0d157e	0.1377773
215	0xbc2eb4ab	-0.010663192
216	0xbd0cfaee	-0.034418993
217	0xbd7b3b19	-0.061335657
218	0xbd93e948	-0.07222229
219	0xbcef646b	-0.029222688
220	0x3dd9298c	0.106036276
221	0x3d382896	0.04496058
222	0x3df1ead1	0.11812366
223	0x3e3053d1	0.17219473
224	0x3d5dbfe9	0.054138098
225	0x3d30270a	0.04300598
226	0x3d8e7e2c	0.06957659
227	0x3d9185fa	0.07105632
228	0x3e14c530	0.14528346
229	0x3e07f779	0.13277997
230	0x3df287d6	0.11842315
231	0x3ce0f3a8	0.027459934
232	0x3def3949	0.11680848
233	0xbd2ad103	-0.041703235
234	0xbc2ae6f3	-0.010431039
235	0x3caf3b86	0.021390688
236	0xbd9ef8b8	-0.07762283
237	0x3dba3d46	0.09093718
238	0x3d024eb4	0.03181334
239	0x3cd0c5e6	0.02548499
240	0x3e1a94ec	0.15095872
241	0x3e36b6e8	0.1784321
242	0x3dd7c111	0.10534871
243	0xbc3ce92e	-0.011530204
244	0xbd5c1fed	-0.053741384
245	0xbdee2dd8	-0.11629838
246	0x3cb345f8	0.02188395
247	0x3d058e74	0.032606557
248	0x3d89178c	0.06693944
249	0xbe1f11da	-0.15534154
250	0xbde80a45	-0.11330084
251	0xbe04323e	-0.12909791
252	0x3d253357	0.040332165
253	0x3c7fe07c	0.015617486
254	0x3d1810a4	0.037125245
255	0xbd0ccdef	-0.03437608

enc_layer_small.0.bias f4 [8]
0	0xbc528339	-0.012848669
1	0xbdaf6c97	-0.08565634
2	0xbdc3f23b	-0.09567686
3	0x3c378876	0.011201968
4	0xbe17f562	-0.148397
5	0x3da38e11	0.079860814
6	0x3d57859e	0.05261766
7	0x3d81b72d	0.06333766

dec_layer_1.1.weight f4 [8, 8, 2, 2]
0	0x3e24653a	0.1605424
1	0x3e201062	0.1563125
2	0x3ea00609	0.31254604
3	0x3e9e9ace	0.30977482
4	0x3d4ece42	0.05048967
5	0x3c5f6b88	0.013636477
6	0x3e265b0d	0.1624567
7	0xbd4b8a85	-0.04969265
8	0x3e0a2057	0.13488899
9	0x3b1d7ce5	0.0024030742
10	0xbdc62493	-0.09674945
11	0x3e686717	0.22695576
12	0x3d442c0c	0.04789357
13	0xbc90285e	-0.017597374
14	0xbcf9e608	-0.030505195
15	0x3e58b884	0.21164137
16	0x3c14b6fa	0.009076828
17	0x3bc851cc	0.0061132666
18	0x3da8f071	0.082489856
19	0xbd196cad	-0.037457157
20	0xbe209b1e	-0.15684173
21	0xbe20d3e4	-0.1570583
22	0x3d1f38ca	0.038872518
23	0xbd035418	-0.03206262
24	0xbe1346fe	-0.1438255
25	0xbe04096b	-0.12894218
26	0xbe294a9b	-0.16532366
27	0xbdc8b7d6	-0.09800689
28	0xbce981b9	-0.02850424
29	0x3ea1ec96	0.31625813
30	0x3e5281bf	0.20557307
31	0x3e930fa4	0.2872287
32	0x3ea83a0c	0.32856786
33	0x3eba4648	0.36381745
34	0x3e4fad26	0.20280895
35	0x3ee13b84	0.4399072
36	0x3e5fa73d	0.2184114
37	0x3db18d75	0.08669559
38	0x3e99827d	0.29982367
39	0x3d901ee6	0.070371434
40	0x3dd298be	0.102830395
41	0x3e549154	0.20758563
42	0x3ddcad54	0.10775247
43	0xbcff6ed7	-0.031180782
44	0x3e2a8ecc	0.16656035
45	0xbc3bf46b	-0.011471848
46	0x3da7bf29	0.08190758
47	0x3e46b49e	0.19404837
48	0x3e1887a2	0.1489549
49	0x3dc3bc90	0.0955745
50	0xbd485fd0	-0.0489195
51	0x3dd563b0	0.104194045
52	0xbd8b1bb6	-0.06792395
53	0xbe60852f	-0.21925806
54	0x3c8b2d51	0.016989382
55	0xbe30020e	-0.17188284
56	0x3cfd26b0	0.030902237
57	0xbc3fad13	-0.011698979
58	0xbd51d205	-0.05122568
59	0xbe1bc151	-0.15210463
60	0x3e1d5143	0.1536303
61	0x3ec43d9b	0.3832825
62	0x3d4eb779	0.050467942
63	0x3e10ae18	0.14128911
64	0x3eaed9ba	0.34150487
65	0x3e438ad4	0.19095927
66	0x3ea3bbe0	0.31979275
67	0x3eb26aeb	0.34847197
68	0x3e865d83	0.2624322
69	0x3e99dcd7	0.300513
70	0x3eb68609	0.35649136
71	0x3df12def	0.11776339
72	0xbd8d3649	-0.0689512
73	0x3e519ac3	0.20469193
74	0x3e65a2af	0.2242534
75	0xbc9e68c9	-0.019337075
76	0xbd1a6b2d	-0.037699867
77	0xbdbbcf08	-0.091703475
78	0x3e421c34	0.18956071
79	0x3c99bb68	0.01876612
80	0x3d52a8ce	0.051430516
81	0x3e14c7d4	0.14529353
82	0x3e63601c	0.22204632
83	0x3d925d0b	0.07146653
84	0xbb36ad2b	-0.0027874212
85	0xbce9f904	-0.028561123
86	0x3c3610e3	0.011112425
87	0xbe7d87de	-0.2475886
88	0xbccaf754	-0.024776138
89	0xbe13fd69	-0.14452137
90	0xbd830fec	-0.06399521
91	0xbe091a2f	-0.13388894
92	0x3e9ebf1a	0.31005174
93	0x3cb6ddc4	0.022322543
94	0x3e12c603	0.14333348
95	0x3e026ca5	0.12736757
96	0x3d6f9b1c	0.058497533
97	0x3ea22c57	0.31674454
98	0x3db0a4d1	0.08625186
99	0x3d523de3	0.05132855
100	0xbdf5140a	-0.11966713
101	0x3e380910	0.17972207
102	0xbcc40cf9	-0.023931967
103	0xbdfc00f0	-0.12304866
104	0xbd179428	-0.037006527
105	0xbdf28d87	-0.118434004
106	0x3d534303	0.05157758
107	0xbd8182fe	-0.06323813
108	0x3b158d47	0.0022819804
109	0x3d912ea2	0.07088973
110	0x3e06632a	0.13123766
111	0x3e937659	0.2880123
112	0xbc819d34	-0.01582203
113	0xbd3ec8b5	-0.046578128
114	0xbbed3ce3	-0.0072399243
115	0x3d8a2f2d	0.06747279
116	0xbe20423d	-0.15650268
117	0x3ca3b39f	0.019983111
118	0xbd812821	-0.06306482
119	0xbda10bb4	-0.0786356
120	0x3dc43981	0.095812805
121	0x3e82b1e7	0.25526354
122	0x3e4df324	0.20112282
123	0xbd3e67c4	-0.046485677
124	0x3e3c8fbe	0.18414208
125	0xbd8a5b2a	-0.067556694
126	0xbe000170	-0.12500548
127	0xbe1635df	-0.14668988
128	0x3cc561e6	0.024094533
129	0x3d83aab1	0.06429041
130	0xbe73c2f0	-0.23804832
131	0x3b8e3e1f	0.0043409015
132	0x3da1ca58	0.07899922
133	0xbd98df8d	-0.07464514
134	0x3dc4893e	0.09596489
135	0x3e600ea9	0.21880592
136	0xbc671fdd	-0.014106718
137	0x3e1a6c0a	0.15080276
138	0xbcec2cb5	-0.028829912
139	0xbd542bfd	-0.051799763
140	0xbe51fba9	-0.20506157
141	0xbe509a20	-0.20371294
142	0xbe36f113	-0.178654
143	0xbe209759	-0.15682735
144	0xbe138bfd	-0.1440887
145	0x3d072832	0.032997318
146	0x3dcbe454	0.099556595
147	0xbce6d635	-0.028178314
148	0x3dd33a28	0.10313827
149	0xbe662916	-0.2247661
150	0x3d8c7772	0.0685872
151	0xbd846dd9	-0.06466264
152	0xbd1bfa9e	-0.038080804
153	0xbc8438d1	-0.016140373
154	0xbde9b3b3	-0.11411228
155	0xbcfbe4e2	-0.030748788
156	0xbcb2a130	-0.021805376
157	0xbe407d25	-0.18797739
158	0xbe73251f	-0.2374463
159	0xbcc37732	-0.023860548
160	0xbdd16145	-0.10223631
161	0x3e1247ef	0.14285253
162	0xbdf7bb03	-0.120962165
163	0x3e1d6d4d	0.15373726
164	0x3d3ebb32	0.046565242
165	0xbde5184a	-0.111862734
166	0xbd6dc268	-0.05804673
167	0xbe85c745	-0.26128593
168	0xbe0f18cb	-0.13974302
169	0xbe2799f8	-0.16367328
170	0xbcb33d66	-0.021879863
171	0xbde82794	-0.11335674
172	0x3df4da83	0.1195574
173	0x3e35623c	0.17713255
174	0xbdce8670	-0.10084236
175	0x3d21c176	0.03949114
176	0x3d6a0d8d	0.05714183
177	0xbd210858	-0.039314598
178	0x3de88f93	0.113555096
179	0xbd574ea8	-0.052565247
180	0x3b5a6d76	0.0033329404
181	0xbc47722c	-0.012173217
182	0x3dfbd434	0.12296334
183	0xbe476667	-0.19472657
184	0xbe270cad	-0.16313429
185	0x3cff432d	0.031159962
186	0xbc630420	-0.013855964
187	0xbaa430e3	-0.0012526776
188	0x3dbc250a	0.09186752
189	0x3dabf266	0.08395843
190	0xbdc78fb3	-0.09744205
191	0xbdbf6b0f	-0.09346592
192	0xbb8581e1	-0.0040743207
193	0x3d1241fb	0.035707455
194	0x3de1c938	0.110247076
195	0x3e090af4	0.13383085
196	0xbe1a84df	-0.15089749
197	0x3e15aa21	0.1461568
198	0xbcf9c4e3	-0.03048939
199	0xbcb48472	-0.022035811
200	0x3caa2180	0.020767927
201	0x3b892f5e	0.004186555
202	0xbe592340	-0.21204853
203	0xbe1a923f	-0.15094851
204	0xbe1870e7	-0.14886819
205	0x3e331ab3	0.17490654
206	0xbd5545ae	-0.052068405
207	0xbde4dcdb	-0.11174937
208	0xbe2585e4	-0.16164356
209	0x3df7e7f2	0.12104787
210	0xbe3614fb	-0.17781441
211	0xbe43eeca	-0.1913406
212	0x3e134759	0.14382686
213	0x3e006eeb	0.12542312
214	0x3e0c4b3c	0.13700575
215	0xbcb5cf07	-0.022193445
216	0x3cf2bfa8	0.029632404
217	0xbe63c984	-0.22244841
218	0xbd22149b	-0.039570432
219	0xbd6a1a23	-0.057153832
220	0x3be070a6	0.0068493662
221	0x3dccbf5d	0.09997437
222	0xbd496cad	-0.049175907
223	0x3e24ee6b	0.16106574
224	0x3eafa7a7	0.34307596
225	0x3e5ac46a	0.21363989
226	0x3d9272b6	0.071507856
227	0x3e0638f9	0.13107671
228	0x3e83d07a	0.25744992
229	0x3e3e376e	0.18575832
230	0x3e85918a	0.260876
231	0x3d1eddb6	0.03878566
232	0x3e3ec7c8	0.18630898
233	0x3e6bc722	0.23025182
234	0x3da3712b	0.079805695
235	0x3e63e037	0.222535
236	0x3dda47c8	0.106582224
237	0xbc98faca	-0.018674273
238	0x3e0a9334	0.13532716
239	0x3c3d1d2e	0.0115426015
240	0x3e458264	0.19288021
241	0x3dff2aff	0.12459373
242	0x3defcd5f	0.11709093
243	0xbd58cf5d	-0.052932132
244	0xbd5b3b89	-0.053523574
245	0x3da0d30c	0.07852754
246	0xbd697fe6	-0.05700674
247	0xbe0b41a4	-0.13599259
248	0xbe87285f	-0.26397988
249	0xbdf85f84	-0.12127593
250	0xbe2b7923	-0.16745429
251	0xbd30ab81	-0.04313231
252	0x3db40240	0.08789492
253	0x3e5c2395	0.21497948
254	0x3e0adf0a	0.13561645
255	0x3e874715	0.2642142

dec_layer_1.1.bias f4 [8]
0	0x3e80e609	0.25175503
1	0xbc5d66da	-0.013513291
2	0x3ce34fb3	0.027747964
3	0x3e85c94c	0.2613014
4	0x3c6d5059	0.014484488
5	0xbd91c36c	-0.07117352
6	0xbd3893c7	-0.045062806
7	0x3ddfef15	0.10934273

dec_layer_2.1.weight f4 [8, 12, 2, 2]
0	0x3e457a4a	0.19284931
1	0x3d80d178	0.06289953
2	0x3d2c145f	0.042011615
3	0x3dc4a2e8	0.096013844
4	0x3db052f8	0.08609575
5	0xbddb686d	-0.10713277
6	0xbc92ee90	-0.017936021
7	0x3c591459	0.01324948
8	0x3cfb9e7e	0.030715223
9	0xbc052b12	-0.008127945
10	0xbe238b3f	-0.15971087
11	0x3c984cf6	0.018591385
12	0x3d70dbf7	0.058803525
13	0x3da6b655	0.08140246
14	0xbd8308cc	-0.06398162
15	0xbd3ef87c	-0.046623692
16	0x3e58c83a	0.2117013
17	0x3e1fc07a	0.15600768
18	0x3e5a093d	0.21292587
19	0x3ea7492a	0.32673007
20	0x3dd54746	0.10413985
21	0x3e0b830e	0.13624212
22	0x3e4ca1b1	0.19983555
23	0x3e94ecb2	0.29086834
24	0x3e13ca72	0.14432696
25	0x3e462088	0.19348347
26	0x3e163383	0.14668088
27	0x3e028b4d	0.12748452
28	0xbe431ca0	-0.19053888
29	0xbe4c7f92	-0.19970539
30	0xbc99c70e	-0.018771674
31	0xbc579f75	-0.013160576
32	0x3e1d0af7	0.15336214
33	0x3ddc9498	0.107705295
34	0x3e193d58	0.14964807
35	0xbd079675	-0.03310247
36	0xbd922f47	-0.07137924
37	0xbd18bac4	-0.03728749
38	0x3e137fcf	0.14404224
39	0x3dff26e4	0.1245859
40	0xbe2badc5	-0.16765507
41	0x3d9527a4	0.072829515
42	0xbc3dcc70	-0.011584386
43	0xbdf58f34	-0.119902045
44	0x3e3faa03	0.18717198
45	0x3e3d54cf	0.18489383
46	0x3dc62d1f	0.09676575
47	0x3e8e54b4	0.27798998
48	0x3d3e5d82	0.046475895
49	0xbda25638	-0.07926601
50	0xbd1b96fd	-0.03798579
51	0xbe30ee87	-0.17278491
52	0xbe13c41e	-0.14430282
53	0x3d7268eb	0.05918209
54	0xbe21e8dc	-0.15811485
55	0xbd81f90c	-0.0634633
56	0xbd344638	-0.04401228
57	0x3e1e645c	0.15467972
58	0xbabd956d	-0.0014464088
59	0x3dc443c3	0.09583237
60	0x3dc3dcc7	0.09563594
61	0x3d8215a4	0.06351784
62	0x3d1a8a6a	0.03772966
63	0xbd559b8f	-0.052150305
64	0x3c50e07a	0.012748832
65	0x3e4da0d4	0.20080882
66	0x3d911a28	0.07085067
67	0x3d34f68f	0.04418045
68	0x3e80ff64	0.25194848
69	0x3e4b3a06	0.19846353
70	0x3e8056f3	0.25066337
71	0x3e7042d9	0.23463
72	0x3d15cb42	0.036570795
73	0xbe470d94	-0.19438773
74	0x3d7a8ce1	0.06116951
75	0xbd82c0aa	-0.06384404
76	0xbdcea8cd	-0.1009079
77	0x3d8b67c2	0.068068996
78	0x3da23f85	0.07922272
79	0x3cd6ffc9	0.026245015
80	0xbe92ce25	-0.286729
81	0xbd289085	-0.04115345
82	0xbd90c1c9	-0.070682116
83	0xbdb0e3b1	-0.08637179
84	0xbe03e251	-0.12879302
85	0xbe96abbd	-0.294279
86	0xbd90f065	-0.070771016
87	0xbe032d87	-0.12810336
88	0x3dbaaba2	0.091147676
89	0x3d23eb50	0.040019333
90	0xba63d710	-0.00086914096
91	0xbd063132	-0.03276176
92	0xbd636b78	-0.055522412
93	0xbd9fe21b	-0.07806798
94	0xbde9b6e6	-0.11411838
95	0x3c79f511	0.015256182
96	0xbe5310b6	-0.20611843
97	0xbe146084	-0.14489943
98	0xbe484ac6	-0.19559774
99	0xbe767e53	-0.24071626
100	0x3e3504e1	0.17677642
101	0x3e0b06d8	0.1357683
102	0x3d9d1fda	0.07672091
103	0xbcdbbefe	-0.02682447
104	0x3da3c7a0	0.0799706
105	0xbdc1ce15	-0.09463135
106	0xbd9383db	-0.07202884
107	0xbbeed9c5	-0.0072891437
108	0xbdfda1cc	-0.12384376
109	0xbe86ec29	-0.2635205
110	0xbea1f673	-0.31633338
111	0xbe99411e	-0.29932493
112	0x3ea52873	0.32257423
113	0x3e8c239e	0.27370924
114	0x3edf1c0f	0.43576095
115	0x3ef66d7c	0.48130405
116	0x3ead3ee5	0.33837047
117	0x3eb36ec6	0.3504545
118	0x3e58a928	0.21158278
119	0x3e8d76fb	0.27629837
120	0x3ecc7512	0.39933068
121	0x3f170c05	0.59002715
122	0x3ef750fb	0.4830397
123	0x3f13a7c1	0.5767785
124	0xbd868afb	-0.06569477
125	0xbc4d7dca	-0.0125421975
126	0x3d90c540	0.070688725
127	0x3e00a887	0.12564288
128	0x3d279936	0.040917598
129	0xbd62d61a	-0.055379964
130	0xbe08687b	-0.13321106
131	0xbd562002	-0.05227662
132	0x3d8b07f1	0.06788624
133	0xbc8adc35	-0.016950706
134	0x3ccfa184	0.025345571
135	0xbd919804	-0.07109073
136	0xbda11095	-0.07864491
137	0x3d0d7f3f	0.03454518
138	0xbe033589	-0.12813391
139	0xbdd351b9	-0.10318322
140	0x3eed886e	0.4639315
141	0x3ed6a3c0	0.41921806
142	0x3ed9dc93	0.42551097
143	0x3ef146dd	0.47124377
144	0x3d60c1a6	0.054872178
145	0x3d2ada1d	0.041711915
146	0x3d8a6c00	0.067588806
147	0xbe0f72aa	-0.14008585
148	0xbe8710f8	-0.26380134
149	0xbe3d18e6	-0.18466529
150	0xbe62dd8a	-0.22154823
151	0xbe846dd1	-0.25865033
152	0xbd81fc81	-0.063469894
153	0xbe877f35	-0.2646424
154	0xbdff9c87	-0.12481027
155	0xbe840859	-0.2578762
156	0xbdfc5430	-0.12320745
157	0xbc4f8ca8	-0.012667812
158	0xbe19783d	-0.14987274
159	0xbb648b83	-0.0034873195
160	0x3eb3b6f9	0.35100535
161	0x3ea46aac	0.32112634
162	0x3e19e2d0	0.15027928
163	0x3e888f48	0.26671815
164	0x3e45cd55	0.19316609
165	0x3e1867ae	0.148833
166	0x3e73b80d	0.23800679
167	0x3e1b0973	0.15140323
168	0x3f3580c0	0.7089958
169	0x3f4e4098	0.8056731
170	0x3f252045	0.64502364
171	0x3f3fcde3	0.74923533
172	0x3cc7cc49	0.024389403
173	0x3e2ba036	0.16760334
174	0x3e0b4ebf	0.13604258
175	0x3df024ff	0.117258064
176	0xbda20ed1	-0.07912982
177	0x3e401b42	0.18760398
178	0x3da87cc4	0.08226922
179	0x3df1f721	0.11814714
180	0x3dc017a5	0.0937951
181	0x3e361561	0.17781593
182	0x3d857dd1	0.06518138
183	0x3c22db51	0.009939984
184	0xbe51ed36	-0.20500645
185	0xbd94785a	-0.07249518
186	0xbdcda296	-0.100407764
187	0xbd17eabe	-0.037089102
188	0x3e02df89	0.12780584
189	0x3e72609d	0.23669668
190	0x3e5a7d14	0.21336776
191	0x3e257d9d	0.16161199
192	0x3cf21790	0.029552251
193	0x3d0c9637	0.034322944
194	0xbd1ca023	-0.038238656
195	0x3e41b113	0.18915205
196	0xbdbcfeef	-0.09228312
197	0x3e03a4ad	0.12855788
198	0xbdbec870	-0.09315574
199	0x3ce72872	0.028217528
200	0x3d8ac63d	0.06776092
201	0x3cc2d40c	0.023782752
202	0xbe02c283	-0.12769513
203	0xbc26b7a6	-0.010175621
204	0xbd4ccb64	-0.049998656
205	0xbd6a7f47	-0.057250287
206	0x3b20f796	0.0024561635
207	0x3d3176fd	0.043326367
208	0xbddca9df	-0.10774588
209	0x3db5ea73	0.08882608
210	0x3cc338ec	0.023830853
211	0xbd43f803	-0.047843944
212	0xbd9fa54c	-0.077952
213	0x3d979652	0.07401718
214	0xbdbfb61b	-0.09360906
215	0xbdd0d2c6	-0.10196452
216	0xbde64eb3	-0.112454794
217	0xbe0153f3	-0.1262968
218	0x3d286f8c	0.041122004
219	0x3c908b34	0.017644502
220	0x3da8bad0	0.08238757
221	0x3de3bb83	0.111197494
222	0x3d4b3cc6	0.049618505
223	0x3e2d6e70	0.1693666
224	0x3ca5cc45	0.020239005
225	0xbd8df974	-0.06932345
226	0x3e0612e5	0.13093145
227	0x3aa5e333	0.0012656212
228	0x3e0dc41e	0.13844344
229	0x3e0749d4	0.13211757
230	0xbcec474e	-0.028842594
231	0xbd6c980d	-0.057762194
232	0x3d37d045	0.044876356
233	0x3ddbc62a	0.10731156
234	0x3e0fadf9	0.14031209
235	0x3df6297b	0.120196305
236	0x3d4a2701	0.049353603
237	0xbe0f91be	-0.1402044
238	0xbdd27324	-0.102758676
239	0xbdb8bd5e	-0.09020494
240	0xbe1e110d	-0.15436192
241	0x3c98e78b	0.018665096
242	0xbdd8fed6	-0.10595481
243	0x3d35d269	0.044390116
244	0x3dd4ccd8	0.10390633
245	0xbdbcd059	-0.09219427
246	0x3dc6ab90	0.09700692
247	0xbe0b9850	-0.13632321
248	0xbb90e2cc	-0.0044215675
249	0xbe48cd80	-0.19609642
250	0xbc360aba	-0.011110956
251	0xbc43f6ca	-0.011960695
252	0x3d6db15a	0.058030464
253	0xbc999c37	-0.018751247
254	0x3d634bb1	0.055492107
255	0xbdac661c	-0.08417913

dec_layer_2.1.bias f4 [8]
0	0xbc2817bb	-0.010259564
1	0x3db597e5	0.08866862
2	0x3daf32e9	0.08554632
3	0x3dfd1b38	0.12358707
4	0xbc59275c	-0.013254013
5	0x3d7f6a32	0.062357135
6	0xbd23bc8a	-0.039974727
7	0xbdd5fbce	-0.104484186

dec_layer_3.1.weight f4 [3, 8, 2, 2]
0	0x3eba22f4	0.36354792
1	0x3e70ddeb	0.23522155
2	0x3e04f1cf	0.12982868
3	0x3eb47aba	0.35249883
4	0xbe56320e	-0.20917532
5	0xbbaee1ca	-0.0053369747
6	0xbe8bfdb7	-0.27342007
7	0xbdbc56ca	-0.09196241
8	0x3e6a95aa	0.22908655
9	0x3e12a688	0.14321339
10	0x3e04ceb3	0.12969474
11	0x3ec66ce9	0.38754967
12	0xbdb3e665	-0.08784179
13	0x3e5981e4	0.21240956
14	0x3d1d44b8	0.038395613
15	0x3d8bf479	0.06833739
16	0x3d64cb55	0.055857975
17	0xbe0a3f54	-0.1350072
18	0xbe1b8c30	-0.15190196
19	0xbdb2cb88	-0.08730227
20	0xbd0396fb	-0.032126408
21	0xbe0dc703	-0.13845448
22	0xbd98354b	-0.0743204
23	0xbe115d7d	-0.14195819
24	0x3dd805cc	0.10547981
25	0x3ea9aaf0	0.33138227
26	0x3e65c9bb	0.22440235
27	0x3d6f94b9	0.058491442
28	0x3e366928	0.17813551
29	0x3ec0b3fa	0.3763731
30	0x3e0bbdae	0.13646576
31	0x3eaa1cb8	0.33225036
32	0x3cfa4995	0.030552665
33	0x3c7f0d79	0.015567177
34	0x3d8e5ef4	0.069517046
35	0x3ea0ce88	0.3140757
36	0xbe067f84	-0.13134581
37	0x3b068730	0.0020527355
38	0xbe03b8e5	-0.128635
39	0xbc201665	-0.009770964
40	0x3f08644f	0.5327806
41	0x3ee05968	0.43818212
42	0x3ebb6b79	0.36605433
43	0x3ecfdcf2	0.40598255
44	0x3e2e6408	0.17030346
45	0x3d9821c2	0.07428314
46	0xbe347ab5	-0.17624934
47	0x3bab0f0d	0.0052203
48	0xbe2bf024	-0.16790825
49	0x3dea1e92	0.11431612
50	0xbe2e4f74	-0.17022496
51	0xbd6e0f81	-0.058120254
52	0x3e262bb8	0.16227615
53	0xbc31ab69	-0.01084409
54	0x3e5bc26f	0.2146089
55	0x3e56b5b6	0.20967755
56	0x3e2c4355	0.1682256
57	0x3dd14f76	0.10220234
58	0x3e074872	0.1321123
59	0x3e274bab	0.16337459
60	0xbe18ba4e	-0.1491482
61	0xbe18cac0	-0.14921093
62	0xbdf2f658	-0.118633926
63	0x3d5c37ab	0.053764027
64	0xbe1e7676	-0.15474877
65	0xbdded9a5	-0.10881356
66	0x3beb76de	0.007185801
67	0x3df76b2d	0.12080989
68	0x3df86b73	0.12129869
69	0x3e59e767	0.21279679
70	0x3e43febd	0.19140144
71	0x3eaac109	0.333504
72	0x3eacdc7d	0.3376197
73	0x3ee53634	0.44767916
74	0x3eee6900	0.46564484
75	0x3e966524	0.2937404
76	0x3e134088	0.14380085
77	0xbe163759	-0.14669551
78	0x3d6e49cb	0.058175843
79	0xbd4880d5	-0.04895099
80	0xbe64cca1	-0.22343685
81	0xbd2dca69	-0.04242936
82	0xbe034b60	-0.12821722
83	0xbdc6bf94	-0.097045094
84	0x3ac8a827	0.0015308902
85	0x3e08e3e9	0.13368191
86	0x3e6b06cc	0.22951812
87	0x3e0afd52	0.13573197
88	0xbe39b500	-0.18135452
89	0xbdbf56f6	-0.09342758
90	0x3dc970e4	0.09835985
91	0xbd74b33c	-0.059741244
92	0xbc03fa9e	-0.008055357
93	0x3e3e33b6	0.18574414
94	0x3e6c89ab	0.23099391
95	0x3d8ec43e	0.06971024

dec_layer_3.1.bias f4 [3]
0	0x3ed45be4	0.41476357
1	0x3eae3aff	0.34029385
2	0x3e91da49	0.2848685
