save/exp_attn/gen_model.pt (torch, 188131 bytes, 20 tensors)

enc_layer_1.0.weight f4 [32, 3, 5, 5]
000000 1c aa 3f 3d bc 12 8c 3d 8f 73 78 bd dc 21 ac 3d
       0.04679309 0.06839511 -0.06065708 0.08404896
000010 a4 8b 9b bd 85 08 30 bd 64 b4 0a 3e 41 1a d8 3d
       -0.07594994 -0.042976875 0.13545376 0.105518825
000020 29 db 1a 3e d5 29 3b bd 89 3f 30 3d 66 60 48 3c
       0.15122665 -0.04569419 0.04302934 0.012230014
000030 94 ff 2a bd ac 7e 34 3d 78 60 f2 3d 2a 6e b1 3d
       -0.041747645 0.044066116 0.11834806 0.0866359
000040 76 99 0c 3e dc 36 08 3e a0 b3 a6 3b 8b 87 e3 3d
       0.13730416 0.13302177 0.005087331 0.11109837
000050 4b cb 19 3c b8 77 28 3e 1a 1a 48 3d 7c 30 13 bd
       0.009386848 0.16451919 0.048853017 -0.03593491
000060 7a f3 3d 3e 12 08 0a bd b3 6b 5b 3c 7d f5 c9 bd
       0.1854991 -0.033699103 0.013392377 -0.09861276
000070 0a e4 ea bd 01 0d 9b bd 67 9f 6d bd 84 8f 95 bd
       -0.11469276 -0.0757084 -0.058013346 -0.07302764
000080 d1 0c c7 3c af 50 af 3c bb d5 23 3d 65 16 ac 3c
       0.024298104 0.021400778 0.03999875 0.021006772
000090 9e 9a a8 3d 54 27 1c 3d e2 da d3 3b d4 40 ee bd
       0.08232616 0.038123444 0.006465302 -0.11633459
0000a0 9a 20 c3 bd 46 14 b6 bc d3 45 42 bd 22 9c 82 b9
       -0.09527703 -0.022226464 -0.04742987 -0.0002491186
0000b0 70 75 de bd 6c 17 8f 3c 53 d8 71 bd 1f 9f 92 bd
       -0.10862243 0.017467223 -0.059044193 -0.07159256
0000c0 99 91 89 3d af 4b bf 3d d9 6c 0d be 93 13 58 bc
       0.06717224 0.093406074 -0.13811053 -0.013188261
0000d0 3e b4 c1 bd 13 91 9a 3c 83 3e 1f bb 5e 88 af 3c
       -0.094582066 0.018868005 -0.0024298734 0.02142733
0000e0 7a 8d e0 bd 32 cf e4 bc dc aa fe 3c b0 70 00 be
       -0.109644845 -0.02793083 0.031087331 -0.12542987
0000f0 f0 c2 e8 bd ca 2a 77 bd f0 5c 81 3d bc 31 4a bc
       -0.113653064 -0.06034354 0.063165545 -0.012340959
000100 a7 55 2f 3d c8 5e e7 3c c7 6f 18 3d 49 a1 04 be
       0.042806294 0.028243437 0.037215974 -0.1295215
000110 1a d6 08 3d 58 27 ba bd 71 8f 83 bc 20 ae 60 bd
       0.03340731 -0.090895355 -0.01605961 -0.05485356
000120 cb 51 1a 3d 54 cf ba 3d 2b 56 6d 3d 73 5e 5e bd
       0.03767566 0.09121576 0.057943504 -0.054289293
000130 87 c6 9c 3d 71 06 ac 3d 97 cb fe 3b f5 d4 ba 3c
       0.076550536 0.08399666 0.0077757346 0.022806624
000140 dc 8f 54 3d 97 e7 fa 3c cb 8c 03 3e cb 0b 89 bd
       0.051895007 0.030628009 0.12846677 -0.066917025
000150 ff f1 be 3d 39 ff ff 3d de e2 86 3d 01 aa 8b 3d
       0.09323501 0.12499852 0.0658624 0.06819535
000160 70 6b dd 3d d2 98 d1 3d 61 4f 21 3e 88 d0 b5 3d
       0.10811508 0.10234226 0.15752937 0.08877665
000170 f0 ef 2b 3d 57 57 17 3d e1 3e 93 bd ce e4 81 3c
       0.04197687 0.03694853 -0.071897276 0.015856173
000180 34 ae 7d bc 5c 0e 1a 3d cf 91 19 3e ea e7 02 3e
       -0.015483428 0.03761135 0.14997028 0.1278378
000190 32 62 36 bc 8c 33 d3 bd b4 e9 ea bd 14 79 b3 3b
       -0.01113181 -0.10312566 -0.114703566 0.00547708
0001a0 cc 97 a3 bc 1a da 67 3d e8 7c 92 bd 3b 7a c4 bd
       -0.019969843 0.056604482 -0.0715273 -0.09593626
0001b0 6a f5 e8 bd e1 cd 2b 3c 20 c0 d0 bd ab a0 8e 3d
       -0.11374934 0.010486097 -0.10192895 0.06964239
0001c0 67 33 94 3d cb 55 fb bd 85 2e 93 bd d6 64 5d 3c
       0.07236367 -0.12272223 -0.07186607 0.013512811
0001d0 8e be d8 bd 70 06 ab 3c da e9 b0 3c 4c 8d 22 3c
       -0.105832204 0.020877093 0.021595884 0.009921383
0001e0 eb 9f 5b bc 2d 6c e2 3d 5d ef 83 3d 96 e9 fd bd
       -0.013404827 0.11055789 0.06442139 -0.123980686
0001f0 05 4a 0f be c7 c9 47 bd 97 39 07 bd 86 c4 be 3b
       -0.1399308 -0.048776414 -0.033013906 0.0058217673
000200 cb b4 91 3d 81 e8 85 bd 8c e4 48 ba 3f f6 ee bd
       0.07114562 -0.06538487 -0.00076634507 -0.116680615
000210 18 0f 22 3d 71 c7 dd bc ad d5 79 bd 7f 6f 02 bc
       0.039565176 -0.02707264 -0.060994793 -0.007961153
000220 3a 29 4b 3d e6 c1 bd bd 83 fa 9f 3d ee f6 04 bd
       0.049599864 -0.09265499 0.07811453 -0.032462053
000230 4f 4f 87 bd 92 55 8e 3c da 31 2f bd bd 48 fc bd
       -0.06606924 0.017374787 -0.04277215 -0.12318561
000240 63 ac 5d 3d 4c 14 f3 3d b5 1d 02 3d a6 56 96 bd
       0.05411948 0.11869106 0.031766612 -0.07340746
000250 04 f4 71 3c 20 06 1b bd 3c c8 b6 3d f9 c2 f0 bc
       0.0147676505 -0.037847638 0.089249104 -0.029389845
000260 5d c2 6a bd f7 fd 86 bd 58 0a 9d bd ff 5b ae 3d
       -0.057314266 -0.06591409 -0.076679885 0.085136406
000270 bc 47 fd 3c 0c 1c 22 3d 17 c3 9d bc e7 3c ca 3c
       0.030917995 0.03957753 -0.019258065 0.024687244
000280 79 68 42 bd 11 ec 1d bd c6 7d b2 bd 7e be 97 3c
       -0.047462914 -0.03855521 -0.08715396 0.018523451
000290 75 39 04 3c 56 c8 82 bd 9d cc 42 3d bf c5 47 bd
       0.008070339 -0.06385867 0.047558416 -0.04877257
0002a0 53 f2 a2 bd ef 64 84 3d 29 33 c4 3c b0 35 e2 3d
       -0.07956376 0.06464564 0.023950176 0.11045396
0002b0 b5 b6 c5 3d c9 ff 17 bd e6 a5 c4 3c 6e aa 29 bd
       0.09653989 -0.03710917 0.024004888 -0.0414223
0002c0 e5 fc a5 bc 4c 93 52 3d 0b d5 2e 3d a4 34 15 bd
       -0.020262191 0.051410004 0.042683642 -0.036427155
0002d0 05 d6 b2 3d 2b f0 a6 3d 49 fb 28 ba 28 b7 9f 3c
       0.08732227 0.08151277 -0.0006446136 0.019496515
0002e0 b5 b2 d0 3d 57 4d 13 3e 0c 7a 96 3d a5 5e 41 bb
       0.10190336 0.14384972 0.07347497 -0.0029505875
0002f0 05 a2 81 bd 61 15 ac 3c af bc b0 3d e6 57 03 bd
       -0.06329731 0.021006288 0.086297385 -0.03206625
000300 5b 5d f1 bc f6 9d 55 bc b5 02 b9 bd 87 5a da bc
       -0.02946346 -0.013038149 -0.090337195 -0.026654495
000310 1a 22 2f bd d3 35 f6 bd be a6 e9 3d ee 92 9e bd
       -0.04275713 -0.12021985 0.11408757 -0.07742868
000320 46 96 db 3d 1c 5d 94 3d fa ad 9b bc 8e 67 09 bd
       0.10722022 0.07244322 -0.019003857 -0.033546023
000330 41 37 08 3d e4 c0 b5 bc de c6 b0 bd 04 99 34 bd
       0.03325582 -0.022186704 -0.08631681 -0.04409124
000340 b5 0d 1e bd ac b0 9e bd 2a 82 37 bd bc 5e 52 bc
       -0.03858729 -0.07748541 -0.04480187 -0.012839969
000350 2a 19 1e 3d 5f 8f 70 3d f9 f8 d3 b9 9f 9a 16 b9
       0.038598217 0.05873048 -0.00040430555 -0.00014362716
000360 c8 86 4d bd b1 62 9d 3d bf 38 2e 3c 8f 88 9a bd
       -0.050177366 0.076848395 0.0106336465 -0.07545578
000370 4c 65 8f 3c da a4 3c bd b4 11 1a bd 04 f4 cf bd
       0.017504357 -0.046055652 -0.03761454 -0.10153964
000380 c5 52 a3 bd 63 c3 b8 3c dc 96 34 bd 43 53 a2 3b
       -0.079747714 0.022554105 -0.044089183 0.004953773
000390 f0 28 21 bd 9f d4 a4 3d 1c 43 f3 3d f8 ca f2 3d
       -0.03934568 0.08048367 0.118780345 0.118551195
0003a0 fe 9a db 3d 50 e5 13 3e 40 ad fd 3d 2b 7d 10 3d
       0.10722922 0.14442945 0.123865604 0.03527562
0003b0 77 14 9f bd f0 61 24 bd e1 96 d1 3c f3 0c f4 3d
       -0.07767575 -0.040132463 0.02558464 0.11916532
0003c0 fd 27 45 3d cb 60 01 3e 78 22 a2 3d eb 0a 1b 3e
       0.04813384 0.1263458 0.07916731 0.15140884
0003d0 3b a9 f1 3d 0f c3 7b 3d f0 cc 67 bd e7 84 20 bc
       0.11799856 0.06146532 -0.056591928 -0.009797311
0003e0 b2 f7 8c 3c ae eb f5 3d 27 4f a7 bc 29 7b d0 bd
       0.017207954 0.12007843 -0.020423485 -0.10179741
0003f0 ff d5 00 be c1 b6 0a 3d 94 64 43 3d 24 e4 c7 bd
       -0.12581633 0.033865694 0.04770334 -0.09760311

enc_layer_1.0.bias f4 [32]
000000 d3 19 23 3e 3c 99 62 3e 72 25 eb 3e 34 76 7d 3d
       0.1592782 0.22128767 0.45927006 0.061880305
000010 9e cc b7 3d a3 3f 99 be 8b 37 bb 3d 47 45 16 3e
       0.089745745 -0.29931363 0.09141453 0.14674865
000020 3e dd ad bd a1 e0 8c bd 37 ba b5 be d0 f1 85 be
       -0.08489464 -0.06878782 -0.35493633 -0.2616105
000030 09 f4 9a 3e 59 ae 96 3e 23 84 44 3e 66 8d 4f 3e
       0.3026431 0.29429892 0.19191031 0.20268783
000040 6a d8 81 3d d9 89 38 bd 54 5f d3 bc 56 bd 17 bc
       0.06340106 -0.045053337 -0.025802292 -0.00926145
000050 19 df c7 3e ae df ae 3e 57 df 0a be 06 94 8f 3e
       0.39037398 0.3415503 -0.1356176 0.2804262
000060 d6 7b 39 be 21 e3 1a 3e d3 5d 95 bd a7 e2 b6 3e
       -0.18113646 0.15125705 -0.07293286 0.35719797
000070 3d 1a 89 3e b9 af 5b 3d f9 cb ca bd 63 7e ec bd
       0.2677783 0.05363438 -0.09902186 -0.11547544

enc_layer_2.0.weight f4 [16, 32, 3, 3]
000000 ca 08 30 3d e0 b9 c5 3d 34 b7 b3 3d 87 05 55 3d
       0.042977132 0.096545935 0.087751776 0.052007224
000010 2b ae c4 3d 9e 20 84 3d 27 b6 b2 3c 93 73 00 3d
       0.096035324 0.06451534 0.021815373 0.03136022
000020 d1 ba a5 3c e3 c7 13 3d d3 ee cf 3d db 6f 96 3d
       0.020230683 0.0360793 0.10152974 0.073455535
000030 20 66 89 3d 5d 6e 7e 3d de 3f 61 3d 18 e9 8c bd
       0.06708932 0.06211697 0.05499255 -0.068803966
000040 75 ab 87 3d 4e 76 fc 3c 85 e4 9a 3d b0 25 df 3c
       0.066245 0.03081813 0.07563118 0.02723965
000050 d0 ef c5 bc 8e f5 dd 3d 42 6c d3 3d 89 51 0a bd
       -0.024162203 0.108378515 0.10323383 -0.033769164
000060 ac 61 c2 bc 8e 9c 12 3e 12 9e f0 bc 4c 62 31 3d
       -0.023728214 0.14317533 -0.029372249 0.043306634
000070 a9 4c 4b 3d 2a 62 24 3d b8 b4 7f 3d 9a 4a 6e 3d
       0.049633656 0.04013268 0.062428206 0.058176614
000080 a5 8d 73 3d 76 1e ae 3d 60 83 e5 3c 8f a8 0e 3d
       0.059461255 0.08501904 0.028016746 0.03482872
000090 76 b2 41 bd 58 31 25 be f3 d4 87 bd 35 1f 88 bc
       -0.047289334 -0.16132104 -0.06632414 -0.016616443
0000a0 b8 04 59 bd c6 eb 03 be 74 dd ac bd 0d 60 4d bd
       -0.052983016 -0.12882909 -0.08440676 -0.05014043
0000b0 6d 79 1b be 27 a4 3c 3c 5b 33 cc bd d3 31 a1 bd
       -0.15183039 0.011513746 -0.09970733 -0.07870831
0000c0 f7 86 85 bd dc 1f b8 3d a5 d4 d9 3c 68 7f 49 bd
       -0.06519883 0.08990452 0.026590655 -0.04919377
0000d0 63 62 94 3c b5 c1 dc bd b7 c7 f1 3c f1 4d 33 3d
       0.01811332 -0.10779134 0.029514177 0.043775503
0000e0 c1 c5 f7 3d e8 5b e9 bd 38 cc ee bb 33 14 2d 3d
       0.120982654 -0.11394483 -0.0072875284 0.04225559
0000f0 b6 a5 9f bd 30 53 fa bd 01 ba 0b be 35 17 a2 3c
       -0.07795279 -0.12222898 -0.13645174 0.019786457
000100 eb 7b ce 3c 07 e8 ac 3c 7a ed 5d 3c 81 5d 47 3d
       0.025205573 0.021106733 0.013545388 0.048673157
000110 a5 a9 39 bd d7 83 1d 3d 51 11 2f 3d bc a2 33 3c
       -0.0453278 0.03845581 0.042741124 0.010964092
000120 00 36 00 be 58 63 f0 bd 01 d2 ff bd c2 ce 2c be
       -0.125206 -0.11737698 -0.12491227 -0.16875747
000130 72 e4 e3 bd 96 ba 10 be 86 70 53 bd 3c cb b1 bd
       -0.11127557 -0.14133677 -0.051620983 -0.08681342
000140 e5 d6 14 be 66 66 a0 bc f3 80 5a 3d 84 ed fa bb
       -0.14535101 -0.019580077 0.05334563 -0.0076577086
000150 49 a1 b8 3b 2f 6c 7c b9 dd 07 d5 bb d5 b3 f0 3d
       0.005634461 -0.00024072894 -0.0065011815 0.1175305
000160 6a 7f 06 3e 84 4e 4a 3d d7 72 f9 bd c2 e4 85 bd
       0.13134542 0.049391285 -0.12180107 -0.06537773
000170 06 64 3d bd 81 29 27 3d 38 35 cc 3d bc 7e 05 3e
       -0.046237968 0.040811066 0.09971088 0.13036627
000180 7b 41 1e bb 34 a3 e5 3b 11 bd 69 3d 30 03 4d 3c
       -0.0024147916 0.0070079807 0.057065073 0.012512967
000190 30 8a 41 3d 97 31 99 3d 56 89 6f bc 48 bf 9c 3d
       0.047250926 0.07480162 -0.014620146 0.076536715
0001a0 37 14 2b 3c e1 87 01 3d 33 ff 8e 3d 5e 0b de 3d
       0.010441831 0.031623725 0.06982269 0.10842012
0001b0 35 56 fa 3c 73 a0 01 3d ae 71 02 3e 5e 6e dc 3d
       0.030558685 0.031647157 0.12738678 0.10763238
0001c0 40 43 23 3c 8e 6d 03 3e 26 c7 92 3c 8b ce da 3b
       0.009964764 0.1283476 0.017917227 0.006677454
0001d0 7f 70 dc bc bb 77 1b 3d 3c 10 a8 3d f8 d4 a7 3c
       -0.026909111 0.03795598 0.082062215 0.020487294
0001e0 09 2c 45 3d 29 e2 cd 3d 16 8b 75 3d d3 c1 86 3d
       0.0481377 0.10052902 0.059947096 0.06579938
0001f0 e4 68 94 bd a9 7b 3b 3d 96 3e a7 3d fd 9c 0d 3d
       -0.07246569 0.04577223 0.08166234 0.034573544
000200 4b 58 8f 3d ad 1c 69 3d ca ef 50 3d 0e 37 19 3e
       0.069992624 0.056912113 0.05100993 0.14962408
000210 14 39 7c bc 98 a7 a6 3d a8 87 d7 3d a2 2c 0b bd
       -0.015394468 0.08137435 0.10523921 -0.033978112
000220 0c 78 b1 bd ac b2 e2 bd 3d c5 a7 3a c7 92 31 bd
       -0.08665475 -0.11069235 0.001279987 -0.04335287
000230 9a 7e 74 bd 7d c3 70 3d 8d a3 9d 3c 74 fc 03 3d
       -0.05969105 0.058780182 0.019243026 0.03222318
000240 e7 a3 b9 3c 68 b3 1b 3c bf 0a 71 3c cd 97 83 bd
       0.022661163 0.009503223 0.014712035 -0.06425438
000250 b6 1c 98 3d 5b 9a 3a 3c 67 eb 83 bc c8 81 44 bc
       0.07427351 0.01138934 -0.01610346 -0.011993833
000260 67 6a 12 bc 91 86 a4 3c 5c a4 8b 3d 84 04 24 3e
       -0.008936501 0.020083698 0.068184584 0.16017348
000270 ab 43 88 bd ed 9a a2 3d 71 18 6a 3d 50 e0 57 bd
       -0.06653532 0.07939706 0.057152215 -0.052704155
000280 61 48 45 3c 0f e5 65 3d 8e ca 30 3d 70 15 89 bc
       0.012041182 0.05612665 0.04316192 -0.016733855
000290 f9 45 41 3d d6 c6 21 3e 8e 64 dc bd 78 6c 37 bd
       0.04718587 0.15798506 -0.10761367 -0.04478118
0002a0 94 29 3b 3d b9 d3 89 3c c4 45 ee bb 15 9f 09 bd
       0.04569395 0.01682459 -0.0072715003 -0.033598978
0002b0 0f b1 9d bb 0b 2f a3 bd a0 e5 2d bd c6 c9 45 3d
       -0.004812367 -0.07967957 -0.042455316 0.04828813
0002c0 da 94 f3 3c 0a cb 1d 3d d1 e5 2c 3d 8e d6 90 bc
       0.029734064 0.03852371 0.042211358 -0.017680433
0002d0 b4 76 29 3e 85 1b fb 3d 51 23 82 3d a8 74 16 3e
       0.16549188 0.12261108 0.06354392 0.14692938
0002e0 16 fe 9e 3c 8b 25 31 3d 44 75 1f 3d 27 40 d6 3d
       0.019408267 0.043248694 0.038930193 0.10461455
0002f0 f5 c6 cc 3d 02 4e bb 3d 85 c8 a3 bc 56 03 a8 3c
       0.099988855 0.09145738 -0.019993076 0.020509403
000300 d2 cc 94 3d 9d 15 88 3d f5 41 ee 3d 91 7a 37 3d
       0.07265629 0.066447474 0.11633674 0.044794623
000310 f2 5b 08 bc 5e 6e 36 3b e2 eb 6a 3d c3 18 7b 3d
       -0.008322703 0.002783678 0.05735386 0.06130291
000320 cb 40 45 bc dd 05 6a 3d 79 2b c9 3d 9e e5 a7 bc
       -0.012039374 0.057134498 0.09822745 -0.020495232
000330 9a e0 0e 3d d0 f0 12 3d e6 03 b8 3c f7 f8 96 3a
       0.034882165 0.035874188 0.022462796 0.0011518289
000340 5c 79 bc 3c b8 ca 4b 3d ff a4 ea 3d bc 31 ed 3d
       0.023007087 0.049753875 0.11457252 0.11581752
000350 36 fb 93 3d f8 4e e5 bc e8 a0 d4 bb f7 ea 8a 3d
       0.07225649 -0.027991757 -0.006488908 0.06783097
000360 c9 42 a5 bb 8a c6 59 bd 18 eb b2 bc 1d 18 41 3d
       -0.005043362 -0.053167857 -0.021840617 0.047142137
000370 ae d9 e6 3d bc b3 c5 3d 2d a0 42 3d f5 f7 20 3e
       0.11271988 0.09653422 0.047516037 0.15719588
000380 6a b7 dc bc 48 23 18 3d 9d e7 6c 3d 28 54 a1 bb
       -0.026942927 0.03714302 0.05783807 -0.0049233623
000390 d7 f4 af 3c 59 e9 f5 3d a8 65 5e bc 51 2c 7d 3d
       0.021479053 0.12007398 -0.013574041 0.06180984
0003a0 6f b5 7f 3d 92 05 f7 3c 3c 3d 82 3d 9e a8 89 bc
       0.062428888 0.030154023 0.06359336 -0.016804036
0003b0 00 31 31 bd 61 00 d3 bc 5d 10 6c 3d c1 72 82 bd
       -0.04325962 -0.025757017 0.057632793 -0.06369544
0003c0 f2 bd 4e 3d 86 c5 5a 3d 9b 59 10 3d 49 ec dd 3d
       0.050474115 0.05341103 0.035241704 0.108360834
0003d0 61 33 00 bd b6 e7 62 3c 6d 31 97 3b 66 6a 3c 3d
       -0.031299 0.0138491895 0.0046140463 0.045999907
0003e0 64 8b 73 3d 6f 61 35 3d 4c ad 7f 3d 3e 90 0c bc
       0.059459105 0.044282373 0.06242113 -0.008579312
0003f0 c6 ba d0 bb 7e 36 b6 3d 8f 3e c7 bc ac e1 c0 bb
       -0.0063699214 0.08897112 -0.024321822 -0.005886277

enc_layer_2.0.bias f4 [16]
000000 25 c9 84 3d a5 84 2d 3d 0d 98 5b 3d 65 73 89 3d
       0.06483678 0.042362828 0.053611804 0.06711463
000010 d9 ee 65 bd 9d 33 c3 3d 9f 72 ef 3c 4c 59 a6 3c
       -0.056135986 0.09531329 0.02922946 0.020306252
000020 7b 79 82 3d 01 af 53 3c 98 c6 1f 3e cf b6 27 3d
       0.06370827 0.012920142 0.15603101 0.040945824
000030 7f 33 3b bd ff fb 37 3d 11 86 5c bb ce f2 e7 3d
       -0.045703407 0.044918057 -0.0033649246 0.11325608

large_attention.to_qkv.weight f4 [768, 16, 1, 1]
000000 19 a6 83 bd c7 11 c0 bd dd 5d 48 be bd 30 59 be
       -0.06428165 -0.09378391 -0.19567056 -0.21209998
000010 20 74 b4 bd bb 09 1d 3e 7f ed 43 3d 32 f6 43 bc
       -0.088112116 0.15335743 0.047833916 -0.011960553
000020 31 39 3e 3e 47 c6 47 3d fd ff 72 be ea 38 80 3e
       0.18576504 0.048773076 -0.23730464 0.25043422
000030 fa 66 29 bc a5 17 09 3e 5b 3a bb 3e f6 13 81 3d
       -0.010339493 0.13387926 0.3656796 0.06302635
000040 28 df 0d be 5c d8 51 3b a5 7c 41 be 94 86 fd 3d
       -0.13854659 0.003201983 -0.18895204 0.12379184
000050 af 2b 1c 3e f2 ff bb 3d ad 4a 51 3e f9 15 71 be
       0.15251039 0.09179677 0.20438643 -0.23543538
000060 ec b7 7a bd 95 8b b5 bd e3 47 29 be 76 35 74 3d
       -0.061210558 -0.08864514 -0.16531329 0.059621297
000070 91 eb 49 3c d2 39 5f be 6d 83 94 3e 12 89 c3 3d
       0.01232423 -0.217994 0.2900652 0.095476285
000080 80 d2 08 be b3 8c 69 3e c8 14 1b bc 47 bb c6 3d
       -0.1336155 0.22807579 -0.009465404 0.09703689
000090 56 31 f2 3c 7c 83 11 3e bf 28 a3 3e e1 a3 4c be
       0.02956454 0.14210314 0.31867024 -0.1998439
0000a0 cd 0d d5 3d 48 cb e0 3d 9d c0 32 3e 10 a0 e8 3c
       0.10403023 0.10976273 0.17456289 0.028396636
0000b0 4e d2 54 be 7d 37 87 3c a8 a4 6c 3e 04 66 e1 3d
       -0.2078335 0.016505951 0.23109686 0.11005786
0000c0 43 97 2d be 33 5f 6f be 15 b6 22 3e bc 31 c4 3d
       -0.16952233 -0.2337616 0.15889771 0.095797986
0000d0 40 a5 e4 3d b4 12 30 3e 4a 62 b3 bd 2e 25 ed bd
       0.111643314 0.17194635 -0.087589815 -0.11579357
0000e0 a5 0e 25 3e a8 c4 e5 3c 24 f6 6c be 01 45 eb bd
       0.16118868 0.028047875 -0.2314077 -0.11487771
0000f0 21 fe 77 3d 0d 00 31 be 33 38 d6 3d 0f 02 24 bc
       0.06054509 -0.17285176 0.10459938 -0.010010256
000100 98 e8 6c be 83 ca b2 bd 0a 6b 13 be 8c 6d 5b 3e
       -0.23135602 -0.08730032 -0.14396301 0.21428508
000110 3a cb 89 bb 91 1c d0 3c 03 63 66 3e 50 f8 60 be
       -0.0042051347 0.025404247 0.22498707 -0.21969724
000120 67 8e 74 be 6a 4a ab 3d a6 b4 57 3e 11 91 c8 bc
       -0.23882447 0.08363803 0.21065006 -0.024483236
000130 5e 35 36 be 70 de 71 be 64 bc 9c 3d e5 d4 8f be
       -0.17793795 -0.2362001 0.0765312 -0.28092113
000140 55 cc 7f bd 6b 98 20 bd 32 56 ee bd 88 72 25 be
       -0.062450726 -0.039207857 -0.11637534 -0.16156971
000150 8a 6a cd bd 8c f0 9f 3d 75 e6 79 3e 9b 2e 79 3e
       -0.10030086 0.078095526 0.24404319 0.24334185
000160 42 65 33 be 5c ab c1 3b 0d 00 8f 3d 08 07 2a 3e
       -0.17519096 0.00591032 0.069824316 0.16604245
000170 10 bf 4b bc 6b 85 38 be b1 1a e0 3d 78 86 d6 3d
       -0.01243569 -0.18019645 0.10942591 0.10474867
000180 ba f0 d7 bd dd ba 40 bc 6d c9 33 be 52 99 a2 bd
       -0.10543962 -0.011763302 -0.17557307 -0.079394
000190 f5 b4 59 bd 65 68 8a 3e d5 8b bf 3c f3 22 24 3e
       -0.05315109 0.27032772 0.023382107 0.16028957
0001a0 e3 dc 64 be 2b 0c 7f 3d 9d a6 ea 3c c3 af b2 bd
       -0.22349887 0.062267464 0.0286439 -0.0872493
0001b0 07 c1 02 3e 3f 49 35 bd ab 98 31 bc 2e 53 22 3e
       0.12768947 -0.044259306 -0.010839622 0.15852043
0001c0 33 39 cc bd d7 e0 89 3c f5 c6 33 3e 5e 0f d7 bd
       -0.099718474 0.016830845 0.17556365 -0.10500978
0001d0 17 58 33 3e 2a 1b 2a bd 99 1a 7d bc d4 ed d3 3c
       0.17514072 -0.041529812 -0.015448236 0.025870241
0001e0 2b 89 1d 3e e6 20 89 3d 82 0d b6 3d e0 42 76 3e
       0.15384357 0.06695728 0.08889295 0.24048948
0001f0 46 5d 0d be dd 22 1c bd c7 e9 10 3d c9 6e 20 be
       -0.13805112 -0.038119186 0.035379197 -0.15667261
000200 64 b1 89 3d ec 79 d6 3d 62 b1 7d 3d 88 10 0a bd
       0.06723288 0.104724735 0.061936744 -0.03370717
000210 a8 a9 fb bd 6f d7 86 3e 96 65 77 3a 36 b7 40 be
       -0.12288219 0.26336238 0.000943744 -0.1881989
000220 3c 83 02 be da c1 67 3e 89 b9 34 3e 3f c2 9c 3d
       -0.12745374 0.22632542 0.17648901 0.07654237
000230 1d 73 b6 bc 47 92 71 be e6 a7 70 bd 62 a8 35 be
       -0.022271687 -0.23590957 -0.05875387 -0.17740014
000240 87 e2 cf 3c 65 8a 64 be 41 b3 2f 3e 0d 2f 50 be
       0.025376571 -0.22318418 0.17158224 -0.20330448
000250 67 e7 b8 bd 78 9e 71 3d bb fa 09 3d d8 b1 c2 3d
       -0.090285115 0.05898902 0.03368638 0.09506577
000260 14 26 fa 3c 93 75 3a 3e 0b da a8 bd 78 01 24 3e
       0.030535735 0.18208914 -0.082447134 0.16016185
000270 b2 e2 9c 3d e0 ff 85 3d 29 58 de 3c ab 4e 35 3e
       0.07660426 0.06542945 0.027141647 0.1770579
000280 65 33 28 be 2e d8 7a be 03 3d 31 be 1c 40 3f 3e
       -0.16425855 -0.24496529 -0.1730843 0.186768
000290 38 f3 36 be b0 f0 08 be 3b 77 c6 3d 7d 9e 6a be
       -0.17866218 -0.13373065 0.0969071 -0.22912021
0002a0 29 c7 89 bd 5c 5b 89 bd d6 50 44 bd 34 35 3a be
       -0.0672744 -0.067068785 -0.047928654 -0.18184358
0002b0 94 cc 40 3e 39 f8 46 3d 49 f2 24 3c 77 10 1c be
       0.1882804 0.048576567 0.010067531 -0.15240656
0002c0 f4 53 30 bc 3f 6e a1 bd b0 d0 12 be 94 5f d6 3d
       -0.0107622035 -0.07882356 -0.1433742 0.10467449
0002d0 df c6 30 3d d3 80 b5 3c 12 e1 11 3d 93 e9 49 be
       0.04315841 0.022156155 0.035615034 -0.19718008
0002e0 e6 e6 fe 3d d7 60 91 3d 39 ad a5 3d a7 ee 3c 3e
       0.12446384 0.07098549 0.0808968 0.18450414
0002f0 13 d3 16 bc d0 bf 0a 3e 9c e4 1f 3e f4 ad cc bd
       -0.009205597 0.13549733 0.15614551 -0.099941164
000300 7a b7 58 be 76 16 71 be 0c 40 27 3d b2 45 ee bc
       -0.21163741 -0.23543724 0.040832564 -0.029085968
000310 13 6b 28 be 16 28 e6 3d 39 67 17 3e e5 60 4d bd
       -0.16447096 0.112381145 0.1478547 -0.050141234
000320 2d 86 52 3e 0b c1 bb bc 2e 49 39 be fa 28 11 be
       0.20558996 -0.022919198 -0.18094322 -0.14175788
000330 81 96 c7 3c 70 0f 68 bd 7a a1 76 3e 7a d9 8c be
       0.024363758 -0.056655347 0.24085036 -0.2750967
000340 fe f6 a7 bd de 0a 54 3e 16 46 22 3d 0c 39 02 bc
       -0.08201407 0.2070727 0.03961762 -0.007948171
000350 69 a1 14 3e bc 4d 3b bb 7b 32 38 3e b0 11 8f bd
       0.14514698 -0.002858027 0.17988007 -0.069857955
000360 e4 92 6e be e1 db b5 3d 63 f4 da bd b9 a2 74 be
       -0.23298222 0.08879829 -0.10691144 -0.23890199
000370 fe 59 24 3e a8 31 33 bb f4 3c 80 3e 66 b9 66 be
       0.16049954 -0.002734283 0.25046504 -0.22531661
000380 d4 e4 d3 3c 89 b8 6c 3e c9 9f 0a bd ab 2f 28 be
       0.02586595 0.2311727 -0.03384379 -0.16424434
000390 cd 45 71 3e c6 56 95 3d f4 af 76 3e 70 13 3a 3c
       0.23561783 0.07291941 0.24090558 0.011357173
0003a0 0a ce d6 3c 4e 6f 23 3e 54 ae f9 3d 6e 8e a9 3d
       0.026221294 0.15960428 0.121914536 0.082791194
0003b0 76 58 c9 3d 29 7d 7a be 44 01 5c 3e 54 61 42 be
       0.09831326 -0.24461807 0.21484858 -0.1898244
0003c0 85 63 f9 bc 70 28 28 be fd cf 66 3d d9 de 28 3e
       -0.030442962 -0.16421676 0.056350697 0.1649126
0003d0 ba 71 09 3e b6 d4 c6 3d 86 98 54 3e 84 b3 2d 3e
       0.1342229 0.0970854 0.20761308 0.16963011
0003e0 8a b7 4b be ba ca ed 3d c9 95 1a 3e f2 ff f0 bd
       -0.19894233 0.11610933 0.15096201 -0.11767568
0003f0 f9 8c 6a 3e 2a 85 31 be e9 f2 1a 3d 3d c7 ed 3d
       0.2290534 -0.17335954 0.037829313 0.11610267

large_attention.to_out.weight f4 [16, 256, 1, 1]
000000 bd d7 3b 3d 04 7f 34 3d 83 7c 64 be 9c bb a0 3d
       0.04586004 0.044066444 -0.22313122 0.07848284
000010 ea 5f b2 3d 00 5f a7 bd 3f 1a 21 3d f2 ae 18 bd
       0.087097004 -0.08172417 0.03933167 -0.037276216
000020 43 34 4d bd 6e 20 cc 3d b6 ac 23 3d dd 72 7e 3d
       -0.05009867 0.09967123 0.03995963 0.06212126
000030 25 ce fe 3c ca f5 2f bc bb c0 ea bc 04 2e 77 bd
       0.031104157 -0.010739753 -0.028656354 -0.06034662
000040 45 2f 41 3d 01 1c 01 3e 83 74 c0 bd 5e 48 04 be
       0.04716422 0.12608339 -0.09397223 -0.12918231
000050 44 45 32 3b d9 9d 6a 3c 0e bc 1c 3d 81 b9 19 ba
       0.002720193 0.01431986 0.03826528 -0.0005864129
000060 65 ae 26 3d 13 9f 9a 3d 13 f0 81 bd 92 69 d8 3c
       0.04069366 0.07549872 -0.06344619 0.026417527
000070 52 06 da 3c 71 16 8c bd a3 8b e1 3d ac 51 4a 3e
       0.026614342 -0.06840218 0.11012962 0.19757718
000080 16 62 ba 3d b8 70 ae 3d 57 70 11 3e 1d 6d 08 3c
       0.0910074 0.08517593 0.1420301 0.008326796
000090 54 65 0a 3e b0 7e 8e bd 87 48 0f be e0 10 c2 3c
       0.13515216 -0.069577575 -0.1399251 0.023689687
0000a0 53 5e ff 3b 67 21 e3 bb 23 c7 98 bd d6 1c c9 bd
       0.0077932267 -0.006931472 -0.07459857 -0.09819953
0000b0 9b 08 d0 bd 93 65 59 bd 61 cd cd bc 58 5f 5d 3d
       -0.10157891 -0.053075384 -0.025122346 0.054046005
0000c0 11 4e 0d bd 5a 0c 90 3d 00 e6 78 3d 06 d0 2a bd
       -0.034498278 0.07033606 0.06076622 -0.041702293
0000d0 22 93 88 3d f0 51 e1 3c 8c df 11 3c 0f 90 a4 bd
       0.06668688 0.027504891 0.008903395 -0.080352895
0000e0 cc 77 ff bd de 21 47 bc 51 fa 71 3c d2 d7 a5 3d
       -0.12474021 -0.012154071 0.014769153 0.08097805
0000f0 fc eb 54 bd 24 ef c3 bd 90 e3 b5 3c 26 42 99 bd
       -0.051982865 -0.09567097 0.022203237 -0.0748332
000100 10 ea ad 3d d8 8b f0 bd d8 de 83 3d d2 da 25 3d
       0.084919095 -0.11745423 0.064389884 0.040491886
000110 aa 0d e8 bd ba 18 c5 3d 1e c3 aa bc 6c d5 98 bd
       -0.11330731 0.09623857 -0.020844992 -0.07462582
000120 23 12 7c bd 56 2c a1 bc e9 32 cf bd f5 75 04 3d
       -0.061540734 -0.019674461 -0.10117132 0.032339055
000130 6e 0a c8 bd 5e 6a 06 3e c6 eb fc bd d3 e3 01 3e
       -0.09767614 0.13126513 -0.12349658 0.12684564
000140 85 8f dc 3d f1 d0 12 bd 7c 9f b4 3d e5 ab e5 bd
       0.10769562 -0.035843793 0.08819482 -0.11214427
000150 2d 49 4a bd 98 c0 bd 3c 75 3c df bd 00 ac 97 bd
       -0.049386192 0.023163125 -0.10900203 -0.07405853
000160 7b e9 ce 3d e3 56 f9 bd c9 da 06 3e 8b c7 05 3e
       0.101031266 -0.121747755 0.13169397 0.13064401
000170 5c 53 c1 3d fe 00 98 3c 43 61 ca 3d ae c2 01 3e
       0.09439728 0.01855516 0.098818325 0.1267192
000180 6f 72 1b 3d 2f 51 25 be a9 63 62 bd a5 96 47 bc
       0.03795093 -0.1614425 -0.055270825 -0.012181913
000190 d5 fa 0a 3c 47 76 f0 bd 15 f2 c9 3c ba 68 7a 3c
       0.008482655 -0.117413096 0.024651567 0.015283758
0001a0 db 90 8f 3d a8 c7 3c 3d 9e 58 29 3d a3 05 ad 3b
       0.07010051 0.046088845 0.041344278 0.005280213
0001b0 b7 f8 ab bd 97 a4 98 bb e4 17 5c 3d f8 13 05 bc
       -0.08397048 -0.0046582925 0.05373372 -0.008122437
0001c0 ae 1d bd 3d f9 61 1b bd e0 5b a1 3d b7 8c b8 bd
       0.092341766 -0.03793523 0.07878852 -0.09011214
0001d0 4d 6e 81 bd a1 f9 ae 3c 70 92 f3 3d 61 77 1e be
       -0.06319866 0.021359267 0.11893165 -0.15475227
0001e0 20 fe 5b 3c b7 fb 0e bd 4b b3 9c bd 95 f3 06 bd
       0.013427287 -0.034908023 -0.07651385 -0.03294714
0001f0 fd c9 86 bd cc 56 f0 3b 78 08 50 bd ed 6e 4d bc
       -0.06581495 0.0073345657 -0.050789326 -0.012538654
000200 c8 30 a7 3d 0a 64 f7 bd d6 a3 3d 3d 2a 28 d3 3d
       0.08163601 -0.12079628 0.046298824 0.10310395
000210 b1 17 89 bd f4 cf 1e 3d 5f 23 fb bd 83 a8 20 3d
       -0.06693972 0.03877254 -0.12262606 0.039223205
000220 87 57 b2 bc d8 16 0c bc c8 46 83 3d 88 63 4a bc
       -0.021770252 -0.008550368 0.06409985 -0.012352832
000230 3e ee 59 bc 03 07 cf bd fb 3d 73 bd 8e 02 01 be
       -0.01330143 -0.10108759 -0.05938528 -0.12598631
000240 16 3c ac bc 3c d7 63 bb bf b5 8a 3d 7e e8 52 bc
       -0.021024745 -0.003476574 0.067729466 -0.012872813
000250 ec 93 ba 3c b1 cb 17 bb 81 63 86 bd 88 0c 80 bd
       0.022775613 -0.002316218 -0.065619476 -0.0625239
000260 06 36 12 bc 5c 31 8f 3d fc bf 2d 3d 1a 93 7a 3d
       -0.008924013 0.069918364 0.04241942 0.061175443
000270 cc 22 c1 bd 46 7b e6 bc d3 5c 50 3d 63 aa f8 bc
       -0.09430465 -0.028134953 0.050869774 -0.030354684
000280 cb 6e b5 3d b6 f6 2f 3d aa da 36 bc 04 f2 2c bb
       0.08859023 0.04295989 -0.011160532 -0.002638937
000290 db f9 96 bb 19 58 34 3c 48 80 86 bd ea b8 37 3d
       -0.004607422 0.011007332 -0.065674365 0.044854082
0002a0 dd 89 81 3d 53 dc 05 3c aa 31 bc 3c 77 b3 2f 3c
       0.063251235 0.008170205 0.0229729 0.01072394
0002b0 18 43 e1 3b d0 34 29 bd c5 90 79 bd ec 6c 97 bd
       0.0068744533 -0.04131013 -0.06092908 -0.07393822
0002c0 d5 9e bb bd 02 3d ae bb 9c be 21 bd 43 98 44 3d
       -0.09161154 -0.0053173313 -0.03948842 0.04799677
0002d0 55 8d 57 bc 7b c3 3c bd 05 6b 8a bc 10 50 33 bd
       -0.013156255 -0.046084862 -0.016896734 -0.043777525
0002e0 42 fc 1c 3d 23 7c 3e bd 6c d9 13 bc b9 0b a0 bc
       0.03832651 -0.046505105 -0.009024005 -0.01953684
0002f0 d1 e9 8b bc 17 b2 1c 3d 77 46 fc bb 8e 26 89 bd
       -0.017079266 0.038255777 -0.0076988298 -0.06696807
000300 d5 4a 5f bd 78 26 1b bd 21 a1 6e bd 6e 01 02 bd
       -0.054514725 -0.037878484 -0.058259133 -0.031739645
000310 f9 b0 c4 38 03 a5 d6 3c fd 29 07 bd a7 6e 2d 3c
       9.378972e-05 0.02620173 -0.032999028 0.010585464
000320 eb 78 26 bd 4c 12 85 bd 78 44 43 3d 3b fc cb bd
       -0.04064266 -0.064976305 0.04767272 -0.099602185
000330 75 e8 53 bd 78 9d 26 bc f3 49 72 3d 4d 0a 91 bd
       -0.05173536 -0.010169379 0.059152555 -0.07082043
000340 03 43 76 bd 8d 63 17 3d 9c ee ab 3c 79 f0 9d bc
       -0.0601225 0.036960173 0.020987801 -0.019279705
000350 40 a1 4c 3d 5a 14 15 bd 32 36 4b bd 4d db 58 bb
       0.049958467 -0.036396362 -0.04961223 -0.0033089698
000360 b3 59 93 bd 34 11 bf 3c a9 28 f4 3a c1 84 1a 3d
       -0.07194843 0.023323633 0.001862784 0.03772426
000370 75 37 7a bd 2b 64 4e bd 13 ba 1b bd b9 c8 b6 bd
       -0.061088044 -0.050388496 -0.03801925 -0.089250036
000380 e1 76 b2 3d 28 9b 49 be 37 7f 33 bd 91 c1 23 bd
       0.087140806 -0.19688094 -0.043822493 -0.03997952
000390 72 34 35 3d b6 d3 de 3c 37 f1 f2 bc 1b 70 50 bd
       0.04423947 0.027200561 -0.029656036 -0.050888162
0003a0 d9 64 40 3d be 01 06 3d bb 60 17 bd 1a 9e 03 3d
       0.046971176 0.032716505 -0.036957484 0.0321332
0003b0 64 6e a2 bd 59 ca 25 3d 25 e0 e7 bd 8d cf 64 3d
       -0.079312116 0.040476177 -0.11322049 0.055862
0003c0 2a ca 14 be a6 24 d7 bd 8e a4 27 3d 18 a1 62 3d
       -0.14530244 -0.10505037 0.040928416 0.055329412
0003d0 ee 4d 8d bd 7b f7 22 be 6c 09 6c bc 8d 7c 48 3b
       -0.068996295 -0.15914719 -0.014406543 0.0030591816
0003e0 ac 53 b0 3d b3 d0 3e bd 65 1d 31 bd 85 7c 3e bb
       0.08609709 -0.04658575 -0.043240923 -0.0029065919
0003f0 00 e3 05 3d ea 36 55 3b 70 89 97 3d 68 94 86 3c
       0.032687187 0.0032533952 0.07399261 0.016428187

large_attention.to_out.bias f4 [16]
000000 2a a3 87 bd c7 c7 80 3d 5c 39 fb 3d b3 cf 99 3c
       -0.06622918 0.062881045 0.122668 0.018775797
000010 28 ec f8 bc 07 43 b7 bd ef 98 ca 3d 23 c3 45 bd
       -0.030386046 -0.08948331 0.09892451 -0.0482818
000020 d8 18 20 3e 2b 4e 03 3d 44 69 10 3e 76 c4 ad 3d
       0.15634477 0.03205697 0.14102656 0.084847376
000030 1c 49 01 3d b6 95 90 3d a1 e5 9f bd 01 a8 97 3d
       0.031563863 0.07059805 -0.0780747 0.07405091

enc_layer_large.0.weight f4 [4, 16, 3, 3]
000000 6f de 74 bd ec 85 d0 bd c3 36 db bd 75 75 82 bc
       -0.05978244 -0.101817936 -0.10703804 -0.015925149
000010 05 41 1a bc 24 46 78 bc 81 94 01 bd 77 a5 e7 3c
       -0.009414916 -0.015153442 -0.031635765 0.028277142
000020 9c c8 2d bd 82 a7 22 3d a9 1c 93 bc f6 99 5e 3c
       -0.042427644 0.03971053 -0.017958002 0.013586512
000030 d4 30 56 3d f8 9d 9a 3c 77 12 0c bb 10 ea e4 3c
       0.05229266 0.018874153 -0.002137331 0.027943641
000040 f6 bd e3 3b 89 40 26 3c 0d d5 18 3d 34 16 be bc
       0.0069501353 0.010147222 0.037312556 -0.023203947
000050 f9 24 a5 bd 16 82 3e 3d 3e f3 1f be f9 4d 6e 3c
       -0.080636926 0.04651078 -0.15620133 0.014544957
000060 c1 b8 88 3b fa 4e f2 3c ed d3 7e 3b 70 75 84 bd
       0.004172415 0.029578675 0.0038883642 -0.06467712
000070 ae 30 51 3d 12 3c ec 3c cc 97 0b 3d 47 f2 02 be
       0.051071815 0.028837238 0.03408031 -0.12787734
000080 c1 47 bb bd 7e 6e ad bd 76 58 a6 bd 19 45 33 3d
       -0.09144545 -0.0846834 -0.08122341 0.04376707
000090 4d 62 a0 3c 27 89 d6 bc 26 fb ed 3d a1 ae bc bc
       0.019578123 -0.026188446 0.116201684 -0.023032488
0000a0 cd e4 72 3d 30 c8 7a 3d 3f 2f b7 bc 2a 36 0b be
       0.059300233 0.06122607 -0.022361396 -0.1359488
0000b0 7d d0 0c bd 43 0a a7 3b 47 16 ac bb 7d ab 9e 3c
       -0.034378517 0.005097659 -0.005251679 0.019368881
0000c0 d6 d1 20 bd a9 2e 66 be 50 f1 e1 3d 62 cd 11 bb
       -0.039262615 -0.22478737 0.11032355 -0.0022247662
0000d0 48 f9 eb bd 18 90 3e bd 90 22 97 bc b3 27 4a bd
       -0.11522156 -0.046524137 -0.018449098 -0.049354266
0000e0 5f ef 38 be ad d7 64 bc 74 8b 9c bd 23 00 da b9
       -0.18060063 -0.013967437 -0.07643786 -0.00041580302
0000f0 f9 d5 34 3d af 95 a1 3d 2e c9 63 3d 7a a8 97 bd
       0.044149373 0.07889878 0.05561178 -0.07405181
000100 e4 0b e0 3d 70 30 bb 3d 08 cf c2 3c 19 c7 20 3e
       0.10939768 0.09140098 0.02378036 0.1570095
000110 0d e6 a7 3d 69 73 33 3d 9e 36 45 bc 5c 6f 04 3d
       0.081981756 0.043811236 -0.0120369475 0.032332763
000120 a5 30 3e bd 86 56 dd 3d a8 a3 23 3d 7a ca 58 bd
       -0.04643311 0.10807519 0.039950997 -0.05292747
000130 e4 ac 7c 3d ca ec 4f 3d 0a fc 15 3d 99 ce 82 3d
       0.06168832 0.05076293 0.036617316 0.063870616
000140 35 aa 07 bd db 1f b3 3b 4b 22 2c 3d 50 6f db 3c
       -0.033121306 0.005466444 0.04202489 0.026786476
000150 1f df dd bd 54 a6 fd 3d f4 d4 50 bd 4b 1f 58 bd
       -0.108335726 0.1238524 -0.050984338 -0.05276422
000160 ae e5 30 bc 2f 5d ac bd 65 d1 59 bd b7 5c 4d 3d
       -0.010796947 -0.08416211 -0.05317821 0.050137248
000170 8a af 62 3d 28 f1 08 3d b8 f5 b1 3d e2 3e 51 bd
       0.05534319 0.03343311 0.08689445 -0.05108536
000180 17 4a 8c bd f0 40 e9 3c 53 dc d5 bd 10 33 a9 bc
       -0.06850069 0.028473347 -0.10442414 -0.020654231
000190 a3 9a b6 3c 6e b9 04 bc 54 cb ec bc f8 37 1b be
       0.022290533 -0.0081008505 -0.028905548 -0.15158069
0001a0 6d 8a 53 bd 09 78 8d 3d b6 9e 27 3e 2f 93 db 3d
       -0.051645685 0.069076605 0.16369137 0.107214324
0001b0 18 d4 78 3d 78 fd c6 3d 8b 36 40 3d c2 c4 b9 3c
       0.060749143 0.09716314 0.046927016 0.02267683
0001c0 e9 ec 7e 3d 7f 7b 52 3d b5 80 11 3d 15 84 38 3c
       0.062237654 0.051387306 0.035523135 0.01126196
0001d0 8c 7e 1b 3e 37 fa fe 3c e9 3a d5 3c 65 50 9b 3c
       0.15184993 0.031125171 0.026029067 0.018959234
0001e0 42 2b bb bd 63 3e f8 bd fe 8a 94 bd db 13 e0 bc
       -0.0913911 -0.12121274 -0.07253073 -0.027353218
0001f0 e5 41 e3 bc 79 a4 33 bd 46 5b 75 bd 99 17 ec 3d
       -0.027741382 -0.043858025 -0.0599015 0.115279384
000200 35 f1 87 bd fa 42 1f 3e 86 72 83 3d 17 3f 2c 3e
       -0.066378035 0.15552893 0.06418328 0.16820942
000210 7f 50 ae bd 02 34 a5 3c 27 6c 86 bd 72 2e 42 bd
       -0.08511447 0.0201664 -0.06563597 -0.047407575
000220 46 79 c7 bc 3d 26 b6 bb 36 69 86 bd 09 66 6f bd
       -0.02434982 -0.0055587576 -0.06563036 -0.058446918
000230 30 2e 27 3d 94 c8 99 3b 50 cc 35 bc 26 02 d7 3c
       0.040815532 0.0046931 -0.011096075 0.026246142
000240 44 43 29 3d 8f 18 c4 3c cb d0 26 3d b8 5e 0a 3e
       0.041323915 0.023937492 0.040726464 0.13512695
000250 78 a3 25 3e 76 66 37 3d 45 98 35 bc 37 4b bb 3d
       0.1617564 0.04477545 -0.011083667 0.091452055
000260 ad ba 25 bc 2a 05 85 3d 5b 02 bb bb 56 37 d5 3c
       -0.010115308 0.064951256 -0.005707068 0.026027363
000270 d9 d1 f5 bd ab 45 67 bd 2b 77 85 bb a7 ed 96 bd
       -0.12002916 -0.056462925 -0.004073044 -0.07369547
000280 64 8f e9 3d c4 75 3c 3b f7 36 0a bd bb 5e 09 bc
       0.11404303 0.0028756717 -0.033743825 -0.008384402
000290 d6 b8 52 ba 9d b0 32 3d 35 e3 8c bd 2a e2 6e bd
       -0.0008038407 0.043625463 -0.06879274 -0.058321156
0002a0 06 23 88 bd 7b 99 a9 bb 30 63 00 be 01 de dd 3c
       -0.06647305 -0.005175767 -0.12537837 0.027083399
0002b0 37 c8 22 bd c1 da 70 3d 32 82 07 3d b7 ae 20 be
       -0.03974172 0.05880237 0.03308315 -0.15691648
0002c0 30 f3 1d 3c 05 e0 09 3e 24 9c 3b be 6e 51 85 3d
       0.0096405 0.13464363 -0.18321282 0.06509672
0002d0 25 ff 1f 3b a1 42 b2 bb e4 1a 90 3d dc ad 88 3c
       0.0024413553 -0.0054400717 0.07036379 0.016684465
0002e0 c4 ad 23 3e 18 c8 7e 3c 09 5b ae bc 75 f5 5e 3e
       0.15984255 0.015550636 -0.021283643 0.21773322
0002f0 9b 00 bc bc 9f 0c 40 3c 80 8c b6 bc 68 c4 2d 3d
       -0.022949507 0.011721759 -0.022283792 0.042423636
000300 18 ed 25 bc 7d 04 01 3e f2 e5 f2 3d 28 9a 1b 3e
       -0.010127328 0.12599368 0.11860265 0.15195525
000310 e9 25 64 3d 60 9c 76 3c 16 41 dc 3c 51 b0 75 bd
       0.055700216 0.015051931 0.026886504 -0.0599826
000320 9c a7 9d 3c 5d bd d6 3c bc c2 f8 bd 62 23 cb b9
       0.019244961 0.026213342 -0.12146518 -0.0003874554
000330 c0 98 19 be a3 df 2a bd 5d ad 5f bc 85 17 ca 3d
       -0.14999676 -0.041717183 -0.013652173 0.09867767
000340 6c b6 80 3d 6a 9a b0 3d b6 45 a0 3d 62 4d e1 3d
       0.06284794 0.08623202 0.07825796 0.11001088
000350 29 7c 53 bc 6c bd b7 3d 21 28 86 3d 1b a7 ae 3c
       -0.01290802 0.08971676 0.06550623 0.021319916
000360 b5 97 1a 39 c4 c2 27 3b b3 81 95 3c c6 d6 65 bd
       0.000147431 0.0025598267 0.018250322 -0.056113027
000370 21 d8 9d bc 08 84 93 3d 2b 84 48 be f7 15 ac 3b
       -0.019268097 0.07202917 -0.19581668 0.005251642
000380 7d 4b 67 bd fa 9d 85 bc 58 8d 18 3d 5d f9 76 bb
       -0.056468476 -0.01631068 0.03724417 -0.0037685253
000390 36 23 5a bd 8c fe b4 bc e6 d6 5f 3c 26 f8 5b bc
       -0.053256236 -0.022094034 0.013662076 -0.013425862
0003a0 2b d9 9a 3d 03 32 06 3c a1 ae 78 3d c4 35 b9 bd
       0.07560953 0.008190635 0.060713414 -0.09043458
0003b0 6a d7 45 bc 88 a9 e2 bd 24 31 e9 bd 61 84 34 bd
       -0.0120752845 -0.11067492 -0.11386326 -0.04407156
0003c0 75 d2 91 bc 1f 85 05 bd 80 c4 84 3d f3 b5 6c bd
       -0.017800549 -0.032597657 0.06482792 -0.057790708
0003d0 9a d2 48 3d f2 1c 52 bb 41 6a 6e bc 5c d7 09 3d
       0.04902897 -0.003206071 -0.0145517 0.03365265
0003e0 0d bf cf 3c 75 e4 24 bd 57 6a 05 be ab 48 2a 3d
       0.025359655 -0.040256936 -0.13028847 0.041573208
0003f0 fb 3f b5 bd 23 7e 55 bb 1b 2d 7d 3d 43 1e e6 bc
       -0.08850094 -0.0032576404 0.061810594 -0.028090602

enc_layer_large.0.bias f4 [4]
000000 ca a7 1a bc 28 b7 91 bd e6 87 7e bd 81 02 1c bd
       -0.009439418 -0.071150124 -0.06214132 -0.038088325

small_attention.to_qkv.weight f4 [768, 16, 1, 1]
000000 84 dc d5 bd e1 e8 43 be 06 48 96 bd 80 bc 09 bd
       -0.10442451 -0.19131805 -0.07337956 -0.033627033
000010 50 e6 5e bd c9 20 03 be 53 4e da 3c 9c 65 25 3b
       -0.054418862 -0.12805475 0.026648676 0.0025237566
000020 81 91 63 be 3b 99 0f be 25 e4 42 3d 02 47 8a 3d
       -0.22223474 -0.14023297 0.047580857 0.06751825
000030 13 e8 d9 bd a0 52 9b 3e b5 f5 84 3e c5 2d 4d bd
       -0.10639968 0.30336475 0.2596871 -0.050092477
000040 fd 18 45 be fc cd 7c be f8 94 0e be 1a 57 21 be
       -0.19247814 -0.24687952 -0.13924015 -0.15755883
000050 28 88 3a bd 1d 15 8a be 2b 15 89 bc e4 8f 27 be
       -0.045540005 -0.26969233 -0.016733726 -0.16363484
000060 30 10 5e bd 15 31 58 3d 16 b2 0b 3e 8c c7 e6 3d
       -0.054214656 0.052781183 0.13642153 0.11268529
000070 5f a0 3e 3d 8b 5a 90 3e a3 b5 2a 3e 46 81 c2 3d
       0.04653966 0.2819408 0.16670851 0.09497313
000080 36 a2 9b bd 90 58 bc 3d 5b 27 9b 3b b7 fb a9 bd
       -0.07599299 0.091965795 0.004734916 -0.08299964
000090 bf b3 0b bd 26 4a 8a be b4 af 2b be 45 e9 48 3e
       -0.034106966 -0.27009696 -0.16766244 0.19620235
0000a0 bc d7 42 3e 2c c6 98 3d 6f 9d 2c bd 77 10 ff 3d
       0.19027609 0.07459673 -0.042142328 0.12454312
0000b0 cb eb ea bd 85 23 52 3e 7a 9e da bc e6 9e 59 3c
       -0.11470755 0.20521362 -0.026686896 0.013282513
0000c0 14 71 32 3e fa e7 28 3e 20 74 2a be 6e f4 6d 3e
       0.17425948 0.16494742 -0.1664586 0.23237774
0000d0 69 d4 88 bd 7a d3 2e be 06 64 62 3e e3 8a 94 bd
       -0.06681139 -0.1707286 0.22108468 -0.07253053
0000e0 32 4b 66 be 22 73 c8 bd db 93 32 be 0a a1 59 be
       -0.22489622 -0.09787585 -0.17439215 -0.21252838
0000f0 16 38 39 be de 1f 94 3e 5c ff fd bc 83 8b 6d be
       -0.18087801 0.28930563 -0.031005554 -0.23197751
000100 a1 ae da 3d 5c 14 75 3e 8b e9 da 3d de 96 21 be
       0.10677839 0.23933548 0.10689076 -0.15780208
000110 59 8b 2b be fb f7 0d be 84 b6 20 3e ee 47 32 be
       -0.16752376 -0.13864128 0.15694624 -0.17410251
000120 e5 c1 60 3d 26 c7 d9 bd 9a e9 e1 bd e8 b2 76 3d
       0.054872412 -0.10633688 -0.11030884 0.060229212
000130 3a 0b 4d be 76 c3 cd bd 96 b6 68 3e c8 b5 2d be
       -0.20023814 -0.10047047 0.22725901 -0.16963875
000140 1a 30 c4 3d 86 52 78 be 65 f7 13 3e 83 75 a7 3d
       0.09579487 -0.2425023 0.14449842 0.081767105
000150 48 ee 19 bd 3e f3 93 bd de 01 67 3e fb 58 11 3d
       -0.03758076 -0.07224129 0.22559306 0.03548525
000160 ed a1 13 3d a9 f1 b3 3d e6 5a 30 3e 27 8c b4 3a
       0.036043096 0.087863274 0.17222175 0.0013774679
000170 78 c2 7a bd 3b 70 f9 3d a9 98 28 bd 14 2d 57 be
       -0.061220616 0.121796094 -0.041161213 -0.2101329
000180 c5 41 62 3e f4 71 6f 3e 87 5f e6 3d df 2b ca bd
       0.22095402 0.23383313 0.11248689 -0.09871649
000190 fd bc 11 be a2 d2 07 3d c3 09 f7 bc 00 ac 2a 3d
       -0.1423225 0.03315986 -0.030156022 0.04166794
0001a0 fa ba 11 be 4f fb 92 3d 4d ca 2f be 74 10 aa 3d
       -0.14231482 0.071768396 -0.17167015 0.083039194
0001b0 10 f2 bb bc ce 58 8a 3e f6 d2 18 3e 47 5a 5c 3e
       -0.022942573 0.27020878 0.14924225 0.21518813
0001c0 68 f6 68 3e 6c 6f 3d be 80 55 c8 3d 01 a3 65 be
       0.22750247 -0.18499535 0.09781933 -0.22425462
0001d0 65 69 0d 3e 36 f0 31 3d 0f d7 ad 3d 3b d5 74 3e
       0.13809736 0.043441974 0.08488285 0.23909466
0001e0 bf 23 c0 bd be 95 9d 3c 4c 0d 0f be 69 67 dd 3d
       -0.09381818 0.019236442 -0.13969916 0.108107395
0001f0 e8 71 a9 bc c0 c4 3c 3e 7d 5d 2a be d6 0b e0 3b
       -0.020684198 0.18434429 -0.16637225 0.0068373485
000200 96 f9 ba 3d 51 8f 70 3d 7e 05 06 be da be df bc
       0.09129636 0.058730427 -0.13088033 -0.027312685
000210 3e 4c a3 bd 10 b0 ee bd 9b cf 60 bd d8 c9 41 3e
       -0.079735264 -0.11654675 -0.054885488 0.18924654
000220 70 b4 73 3e 9f 30 ce 3d e7 61 77 3e 1e 29 d5 bc
       0.237993 0.100678675 0.2415844 -0.026020583
000230 bb b3 e9 3d b9 2e 9a 3d 94 9b 30 3e 06 03 3c be
       0.11411234 0.07528443 0.17246848 -0.18360528
000240 1f b7 b5 3d bf c1 44 3e 29 e3 93 3d 09 44 47 be
       0.08872818 0.19214533 0.07221062 -0.19459547
000250 5e c9 f6 bc 2c 4a b6 3d a5 91 84 3d fa 03 72 bc
       -0.030125316 0.08900866 0.06473092 -0.014771456
000260 ad 6a cd 3d 3e 1c 19 bd f9 04 2c 3d 4e 33 98 be
       0.100301124 -0.03738045 0.04199693 -0.29726642
000270 7e f4 14 3e 1c f0 d5 bd 52 c4 a5 3d 40 81 15 3e
       0.14546391 -0.10446188 0.08094086 0.14600086
000280 38 34 80 3b a7 46 3e 3e c2 fd 8d bd 20 59 77 bc
       0.003912475 0.18581639 -0.06933166 -0.015096933
000290 2c d8 67 3e e8 bd 62 be d7 0f 13 bc 9d a1 69 3e
       0.22641057 -0.22142756 -0.0089759445 0.22815557
0002a0 00 cf 0f 3d 60 92 2a be ba 2e 53 bd 51 39 05 be
       0.03510952 -0.166574 -0.051558234 -0.13010146
0002b0 19 ff 59 3e 12 6d 4c 3e 6a 8a 97 bd fa 12 0b 3e
       0.21288718 0.19963482 -0.07399447 0.13581458
0002c0 aa a3 db bd 92 f0 0a 3c 36 31 2f 3e 9a 6b 00 3e
       -0.10724576 0.008480208 0.17108616 0.12541047
0002d0 b5 3f 3e 3e 3e 59 12 bd 14 1f 96 bd 74 e8 75 3e
       0.1857899 -0.03572964 -0.073301464 0.24014455
0002e0 7f ba f2 bd 69 97 95 3e 83 c3 aa bc 32 d5 26 3e
       -0.118519776 0.2921708 -0.02084518 0.16292265
0002f0 38 0b ad bc ef 49 a1 3e e9 3c 20 be f1 48 c9 3c
       -0.021123514 0.3150172 -0.15648235 0.024570914
000300 65 67 77 be ac 31 9d 3d 83 be fd bb 9e bb 2d 3e
       -0.24160536 0.0767549 -0.007743658 0.16966102
000310 36 08 a7 3d a4 49 dd 3d 9c 68 2e be c1 78 68 be
       0.08155863 0.108050615 -0.17032093 -0.22702314
000320 9f 7a fe 3c 5f 38 80 3e ab 94 95 bd 95 f8 6c be
       0.03106433 0.25043008 -0.07303747 -0.23141702
000330 b4 4d 45 be 25 29 be 3d e5 bb 4a 3e 39 33 de 3d
       -0.19267923 0.092851914 0.19798239 0.10849614
000340 eb 44 23 3e c6 85 79 3e 56 ea b4 bc 3b 13 46 be
       0.15944259 0.24367437 -0.022084396 -0.19343273
000350 ba a2 6f 3e 08 e1 76 be 7d 5c 75 be fa dc 69 bd
       0.23401919 -0.2410928 -0.23961063 -0.057095505
000360 4d 25 42 be f4 f6 2f bd 2a 29 2c be 1f 1d 39 be
       -0.18959542 -0.042960122 -0.16812578 -0.18077515
000370 d8 90 04 3e 07 cf 9a 3e 12 bd 67 3e 68 53 e1 3d
       0.12945879 0.30236074 0.22630718 0.110022366
000380 63 a4 77 be 81 47 f1 3c 74 59 6c 3e a3 26 69 be
       -0.24183802 0.029453041 0.23080999 -0.22768645
000390 62 69 7d be 6c 97 d5 bd ce b1 58 3e 37 fd 13 bc
       -0.24747232 -0.10429272 0.21161577 -0.009032539
0003a0 1a 2b a1 bd 69 16 0c be 64 2c f8 3d fe 5b d7 3d
       -0.07869549 -0.13680424 0.12117842 0.10515593
0003b0 b8 db 4a 3e 83 2b e7 bd ee 01 a1 bb 20 54 0f 3d
       0.19810379 -0.11287596 -0.00491356 0.034992337
0003c0 74 d9 8f bd 52 1a 6d be 6a df 15 3d 88 4f b7 3d
       -0.07023898 -0.23154572 0.036590017 0.08950716
0003d0 ea 1f 55 bd fa df 36 be 1f fa 3c 3e 0a 9c f5 bd
       -0.05203239 -0.17858878 0.18454789 -0.11992653
0003e0 7f 69 c6 bd c4 ea fe bc f2 71 89 3d 5a ff bf bd
       -0.096880905 -0.031117804 0.067111865 -0.09374876
0003f0 b0 19 11 3e 76 c0 61 3c c3 bf 24 3e bb bc 10 3e
       0.14169955 0.013778796 0.16088776 0.14134495
