save/exp_1/gen_model.pt (torch, 27291 bytes, 12 tensors)

enc_layer_1.0.weight f4 [16, 3, 5, 5]
0	0x3e13e3c5	0.14442356
1	0x3d2553c1	0.040363077
2	0x3db1145c	0.08646461
3	0x3da8dcd1	0.082452424
4	0x3de362ce	0.1110283
5	0x3e021006	0.12701425
6	0x3be98a88	0.00712711
7	0x3dc37e50	0.095455766
8	0xbd29c233	-0.04144497
9	0x3b8ef60f	0.0043628286
10	0x3e075376	0.13215432
11	0xbd83742b	-0.06418642
12	0xbc2209c2	-0.009890022
13	0xbc891ea0	-0.016738236
14	0x3d7e587a	0.062096097
15	0x3dbd05cc	0.09229621
16	0xbd7254bf	-0.05916285
17	0x3dff22b7	0.12457793
18	0x3cafc718	0.02145724
19	0x3e1251ce	0.14289019
20	0x3ddf3642	0.10899021
21	0xbbcb4e6a	-0.006204416
22	0x3c849f96	0.016189378
23	0x3d13bbc6	0.036067747
24	0x3df93a47	0.12169319
25	0x3d47a017	0.048736658
26	0x3dc5e722	0.09663226
27	0x3cd341f4	0.025788285
28	0x3dd0f1de	0.102023825
29	0x3e082bc5	0.13297947
30	0xbdb03135	-0.086031355
31	0xbdc72af3	-0.09724989
32	0x3c9a75f5	0.018855074
33	0xbb8a455d	-0.0042196945
34	0xbd451b4c	-0.048121735
35	0xbd133aaf	-0.035944637
36	0x3ded6561	0.11591602
37	0x3d92f1e3	0.071750425
38	0xbce00cd7	-0.027349873
39	0xbd9b98f3	-0.07597532
40	0xbdc03acf	-0.09386217
41	0xbdd5847f	-0.10425662
42	0xbda22c60	-0.0791862
43	0xbd10a06d	-0.035309244
44	0xbcdf84cd	-0.027285004
45	0xbd3ecdd8	-0.046583027
46	0x3d86e92c	0.06587443
47	0xbd15b6bc	-0.036551222
48	0xbd0ea6ea	-0.03482715
49	0x3c7dcf2c	0.015491288
50	0xbd479ffc	-0.048736557
51	0x3d4b6987	0.049661186
52	0x3d9275d0	0.07151377
53	0x3dc01e11	0.09380735
54	0xbdc22a7c	-0.094807595
55	0x3da34346	0.07971816
56	0xbd9e327e	-0.07724474
57	0xbd0943f7	-0.033512082
58	0x3c3f39b5	0.011671473
59	0xbc8cbf6a	-0.017181117
60	0xbdbd795d	-0.09251664
61	0x3d0d14dc	0.03444372
62	0x3d480068	0.048828512
63	0x3beeb5bb	0.0072848476
64	0xbda6f07d	-0.08151338
65	0x3d84aaf4	0.06477919
66	0xbcf1bcda	-0.029508997
67	0x3bca5e0b	0.0061757616
68	0xbdbcf767	-0.09226876
69	0x3cf4e4ea	0.029894311
70	0xbcadd22d	-0.021218384
71	0xbd959665	-0.07304076
72	0xbc8d635f	-0.017259298
73	0xbdbaf3a6	-0.091285035
74	0xbdcb3519	-0.09922237
75	0x3d261d15	0.04055508
76	0xbd4eaf3d	-0.05046009
77	0xbb3672f2	-0.002783951
78	0x3dd027c1	0.101638325
79	0x3badb10c	0.0053006466
80	0x3deea02e	0.116516456
81	0xbd9d5db2	-0.076838866
82	0xbd59ffc6	-0.05322244
83	0x3db9f23b	0.09079405
84	0x3d7cc93e	0.061715357
85	0x3cf85325	0.030313084
86	0x3d1981c5	0.037477273
87	0x3c04fbf4	0.008116711
88	0xbd246ee6	-0.040144823
89	0xbcff5e5b	-0.031172922
90	0xba32b27c	-0.00068167574
91	0xbc9f3125	-0.019432614
92	0x3cec4ce7	0.028845264
93	0xbd8e37c8	-0.06944233
94	0xbd65a294	-0.05606325
95	0x3c197ad0	0.00936766
96	0xbc269e97	-0.010169647
97	0x3dbee9fa	0.09321971
98	0xbd4fcf50	-0.050734818
99	0x3dae8f79	0.08523459
100	0xbdbd89c7	-0.092547946
101	0x3d4a1174	0.04933305
102	0x3c510b26	0.012759006
103	0xbd996816	-0.07490556
104	0x3d49867a	0.049200512
105	0x3ccc97d8	0.024974748
106	0x39f2f493	0.0004634006
107	0x3d0fa8e6	0.035073183
108	0x3cde5735	0.027141193
109	0xbd71432d	-0.058901954
110	0x3addd064	0.0016923067
111	0x3db15c48	0.086601794
112	0x3d381dd7	0.044950332
113	0x3d98037b	0.07422539
114	0xbc986c45	-0.018606314
115	0x3e06a3fe	0.13148496
116	0xbd82c912	-0.06386007
117	0xbd790962	-0.060799964
118	0x3d91be25	0.07116345
119	0x3d537a8e	0.05163055
120	0xbd8bb5a5	-0.06821755
121	0xbc0dc3de	-0.008652655
122	0x3d9baad4	0.07600942
123	0x3ba626e2	0.005070553
124	0xbd2714af	-0.04079121
125	0x3da87d32	0.08227004
126	0x3e00c1a2	0.12573865
127	0x3d5570a3	0.052109372
128	0xbc616c72	-0.0137587655
129	0xbd883a99	-0.066518016
130	0x3c26a048	0.01017005
131	0x3d17f65d	0.037100185
132	0x3d820760	0.06349063
133	0xbd5ece5a	-0.05439601
134	0x3dab9c24	0.08379391
135	0x3deae466	0.11469345
136	0xbd9e2ca3	-0.077233575
137	0x3cb01915	0.021496335
138	0x3dfd4f0d	0.12368593
139	0x3d578fba	0.052627303
140	0x3d191e24	0.03738226
141	0x3e09e363	0.13465647
142	0x3dedd19b	0.11612245
143	0x3e0a331b	0.13496058
144	0xbd227ee2	-0.039671786
145	0x3db05421	0.08609796
146	0x3c70fa90	0.014708176
147	0xbd5955b3	-0.053060245
148	0x3d2ff719	0.04296026
149	0x3c026c02	0.007960321
150	0xbce02f8c	-0.027366422
151	0x3d151491	0.036396567
152	0xbdb093e7	-0.0862196
153	0x3c671d97	0.014106176
154	0x3db5831c	0.08862898
155	0x3d941007	0.072296195
156	0x3d9bf0a1	0.07614256
157	0x3d3c9503	0.046040546
158	0xbd4990a3	-0.049210202
159	0xbd898e52	-0.067165986
160	0x3c2f1138	0.010685258
161	0xbd11350f	-0.03545099
162	0x3d1230f8	0.03569123
163	0xbda5f7c1	-0.08103896
164	0xbdb0c7ff	-0.08631896
165	0x3e0a3600	0.13497162
166	0x3d938a94	0.07204166
167	0xbda5b6e0	-0.08091521
168	0x3d074019	0.033020113
169	0x3d9c5634	0.076336294
170	0x3dc9f0b0	0.098603606
171	0xbd039fa8	-0.032134682
172	0xbd69fe6c	-0.0571274
173	0x3d7f4c7c	0.0623288
174	0x3b39af91	0.0028333405
175	0xbd852ee4	-0.06503084
176	0x3dcaec80	0.0990839
177	0x3d33bbc7	0.04388025
178	0x3d2c28d5	0.042031128
179	0x3dd60c10	0.104515195
180	0x3b989320	0.0046562105
181	0x3b85c5b3	0.0040824055
182	0x3e11bfb4	0.14233285
183	0x3cfdeb4b	0.030995985
184	0x3dba69ba	0.09102197
185	0xbd9e8d9b	-0.07741853
186	0x3db2cd4f	0.08730566
187	0xbd72b629	-0.059255753
188	0x3cac369d	0.021022135
189	0x3de688e1	0.11256576
190	0x3dc8c0aa	0.09802373
191	0x3d1aca30	0.037790477
192	0xbd94d834	-0.072678
193	0xbc5b8b3e	-0.013399897
194	0xbd998ea4	-0.0749791
195	0x3e12f4ce	0.14351198
196	0x3e11a575	0.14223273
197	0x3d9785a5	0.073985375
198	0xbb2be6c9	-0.0026230088
199	0x3d58f34a	0.052966394
200	0x3d4378ef	0.047722753
201	0xbb272102	-0.0025501852
202	0x3ce0d950	0.027447373
203	0x3d2a75a0	0.041616082
204	0x3de9ec40	0.11422014
205	0x3d80e554	0.06293741
206	0x3c505b17	0.01271703
207	0x3d36478a	0.04450182
208	0x3c3eeeb2	0.011653589
209	0x3cf89bc7	0.030347718
210	0x3de8afe5	0.11361674
211	0x3d6cf696	0.05785235
212	0x3dc6dc34	0.09709969
213	0x3dc9ec0b	0.09859475
214	0x3d9878a5	0.07444886
215	0xbd1b7073	-0.037949037
216	0x3e1e5f86	0.15466127
217	0xbd7e3480	-0.062061787
218	0xbd872712	-0.06599249
219	0x3dce3b83	0.10069945
220	0x3b29c73d	0.0025906109
221	0x3d9e395c	0.07725784
222	0x3d66f920	0.056389928
223	0x3e031d42	0.1280413
224	0x3d8e0ede	0.069364294
225	0x3d45d062	0.048294432
226	0xbd666294	-0.056246355
227	0x3db394c4	0.08768609
228	0xbd0dcd0a	-0.03461937
229	0x3d90f406	0.07077794
230	0xbca8cd4d	-0.020605708
231	0xb8f6a09d	-0.00011760111
232	0x3df28ee4	0.118436605
233	0x3ca77b08	0.020444408
234	0x3d8e4977	0.06947606
235	0x3e00e350	0.12586713
236	0xbb0fe4a8	-0.0021956358
237	0x3d0df072	0.034653135
238	0xbd6850d7	-0.05671772
239	0x3da69d87	0.08135515
240	0xbce29105	-0.027657041
241	0x3e143322	0.1447263
242	0x3dc49fc1	0.09600783
243	0x3dbfa285	0.0935717
244	0x3e206bf6	0.15666184
245	0x3dcbcf2b	0.099516235
246	0x3e1ad6c7	0.15120994
247	0xbc89c855	-0.016819159
248	0x3cc2fccd	0.023802185
249	0x3dad8a84	0.084736854
250	0x3dc67d01	0.09691811
251	0xbda8532b	-0.08218988
252	0x3b3b8c83	0.0028617687
253	0xbdd13b5c	-0.102164
254	0xbda4e15a	-0.08050795
255	0x3c1266c8	0.008935638

enc_layer_1.0.bias f4 [16]
0	0x3e3544c6	0.17702016
1	0xbe0d9bdd	-0.13828988
2	0xbd7ae942	-0.06125761
3	0x3da1f0d8	0.079072654
4	0xbb2c8417	-0.002632385
5	0xbd8be443	-0.06830647
6	0x3d3dbb0e	0.046320967
7	0xbd6ffaaa	-0.05858866
8	0x3ae3ba23	0.0017374199
9	0xbd8774c5	-0.06614069
10	0x3e1f9765	0.15585096
11	0x3e251535	0.16121371
12	0x3c91c50d	0.017794156
13	0xbe001b9a	-0.12510529
14	0x3c278af2	0.010225998
15	0xbdef7005	-0.11691288

enc_layer_2.0.weight f4 [4, 16, 3, 3]
0	0x3e1d552d	0.15364523
1	0x3e22c476	0.15895256
2	0x3dacf241	0.08444644
3	0x3dacffb2	0.084472075
4	0x3db2540b	0.08707436
5	0x3db65610	0.08903134
6	0x3d315cd4	0.04330142
7	0x3e20419e	0.15650031
8	0x3dc10dc8	0.09426457
9	0x3d56a27c	0.05240105
10	0xbd45fc62	-0.048336394
11	0x3d11600d	0.03549199
12	0x3d6a34f9	0.057179425
13	0x3be8e0b6	0.0071068658
14	0x3caeb0e7	0.021324588
15	0xbd99ec8d	-0.075158216
16	0x3c9b9f0f	0.018996743
17	0x3da9ee02	0.082973495
18	0xbc92944c	-0.01789298
19	0x3dded33c	0.108801335
20	0xbd1b3c4a	-0.037899293
21	0xbd6c516f	-0.05769485
22	0x3ca027b7	0.019550188
23	0xbd33089b	-0.04370938
24	0x3d930db6	0.071803495
25	0x3c9faac7	0.019490613
26	0x3dbd4698	0.0924198
27	0x3dc68731	0.096937545
28	0x3d85dc23	0.06536128
29	0x3db75d2d	0.08953319
30	0x3d8ec8e1	0.06971908
31	0x3c3dc471	0.01158248
32	0x3a018db3	0.00049420743
33	0x3d24b9ea	0.040216364
34	0x3cc39dc2	0.023878936
35	0x3debed8e	0.11519919
36	0x3d01053c	0.031499133
37	0xbc4bc68d	-0.012437475
38	0xbca51235	-0.020150283
39	0x3d282736	0.04105302
40	0x3d4ae508	0.049534827
41	0xbd221dc2	-0.03957916
42	0xbd1d6825	-0.038429398
43	0xbd2b1435	-0.041767318
44	0xbd4624d8	-0.04837498
45	0xbc47fa7f	-0.012205719
46	0x3db5c4ea	0.08875449
47	0xbd600a19	-0.05469713
48	0x3d018684	0.031622425
49	0x3c156b84	0.009119872
50	0xbcfb5708	-0.030681148
51	0xbd8e224a	-0.06940134
52	0xbd649fce	-0.055816464
53	0x3da216d2	0.07914509
54	0x3de93248	0.113865435
55	0x3df5a62d	0.11994586
56	0x3d34b67a	0.044119336
57	0x3a9ffbc1	0.0012205766
58	0x3d995db5	0.07488576
59	0x3d0c465e	0.034246795
60	0x3db72eb8	0.08944458
61	0x3da074e1	0.07834793
62	0x3ce27b2f	0.02764663
63	0xbd402350	-0.046908677
64	0xbd56f0ba	-0.05247567
65	0x3c91d2f3	0.017800784
66	0xbd854780	-0.06507778
67	0xbc2405ed	-0.010011178
68	0x3d750e35	0.059828002
69	0xbc8967ac	-0.016773067
70	0x3c941067	0.018074227
71	0x3dc7ea06	0.09761433
72	0xbd10c78e	-0.03534656
73	0xbd1ece58	-0.038771003
74	0x3ce2426a	0.02761956
75	0xbd1a6f2d	-0.03770368
76	0xbc0dbdc7	-0.0086512035
77	0xbcce6cf3	-0.025198435
78	0x3d577bca	0.05260829
79	0xbd335ec5	-0.04379155
80	0xbd2adae0	-0.04171264
81	0x3d4badab	0.04972617
82	0x3dd8474e	0.10560475
83	0x3d6840b8	0.056702346
84	0x3d2d5650	0.042318642
85	0x3be27871	0.0069113304
86	0xbc9d8a72	-0.019231055
87	0x3dc17547	0.09446197
88	0x3d773a16	0.06035813
89	0x3df74e54	0.12075487
90	0x3e140fa6	0.14459094
91	0x3e1b492d	0.15164633
92	0x3e1580a2	0.14599851
93	0x3ddbecbc	0.10738513
94	0x3e01367b	0.12618439
95	0x3c78b059	0.015178763
96	0x3daf2d58	0.085535705
97	0x3e170164	0.14746624
98	0x3bbc9c53	0.00575594
99	0x3e202010	0.15637231
100	0x3d1e84ef	0.038700994
101	0x3dcf0eae	0.10110222
102	0x3d8f2e04	0.06991199
103	0x3d6a41a1	0.057191495
104	0x3db64669	0.089001484
105	0x3e21ea21	0.1581197
106	0x3de8b7e7	0.113632016
107	0x3ce27bba	0.027646888
108	0x3d9d115c	0.07669327
109	0xbd1fa166	-0.03897228
110	0x3cab219d	0.020890051
111	0x3d94ba0d	0.07262049
112	0x3dcb19a0	0.09916997
113	0xbc677150	-0.014126137
114	0x3c79e43d	0.01525217
115	0xbd035c1f	-0.032070275
116	0x3da2512d	0.07925639
117	0x3da463ae	0.08026825
118	0x3d9d1852	0.07670654
119	0xbca96d27	-0.02068193
120	0xbb99c5a0	-0.004692748
121	0x3ca580f0	0.020203084
122	0xbb0a693a	-0.0021119849
123	0xbda44c83	-0.08022406
124	0xbc82504d	-0.015907431
125	0xbd20fc18	-0.039302915
126	0x3dc2f6c2	0.095197216
127	0x3e03dbe7	0.12876855
128	0xbc83702e	-0.016044702
129	0x3d8b6c53	0.068077706
130	0x3d276a82	0.04087306
131	0x3d9fde48	0.07806069
132	0x3d40b329	0.04704586
133	0x3bdd8bca	0.006761049
134	0xbc440500	-0.011964083
135	0xbccd87ba	-0.025089134
136	0x3cb27761	0.02178544
137	0xbd80ccfe	-0.06289099
138	0xbd9d5b51	-0.07683433
139	0xbcea1346	-0.028573643
140	0x3da295f1	0.07938755
141	0xbd349cb6	-0.044094764
142	0xbda13723	-0.078718446
143	0x3d6e158c	0.058126017
144	0x3cdc47cd	0.026889706
145	0xbdd1e07a	-0.10247894
146	0x3aa6906f	0.001270784
147	0xbd90bc7d	-0.07067201
148	0xbd9f3d9b	-0.07775422
149	0xbd147028	-0.036239773
150	0x3cc02044	0.023452885
151	0xbdc51105	-0.09622387
152	0xbc9a8a76	-0.018864851
153	0x3d7c77ba	0.061637618
154	0x3c9b3c49	0.018949645
155	0xbd1811f0	-0.03712648
156	0x3de3a568	0.11115533
157	0xbc169778	-0.009191386
158	0x3d224fef	0.039627012
159	0x3d7f8a57	0.06238779
160	0x3e019095	0.1265281
161	0x3d8c1ac4	0.06841043
162	0xbd3f62a0	-0.046724916
163	0x3b3c8a93	0.002876912
164	0x3da0b385	0.07846741
165	0x3d03b998	0.032159418
166	0x3d8338a7	0.0640729
167	0x3dd4ffef	0.10400378
168	0xbd602d97	-0.054730978
169	0x3d656108	0.05600074
170	0xbcccc215	-0.02499489
171	0xbbc38384	-0.0059666056
172	0x3da087a8	0.078383744
173	0x3d208dfa	0.0391979
174	0x3d5af326	0.05345454
175	0xbd398bfa	-0.045299508
176	0x3d02a120	0.031891942
177	0x3cde1845	0.027111182
178	0x3d91a5a4	0.071116716
179	0x3d88ec7f	0.06685733
180	0xbc01db8a	-0.007925877
181	0x3bc0b7d3	0.0058812886
182	0xbbcbad6b	-0.0062157414
183	0x3d5eaf23	0.054366242
184	0xbc698b3b	-0.014254387
185	0x3db01de9	0.08599455
186	0xbbfc8b48	-0.0077070333
187	0x3d0931d0	0.03349477
188	0x3d285895	0.041100103
189	0x3d9aa0b1	0.07550181
190	0x3d1a2989	0.037637267
191	0x3d6ca625	0.057775635
192	0x3c242baf	0.010020181
193	0x3d899f50	0.067198396
194	0x3ce03116	0.027367156
195	0x3daa4b1d	0.08315108
196	0x3dd1fc7f	0.10253238
197	0x3d92ba49	0.07164437
198	0xbd8bb7df	-0.0682218
199	0x3dbe08aa	0.09278996
200	0xbd7a8d8a	-0.06117014
201	0x3d6156c9	0.055014405
202	0x3de20221	0.11035562
203	0x3db04952	0.08607735
204	0x3d80f4ef	0.062967174
205	0x3d88370f	0.066511266
206	0xbd30061e	-0.042974584
207	0x3dbf62e0	0.09345031
208	0xbbad4f6b	-0.0052890084
209	0x3d1c32f1	0.03813452
210	0x3d5279ac	0.051385567
211	0x3c98d166	0.018654536
212	0x3e057fd0	0.13037038
213	0x3d57aede	0.052657
214	0x3dbed2d3	0.09317555
215	0x3d1f4565	0.03888454
216	0xbd951ec6	-0.0728126
217	0x3d057150	0.032578766
218	0x3d06ea1f	0.03293812
219	0x3badb098	0.0053005926
220	0x3d81efda	0.06344576
221	0xbd5f7ea8	-0.05456415
222	0xbb28b644	-0.0025743404
223	0x3d786852	0.060646363
224	0x3c989af3	0.018628573
225	0xbc955e72	-0.018233512
226	0xbdc79b14	-0.09746376
227	0xbd9016d3	-0.070356034
228	0xbd646ddb	-0.05576883
229	0xbc3a5215	-0.011372109
230	0x3d522ccc	0.051312253
231	0x3d54a748	0.051917344
232	0x3d8276be	0.063703045
233	0xbd94d4b3	-0.07267132
234	0x3d7bcc9f	0.06147444
235	0x3b64515e	0.0034838538
236	0x3c450b5d	0.012026635
237	0xbd180f8f	-0.037124213
238	0x3ce077fe	0.027400967
239	0xbd2a422b	-0.04156701
240	0x3d1dcb30	0.038523853
241	0x3cfae36a	0.030626018
242	0xbc95c636	-0.01828299
243	0x3c515939	0.01277762
244	0xbc990bfb	-0.01868247
245	0x3d301740	0.042990923
246	0x3c94c67b	0.01816105
247	0x3bc88438	0.0061192773
248	0xbd87a0fb	-0.066225015
249	0xbdad0213	-0.08447661
250	0xbd615a04	-0.055017486
251	0x3c815db7	0.015791757
252	0xbd46a469	-0.048496637
253	0x3d6e5556	0.05818685
254	0x3d0f6475	0.035007913
255	0x3dabbe7a	0.0838594

enc_layer_2.0.bias f4 [4]
0	0x3d2c565b	0.042074542
1	0xbcbad908	-0.022808567
2	0x3c585967	0.013204909
3	0xbd8adafc	-0.06780049

enc_layer_3.0.weight f4 [8, 4, 3, 3]
0	0x3dda4d95	0.10659329
1	0xbcd58d6d	-0.026068414
2	0x3d6b8079	0.057495568
3	0x3d4c0792	0.049811907
4	0x3dc70cf6	0.09719269
5	0xbb2be4e9	-0.002622897
6	0x3d796ac2	0.060892828
7	0x3df48f66	0.119414136
8	0x3e4b5ccc	0.19859618
9	0xbda9a9f9	-0.08284373
10	0xbe36845a	-0.17823926
11	0xbd9c5c60	-0.07634807
12	0xbe39e50c	-0.1815378
13	0xbc158ca6	-0.0091277715
14	0x3be7dd0b	0.007075911
15	0xbd04fbf2	-0.032466836
16	0xbda9b70e	-0.08286868
17	0xbc69fb58	-0.014281116
18	0xbddfb353	-0.10922875
19	0xbd9d02e6	-0.076665685
20	0xbe09ce66	-0.13457641
21	0x3c20d19a	0.009815598
22	0xbc025d2d	-0.007956785
23	0xbdd8ed0a	-0.105920866
24	0xbd26c990	-0.04071957
25	0x3d664d74	0.05622621
26	0xbc883c4b	-0.016630312
27	0xbda3d20d	-0.079990484
28	0xbcf9b7cd	-0.03048315
29	0xbcf0660f	-0.02934554
30	0xbe04ed55	-0.1298116
31	0xbe0ed2bf	-0.13947581
32	0x3ddd5275	0.10806743
33	0xbd216b36	-0.039408885
34	0xbe337d82	-0.17528346
35	0xbe17486e	-0.14773723
36	0xbbf7a258	-0.0075571947
37	0x3bc774c1	0.006086916
38	0xbdb07bdf	-0.086173765
39	0xbd0708a0	-0.03296721
40	0x3c7100c4	0.014709655
41	0x3bdebc60	0.0067973584
42	0xbe35aa00	-0.17740631
43	0xbba39a59	-0.004992765
44	0x3d5541c2	0.052064665
45	0xbe166169	-0.14685597
46	0xbdf1507e	-0.11782931
47	0xbdeff08d	-0.11715803
48	0x3d500517	0.050786104
49	0xbcfeb943	-0.031094199
50	0xbe1a3f73	-0.15063266
51	0x3c810fb8	0.015754566
52	0xbcec3c80	-0.028837442
53	0xbd876d62	-0.0661266
54	0xbd03a4f2	-0.032139726
55	0x3df4f6a4	0.119611055
56	0x3d48ce76	0.04902502
57	0xbd014d22	-0.0315677
58	0x3cb1ce14	0.021704711
59	0x3e0353ce	0.12824938
60	0x3d5d7a97	0.05407199
61	0x3c48d6b6	0.012258222
62	0xbd0bffb6	-0.03417941
63	0x3df5388f	0.11973678
64	0x3ba0d077	0.0049076634
65	0xbd01533b	-0.031573515
66	0x3e27ddc3	0.16393189
67	0x3e1f72be	0.15571114
68	0xbd6415f3	-0.055684995
69	0xbdc8ade9	-0.09798796
70	0xbcbbd21f	-0.022927342
71	0x3d9c3ab8	0.07628387
72	0x3d10ce71	0.035353128
73	0xbd9e78c4	-0.07737878
74	0xbdcb575c	-0.09928772
75	0xbe415107	-0.18878566
76	0xbe0d43eb	-0.1379544
77	0xbe5b9434	-0.21443254
78	0x3d078be9	0.033092413
79	0xbe35020e	-0.17676565
80	0xbdb19716	-0.086713955
81	0x3d8ad76c	0.0677937
82	0x3dba7402	0.09104158
83	0x3dc99ac6	0.09843974
84	0xbdef19c7	-0.116748385
85	0xbd7fd681	-0.062460426
86	0x3e1e600f	0.15466331
87	0xbe059cae	-0.1304805
88	0x3ccaf0bb	0.024772992
89	0x3d213a28	0.039362103
90	0xbdb8fe54	-0.09032884
91	0xbd6ff427	-0.05858245
92	0x3e1fb1c9	0.15595163
93	0xbc40a1cd	-0.011757326
94	0x3d6f770f	0.058463152
95	0x3e00bb67	0.12571488
96	0x3dfc07ca	0.12306173
97	0x3dfce47c	0.123482674
98	0x3d7a9e64	0.06118621
99	0xbe1356b2	-0.1438854
100	0xbe0abdbe	-0.13548943
101	0xbd107677	-0.035269227
102	0x3d832967	0.06404381
103	0xbd7925e7	-0.060827162
104	0xbcfb262f	-0.030657856
105	0xbd08a9a1	-0.033364896
106	0xbc1bfd25	-0.009520804
107	0xbc1a8251	-0.009430484
108	0x3e158301	0.14600755
109	0x3e518299	0.20459975
110	0x3d0cd894	0.034386232
111	0x3df4a733	0.11945953
112	0x3c5f536a	0.013630727
113	0x3d9ecde6	0.07754116
114	0x3dc5ec13	0.09664168
115	0x3e4327b8	0.1905812
116	0x3e47c1ff	0.19507597
117	0x3e0cd5e6	0.13753471
118	0xbe2dab37	-0.16959845
119	0x3d600191	0.054688994
120	0xbd81ddb4	-0.06341115
121	0x39ff1a72	0.00048657093
122	0xbdf7e105	-0.12103466
123	0xbdf9e375	-0.12201587
124	0x3dda1a24	0.10649517
125	0xbe365858	-0.17807138
126	0xbe1a5891	-0.15072848
127	0x3ca22c1d	0.019796425
128	0xbe06ff4a	-0.13183323
129	0xbdd9fc2d	-0.10643802
130	0xbdd50ee6	-0.10403232
131	0xbe288887	-0.16458331
132	0x3dc7114d	0.09720097
133	0xbe14d85c	-0.1453566
134	0xbe121862	-0.14267114
135	0xbe0b5c9f	-0.13609551
136	0xbdbcb669	-0.092144795
137	0x3dea54ef	0.11441981
138	0xbd8cfa97	-0.06883734
139	0xbd8c6131	-0.06854475
140	0x3df55791	0.119795926
141	0xbdf70300	-0.12061119
142	0xbdd28ec1	-0.102811344
143	0x3df657da	0.12028475
144	0x3d0b9c05	0.03408434
145	0xbe03c257	-0.12867104
146	0xbe4465b1	-0.19179417
147	0xbe36ae1f	-0.1783986
148	0x3c281ec4	0.010261241
149	0xbe519327	-0.2046629
150	0xbe47ddc5	-0.19518192
151	0x3d7c9478	0.06166503
152	0xbe3cbc77	-0.18431269
153	0x3c29b0d1	0.010357098
154	0x3e09c651	0.13454558
155	0xbd5a5cdd	-0.053311218
156	0xbdb0a664	-0.086254865
157	0x3d04f785	0.032462616
158	0xbe00fe45	-0.12596996
159	0xbc0df96f	-0.008665427
160	0xbbb8349f	-0.0056215073
161	0xbd90a566	-0.07062797
162	0xbbe82c42	-0.007085354
163	0x3d592ed9	0.053023193
164	0x3d41c727	0.047309067
165	0x3de18905	0.110124625
166	0x3dfdd34c	0.12393817
167	0x3e1cf025	0.15325983
168	0xbc22f360	-0.00994572
169	0x3e01aeef	0.12664388
170	0x3e111990	0.14169908
171	0xbda25c8d	-0.07927809
172	0xbc772529	-0.015084543
173	0xbd9c3cc7	-0.0762878
174	0xbc969248	-0.0183803
175	0xbc157e91	-0.009124414
176	0xbde98033	-0.11401405
177	0xbd913a38	-0.070911825
178	0xbcd88889	-0.026432293
179	0xbb755f6f	-0.0037440916
180	0xbe3cc45a	-0.18434277
181	0x3d89f304	0.06735805
182	0xbd1f9a75	-0.03896566
183	0xbe1d5158	-0.15363061
184	0xbb556ff6	-0.0032567955
185	0x3dbc09a8	0.09181529
186	0xbe5626e8	-0.20913279
187	0x3daa6c9d	0.083214976
188	0x3dd172ce	0.102269754
189	0x3e1af847	0.15133773
190	0x3d8df573	0.06931581
191	0x3d909032	0.07058753
192	0x3e0b7a37	0.1362084
193	0x3dae5c85	0.085137405
194	0xbcfea29e	-0.031083401
195	0x3e274623	0.16335349
196	0xbc71e97d	-0.014765141
197	0x3d779996	0.060449205
198	0x3d46a7a9	0.048499737
199	0xbdcb36a3	-0.099225305
200	0xbdc0dbae	-0.094169006
201	0x3c8268c7	0.015919102
202	0x3cc697c6	0.024242293
203	0x3e2eee28	0.17083037
204	0x3d9e7bc6	0.07738452
205	0xbd0cbc21	-0.0343591
206	0xbe0a3886	-0.13498124
207	0xbdcc198a	-0.09965809
208	0xbde8f44d	-0.11374722
209	0x3dc5e438	0.0966267
210	0xbdc5baff	-0.09654807
211	0x3da7cb4c	0.08193073
212	0xbdaad03b	-0.08340498
213	0xbdd7aab9	-0.1053061
214	0xbd1ea515	-0.038731653
215	0xbc8d6fee	-0.017265286
216	0x3d38425c	0.04498516
217	0x3e0ebb06	0.13938531
218	0x3d075236	0.033037387
219	0x3cb4983a	0.022045244
220	0x3dffee0f	0.12496578
221	0x3ca7fe28	0.020506933
222	0x3e10bc05	0.14134224
223	0x3dad600a	0.084655836
224	0x3d61252f	0.0549671
225	0xbe1c5cca	-0.15269771
226	0xbe410ded	-0.18852969
227	0x3de5971f	0.11210465
228	0xbe14cd28	-0.14531386
229	0xbd938a3f	-0.07204103
230	0x3d449a69	0.04799882
231	0x3d44d920	0.04805863
232	0x3d575599	0.052571867
233	0x3d9b2cad	0.075768806
234	0x3ca1444b	0.019685885
235	0xbe0123ec	-0.1261136
236	0x3d948339	0.07251591
237	0xbda8608f	-0.08221542
238	0xbe1e0ad0	-0.15433812
239	0xbdd10645	-0.10206274
240	0xbdca2a20	-0.09871316
241	0x3dc28807	0.094986014
242	0x3dd8160a	0.105510786
243	0xbe37ee14	-0.17961913
244	0x3c9e1fae	0.019302215
245	0x3b6d4421	0.0036203938
246	0xbe52462c	-0.20534581
247	0xbe0a6a61	-0.13517143
248	0x3d21ee56	0.039533935
249	0xbe3613bd	-0.17780967
250	0xbe02eb77	-0.12785135
251	0x3c4672dd	0.0121123465
252	0xbe1322d3	-0.14368753
253	0x3c82cdbe	0.015967246
254	0xbe0c4b4f	-0.13700603
255	0xbe50f735	-0.20406802

enc_layer_3.0.bias f4 [8]
0	0xbe185fab	-0.14880244
1	0xbd58f7d1	-0.05297071
2	0x3d1c7051	0.03819305
3	0x3e1c752b	0.15279071
4	0xbdb223f6	-0.08698265
5	0xbc295cca	-0.010337064
6	0xbdab558e	-0.08365928
7	0x3d950a11	0.07277311

dec_layer_1.0.weight f4 [8, 8, 3, 3]
0	0x3d0f2419	0.034946535
1	0xbd7d0922	-0.061776288
2	0xbd46acd7	-0.048504677
3	0x3d123f65	0.03570499
4	0xbcf70c5c	-0.03015726
5	0x3d815230	0.06314504
6	0xbdf04f4f	-0.11733877
7	0x3da528d4	0.08064428
8	0x3d18bd55	0.037289936
9	0xbc65aa5c	-0.014017668
10	0x3bd1e2bf	0.006405204
11	0xbe163da0	-0.14671946
12	0xbd8cec0e	-0.06880961
13	0xbe0f7c58	-0.14012277
14	0xbdb89c91	-0.09014238
15	0x3ae50803	0.0017473701
16	0xbd557c07	-0.052120235
17	0xbde475e3	-0.111552976
18	0x3d4e89fa	0.050424553
19	0x3d1fd7e5	0.039024252
20	0x3c87259f	0.016497431
21	0x3e047ccc	0.12938231
22	0xbd9b23c3	-0.075751804
23	0x3de37c77	0.11107724
24	0xbde5b279	-0.112156816
25	0xbd38fa1c	-0.045160398
26	0xbe0dc02a	-0.13842836
27	0xbdc318c6	-0.095262095
28	0x3e076247	0.13221084
29	0x3c6d838f	0.014496698
30	0x3d3e80ea	0.04650966
31	0xbd46b4d5	-0.0485123
32	0xbd265f00	-0.040617943
33	0xba83625e	-0.0010023823
34	0x3de9bc72	0.11412896
35	0xbd349ae9	-0.044093046
36	0xbc0231f5	-0.007946481
37	0xbbb7ac5a	-0.0056052627
38	0xbce6b549	-0.028162615
39	0xbdf3105f	-0.11868357
40	0x3d001693	0.03127153
41	0xbdc92c46	-0.098228976
42	0xbe1bc89b	-0.15213244
43	0xbc1b0d03	-0.009463551
44	0x3c91be91	0.017791064
45	0xbc1d5b17	-0.009604237
46	0x3db02474	0.08600703
47	0x3d86786b	0.06565937
48	0x3d4ac79e	0.049506776
49	0x3e3ade8d	0.18248959
50	0xbdcfdaba	-0.10149141
51	0x3e5693e3	0.20954852
52	0xbd914ef3	-0.070951365
53	0x3e2c0a3b	0.16800778
54	0xbd8568fb	-0.06514164
55	0xbc5cf3ee	-0.013485892
56	0xbd2acc8c	-0.041698977
57	0xbd958c1a	-0.07302113
58	0xbde91320	-0.11380601
59	0x3cf18813	0.02948383
60	0xbe10a0b4	-0.14123803
61	0xbcf8d341	-0.030374171
62	0xbcfc18c7	-0.030773534
63	0xbc4d6409	-0.012536057
64	0x3d154e95	0.036451895
65	0x3c6f3cfc	0.014601942
66	0xbe07bb6d	-0.13255091
67	0xbd051d47	-0.032498624
68	0x3d564aa0	0.05231726
69	0xbd9f8376	-0.07788746
70	0xbe158f8c	-0.1460554
71	0xbdf6d03c	-0.12051436
72	0x3cb550b7	0.022133214
73	0x3df2fca8	0.118645966
74	0x3cb6adcf	0.022299675
75	0x3d752cc8	0.05985716
76	0x3e230ce1	0.15922882
77	0x3e1b729b	0.15180437
78	0x3d989489	0.07450206
79	0x3dc35598	0.0953781
80	0x3de0daa1	0.109792
81	0x3d1991da	0.03749261
82	0x3e1426d0	0.14467931
83	0x3ddfc093	0.109254025
84	0xbd5795ec	-0.05263321
85	0x3c8a2734	0.016864397
86	0xbcde0239	-0.02710067
87	0xbd512046	-0.05105617
88	0x3d5acf29	0.05342022
89	0xbd438a57	-0.047739353
90	0xbd7daf6e	-0.06193488
91	0xbe3ab611	-0.18233515
92	0x3dede0e2	0.116151586
93	0xbe0e373e	-0.1388826
94	0xbc29e51a	-0.0103695635
95	0xbe12a949	-0.1432239
96	0x3c4af771	0.012388096
97	0xbd7b766b	-0.06139223
98	0xbdaef1f9	-0.08542246
99	0xbd857c76	-0.0651788
100	0x3d99f39d	0.07517169
101	0x3dbff4d5	0.0937287
102	0x3d23f717	0.040030565
103	0x3df63492	0.12021746
104	0x3d79b07a	0.060959317
105	0x3d6755f4	0.056478456
106	0xbd8c7bb0	-0.06859529
107	0xbae7526d	-0.0017648466
108	0x3d6789ac	0.05652778
109	0x3d2d25a1	0.042272214
110	0x3d92ff33	0.07177582
111	0x3cecb1a4	0.0288933
112	0x3de69494	0.11258808
113	0x3db5e932	0.08882369
114	0xbcb2ed89	-0.021841781
115	0x3dbf9965	0.093554296
116	0xbdbbd709	-0.09171874
117	0x3df8efff	0.121551506
118	0xbce2830d	-0.02765038
119	0x3b90d937	0.0044204253
120	0x3da9a25f	0.08282923
121	0xbcd8575e	-0.026408847
122	0x3dd5828b	0.1042529
123	0xbd29f9ca	-0.041497983
124	0x3d7e6ed5	0.062117416
125	0xbc9287b2	-0.01788697
126	0x3e04e015	0.12976106
127	0x3dc1bf04	0.094602615
128	0xbd1ff325	-0.03905024
129	0xbd4c984c	-0.04994993
130	0x3d290d44	0.041272417
131	0xbd5bc69e	-0.053656213
132	0xbd20978a	-0.03920702
133	0xbd9d82a9	-0.07690937
134	0x3e15beeb	0.1462361
135	0x3c9ac6f9	0.018893706
136	0x3deb5cba	0.114922956
137	0x3d9ac3c1	0.07556868
138	0x3db3db5f	0.08782076
139	0x3c6831a5	0.014171992
140	0xbdc477ce	-0.095931634
141	0x3d82340d	0.06357584
142	0x3d3a0696	0.045416437
143	0xbd912e3f	-0.07088899
144	0x3d08204b	0.033233922
145	0x3df04c87	0.117333464
146	0x3ce2180a	0.027599353
147	0x3e0c9f49	0.13732637
148	0x3ccfc322	0.025361601
149	0x3e0045f0	0.12526679
150	0x3d8ce310	0.06879246
151	0x3cafc8eb	0.02145811
152	0x3d1b2ec1	0.037886385
153	0x3dc953f5	0.09830467
154	0x3d504198	0.050843805
155	0x3da91887	0.08256631
156	0xbd8ee16b	-0.06976589
157	0x3c1abfda	0.009445155
158	0xbdbceb82	-0.09224607
159	0xbc781333	-0.015141296
160	0xbd561142	-0.052262552
161	0x3df7d5de	0.12101339
162	0xbda35e33	-0.079769515
163	0xbe101a4d	-0.14072533
164	0x3aaf566f	0.00133772
165	0xbdf0b34b	-0.117529474
166	0xbd8e1d00	-0.06939125
167	0xbde8e0be	-0.11370991
168	0x3c1fdc0f	0.009757056
169	0x3d97fcb8	0.07421249
170	0x3dcfb776	0.10142414
171	0x3d2ab868	0.04167977
172	0x3c1e5615	0.009664078
173	0x3d45825e	0.04822003
174	0x3d2777e6	0.04088583
175	0x3d913ad6	0.070913
176	0x3e31a371	0.17347504
177	0x3d60d32b	0.054888885
178	0xbd1d070d	-0.038336802
179	0x3c6a5bc7	0.014304108
180	0xbd89e3bc	-0.0673289
181	0xbbb987de	-0.0056619486
182	0xbc8a16d7	-0.016856594
183	0x3d8b3f17	0.06799143
184	0x3e20800e	0.15673849
185	0xbc192ff8	-0.009349816
186	0x3cb116a5	0.021617243
187	0x3c3cbe45	0.011519973
188	0xbd1fe2b0	-0.039034545
189	0xbd8db497	-0.069192104
190	0x3df781fe	0.12085341
191	0xbda7dc7b	-0.0819635
192	0x3e09846a	0.13429418
193	0xbe060ea6	-0.13091525
194	0x3dd38487	0.10328012
195	0xbe150faa	-0.14556757
196	0x3c317f7d	0.010833618
197	0xbc90ef22	-0.017692152
198	0x3dd66e45	0.10470251
199	0xbda5e2a2	-0.080998674
200	0x3e035927	0.12826978
201	0xbcfe5f12	-0.031051192
202	0xbdda3423	-0.106544755
203	0x3d1d7035	0.038437087
204	0x3e085fa3	0.13317733
205	0x3ca9f7db	0.02074807
206	0x3dae1e86	0.08501916
207	0xbc73e7e2	-0.014886828
208	0xbce676ed	-0.02813288
209	0x3be11df5	0.0068700262
210	0x3c0f012b	0.008728306
211	0x3dca29ae	0.09871231
212	0x3e319546	0.173421
213	0xbd2bd946	-0.041955255
214	0x3d9341fc	0.0719032
215	0x3da32472	0.07965936
216	0x3d40868b	0.04700331
217	0xbe02fde6	-0.12792167
218	0xbdd62cb3	-0.104577444
219	0xbe2369ea	-0.15958372
220	0xbd984e93	-0.07436862
221	0x3d0c11e1	0.03419674
222	0xbd2e7fa8	-0.04260221
223	0xbe0cbe90	-0.13744569
224	0x3d83062a	0.0639766
225	0xbcd97c27	-0.026548458
226	0xbd7cb4e3	-0.061695945
227	0x3cd9caf1	0.026586028
228	0xbdb01803	-0.0859833
229	0xbd4183c4	-0.047244802
230	0xbd00f614	-0.03148468
231	0xbdc7bab3	-0.09752407
232	0x3c8f4080	0.01748681
233	0xbdb94468	-0.090462506
234	0xbdc4993f	-0.09599542
235	0x3d8675aa	0.065654114
236	0xbdc7ecd8	-0.09761971
237	0x3c42a999	0.011881256
238	0xbe1db1ae	-0.1539981
239	0x3ddffe32	0.10937156
240	0xbe1c61cd	-0.15271683
241	0x3e046f2d	0.12933035
242	0x3cc42071	0.02394125
243	0xbd97762c	-0.07395586
244	0x3cc29b35	0.02375565
245	0xbda31e34	-0.07964745
246	0xbdc131e2	-0.094333425
247	0xbe089e93	-0.13341741
248	0xbdff20a6	-0.12457399
249	0xbdeb6b2c	-0.11495051
250	0x3c60ff35	0.013732721
251	0x3c973ec8	0.018462554
252	0x3c73dfeb	0.014884929
253	0xbc254b47	-0.010088748
254	0xbb1c5818	-0.002385622
255	0x3d84638f	0.06464302

dec_layer_1.0.bias f4 [8]
0	0xbd9decc8	-0.07711178
1	0x3de91a03	0.113819145
2	0x3dfad579	0.12247748
3	0xbd1f1609	-0.038839374
4	0xbd9a1877	-0.075241975
5	0xbd852d4e	-0.06502782
6	0x3d2627b1	0.040565196
7	0xbde42bdc	-0.11141178

dec_layer_2.0.weight f4 [12, 8, 5, 5]
0	0x3d499a18	0.04921922
1	0xbbff8afd	-0.007798551
2	0x3d867f3f	0.06567239
3	0x3ca4b6f9	0.02010678
4	0x3c4df2ff	0.012570142
5	0xbd357148	-0.044297487
6	0x3dcac619	0.099010654
7	0x3c484b93	0.01222505
8	0x3d24fa0c	0.040277526
9	0x3b80e39e	0.003933384
10	0x3c7e5d2f	0.015525146
11	0x3dbffac3	0.09374001
12	0xbd47ee0c	-0.048811004
13	0x3d310494	0.043217257
14	0xbd36bbd5	-0.044612724
15	0xbacb1dc1	-0.0015496538
16	0xbcc91a26	-0.024548601
17	0xbb631854	-0.0034651952
18	0xbd68cc2e	-0.056835346
19	0xbd4ec645	-0.050482053
20	0xbcd6b5fb	-0.026209822
21	0xbd619f20	-0.055083394
22	0x3cb9e924	0.022694178
23	0x3b3aa988	0.0028482396
24	0xbd9b4bac	-0.07582793
25	0xbce2e8a2	-0.027698819
26	0xbda0f6d0	-0.07859576
27	0x3b17499c	0.0023084646
28	0xbd335d4f	-0.043790158
29	0xbda16b60	-0.07881808
30	0xbbd410d1	-0.0064717312
31	0xbd975899	-0.073899455
32	0xbd3ace45	-0.04560687
33	0x3bca0a4a	0.0061657773
34	0xbca9fc3f	-0.020750163
35	0xbde0728b	-0.10959347
36	0xbc8b46c6	-0.01700152
37	0xbd6c65e4	-0.057714358
38	0xbd05de53	-0.032682728
39	0xbc9c73c1	-0.019098165
40	0xbdbd340c	-0.09238443
41	0xbdb6a40a	-0.08918007
42	0x3bfca822	0.0077104727
43	0xbb8389ea	-0.0040142434
44	0x3b9ca1b2	0.004780018
45	0xbd9cd056	-0.076569244
46	0xbd8c796f	-0.06859099
47	0xbe0ad879	-0.1355914
48	0xbdf46325	-0.11932973
49	0xbc0c63c6	-0.00856871
50	0xbd83c2c1	-0.06433631
51	0xbc4cc1bb	-0.012497361
52	0x39d8e383	0.0004136824
53	0x3cc99049	0.024604933
54	0xbd19a976	-0.037515126
55	0xbd236306	-0.039889358
56	0xbbcdf6aa	-0.006285508
57	0xbd54000a	-0.05175785
58	0xbd9747c6	-0.073867366
59	0xbd98ac93	-0.07454791
60	0xbdaf1bb7	-0.08550208
61	0xbd848c2c	-0.06472048
62	0xbc18a9dc	-0.009317841
63	0xbd7f05d7	-0.06226143
64	0xbdc8c5c9	-0.098033495
65	0xbdb14bf5	-0.08657066
66	0xbd7a35a5	-0.061086316
67	0x3c57c17a	0.013168687
68	0xbda732b0	-0.08163965
69	0xbdbba309	-0.09161956
70	0xbcacd156	-0.021095913
71	0xbd5b4d46	-0.05354049
72	0xbaf043d1	-0.0018330758
73	0xbd2f96c9	-0.04286841
74	0xbd3278bf	-0.043572184
75	0xbd13e817	-0.03611001
76	0x3dc1c905	0.094621696
77	0xbbe13593	-0.0068728416
78	0x3d8a0ebe	0.06741093
79	0x3aaeba74	0.0013330714
80	0x3d86ca9d	0.06581614
81	0x3db2f4f1	0.08738125
82	0xbcb320e2	-0.021866266
83	0x3abab660	0.0014245026
84	0x3cdb0b74	0.02673886
85	0x3a60f4d1	0.00085814024
86	0x3d8ede3e	0.06975983
87	0x3c625a5f	0.013815491
88	0xbbe1180e	-0.0068693226
89	0x3d372b1a	0.04471884
90	0x3d61ad6a	0.05509702
91	0xbd2b9969	-0.04189435
92	0x3cdfe937	0.027332885
93	0x3d68a8d6	0.05680164
94	0xbc00f921	-0.007871897
95	0x3d10e8db	0.03537832
96	0x3d0a84cc	0.03381805
97	0x3d651f68	0.055938154
98	0xbcfa021a	-0.03051858
99	0xbb4125ed	-0.0029472068
100	0x3d20f70f	0.039298113
101	0x3d5ef9ab	0.05443732
102	0x3da5fde9	0.0810507
103	0x3d8720d4	0.06598058
104	0x3c7cc132	0.015426921
105	0x3be75a1d	0.007060303
106	0x3de3883f	0.11109971
107	0x3dd74e20	0.10512948
108	0x3d200702	0.039069183
109	0xbbe7edb2	-0.007077896
110	0xbd7011a2	-0.058610566
111	0x3cbd1b1c	0.023084216
112	0x3c801be9	0.015638309
113	0x3d2c7599	0.042104337
114	0xbc844464	-0.016145892
115	0xbc87615b	-0.016525915
116	0x3c859a47	0.016308917
117	0xbc24940b	-0.010045062
118	0xbd2d9e39	-0.04238722
119	0xbc14fe2e	-0.009093804
120	0xbdbe759d	-0.09299777
121	0x3b723a4b	0.0036961015
122	0xbc319ba2	-0.010840328
123	0xbca7cedf	-0.020484386
124	0xbdcf4dc9	-0.10122258
125	0x3c948b3a	0.018132795
126	0xbbd7be77	-0.0065839845
127	0xbce09f9e	-0.027419861
128	0x3d5fb1b9	0.05461285
129	0xbd89bbc6	-0.06725268
130	0x3c6d8ce4	0.014498923
131	0x3d6f77a7	0.05846372
132	0x3d875614	0.06608215
133	0xbd388960	-0.045052886
134	0x3cdfbcf7	0.027311785
135	0x3c4854a6	0.012227213
136	0x3d494d4a	0.049145974
137	0x3da0768e	0.078351125
138	0xbc5e0bd4	-0.013552625
139	0x3ce484d5	0.02789537
140	0x3c6add19	0.01433494
141	0x3bd135b5	0.006384576
142	0xbd03078d	-0.031989623
143	0xbc1ec2eb	-0.009690027
144	0xbdbca101	-0.092103966
145	0xbc6dde70	-0.014518365
146	0xbca376a5	-0.019954035
147	0x3d2e8c6d	0.04261439
148	0xbd855dcf	-0.06512033
149	0xbd86e097	-0.06585806
150	0xbdc25b86	-0.09490113
151	0xbbf8abd2	-0.007588842
152	0x3cc816ca	0.02442493
153	0xbbb38129	-0.0054780436
154	0xbcfa34d3	-0.030542767
155	0xbc730716	-0.014833232
156	0x3cce5ed7	0.025191708
157	0x3c9e280e	0.019306209
158	0xbd8fb9ee	-0.07017885
159	0xbd40b64b	-0.047048848
160	0x3c91cc06	0.017797481
161	0xbd0937b3	-0.033500385
162	0xbd3231e6	-0.043504618
163	0xbd0bc59f	-0.034124013
164	0xbd546d18	-0.051861852
165	0xbd925ef6	-0.071470186
166	0xbde2a79e	-0.11067127
167	0xbd5e5868	-0.05428353
168	0xbde3fff6	-0.11132805
169	0xbe051e10	-0.12999749
170	0xbde4279c	-0.111403674
171	0xbdb9fb85	-0.09081177
172	0xbd9382a1	-0.0720265
173	0xbdc9d34d	-0.098547556
174	0xbcc12b7d	-0.023580307
175	0xbc8603c9	-0.016359227
176	0x3cc84e0e	0.024451282
177	0x3d02eeab	0.031965893
178	0xbce3b122	-0.027794424
179	0xbd94c584	-0.072642356
180	0x3cce524f	0.025185732
181	0x3d1c0234	0.03808804
182	0x3d3b7244	0.04576327
183	0x3d016892	0.031593867
184	0xbd04508e	-0.032303385
185	0xbd1a2394	-0.037631586
186	0xbd85b1b7	-0.06528037
187	0xbb2379d0	-0.0024944432
188	0xbcf54e4a	-0.029944558
189	0x3bc7a59a	0.0060927393
190	0xbd9b60a8	-0.07586795
191	0xbcc9e892	-0.024647031
192	0xbaaf7f01	-0.001338929
193	0x3d13b9ac	0.036065742
194	0xbca7c3ad	-0.020479048
195	0xbd91bc1b	-0.071159564
196	0xbc53e707	-0.012933499
197	0x3d243b3c	0.040095553
198	0xbbce7c99	-0.0063014743
199	0xbd98a5a0	-0.074534655
200	0xbbce1dab	-0.006290158
201	0x3c08f315	0.0083587365
202	0xbcdc4d17	-0.026892228
203	0x3dc07a8f	0.09398376
204	0xbd0bc2f4	-0.03412147
205	0x3dd2782f	0.102768295
206	0x3cc80037	0.024414165
207	0x3c115abf	0.008871733
208	0x3c1f9b79	0.009741657
209	0x3d668276	0.05627676
210	0xbcb56981	-0.022145035
211	0x3d8ce4f6	0.06879608
212	0xbc6ce098	-0.014457844
213	0xbce59f03	-0.028029924
214	0x3da8fad2	0.08250965
215	0x3d842544	0.0645242
216	0x3d20b327	0.039233353
217	0x3d502bc5	0.050822992
218	0x3d78108c	0.060562655
219	0x3d1d16b0	0.038351715
220	0x3d559718	0.052146047
221	0x3d0886ee	0.033331804
222	0xbc9932ac	-0.01870092
223	0x3c8d1b1e	0.017224845
224	0x3d1e2999	0.03861389
225	0x3cb4edc4	0.022086032
226	0xbbdda204	-0.0067636985
227	0xbda55e69	-0.08074648
228	0x3b70b035	0.0036726121
229	0x3cb06953	0.021534598
230	0xbc81f976	-0.015866023
231	0xbd623535	-0.055226523
232	0xbd44987f	-0.047996994
233	0xbc78a67c	-0.015176412
234	0x3d6c918e	0.057756
235	0xbd8f50c2	-0.06997825
236	0x3d2c71d0	0.042100728
237	0x3d8365ae	0.06415878
238	0xbccfa63f	-0.025347827
239	0xbb5baab3	-0.0033518493
240	0xbd1da984	-0.03849174
241	0x3ce0dc7c	0.027448885
242	0x3c2bcf14	0.010486383
243	0x3d2d183c	0.04225944
244	0xbd0c10da	-0.03419576
245	0xbd985acf	-0.07439195
246	0x3d6af2a9	0.057360325
247	0x3d5abb71	0.053401414
248	0x3d3611b0	0.044450462
249	0x3cc80706	0.024417412
250	0xbd1e7bde	-0.038692348
251	0x3ad4fd5d	0.0016249825
252	0x3dd443e7	0.10364514
253	0xbc716edc	-0.014735904
254	0xbc6c100c	-0.014408123
255	0x3d3f0068	0.046631247

dec_layer_2.0.bias f4 [8]
0	0xbd337555	-0.04381307
1	0xbc06dea9	-0.008231797
2	0x3d9e3044	0.0772405
3	0xbc02bec9	-0.007980057
4	0xbc8db756	-0.017299335
5	0xbc0c32d2	-0.008557038
6	0x3d42e323	0.047579896
7	0x3c0af098	0.008480214

dec_layer_3.0.weight f4 [8, 3, 5, 5]
0	0x3da1b18d	0.07895193
1	0xbd9fa32d	-0.07794795
2	0x3d8aa91a	0.06770535
3	0x3d978e0f	0.074001424
4	0x3dba0698	0.09083289
5	0x3d9fc10d	0.078004934
6	0x3e1cac3b	0.15300076
7	0x3c9c15b1	0.019053312
8	0xbd388a26	-0.045053624
9	0x3d7f6dc7	0.06236055
10	0xbc846507	-0.016161455
11	0xbbb7e2e0	-0.0056117624
12	0x3dc7bfaa	0.09753354
13	0x3db06a5d	0.08614037
14	0x3d34636c	0.04404013
15	0xbc204d0d	-0.009783995
16	0xbd6df68d	-0.058096457
17	0x3d5ee67e	0.054419033
18	0x3dcd0ace	0.100118265
19	0x3d86cef7	0.06582444
20	0x3d34d0b7	0.04414436
21	0x3d95a858	0.073075
22	0x3c8736f7	0.016505701
23	0xbd542507	-0.051793125
24	0xbd7f24f2	-0.062291093
25	0x3d9b910a	0.075960234
26	0x3de1a53f	0.11017846
27	0xbc499730	-0.012304112
28	0x3d5e7f8c	0.054320857
29	0x3df7e61a	0.12104435
30	0x3debfe6f	0.11523139
31	0xbd41731b	-0.047228914
32	0x3c9325b3	0.017962312
33	0x3c887a9f	0.016660033
34	0x3df25055	0.11831728
35	0x3db88ee8	0.09011632
36	0xbd63605e	-0.055511825
37	0x3cc2ca3b	0.023778072
38	0x3d0dcb34	0.034617618
39	0x3df7b08c	0.120942205
40	0x3d984f69	0.07437021
41	0x3a860bf8	0.0010226956
42	0x3e03c579	0.12868299
43	0xbdb46015	-0.08807389
44	0x3c30e9e2	0.0107979495
45	0x3b83f392	0.0040268386
46	0x3cc004b9	0.023439752
47	0x3dd84fe2	0.105621114
48	0x3d48ff84	0.049071804
49	0x3db69977	0.0891599
50	0xbd585630	-0.05281657
51	0x3dc6e7ac	0.09712157
52	0x3cbcd422	0.023050372
53	0xbd8588c5	-0.06520227
54	0x3d70648a	0.05868963
55	0xbd96503f	-0.073395245
56	0xbd5f0693	-0.05444963
57	0xbd9e63c2	-0.07733871
58	0xbc66d497	-0.014088771
59	0x3db20748	0.08692795
60	0x3cf52270	0.029923648
61	0x3bb77a40	0.00559929
62	0x3c2b5587	0.010457403
63	0x3db0c33f	0.0863099
64	0xbce4be76	-0.02792285
65	0x3d4f17f4	0.050559953
66	0x3d11dafe	0.035609238
67	0x3dc3a91a	0.09553738
68	0x3d716777	0.058936562
69	0xbd963f08	-0.07336241
70	0xbdc48565	-0.095957555
71	0xbdabdaa0	-0.08391309
72	0x3cf66b90	0.030080587
73	0x3ca292a6	0.019845318
74	0xbd72b20c	-0.05925183
75	0x3daa096c	0.08302578
76	0x3ca93a5d	0.020657713
77	0xbbc68f4f	-0.006059564
78	0xbd211146	-0.039323114
79	0xbc871ab3	-0.016492223
80	0x3d9a373a	0.07530065
81	0xbdb761dd	-0.08954213
82	0x3d72251f	0.059117433
83	0xbdee363a	-0.11631437
84	0xbafb82b0	-0.0019188728
85	0xbd4e2f7a	-0.050338246
86	0x3c9f90a6	0.019478153
87	0xbd9710a5	-0.073762216
88	0x3c5b972d	0.013402742
89	0xbdcc50e5	-0.09976367
90	0x3cd92c2f	0.026510326
91	0xbde9741f	-0.113991015
92	0x3db3d408	0.08780676
93	0x3cb2d8c4	0.021831878
94	0xbdce3667	-0.1006897
95	0x3cf3152a	0.029673178
96	0xbdd221c6	-0.10260348
97	0x3da16700	0.07880974
98	0x3d8956c6	0.06706004
99	0xba166063	-0.00057364086
100	0xbbe7f9e8	-0.0070793517
101	0xbd9a8c1f	-0.07546257
102	0x3d8f58ea	0.06999381
103	0xbccbefac	-0.024894558
104	0x3d9ace1d	0.07558844
105	0x3b33c14f	0.0027428453
106	0xbc41ea90	-0.011835709
107	0xbac4a7da	-0.0015003637
108	0x3b298450	0.0025866218
109	0xbd93355f	-0.07187914
110	0x3dbaaa53	0.09114518
111	0x3ccc0829	0.024906235
112	0x3dc1f378	0.09470266
113	0xba5a83f1	-0.0008335701
114	0x3dbd48fa	0.09242435
115	0x3de7dee0	0.11321807
116	0x3d395544	0.04524733
117	0xbcb44146	-0.022003781
118	0xbd18efd6	-0.0373381
119	0x3d31a727	0.0433723
120	0x3d4c5c57	0.04989275
121	0x3c327f12	0.010894554
122	0x3dae8d3d	0.08523033
123	0xbc295a08	-0.0103364065
124	0xbcfb6944	-0.030689843
125	0x3df16295	0.11786381
126	0xbd3c1842	-0.04592157
127	0x3c964d9d	0.018347556
128	0xbc4e9874	-0.01260959
129	0xbdb8e5a9	-0.09028179
130	0x3dc012a0	0.093785524
131	0xbd9f12ee	-0.077672824
132	0xbce9776f	-0.028499333
133	0xbd455146	-0.04817321
134	0x3de5bb46	0.1121736
135	0xbb03cabf	-0.002010986
136	0xbceddc67	-0.02903576
137	0x3e1d4322	0.1535764
138	0x3d92964c	0.07157573
139	0x3dbf5ea4	0.09344223
140	0xbd49af08	-0.04923919
141	0x3dbd9cf5	0.09258453
142	0x3c3a47dc	0.011369672
143	0x3da39d88	0.07989031
144	0x3dc392d9	0.09549493
145	0xbc9bc056	-0.019012611
146	0x3d957291	0.072972424
147	0xbcdcafe1	-0.026939334
148	0x3cb0c455	0.021577993
149	0xbb8d064b	-0.0043037287
150	0x3d4d1ce7	0.05007639
151	0x3d728d9f	0.05921709
152	0x3d0e6dbc	0.03477262
153	0xbd4d558f	-0.050130423
154	0xbd302c52	-0.043011017
155	0xbe0ef611	-0.13961054
156	0xbd0d6813	-0.03452308
157	0x3b91bc5d	0.0044475035
158	0x3d494aad	0.049143482
159	0x3cebc70e	0.02878144
160	0xbd8144c6	-0.063119456
161	0x3d561aa0	0.052271485
162	0x3c11aede	0.008891789
163	0xbd66cec7	-0.056349542
164	0xbe117dac	-0.14208096
165	0xbe18a74f	-0.14907573
166	0xbd893f33	-0.067015074
167	0xbcc92871	-0.024555417
168	0x3d354ec4	0.04426457
169	0xbc8cf51f	-0.017206727
170	0xbdc77c14	-0.09740463
171	0x3d1af5ac	0.037831947
172	0x3ca75792	0.020427499
173	0x3bcbfb24	0.0062250067
174	0x3d5387cb	0.051643174
175	0x3b46d815	0.0030341197
176	0x3da45dff	0.08025741
177	0x3dc14c33	0.09438362
178	0x3ddb8e21	0.10720468
179	0xbb28b3d2	-0.0025741947
180	0x3d171df6	0.036893807
181	0xbcb4127b	-0.021981468
182	0x3d3addde	0.045621745
183	0xbdc3098f	-0.095233075
184	0x3d81cd4b	0.06337985
185	0x3d431617	0.04762849
186	0x3dddaf0d	0.10824404
187	0x3d68863a	0.056768633
188	0x3c894df4	0.016760804
189	0x3df640d3	0.12024083
190	0x3ca5cf7b	0.020240536
191	0x3940f8e3	0.00018403264
192	0x3d617507	0.055043247
193	0xbc12724f	-0.008938386
194	0x3d143891	0.03618676
195	0x3ccb0e9a	0.024787236
196	0xbd8e88de	-0.06959699
197	0x3cefe726	0.029285025
198	0x3d3a4e79	0.045484994
199	0x3d0d5fbb	0.034515124
200	0x3a523ace	0.0008019627
201	0xbd16f5a5	-0.03685536
202	0x3d9465a2	0.072459474
203	0x3e246659	0.16054668
204	0xbd718b74	-0.058970883
205	0xbce09b5d	-0.027417833
206	0x3de1d65f	0.11027216
207	0x3d1b5a02	0.037927635
208	0x3dac4ef3	0.08413496
209	0x3d89e7cc	0.06733665
210	0x3dda5d91	0.106623776
211	0x3e2692a8	0.16266882
212	0x3d378549	0.044804845
213	0x3e41a42d	0.18910284
214	0x3de273f5	0.11057273
215	0xbb70a859	-0.0036721437
216	0x3df02241	0.117252834
217	0x3cea25c1	0.028582456
218	0xbd10385c	-0.03521
219	0x3d7eca7c	0.062204823
220	0x3d241d4c	0.040067002
221	0x3cf4defb	0.029891482
222	0x3dc4ed41	0.09615565
223	0x3ddefd35	0.10888139
224	0xbc4d090e	-0.012514366
225	0xbd9f9bdd	-0.077934004
226	0x3da95b19	0.082693286
227	0x3d68b525	0.056813378
228	0xba338260	-0.00068477355
229	0x3cf7a40e	0.030229595
230	0xbc947656	-0.018122833
231	0x3e053ad2	0.1301072
232	0x3cc30112	0.023804221
233	0xbccc272d	-0.024921024
234	0x3e18fa04	0.14939123
235	0x3c5fa9b8	0.013651304
236	0x3d46d8a9	0.048546467
237	0x3da770c8	0.08175808
238	0x3dfb7ae5	0.122793
239	0xbc558949	-0.01303322
240	0x3dd77319	0.1052
241	0xbd0430de	-0.032273166
242	0xba405e3f	-0.00073382625
243	0x3dd49bb2	0.10381259
244	0xbc86d5dc	-0.016459398
245	0xbcf29c8b	-0.029615661
246	0x3db6dcfc	0.08928868
247	0x3e1f85a4	0.15578324
248	0x3ce5ec80	0.028066874
249	0x3d608687	0.054815795
250	0xbd487c1c	-0.048946485
251	0x3d0f44ad	0.034977604
252	0xbd8f54ed	-0.0699862
253	0xbc83c682	-0.016085867
254	0xbdb0e3e5	-0.086372174
255	0xbd4695b3	-0.048482608

dec_layer_3.0.bias f4 [3]
0	0xbd27ac5c	-0.04093586
1	0x3c097fc0	0.008392274
2	0xbc760a6d	-0.015017134
