save/exp_1/gen_model.pt (torch, 27291 bytes, 12 tensors)

enc_layer_1.0.weight f4 [16, 3, 5, 5]
0	0x3dc7037b	0.09717461
1	0x3bc1474a	0.005898391
2	0x3dfc10a2	0.1230786
3	0x3dc642de	0.09680723
4	0x3d9b14bc	0.07572314
5	0x3e049518	0.129475
6	0x3d0acffd	0.03388976
7	0x3e4576f5	0.1928366
8	0x3d162a29	0.0366613
9	0x3d081421	0.03322232
10	0x3e090824	0.13382012
11	0xbd08ffbd	-0.033447016
12	0x3d9bdb8c	0.076102346
13	0x3d585d19	0.05282316
14	0x3dad2380	0.08454037
15	0x3dc75494	0.09732929
16	0xbd48daa7	-0.049036648
17	0x3e1b16da	0.15145436
18	0x3cbf5f72	0.023360942
19	0x3de6b96b	0.112658344
20	0x3e0684a8	0.13136542
21	0xbbd2a292	-0.0064280713
22	0x3ba1b004	0.004934313
23	0xbb8f87ec	-0.004380217
24	0x3d91c51d	0.071176745
25	0xbc4a4668	-0.012345888
26	0x3d1bd7dd	0.03804766
27	0x3d72fda2	0.059323914
28	0x3dfd91c3	0.123813175
29	0x3ddd6f4c	0.10812244
30	0xbdbb2951	-0.0913874
31	0xbdbaa9a4	-0.09114388
32	0x3decf3e9	0.1156996
33	0x3db5376d	0.08848462
34	0xba29eed3	-0.0006482426
35	0xbd6e83b7	-0.05823108
36	0x3dd92882	0.106034294
37	0x3e0978ba	0.1342496
38	0x3d174064	0.036926642
39	0xbd57d4bc	-0.052693114
40	0xbdf55191	-0.11978448
41	0xbe1c9736	-0.15292057
42	0xbdd4a9a6	-0.1038392
43	0xbd8cd530	-0.068766
44	0xbda6e524	-0.08149174
45	0xbd88574c	-0.066572756
46	0xbc93e637	-0.01805411
47	0xbe07aebf	-0.13250254
48	0xbe13f43e	-0.1444864
49	0xbdb460d0	-0.08807528
50	0xbdb7e62f	-0.08979451
51	0xbb4d9460	-0.0031368956
52	0x3df54be9	0.11977369
53	0x3e0eefae	0.13958618
54	0xbda85fc5	-0.082213916
55	0x3dcb93d5	0.09940306
56	0xbd82483c	-0.06361434
57	0x3d9f2514	0.07770744
58	0x3e031e2c	0.12804478
59	0x3d897f94	0.06713787
60	0xbdab9861	-0.08378673
61	0x3d1a425f	0.037660953
62	0x3e043de1	0.1291423
63	0x3dc3c5c5	0.09559206
64	0xbcd1b093	-0.025596892
65	0x3db348ad	0.08754096
66	0xbd5289b8	-0.05140087
67	0x3c09c23a	0.008408124
68	0xbdc6985a	-0.096970275
69	0x3c417a15	0.011808892
70	0x3cfc8343	0.03082431
71	0xbdda9969	-0.10673792
72	0xbd824fc9	-0.06362874
73	0xbe1c5200	-0.15265656
74	0xbe192e5d	-0.14959092
75	0xbd271c68	-0.040798575
76	0xbdf1cfe0	-0.11807227
77	0xbd8823d2	-0.06647457
78	0x3c1d5daa	0.009604851
79	0xbe031f58	-0.12804925
80	0x3d9e6399	0.077338405
81	0xbd91f439	-0.0712666
82	0xbd011593	-0.031514715
83	0x3dae0102	0.08496286
84	0x3be41946	0.0069610206
85	0xbd20e7ed	-0.03928368
86	0x3c73430f	0.014847531
87	0x3b966a73	0.0045903265
88	0xbd84843e	-0.06470536
89	0xbdbf05f2	-0.09327306
90	0xbdc1b626	-0.0945857
91	0xbd9e8e5f	-0.07741999
92	0xbc671a10	-0.014105335
93	0xbdfdb8d0	-0.12388766
94	0xbe09665d	-0.13417955
95	0xbdaa44c4	-0.08313897
96	0xbdac6582	-0.084177986
97	0x3cd29dda	0.025710035
98	0xbdfe4b2f	-0.12416684
99	0xba114298	-0.0005541234
100	0xbdabb6b2	-0.08384456
101	0x3d9c262b	0.076244675
102	0x3d172e83	0.03690959
103	0xbdad85f6	-0.08472817
104	0xbc87eddd	-0.016592914
105	0x3d9b1940	0.075731754
106	0x3dd0912b	0.101839386
107	0x3e1639c1	0.14670469
108	0x3dd8b856	0.10582034
109	0xbd2fcb68	-0.042918593
110	0x3c4c7bcb	0.012480686
111	0x3e1931eb	0.14960448
112	0x3df97711	0.12180913
113	0x3e001b18	0.12510335
114	0xbc91f4a6	-0.017816853
115	0x3deb1a64	0.11479643
116	0xbd246f03	-0.04014493
117	0xbcd905d8	-0.026492044
118	0x3db8c26c	0.09021458
119	0x3d156913	0.03647716
120	0xbd9cb96f	-0.07652556
121	0x3b9dcd7f	0.004815757
122	0x3dbbcd80	0.091700554
123	0x3c3a7f6f	0.011382922
124	0xbd654273	-0.055971574
125	0x3db058f4	0.086107165
126	0x3e19c9e5	0.15018423
127	0x3d920346	0.071295306
128	0xbced4334	-0.028962709
129	0xbe10bd48	-0.14134705
130	0x3d8700cf	0.06591951
131	0x3e152424	0.14564568
132	0x3e376edd	0.17913385
133	0x3ce82380	0.02833724
134	0x3dcd9693	0.100384854
135	0x3e053e92	0.1301215
136	0xbbf8f87b	-0.0075979806
137	0x3dcf7b9f	0.10131001
138	0x3e3594f5	0.17732604
139	0x3d583f0a	0.052794494
140	0x3ceb0eac	0.02869352
141	0x3e2c1014	0.16803008
142	0x3e1fffab	0.15624873
143	0x3e23b921	0.1598859
144	0xbd5687bd	-0.052375544
145	0x3db89575	0.09012882
146	0x3d2b5634	0.041830257
147	0xbce2c6f2	-0.027682755
148	0x3d710326	0.058840893
149	0xbad94af2	-0.0016578122
150	0x3d86b745	0.06577925
151	0x3dfcf082	0.12350561
152	0xbd271006	-0.040786766
153	0xbd12e7ca	-0.035865583
154	0x3ca58435	0.020204643
155	0x3e382101	0.1798134
156	0x3e139bef	0.14414953
157	0x3cf27938	0.029598817
158	0xbdcab4c2	-0.09897758
159	0xbdb43546	-0.087992236
160	0x3e2fe9c0	0.17179012
161	0x3d3e6fa9	0.046493206
162	0x3c812e97	0.015769286
163	0xbe0cc326	-0.13746318
164	0xbdf790c4	-0.12088159
165	0x3e974b1d	0.29549494
166	0x3e1a3746	0.15060148
167	0xbdcb0d24	-0.09914616
168	0xbd5f6691	-0.054541174
169	0x3c74fa37	0.014952234
170	0x3e42eaa7	0.19034825
171	0x3c6b812e	0.014374061
172	0xbdac0006	-0.08398442
173	0xbcc2b922	-0.023769919
174	0xbc93f57d	-0.018061394
175	0xbba4c165	-0.0050279372
176	0x3e26dc66	0.16295013
177	0x3da4a52e	0.08039318
178	0xbce06592	-0.027392182
179	0x39a383ea	0.00031188066
180	0x3dfb2710	0.1226331
181	0x3da901ad	0.08252273
182	0x3e0ce2ad	0.13758345
183	0xbbc9e6f7	-0.0061615664
184	0x3d98ab20	0.074545145
185	0x3df1e1fb	0.118106805
186	0x3e43f089	0.19134726
187	0xbd7a0f44	-0.061049715
188	0xbcb23131	-0.021751972
189	0x3da1b3b9	0.078956075
190	0x3e95f8b6	0.29291314
191	0x3e0926a4	0.13393646
192	0xbd9ca76d	-0.076491214
193	0xbdcee4fd	-0.1010227
194	0xbe1b1dd3	-0.15148096
195	0x3e730e01	0.23735811
196	0x3e3d873b	0.18508618
197	0x3d347275	0.044054467
198	0xbdd5bd4f	-0.104364984
199	0x3c39d868	0.011343099
200	0x3d5bed15	0.053692896
201	0x3c4cb0c9	0.012493321
202	0x3d5a9cd2	0.05337221
203	0xbc877693	-0.016536033
204	0xbc46cb95	-0.012133499
205	0x3dd6ab77	0.10481923
206	0x3cbcf9c7	0.023068322
207	0x3c4909ec	0.012270432
208	0xbc618cc1	-0.0137664685
209	0xbb71b68a	-0.0036882483
210	0x3e4ff5c5	0.20308597
211	0x3d8674fd	0.065652825
212	0x3d43b564	0.04778041
213	0x3d4ef5e5	0.050527472
214	0x3b1d3ebb	0.002399369
215	0x3d56ff72	0.052489705
216	0x3e21f1cb	0.15814893
217	0xbde11f86	-0.10992341
218	0xbe295030	-0.16534495
219	0xbcbf2e9e	-0.023337658
220	0x3abb5537	0.0014292364
221	0x3d3d5840	0.04622674
222	0x3a662d39	0.00087805424
223	0x3cb40267	0.021973802
224	0xbc5832d9	-0.013195717
225	0x3cac6f3e	0.021049138
226	0x3d032452	0.03201706
227	0x3e20ddfd	0.15709682
228	0x3d564165	0.05230846
229	0x3e518d9f	0.2046418
230	0xbdfaab71	-0.12239731
231	0xbd9ff80b	-0.07810982
232	0xbc5645dc	-0.013078179
233	0xbdd4d145	-0.103914775
234	0xbbdaa29b	-0.006672216
235	0x3dbcbf7e	0.09216212
236	0xbb6b76ce	-0.0035928967
237	0xbc1dcb0e	-0.009630932
238	0xbe168e37	-0.14702688
239	0xbca0fba7	-0.019651247
240	0xbcdd8c0f	-0.027044324
241	0x3e55dbbf	0.20884608
242	0x3e204f03	0.1565514
243	0x3d9fc76e	0.0780171
244	0x3def4daa	0.11684735
245	0x3d029cf2	0.031887956
246	0x3e56a8f9	0.20962895
247	0x3db11648	0.08646828
248	0x3d4f46eb	0.050604742
249	0x3d8e715c	0.06955215
250	0x3d96753f	0.07346582
251	0xbc3ace2c	-0.011401694
252	0x3c048cad	0.00809018
253	0xbdcb1f91	-0.0991813
254	0xbd4d68e1	-0.05014885
255	0xbddac2b7	-0.1068167

enc_layer_1.0.bias f4 [16]
0	0x3de7ad87	0.113123946
1	0xbf23e117	-0.64015335
2	0xbdba8504	-0.09107402
3	0x3cab801a	0.020935107
4	0x3d83cbcd	0.06435356
5	0x3c02e802	0.007989885
6	0xbc015473	-0.007893669
7	0x3d41e4e6	0.047337435
8	0x3d90a5de	0.07062887
9	0xbf0bbff6	-0.54589784
10	0xbae6cec0	-0.0017609224
11	0x3da7273d	0.08161781
12	0x3dd7070e	0.104993924
13	0xbf574afa	-0.8409878
14	0x3b63653a	0.0034697787
15	0xbe149646	-0.1451045

enc_layer_2.0.weight f4 [4, 16, 3, 3]
0	0x3c80ea54	0.015736736
1	0x3db6e025	0.08929471
2	0x3e22b7df	0.15890454
3	0x3dcf1c0e	0.10112773
4	0x3e014fd2	0.12628105
5	0xbc94cd1d	-0.018164212
6	0xbcdf7cb1	-0.027281137
7	0x3e968fe0	0.29406643
8	0x3e052407	0.13002025
9	0xbec51b72	-0.38497502
10	0xbe99f796	-0.30071706
11	0xbdf2d5b8	-0.1185717
12	0x3d3efbd3	0.046626877
13	0x3eaa33c0	0.33242607
14	0xbc827815	-0.0159264
15	0xbf08facf	-0.53507704
16	0xbeb83203	-0.35975656
17	0xbd11af40	-0.035567522
18	0xbdb9bdb3	-0.090693854
19	0x3e77bcb0	0.24193072
20	0xbdf8e6e5	-0.12153415
21	0xbc7db76e	-0.015485628
22	0x3c86a031	0.016433807
23	0x3d4ff7c5	0.0507734
24	0x3d92373a	0.0713944
25	0xbe13ed33	-0.14445953
26	0x3e29ba90	0.16575074
27	0x3dad0182	0.08447553
28	0x3e427fe5	0.189941
29	0xbdb74f13	-0.08950629
30	0xbcb38a85	-0.021916637
31	0xbd14e691	-0.036352698
32	0x3df53239	0.1197247
33	0x3d551087	0.052017715
34	0xbde95788	-0.113936484
35	0x3d9a6265	0.075382985
36	0xbc1647e7	-0.009172416
37	0xbd449ac3	-0.047999155
38	0x3d5026bc	0.05081819
39	0x3e13c786	0.14431581
40	0x3e214bc0	0.15751553
41	0xbdd702e1	-0.10498596
42	0xbdd6cae3	-0.10487916
43	0x3d1b0d86	0.037854694
44	0xbd6109f3	-0.05494113
45	0xbb9691fc	-0.0045950394
46	0x3dbdc012	0.0926515
47	0xbe059810	-0.13046288
48	0x3e00b124	0.12567574
49	0x3df9593f	0.121752255
50	0xbdf5224b	-0.119694315
51	0x3b611285	0.0034343314
52	0xbdd2f990	-0.103015065
53	0x3cb5d369	0.022195535
54	0x3d6bb8e0	0.057549357
55	0x3e0536d5	0.13009198
56	0x3c061bb1	0.008185313
57	0x3d534134	0.051575854
58	0x3e4b310b	0.19842927
59	0xbc9a0ea5	-0.018805811
60	0x3ddce31c	0.10785505
61	0x3d9434f3	0.07236662
62	0x3d4015eb	0.046895903
63	0xbdb8bdb5	-0.09020559
64	0xbd5cf259	-0.05394206
65	0xbcc69819	-0.024242448
66	0x3d47f7a9	0.04882017
67	0x3e2b2777	0.16714273
68	0xbd443a52	-0.04790718
69	0x3bb52ff2	0.005529397
70	0xbce87c03	-0.028379446
71	0x3deba889	0.11506755
72	0xbdf706b1	-0.12061823
73	0xbc45fbc2	-0.0120839495
74	0x3d4d273d	0.05008625
75	0x3dd92ae9	0.106038876
76	0x3d8cac81	0.0686884
77	0xbd450b5e	-0.048106544
78	0x3b8d775a	0.0043172063
79	0x3cf6f1bc	0.030144565
80	0xbd510bcf	-0.051036652
81	0x3f192e43	0.59836215
82	0x3f1f0d54	0.6212971
83	0x3e988f14	0.2979666
84	0x3f0a90f0	0.5412741
85	0x3f41c2ab	0.75687665
86	0x3f0991ac	0.537379
87	0x3eb52e21	0.35386756
88	0x3e76da58	0.24106729
89	0x3f13e6a2	0.5777379
90	0x3e36dbd6	0.17857298
91	0x3da91468	0.08255845
92	0xbe552208	-0.20813763
93	0x3db4691b	0.0880911
94	0x3e5a00ad	0.2128932
95	0x3d1c375b	0.03813873
96	0x3e0edaa5	0.13950594
97	0x3e2103c2	0.1572409
98	0xbd910a5d	-0.07082055
99	0x3dfa24c6	0.12214045
100	0x3ddeba4f	0.10875379
101	0xbd8c9fff	-0.06866454
102	0xbd5cc7fe	-0.053901665
103	0xbd8970ca	-0.06710966
104	0x3e8e0ee5	0.2774574
105	0x3d88d097	0.0668041
106	0x3d07c796	0.033149324
107	0xbda6fcaf	-0.08153664
108	0xbd79a261	-0.060945872
109	0x3da57da6	0.08080606
110	0xbd83c235	-0.064335264
111	0x3d6f662d	0.05844705
112	0x3e262886	0.16226396
113	0x3d9d63dc	0.07685062
114	0xbcb02f7c	-0.021507017
115	0xbe1c85a7	-0.1528536
116	0x3e4eae1f	0.2018361
117	0x3e9ddb5c	0.3083142
118	0x3e357b3c	0.17722791
119	0xbdc6aaa0	-0.09700513
120	0x3ca6f14b	0.02037873
121	0x3e02e795	0.12783654
122	0x3db0fb69	0.08641703
123	0xbe656197	-0.22400509
124	0xbddd4c94	-0.10805622
125	0x3a035919	0.000501053
126	0xbd5e4a56	-0.05427011
127	0x3e2fa222	0.17151693
128	0xbd748e25	-0.059705872
129	0x3e07e2d8	0.13270128
130	0x3dcca7ed	0.09992967
131	0x3cd1829b	0.025574973
132	0x3dcb1eba	0.0991797
133	0xbd2ae5e0	-0.041723132
134	0x3d739e55	0.05947717
135	0xbda53dcd	-0.08068428
136	0x3da7227f	0.081608765
137	0xbe15b56c	-0.14619988
138	0xbd0a6f42	-0.03379751
139	0x3d564c9f	0.052319165
140	0x3da23b27	0.07921439
141	0xbb39b055	-0.0028333862
142	0xbe4e4ee1	-0.20147277
143	0x3df1542b	0.11783632
144	0xbc785464	-0.015156839
145	0xbd64295f	-0.055703517
146	0xbcd1ce97	-0.025611205
147	0xbda71e2a	-0.0816005
148	0xbdaaa6b7	-0.083325796
149	0xbd117af4	-0.035517648
150	0x3db145c7	0.08655887
151	0xbe30eee9	-0.17278637
152	0xbd7c6753	-0.061621975
153	0x3c8140e6	0.015778016
154	0xbda45f13	-0.080259465
155	0x3d99a445	0.07502035
156	0x3f422be0	0.758482
157	0x3f1a1c2b	0.6019923
158	0x3f3fad4c	0.74873805
159	0x3e87412f	0.2641692
160	0x3d70031c	0.058596715
161	0x3d0a00c3	0.033692133
162	0xbcf72e53	-0.030173456
163	0xbd163447	-0.03667095
164	0x3d92b83b	0.071640454
165	0xbd4af765	-0.04955234
166	0x3e4e6be6	0.20158347
167	0xbc90c5e3	-0.017672485
168	0x3d7c58ac	0.061608
169	0xbafddfe7	-0.0019369096
170	0xbe200551	-0.15627028
171	0x3d8303c2	0.06397201
172	0x3dc2e8c5	0.095170535
173	0x3dc23fda	0.09484835
174	0x3d8c3344	0.06845716
175	0xbd8bfaa1	-0.06834913
176	0xbd7362c8	-0.059420377
177	0xbd400c2a	-0.0468866
178	0x3e081f2a	0.13293138
179	0x3d2801b9	0.041017268
180	0xbddbbf04	-0.10729793
181	0x3d811e0c	0.06304559
182	0xbd70c0a6	-0.058777474
183	0x3daf821c	0.08569738
184	0x3df6119e	0.12015079
185	0x3e0ea9c1	0.13931943
186	0x3d11008d	0.035400916
187	0x3c45c76e	0.0120714735
188	0x3d8dc8be	0.06923054
189	0x3dc45b0f	0.095876805
190	0x3cf2ee9b	0.029654792
191	0x3c0c7ef9	0.0085751945
192	0x3de589f3	0.11207952
193	0x3dad0782	0.084486976
194	0xbbabf7c5	-0.0052480423
195	0x3da7e075	0.08197109
196	0x3e078a6c	0.13236398
197	0x3d231776	0.039817296
198	0xbdbfc2a3	-0.09363296
199	0x3d8b379d	0.06797717
200	0xbde0ff32	-0.10986175
201	0x3dcf5810	0.101242185
202	0x3e249d0e	0.16075537
203	0x3dde0536	0.10840838
204	0x3d9392bc	0.07205722
205	0x3d7c06b7	0.06152984
206	0xbdcf3393	-0.10117259
207	0x3e2d3e23	0.16918235
208	0x3c9df653	0.019282496
209	0x3cd4160f	0.025889425
210	0x3e97ed9f	0.29673478
211	0x3dc7190d	0.09721575
212	0x3e1f0597	0.15529476
213	0x3e14346d	0.14473124
214	0x3da8fd5c	0.082514495
215	0xbda7b900	-0.08189583
216	0xbdb619d2	-0.088916436
217	0x3d0505a2	0.032476075
218	0xbc572a4b	-0.013132642
219	0x3dc19796	0.09452741
220	0x3e1668b1	0.14688374
221	0xbd9e0cf6	-0.07717316
222	0x3d08f4e4	0.03343667
223	0xbca7e4fa	-0.020494927
224	0xbc603e24	-0.0136866905
225	0x3da4bbb7	0.08043616
226	0x3e1c9598	0.1529144
227	0xbe3bd107	-0.18341456
228	0x3ecb559c	0.39713752
229	0x3eb222b9	0.34792116
230	0xbd2e4169	-0.04254285
231	0x3e45bec0	0.19311047
232	0xbaf94349	-0.0019017245
233	0xbeec4e80	-0.4615364
234	0x3ccfe568	0.025377944
235	0xbd3f97f3	-0.04677577
236	0xbc5c450f	-0.013444199
237	0x3e05cbe6	0.13066062
238	0xbca47258	-0.020074055
239	0xbd6a402b	-0.0571901
240	0xbd187e48	-0.037229806
241	0x3c70177a	0.014654035
242	0xbddf8df0	-0.10915744
243	0x3bca5724	0.0061749388
244	0xbc8c21fe	-0.017106052
245	0x3dea7a21	0.114490755
246	0x3ae4d4e1	0.0017458462
247	0x3d772b18	0.06034383
248	0xbe288b38	-0.16459358
249	0xbe18eb8c	-0.14933604
250	0x3d437b93	0.04772527
251	0x3df0527a	0.11734481
252	0xbc8a27c7	-0.01686467
253	0x3d11ffa6	0.035644196
254	0x3dced91e	0.101000056
255	0xbb924b82	-0.0044645676

enc_layer_2.0.bias f4 [4]
0	0x3d35740c	0.044300124
1	0x3b9c5dee	0.0047719395
2	0x3d388f55	0.045058567
3	0xbd0a01fb	-0.033693295

enc_layer_3.0.weight f4 [8, 4, 3, 3]
0	0x3d8801b4	0.0664095
1	0xb9004644	-0.00012233207
2	0x3d6c421b	0.05768023
3	0x3d866958	0.065630615
4	0x3e1d2db4	0.15349466
5	0x3dd305d0	0.10303843
6	0x3d964d35	0.07338945
7	0x3e21775a	0.15768185
8	0x3e809137	0.2511079
9	0xbda51c10	-0.08061993
10	0xbe2c1a3a	-0.1680688
11	0xbce03ecf	-0.0273737
12	0xbe0f093e	-0.1396837
13	0xbdb57248	-0.08859688
14	0x3d5155eb	0.05110733
15	0xbd9791aa	-0.0740083
16	0xbe330f14	-0.1748622
17	0xbdd1c58f	-0.102427594
18	0xbdc4f1cb	-0.09616431
19	0xbe20a77a	-0.15688887
20	0xbda2115d	-0.07913468
21	0xbb456714	-0.0030121254
22	0xbda6cc6e	-0.081444606
23	0xbd14a626	-0.036291264
24	0x3d151796	0.036399446
25	0xbcc06ebf	-0.023490308
26	0xbd7883cc	-0.060672566
27	0xbd8028db	-0.062577926
28	0x3dbe7559	0.09299726
29	0x3d33eca6	0.043926857
30	0xbe36010c	-0.17773837
31	0xbd8626bd	-0.065503575
32	0x3d49cc4e	0.049267106
33	0xbbf4d36d	-0.007471493
34	0xbdc4449c	-0.09583399
35	0xbe248254	-0.16065341
36	0x3d084c08	0.033275634
37	0x3cbf3cf8	0.023344502
38	0xbd9f5909	-0.07780654
39	0x3e09a785	0.1344281
40	0x3e29e1f4	0.165901
41	0x3e0279a6	0.12741718
42	0xbe0aea9d	-0.1356606
43	0x3dad969f	0.08475994
44	0xbd36302f	-0.044479545
45	0x3d4dcf3d	0.050246466
46	0x3d68f0ad	0.05687015
47	0x398ab2c0	0.0002645459
48	0xbd22b3f0	-0.039722383
49	0x3d8975f0	0.06711948
50	0xbdf78783	-0.12086394
51	0xbdb05896	-0.086106464
52	0xbcd69af8	-0.026196942
53	0xbde1f1c5	-0.11032442
54	0xbda5ec30	-0.0810169
55	0xbe428e76	-0.18999657
56	0xbda82ba4	-0.08211449
57	0x3e5549aa	0.20828882
58	0x3eb15b62	0.34640032
59	0x3ea02684	0.31279385
60	0xbd3ab0bc	-0.045578703
61	0xbe099a64	-0.13437802
62	0xbe80e324	-0.25173295
63	0x3b806d90	0.003919311
64	0x3d43c773	0.04779763
65	0xbdb50156	-0.088381454
66	0x3e43db61	0.19126655
67	0x3ee1badc	0.44087875
68	0x3e01ce80	0.1267643
69	0xbe232432	-0.15931776
70	0xbe4c14a6	-0.19929752
71	0xbe42a1d9	-0.19007052
72	0x3d7c4e6e	0.061598234
73	0xbd97506e	-0.073883876
74	0xbdf499ae	-0.119433746
75	0xbe376246	-0.17908582
76	0xbe3a117a	-0.1817073
77	0xbe5284e1	-0.20558502
78	0x3ca59866	0.02021427
79	0xbe5354e0	-0.20637846
80	0xbe14ba3e	-0.14524171
81	0x3e59daca	0.21274868
82	0x3e41db7f	0.18931387
83	0x3e340a4a	0.1758205
84	0xbe203014	-0.1564334
85	0xbc787d13	-0.015166539
86	0x3dfe381b	0.12413045
87	0xbdb9079d	-0.09034655
88	0x3d691482	0.056904323
89	0x3e0b5380	0.13606071
90	0xbd0cfde5	-0.03442182
91	0x3d62f1e9	0.055406485
92	0x3e403362	0.18769601
93	0x3de8356b	0.11338314
94	0x3e28314e	0.16425058
95	0x3e1c73f4	0.15278608
96	0x3ddc3d1f	0.107538454
97	0x3dfbfffe	0.12304686
98	0x3d1365ba	0.035985686
99	0xbe0f2a39	-0.1398095
100	0xbe415859	-0.18881358
101	0x3d03f226	0.032213353
102	0xbd809b0d	-0.062795736
103	0xbe5600da	-0.20898762
104	0x3da23039	0.07919354
105	0xbe778223	-0.24170737
106	0xbe9aa3ab	-0.30202994
107	0xbdd4a0b7	-0.103822164
108	0x3ea2d390	0.31802034
109	0x3eb08baa	0.34481555
110	0x3e16b819	0.14718665
111	0x3e93a1c9	0.2883437
112	0x3c809976	0.015698176
113	0x3c93f3af	0.018060533
114	0x3e14ebee	0.14543125
115	0x3de39d0b	0.11113938
116	0x3d90dcde	0.07073377
117	0x3c646327	0.013939655
118	0xbdcf66bc	-0.10127017
119	0x3e244a10	0.16043878
120	0xbe04cd6a	-0.12968984
121	0xbdaa41f5	-0.083133616
122	0xbb5aed53	-0.0033405616
123	0xbd967ecd	-0.07348404
124	0xbd209b58	-0.039210647
125	0xbe5b53cf	-0.21418689
126	0xbe1ad074	-0.15118581
127	0xbd4849d2	-0.048898526
128	0xbe156c83	-0.14592175
129	0xbdac8c15	-0.08425156
130	0xbe0ce08f	-0.13757537
131	0xbe391de0	-0.18077803
132	0x3d157a91	0.03649384
133	0xbdf0e170	-0.11761749
134	0xbe16b3b6	-0.14716992
135	0x3d132cba	0.035931326
136	0xbdf91dea	-0.12163909
137	0x3e5b851a	0.21437493
138	0x3e3156a8	0.17318213
139	0xbdf67cde	-0.12035535
140	0x3e2a1af5	0.16611846
141	0x3e0baba2	0.13639691
142	0xbe0d1088	-0.13775837
143	0x3de074a4	0.109597474
144	0x3e021f97	0.12707363
145	0xbd36ff26	-0.044676922
146	0xbdeb7697	-0.114972286
147	0xbe1e5106	-0.15460595
148	0x3d01a4df	0.031651374
149	0xbe4bff7f	-0.19921683
150	0xbdf60026	-0.12011747
151	0x3da1a8c8	0.078935206
152	0xbe3f401e	-0.18676803
153	0xbc89df58	-0.016830131
154	0x3e0177b5	0.12643321
155	0xbcd47696	-0.025935452
156	0xbd144068	-0.036194235
157	0x3e113b37	0.14182745
158	0xbd860b9a	-0.065451816
159	0x3c3bbcc9	0.011458584
160	0x3dfeedad	0.12447677
161	0xbe007068	-0.1254288
162	0x3d818ebd	0.06326053
163	0x3e2a6d62	0.16643289
164	0x3da6f524	0.081522256
165	0x3db73839	0.089462705
166	0x3e3d357f	0.18477438
167	0x3e2f86a0	0.17141199
168	0x3d3a5937	0.04549524
169	0x3e302b9e	0.17204139
170	0x3da767aa	0.08174069
171	0xbe361839	-0.17782678
172	0xbe38b5e5	-0.18038137
173	0xbe065c41	-0.1312113
174	0xbdd6fc47	-0.10497337
175	0xbdf3212d	-0.11871562
176	0xbe4f3187	-0.20233737
177	0xbe5406b5	-0.20705684
178	0xbdf56418	-0.11981982
179	0xbe500d41	-0.20317556
180	0xbde6814c	-0.1125513
181	0x3dd565d2	0.10419811
182	0xbae79e87	-0.0017671146
183	0xbdd6eddc	-0.10494587
184	0xbb394768	-0.0028271321
185	0x3d880d06	0.06643109
186	0xbe3c5c65	-0.1839462
187	0x3dc6237f	0.09674739
188	0x3cdb1780	0.026744604
189	0x3dfd481b	0.12367269
190	0x3ddffa3f	0.109364025
191	0x3de33896	0.11094777
192	0x3da46822	0.08027674
193	0x3e95c4fc	0.2925185
194	0x3c8d2c04	0.017232902
195	0x3da19312	0.078893796
196	0x3d8d9b7d	0.06914423
197	0x3d8d40b3	0.06897106
198	0xbe4f6af5	-0.20255645
199	0xbe395f11	-0.18102671
200	0xbe2633e9	-0.1623074
201	0x3d039ad6	0.032130085
202	0x3e123a2a	0.1428
203	0x3e085109	0.13312162
204	0x3c6fd04f	0.014637067
205	0x3debe4ec	0.11518273
206	0xbd80e88e	-0.06294356
207	0xbe640f6e	-0.22271511
208	0xbe4422b4	-0.19153863
209	0x3db59aa9	0.0886739
210	0xbca23062	-0.019798461
211	0x3e21941e	0.15779158
212	0x3dfe392c	0.124132484
213	0xbdaa9be3	-0.08330514
214	0xbd4a8200	-0.049440384
215	0x3cbf0868	0.023319438
216	0x3cec3b54	0.028836884
217	0x3e44edaa	0.19231287
218	0x3d33698e	0.043801837
219	0xbcddbbbc	-0.027067058
220	0x3e3e52de	0.18586299
221	0x3a388732	0.00070391886
222	0x3e313d6d	0.17308588
223	0x3e4e181c	0.20126384
224	0x3e1673fc	0.14692682
225	0xbe142b73	-0.144697
226	0xbe30915c	-0.1724295
227	0x3d5cafae	0.05387848
228	0xbdd2cbc1	-0.10292769
229	0xbd6661f9	-0.056245778
230	0x3d1c213d	0.038117636
231	0x3dac5cb7	0.084161215
232	0x3e6df324	0.23237282
233	0x3dee1358	0.11624783
234	0x3dddd54b	0.10831698
235	0x3d4c4736	0.0498726
236	0x3e25240c	0.16127032
237	0xbd06364d	-0.03276663
238	0xbd3b370c	-0.045706794
239	0xbc0d377a	-0.008619184
240	0xbbf51835	-0.0074796923
241	0x3dbcdbf5	0.09221641
242	0x3dcbf443	0.099586986
243	0xbe5c7aee	-0.21531269
244	0x3da1a850	0.07893431
245	0xbd38e6d4	-0.04514201
246	0xbebb5836	-0.36590737
247	0xbdfc6ba0	-0.12325215
248	0xbd9ac204	-0.07556537
249	0xbea6502c	-0.3248304
250	0xbe059007	-0.13043223
251	0xbe456a60	-0.1927886
252	0xbe565899	-0.20932235
253	0xbcd829d2	-0.026387129
254	0xbe1967d4	-0.14981014
255	0xbe838f09	-0.25695065

enc_layer_3.0.bias f4 [8]
0	0xbf0c4b8a	-0.54802763
1	0xbdaebf3f	-0.08532571
2	0x3ea7670b	0.32695803
3	0xbe084424	-0.13307244
4	0xbd9899a6	-0.07451181
5	0x3eb80549	0.35941532
6	0x3ce7ef85	0.028312454
7	0xbe993391	-0.29922155

dec_layer_1.0.weight f4 [8, 8, 3, 3]
0	0x3c4bbe72	0.012435542
1	0x3e053605	0.13008888
2	0xbde959cc	-0.113940805
3	0x3e14a2ff	0.14515303
4	0x3e966e73	0.2938114
5	0xbd3a69e2	-0.045511134
6	0x3d78c782	0.06073714
7	0x3ea17e3c	0.31541622
8	0x3d5e314f	0.054246243
9	0x3da8e64f	0.08247053
10	0xbbeaa619	-0.0071609137
11	0xbca2ed40	-0.01988852
12	0x3d87da90	0.06633484
13	0x3de7979d	0.11308215
14	0x3dd74b38	0.10512394
15	0x3d6771e4	0.0565051
16	0x3da8a0b3	0.08233776
17	0x3d746bcb	0.059673112
18	0x3e5071d3	0.2035592
19	0x3ea064bd	0.31326857
20	0x3e0b9178	0.1362971
21	0x3e7cb22e	0.24677345
22	0x3e44bb2f	0.1921203
23	0xbe23c2c2	-0.15992263
24	0x3cd10b87	0.025518192
25	0x3d9df292	0.07712282
26	0xbde52164	-0.111880094
27	0x3d42b147	0.047532346
28	0x3f425b83	0.75920886
29	0xbe029998	-0.12753904
30	0x3dddbd46	0.10827117
31	0x3c30c9e5	0.010790323
32	0xbd22c9f6	-0.039743386
33	0x3c8115b2	0.015757415
34	0xbeb01d05	-0.3439714
35	0xbd2d513d	-0.042313803
36	0xbd883eca	-0.06652601
37	0xbe126b7b	-0.14298813
38	0x3db205f7	0.08692544
39	0xbeac6f47	-0.33678648
40	0xbe57c35e	-0.2107062
41	0xbd862f3f	-0.0655198
42	0xbe524c17	-0.20536838
43	0xbe6ba071	-0.23010422
44	0x39f9eb6e	0.0004766839
45	0x3e5ea8e4	0.21744114
46	0x3e27f16d	0.1640069
47	0x3e0d04b8	0.13771331
48	0x3de4a3a3	0.11164024
49	0x3e67e723	0.22646765
50	0x3cdf1d34	0.027235605
51	0x3df75ef8	0.12078661
52	0xbe16a946	-0.1471301
53	0xbda67739	-0.08128209
54	0x3dcf3f93	0.10119548
55	0x3d9b3556	0.075785324
56	0xbd2c115f	-0.042008754
57	0x3e0ba6b7	0.13637815
58	0x3e896a61	0.26838973
59	0xbd3fd9f4	-0.046838716
60	0xbd8e21db	-0.06940051
61	0x3d3118b9	0.043236468
62	0x3d1e7892	0.038689204
63	0x3d97e216	0.07416169
64	0xbd0128f6	-0.031533204
65	0xbb61d220	-0.003445752
66	0x3ebb2f8b	0.3655971
67	0xbeafdeca	-0.34349662
68	0x3c507d1a	0.012725139
69	0xbe2f0a30	-0.1709373
70	0xbe460fec	-0.19342011
71	0xbe71fb71	-0.23631074
72	0x3d515092	0.05110223
73	0x3e7669a8	0.24063742
74	0x3e3c7724	0.18404824
75	0xbcc4d135	-0.024025539
76	0x3e411bf7	0.18858324
77	0x3cf7c586	0.030245554
78	0x3d094a05	0.033517856
79	0xbcf1aefb	-0.029502383
80	0x3dc58aa9	0.09645588
81	0x3e1f3799	0.15548553
82	0x3dca24ee	0.09870325
83	0x3e0b84e0	0.13624907
84	0x3e83622a	0.2566083
85	0x3ea63419	0.32461622
86	0x3d6dc893	0.05805261
87	0xbca04e4a	-0.019568581
88	0x3dcc7c84	0.09984687
89	0x3d485038	0.048904628
90	0x3e2b28f5	0.16714843
91	0x3e2b29c6	0.16715154
92	0x3e2e442f	0.17018197
93	0xbddc1903	-0.10746958
94	0xbed1674e	-0.40899128
95	0xbd9a61f0	-0.07538211
96	0xbd580b3c	-0.05274509
97	0x3c1a6be1	0.009425134
98	0x3e2e7411	0.17036463
99	0xbda8f504	-0.08249858
100	0x3ef7f5ca	0.4842971
101	0x3c484323	0.012223038
102	0xbbbb0d19	-0.0057083485
103	0x3e0dbb05	0.13840874
104	0xbc56c98e	-0.013109578
105	0xbd94b5c8	-0.072612345
106	0xbea0ef1d	-0.3143243
107	0xbdb46711	-0.08808721
108	0x3e4c9061	0.19976951
109	0x3e6a9573	0.22908573
110	0x3e4693a4	0.19392258
111	0x3da643ee	0.08118425
112	0xbe5e2e3d	-0.21697326
113	0xbe18d2c8	-0.14924157
114	0xbe2c89e4	-0.16849476
115	0xbdbda710	-0.0926038
116	0xbe8ebd90	-0.27879
117	0xbe7cd23f	-0.24689578
118	0xbded6489	-0.11591441
119	0xbe850f7f	-0.25988385
120	0x3d7b63da	0.061374523
121	0x3d528c2c	0.05140321
122	0xbb88e97b	-0.0041782237
123	0xbdc65da0	-0.09685826
124	0xbdbcb9e5	-0.09215144
125	0xbea73e95	-0.32664934
126	0xbd8f5e36	-0.07000391
127	0xbe088613	-0.13332395
128	0xbde88141	-0.11352778
129	0xbb9e4948	-0.004830513
130	0x3bd230ad	0.006414494
131	0x3e3bdc71	0.1834581
132	0xbdc1c29e	-0.094609484
133	0xbe9536e3	-0.29143438
134	0xbe0aed68	-0.13567126
135	0xbe124f72	-0.14288118
136	0x3db16920	0.08662629
137	0xbdf9d640	-0.12199068
138	0x3e7161dd	0.23572488
139	0xbbdad70c	-0.0066784676
140	0xbaf860ba	-0.0018949725
141	0xbd36c60b	-0.044622462
142	0xbdb36555	-0.08759562
143	0xbd2a2c58	-0.041546196
144	0x3a6bef12	0.0009000163
145	0xbd89dc8f	-0.06731521
146	0x3db48527	0.08814459
147	0x3c096678	0.008386247
148	0x3c9df8d2	0.019283686
149	0xbd216c2f	-0.039409813
150	0xbd3c591a	-0.04598341
151	0xbe518e89	-0.20464529
152	0xbd5ed818	-0.0544053
153	0x3e55a800	0.20864868
154	0x3d7e4928	0.062081486
155	0x3d65c1e1	0.0560931
156	0xbdb0c88a	-0.08632
157	0xbcc57ae9	-0.02410646
158	0xbcf978fe	-0.030453201
159	0xbe1d9d48	-0.1539203
160	0xbd493911	-0.04912669
161	0x3d81c88d	0.0633708
162	0xbeaf6d14	-0.34262908
163	0xbe23b545	-0.15987118
164	0xbe3a4934	-0.18191987
165	0xbe94b601	-0.29045108
166	0xbe9205a2	-0.28519922
167	0xbe7220f7	-0.23645388
168	0xbd0798f4	-0.03310485
169	0x3e000c19	0.12504615
170	0x3ccef42f	0.02526292
171	0xbcca49f5	-0.024693469
172	0xbed419e8	-0.41426015
173	0xbcfd4013	-0.030914342
174	0x3e2bb659	0.16768779
175	0xbb5988a9	-0.0033193028
176	0x3ca6c409	0.020357149
177	0x3d1b9362	0.037982352
178	0xbe126f99	-0.14300384
179	0xbd5422da	-0.05179105
180	0xbdbdb4d0	-0.09263003
181	0xbc8ba943	-0.017048484
182	0xbd0e03db	-0.034671646
183	0xbce6c878	-0.028171763
184	0x3d724e15	0.059156496
185	0x3da5bbb1	0.0809244
186	0x3e0a4eb2	0.13506582
187	0x3d8b86ae	0.068127975
188	0xbd5b0186	-0.05346825
189	0xbe5b60bb	-0.21423618
190	0x3ecd5abf	0.40108296
191	0xbe6b42b5	-0.22974665
192	0x3ebde8df	0.3709173
193	0xbe79bf6b	-0.24389426
194	0x3ea3f936	0.3202607
195	0xbd7ee57f	-0.062230583
196	0x3eb204d7	0.34769318
197	0xbdfbef6d	-0.12301526
198	0xbd945535	-0.072428145
199	0xbcfb4e5a	-0.03067701
200	0xbde446f6	-0.11146347
201	0xbe18b9ab	-0.14914577
202	0x3d801bc9	0.062552996
203	0xbe14b4d2	-0.14522102
204	0xbdb11c46	-0.08647971
205	0xbe4ad4a0	-0.19807673
206	0xbd9c091d	-0.07618926
207	0xbcf8eaa0	-0.030385315
208	0x3d80b453	0.06284394
209	0x3d1cfa98	0.038324922
210	0xbdbdb982	-0.092638984
211	0x3e42c38c	0.19019908
212	0xbdf15821	-0.117843874
213	0x3d879975	0.066210665
214	0xbc368e10	-0.011142269
215	0x3bfe1c67	0.0077548507
216	0x3dddbdf3	0.108272456
217	0xbef21d3a	-0.47287923
218	0x3d4cbb55	0.04998334
219	0xbd9709c8	-0.073749125
220	0xbe890c43	-0.26767167
221	0xbcea67e1	-0.028613986
222	0xbe0449c9	-0.12918772
223	0xbe8022e0	-0.25026608
224	0xbd6a015d	-0.057130206
225	0xbe44dd98	-0.19225156
226	0x3e04a6a7	0.12954198
227	0xbd6e6a41	-0.0582068
228	0xbde8fc89	-0.11376292
229	0xbb1370e2	-0.0022497703
230	0x3d8bfb03	0.06834986
231	0x3c53f9d0	0.012937978
232	0x3e019346	0.12653837
233	0x3e1435a7	0.14473592
234	0xbde1419e	-0.109988436
235	0x3dd3919b	0.103305064
236	0xbe2651e8	-0.16242182
237	0x3d85d112	0.065340176
238	0x3d80965c	0.06278679
239	0xbe0029bb	-0.12515919
240	0x3d110feb	0.03541557
241	0x3e0926e4	0.13393742
242	0xbdedc9d8	-0.11610764
243	0xbe44ceca	-0.19219509
244	0xbecd9abe	-0.4015712
245	0x3c6b3065	0.0143548
246	0xbdcbf4e1	-0.09958816
247	0xbd039b38	-0.03213045
248	0x3c9179df	0.017758308
249	0xbd2d2061	-0.042267207
250	0xbe0032de	-0.12519404
251	0x3db00322	0.085943475
252	0xbe150a4d	-0.1455471
253	0xbe419f92	-0.18908527
254	0xbe1b26e7	-0.15151559
255	0xba89947e	-0.0010496525

dec_layer_1.0.bias f4 [8]
0	0xbd8b8839	-0.06813092
1	0x3e8af643	0.27141008
2	0xbe3e15f3	-0.1856306
3	0x3d0e6ba7	0.034770634
4	0xbd5d559b	-0.054036718
5	0xbed209f5	-0.41023222
6	0x3ec5cccf	0.3863282
7	0x3e73fa0d	0.23825856

dec_layer_2.0.weight f4 [12, 8, 5, 5]
0	0xbbdf3e9b	-0.006812883
1	0x3986f056	0.00025737536
2	0xbc95a82d	-0.018268669
3	0x3ca8e46c	0.020616733
4	0xbba9a12a	-0.005176683
5	0x3d225565	0.03963222
6	0x3e4e7da2	0.20165113
7	0x3e026d54	0.12737018
8	0xbc9322d7	-0.017960949
9	0xbadd1516	-0.0016867246
10	0x3c0cf838	0.008604102
11	0x3d6f0f5d	0.05836426
12	0x3e2e2353	0.17005663
13	0xbd3a812f	-0.045533355
14	0xbd50ed6f	-0.051007684
15	0x3adb760b	0.0016743554
16	0x3cdd1af0	0.026990384
17	0x3d215d6a	0.039395727
18	0xbbeb846e	-0.0071874177
19	0xbc2f2e51	-0.010692195
20	0xbab75e64	-0.0013989923
21	0x3cb44df7	0.022009833
22	0x3bdc3d05	0.0067211413
23	0x3b1da342	0.0024053608
24	0xbd094a2c	-0.033518
25	0x3d503ef4	0.050841287
26	0xbc9dbf19	-0.019256162
27	0xbd4aed8e	-0.049542956
28	0xbcdc4769	-0.02688952
29	0xbd13cfbd	-0.036086787
30	0xbd08ec59	-0.033428524
31	0xbfa25cf6	-1.268462
32	0x3d95bb1c	0.07311079
33	0xbf674617	-0.90341324
34	0xbcd2b366	-0.02572031
35	0xb86fe249	-5.7192785e-05
36	0xbb89fd81	-0.004211128
37	0xbdcb2625	-0.09919385
38	0x3d1d60e2	0.038422473
39	0x3d70c75d	0.058783878
40	0xbc64c39e	-0.013962654
41	0x3d369862	0.044578917
42	0x3cc84275	0.024445752
43	0x3c4f4838	0.012651496
44	0x3d340720	0.043952107
45	0x3c9cae82	0.01912618
46	0x3a6f73b3	0.0009134367
47	0xbded7f15	-0.115965046
48	0x3c2c88f1	0.010530696
49	0xbc81ec12	-0.015859637
50	0xbdd2521c	-0.10269567
51	0xbc5695e6	-0.013097262
52	0xbdffd256	-0.1249129
53	0x3d00fe74	0.031492665
54	0xbdc1c7e8	-0.09461957
55	0xbdbe0034	-0.092773825
56	0x3d532285	0.051546592
57	0xbdf34f5d	-0.11880372
58	0xbc50df59	-0.012748563
59	0xbd083824	-0.033256665
60	0xbd98c353	-0.0745913
61	0xbda6f9ae	-0.08153091
62	0x3da59235	0.080845274
63	0xbd9b90e8	-0.07595998
64	0xbdd8cdd8	-0.105861366
65	0x3d947935	0.07249681
66	0xbc80c390	-0.015718251
67	0x3d11897a	0.0355315
68	0xbd22f815	-0.03978737
69	0xbd3cbf59	-0.04608092
70	0x3caf9274	0.021432139
71	0xbcda2f96	-0.026634019
72	0xbd45ca03	-0.048288357
73	0xbdd7d172	-0.105379954
74	0xbd841248	-0.06448799
75	0x3c364d91	0.011126892
76	0x3d134907	0.035958316
77	0x3d85c8a4	0.0653241
78	0x3da1f818	0.07908648
79	0xbd07cafc	-0.033152565
80	0x3dfb8129	0.12280495
81	0x3e5683ce	0.20948717
82	0x3e31abc8	0.17350686
83	0x3db88b15	0.09010903
84	0xbc7121a7	-0.014717496
85	0x3dab8a9a	0.083760455
86	0x3dcd863d	0.100353695
87	0x3e3c950e	0.18416235
88	0x3d82e9c9	0.06392247
89	0x3bbccca6	0.0057617007
90	0x3d1dbc14	0.038509443
91	0x3d8beb29	0.068319626
92	0x3dc52d8d	0.09627829
93	0x3d32ea79	0.04368064
94	0x3d213c0c	0.039363906
95	0xb9e5eac4	-0.00043853198
96	0x3da50c8c	0.08059034
97	0x3d0e5f87	0.03475907
98	0x3cb99115	0.022652188
99	0x3d066b71	0.032817308
100	0x3c8af183	0.016960865
101	0x3b9066d2	0.0044067884
102	0x3e181ea3	0.14855437
103	0xbccefa58	-0.025265858
104	0x3caeb515	0.021326581
105	0xbcb694f0	-0.022287816
106	0x3ddc3880	0.10752964
107	0x3e3c21f0	0.18372321
108	0x3d269999	0.040673826
109	0x3d09de8b	0.0336595
110	0x3d4c67ae	0.049903564
111	0x3e0572ea	0.13032117
112	0xbde28eec	-0.110624164
113	0x3dbef5ec	0.093242496
114	0x3a05b84c	0.000510101
115	0x38bb203d	8.92286e-05
116	0x3c8d6bd2	0.017263327
117	0x3cd7926a	0.026314933
118	0x3d26300e	0.040573172
119	0xbd0fe922	-0.035134442
120	0x3c491ecb	0.012275408
121	0x3c9c2843	0.019062167
122	0x3d049d55	0.032376606
123	0x3aa40f21	0.0012516716
124	0x3b25dc6b	0.0025308381
125	0x3bd4456c	0.0064780023
126	0xbcb8ec29	-0.022573547
127	0x3d8c780d	0.06858835
128	0xbc7dd638	-0.015492968
129	0xbca984a3	-0.020693129
130	0x3ac75e12	0.001521053
131	0x3e3fb46e	0.18721172
132	0x3e5c10c4	0.2149077
133	0xbd9ae4e5	-0.075631894
134	0x3b7cbdb8	0.003856523
135	0x3d56724c	0.052355096
136	0xbb2897a6	-0.0025725155
137	0xbd2f913e	-0.042863123
138	0x3d4a7b67	0.049434092
139	0xbca5d410	-0.02024272
140	0xbc3506a7	-0.011048949
141	0x3b76910f	0.0037623083
142	0xbd0bb08d	-0.03410392
143	0xbd090da1	-0.033460263
144	0xbd360b2f	-0.04444426
145	0x381cdc56	3.7398502e-05
146	0x3bff3197	0.007787894
147	0xbca78f1f	-0.020453988
148	0xbb69aa1e	-0.0035654376
149	0x3c1461b7	0.0090565
150	0xbca9d02b	-0.020729145
151	0xbe151706	-0.14559564
152	0xbd006a7d	-0.031351555
153	0xbdb1190d	-0.08647356
154	0xbcf52213	-0.029923474
155	0xbdc8f384	-0.09812072
156	0xbdae0b28	-0.08498222
157	0xbcc153a5	-0.023599455
158	0xbdc1284a	-0.09431513
159	0xbd5c6813	-0.05381019
160	0xbda0ea7c	-0.07857224
161	0xbd98e387	-0.074652724
162	0xbe59bab0	-0.21262622
163	0xbd2fd158	-0.042924255
164	0x3aaae0dd	0.0013036985
165	0xbd826ced	-0.06368432
166	0xbd99e71f	-0.07514786
167	0xbdb177bb	-0.08665415
168	0xbd7b7b76	-0.06139704
169	0xbcfa4021	-0.030548157
170	0xbd2e8701	-0.04260922
171	0xbd60a04e	-0.05484038
172	0xbd6dbf2e	-0.05804365
173	0xbc0f2d0f	-0.00873877
174	0x3ac5f6da	0.0015103475
175	0x3c10219c	0.008797076
176	0x3c6c4704	0.014421228
177	0x3d3af8cf	0.04564744
178	0xbc6a0cbf	-0.0142852655
179	0x3bd4be20	0.006492391
180	0xbcbe4fb9	-0.023231374
181	0x3e2781db	0.1635813
182	0x3e499c4b	0.19688527
183	0xbd2e4be2	-0.042552836
184	0xbd0cd42b	-0.034382027
185	0x3d385292	0.04500062
186	0xbd099057	-0.03358492
187	0xbce3e72b	-0.02782019
188	0x3d69ae66	0.057051085
189	0x3d03df2b	0.03219525
190	0xbc670e0d	-0.014102471
191	0x3b7e2d6b	0.0038784395
192	0x3a613fdd	0.0008592585
193	0xbc577747	-0.0131509965
194	0x3c270644	0.010194365
195	0xbd05e5ab	-0.03268973
196	0xbc02dbf1	-0.007987008
197	0xbcf9192e	-0.030407514
198	0xbc3438e6	-0.010999894
199	0x3c3317d6	0.010930976
200	0xbc8f0352	-0.017457638
201	0xb9fb04c5	-0.00047878004
202	0x3c9c666d	0.01909181
203	0xbd4296ff	-0.047507282
204	0xbc8453b4	-0.016153194
205	0x3d92db3b	0.07170721
206	0x3e9dfec1	0.30858424
207	0x3e264123	0.16235785
208	0x3debae10	0.11507809
209	0x3d3397ec	0.043846056
210	0x3d9eedfc	0.07760236
211	0x3e6a46e8	0.22878611
212	0xbd50ff58	-0.051024765
213	0xbd04f6f4	-0.032462075
214	0xbc79a60e	-0.015237344
215	0xbcbab830	-0.022792906
216	0x3cd22668	0.02565308
217	0xbc87e0ad	-0.016586626
218	0xbc8ff4aa	-0.01757272
219	0xbb33f183	-0.0027457185
220	0xbb37fc6b	-0.0028074037
221	0x3c6bd3b6	0.014393738
222	0xbd01ea47	-0.031717565
223	0xbd3e7edc	-0.0465077
224	0x3ca8eedf	0.020621715
225	0xbd2bac65	-0.041912455
226	0x3d1cbee9	0.038268004
227	0xbd91d6c2	-0.0712104
228	0x3da24118	0.07922572
229	0x3d5afad6	0.053461872
230	0x3cedf7c4	0.029048808
231	0xbf81697d	-1.0110317
232	0x3dc80303	0.097661994
233	0xbf5def62	-0.86693394
234	0xbcd469b4	-0.02592931
235	0x3e8ac0e3	0.27100286
236	0x3de72b8e	0.11287604
237	0xbd36a999	-0.044595335
238	0xbe003310	-0.12519479
239	0x3d6c93b8	0.057758063
240	0x3c3f4e6e	0.011676414
241	0xbe50b2f0	-0.20380759
242	0x3bb440ac	0.0055008736
243	0xbecec93c	-0.40387905
244	0xbc226307	-0.009911305
245	0xbc2dbbab	-0.010603826
246	0xbc3035fd	-0.010755059
247	0xbd61ad12	-0.055096693
248	0x3d0de2ab	0.034639996
249	0x3d4bbb03	0.049738895
250	0x3cb469e7	0.022023154
251	0xbd983605	-0.074321784
252	0x3db7afc0	0.089690685
253	0x3bd4ee61	0.0064981435
254	0x3cd98cf4	0.02655647
255	0xbd9dcfad	-0.07705627

dec_layer_2.0.bias f4 [8]
0	0xbde18f0d	-0.11013613
1	0xbcf6cda7	-0.03012736
2	0xbd9a9096	-0.07547109
3	0x3ddcf0e4	0.10788134
4	0xbd2024ac	-0.039097473
5	0xbc2f830f	-0.010712399
6	0x3d05d69b	0.032675367
7	0xbeed2c33	-0.46322784

dec_layer_3.0.weight f4 [8, 3, 5, 5]
0	0xbdd09cb1	-0.101861365
1	0xbdb6ce57	-0.08926075
2	0xbca3ae6d	-0.019980634
3	0x3ded00b2	0.11572398
4	0x3c6daee3	0.014507028
5	0xbe370e94	-0.17876655
6	0xbdad53b4	-0.08463231
7	0xbc5270e1	-0.012844295
8	0x3e5ad550	0.21370435
9	0x3cb2f15d	0.021843607
10	0xbe805005	-0.2506105
11	0xbe52b95d	-0.20578523
12	0xbd96ca79	-0.07362837
13	0x3dce7f2f	0.10082852
14	0x3c061f79	0.008186215
15	0xbe17cfef	-0.14825414
16	0xbe03b131	-0.12860562
17	0xbd9cae0d	-0.07650385
18	0x3d3619df	0.044458266
19	0x3d3af58a	0.04564432
20	0xbdcfa0bd	-0.1013808
21	0xbdb353dc	-0.08756229
22	0xbdc18d1f	-0.09450745
23	0xbc606c36	-0.0136976745
24	0x3ce1e4e1	0.027574958
25	0xbbd4024a	-0.0064699994
26	0x3d165ee0	0.036711574
27	0x3e2d14f6	0.16902527
28	0x3e453d9a	0.1926178
29	0x3dd3d188	0.10342699
30	0xbcc86f58	-0.024467155
31	0x3d49b607	0.04924586
32	0x3e48e912	0.1962016
33	0x3e80a879	0.25128534
34	0x3e17be60	0.14818716
35	0xbd6c8885	-0.057747383
36	0x3c1854f6	0.0092976
37	0x3e777580	0.24165916
38	0x3e8d7127	0.2762539
39	0x3e1b9a49	0.15195574
40	0xbda6b44b	-0.08139857
41	0xbd2ac9fa	-0.041696526
42	0x3d67d3e5	0.056598563
43	0x3e25dfa3	0.16198592
44	0x3d82762b	0.06370195
45	0xbd6d0038	-0.057861537
46	0xbd0b7849	-0.03405026
47	0x3d13c14f	0.036073025
48	0x3dc8a63f	0.09797334
49	0x3c92704d	0.017875815
50	0xbd6b13d7	-0.057391968
51	0xbd43adde	-0.047773235
52	0x3dd028b0	0.101640105
53	0x3e1011e3	0.14069323
54	0x3dda6e12	0.106655255
55	0xbd4f7648	-0.05064991
56	0x3c873a01	0.01650715
57	0x3e0e9a15	0.13925965
58	0x3e5d2780	0.215971
59	0x3e100c7b	0.14067261
60	0xbdc29fbb	-0.095031224
61	0xbd00c454	-0.031437233
62	0x3d9c21c2	0.07623626
63	0x3e76d27d	0.24103732
64	0x3e087d4d	0.13329048
65	0xbd9691a0	-0.073519945
66	0xbbced107	-0.006311539
67	0x3d6adc8a	0.05733923
68	0x3e22690c	0.15860385
69	0x3d2ae2a7	0.04172006
70	0xbd4d9cbd	-0.050198305
71	0xbd369245	-0.044573087
72	0x3d01d6a4	0.031698838
73	0x3da707e4	0.08155802
74	0x3b3fb808	0.0029253978
75	0x3c959afd	0.01826238
76	0x3d055da7	0.032560017
77	0x3db16832	0.08662452
78	0x3d83a59d	0.064280726
79	0x3c98cd24	0.018652506
80	0x3d8165fa	0.063182786
81	0x3dcf2446	0.101143405
82	0x3e1dca16	0.15409121
83	0x3df74643	0.12073948
84	0x3d97f94f	0.07420599
85	0x3e01b5ed	0.12667055
86	0x3e34449c	0.17604297
87	0x3e28389f	0.16427849
88	0x3e2d4d8b	0.16924112
89	0x3d9b2ac4	0.07576516
90	0x3da8b067	0.08236771
91	0x3e0689e4	0.13138539
92	0x3e2916a7	0.16512547
93	0x3d9c3545	0.07627348
94	0x3d0e9b6f	0.0348162
95	0x3d014daa	0.031568207
96	0xbbd2ffc2	-0.00643918
97	0x3dcc4d7a	0.09975715
98	0x3ca3f61c	0.020014815
99	0xbb98816e	-0.004654101
100	0x3c8ecc2b	0.01743134
101	0x3cb48c18	0.022039458
102	0x3dc298c7	0.09501796
103	0x3dc47971	0.095934756
104	0x3d04133a	0.0322449
105	0x3d789946	0.060693048
106	0x3d769602	0.060201652
107	0x3e0fce14	0.14043456
108	0x3e01e812	0.12686184
109	0x3d150a88	0.036386997
110	0x3df2843c	0.11841628
111	0x3e28c008	0.16479504
112	0x3e2ff1ee	0.17182133
113	0x3e2519ed	0.16123171
114	0x3dc35c65	0.09539107
115	0x3da06c05	0.07833103
116	0x3e22e681	0.15908243
117	0x3e24d467	0.1609665
118	0x3e0b3a14	0.13596374
119	0x3d88164a	0.06644876
120	0x3d55bf9d	0.05218469
121	0x3dccba1a	0.099964336
122	0x3de3b574	0.11118594
123	0x3daa02fd	0.08301351
124	0x3d2ad7a2	0.04170955
125	0xbd01da49	-0.031702314
126	0xbd2bb0a9	-0.041916523
127	0xbd495a3e	-0.049158327
128	0x3c901199	0.017586516
129	0xbc2801ce	-0.0102543365
130	0xbc851898	-0.016247079
131	0x3c35c66c	0.011094671
132	0xbc4948c3	-0.012285414
133	0x3cfcc60d	0.030856157
134	0x3c465c1c	0.0121069215
135	0xbd57a9d0	-0.05265218
136	0xbc8ce54b	-0.01719918
137	0x3d0ab516	0.033864103
138	0x3b585200	0.003300786
139	0xbd0e1856	-0.034691177
140	0xbc33e9c9	-0.010981032
141	0x3cbdb03e	0.023155328
142	0xbb567eec	-0.003272946
143	0x3ccb097f	0.024784802
144	0xbcc5ba03	-0.024136549
145	0xbcc930cf	-0.024559407
146	0xbb52d051	-0.0032167623
147	0xbd130d01	-0.035901073
148	0xbd060612	-0.032720633
149	0xbce8ccf4	-0.028418042
150	0xbf4cc977	-0.7999491
151	0x3ef75faf	0.48315188
152	0xbf37a533	-0.7173645
153	0x3f5ea30b	0.86967534
154	0x3d9fd9e2	0.0780523
155	0xbe25a3d3	-0.16175775
156	0x3f550a9f	0.8321933
157	0x3deffef2	0.11718549
158	0x3f2c398b	0.67275304
159	0xbdc54f1a	-0.09634228
160	0x3f164363	0.58696574
161	0xbeda40b1	-0.4262748
162	0xbe0f5764	-0.1399818
163	0xbeed6ab0	-0.4637046
164	0xbf2870b0	-0.6579695
165	0x3d9d930b	0.07694062
166	0xbf538bd3	-0.8263523
167	0x3e023efa	0.12719336
168	0xbf4af76f	-0.79283804
169	0x3e36a3fd	0.17835994
170	0x3efa66cf	0.48906562
171	0x3e850554	0.25980628
172	0x3f8bc1f5	1.0918566
173	0x3f5dcf1f	0.86644167
174	0x3f09d5df	0.53841966
175	0xbdfc83c1	-0.123298176
176	0x3ec59b08	0.38594842
177	0x3e2cae60	0.16863394
178	0x3f27ca87	0.6554341
179	0xbf2f8bca	-0.68572676
180	0x3f67bfb2	0.9052688
181	0x3ead7adb	0.33882794
182	0x3f21353e	0.62971866
183	0x3f8a1b68	1.0789614
184	0x3f43c058	0.7646537
185	0xbc9c69c1	-0.019093396
186	0x3ecc5261	0.399066
187	0xbf80077e	-1.0002286
188	0x3f4377f8	0.7635493
189	0xbf115a12	-0.5677806
190	0xbda57b29	-0.080801316
191	0xbea113b9	-0.3146036
192	0xbe831433	-0.25601348
193	0xbf5a9b80	-0.85393524
194	0xbdc99cb5	-0.098443426
195	0xbd9ea39e	-0.07746051
196	0x3eab7320	0.3348627
197	0x3e8e4ae2	0.27791506
198	0x3ef8a385	0.48562256
199	0x3e56d654	0.20980197
200	0xbef4028a	-0.47658187
201	0x3f07d1e0	0.5305462
202	0xbdded8c7	-0.10881191
203	0x3f56f5c8	0.8396878
204	0x3eded0a9	0.4351857
205	0xbe23fd49	-0.1601459
206	0x3d64dac5	0.055872697
207	0x3faa1f5a	1.3290818
208	0x3f612502	0.87947094
209	0x3f9649f7	1.1741322
210	0xbb013485	-0.0019715142
211	0xbe8920cc	-0.26782835
212	0xbe9cc462	-0.30618578
213	0xbf059190	-0.52175236
214	0xbed00d93	-0.40635356
215	0xbe147d35	-0.14500888
216	0xbeecd751	-0.46258023
217	0xbf3e5158	-0.7434287
218	0xbf50c665	-0.81552726
219	0xbecdae19	-0.40171888
220	0x3d50217c	0.050813183
221	0x3d2a8109	0.041626964
222	0xbb89bd8d	-0.0042035044
223	0x3e2d29fe	0.1691055
224	0x3ec53210	0.38514757
225	0x3db4d648	0.088299334
226	0x3e879e12	0.26487786
227	0x3efcfa4d	0.49409714
228	0x3e821b86	0.25411624
229	0x3dbcc97c	0.092181176
230	0x3d93afc7	0.07211261
231	0x3e5575fd	0.2084579
232	0x3f06a545	0.5259593
233	0x3eb5aaba	0.35481817
234	0x3e63be45	0.22240551
235	0x3dfddbd2	0.12395443
236	0x3e3caa67	0.18424378
237	0x3ef6d9c6	0.48213023
238	0x3eb3ed34	0.3514191
239	0x3e967e2f	0.29393145
240	0x3d9a26a2	0.075269
241	0xbcc4dead	-0.024031961
242	0xbadee6b6	-0.0017006013
243	0x3d9a4762	0.075331464
244	0x3e155698	0.14583814
245	0x3db808c5	0.08986048
246	0xbca5cd1c	-0.020239405
247	0xbce7bbb5	-0.028287748
248	0xbd1e6d4b	-0.03867845
249	0x3d2dba44	0.042413965
250	0xbe005b74	-0.12534887
251	0xbd923ddc	-0.07140705
252	0xbc1a9ecf	-0.009437277
253	0x3d6eb6da	0.05827985
254	0x3b1f31df	0.00242912
255	0xbe1c1e56	-0.15245947

dec_layer_3.0.bias f4 [3]
0	0x3c349bca	0.011023471
1	0xbc1dc8ca	-0.009630391
2	0x3bb68285	0.0055697584
