save/exp_1/model_exp_1.pt (torch, 27291 bytes, 12 tensors)

enc_layer_1.0.weight f4 [16, 3, 5, 5]
00000000: 6cc8 9c3c 4194 cf3c 05aa 31be b375 bebc
00000010: 0f7e c5bd 4487 18be 06a7 23bd ca4e 6cbd
00000020: 8107 1ebb 2890 f03b 9278 97bc a47a 2cbe
00000030: dc19 10be 89c2 f1bd 7240 eabd ffb9 f2bd
00000040: 191e 5ebc 46f6 49be 2519 fb3b e8da 2bbd
00000050: 7f94 e33c 3de8 54bd a300 d8bd beb6 ab3c
00000060: dfa4 a23b 1af8 b53d 0af5 1e3e 8a14 213e
00000070: c99e c63c 6e4a 463e abe3 543d b068 363e
00000080: 8eb0 12bc 66ca eb3d 0caa 7d3e d51e 6e3d
00000090: d8c5 0d3e ffec bc3d ac6e a93c da39 553e
000000a0: 1f81 213e 1107 213e 9d59 2a3e 957e dd3d
000000b0: f509 253e e059 853b 036a 1d3e 5ed6 893d
000000c0: 8659 693e 9036 bc3d 200e ee3c 719e 163d
000000d0: 0524 5abd 5628 4bbd 83e9 7d3d c002 283d
000000e0: a8b1 75bd ac33 e4bd 594a 83bd 0661 b53c
000000f0: dc24 1ebe cdfa 543b e33f 2abc 0e9f 07be
00000100: 06ec 3c3d 9c8c 3cbe c478 a8bc 54e8 4c3b
00000110: 8d63 d03c 2016 573d 4670 22be caf5 093d
00000120: 67be 1cbe c321 a0bd 6979 00bd c488 2ebd
00000130: 3647 a8bd d40b 113a 4bb2 bcbd 5b46 713d
00000140: d9a2 cd3c acd6 10bd dea3 3bbc 7cfc 18bd
00000150: c8b5 2ebc 4483 6fbd 9512 243b 2ee3 29bd
00000160: bb8f bc3d 7b64 dbbd 3b5b 543d 7a77 cd3d
00000170: d096 04bd a432 b4ba 328a 1cbd cc1b 1f3e
00000180: 5c2d 463d 70da 613d 34af cc3b 49a3 b5bd
00000190: 27d1 b13c 1230 923b 3e74 943c 237c 8ebc
000001a0: 3b7f 363e 5ab3 2e3e 8810 2b3e 6920 a93d
000001b0: a7f0 753d 3f71 ae3d 4b61 283e a5b2 e63d
000001c0: 2754 f83d 7624 a03d 0f07 c43d b4c8 4a3d
000001d0: c18c cf3d b466 213e e7ba 853d 3abf c03d
000001e0: 71ef f63d 4352 6a3d 5ee2 db3d 4a31 af3d
000001f0: f618 e939 1034 1d3d 89bc febc e013 6fbb
00000200: a6cd 163d f5e4 033e db1a 723d 8799 183c
00000210: 7a33 323d d15b 043e 723a e93d e3d3 0d3e
00000220: a825 cf3c 48dd 7e3d d1db c03d 0355 583c
00000230: 21cb 2a3e 0269 e23d 0391 b8bc 0266 e63d
00000240: ec04 6bbd 3ebc 8a3d 5069 313e 1f56 833c
00000250: 5142 ca3b f0f6 3c3d 4d53 55bd 63e6 f7bc
00000260: 8016 a0bd 231b d2bd 7c1a e9bd 91ca bcbd
00000270: 2fc2 7f3c 929f cd3c c1c1 10be db45 f2bd
00000280: 4f38 febd 85fa 56bd eefc ffbd e3d3 aabd
00000290: 2e9c 153d 1f7b 3dbd ba33 45bd 548c 3ebd
000002a0: a334 45bd fd55 d53b 2488 80bc 62b5 f5bd
000002b0: d6e7 ebbd 919a d4bd dd2b aabd 7baf 5b3d
000002c0: 9ec3 54bc abdb 1b3c 1021 d83a 07b5 083e
000002d0: e590 a03d b537 d9bc 8585 843d 6ca0 b63b
000002e0: e00b d1bd 55d9 ddbb 040d b6bd 4621 9d3c
000002f0: 9381 acbd e445 e83d a711 373c 7e8f 1dbd
00000300: cb7f 983d 1aef c2bd 99e4 dd3d c707 df3d
00000310: 5bb4 89bb 1d51 023d 569c d73d be9c a9bd
00000320: f925 093e 87f2 f83d 7049 103e c4c6 cc3d
00000330: 2442 003d ead1 1d3d 3aac 653d 3d6d bfbc
00000340: b5de 2c3e c4da 143d 7985 433e 9ab5 d63c
00000350: c29e 883d 19c9 ac3d 0fba 1b3e c8e9 1d3d
00000360: 6d5d e43d e442 093d 716a d0bc d285 d33d
00000370: 56e9 0a3e 5d7f be3c 54a6 da3a b520 0cbc
00000380: 2980 a93d 922d 30bd b26e 483d 6450 39bd
00000390: ae0e 833d 31d5 15bc 8d00 633a 9af9 593c
000003a0: 46cb 56bb f3ba 3abd 54f0 d13d b8cb 49bd
000003b0: 1613 c03c 7d77 063c 6104 7bbb 3a7c 70bd
000003c0: 19d8 8c3c 7009 9d3d e601 bd3d f685 cd3d
000003d0: f5f8 b43c 3cd5 43bc d89f 563d 8583 2a3e
000003e0: 58d3 ae3d 72da 0e3e 6173 0a3e 2617 2a3e
000003f0: bf2b ea3d afc0 2d3e bd48 1a3e 8b62 973d
0.019138537 0.025339248 -0.17350014 -0.023249483 -0.096431844 -0.1489535 -0.039954208 -0.057692327
-0.002411336 0.0073414035 -0.01849011 -0.16843659 -0.14072365 -0.11804683 -0.11438073 -0.11851882
-0.0135569805 -0.19722852 0.0076629096 -0.041956812 0.02778077 -0.051979292 -0.105469964 0.020961162
0.004963502 0.08885212 0.15523162 0.15730491 0.024245637 0.1936433 0.051974934 0.17813373
-0.008953227 0.11513214 0.24771899 0.058134872 0.13845003 0.09224891 0.020682655 0.2082285
0.15771912 0.15725352 0.16635747 0.10815159 0.1611708 0.004069552 0.15372472 0.067303404
0.22788057 0.091900945 0.02905947 0.036772195 -0.053257007 -0.049599014 0.061990272 0.041018248
-0.05998388 -0.11142668 -0.06410665 0.022140991 -0.15443748 0.0032498122 -0.010391208 -0.13244268
0.046123527 -0.18413013 -0.020565398 0.0031266408 0.025438095 0.052511334 -0.15863141 0.03368167
-0.15307008 -0.078189395 -0.031365786 -0.0426109 -0.082167074 0.00055330736 -0.09213694 0.058904987
0.025102066 -0.035360977 -0.011452643 -0.037350163 -0.010663457 -0.058474794 0.002503549 -0.04147642
0.09207102 -0.107125245 0.051844817 0.10032554 -0.03237039 -0.0013748002 -0.03821773 0.15537947
0.0483831 0.05513996 0.006246472 -0.08869035 0.021706177 0.004461297 0.018121835 -0.017393177
0.17821972 0.17060605 0.16705525 0.08258135 0.060043957 0.08517694 0.16443364 0.112645425
0.12125426 0.07819454 0.09571659 0.04950781 0.101342686 0.15761834 0.065297894 0.094114736
0.120573886 0.057207357 0.107365355 0.08554323 0.0004445982 0.03837973 -0.03109576 -0.0036480352
0.036817215 0.12880309 0.059107643 0.0093139475 0.043506123 0.1292565 0.11388101 0.1385036
0.02528651 0.06222275 0.09416927 0.013203862 0.1667905 0.11055185 -0.022530084 0.11249925
-0.05737774 0.067741856 0.1732533 0.016032277 0.0061724563 0.046133935 -0.052081395 -0.030261224
-0.078167915 -0.10259082 -0.113820046 -0.09218324 0.015610262 0.025100503 -0.14136411 -0.1182973
-0.12413084 -0.052485008 -0.124994144 -0.083411954 0.036525898 -0.046259996 -0.048145033 -0.046520546
-0.0481459 0.0065104947 -0.015689917 -0.11997487 -0.115188286 -0.10381044 -0.083091475 0.053634148
-0.012986092 0.009512822 0.0016489346 0.13350306 0.078401364 -0.026515821 0.06470779 0.005573323
-0.10207343 -0.0067702928 -0.08889201 0.019180905 -0.08423152 0.113414556 0.011173642 -0.038466923
0.074462496 -0.09518261 0.10834617 0.10890155 -0.0042024083 0.031815637 0.105278656 -0.08281849
0.13393392 0.121556334 0.14090514 0.09998849 0.031313077 0.038530268 0.05607245 -0.023367519
0.16881831 0.036341444 0.19093885 0.026209641 0.06670906 0.08436794 0.15207694 0.03855303
0.11150632 0.033511057 -0.02544138 0.103282586 0.13565573 0.02325409 0.001668165 -0.00855272
0.08276398 -0.04301221 0.048933692 -0.045242682 0.06399284 -0.009145067 0.0008659445 0.013304139
-0.003277497 -0.045588445 0.10250917 -0.049266547 0.0234466 0.008207199 -0.003830217 -0.05871222
0.017192887 0.07667816 0.09228878 0.10035317 0.022091368 -0.0119526945 0.052398533 0.16651733
0.08536404 0.13950518 0.13520576 0.16610393 0.11434125 0.16968034 0.1506681 0.073918425

enc_layer_1.0.bias f4 [16]
00000000: df7b 1a3e 9259 033e d58c 8f3d d7f9 853d
00000010: f738 4a3d 594d e6bc 1840 413e ff73 533e
00000020: daa2 763e a0ad 04bd 31e4 e0bd c82a 1c3e
00000030: 18e9 473e f968 27bd 22df 223e 8bd4 e8bc
0.15086316 0.12827137 0.070092835 0.06541794 0.049370732 -0.028113054 0.18872106 0.20649718
0.2408556 -0.032392144 -0.10981024 0.15250695 0.19522512 -0.040871594 0.15905431 -0.02842166

enc_layer_2.0.weight f4 [4, 16, 3, 3]
00000000: 305c a6bd 4a57 6e3b 4698 a93d f2bb 063d
00000010: ef69 4abc 47b5 4e3d a4cb 223d 25fe 1a3c
00000020: 5da5 f23b 307d ad3c e0d4 993c b063 03bd
00000030: b25a 0d3d 9533 b2bb 1439 9d3d 0bf8 193b
00000040: 3413 3f3d 5a71 5d3d b563 e03c 62c9 173d
00000050: b465 61bd 2f87 d4bd 6b53 3fbd 40c7 b73c
00000060: c456 d8bd 126d bcbc d732 afbb e127 19bd
00000070: 9bfc 893c 7e90 733c d2ca 98bd e072 463c
00000080: 7b8a 25bd 5e22 e3bd 29fb 8ebd e07d d6bb
00000090: 26d9 3bbd ea43 fabd 8954 1fbe 6175 90bd
000000a0: 0f24 113c ef2c 623c 0ed1 513d af39 84bc
000000b0: af7c 723d af0b 833d 896f 403d eb8a 83bc
000000c0: 3292 a03d d80b 0b3e 3e5f df3d 96ee 293e
000000d0: 1dba 263e 70e0 2d3d d6b0 afbd 3ff8 543d
000000e0: 4e3f b33d 1c34 873d 032b a13d f8b8 803c
000000f0: a58a 923d 6a48 4e3d 2abd 023e c9d6 ac3c
00000100: ed94 b7bd d7a2 d83b 7489 903d 0385 20bd
00000110: 4ccb 1cbd d304 263d 14cc 033d c4f3 08bb
00000120: 9b3c 2fbd f7e8 85bd 4f4b 57bd 31f9 233d
00000130: b883 51bc d4f6 d83d e5b6 36bb bb45 d33d
00000140: 746f 383c 780e 033d 4331 843c 8d84 0a3d
00000150: 9ede ba3d 1bed 283e bb2c 003e a410 1a3e
00000160: b145 143e 9b66 b73d bea0 babb 4205 a4bc
00000170: 864c 98bc 63d9 ce3d 84c4 db3d 6d50 003e
00000180: 9681 b43d b916 bd3d 03b9 193e b9ac 5fbc
00000190: 021b 8a3d 6609 9a3d 21d9 64bd 3744 d03b
000001a0: cf86 8a3a c336 ae3c 8eb3 82bc 65ab cf3d
000001b0: 5e1c 323d 6f30 d03d 5874 233d b4f8 2bbb
000001c0: c996 013d 6d26 453d e2e0 b6bc 2098 c9bb
000001d0: e0f2 863d c050 eabc af5b ba3d e132 ee3d
000001e0: 8bac f33d dd4e 05bc 5a62 103d 05eb b6bc
000001f0: e4c3 1a3e f8ca ef3d cde9 0a3b 772b 8a3d
00000200: 8809 9a3d e8fd a03d a5d2 583d 57c3 b53d
00000210: 0e1c a03c 2cfa da3c 9de7 20bd 21e7 433d
00000220: f18b 6f3d df4a ad3c 13bb 68bd e89b 063d
00000230: 8d11 423c ef44 53bd 145f b63d aa73 54bd
00000240: bce0 513d 6c4d 4bbb ed3d b73d 8e74 a53c
00000250: 226d 423c 2a3f ca3d 8979 9ebd 10b0 5a3c
00000260: c976 413d 2f57 0a3e 3038 893d 781c 2fbc
00000270: bc43 40bc 61a1 1b3e 2b04 66bc b948 153e
00000280: 03e4 413d 9812 f43d d5bd 4b3d 4cae 213c
00000290: b5e2 76bd 828b 1e3d 9c0f fa3c 6406 41bc
000002a0: 5057 2bbd b6b7 863c d72a 29bd bee9 e83d
000002b0: 097f 6c3d 44cb 603e 9bf6 023e 7d0c 2d3e
000002c0: 84f0 573e 14f2 4cbc 62a7 093d 02f7 fe3c
000002d0: a781 5abe e570 3bbe 9773 a2be 203b 29bd
000002e0: 9dfb 1dbd fb29 93be 844e 3abd ff1e 68bd
000002f0: ede5 20be c376 3dbe f2de 19be fffc 84be
00000300: b277 a1bd cc72 13be 834b 47be 5364 543d
00000310: d8ec ccbd 1204 19be 6a81 bd3c 3ca6 7f3c
00000320: aff4 6fbd 1999 4e3d de62 04bc b338 81bc
00000330: 1463 c53d 8a6f c93d fd19 863d 6a82 b2bb
00000340: 5256 ef3c 488c ca3c c607 e33d 0d87 b43c
00000350: 4948 e73d 6d21 153e 213e c53d d7ae c53c
00000360: a8c6 5c3d 2b73 9c3d ddc5 783d 9649 013d
00000370: 0654 b43c b3aa 063d b210 f63d d814 583c
00000380: 5355 af3d 16ae d3bd e77d 7bbe fc3f 9cbe
00000390: b049 82bd 4b52 8ebd 6de2 0ebe 23b0 163d
000003a0: d737 f43c 627c adbd bc94 88be eff0 96be
000003b0: 5ed3 c3be b6b6 29bd 7d66 57be 4842 4cbe
000003c0: e114 cb3d c155 73bd 8555 64be 8c8b 4d3d
000003d0: c195 f83a 2bc6 c43d a00d 743c 4f91 263d
000003e0: 1b11 9c3d 8093 a83d 120a b5bc cfd0 df3d
000003f0: 5ee0 cc3b ea94 4c3b 5dda 0c3d eda1 0d3e
-0.08123052 0.0036367946 0.08280997 0.032894082 -0.012354358 0.05046585 0.039744988 0.009460007
0.0074049667 0.021177858 0.018778265 -0.03207749 0.034510322 -0.005438278 0.076769024 0.0023493792
0.046649173 0.05406318 0.027391294 0.037057288 -0.055028632 -0.10377347 -0.046710413 0.022433877
-0.10563424 -0.023001228 -0.0053466368 -0.037391547 0.016844084 0.014865993 -0.0746056 0.012112349
-0.04041527 -0.110905394 -0.06981499 -0.006545767 -0.045861386 -0.12219985 -0.15559591 -0.07053638
0.008858695 0.013804658 0.05122476 -0.016140787 0.05920094 0.06398713 0.04698137 -0.016057452
0.078403845 0.13578737 0.10906838 0.1659492 0.16281934 0.04245037 -0.08578651 0.05199456
0.08752309 0.06601736 0.07869532 0.0157132 0.071553506 0.05036203 0.12767473 0.021098511
-0.08963952 0.006611209 0.07057467 -0.03918935 -0.038279817 0.040531944 0.032177046 -0.0020897249
-0.042782407 -0.06538575 -0.052562054 0.04003257 -0.012787752 0.10593954 -0.002788001 0.103160344
0.011257041 0.03199622 0.016136771 0.033817817 0.09124492 0.16496699 0.12517063 0.1504541
0.1447971 0.08955117 -0.0056954315 -0.020022038 -0.018591177 0.10100057 0.10730842 0.1253068
0.08813779 0.0923285 0.15011983 -0.01365202 0.067434326 0.07521324 -0.055871133 0.006355788
0.001056874 0.021266347 -0.015954759 0.10140113 0.043484084 0.10165488 0.039905876 -0.0026240768
0.03163794 0.04813235 -0.02232403 -0.006152168 0.065892935 -0.028602958 0.090995185 0.11630798
0.11898144 -0.008136478 0.035250045 -0.022328863 0.15113789 0.11708635 0.0021196485 0.067465715
0.07521349 0.07860929 0.05293526 0.08875149 0.019544628 0.02673062 -0.039283384 0.047827844
0.058483068 0.021153865 -0.056819033 0.032863528 0.011845005 -0.051579412 0.089048535 -0.05186812
0.051239714 -0.0031021489 0.08947358 0.02019718 0.01186684 0.09875329 -0.07738025 0.013347641
0.047232423 0.1350982 0.0670017 -0.01068794 -0.011734899 0.1519828 -0.01403908 0.14578523
0.04733659 0.11917609 0.049741585 0.009868216 -0.0602748 0.038707264 0.030525021 -0.011781309
-0.041831315 0.016445022 -0.04130062 0.11372708 0.057738338 0.2195254 0.12789385 0.16899295
0.21087843 -0.012508888 0.033606894 0.031123642 -0.21338521 -0.18304785 -0.31728813 -0.04131615
-0.038570035 -0.28742966 -0.045485035 -0.056670185 -0.1571271 -0.18502335 -0.15026453 -0.2597427
-0.07884158 -0.1439926 -0.19462399 0.05185349 -0.10006112 -0.14942959 0.023132998 0.015603598
-0.058582958 0.050438974 -0.008080212 -0.015774107 0.09638038 0.098357275 0.065479256 -0.0054476755
0.029215965 0.024725094 0.11085467 0.022037053 0.11293084 0.14563532 0.09630991 0.024131222
0.05390039 0.07639154 0.060735572 0.031564318 0.022012722 0.032877635 0.12014903 0.013188563
0.08561196 -0.10335939 -0.24559747 -0.30517566 -0.06361711 -0.0694929 -0.13953562 0.03678907
0.029811783 -0.0847099 -0.26675975 -0.29480693 -0.38247198 -0.041434012 -0.2103519 -0.1994716
0.09916092 -0.059407953 -0.22298248 0.05018191 0.0018965529 0.0960811 0.014895827 0.04066592
0.0762045 0.082312584 -0.022099528 0.10928499 0.0062523326 0.003121669 0.034387935 0.13831301

enc_layer_2.0.bias f4 [4]
00000000: 9c15 43bd ea36 153e bae0 6d3d 6a6d 483d
-0.04762803 0.1457173 0.058075644 0.04893247

enc_layer_3.0.weight f4 [8, 4, 3, 3]
00000000: 0a57 053e 99d7 8c3e ade0 923e f4f2 643d
00000010: 3713 233e 7a4b f43d 1298 fbbd 3462 bcbd
00000020: 73ba 06be 746f 65be 1eb5 a2be 4947 3fbe
00000030: 6d4b 33bd 8348 c6bd 8457 d2be 260e b03e
00000040: 44c2 93bd 4c0a 92be 0d6a 043e 9ab1 0ebe
00000050: 3735 113e 08e7 ffbc bdd8 54bd e921 11be
00000060: 4a6c 813e e355 833d 9472 24bd 1f6d 1c3e
00000070: 9045 c7bd 44b1 a0bd 169c e83d 8f1e 91bb
00000080: 2222 19be ccd6 2c3d b7d6 083e f164 39bc
00000090: 2569 693d c125 d83b 088b 1b3e ebd7 bebd
000000a0: 8a35 a5bd cb67 29be 6af3 fd3d a8d1 db3d
000000b0: 0565 3abe 2890 68bd ddbf 45be 52b7 d4bd
000000c0: 1784 e3bc 836b bfba 8e09 84be ce2b fb3d
000000d0: 4140 813d 97bd c1bc 409b 603e aea8 b23d
000000e0: d800 04be b57b 283e ca0a 973d 506d e5bd
000000f0: 0014 023d 7fe2 253e 736d 34be 9a49 0a3e
00000100: e566 dfbd 3c39 8abd 0311 48bd 989f 07be
00000110: e210 02be 659a c83d 316c 673d 0aba 7cbd
00000120: ffd5 6ebd ca34 1f3d 7abc 1a3e 95b9 dd3d
00000130: b4cf a9bd f23a aabd fbe3 433e def3 00be
00000140: 1d00 ef3d 1d61 82be 948c d6bd 804d 09bd
00000150: 9e48 2cbe 0020 3e3d 5598 ff3c ba6c 71be
00000160: 452b ddbc be1e d83c 5c12 ed3d c756 36bd
00000170: 77de 0d3e b52f 53bd b551 3ebe 8f81 023e
00000180: 03c8 65be dd0d e23c b07b 1abe d68e 823e
00000190: 5769 4a3e f3d2 2fbd ca41 9a3d 2e32 363d
000001a0: 4846 273e ac93 3f3e f773 b9bc 1dd2 dabd
000001b0: a607 92bd 2204 bf3d 2e56 e4bc 9baf 093e
000001c0: abf1 923d 992b 4b3d e99c 7b3e 3c10 2c3e
000001d0: 2ee8 de3d e63b 8b3d a7fe 46bc aaff 54bd
000001e0: 8d6f 5dbd 568c aebb cf27 883e 7c97 43bd
000001f0: 369f 24be 2c39 153e ac29 253d d22d e83d
00000200: 90d4 ecbb 6390 c23c da16 303e 3f51 e2bd
00000210: 48cf 673d 29f0 e1bd 1596 e53d 4c7a 003e
00000220: f4e9 8a3d 0c9b 193e 4e6f c83c 2d51 ab3d
00000230: 6c14 3c3e bfca 8fbd 7890 45be ef36 a83d
00000240: fe55 22be aa3d edbd 8da2 bd3c 1909 b7bd
00000250: 15b7 1abe 7cc7 bfbd bbb6 12be 9b78 d7bc
00000260: e3a6 f93c 2dd5 fe3c fcd2 afbd 9a18 513d
00000270: 7249 043e 108d c53a b5fe cdbc eee4 f53d
00000280: 06fe 89bd e003 633d 7de3 9cbd 0736 963d
00000290: 60e8 21bc 2519 ae3d 9cb8 04be b0be ea3c
000002a0: ed84 023e f0b1 f03d fef8 6bbb 1782 c0bd
000002b0: 72a0 2dbe e362 4ebc b78e cc3c 0f31 09be
000002c0: e77c 8dbd 6993 003d f1eb 29bd 9fdd a83d
000002d0: 7dfd 9e3d d7f3 3dbe 8262 f23c 0983 0fbe
000002e0: 008a a33d 6908 e93d 6262 1b3d 871c ffbd
000002f0: 6b49 203e e7d9 4ebd 4347 c839 e30b 603d
00000300: 0d40 29be 611b 47be e231 81be 4958 f83d
00000310: eda9 63be ea04 4f3d ae10 94bd 234a 163d
00000320: 880d 85bc 259f 6bbd 650c 8e3d a127 80bd
00000330: 459e 993c dac9 b13d 6280 bb3d 00e4 12be
00000340: 7e20 fd3c 2d47 5b3e b043 c8bd 7067 abbc
00000350: 6f66 853d 8b09 a9bd 13c9 a6bd 5f1e c03d
00000360: 61c5 3a3e 7473 313e 28e5 373d e230 9bbd
00000370: 9f90 1c3e bf1e 0e3d b15e 193e 50a7 293e
00000380: 725d 003d a8f2 84bd 707d 123e 509d 453e
00000390: 6d56 0e3c 8f5e 593e 9c76 803d adcf 5d3e
000003a0: 9414 cb3c c3e4 d83d 6c22 a9bd 7083 e53c
000003b0: 6434 b0bd 24e5 fa3d e713 e83b 7e0a b9bd
000003c0: 1387 1c3e bb8a d7bc 23fa f1bd 98a5 5b3e
000003d0: ba6f 453e b8ac 7a3d be0b 803c 1fc4 d33d
000003e0: 1b3c 973d 3526 dd3d cba7 62bc eb1f 8e3d
000003f0: 3fbf d43d 851b 08be 9076 7c3d 0853 38bd
0.13021484 0.27508238 0.2868704 0.05589576 0.15925299 0.119284585 -0.122848645 -0.09198418
-0.13157062 -0.22405797 -0.31778806 -0.18679537 -0.043773104 -0.09681799 -0.41082394 0.34385794
-0.072147876 -0.2852348 0.1293108 -0.13934937 0.14180456 -0.031238094 -0.05196451 -0.14173092
0.2527793 0.06412866 -0.040148333 0.15276001 -0.09730065 -0.07846311 0.11357896 -0.0044286917
-0.14954427 0.042197034 0.13363157 -0.01131557 0.05698504 0.0065962975 0.15189755 -0.09318527
-0.080668524 -0.165435 0.12399943 0.10733348 -0.18202598 -0.056778103 -0.19311471 -0.10386528
-0.027772946 -0.0014604185 -0.2578854 0.122642145 0.063110836 -0.023649974 0.21934223 0.08723579
-0.12890947 0.1645344 0.07375105 -0.1120249 0.031757355 0.16199683 -0.17619877 0.1350464
-0.109082974 -0.06749198 -0.04884435 -0.13244474 -0.12701753 0.097950734 0.056499664 -0.06170086
-0.05830955 0.038868703 0.1511096 0.108264126 -0.08291569 -0.08312024 0.19129936 -0.12593028
0.116699435 -0.25464717 -0.10476032 -0.033521175 -0.16824576 0.046417236 0.031200567 -0.23576632
-0.026998172 0.026381847 0.115757674 -0.04451635 0.13854395 -0.05155917 -0.18585856 0.12744735
-0.2243958 0.027594501 -0.15086246 0.254996 0.19766746 -0.042925786 0.075320795 0.04448145
0.16335404 0.18708676 -0.022638304 -0.10684607 -0.07130365 0.0932696 -0.027873125 0.13445894
0.07175001 0.049602125 0.24571575 0.16803068 0.108841285 0.06798534 -0.012145675 -0.052001633
-0.05406146 -0.005326788 0.26592872 -0.04775189 -0.16076359 0.1457259 0.040322945 0.113368645
-0.007227488 0.02375049 0.17196217 -0.11050653 0.056594163 -0.11032135 0.112102665 0.12546653
0.06782904 0.15000552 0.024467137 0.083650924 0.18367165 -0.070210926 -0.19293392 0.08213603
-0.15853116 -0.11584027 0.0231488 -0.08937282 -0.15108903 -0.093642205 -0.14327519 -0.026302626
0.030475086 0.03110751 -0.08585164 0.051048853 0.12918642 0.0015071947 -0.025145868 0.120065555
-0.06737904 0.055423617 -0.076605774 0.07334524 -0.009882063 0.0850089 -0.12961048 0.02865538
0.1274602 0.11752689 -0.0036006565 -0.09399813 -0.16955736 -0.012596819 0.024970395 -0.1339762
-0.06908589 0.03139058 -0.041484777 0.08245396 0.07763193 -0.18550049 0.029587988 -0.1401483
0.07985306 0.11378557 0.037935622 -0.12456613 0.15653007 -0.050500777 0.00038200067 0.054698836
-0.1652834 -0.19444038 -0.2523337 0.12126214 -0.2223279 0.050541796 -0.07229744 0.036691796
-0.016241804 -0.05752482 0.06935958 -0.062575586 0.018752227 0.08681078 0.091553465 -0.14344788
0.030899283 0.2141387 -0.09778535 -0.020923346 0.06513678 -0.08253773 -0.081438206 0.09380793
0.18239357 0.17329198 0.044896275 -0.07577683 0.15289544 0.03469729 0.14977528 0.16567731
0.031339116 -0.064915955 0.14305663 0.19298291 0.008687598 0.21227477 0.06272623 0.21661253
0.024790086 0.10590508 -0.082585186 0.028016776 -0.08603743 0.12250736 0.0070824507 -0.09035204
0.15285902 -0.026311269 -0.11815288 0.21449888 0.19280902 0.061199874 0.0156306 0.103401415
0.07384511 0.10798303 -0.01383395 0.069396816 0.1038804 -0.13291748 0.061636508 -0.04500106

enc_layer_3.0.bias f4 [8]
00000000: 0682 9bbd fcc2 d23a 3789 203d d77a 5dbd
00000010: 5ef0 ea3c 9f2d 2abe 5584 853d ea69 5fbb
-0.075931594 0.0016079838 0.03919336 -0.054072227 0.02867907 -0.16618966 0.06519381 -0.003409023

dec_layer_1.0.weight f4 [8, 8, 3, 3]
00000000: 541d fc3d 0a8e 2d3e e020 0a3e 3c7f debc
00000010: 3ef5 80bd 0518 f1bd 111c b0be 4002 3cbe
00000020: 1fef 2ebd 5459 413d 97c6 c23d 8e93 0d3e
00000030: 29bc 55be eb98 04be 2637 ae3d 95ff a2be
00000040: 2b04 a1be c55a 37be 124f a03d 3097 2fbd
00000050: 9942 983e cf05 24be df4c a8bb 740b 2b3e
00000060: c958 42bd 0da4 553c 67e1 59bc 49cf 4e3e
00000070: 8590 363e 50da febd 6ed3 713d f62a d23d
00000080: 539f 663d 10f7 07be 17db 18bd a135 0ebe
00000090: 7bf2 79be 0f2c 10be 701a 1a3c cdb5 2a3d
000000a0: 5462 18be 1f9a c7be 60b6 3abd c079 54be
000000b0: e08d a0be 0de2 413e 1ac4 df3d 2dc0 f63d
000000c0: adbe 21be ab8e a83d ee42 713d 30e1 8dbe
000000d0: 5e0b 05be 54a3 0bbe 4dfb 06be 3a35 07bd
000000e0: 562b 64bc 4272 873d 5b7c d3bc 4a3d ffbd
000000f0: 5797 a63d a261 8e3c 8864 36be 79db 993e
00000100: 8da0 ce3d a4c8 453d c5dd 0fbe d359 2bbd
00000110: 8d16 263e 3932 77be 3c00 70bd d9cc 38be
00000120: 61d0 7b3d c17d 153e 75e0 95bd c1f8 303d
00000130: 4446 923e 30c2 20bd 9025 7f3b 7bd7 08be
00000140: 918d 7bbe f673 483d 31aa 59be 24e5 773e
00000150: bd7c 18be d2d8 16be bc6c 47bd 1f9d b13d
00000160: 784a c6be ea87 a03d d485 e43c afef a83d
00000170: 9713 3b3e a737 f3bd 3da6 81bd 8e94 8b3d
00000180: bbc3 013b 5e37 a43d 8592 18bd 4d38 693e
00000190: c609 96bd 537f edbd ffab 1abc a83a 99bd
000001a0: c504 393e 4ab9 d43d 5419 55be f2c8 7dbd
000001b0: 9e14 f5bc b1ee 37bd 01bb 033d ae89 c33c
000001c0: 937d 15be f63c 43be f8f7 323d 1f0f 00be
000001d0: 018e 89be 868a a03d b00e 473e 95af 6f3e
000001e0: 5ca2 f9bd 89b1 55be 0add e93b 5e27 08be
000001f0: bdd7 713e 76a1 393d 2a1c 483d 1971 fdbd
00000200: 430b 42be d389 d6bd a37b 6bbe b3e0 b5bd
00000210: b0f4 c1bd 26e3 77be e6f3 dcbd 9e77 7a3e
00000220: b483 733d 841c 43be 320e 66be bf72 c53c
00000230: 2810 02be f49f d23d 6ca0 9ebd 1098 a3be
00000240: 88e1 6ebd 270f b3bd 4610 c43c 6dbc 2abd
00000250: 035f 983b cf72 2bbd 8cd2 e8bd bde9 ffbd
00000260: 90f9 69bc 8d2f 38bd 1f02 fa3d 76c7 c8bd
00000270: 96a2 8d3d 1dec 7fbd fe8a 47bd 8330 51bc
00000280: 2f6e a23c b6ef 853c 07fc 10be 19ba abbd
00000290: a6bf 8fbe d22b f9bc 7fae 95bc c349 8abe
000002a0: 987c 57bc b9c9 df3a 8120 c43d 560f d7bd
000002b0: 6d30 27be 2061 17be 6d55 3fbd 28f4 b8bd
000002c0: 94f4 21bd 5a13 d8bc 8cc5 c13c 9866 5bbd
000002d0: b8ea 09bd ac46 afbd dfed 28be 4e48 10bc
000002e0: 16ee 043e 8be7 14bd e0a3 15bd b417 58bd
000002f0: 3693 f3bd b32f b1bd aa3d b2bd c65d 42be
00000300: 5e79 97bc a0e5 2a3d b0d9 55bd 2282 89bd
00000310: 5039 01be 483f 563e 61aa b3bd c690 b3bd
00000320: 0be4 ffbd fd72 c83d 153c 73bc b85d 183e
00000330: a1ba 643e 3882 ca3d ef98 c63d fb56 3d3e
00000340: e391 d43d db68 453e 527c 5e3d 490f 89bd
00000350: 4385 7f3c 6ee6 533c 0a75 263c b485 253e
00000360: b128 67bd cd5e a4bd 26e7 b6bc ccd3 5e3d
00000370: fae8 01be 67fb 11be 312c a73c 18c2 793d
00000380: c864 44bb e6e1 903d 44ae e83d d5a1 b3bd
00000390: 5db5 213e 6202 163e 326c 8a3d 53e6 0e3d
000003a0: 8721 903d 971e e23d 00c1 8d39 6301 b1bd
000003b0: b37c efbd 2c69 f1bc 08bb ad3d f53a 5dbd
000003c0: 99f7 bd3d bc59 15be 59af b8bd 233a acbc
000003d0: f166 3d3b 8cd7 c73d 86b3 e7bd 2859 09bd
000003e0: 933a 1d3d 7609 c63c a7c6 003c 8885 24bd
000003f0: 5b1b ba3d 8ee5 823d 83e8 d2bc e728 1c3e
0.123102814 0.16948715 0.13489103 -0.02716028 -0.06296776 -0.117721595 -0.34396413 -0.18360233
-0.042708512 0.04720433 0.09510534 0.13825819 -0.20872559 -0.12948959 0.085066125 -0.3183562
-0.31448492 -0.1790572 0.078275815 -0.042868793 0.2973831 -0.16017841 -0.005136117 0.16703588
-0.047447953 0.013039601 -0.013298369 0.2019626 0.17828567 -0.124439836 0.059039526 0.102621004
0.056304287 -0.1327784 -0.037318315 -0.13887645 -0.24408905 -0.14079307 0.009405717 0.041677285
-0.14881259 -0.38984773 -0.045584083 -0.20749569 -0.31358242 0.18933888 0.10926075 0.12048373
-0.15795393 0.08230337 0.05890172 -0.27710867 -0.12992617 -0.13636523 -0.13181801 -0.033009745
-0.013926348 0.0661359 -0.025816133 -0.12462862 0.081343345 0.01738054 -0.17811787 0.30050257
0.100892164 0.04828705 -0.14049442 -0.04183371 0.1621954 -0.24140252 -0.058593974 -0.18046893
0.061478022 0.14598753 -0.073182024 0.04320598 0.28569233 -0.03924769 0.00389323 -0.1336345
-0.24565722 0.048938714 -0.21256329 0.24208504 -0.14891334 -0.14731148 -0.04868768 0.086725466
-0.3872869 0.078384236 0.027895845 0.08248841 0.18269192 -0.11875849 -0.063305356 0.06815444
0.0019800502 0.08018373 -0.037249107 0.22775383 -0.07326083 -0.11596551 -0.009440421 -0.07481891
0.18068226 0.103869036 -0.20810443 -0.061959215 -0.029917058 -0.04490537 0.032160763 0.023869362
-0.14598684 -0.19066224 0.043693513 -0.12505768 -0.26866153 0.07838921 0.19439197 0.23406823
-0.12189171 -0.20868506 0.0071369456 -0.13296267 0.23617454 0.045319997 0.048854984 -0.12375087
-0.18949609 -0.10475507 -0.22996382 -0.088807486 -0.094704986 -0.24207744 -0.107887074 0.24459693
0.059451774 -0.19053847 -0.22466353 0.024102567 -0.12701476 0.10284415 -0.07745442 -0.31951952
-0.058320552 -0.087431245 0.023933541 -0.041683603 0.004649998 -0.041857537 -0.11368284 -0.12495754
-0.014280692 -0.044967223 0.12207436 -0.09803669 0.069157764 -0.062481035 -0.048716538 -0.012767914
0.01982793 0.016349655 -0.14158641 -0.08385105 -0.28075904 -0.030416403 -0.018271683 -0.270094
-0.013152264 0.0017073668 0.09576512 -0.10500972 -0.16327067 -0.14783144 -0.046712328 -0.09030944
-0.03953989 -0.026376415 0.023653768 -0.053564638 -0.03367111 -0.085584015 -0.1649699 -0.008806301
0.12981448 -0.03635363 -0.036533237 -0.05275698 -0.11893313 -0.08651676 -0.08703168 -0.18981084
-0.01849049 0.041722894 -0.052209556 -0.06714274 -0.12619519 0.20922577 -0.087727316 -0.08767848
-0.124946676 0.09787557 -0.014845868 0.14879501 0.22336818 0.098881185 0.096971385 0.18490212
0.10379388 0.1927828 0.05431778 -0.066923685 0.015595737 0.012933357 0.01015974 0.16164285
-0.05643529 -0.08025894 -0.022327017 0.054401204 -0.1268653 -0.14256059 0.020406814 0.060976118
-0.0029967297 0.07074337 0.113613635 -0.087711014 0.15791841 0.14649346 0.06758918 0.034887623
0.07037645 0.11040991 0.00027037412 -0.086428426 -0.11693706 -0.029469095 0.08482939 -0.054011304
0.09275741 -0.14585012 -0.0901782 -0.021023815 0.002890047 0.09757909 -0.11313538 -0.03353229
0.03838594 0.024174433 0.007859862 -0.040166408 0.09087249 0.0639144 -0.025745636 0.15249978

dec_layer_1.0.bias f4 [8]
00000000: fb2e 833d fc72 fc3d f952 5b3d 8456 99bd
00000010: f272 23bd d4d9 793d c888 563d 58b8 80bc
0.06405445 0.12326619 0.053545926 -0.07487205 -0.039904542 0.060998753 0.05237654 -0.015712902

dec_layer_2.0.weight f4 [12, 8, 5, 5]
00000000: 6059 8c3c 8486 a73d 6293 20bd 312f 033c
00000010: 675c 4cbd 61a8 893d 2823 a43d 39e8 7c3d
00000020: 8792 cfbc 2c18 3cbc 89e0 653d 26fd 243d
00000030: 3ded 83bc dc65 953d e91a 963b 201d 9a3c
00000040: 56b1 903d 69d5 70bc ae1d 88bc c10b 7a3d
00000050: 36de c0bb f13f 2b3d d174 1bbd 35c4 73bd
00000060: 8a0a d6bc 307d d43c 5e0e 96bd b076 133d
00000070: 17ea 4bbc 6c89 8bbb 8cc8 1b3d a6e5 d7bb
00000080: 6839 d3bc e100 85bd 6e47 93bd cf52 d73c
00000090: 8fa7 afbb 6285 60bd 41a3 ddbd d5df 43bd
000000a0: ab6c d23d a6b7 313d 1564 da3c 066f 103d
000000b0: dc5b 83bd ca52 5ebc 98b6 8f3d f994 42bd
000000c0: 2385 1f3d 8711 71bb dbc6 99bc 1d29 033e
000000d0: 2a4e 8b3c 021a e43c 815a 74bd f89e 333d
000000e0: 1fbc 42bc 884b 123d 203e 98bb fa00 a0bc
000000f0: 216b f33d 3b5d f4bb 4381 263d 6a04 6f3b
00000100: 9dcd 643c 41ee 423d e639 1dbd 4485 503d
00000110: f0f4 0e3d 0103 a03c 3588 6cb9 6230 15bd
00000120: a4e7 8e3b 3cb0 c9bc bc75 6e3d c4ba 4dbc
00000130: 36b3 2cbd 0761 ffbc 87e2 71bd 1d67 dfbd
00000140: 2b57 043d 095c f43c 15d5 6ebd c7d6 c73c
00000150: c1cb 36bd 75cd 05bb 6cec 85bc b3b0 783d
00000160: 6bdb aa3c 22bc 893d df90 68bd 8c5c fa3a
00000170: f428 aebb 72dc b0bd 3ab8 2ebd 3b27 82bc
00000180: 64fe 753d 0a48 583d 8452 90bc 7acf 333d
00000190: a6a7 0a3e c994 8f3a f417 443c d12b 433c
000001a0: d9e4 d0ba 131e 4fbb 3224 303d daf1 7b3d
000001b0: 2b84 2bbc 6257 7fbd 5465 253d e592 af3d
000001c0: 3352 7b3a 0dec b03d 1ef5 93bd dbdb 2d3d
000001d0: 9e79 993d 1a5c 463c 956f ed3c f4b2 c73b
000001e0: 6195 75bd 4f49 afbd f9c6 7ebd 6000 4e3c
000001f0: 0f3b 0d3d 92ab ebbb 6ccd 803d 24cf b63c
00000200: 75ea 7ebd 3676 26bd 3141 0c3b cb34 c63d
00000210: a1d4 b0bb 5c31 be3c d07d 613c a2be 9a3d
00000220: 23a9 7cba a49c 923d 49ef 973d 14c4 d0bc
00000230: f11c 333d 671a f93c 6c00 fabc 6d42 95bc
00000240: 7a21 2bbd fa0c 5bbd e5b6 253c a936 063d
00000250: 8f7e 103d 41fd 503d 9f22 473d 74c1 203d
00000260: 4d21 6c3d 5f91 7aba 7f0f 1cbc d406 e2bc
00000270: e7d7 9c3d 55b8 9c3d 0552 ac3d 5bf3 2abd
00000280: 139b 273d 7f6c 853d 542c d53c cb9d 2fbd
00000290: 7b18 3b3d 4e88 b2bc 85ab b2bc d3f0 773c
000002a0: dcb7 6b3d b5ce 943b 6f1e 5ebb 10dc 43bc
000002b0: a3f6 a3bc bd11 b33c 7956 5b3d 7478 43bc
000002c0: 5b2b a83c e7c2 9f3b aeac 5b3d 6f6f 053d
000002d0: 7bce 713c 175e 823d aba0 873d 65a0 9d3d
000002e0: 2390 cb3b c3d8 8c3c 4cdd 803a fd78 77bc
000002f0: 1eb8 85bb 73d8 713c 7f49 73bc f2b9 27bc
00000300: 848d 01bd 5b42 9cbd 68da 153d 98ab 70bc
00000310: 827b 1abd b0b1 bbbc c5cc 693c d26f a23c
00000320: 1b7e e83c b512 5dbd c8b5 adbd d8bf cbbd
00000330: d5be e83c 20ca 813b 034a 393b b5e9 503d
00000340: 22f5 05bd e41c 1c3d 4304 203e defb 6f3d
00000350: aa14 b33c 32d7 313b 7811 f8bc a6e4 343d
00000360: 8639 013a 4f99 a63d c442 3e3c 1077 cebd
00000370: 5f6d 153d a55b a03a 9177 afb9 bf96 de3b
00000380: 7c92 c7bc 3bdd 01ba 4411 9b3c 5955 093d
00000390: 2e4d 1abd 5838 b63c fdb6 d63d 8f36 633d
000003a0: 22b7 13bd 1c44 383d 8163 553b 85d7 e23d
000003b0: 921e 303d 2be5 ee3d e85f 9b3d 2987 033c
000003c0: f20a a23d eb40 093d 8fdf b7ba 8c08 863d
000003d0: 7d18 913d 4f24 d13d 612e 033c ab50 ba3d
000003e0: 5347 053d d919 e23c dc23 0fbc 3378 55bd
000003f0: d841 fb3c c572 443d 0cf6 043b 9b40 41bd
0.017132461 0.08179954 -0.039203055 0.008006857 -0.04989281 0.06721569 0.08014518 0.061744902
-0.025338424 -0.011480372 0.056122337 0.040280484 -0.016104335 0.07294819 0.0045808447 0.018812716
0.07065074 -0.014699318 -0.016615715 0.061046366 -0.0058858646 0.041809026 -0.0379532 -0.05951329
-0.026128072 0.0259386 -0.07326959 0.03600186 -0.012445948 -0.0042583253 0.038033053 -0.0065886555
-0.02578421 -0.06494308 -0.071913585 0.026284603 -0.0053605507 -0.054814704 -0.10822154 -0.047820885
0.10274633 0.04338803 0.026659051 0.03526213 -0.06414005 -0.013569543 0.07017249 -0.047505353
0.03894533 -0.0036784129 -0.01877158 0.12808652 0.017005045 0.027844433 -0.059656624 0.043852776
-0.011885672 0.035716563 -0.0046460778 -0.019531716 0.118856676 -0.007457403 0.040650617 0.0036471137
0.013965038 0.047590498 -0.038385294 0.050908342 0.03490156 0.019532682 -0.00022557455 -0.036423095
0.00436111 -0.024620168 0.05821775 -0.012556735 -0.042163096 -0.031174196 -0.059053924 -0.10908339
0.032309692 0.029829042 -0.05830868 0.024394406 -0.04462791 -0.0020416651 -0.016348086 0.06071539
0.02085658 0.067253366 -0.056778785 0.0019101067 -0.0053149406 -0.086357966 -0.04265616 -0.015887847
0.06005706 0.052803077 -0.017617472 0.043899037 0.13540515 0.0010954376 0.0119686015 0.011912302
-0.0015937343 -0.003160362 0.04300327 0.061509944 -0.010468523 -0.062339194 0.040379837 0.0857294
0.0009587139 0.08638773 -0.07224487 0.042446 0.074939 0.01210692 0.02898387 0.006094331
-0.059956912 -0.085589044 -0.062201474 0.012573332 0.03448015 -0.0071920836 0.06289181 0.02231557
-0.062235314 -0.04064008 0.0021401162 0.09678038 -0.005396441 0.023216896 0.013762906 0.075558916
-0.00096382404 0.07158783 0.07418687 -0.025484122 0.043728773 0.030408097 -0.03051778 -0.01822015
-0.041779973 -0.053479172 0.010114406 0.03276697 0.035276946 0.05102277 0.048617 0.03924699
0.057648946 -0.0009558405 -0.009525179 -0.027591147 0.076583676 0.07652346 0.084140815 -0.041735988
0.040919375 0.065148346 0.026022114 -0.042875092 0.045677643 -0.02179351 -0.021810303 0.015133101
0.05754839 0.004541243 -0.0033892652 -0.011954322 -0.020015066 0.021859044 0.053549264 -0.011930574
0.020528486 0.004875529 0.053631477 0.032576974 0.014758701 0.063656025 0.06622442 0.076966085
0.006212251 0.017193204 0.0009831577 -0.015104529 -0.0040807864 0.014761078 -0.014849066 -0.010237204
-0.0316291 -0.07629844 0.03658524 -0.014689349 -0.037715442 -0.022911876 0.014270012 0.01982871
0.028380444 -0.05397292 -0.08481938 -0.09948701 0.028411308 0.0039608628 0.0028272874 0.05100413
-0.03270448 0.03811349 0.15626626 0.05858981 0.02186044 0.0027136323 -0.030281767 0.04416337
0.0004929531 0.0813471 0.011612598 -0.10081303 0.036481258 0.0012234343 -0.00033467685 0.0067928727
-0.024361841 -0.00049539254 0.018929131 0.03352866 -0.03767126 0.022243664 0.10484121 0.055471953
-0.03606332 0.04498683 0.003256053 0.11076263 0.042997904 0.11664804 0.07586652 0.00802783
0.07912244 0.033509176 -0.0014028418 0.06544599 0.07084749 0.102120034 0.008006663 0.090974174
0.032538723 0.027600216 -0.008736577 -0.052116584 0.030671045 0.047961015 0.0020288257 -0.047180753

dec_layer_2.0.bias f4 [8]
00000000: 30ca 4bbd db07 843d 8088 893c b4b7 4b3e
00000010: 53ff 9e36 77ad be3c b400 133d 0ad4 113c
-0.049753368 0.06446811 0.016788721 0.19894296 4.7384906e-06 0.023276074 0.035889342 0.008900652

dec_layer_3.0.weight f4 [8, 3, 5, 5]
00000000: 6548 f13d 6446 c83d a9a8 f93d 3a0b db3b
00000010: 2aef f53c cb95 803d 4dd3 843d 4ea8 043e
00000020: bbb4 b83c e098 13bd f7e2 5d3e 89ee 6e3e
00000030: 4c01 ad3e 2d8f b53d 6737 5a3e 16a3 cc3d
00000040: 5336 353e 9fc4 833e c817 343e 9aa3 ad3d
00000050: bdcd cc3d 1d70 ee3d 3e3d 7d3e 0fdf 2f3e
00000060: 1ad4 053e 3f1d 3cbd f944 b4bc 818e a93d
00000070: ab06 9e3d 8450 733d 85fb 0e3d a778 d13d
00000080: e202 9e3d eddb dbbc b41e a83d 13e8 c63d
00000090: ad26 b23d 1ce3 c33d e690 e33d 8a28 8f3b
000000a0: 07e7 183e 09c6 0b3e c33c 073e c2a3 c83d
000000b0: a0c6 953d 0e4a 13bb f7d8 b53d e22f a33d
000000c0: 40ea ed3c 647c dcbb 38db 66bd aa7f d23c
000000d0: dead 353b 1867 933c 018b 80bd dff7 aebc
000000e0: b0b8 b4bc 75f9 26bc 3bd7 c0bc 3eef 54bd
000000f0: f22f e2bd 2d87 54bc 709a c9bd 7a55 0bbd
00000100: ca16 cbbd 503b 433c 077b 34bd 9230 85bd
00000110: b308 89bd e544 5abd 353d 66bc d263 69bd
00000120: f0cd 40bd f70a 863c fbfe 703c b7ff 1f3c
00000130: ea4b 5cbd 35f4 74bd 5a9e 8fbd 2fe3 7b3c
00000140: ceec 983c 6200 8cbb c5e7 31bd f4be c9bd
00000150: 3af0 9cbd fb75 00bd e4fa b03c 2ace 25bd
00000160: 2022 cbba 5b79 2fbd 46a0 39bd 2082 003d
00000170: 9e85 7cbc af12 243c aaf3 3ebd 589b 65bc
00000180: 6a0f 93bc 2c84 b53c 0504 b43b 36c2 5a3c
00000190: 9f29 aa3d de9b de3d 7c05 533e 2c89 293e
000001a0: 0e51 1c3e 8489 ef3d be59 173e 878b 483e
000001b0: b424 1b3e 02f4 0f3e f061 ce3d 99a9 213e
000001c0: e017 933e 6d26 783e f776 463e 4226 3c3d
000001d0: b184 c63d 4770 203e 6dde 293e a774 cb3d
000001e0: b175 b63c fb1d 6f3d 400c d73d 6c30 b13d
000001f0: c636 b23d 3643 dcbc 5110 b2bc 09e6 2bbd
00000200: 9a78 4dbc 7d12 6fbc ecb4 d4bc 6389 553c
00000210: e2ce 08bd f590 88bd 8d53 a3bd 2b58 18bd
00000220: 867e 95bd 35e1 20be e2f8 14be 5897 c1bd
00000230: 5f81 75bd a747 9bbc 09b3 0abe 6843 20bd
00000240: eade ddbd 2614 7abd b167 fabc 3e02 02be
00000250: 7861 40bd 3b66 84bd 0b4e 7539 3a5b 873c
00000260: 6362 00bc c803 9c3c 5c79 14bd c7ba 9ebd
00000270: 78d6 493b 9a4e 30bd 6cbd d33c df85 e4bd
00000280: fcee 0cbd 39a1 a53c 7ade e3bc ed98 7abd
00000290: 28b8 b4bc 57a2 4ebd 75ef 34bd d517 6ebd
000002a0: 8d29 43bd b19d 7abc 90db ed3c 755b 70bd
000002b0: ff3d 1dbd bcef cbbd 0e4e f9bc 733e b3bc
000002c0: 34c4 e3bc 57ff 0dbd 844a f7bd 99b4 ffbd
000002d0: 6944 c4bc 082b d3bb 66f6 5dbc 1667 c3bd
000002e0: dbe6 c3bd ca68 9c3d fecb 3cbd e8ee 76bd
000002f0: 09d7 c3bd 146d 82bd 4007 c23d dab6 803d
00000300: 313b 573d cd76 bebb 5375 1c3d e8e4 ea3c
00000310: f10e 8d3c ed2a ea3c 254c 8abd 0463 8cbc
00000320: 9403 973d af1f 923d b372 3e3e 1271 dd3d
00000330: 2de8 73bc b53b f23d 6c7f 5b3d 5d9c 0e3e
00000340: 3757 8f3d 707c 813d 25e2 5e3e 7fdb 5c3e
00000350: d0c1 b23e 2e5a 2c3e 379e 543e 38f9 f83d
00000360: 6cf0 253e d7b7 183e 56a7 123e ddc7 f83d
00000370: bee0 cc3d bd76 1c3e a9c7 543e 72d4 d53d
00000380: 5237 993d d251 303e b34c 8a3d 2b5a 113e
00000390: 869b 213d 9412 0d3e 0f37 b53d 5b83 0a3e
000003a0: 3f06 ab3d 9501 dc3d 0f0d a43d 7b83 033e
000003b0: 2d54 003e 0edd 2b3e 8e93 0d3e 8e60 a23d
000003c0: 15ce 2c3e 8b55 bc3d db30 463e 45c6 ed3d
000003d0: 2b7e 053e 5bc7 a73d 3f56 d73d 0a12 fa3d
000003e0: 9bc6 de3d 4510 e83d 69ea 233e 6862 ee3d
000003f0: 2a7a 483e 2389 bf3d 1923 233e b6f3 0a3e
0.11781386 0.09779051 0.121903725 0.006684688 0.030021269 0.06278571 0.06485615 0.12954828
0.022547117 -0.036034465 0.21668611 0.23333181 0.33790052 0.08865199 0.21310197 0.09992044
0.17696504 0.25735947 0.17587197 0.0847847 0.10000179 0.11642478 0.24730393 0.17174934
0.13069192 -0.04592633 -0.022005545 0.082791336 0.077161156 0.059402958 0.034907836 0.10228091
0.077153936 -0.026838267 0.08208981 0.097122334 0.08698783 0.09564802 0.111116216 0.0043688463
0.1493188 0.13649763 0.13206773 0.09796859 0.07313275 -0.002247456 0.088792734 0.07968117
0.029042363 -0.0067286957 -0.056361407 0.02569564 0.002772204 0.017993495 -0.06276513 -0.021358429
-0.022060722 -0.010191311 -0.02354013 -0.05198597 -0.11044301 -0.012971682 -0.0984391 -0.034017064
-0.09916456 0.011915997 -0.04406264 -0.06503405 -0.06691112 -0.05328836 -0.014052679 -0.05697996
-0.047071397 0.01636265 0.01470923 0.009765557 -0.053783335 -0.059803206 -0.07012625 0.015373989
0.018667605 -0.0042725066 -0.043433923 -0.098508745 -0.07663007 -0.031362515 0.021604009 -0.040479816
-0.0015497841 -0.042840343 -0.045318864 0.031374097 -0.015412716 0.01001422 -0.046619095 -0.014014088
-0.017951686 0.022157751 0.005493643 0.013351968 0.0830872 0.10869573 0.20607561 0.16556233
0.15265295 0.11696151 0.14780328 0.19584475 0.1515072 0.14057925 0.10077274 0.15787353
0.28729153 0.24233408 0.19381319 0.045934923 0.096932776 0.1566783 0.16588755 0.09934359
0.022272917 0.0583782 0.105003834 0.08651814 0.087018535 -0.026887517 -0.021736296 -0.041967425
-0.012540961 -0.01459181 -0.025965177 0.013033244 -0.033400424 -0.06668273 -0.079749204 -0.03719346
-0.07299523 -0.1571091 -0.14548066 -0.09452695 -0.05993783 -0.018955065 -0.13544859 -0.039126784
-0.10833533 -0.06105437 -0.030567022 -0.12696168 -0.046967953 -0.064648114 0.00023394094 0.016522992
-0.007835957 0.019044772 -0.03624855 -0.07750469 0.0030798 -0.04304371 0.02584716 -0.111583464
-0.0344076 0.020218479 -0.027816046 -0.061180998 -0.022060469 -0.050447788 -0.044173677 -0.058128197
-0.047647048 -0.015296386 0.02903536 -0.05868097 -0.038389202 -0.09957835 -0.030432727 -0.021880364
-0.027803518 -0.03466734 -0.120747596 -0.12485618 -0.023958402 -0.0064443387 -0.0135475155 -0.095411465
-0.095655166 0.076371744 -0.04609298 -0.060286433 -0.09562499 -0.06368461 0.09474039 0.06284876
0.052546684 -0.005812502 0.038197827 0.028673604 0.017219039 0.028584922 -0.06752805 -0.017137058
0.07373729 0.071349494 0.18598442 0.10812582 -0.014886898 0.118277945 0.053588316 0.13926835
0.06999057 0.06322563 0.21765955 0.21568106 0.34913492 0.16831276 0.20763479 0.1215691
0.16204995 0.1491388 0.14321646 0.12147496 0.10003804 0.1527967 0.2077929 0.10440911
0.07481255 0.17218712 0.067529105 0.14194553 0.03945496 0.13776618 0.08848392 0.1352667
0.08350801 0.10742489 0.08010303 0.12843125 0.1253211 0.16783544 0.13825819 0.079285726
0.16875489 0.091960035 0.19354574 0.116100825 0.1303641 0.08192321 0.10514497 0.12210472
0.10877725 0.11331228 0.16007389 0.11639863 0.19577852 0.09352329 0.15931357 0.13569531

dec_layer_3.0.bias f4 [3]
00000000: f498 00be f99c f7bc becd dc3c
-0.12558347 -0.030226218 0.026953574
