save/exp_1/model_exp_1.pt (torch, 27291 bytes, 12 tensors)

enc_layer_1.0.weight f4 [16, 3, 5, 5]
000000 67 e0 55 3c 0c fa 9a 3c 40 0b 38 be f5 d5 f1 bc
       0.01305399 0.01891806 -0.17973042 -0.029520968
000010 53 da d2 bd 78 2d 1d be cd 18 39 bd 14 96 81 bd
       -0.10295548 -0.15349376 -0.045189667 -0.06327453
000020 49 87 f0 bb c6 2a 18 3b 25 aa b6 bc 50 65 31 be
       -0.007340346 0.0023218854 -0.022297928 -0.17323804
000030 2a 0e 16 be c9 da fe bd 69 f8 f5 bd 2a 87 f8 bd
       -0.1465384 -0.12444074 -0.12010271 -0.121351555
000040 7c e2 91 bc f0 c2 4f be 13 4c 90 3a 1c 38 49 bd
       -0.017808191 -0.20289207 0.0011009 -0.049125776
000050 97 69 dd 3c 00 2b 5d bd 3c 78 e0 bd 98 40 80 3c
       0.027027888 -0.053996086 -0.10960433 0.0156558
000060 82 4a bf ba 9a 88 b3 3d d5 9a 1e 3e 2c b9 20 3e
       -0.0014594349 0.08766289 0.15488751 0.15695637
000070 c2 1b c5 3c 6b 1e 49 3e 66 82 56 3d 82 da 36 3e
       0.024061088 0.1964051 0.05237045 0.17856792
000080 28 e5 0b bc 67 b8 ed 3d 2b 64 80 3e c7 57 79 3d
       -0.008538522 0.116074376 0.25076422 0.060874727
000090 60 40 11 3e 58 8b c3 3d 52 82 c7 3c c2 83 5b 3e
       0.14184713 0.09548062 0.024354134 0.2143698
0000a0 67 5e 27 3e b9 16 27 3e f8 54 30 3e fc cd e9 3d
       0.16344605 0.16317262 0.17219913 0.114162415
0000b0 c6 34 2d 3e 11 68 3f 3c 55 ae 25 3e 05 77 98 3d
       0.16914663 0.011682526 0.16179784 0.07444576
0000c0 f3 bd 70 3e 84 e8 ce 3d e7 91 a1 3c 4c 65 03 3d
       0.2350996 0.101029426 0.019722892 0.032079026
0000d0 1d c5 60 bd 14 fd 48 bd e9 07 87 3d af 32 08 3d
       -0.054875482 -0.04906948 0.065933056 0.03325146
0000e0 46 c4 83 bd cb 61 e6 bd 42 bc 7d bd 52 71 e0 3c
       -0.064339206 -0.11249121 -0.061947115 0.027397785
0000f0 57 b8 24 be 5a 9b 5b 3a 80 38 2c bc 64 06 04 be
       -0.16085945 0.0008377336 -0.0105115175 -0.12893063
000100 28 c4 59 3d f9 09 3e be a4 ec 8d bc 50 1a 11 3c
       0.053165585 -0.18558492 -0.017324753 0.008856371
000110 9a ac 0b 3d d3 7c 86 3d b6 90 21 be 3d 15 1b 3d
       0.034100153 0.06566777 -0.15777859 0.03786205
000120 16 e6 14 be 17 aa 8b bd 74 4d 91 bc 35 87 4c bd
       -0.14540896 -0.068195514 -0.017737128 -0.04993363
000130 d0 6b b5 bd 9e dd 52 bb a9 87 bf bd 85 7f 67 3d
       -0.08858454 -0.0032175551 -0.09352047 0.056518096
000140 8c 5e 94 3c af 3f 2f bd 07 b0 92 bc 9d ec 2d bd
       0.01811149 -0.042785343 -0.017906202 -0.04246198
000150 b9 d6 82 bc 4f 60 85 bd a8 24 82 bb b7 42 46 bd
       -0.015971528 -0.0651251 -0.003971655 -0.048403468
000160 29 87 ac 3d 2d 86 ec bd 13 12 42 3d c7 74 c1 3d
       0.08424217 -0.115490295 0.04738052 0.09446102
000170 06 72 1a bd 70 83 11 bc 49 74 4a bd 4f 76 1d 3e
       -0.037706397 -0.008881435 -0.049427304 0.15377162
000180 e9 32 37 3d e1 de 4e 3d e1 e9 54 3a 2c fe ca bd
       0.044726286 0.050505523 0.0008122009 -0.09911761
000190 8b af 0e 3d 35 89 1d 3c c5 7b ae 3c 48 ed 67 bc
       0.03483538 0.009615232 0.021299252 -0.014155693
0001a0 37 ee 39 3e 0d 4e 3b 3e 77 76 2e 3e 83 66 a6 3d
       0.18157278 0.18291493 0.17037378 0.08125021
0001b0 ca 11 6b 3d f2 d1 a8 3d 64 7e 36 3e c0 cf f2 3d
       0.05739001 0.08243169 0.17821652 0.118560314
0001c0 19 7d fb 3d 4b 45 9c 3d 19 b1 bd 3d c7 61 8c 3d
       0.1227972 0.07630404 0.09262294 0.06854587
0001d0 7a 5a e5 3d 3a 4a 27 3e 0c d4 89 3d 59 93 bf 3d
       0.11198898 0.16336909 0.06729898 0.09354276
0001e0 ff 5b 0e 3e 96 4a 8d 3d 97 5a e9 3d 13 b6 b6 3d
       0.13902281 0.06898992 0.11394232 0.08921447
0001f0 42 53 55 b9 b5 b5 14 3d 3c 4c d9 bc 90 16 d4 b9
       -0.00020344279 0.0363061 -0.02652561 -0.000404526
000200 2b 6d 19 3d 3b fa 02 3e 86 8e 53 3d 25 7b 01 3c
       0.037457626 0.12790768 0.051649593 0.007902895
000210 1e af 2d 3d eb 7b 01 3e 37 57 df 3d 8a a5 02 3e
       0.042403333 0.12644927 0.10905307 0.1275846
000220 69 b9 95 3c 7d b3 60 3d 22 9e b3 3d 09 a0 a2 3b
       0.018276887 0.054858673 0.08770396 0.0049629253
000230 ab fb 18 3e b8 5c cf 3d 53 02 0c bd af b4 ce 3d
       0.14939754 0.101251066 -0.034181904 0.100930564
000240 1b 21 8c bd 16 72 45 3d 48 62 23 3e 5f d2 86 3b
       -0.06842252 0.048204504 0.1595546 0.0041144337
000250 ec 95 0e bc e8 a1 fe 3c ac 65 98 bd b4 ad 4a bd
       -0.008702736 0.031083062 -0.07441267 -0.049482062
000260 93 5b c3 bd 6a 02 ef bd f5 10 00 be c1 42 e3 bd
       -0.09538951 -0.11670382 -0.12506469 -0.11096717
000270 2e 8a 6a b9 64 c3 29 3c 69 cc 1d be f4 d6 03 be
       -0.00022367455 0.010361526 -0.15410008 -0.12874967
000280 dd 0c 10 be 23 2e 87 bd fa d4 0c be 12 fc c4 bd
       -0.14067407 -0.06600597 -0.13753119 -0.09618391
000290 3e 11 d1 3c b8 2d 70 bd b7 b5 7a bd 46 38 74 bd
       0.025520917 -0.05863735 -0.061208453 -0.05962398
0002a0 d8 ea 78 bd 10 f8 dd bb 1a 24 b6 bc 96 ec 02 be
       -0.06077084 -0.006773956 -0.022234011 -0.12785563
0002b0 b7 90 00 be 44 01 ea bd a7 f1 bf bd 6f 02 aa 3d
       -0.12555204 -0.11426023 -0.093722634 0.083012454
0002c0 fa 43 7d 3c de 19 0e 3d b6 eb d4 3c a8 ad 21 3e
       0.015458101 0.034692638 0.025991302 0.15788901
0002d0 70 e1 e2 3d c6 1b bf 3b 43 92 c1 3d 0e 1c 09 3d
       0.11078155 0.0058321683 0.09451725 0.03347402
0002e0 b2 13 97 bd 06 14 d2 3c f1 6c 6c bd 5c c0 48 3d
       -0.073768035 0.025644314 -0.057721082 0.049011573
0002f0 2f 5c 65 bd 97 0b 11 3e d7 04 37 3d b6 ec c4 bb
       -0.055996116 0.14164577 0.04468235 -0.0060096635
000300 9b 38 d6 3d d9 fe 86 bd f8 dd 0d 3e 99 de 0d 3e
       0.104600154 -0.06591577 0.13854206 0.13854446
000310 f2 99 cd 3c 70 3c 70 3d 93 0f 06 3e 6d 7b 66 bd
       0.02509782 0.058651388 0.13091879 -0.05627005
000320 07 6e 05 3e 44 db f8 3d c5 79 11 3e f9 2c d0 3d
       0.13030253 0.121511966 0.14206608 0.10164828
000330 5d 3d 10 3d 2e 6f 17 3d ea 42 6e 3d 73 fc a3 bc
       0.03521477 0.036971264 0.058169283 -0.020017838
000340 c3 a9 31 3e e0 d3 2e 3d 5e 7b 41 3e 3b 59 ec 3c
       0.17349915 0.04268253 0.18894717 0.028851142
000350 96 59 91 3d 7a 8d b8 3d 42 dd 23 3e 57 11 0f 3d
       0.07097165 0.090113595 0.16002372 0.034928646
000360 64 be e6 3d 38 4a 17 3d d5 3b a7 bc ec 46 e3 3d
       0.11266783 0.036936015 -0.020414272 0.11097512
000370 df 25 04 3e 90 cc aa 3c ff 9b a9 3a 35 50 e7 bb
       0.12905072 0.020849496 0.0012940167 -0.007059122
000380 ff bf b1 3d d1 7f 46 bd 23 99 41 3d 18 19 31 bd
       0.086791985 -0.04846174 0.047265183 -0.043236822
000390 4c 40 8c 3d 7e da da bb 6e ff a7 bb b9 7b 2c 3c
       0.06848201 -0.0066788783 -0.005126885 0.010527545
0003a0 af b5 40 bb f8 07 2a bd 37 4e d7 3d 40 a3 68 bd
       -0.0029405167 -0.041511506 0.10512965 -0.056796312
0003b0 04 1e a0 3c 4e b6 ec 3b c2 93 ee ba b7 c3 68 bd
       0.019545563 0.007223881 -0.0018201994 -0.056827273
0003c0 f5 1b c0 3b e1 09 8d 3d cc 1d b5 3d 1a 1a cc 3d
       0.0058627077 0.0688665 0.08843574 0.09965916
0003d0 30 f6 ab 3c 4c 1e da bc 3c 5b 29 3d c6 78 22 3e
       0.020991415 -0.026625775 0.041346774 0.15866384
0003e0 00 8a a6 3d cd 37 0a 3e 6b fc 0b 3e 86 44 2e 3e
       0.0813179 0.13497849 0.13670509 0.17018327
0003f0 da db f5 3d 29 12 35 3e b1 30 23 3e 41 b4 88 3d
       0.12004824 0.17682709 0.15936543 0.06675006

enc_layer_1.0.bias f4 [16]
000000 e0 b1 34 3e 43 37 19 3e 32 54 b9 3d a4 80 97 3d
       0.17645979 0.14962487 0.09049262 0.07397583
000010 00 64 6c 3d 66 60 dd bc 32 a1 67 3e 16 ca 5b 3e
       0.057712555 -0.027023505 0.22620085 0.21463808
000020 03 d7 84 3e 6c 69 35 bc ab c8 d4 bd e7 e9 2e 3e
       0.2594529 -0.011072498 -0.10389837 0.17081414
000030 ee 5e 71 3e d5 08 60 bc 85 7a 3c 3e 36 17 0e bd
       0.23571369 -0.013673981 0.18406112 -0.034690104

enc_layer_2.0.weight f4 [4, 16, 3, 3]
000000 eb 29 14 be 09 b5 41 bd d8 ba e9 3c e0 38 31 bc
       -0.14469115 -0.04729179 0.028531477 -0.010816783
000010 a5 c7 09 bd 65 34 ca 3c d4 b2 42 bc 39 79 c2 bc
       -0.03363766 0.024683187 -0.011883456 -0.023739444
000020 69 eb f1 bc ba 14 37 3c 65 65 51 3c 01 27 2c bd
       -0.029531198 0.011174375 0.012780522 -0.042029385
000030 75 a2 fc 3c 13 0e 1b bb ec cc 9f 3d 7c 58 b5 bb
       0.030839184 -0.0023659512 0.078027576 -0.00553423
000040 d9 64 41 3d d8 9b 57 3d af d6 8f bc db 0a 2b 3c
       0.047215316 0.05263886 -0.017558424 0.0104396
000050 36 4f 96 bd ae 48 1d be d5 73 a0 bd fd 40 05 3b
       -0.07339327 -0.15359756 -0.07834593 0.0020332925
000060 6b 48 23 be 78 6b 82 bd e3 e3 1d bd 43 ad 4f bd
       -0.15945594 -0.06368154 -0.038547408 -0.050702345
000070 48 80 b3 bb ab d7 8a bc bc 28 75 bd dc e7 a8 3c
       -0.005477939 -0.016948542 -0.0598533 0.020618372
000080 60 fb 3b bd 64 cd ba bd a4 28 58 bd 6d ab 8d ba
       -0.045894027 -0.091212064 -0.052773133 -0.0010808535
000090 eb 58 3f bd 5d 4c d6 bd e0 4d 11 be 03 ed b6 bd
       -0.04671566 -0.10463784 -0.14189863 -0.08931925
0000a0 0f 78 eb 3b 0f f3 55 3c 69 a4 1f 3d ec e7 d7 bb
       0.007185943 0.013058438 0.038975153 -0.0065889265
0000b0 ef 8b 8d 3d 78 2a 9c 3d bf 1c 60 3d 11 85 76 bc
       0.06911456 0.07625288 0.054714914 -0.015046374
0000c0 70 cf ae 3d da 0c 11 3e ea c7 dd 3d 2b 5c 37 3e
       0.08535659 0.14165059 0.10829146 0.17906253
0000d0 1f df 35 3e 92 ca 66 3d 24 6b cc bd be 0e 4e 3d
       0.17760895 0.05634553 -0.09981373 0.050307028
0000e0 66 1a aa 3d 0d 6c 58 3d 15 0c a3 3d 99 c3 8d 3c
       0.08305816 0.05283742 0.07961289 0.017305182
0000f0 74 af 5f 3d d9 89 40 3d eb 7f fe 3d 14 c7 c8 3c
       0.054610685 0.04700646 0.12426742 0.02450899
000100 a4 30 bf bd 85 f9 f1 bb da f3 bd 3d b3 29 a8 bc
       -0.09335449 -0.0073844814 0.092750266 -0.020527696
000110 a3 0b f1 bc cb 14 80 3d ef 82 5e 3d 6c 86 48 3c
       -0.029424494 0.06253966 0.054324087 0.01223908
000120 ec 27 58 bd 91 1f 89 bd 7f db 75 bd 9e 9d 07 3d
       -0.052772447 -0.06695474 -0.06002378 0.0331093
000130 c5 6c 0e bc 8a 1a d9 3d d5 e4 45 bc 33 12 d8 3d
       -0.008692925 0.10600765 -0.012078484 0.10550346
000140 90 68 26 3c 21 f0 c6 3c fa 84 87 3c ce 4c 0b 3d
       0.010156766 0.024284424 0.0165429 0.034008794
000150 e0 17 85 3d 75 fc 17 3e 60 2e e3 3d 9f 6c 05 3e
       0.064986944 0.14842398 0.1109283 0.13029717
000160 41 4d 0d 3e a5 be b1 3d ce a2 d5 bb b2 0c a3 bc
       0.13799001 0.08678941 -0.006519652 -0.019903515
000170 cc ca a6 bc fd 97 b1 3d 32 9e c1 3d f2 82 ec 3d
       -0.020360373 0.086715676 0.094540015 0.11548413
000180 3f 5d a3 3d 26 97 bb 3d a5 47 1c 3e c6 01 68 bd
       0.0797677 0.09159689 0.15261705 -0.056642316
000190 69 08 30 3d 9f 71 65 3d b8 da cb bd 6d 81 81 bc
       0.04297677 0.05601656 -0.09953827 -0.015808785
0001a0 39 15 6c bc b4 48 06 bd 5b fd 51 bd ec 08 90 3d
       -0.014409357 -0.03278418 -0.05126701 0.07032952
0001b0 7d f5 19 3c 27 0d ab 3d 72 9c 89 3c ed d4 77 ba
       0.009396908 0.08352118 0.016798232 -0.00094540307
0001c0 07 3b 66 3d 6b 60 7c 3d 1c 15 bd bc f0 37 56 3c
       0.056208637 0.06161539 -0.023081355 0.01307486
0001d0 64 c6 a5 3d b9 9c 07 bd 28 62 ca 3d e4 4c f2 3d
       0.08094481 -0.033108447 0.09882003 0.11831072
0001e0 2a 35 d3 3d 84 ae fb bb e6 17 02 3d 10 ad 11 bd
       0.103128746 -0.007680716 0.031761073 -0.035565436
0001f0 e2 ee 1e 3e f9 87 f1 3d 68 66 23 3c 78 db 87 3d
       0.15520814 0.11793513 0.009973146 0.06633657
000200 44 45 7d 3d 69 3c d8 3d e2 14 98 3d 62 ef c8 3d
       0.061833635 0.10558397 0.07425858 0.09811284
000210 1d bf 41 3d 22 51 5d 3d b8 e2 af bc ba 61 91 3d
       0.0473014 0.054032452 -0.021470413 0.07098718
000220 5a 33 8d 3d 75 2e 96 3c d9 ac d3 bc eb 27 5e 3d
       0.0689456 0.0183327 -0.025839256 0.054237287
000230 44 8e 9a 3c 84 47 ab bc 29 12 ec 3d 85 f9 0d bd
       0.018866666 -0.020908125 0.11526901 -0.03466179
000240 fc cf d2 3d 5d d6 88 3c d1 e3 f9 3d a5 a9 35 3d
       0.10293576 0.016703779 0.12201656 0.04435124
000250 45 ba e1 bb 57 88 a8 3d b1 d5 6e bd 7b 6f b6 bb
       -0.00688866 0.0822913 -0.05830926 -0.0055674887
000260 4e af b6 3c d3 33 33 3e d9 21 bf 3d 1e 08 de 3b
       0.022300389 0.17500238 0.09332628 0.00677587
000270 ec 92 85 3c 16 95 25 3e e3 3e 99 bc 71 cc 2c 3e
       0.01630541 0.16170153 -0.018706745 0.16874863
000280 d5 50 47 3d 4e a6 d0 3d 0b 2e d6 3d 78 de db 3c
       0.04866107 0.1018797 0.10458001 0.02683948
000290 07 45 90 bd f0 45 8c 3d 4c 23 c1 3c 2b bd 28 bd
       -0.07044416 0.06849277 0.023576401 -0.04119603
0002a0 c8 81 d2 bc 09 ea 83 39 4a 67 a1 bd ca 6c ff 3d
       -0.02569665 0.00025160637 -0.07881029 0.12471922
0002b0 13 da a0 3d 38 f5 88 3e 36 b7 f5 3d 4d 50 21 3e
       0.07854094 0.26749587 0.11997835 0.15753289
0002c0 7f aa 5f 3e b6 5b 46 bc 18 aa a5 3c 43 04 bb 3c
       0.21842383 -0.0121068265 0.020222709 0.02282918
0002d0 19 0e 4f be 2a a8 2f be 61 f0 b5 be c5 c1 9f bc
       -0.20220222 -0.17153993 -0.35534957 -0.019501576
0002e0 39 87 6b bc 44 a3 95 be 8a 37 71 bd 60 58 8a bd
       -0.014375501 -0.29226124 -0.058890857 -0.067551374
0002f0 a8 90 41 be 12 e2 36 be e1 9b 05 be cf 44 80 be
       -0.18902838 -0.17859676 -0.13047744 -0.25052497
000300 e6 0a 9e bd 67 e9 00 be 20 8d 37 be 44 10 47 3d
       -0.077169225 -0.12589036 -0.17924929 0.048599496
000310 eb 3c cd bd df 50 1b be 63 2a 84 3d d1 40 0c 3d
       -0.10021385 -0.15167569 0.06453397 0.0342415
000320 b4 cf 6a bd a9 c0 aa 3d 5c 29 a4 38 d8 fd de bc
       -0.057326987 0.08337528 7.827833e-05 -0.027220652
000330 cd 41 f5 3d 8c 01 c8 3d 24 59 39 3d e2 13 e9 b9
       0.11975441 0.0976592 0.045251027 -0.00044456037
000340 81 1a 32 3d 68 64 4e 3d 44 03 da 3d b6 a8 8f 3c
       0.043482307 0.050388724 0.10645154 0.017536502
000350 ac c4 e7 3d b8 00 18 3e 92 78 bb 3d 5f df 73 3c
       0.11316809 0.14844024 0.09153856 0.014884799
000360 14 88 c2 3d 6e 3e d0 3d 03 e9 99 3d 9a 24 81 3d
       0.09498611 0.101681575 0.075151466 0.06305809
000370 db 84 07 3d 21 16 eb 3c f3 74 13 3e 11 9e 79 3c
       0.033085685 0.028697075 0.14400081 0.01523544
000380 3c 71 8d 3d c8 a9 a4 bd 43 2f 65 be a0 e5 a5 be
       0.06906363 -0.08040196 -0.2238131 -0.32401752
000390 b6 0a 42 bd 79 00 58 bd 4f 8e 12 be 6a b8 ca 3c
       -0.047373496 -0.052734826 -0.14312099 0.024746139
0003a0 ea b0 38 3c 4b 6e f1 bd 74 df 7d be aa b8 85 be
       0.011272648 -0.11788615 -0.24792272 -0.2611745
0003b0 23 af c1 be 28 0c e1 bc f6 27 38 be 1b 1d 40 be
       -0.3782893 -0.027471617 -0.17983994 -0.18761103
0003c0 7a 90 b9 3d 32 0a 84 bd 5c 74 77 be a3 e7 ed 3d
       0.0906076 -0.06447257 -0.24165481 0.11616447
0003d0 f3 37 ee 3c e1 1f d5 3d ee eb 76 3d c5 0a 2d 3d
       0.029079413 0.10406471 0.060283594 0.0422466
0003e0 08 aa 5b 3d 2b 9d fd 3d 0b 5c b3 bc cf 2e b4 3d
       0.05362895 0.12383493 -0.021894475 0.087979905
0003f0 58 67 10 3d 77 cd 87 3c 71 4b 58 3d a3 98 11 3e
       0.035254806 0.016577465 0.05280632 0.14218383

enc_layer_2.0.bias f4 [4]
000000 39 fe 0a bd 41 03 0b 3e 25 0d ba 3d c4 45 6f 3d
       -0.033933852 0.1357546 0.09084538 0.058416143

enc_layer_3.0.weight f4 [8, 4, 3, 3]
000000 07 3b 97 3d 5a 0e 7a 3e 25 70 99 3e 1e 83 53 3c
       0.073843054 0.24419537 0.29968372 0.012909679
000010 50 ac 16 3e 7f 4b 16 3e b7 cf 1c be a3 98 96 bd
       0.1471417 0.14677237 -0.15313612 -0.07353332
000020 a4 6a 78 bd 83 a9 79 be b2 e7 a8 be 48 ac 75 be
       -0.060648575 -0.2438107 -0.3298927 -0.23991501
000030 22 35 14 bd 32 85 84 bd 5d b2 d2 be 00 96 a2 3e
       -0.036183484 -0.064707175 -0.41151705 0.31755066
000040 79 94 cc bd ff af ab be 36 29 90 3d f6 50 12 be
       -0.099892564 -0.33532712 0.0703911 -0.14288697
000050 57 ea 13 3e 5f e9 a9 bd ac 21 8a bd e2 d5 17 be
       0.14444862 -0.08296465 -0.06744704 -0.14827684
000060 e4 db 68 3e 67 30 0d 3d ce 36 a2 bd df 26 5c 3e
       0.22740132 0.03446999 -0.079206094 0.21499203
000070 ec 56 6e bd 22 a3 d6 bd cf 76 2f 3e 18 56 6e 3d
       -0.058188364 -0.10480334 0.17135166 0.058187574
000080 77 92 fc bd 3a 80 b5 3c 7e ee 00 3e bb d4 f1 bc
       -0.123326235 0.02215587 0.12590978 -0.029520383
000090 96 17 4f 3d 4a 40 9b 3c 21 e0 4b 3e 58 df 0e be
       0.050559603 0.018951554 0.19909717 -0.13952386
0000a0 d0 3d dd bd e0 9c 24 be e6 df b0 3d 0d 58 b7 3d
       -0.108028054 -0.16075468 0.08636455 0.08952341
0000b0 66 c1 28 be 17 84 07 bd 99 fc 35 be d1 1b 02 be
       -0.16480026 -0.033084955 -0.1777214 -0.12705924
0000c0 ab 64 a1 bc a1 fa 97 3c 57 a3 82 be c6 4e 00 3e
       -0.019701323 0.018552126 -0.25515243 0.1253005
0000d0 f4 0a 74 3d ac c0 26 bd 81 7f 77 3e d8 7b fc 3d
       0.05958076 -0.04071109 0.24169733 0.12328309
0000e0 9b f7 c1 bd 7e 67 16 3e e5 d2 88 3d f6 f9 eb bd
       -0.09471055 0.14687917 0.0668085 -0.11522286
0000f0 5b e1 d6 3c 41 18 19 3e af 7c 42 be 39 64 3b 3e
       0.026230505 0.14950658 -0.18992876 0.1829995
000100 9d 0a 93 bd 37 97 81 bd ce e4 e6 ba 96 21 b2 bd
       -0.07179759 -0.0632767 -0.0017615797 -0.08697812
000110 75 5f bc bd df 67 e3 3d b5 46 9b 3d f6 64 3a bd
       -0.091978945 0.11103796 0.07581846 -0.04550644
000120 a5 3d 54 bd f6 dd 82 3c 61 a7 07 3e 80 d4 0a 3e
       -0.0518166 0.01597498 0.13247444 0.13557625
000130 0d 49 bd bd 71 25 c5 bd d8 2c 72 3e e9 77 fc bd
       -0.09242449 -0.09626282 0.23649919 -0.123275585
000140 5e 37 e0 3d ff 3c 76 be 82 a8 b0 bd b2 ca 26 bd
       0.109480605 -0.24046706 -0.0862589 -0.04072065
000150 8f f0 26 be 03 ee 84 3d 1f 24 06 3d 27 5c 82 be
       -0.16302703 0.0649071 0.03274929 -0.25460932
000160 3c 29 a7 bc 48 01 f5 3c a0 f8 d1 3d 45 30 7a bd
       -0.020405404 0.029907838 0.102524996 -0.06108119
000170 a3 98 06 3e 52 6b 63 bd 3e bc 4b be f6 a8 fa 3d
       0.13144164 -0.05552227 -0.19896027 0.12239258
000180 fa e3 64 be c8 f4 96 3c 9f b3 1c be 54 a3 8c 3e
       -0.22352591 0.018427268 -0.15302895 0.2746836
000190 32 b0 51 3e 9a 17 5d bd b4 9a 23 3d 9a bc d3 3c
       0.2047737 -0.053977586 0.03994246 0.025846768
0001a0 af 45 1a 3e dd ad b9 3d a5 14 bb bd bc 6e 13 be
       0.15065645 0.09066365 -0.09134797 -0.1439771
0001b0 73 88 65 bd 67 ae a8 3d d7 9d 84 bd a7 ba 1f 3e
       -0.05603833 0.082363896 -0.06475418 0.15598546
0001c0 bb dd 8d 3d 46 ca c6 3c 96 10 85 3e 74 97 1f 3e
       0.06927057 0.024266373 0.25989217 0.15585119
0001d0 e9 9b 95 3d 1d 0e a9 3d db 07 26 3b 52 3b 98 bc
       0.07305128 0.08254645 0.0025334272 -0.018582974
0001e0 39 35 54 bd cc 42 39 bc 01 93 87 3e da 70 2d bd
       -0.05180857 -0.0113074295 0.26479343 -0.04234395
0001f0 bd 30 1d be 95 e1 16 3e 6e 6a 7c 3d 79 1f e6 3d
       -0.15350623 0.1473449 0.061624937 0.11236472
000200 f9 61 80 bc c4 db 32 3d fc 96 30 3e af d5 fb bd
       -0.015671717 0.043666616 0.17245096 -0.12296616
000210 94 d2 61 3d 64 c7 ef bd 7b 7b c2 3d 9e bf b7 3d
       0.055132464 -0.117079526 0.09496208 0.08972095
000220 83 6e 27 3d 42 11 20 3e 4a 3a 21 bb 30 11 67 3d
       0.040876877 0.15631583 -0.0024601393 0.056412876
000230 5c 27 31 3e ff 78 83 bd 07 6f 44 be cf 40 b4 3d
       0.1730017 -0.064195625 -0.19182979 0.08801424
000240 0a 55 46 be fa 4d d7 bd 61 8e 70 3d 5d 1b 10 be
       -0.19368377 -0.1051292 0.058729533 -0.14072938
000250 fc 11 26 be 80 c2 a7 bd 5f fa 3d be 8f 58 2f bd
       -0.16217798 -0.08191395 -0.1855254 -0.042809065
000260 c0 2f bc 3c 16 70 e5 bb a9 3c 15 be bc 7d d2 bc
       0.022971988 -0.007001887 -0.14573921 -0.02569472
000270 1a 69 10 3e cb 13 a0 bb ff ee c7 bc 53 97 37 3e
       0.14102593 -0.004885172 -0.024405954 0.1792882
000280 72 ba bf bc 23 77 f4 3d c3 58 b8 bd c8 69 40 3d
       -0.023404334 0.11936786 -0.09001305 0.04697588
000290 06 2d 15 bd 06 1a ca 3d b5 a1 db bd a1 0a 84 3d
       -0.03641989 0.09868245 -0.107242025 0.0644734
0002a0 4e 5a 1b 3e a7 1f 2b 3e 4c af ab 3d d1 c0 ce bd
       0.15171167 0.16711293 0.083830446 -0.100953706
0002b0 b2 57 3b be 53 99 17 bd 8c 67 53 3d 79 17 03 be
       -0.18295172 -0.037011456 0.051612422 -0.12801923
0002c0 66 db 89 bd 26 74 fb 3d 16 6b b0 3c 4c c4 fa 3d
       -0.067313 0.12278013 0.021535438 0.12244472
0002d0 5f 38 2e 3d 60 49 5d be e6 d5 83 bc 50 88 16 be
       0.04253423 -0.21610022 -0.016093206 -0.14700437
0002e0 ca 73 b3 3d cc e9 d7 3d a5 22 b7 3c 3f 23 f9 bd
       0.087623194 0.1054264 0.022355387 -0.12164926
0002f0 36 a3 0b 3e c9 c3 9b bd 7a a8 71 bc a1 b1 e7 3c
       0.13636479 -0.076057024 -0.014749641 0.028282942
000300 b1 e1 22 be 20 b9 37 be 88 1d 77 be 17 5b e9 3d
       -0.15906407 -0.17941713 -0.24132359 0.11394327
000310 ef 63 62 be ec 1c 7c 3d 92 bc e8 bd ed 64 0a bc
       -0.22108434 0.06155102 -0.11364092 -0.008446914
000320 41 70 ae bd 33 b3 5d bd cb bc 9b 3d be bb 9d bd
       -0.085175045 -0.054125976 0.07604369 -0.077018246
000330 98 d7 e9 3c b8 1e d8 3d 0d f2 c6 3d 70 9a 13 be
       0.028545186 0.10552734 0.09714136 -0.14414382
000340 e2 8b 70 3d f1 ed 7c 3e e4 76 e2 bd 0a 98 56 bc
       0.058727153 0.24700142 -0.11057833 -0.013097772
000350 05 33 9d 3d f9 b3 b5 bd 5e 93 b3 bd eb cd a6 3d
       0.07675747 -0.08872218 -0.087683424 0.081447445
000360 a0 91 2a 3e b9 b5 25 3e 51 76 89 3c 8a c7 a4 bd
       0.16657114 0.16182603 0.01678005 -0.080458716
000370 15 22 22 3e 81 b0 e2 3c 28 ad 04 3e a5 be 25 3e
       0.15833314 0.027672054 0.12956679 0.16186006
000380 6e f8 8c 3c 56 88 93 bd 24 dc 1d 3e b7 b9 58 3e
       0.017208304 -0.072037384 0.15416008 0.21164595
000390 8e 81 43 3c 68 4b 66 3e 9f ce 95 3d 86 92 58 3e
       0.011932744 0.22489703 0.073148005 0.21149644
0003a0 56 6c bf 3c 14 0a c3 3d 70 17 c0 bd ed 50 d0 3c
       0.023367088 0.095234066 -0.0937947 0.025429213
0003b0 a2 4b e2 bd b0 79 00 3e 00 c6 7b 3c bc 3e e0 bd
       -0.11049582 0.1254642 0.015367031 -0.10949466
0003c0 99 e3 1a 3e 58 9b af bc 08 4a 14 be 93 85 62 3e
       0.15125884 -0.021436378 -0.14481366 0.22121267
0003d0 b7 c5 6d 3e 88 09 df 3d e6 ba b6 3c bd 07 0c 3e
       0.23219953 0.1089049 0.022305917 0.13674827
0003e0 3b 57 e0 3d 61 fc f6 3d ec ff 65 3c 89 a0 b9 3d
       0.10954138 0.12059856 0.014038067 0.09063823
0003f0 f7 77 e0 3d 11 75 ea bd e6 31 90 3d e3 a2 65 bd
       0.109603815 -0.1144811 0.07040767 -0.056063544

enc_layer_3.0.bias f4 [8]
000000 c0 34 86 bd d7 e1 32 3d 74 04 07 3b 98 42 86 bd
       -0.0655303 0.04367241 0.002060202 -0.065556705
000010 85 95 45 3d 7a 68 3a be bb 1a a7 3d e5 fc 73 3c
       0.048238296 -0.18203917 0.08159395 0.014891838

dec_layer_1.0.weight f4 [8, 8, 3, 3]
000000 95 36 e8 3d ed 10 29 3e 40 6b f9 3d a3 fb 95 3b
       0.11338536 0.16510363 0.121786594 0.0045771166
000010 7a b1 c0 bd c2 21 af bd a3 ad bc be ba 8b 4a be
       -0.09408851 -0.08551361 -0.36851224 -0.19779864
000020 ff 8b a8 bc 54 de 10 3d 30 6e fb 3d 3a 13 ef 3d
       -0.020574568 0.03536828 0.12276876 0.11673589
000030 35 2f 86 be b5 b7 00 be a2 7c a3 3d 61 a5 a1 be
       -0.2620789 -0.12570079 0.07982756 -0.31571487
000040 90 e4 8e be 6d ce 03 be 97 63 ae 3d d1 f3 ec bc
       -0.27908754 -0.12871714 0.08515089 -0.028924854
000050 aa 96 9c 3e 1a ba 61 be 46 62 2a bd 57 95 18 3e
       0.30583698 -0.22043648 -0.041597627 0.14900719
000060 8e 6a c6 bd c7 76 36 bd 55 68 d6 bb b6 d7 33 3e
       -0.096882924 -0.04454687 -0.006543199 0.17562756
000070 79 6f 39 3e 4b 7b 9e bd 12 ff 63 3d 1f d2 9b 3d
       0.1810893 -0.0773836 0.055663176 0.07608437
000080 5c 7b ec 3d b7 c4 11 be 5b 05 04 bd cf 02 1c be
       0.115469664 -0.14235197 -0.03223167 -0.15235446
000090 b0 7a 8f be a7 46 08 be 7b e2 36 3d bb 14 6e 3b
       -0.2802329 -0.13308202 0.044649582 0.0036328274
0000a0 03 b2 38 be d6 82 c8 be 26 37 04 bd 86 98 46 be
       -0.18036656 -0.3916232 -0.032279156 -0.1939412
0000b0 18 96 7b be 02 a6 71 3e f7 9d 31 3e ce 1c cc 3d
       -0.24568975 0.23598483 0.17345415 0.099664316
0000c0 a3 36 3d be 03 c7 c7 3d 90 95 00 3d 5b 14 89 be
       -0.18477874 0.09754755 0.031392634 -0.26773342
0000d0 ab cd 15 be 17 1f 29 be a2 1f 27 be 28 98 4d bd
       -0.14629237 -0.16515766 -0.1632066 -0.050193936
0000e0 3c 83 b3 3c a6 97 9b 3c da 7b 65 bd e2 bc ff bd
       0.021913163 0.01899321 -0.056026317 -0.124871984
0000f0 1e e7 70 3d de 1a 4a bc fb c5 1f be 90 07 48 3e
       0.05881416 -0.012335507 -0.15602867 0.19534135
000100 35 ec e0 3d 7d 8b d1 39 71 87 31 be ba bc 71 bc
       0.10982553 0.00039967513 -0.17336823 -0.014754469
000110 b5 a5 08 3e e3 10 85 be 27 53 20 bd 33 f6 7f be
       0.13344462 -0.25989446 -0.0391418 -0.24996261
000120 7c 5f 54 3d 3b 51 10 3e 95 ad e7 bd fc 92 42 bd
       0.051848873 0.14093487 -0.11312405 -0.047503456
000130 0b 04 8c 3e 82 49 05 be 75 46 6f bc 17 75 9f bd
       0.27346835 -0.13016322 -0.014604201 -0.07786005
000140 58 1d 88 be 49 51 a4 3c 86 fb 49 be 52 23 51 3e
       -0.26584888 0.020058291 -0.19724855 0.2042363
000150 0c eb 43 be d3 15 03 be b2 9b 5d bd 63 09 77 3d
       -0.19132632 -0.12801294 -0.05410356 0.060311686
000160 4d 7f ae be 61 20 29 3e 86 e1 d5 3d 98 1f 9d 3d
       -0.34081498 0.16516258 0.10443406 0.07672042
000170 4f 19 b2 3d 1c a8 fb bd c0 89 15 bd 15 c3 30 3b
       0.086962335 -0.12287924 -0.03650832 0.0026971747
000180 10 7d 27 bd aa ea 5e 3d b0 26 25 be 79 3e 79 3e
       -0.040890753 0.05442301 -0.1612804 0.24340238
000190 0b 19 ae bc 6a 79 23 be 79 eb 15 bd 87 5c 92 bd
       -0.021252176 -0.15964285 -0.036601517 -0.071465544
0001a0 c3 1e 59 3e c4 1e 8a 3d b0 1a 18 be f4 e4 fd bd
       0.21203141 0.06744149 -0.1485393 -0.12397185
0001b0 46 3d 58 3d af 2d b6 3c fb 43 c8 3d 65 aa 90 3d
       0.05279281 0.02223858 0.09778591 0.0706375
0001c0 48 ce 60 bd 2f 49 b5 bd 45 a8 47 3d 96 05 05 be
       -0.054884225 -0.08851849 0.04874446 -0.12990412
0001d0 9c e5 80 be d8 1b ee 3d a6 c5 7c 3e f4 71 89 3e
       -0.25175178 0.116264045 0.24684772 0.26844752
0001e0 82 75 04 be 5f ca 26 be 8b 15 92 3c 53 f8 ad bd
       -0.1293545 -0.16288136 0.017832538 -0.0849463
0001f0 87 62 7f 3e 1e 94 d9 3d fe 63 0a 3e c8 81 5c bd
       0.24939929 0.10623954 0.13514706 -0.053834707
000200 82 66 f2 bd c6 59 65 bd 7e 2b 5c be b1 22 5a bd
       -0.11835958 -0.055993818 -0.21500966 -0.05325574
000210 b7 b0 ff bd f1 79 89 be 11 c0 c2 bd 09 2c c4 3d
       -0.124848776 -0.26850846 -0.0950929 0.095787115
000220 aa 28 31 bc f6 ac 71 be 92 bd 9a be 91 84 2d bd
       -0.010812918 -0.23601136 -0.30222756 -0.042362753
000230 b7 98 46 be 03 91 1c 3e 6c 5e 4c bc 9a 29 ab be
       -0.19394194 0.15289693 -0.012473684 -0.33430177
000240 87 5a a6 bc 2c 03 9b bd a8 ca f2 bc 8a 20 3d bd
       -0.020306839 -0.07568964 -0.02963765 -0.04617361
000250 11 34 ae 3c bf 71 23 bd 02 ab 30 be cb d5 3e be
       0.021265062 -0.0399034 -0.17252734 -0.18636243
000260 41 12 78 bd f2 fe 82 3c e1 9e 10 3e 52 2b d7 bd
       -0.060564283 0.015990708 0.14123107 -0.105063096
000270 64 1f ee 3c b8 f3 e1 bd 00 9d bb bd a0 12 00 bd
       0.029067703 -0.11032814 -0.09160805 -0.031267762
000280 00 84 79 bc b9 2c c9 bc d9 cc 01 be a6 16 69 bd
       -0.015229225 -0.024557458 -0.126758 -0.056906365
000290 bc a5 94 be 7b 97 43 bc af f2 3b bd 41 1a 94 be
       -0.29032695 -0.011937971 -0.045885738 -0.2892628
0002a0 88 d3 8f 3c 84 ff 24 3c fc 85 eb 3d 80 ca 55 bd
       0.01755692 0.010070685 0.11500165 -0.052195072
0002b0 d1 68 15 be 6b f9 7e bd a7 33 42 bc 14 bf c4 bd
       -0.14590766 -0.062249582 -0.011853135 -0.09606758
0002c0 0a 7f 25 bd 78 85 e4 3a a1 9e 42 bb 05 fd 4f bd
       -0.040404357 0.0017434796 -0.00296966 -0.050778408
0002d0 b3 06 2d bd 4c a6 7b bd 72 b8 c3 bd 16 57 0d bd
       -0.042242717 -0.06143789 -0.095566645 -0.03450688
0002e0 0d 47 a4 3d 66 09 be bd 9d de bd 3a ef 99 55 bd
       0.08021364 -0.09279136 0.00144859 -0.052148756
0002f0 85 22 1b be c6 e3 e1 bd a8 74 ec bd 17 d2 8c be
       -0.15149887 -0.110297725 -0.11545688 -0.27504036
000300 e4 8b 79 3c 27 45 7c 3d 06 d5 c9 bc e1 14 cb bd
       0.015231106 0.061589386 -0.02463771 -0.09916092
000310 c5 2c f3 bd 94 80 2b 3e 86 d2 92 bd 0c bc 6d bd
       -0.118737735 0.16748267 -0.071690604 -0.058040664
000320 22 39 c9 bd c9 64 12 3e 47 4f 39 3b 9e a6 16 3e
       -0.0982535 0.14296259 0.0028276013 0.14711997
000330 75 cc 80 3e f2 f2 c7 3d dd ab 59 3d 2e 80 4a 3e
       0.25155988 0.09763135 0.053142417 0.19775459
000340 41 62 fe 3d a3 7d 4c 3e 4b 16 ed bc 35 16 50 bd
       0.12421084 0.19969802 -0.028941294 -0.05080243
000350 ba 0e 0f 3d 5e 7c 44 bd 10 bc 91 bc c0 98 56 3e
       0.034926154 -0.04797017 -0.01778987 0.20956707
000360 79 cd 36 bd e6 60 a7 bd 11 29 25 bd 0b b4 01 3d
       -0.044629548 -0.08172779 -0.040322367 0.031665843
000370 d6 73 16 be 9b bc 43 be f9 fc a0 3c e9 8d 53 3d
       -0.14692625 -0.19114916 0.019651877 0.051649008
000380 44 18 c7 bc 0d 0d a7 3d c9 e0 ed 3d 11 ed b1 bd
       -0.024303563 0.08156786 0.1161514 -0.08687795
000390 bf 34 1c 3e b0 89 0d 3e 6f 1a 4c 3d 6c c3 0b 3d
       0.15254496 0.13822055 0.049829897 0.034121916
0003a0 30 d0 84 3d 8e 62 be 3d 24 bd 4e 3c 7c a0 e5 bd
       0.06485021 0.092961416 0.012618337 -0.112122506
0003b0 e6 c7 0c be da c9 93 bb 68 f2 a9 3d f3 f3 31 bd
       -0.1374813 -0.0045101466 0.082981884 -0.04344554
0003c0 39 ce fa 3d ee 2a 22 be d6 04 b4 bd 2e 1b d8 bc
       0.12246365 -0.15836689 -0.08789985 -0.026380148
0003d0 da 8d 0d bd 81 71 4d 3d 01 48 fc bd 4f e4 ad bd
       -0.03455911 0.050157074 -0.12318421 -0.08490812
0003e0 4b 3b 0f 3d 7c 9b 0a 3d 13 a7 a9 bb 90 09 42 bd
       0.034968656 0.033839688 -0.0051773875 -0.0473724
0003f0 44 25 c1 3d 14 94 54 3d 5e f2 10 bc d7 ef 10 3e
       0.09430936 0.05189903 -0.008846847 0.14153992

dec_layer_1.0.bias f4 [8]
000000 d7 04 97 3d 0f e1 11 3e 35 f8 96 3d cb cb cc bd
       0.0737397 0.1424601 0.073715605 -0.09999808
000010 38 2e 4f bd 4c ff 85 3d b9 a9 43 3d 86 f2 03 bd
       -0.050581187 0.06542835 0.047769282 -0.03221371

dec_layer_2.0.weight f4 [12, 8, 5, 5]
000000 53 5b 28 3d a0 8e bc 3d 37 7b 07 bd 4f 16 b3 3b
       0.04110272 0.09206891 -0.03307649 0.005465306
000010 73 15 3a bd 5c db aa 3d 5b c7 b9 3d 92 60 55 3d
       -0.04543061 0.08342621 0.09071227 0.05209405
000020 81 af 05 bd 5c 63 d2 bc e6 5d 89 3d 8c e1 20 3d
       -0.032638077 -0.025682144 0.06707363 0.0392776
000030 1c 4f 73 bc fb d0 8c 3d 7b 8c 4f 3c 0b 02 ec 3c
       -0.014850404 0.06875797 0.0126677705 0.028809568
000040 42 79 97 3d 91 d4 cc bc bb dd d0 bc 76 35 57 3d
       0.07396175 -0.025003703 -0.025496354 0.05254122
000050 b6 0a f8 3b cd fb 9f 3c 20 70 07 bd 46 b4 a5 bd
       0.007569636 0.019529248 -0.033065915 -0.08091025
000060 ea 3f 6f bc 3c 4a 37 3d 1e 43 85 bd 92 1b 52 3d
       -0.014602641 0.04474853 -0.06506942 0.051295824
000070 02 c2 14 bc 96 96 99 3c bc ae 0b 3d 50 d2 d4 bb
       -0.009079458 0.018748563 0.034102187 -0.0064947978
000080 be f3 0e bd 2e d7 98 bd 8e b6 83 bd f2 f2 4b 3d
       -0.03490042 -0.07462917 -0.06431304 0.049792238
000090 8a 80 1c 3b d0 04 28 bd 7c 27 e3 bd c7 9a 1c bd
       0.0023880326 -0.041020215 -0.110915154 -0.038233545
0000a0 70 7c dc 3d 67 a5 86 3d c4 61 ad 3c a4 6e 26 3d
       0.10765922 0.06574517 0.021164782 0.04063286
0000b0 d2 b3 8a bd 74 48 94 3c ca bf ac 3d 55 91 e4 bc
       -0.06772579 0.018100955 0.08435018 -0.027901331
0000c0 0c 07 27 3d f0 ee 6b 39 f0 a2 37 bd a0 e2 c8 3d
       0.040778205 0.00022500358 -0.044833124 0.0980885
0000d0 f7 1c 6b 3b c0 61 1c bb b9 e6 b5 bd d4 e8 01 3d
       0.0035875419 -0.0023861974 -0.088818975 0.031716183
0000e0 52 e3 8b bc 5d 34 16 3d 61 62 0d bc b8 48 f4 bc
       -0.017076168 0.03667103 -0.008629412 -0.029819831
0000f0 9e d4 df 3d 46 f2 a2 bc 99 da 28 3d 88 5a 1e bc
       0.109292254 -0.019890916 0.041224096 -0.009665139
000100 c6 6a 8c 3b 09 cf 1e 3d 9d e0 e9 bc 0a 9c 5f 3d
       0.0042851893 0.038771663 -0.028549487 0.05459217
000110 44 ec 3a 3d cf 48 91 3c cd 76 68 3c 8e af 78 bc
       0.045635477 0.017734913 0.014188481 -0.015178574
000120 ac 8d d9 3c 2e f1 c7 bb c1 b9 8f 3d 52 df 18 bc
       0.026556812 -0.006101749 0.070178516 -0.009330587
000130 90 d7 8a bd db 9f 5c bd d2 8f f1 bd 78 2a 0e be
       -0.067793965 -0.053863388 -0.1179501 -0.13883388
000140 7e 7c 83 3d f5 19 4a 3d 2b 82 80 bd 49 b1 a5 3c
       0.064202294 0.04934116 -0.062748276 0.020226138
000150 72 64 92 bd a1 90 8f 3b 4a 38 28 bd 4f 73 3a 3d
       -0.07148065 0.004381255 -0.041069306 0.045520123
000160 2e 71 f6 bc 28 fa 43 3d 9a 7a 7a bc da 35 cb 3c
       -0.030083265 0.04784599 -0.01528802 0.024805952
000170 03 23 60 3b fc 3a af bd 78 4a 65 bd 76 e8 77 3b
       0.0034200556 -0.08556172 -0.055979222 0.0037827767
000180 e1 b3 c6 3d 24 51 67 3d d1 67 33 bc 78 b3 2c 3d
       0.09702278 0.056473866 -0.010950045 0.042163342
000190 a2 7e 0c 3e 17 0b 55 bb 48 94 06 3c 86 0d 53 bb
       0.13720182 -0.003250783 0.008214064 -0.0032204106
0001a0 c5 a6 a8 bc 70 fd 8f 3b 3b f5 7a 3d a9 ba 8f 3d
       -0.020587334 0.004394226 0.061269026 0.070180245
0001b0 e4 b9 11 3c 73 00 65 bd 2c c8 20 3d 48 43 c2 3d
       0.008894417 -0.05590863 0.0392534 0.09485489
0001c0 e8 b2 97 ba d8 4e cc 3d 77 5e 84 bd c1 1d 4c 3d
       -0.0011573704 0.09975976 -0.0646333 0.049833063
0001d0 90 9f c1 3d 99 9a b9 3c 74 c0 6f 3d 13 d2 f8 3c
       0.09454262 0.022656726 0.058533147 0.030373609
0001e0 47 8d 48 bd 87 91 81 bd e1 06 5d bd 3c 45 20 3d
       -0.048962858 -0.06326585 -0.05396164 0.039128527
0001f0 47 8e 6a 3d f5 63 9f bc 71 58 8b 3d 5e 12 05 3d
       0.057264592 -0.019456843 0.06803978 0.03248822
000200 3b 21 15 bd 42 00 1a bc b4 01 c2 ba 62 32 cf 3d
       -0.036408644 -0.0093994755 -0.0014801533 0.10117032
000210 00 58 0c 3c e5 ac 2f 3d af c6 32 3d 9c 70 94 3d
       0.008565903 0.042889494 0.04364651 0.07248041
000220 91 27 16 3c a4 e9 a3 3d 88 34 bf 3d 75 33 d7 bb
       0.009164707 0.08003548 0.093361914 -0.0065674135
000230 99 59 24 3d cc a1 07 3d 78 5b d6 bc 4d c5 26 bc
       0.04012451 0.033113286 -0.026166663 -0.010178876
000240 cf 9b 08 bd 1f 26 86 bd 0a c0 30 3c 30 5c ea 3c
       -0.033351716 -0.0655024 0.010787973 0.028608412
000250 d3 f4 1e 3d c9 d9 44 3d ab 31 88 3c 32 99 00 3d
       0.0388077 0.04805926 0.016625246 0.0313961
000260 83 4a 66 3c 6e e9 5d bc 5c 60 77 bd 21 92 d3 bc
       0.014055851 -0.0135444235 -0.06039463 -0.025826516
000270 94 b4 93 3d 4e af 96 3d c8 fa a0 3d 1f 10 51 bd
       0.07212177 0.073576555 0.07860333 -0.051040765
000280 7f 96 3d 3c 66 e0 33 3d db 6e 60 bc b2 b3 8e bd
       0.011571526 0.043915175 -0.013698305 -0.06967868
000290 a8 c2 24 bc c5 f7 d7 bc 98 77 ec bc 11 d0 38 3c
       -0.010056175 -0.026363263 -0.02886562 0.011280076
0002a0 63 29 4d 3d 2a 00 be bb 0f d5 04 bd 1e d3 0e bd
       0.050088298 -0.0057983594 -0.03242975 -0.034869306
0002b0 4e 8e 57 bd c0 13 36 bb 45 24 2f 3c c9 67 21 3b
       -0.052625947 -0.0027782768 0.0106898 0.0024628511
0002c0 0e 6f d2 3c b1 71 83 3b ad fa 1a 3d 8d a0 6f 3c
       0.02568772 0.004011356 0.03783672 0.014625681
0002d0 26 ae 4f 3c 0c ff 79 3d 62 0a 50 3d 17 ef 6f 3d
       0.012675798 0.061034247 0.05079115 0.058577623
0002e0 5f d9 a7 bc 5d 52 33 3c 38 92 97 bb b9 78 c4 bc
       -0.020489393 0.01094493 -0.004625585 -0.023983346
0002f0 af 4f 6b bc 04 66 19 3c 65 f2 f5 bc 55 d3 71 bc
       -0.01436226 0.009362701 -0.03002281 -0.014759858
000300 a9 2e 54 bd b9 59 af bd 77 c4 94 3c f4 66 05 bd
       -0.05180231 -0.08562035 0.018160088 -0.032568887
000310 13 a4 23 bd e8 5f 29 bd b7 37 48 3c 2a ef 38 3c
       -0.039951395 -0.04135123 0.012220315 0.01128749
000320 2b 81 bd 3b 1f 53 86 bd 03 fb c8 bd ad 5a b6 bd
       0.0057832203 -0.06558823 -0.09813502 -0.08904014
000330 55 d4 8a 3c cb 0a 41 bc 80 88 2f 3b e8 49 76 3d
       0.01694695 -0.011782358 0.0026784241 0.060129076
000340 54 46 bf bb e0 b6 0c 3d c7 8c 15 3e a9 e0 85 3d
       -0.005837241 0.03435409 0.14604484 0.06536991
000350 85 82 a2 3c 01 36 f5 3c fa dc 1e bd 27 af 09 3d
       0.019837627 0.029932978 -0.03878496 0.033614304
000360 d1 5e dd bc e1 21 bc 3d 36 33 fd 3b 8b 15 c3 bd
       -0.027022751 0.091861494 0.007727052 -0.09525593
000370 a3 6f db 3c 72 bf a0 bc fb 59 24 ba 66 84 9d 3b
       0.026786631 -0.019622538 -0.00062695117 0.004807043
000380 1a 30 f0 bc 34 38 88 3c eb d2 d9 3c 9c c5 2b 3d
       -0.029319812 0.016628362 0.026589831 0.0419365
000390 1d ce e2 bc da c1 f0 3c 75 fe d7 3d e0 61 dd 3c
       -0.027686173 0.02938931 0.10546581 0.02702421
0003a0 ae 2c fe bc 48 f7 0c 3d c8 d4 6a 3c 62 3a cf 3d
       -0.031027164 0.034415513 0.014332958 0.101185575
0003b0 7d 7b e9 3c 4b ba cd 3d 4b 30 81 3d 3b 4e 37 3b
       0.028501267 0.10045298 0.06308039 0.0027970213
0003c0 91 ee 7b 3d 47 41 64 bc db e2 53 bc fe 4c 14 3d
       0.06150681 -0.013931579 -0.0129325045 0.036206238
0003d0 9a a1 8d 3d d1 a8 ac 3d bd da 83 bc 4b d1 8c 3d
       0.06915589 0.08430637 -0.016095513 0.06875857
0003e0 aa a5 25 3c ad 89 8a 3c d8 4a d3 bc c4 de 94 bd
       0.010110298 0.016911352 -0.025792524 -0.07269052
0003f0 9c 61 93 3a 8c 23 62 3b c8 26 81 bd 2d 52 09 bd
       0.00112443 0.003450605 -0.06306225 -0.033525635

dec_layer_2.0.bias f4 [8]
000000 3d 60 88 bd 5e 80 70 3d af 57 44 3d 9a 1a 76 3e
       -0.06658981 0.05871617 0.047935184 0.24033585
000010 c2 fa dd 3c 18 f4 3b 3c fd 5c 7d 3d a1 4d c4 3c
       0.02709711 0.011471771 0.06185626 0.023962798

dec_layer_3.0.weight f4 [8, 3, 5, 5]
000000 e5 f3 02 3e 87 f7 cd 3d b3 1d e0 3d 03 5d 48 bc
       0.12788351 0.10056978 0.10943165 -0.012229207
000010 c8 3f 2b 3c 62 b7 94 3d 98 48 9c 3d 6d 9d 01 3e
       0.010452218 0.0726154 0.07631034 0.1265771
000020 7e ea a0 3c b9 fd f6 bc fd 12 75 3e 64 d3 7e 3e
       0.019643065 -0.030150281 0.23933025 0.24885327
000030 30 f8 b3 3e 50 ae be 3d 8c 5c 4e 3e 90 97 f2 3d
       0.3515029 0.09310591 0.20152491 0.118453145
000040 e6 e4 45 3e 88 8c 8f 3e ba 55 38 3e bd 78 ce 3d
       0.19325599 0.28036904 0.18001452 0.10081623
000050 5d cb 01 3e 26 db 12 3e 00 3c 93 3e 0a d3 48 3e
       0.12675233 0.14341411 0.28756714 0.19611755
000060 ec 67 2e 3e 31 1e 67 bd f7 1b 20 bd 40 f1 32 3d
       0.1703183 -0.056425277 -0.03908917 0.043687105
000070 bb c2 6a 3d 6c 4d 2c 3d c8 9c ca 3c 49 e4 a5 3d
       0.057314616 0.042066023 0.024732962 0.081001826
000080 3b a4 23 3d 97 20 2d bd 7c 5b 73 3d 83 e5 a3 3d
       0.039951544 -0.04226741 0.05941342 0.0800276
000090 6c 19 85 3d 0c 87 3e 3d 22 66 a5 3d 00 2e b0 bc
       0.064989895 0.04651551 0.08076121 -0.02150631
0000a0 38 9a 10 3e 48 ac fc 3d 1f 7d d7 3d 3a 57 aa 3d
       0.1412133 0.123375475 0.10521912 0.083174184
0000b0 20 a8 81 3d 2c 76 3f 3b aa dd ab 3d be 02 79 3d
       0.063308954 0.0029214723 0.083918884 0.06079363
0000c0 0e ee a7 3c 92 8c 59 bc 5e 9b e0 bd b7 06 9e bc
       0.020499256 -0.0132781435 -0.10967134 -0.019290311
0000d0 97 d0 7e bd 95 8b f5 bc 77 83 d7 bd a3 22 88 bd
       -0.062210646 -0.029973784 -0.10523122 -0.066472314
0000e0 f5 dd 85 bd 47 2f 95 bd b8 f8 88 bd de e7 c0 bd
       -0.065364756 -0.07284408 -0.06688064 -0.09419225
0000f0 ba 8c 0d be 0e 3d 2e bd 36 4c 11 be 0a 63 86 bd
       -0.13823214 -0.042538695 -0.14189228 -0.06561859
000100 4f 12 07 be 35 86 3b 3c e6 64 34 bd 01 dc af bd
       -0.13190578 0.011445572 -0.044041537 -0.08586884
000110 66 74 9a bd 93 54 74 bd f0 88 61 bc 6c 3f 5a bd
       -0.075417325 -0.05965097 -0.013765559 -0.05328314
000120 ad ca 80 bd 5b 0c 3b 3c b7 dc d2 3b 8b b9 42 bd
       -0.06288657 0.01141652 0.0064350027 -0.04754023
000130 57 27 c9 bd d3 bc cb bd 95 b0 c8 bd 09 76 23 bc
       -0.098219566 -0.09948125 -0.09799305 -0.009976872
000140 da b6 df bc bb 6e 3e bd 95 af 97 bd 97 d4 e9 bd
       -0.02730887 -0.04649232 -0.074065365 -0.114175014
000150 dc 68 c5 bd a8 4b 9c bd 49 e0 e5 ba 0a 2d 88 bd
       -0.09639141 -0.07631618 -0.0017538156 -0.066492155
000160 54 81 b8 bc 97 9d 2e bd 2a 3a a0 bd dc cf 6e 3a
       -0.022522606 -0.042630758 -0.07823594 0.0009109953
000170 aa 86 42 bd 1e 5d 32 bc b2 9d 75 bd 54 46 6b bd
       -0.047491707 -0.010886459 -0.059964843 -0.057440117
000180 3d 6b 3d bd 59 fb 73 bc 16 fd 97 bc a2 2c c4 bb
       -0.04624485 -0.014891469 -0.018553298 -0.005986766
000190 b6 a1 f8 3d 0c df 0a 3e 26 bb 57 3e 6d 04 31 3e
       0.12140219 0.13561648 0.21067485 0.17286845
0001a0 c9 95 20 3e f1 c1 18 3e 0c 53 34 3e 1f 21 63 3e
       0.15682139 0.14917733 0.17609805 0.22180603
0001b0 4f d3 2a 3e 64 e2 2b 3e ea 18 13 3e cc d7 43 3e
       0.1668217 0.1678558 0.14364973 0.19125289
0001c0 b0 b5 a2 3e 38 ee 88 3e 68 d0 60 3e 49 90 b1 3d
       0.31779242 0.26744246 0.219545 0.08670098
0001d0 0d 77 08 3e b6 64 31 3e 00 22 34 3e e0 b3 ee 3d
       0.13326664 0.17323574 0.17591095 0.11655402
0001e0 7d e2 47 3d a4 b8 a6 3d 71 c8 02 3e a4 9f e4 3d
       0.04879998 0.08140686 0.12771775 0.111632615
0001f0 fc 72 e6 3d 74 33 2f bd b1 1a 3f bd 02 13 8d bd
       0.112524 -0.04277368 -0.046656314 -0.06888391
000200 45 1d d7 bc ad 1a ee bc e6 86 25 bd a6 4a b5 bb
       -0.026259074 -0.029065454 -0.040411852 -0.0055325804
000210 50 bb 6c bd 39 92 a3 bd 38 26 c5 bd cd 07 60 bd
       -0.057795823 -0.07986874 -0.0962643 -0.05469494
000220 46 49 ba bd 1c a0 43 be 4d 9e 23 be 1f ce ec bd
       -0.09096007 -0.19104046 -0.15978356 -0.11562752
000230 33 16 56 bd da cb b2 bc f8 8e 0b be df f8 18 bd
       -0.052267265 -0.02182572 -0.13628757 -0.037346717
000240 2f 4d da bd cb 16 51 bd 93 c1 e2 bc 42 12 ff bd
       -0.10659253 -0.051047128 -0.027680194 -0.12454654
000250 f9 e0 1b bd 1a 78 85 bd ce 41 33 3d b3 d2 68 3d
       -0.038056348 -0.06517048 0.043763928 0.056841563
000260 ef dc fa 3c 44 52 82 3d df ba 22 3c a7 22 1e bd
       0.030622927 0.06363347 0.009932249 -0.038607266
000270 a2 19 12 3d 37 73 e7 bb 7f 41 8c 3d 1e 8a 84 bd
       0.035668977 -0.007063295 0.0684843 -0.06471656
000280 80 6d da bc 1a d1 96 3c 4e 00 03 bd 02 e5 30 bd
       -0.026663542 0.018410254 -0.031982712 -0.04318715
000290 24 3e 8a bc bb fe 44 bd d0 4f 3a bd 34 ed 63 bd
       -0.016875334 -0.048094492 -0.04548627 -0.055646136
0002a0 f0 00 0d bd 0e 66 54 bb 92 6e d4 3c 96 8b 86 bd
       -0.034424722 -0.0032409462 0.02593163 -0.06569593
0002b0 3f ee 34 bd 40 81 be bd 9f 13 b3 bc 77 c3 9a bc
       -0.04417252 -0.09301996 -0.021859942 -0.018892033
0002c0 f6 4c eb bc 3b 12 59 bd b0 96 04 be 4b 06 0d be
       -0.028723221 -0.0529959 -0.12948108 -0.13771932
0002d0 96 d7 5b bc 3d 39 eb ba 1e 6b b9 bc 1b 43 c6 bd
       -0.013418099 -0.0017946135 -0.022634085 -0.09680768
0002e0 f5 9a d7 bd 64 3d ae 3d 32 e7 21 bd 16 55 97 bd
       -0.105276026 0.08507803 -0.039527126 -0.07389276
0002f0 cd 6b d8 bd 2b b5 a1 bd b8 3d cf 3d 10 a4 6e 3d
       -0.10567436 -0.07895883 0.10119194 0.05826193
000300 f6 99 1c 3d 21 6b 75 bc b8 e0 9b 3c 02 ea 15 3d
       0.038232766 -0.014979155 0.019028053 0.03660012
000310 7f 81 8b 3c cd 02 85 3c dc 03 9d bd 5c 00 12 bd
       0.017029522 0.016236687 -0.07666752 -0.035644874
000320 d9 60 d0 3d c2 74 02 3e b0 d6 77 3e 8e 5e 2a 3e
       0.10174722 0.12739852 0.2420299 0.16637632
000330 cb a4 29 3d 68 2e 0b 3e 49 67 c0 3d 4e 57 3f 3e
       0.041416924 0.13591921 0.093947 0.18685648
000340 52 1a 04 3e 05 5d e7 3d 4a a7 78 3e d9 0d 8a 3e
       0.12900665 0.11297039 0.24282566 0.2696369
000350 58 f4 d3 3e 1a 88 75 3e a1 0b 8d 3e d0 d1 f3 3d
       0.41397357 0.239777 0.27547935 0.11905253
000360 48 16 47 3e fc a7 44 3e 44 c1 39 3e 34 02 35 3e
       0.19442093 0.19204706 0.18140131 0.17676622
000370 c0 a3 ae 3d 49 6c 2c 3e d2 91 6e 3e 51 3f 14 3e
       0.085273266 0.16838183 0.23297814 0.14477278
000380 3f ff fc 3d f1 f9 ea 3d a9 c0 ee 3c d7 b6 cb 3d
       0.12353372 0.11473454 0.029144602 0.09946983
000390 38 9d ef 3b 91 c0 d4 3d 82 62 9f 3d f4 55 03 3e
       0.007312443 0.103882916 0.07782461 0.12825757
0003a0 f4 df b4 3d 6b da cc 3d 58 fd 9d 3d 98 84 d2 3d
       0.08831778 0.100025974 0.07714337 0.102791965
0003b0 cf 96 e7 3d 46 e0 21 3e d5 28 ee 3d b7 79 ae 3d
       0.11308061 0.1580821 0.11628882 0.08519309
0003c0 20 85 2a 3e 38 22 d1 3d 77 11 4f 3e 4c 06 f3 3d
       0.16652346 0.10211605 0.20221506 0.118664354
0003d0 12 d7 11 3e 1f 64 9b 3d fc 5b d0 3d 4c 79 07 3e
       0.14242199 0.07587456 0.101737946 0.13229865
0003e0 a8 92 e7 3d 16 78 e9 3d 62 2b 00 3e 6c 79 ac 3d
       0.11307269 0.11399858 0.12516549 0.08421597
0003f0 e9 99 3a 3e f5 0b b7 3d f8 d4 0d 3e 77 89 eb 3d
       0.18222775 0.089378275 0.13850772 0.11500829

dec_layer_3.0.bias f4 [3]
000000 d4 2c f5 bd 65 1e 4b bd b8 05 3b 3d
       -0.11971441 -0.049589533 0.04565975
