save/small_attn/gen_model.pt (torch, 123702 bytes, 15 tensors)

enc_layer_1.0.weight f4 [32, 3, 5, 5]
0	0x3dbcfa72	0.09227456
1	0xbd5b38d7	-0.053521004
2	0x3d02fe93	0.031981062
3	0xbd8a384e	-0.067490205
4	0x3d323f3a	0.04351733
5	0xbcac5884	-0.021038301
6	0x3df8dd8d	0.121516325
7	0x3d7959f9	0.06087682
8	0xbc6de672	-0.0145202745
9	0x3dd94dc4	0.10610536
10	0x3bee0b1f	0.0072645093
11	0x3d151d72	0.036405034
12	0xbd5a5393	-0.05330236
13	0xbc84f7b0	-0.016231388
14	0x3db5f4c4	0.08884576
15	0xbd078a49	-0.033090863
16	0x3d6e27e5	0.058143515
17	0xbcaf7f18	-0.021422908
18	0x3ddf9f7f	0.10919093
19	0xbdb5e7c7	-0.08882099
20	0x3ddea77c	0.10871789
21	0x3dc84f6a	0.09780772
22	0xbd90cf03	-0.07070734
23	0x3d9e1862	0.077194944
24	0x3db1a865	0.08674697
25	0x3d7804eb	0.060551565
26	0x3dfa19c8	0.12211949
27	0x3dfddcff	0.12395667
28	0x3dd81b11	0.105520375
29	0x3bd9901f	0.006639495
30	0x3da71030	0.081573844
31	0x3da7c7fb	0.0819244
32	0xbd4060ab	-0.04696719
33	0x3d9040df	0.07043623
34	0x3d335855	0.043785412
35	0x3d747011	0.059677187
36	0x3d19899b	0.037484746
37	0x3d661190	0.056169093
38	0x3d0f1b02	0.034937866
39	0x3c3b8881	0.011446119
40	0xbd55c894	-0.05219324
41	0xbd56d771	-0.052451555
42	0xbda0dd63	-0.07854726
43	0x3db4ca38	0.08827633
44	0xbd67202e	-0.056427173
45	0x3c83ad82	0.016073946
46	0x3d580ed3	0.052748512
47	0x3df272eb	0.11838325
48	0xbd9f0fb0	-0.07766664
49	0x3db22816	0.08699052
50	0x3c8514b1	0.016245218
51	0xbd1bdd63	-0.038052928
52	0xbc96c465	-0.018404195
53	0x3d57bccc	0.052670285
54	0x3cabbd89	0.0209644
55	0xbd614bfd	-0.05500411
56	0xbd16b7ee	-0.036796503
57	0x3cbe6d07	0.023245348
58	0xbdc1453b	-0.09437033
59	0x3c9154f9	0.017740713
60	0x3c27b8e7	0.010236955
61	0x3c2e5ea8	0.010642685
62	0xbc89e801	-0.01683426
63	0xbd2bedcf	-0.04197484
64	0x3ca673dc	0.020318918
65	0xbd5c8611	-0.053838793
66	0xbd15f944	-0.03661467
67	0x3de1de6c	0.11028752
68	0xbda4eb82	-0.08052732
69	0x3d9325fb	0.071849786
70	0x3d8eb90e	0.0696889
71	0x3dac6b8a	0.08418949
72	0x3db9f02e	0.09079014
73	0xbb60723f	-0.0034247783
74	0x3d85faca	0.06541975
75	0x3da1627a	0.07880111
76	0x3d83d1f7	0.06436532
77	0xbd895485	-0.06705574
78	0x3da3cd87	0.079981856
79	0x3dfbef5e	0.12301515
80	0xbc75f01e	-0.015010862
81	0x3dc6c7db	0.09706088
82	0x3c8ed17d	0.017433876
83	0x3ca8ca2b	0.020604214
84	0x3d858ac6	0.065206096
85	0x3c341c58	0.010993086
86	0xbdbe2950	-0.092852235
87	0xbdbb1435	-0.091347136
88	0x3dfafe2c	0.12255511
89	0xbd85dd83	-0.06536391
90	0xbdc882d1	-0.09790576
91	0xbc56b63b	-0.013104971
92	0xbdb42964	-0.08796957
93	0xbcfc007d	-0.030761952
94	0x3b94ae20	0.004537359
95	0x3d64415c	0.055726394
96	0xbd18f491	-0.03734261
97	0x3d6eeab6	0.058329307
98	0xbd492c03	-0.04911424
99	0xbbdedec5	-0.0068014585
100	0xbd45d71e	-0.048300855
101	0x3dc5efb7	0.096648626
102	0xbd39528c	-0.04524474
103	0x3d3177a3	0.043326985
104	0x3dd0930e	0.101842985
105	0xbdb837c1	-0.08995009
106	0xbd058272	-0.032595105
107	0xbcff318d	-0.031151557
108	0xbcc6fbd3	-0.024290001
109	0xbd30f5e1	-0.04320324
110	0x3cce843c	0.025209539
111	0x3c862ff1	0.016380282
112	0xbb83964d	-0.00401572
113	0xbd7b47b7	-0.06134769
114	0x3df41e35	0.11919824
115	0x3db579d7	0.0886113
116	0x3df4ab8a	0.11946781
117	0x3da4694a	0.08027895
118	0x3cebbc32	0.028776262
119	0x3dff96bd	0.12479923
120	0x3df1478e	0.11781226
121	0x3ddddec9	0.108335085
122	0x3dcd1e4f	0.100155465
123	0xbdaba746	-0.08381514
124	0x3ce10e67	0.027472688
125	0x3c895cdf	0.016767917
126	0x3d928592	0.07154383
127	0x3d63b166	0.055589102
128	0x3bf067e3	0.007336603
129	0x3d40906b	0.047012728
130	0x3ddd2a23	0.107990526
131	0xbdc79885	-0.09745888
132	0xbdc30a5f	-0.095234625
133	0xbce9bca5	-0.028532336
134	0x3e0012e6	0.12507209
135	0x3d5341cf	0.05157643
136	0x3bad5caa	0.0052905874
137	0x3d6acbda	0.057323314
138	0x3d770e70	0.060316503
139	0xbd36e921	-0.044655923
140	0x3d845f70	0.06463516
141	0x3d7b44e1	0.061344985
142	0xbd1c0d21	-0.03809846
143	0x3cfe9265	0.031075666
144	0x3cd6abfe	0.02620506
145	0xbcb908df	-0.022587238
146	0x3c19bc32	0.009383248
147	0xbc19731b	-0.009365822
148	0x3d83e7d6	0.064407036
149	0xbd4179b8	-0.04723522
150	0x3d1ae71e	0.037818067
151	0xbd594be3	-0.053050887
152	0x3d06059c	0.032720193
153	0xbcd881f9	-0.026429163
154	0x3dab4899	0.08363456
155	0x3d405ebc	0.046965346
156	0xbac09c7a	-0.0014695071
157	0xbd668af2	-0.056284852
158	0xbdad6be9	-0.08467848
159	0x3cfa5723	0.030559128
160	0xbd8b61f1	-0.0680579
161	0x3db1f7e7	0.08689862
162	0x3c1f2c8c	0.009715211
163	0xbbc66da0	-0.006055549
164	0x3d96a638	0.073559225
165	0x3da162cf	0.07880174
166	0xbd86a057	-0.06573551
167	0x3dcad9b0	0.09904802
168	0x3cbbd8de	0.022930559
169	0x3d1e610d	0.038666774
170	0x3dcb12f3	0.09915724
171	0xbdaeaaa1	-0.08528639
172	0xbc258626	-0.010102784
173	0x3da707b6	0.081557676
174	0xbda72d79	-0.0816297
175	0x3dd8891f	0.10573029
176	0x3b1299d4	0.002236952
177	0xbcf1d71c	-0.029521517
178	0x3db4494b	0.08803042
179	0x3d73efc0	0.059554815
180	0x3dd89786	0.10575776
181	0x3d5a35de	0.053274028
182	0x3ca56fb0	0.020194858
183	0x3e0244bf	0.12721537
184	0xbdbd1a2b	-0.09233507
185	0x3d322b9c	0.04349862
186	0x3b786492	0.0037901741
187	0x3cbf3b41	0.023343684
188	0xbd99fb6a	-0.075186566
189	0xbbae4916	-0.005318771
190	0x3d6b1e9f	0.05740225
191	0xbcbeb239	-0.023278343
192	0x3d9f128a	0.07767208
193	0x3cc106a0	0.02356273
194	0x3c2d7213	0.010586279
195	0xbd57a8de	-0.05265128
196	0xbc948cbf	-0.01813352
197	0x3d1bd841	0.038048033
198	0x3da80a33	0.0820507
199	0xbd31a451	-0.043369595
200	0xbd9ef98a	-0.077624395
201	0xbd6fab8c	-0.05851321
202	0x3d0769ed	0.033060003
203	0xbdb8534c	-0.090002626
204	0x3c8bffc9	0.017089741
205	0x3e0972ef	0.1342275
206	0xbce09eb9	-0.027419435
207	0x3d8e82d2	0.06958546
208	0x3dd91c39	0.10601086
209	0x3d768819	0.060188387
210	0x3d06c1b6	0.03289958
211	0x3cbebbbe	0.023282882
212	0x3c816cd5	0.015798965
213	0xbd659aea	-0.05605594
214	0x3d5f2e5d	0.054487575
215	0xbd90abbc	-0.07064006
216	0x3d896a9e	0.06709789
217	0x3d09543b	0.033527594
218	0x3e02261e	0.12709853
219	0xbd6bdbd9	-0.05758271
220	0x3dab59f9	0.0836677
221	0x3a6711fe	0.0008814632
222	0x3dd624c6	0.10456233
223	0x3d5f5d46	0.05453231
224	0x3a657648	0.0008753282
225	0x3dba0b3f	0.09084176
226	0x3cc0d456	0.02353875
227	0xbd9ea713	-0.07746711
228	0x3c82b346	0.015954625
229	0x3dde8b47	0.10866409
230	0x3d47ad14	0.048749045
231	0xbd95bc3c	-0.073112935
232	0xbd7b0bb5	-0.06129046
233	0x3d880ef4	0.06643477
234	0x3d57fd4c	0.052731797
235	0xbb4241e6	-0.002964133
236	0xbd1a249f	-0.03763258
237	0x3da78f3d	0.081816174
238	0xbd40627f	-0.046968933
239	0xbd84a006	-0.064758345
240	0x3db93bf8	0.09044641
241	0xbdeb4aa8	-0.11488849
242	0x3d36f4f3	0.044667196
243	0x3dac2df3	0.084072016
244	0xbdba6279	-0.091008134
245	0x3da8152b	0.082071625
246	0xb96e4bf1	-0.00022725739
247	0xbd1c1eb9	-0.038115237
248	0x3dc138ec	0.09434685
249	0x3db25632	0.08707847
250	0x3cb4f101	0.022087576
251	0x3ded6237	0.115909986
252	0x3d3b44fc	0.045720086
253	0xbdbb33a5	-0.0914071
254	0xbd73b41d	-0.05949794
255	0x3c0d94c6	0.008641427

enc_layer_1.0.bias f4 [32]
0	0x3d18e18c	0.037324473
1	0x3c9bfa46	0.019040238
2	0x3d84b8f8	0.064805925
3	0x3da576c1	0.08079291
4	0xbd36bd5c	-0.04461418
5	0xbdb08441	-0.086189754
6	0xbd998358	-0.07495755
7	0x3ddae947	0.10689025
8	0xbd2c3364	-0.042041197
9	0x3dc46f26	0.095915124
10	0x3d4b23bf	0.049594637
11	0x3e06b28c	0.13154048
12	0x3cbfa7c9	0.023395436
13	0xbd8b51fd	-0.068027474
14	0xbc57d8dc	-0.013174262
15	0x3d09b207	0.033617046
16	0xbd107d4f	-0.035275754
17	0x3e1c0bbb	0.1523885
18	0xbda8642b	-0.082222305
19	0xbdf5be3f	-0.11999177
20	0xbc4f7b40	-0.012663662
21	0x3cd69da7	0.026198221
22	0xbd6eb5ee	-0.05827897
23	0x3d5c9579	0.053853486
24	0xbd6d9952	-0.058007546
25	0x3d01f2c2	0.031725653
26	0x3e0f98a6	0.14023075
27	0x3e16a8ac	0.1471278
28	0x3d60b303	0.05485822
29	0xbd57dea5	-0.052702565
30	0x3c3ccd04	0.011523489
31	0xbd86007c	-0.06543061

enc_layer_2.0.weight f4 [16, 32, 3, 3]
0	0x3ca5857f	0.020205257
1	0x3c3a0b0d	0.011355174
2	0xbc93ffe6	-0.018066358
3	0x3d5400db	0.05175863
4	0xbd329468	-0.043598562
5	0x3d7a0efb	0.061049443
6	0xb995558e	-0.00028483238
7	0x3d3cac78	0.046062917
8	0x3cbc0fcc	0.022956751
9	0x3d6a2ae5	0.057169814
10	0xbc8017fe	-0.01563644
11	0x3d64bb61	0.05584276
12	0x3d8ee6fe	0.06977652
13	0xbd212024	-0.039337292
14	0x3d025174	0.03181596
15	0xbcf1e4f6	-0.029528122
16	0xbce10509	-0.027468221
17	0xbb75519a	-0.0037432672
18	0xbbe5c15d	-0.007011576
19	0xbc0994ba	-0.008397276
20	0x3d8bc4c4	0.068246394
21	0x3bed7638	0.007246759
22	0x3d8b2e56	0.06795947
23	0x3adba234	0.0016756714
24	0xbd161c1b	-0.036647897
25	0xbc7ef7a4	-0.015561972
26	0xbcc080a4	-0.02349884
27	0xbcae313e	-0.021263715
28	0x3c594af0	0.013262495
29	0xbcb72f8f	-0.022361545
30	0x3ca15b1e	0.019696768
31	0xbc6a4c76	-0.014300456
32	0x3d34e53d	0.04416393
33	0xbd0f1a72	-0.03493733
34	0x3c87d2ce	0.016580012
35	0xbc7cec44	-0.0154371895
36	0x3db50951	0.088396676
37	0x3b40404e	0.0029335204
38	0x3c0f80d1	0.00875874
39	0x3dbeeb18	0.09322184
40	0x3c51fdfd	0.012816903
41	0x3d78f980	0.060784817
42	0x3c0dd576	0.00865685
43	0x3bcbf381	0.0062240963
44	0x3de321ed	0.11090455
45	0xbd1eda94	-0.03878267
46	0xbb9a92db	-0.0047172136
47	0xba8ae43e	-0.0010596586
48	0x3cec0d0c	0.028814815
49	0xbd48082b	-0.048835915
50	0x3ced2651	0.028948935
51	0xbd22dad8	-0.039759487
52	0xbb486022	-0.0030574878
53	0x3c54a84d	0.012979579
54	0x3d50b373	0.050952386
55	0xbaa7666a	-0.0012771611
56	0x3d2687fb	0.040657025
57	0x3d2ef798	0.042716593
58	0xbd0cd93f	-0.03438687
59	0x3d50dbf9	0.050991032
60	0xbb389b0c	-0.0028168587
61	0x3b93634b	0.0044979206
62	0xbceb5828	-0.02872856
63	0x3c5a219f	0.01331368
64	0x3d09f22e	0.033678226
65	0x390cf528	0.00013442768
66	0x3dc1f138	0.09469837
67	0x3d314c1b	0.04328547
68	0x3db15769	0.0865925
69	0x3b29a416	0.0025885156
70	0x3c97a410	0.018510848
71	0x3d2166e6	0.039404772
72	0x3d861862	0.065476194
73	0x3d19e825	0.037574906
74	0xbcd94013	-0.02651981
75	0xbd086137	-0.033295836
76	0xbd21fca5	-0.03954758
77	0x3cd59395	0.02607135
78	0x3d10c38b	0.035342734
79	0xbd2aaf87	-0.041671302
80	0xbcdbc7c0	-0.026828647
81	0x3db082b2	0.08618678
82	0x3d24ab4f	0.040202435
83	0x3dcde5b0	0.10053575
84	0x3c8691d5	0.01642696
85	0x3da3b018	0.079925716
86	0x3d9f517a	0.07779212
87	0x3c7c0684	0.015382413
88	0x3c60f072	0.013729202
89	0x3d6d9096	0.057999216
90	0xbc7004ab	-0.01464955
91	0x3cfd8606	0.030947696
92	0x3ce9231d	0.028459126
93	0xbb03c21c	-0.0020104712
94	0xbcbe8c3d	-0.02326023
95	0xbd0d928f	-0.034563597
96	0x3d3bbaea	0.045832552
97	0x3c93f74f	0.018062262
98	0x3d187b84	0.03722717
99	0x3db40dbd	0.08791683
100	0x3c188cf4	0.00931095
101	0x3cc4d063	0.024025148
102	0x3d79ceef	0.060988363
103	0x3d8ad5b6	0.067790434
104	0x3c213727	0.0098398095
105	0x3d0bf1a8	0.03416601
106	0x3dc3f209	0.09567649
107	0x3c2bc6c2	0.010484399
108	0x3d3990be	0.045304053
109	0xbcd3ff83	-0.025878673
110	0xbd2cc147	-0.04217651
111	0x3d514c11	0.051097933
112	0x3d621841	0.05519891
113	0x3c1b478f	0.00947751
114	0x3ca3e9b3	0.020008897
115	0xbca19ccc	-0.019728087
116	0x3d6c2fd0	0.057662785
117	0xbced3dc2	-0.028960112
118	0xbc7218d9	-0.014776432
119	0x3d61fdd3	0.055173706
120	0xbd4597bb	-0.048240405
121	0xbd40970a	-0.047019042
122	0x3b8d5e9c	0.004314257
123	0xbcdaa1e9	-0.026688533
124	0xbc5df27e	-0.013546584
125	0x3d364b21	0.044505242
126	0x3d39831d	0.045291055
127	0x3d6dc6fe	0.058051102
128	0xbb69fb44	-0.0035702744
129	0x3d2e2b0d	0.042521525
130	0x3c4c2280	0.012459397
131	0xbc64b76c	-0.013959747
132	0x3d395463	0.045246493
133	0xbc0748c0	-0.008257091
134	0x3c56ad75	0.013102879
135	0x3ce40d82	0.027838472
136	0xbcc8bd21	-0.024504246
137	0xbcea2937	-0.028584106
138	0x3be47aa8	0.0069726296
139	0x3d614313	0.054995608
140	0x3cd8151a	0.02637725
141	0x3a0572b8	0.0005090642
142	0x3d8f6d5a	0.07003279
143	0xbc80deea	-0.015731294
144	0x3b8d7df4	0.0043179933
145	0xbd2580d7	-0.040406074
146	0xbc60bfa3	-0.013717565
147	0xbc9f5f70	-0.019454688
148	0x3d3cf4d4	0.046131924
149	0x3d6553c5	0.055988092
150	0x3d0bd7a2	0.03414119
151	0x3d07e51b	0.033177476
152	0x3ca143a3	0.019685572
153	0xbc7c8847	-0.01541335
154	0x3d96a111	0.0735494
155	0x3d97e678	0.07417005
156	0x3d28f036	0.041244708
157	0x3d1612d1	0.03663904
158	0x3c11371e	0.008863239
159	0x3d45cb0a	0.048289336
160	0x3d40f317	0.04710683
161	0x3cf6d841	0.030132415
162	0x3bc86d36	0.0061165346
163	0x3d8bfeb8	0.06835693
164	0xbd10863a	-0.03528426
165	0x3d7b2164	0.06131114
166	0x3d6f428e	0.05841308
167	0x3d69b7b2	0.05705995
168	0xbbe6cade	-0.0070432266
169	0xbccfc797	-0.025363727
170	0x3d347cd7	0.04406437
171	0x3d84e3e7	0.064887814
172	0x3cc87362	0.024469081
173	0x3d82c928	0.06386024
174	0x3d25b37f	0.040454384
175	0xbb9e0f36	-0.0048235906
176	0xbd063340	-0.03276372
177	0x3acf9257	0.0015836459
178	0x3d7fc733	0.06244583
179	0x3d8a89dd	0.067645766
180	0xbd38c224	-0.045107022
181	0xbd600397	-0.054690924
182	0xbd3c7b29	-0.046015892
183	0xbdd58e39	-0.104275174
184	0xbc97a56c	-0.018511496
185	0xbdb73564	-0.0894573
186	0xbd211245	-0.039324064
187	0xbdc67c5f	-0.09691691
188	0xbdd52749	-0.10407884
189	0x3de010d1	0.109407075
190	0xb6f24bd0	-7.2209878e-06
191	0x3d315311	0.04329211
192	0x3b8bfdee	0.004272214
193	0x3bdc10dd	0.0067158774
194	0x3da8ddac	0.082454056
195	0x3d405820	0.046959043
196	0x3d116d20	0.03550446
197	0x3d943655	0.072369255
198	0x3d6b894a	0.057503976
199	0x3dc22e14	0.09481445
200	0xbc864bd7	-0.016393585
201	0x3d5bcaa6	0.053660057
202	0x3d746fb3	0.059676837
203	0x3c36fd1c	0.011168744
204	0x3d7f5fe5	0.06234731
205	0x3d9dbc3b	0.07701918
206	0x3c9feb66	0.019521426
207	0x3c49c04d	0.0123139145
208	0xbae5f84e	-0.0017545314
209	0x3d836afd	0.06416891
210	0x3c8aba11	0.016934427
211	0x3d10b07a	0.03532455
212	0x3ca94e3d	0.02066719
213	0x3d0c33b3	0.03422899
214	0x3c8268b3	0.015919065
215	0x3d09678f	0.033546027
216	0x3c9b95d2	0.018992338
217	0xbcbb3032	-0.02285013
218	0xbd1cf1f1	-0.03831667
219	0x3d0b9e74	0.03408666
220	0x3c16af2c	0.009197038
221	0xbd38c28c	-0.04510741
222	0x3d47a846	0.048744462
223	0xbc8701c8	-0.016480342
224	0x3c233846	0.009962147
225	0x3cfcdf2d	0.030868137
226	0x3d254587	0.04034951
227	0x3c3e10e1	0.011600704
228	0xbd079485	-0.033100624
229	0xbbe8b430	-0.007101558
230	0xbd10fd13	-0.0353976
231	0x3be7092b	0.0070506535
232	0x3d8ca74f	0.06867849
233	0x3baa1443	0.0051904037
234	0x3cb11127	0.021614624
235	0x3d392664	0.045202628
236	0x3d45e274	0.048311666
237	0x3dca8899	0.09889335
238	0x3cfb4200	0.03067112
239	0x3df7ee39	0.12105984
240	0x3da0e3b6	0.078559324
241	0x3ca33025	0.019920418
242	0x3dfeb7dc	0.12437412
243	0x3d0771a5	0.033067364
244	0x3db59728	0.088667214
245	0x3c39e4f1	0.011346088
246	0x3c1be2fb	0.009514566
247	0x3cc22bf7	0.023702605
248	0x3e009472	0.12556627
249	0x3aca3305	0.0015426582
250	0x3df09d6b	0.11748775
251	0x3de9fa1b	0.11424657
252	0x3c9e43e5	0.019319484
253	0x3d819d82	0.0632887
254	0xbc08214e	-0.008308722
255	0x3d090600	0.033452988

enc_layer_2.0.bias f4 [16]
0	0xbbc66b34	-0.00605526
1	0xbb19be84	-0.0023459503
2	0xbba09a20	-0.0049011856
3	0x3d2c2f36	0.04203721
4	0xbd33e628	-0.043920666
5	0x3c9e3423	0.01931197
6	0xba68e0da	-0.0008883603
7	0x3da86b5b	0.082236014
8	0xbb916431	-0.0044369926
9	0xbd160ed5	-0.03663524
10	0x3d7d8b3a	0.061900355
11	0x3d9b7644	0.07590917
12	0x3d293134	0.04130669
13	0xbc8eceda	-0.017432619
14	0x3d84576e	0.064619884
15	0x3de7b9f1	0.113147624

small_attention.to_qkv.weight f4 [768, 16, 1, 1]
0	0x3da206fe	0.0791149
1	0xbe4354d7	-0.19075333
2	0x3e4062fe	0.18787763
3	0x3cdd6636	0.027026277
4	0xbe32ffdb	-0.17480414
5	0x3d6a2a57	0.057169285
6	0xbdfdd9e6	-0.123950765
7	0x3a6c45cf	0.0009013088
8	0x3bb328d8	0.0054675154
9	0xbdcc275b	-0.09968444
10	0x3e36df22	0.17858556
11	0x3d332ba8	0.043742806
12	0xbdef9c0c	-0.116996855
13	0x3dc79e96	0.09747045
14	0xbda8a7a7	-0.08235102
15	0xbe4efcb5	-0.20213588
16	0xbe4941c1	-0.1965399
17	0x3e093b7e	0.134016
18	0x3bf259e9	0.007395972
19	0xbc7ae2f6	-0.015312901
20	0xbe5376ad	-0.2065074
21	0xbe7b01e5	-0.24512441
22	0xbb971613	-0.0046107857
23	0x3e61795d	0.22018953
24	0x3e50f849	0.20407213
25	0xbe5f1763	-0.21786265
26	0xbe3ef289	-0.18647207
27	0xbdf7a669	-0.12092287
28	0x3e17b082	0.14813426
29	0x3d1d2e47	0.03837421
30	0xbe2b1afb	-0.16709511
31	0x3a99cfc1	0.0011734889
32	0xbd8f1e67	-0.06988221
33	0xbc439210	-0.0119366795
34	0xbe4f1f46	-0.20226774
35	0xbc9ca149	-0.019119876
36	0xbc169de5	-0.009192918
37	0xbe6225b3	-0.22084694
38	0xbe20605a	-0.15661755
39	0xbcf59e2a	-0.029982645
40	0xbdf5c4e9	-0.12000448
41	0x3c9210d6	0.017830294
42	0x3e3bb291	0.18329836
43	0xbe5df08d	-0.21673794
44	0x3e688cec	0.22710007
45	0x3e3971c6	0.18109807
46	0xbe325a23	-0.17417197
47	0x3e39bad4	0.18137676
48	0x3e64aa80	0.22330666
49	0xbd6ca792	-0.057776995
50	0x3d82ad7d	0.063807465
51	0xbd9771a3	-0.07394721
52	0xbe25eff1	-0.16204812
53	0x3df84449	0.12122399
54	0x3e47b8b6	0.19504055
55	0x3e2043f5	0.15650924
56	0xbd41de71	-0.047331277
57	0xbbe246d4	-0.006905416
58	0xbd735da7	-0.059415486
59	0x3da1e21d	0.07904456
60	0x3d141401	0.03615189
61	0x3d88db59	0.06682462
62	0xbb9f8d35	-0.004869128
63	0xbded61af	-0.11590897
64	0x3cf2da06	0.029644977
65	0xbdbb327a	-0.09140487
66	0x3e32e226	0.17469081
67	0x3d8abe74	0.06774607
68	0x3dc1ffe4	0.094726354
69	0x3e20e0d8	0.15710771
70	0xbe5ff715	-0.21871598
71	0x3c7276f6	0.01479887
72	0xbe5f9070	-0.21832442
73	0x3d56254c	0.052281663
74	0xbe74fa1b	-0.23923533
75	0x3e2249f7	0.15848528
76	0xbe0a1949	-0.13486208
77	0xbd3092d9	-0.043108795
78	0xbe05cf10	-0.1306727
79	0xbe2bd6dc	-0.16781181
80	0x3e3d084d	0.18460198
81	0xbe3e52d6	-0.18586287
82	0x3bda9671	0.006670766
83	0xbe25aa2d	-0.16178198
84	0x3dd3e9c5	0.103473224
85	0x3e373678	0.17891872
86	0xbd31c32f	-0.043399032
87	0x3e172012	0.14758328
88	0x3dad3ff8	0.08459467
89	0xbdc231b7	-0.094821386
90	0xbe15ea47	-0.14640151
91	0xbe19e338	-0.15028083
92	0x3e3f9151	0.18707778
93	0xbe4243b7	-0.18971144
94	0x3e526c6b	0.2054917
95	0xbd58a4ec	-0.052891657
96	0x3c6c665c	0.014428701
97	0xbc522ce3	-0.012828085
98	0xbcbdb523	-0.023157662
99	0x3dce8327	0.10083609
100	0xbe45bcbf	-0.19310282
101	0x3d2a5ba8	0.041591316
102	0xbdee73c1	-0.11643172
103	0x3e7378cc	0.23776549
104	0x3c8c2e2c	0.01711186
105	0xbdfcf660	-0.1235168
106	0xbe48edfd	-0.19622035
107	0xbdcb3712	-0.09922613
108	0xbb4bcc06	-0.003109695
109	0xbaff6192	-0.0019484034
110	0x3dee907c	0.11648652
111	0x3e667539	0.22505654
112	0xbe25b11f	-0.16180848
113	0xbe1025e9	-0.14076962
114	0xbcc2b01e	-0.02376562
115	0xbe27599c	-0.16342777
116	0x3d360990	0.044442713
117	0x3ce75f1a	0.02824359
118	0x3e0e34c2	0.13887313
119	0x3e53f9b3	0.20700721
120	0x3ddc2e02	0.10750963
121	0x3e05eb67	0.1307808
122	0xbe656efd	-0.2240562
123	0xbd23ec01	-0.040019993
124	0xbde530e7	-0.11190968
125	0x3d1ae93b	0.037820082
126	0xbdd6d121	-0.10489107
127	0x3e88aa2b	0.26692328
128	0xbd1275e6	-0.035756968
129	0x3d01704e	0.031601243
130	0xbd5b00c3	-0.053467523
131	0x3e6de1d8	0.23230684
132	0xbcf1d1d2	-0.029518995
133	0xbe734486	-0.23756608
134	0xbe51452f	-0.20436548
135	0x3dcec3ab	0.100959145
136	0x3c823dfc	0.015898697
137	0x39e44e0d	0.000435457
138	0xbe3394f4	-0.1753729
139	0x3de5160f	0.11185848
140	0xbe54335f	-0.20722722
141	0x3df15316	0.117834255
142	0x3e27bf20	0.16381502
143	0x3e87ef71	0.26549867
144	0x3da0ca57	0.07851093
145	0xbe49e22c	-0.19715184
146	0xbdc32297	-0.09528082
147	0xbe040f1e	-0.12896392
148	0xbe68c14c	-0.22729987
149	0xbd4727da	-0.04862199
150	0x3da67707	0.081281714
151	0xbe5dfbe5	-0.21678121
152	0x3d3dd7ad	0.046348263
153	0x3c1afb6a	0.009459356
154	0xbe5e2033	-0.2169197
155	0x3e4a11b0	0.1973331
156	0xbe14a26e	-0.14515087
157	0xbe690ead	-0.22759505
158	0x3c985cb3	0.01859889
159	0x3b8d6d4e	0.0043160086
160	0x3cdb1698	0.026744172
161	0x3e6c2eb5	0.23064692
162	0xbd88589c	-0.06657526
163	0x3e71a44b	0.23597829
164	0xbda6c37f	-0.08142757
165	0x3c81603c	0.015792958
166	0xbe77bee8	-0.24193919
167	0xbe07833d	-0.13233657
168	0xbd2192c6	-0.039446615
169	0x3d902071	0.07037438
170	0x3e302230	0.17200541
171	0xbe08c4ae	-0.13356277
172	0x3c960387	0.018312229
173	0xbd9fecc5	-0.07808832
174	0x3e227727	0.15865766
175	0x3e588f1c	0.21148342
176	0xbd5f0cef	-0.054455694
177	0xbe16c83f	-0.14724825
178	0x3e1e05d3	0.1543191
179	0xbdd6a5c3	-0.10480835
180	0xbe8093dc	-0.25112808
181	0x3c472394	0.012154479
182	0xbd63f22b	-0.05565087
183	0xbdbec207	-0.093143515
184	0x3d28886b	0.041145723
185	0xbd2b78e4	-0.041863337
186	0x3dc220ec	0.094789356
187	0x3e0b9faf	0.13635133
188	0xbe124720	-0.14284945
189	0xbc63797a	-0.013883943
190	0x3e5bae66	0.21453246
191	0xbd9138ee	-0.070909366
192	0x3d095c03	0.033535015
193	0xbd60ace7	-0.054852393
194	0x3df75848	0.12077385
195	0xbce549f7	-0.02798937
196	0x3d7d9c20	0.06191647
197	0xbd13d5a1	-0.036092404
198	0xbdea4c50	-0.11440337
199	0x3db297d1	0.08720363
200	0xbe62a40c	-0.22132891
201	0xbdbc8bb6	-0.09206335
202	0xbc920fef	-0.017829863
203	0x3e26696f	0.16251157
204	0xbe7a4712	-0.24441174
205	0xbe668c63	-0.22514491
206	0x3e2c972a	0.1685454
207	0xbd91c160	-0.071169615
208	0x3e6862d3	0.22693948
209	0x3e4bdce2	0.19908479
210	0xbb8d4aec	-0.00431191
211	0x3e64f1b8	0.22357833
212	0x3e64382d	0.22287054
213	0xbe73d7d6	-0.23812804
214	0xbcfcd33f	-0.030862449
215	0xbe6c6134	-0.23083955
216	0xbd0ec7c6	-0.034858488
217	0x3e0a51e6	0.13507804
218	0xbd6f7454	-0.05846055
219	0xbe158117	-0.14600025
220	0xbe163b29	-0.14671005
221	0x3e7a1214	0.24420959
222	0x3e604597	0.21901546
223	0x3d546011	0.05184943
224	0x3dcee66c	0.10102543
225	0xbe86bfbc	-0.26318157
226	0xbe38e807	-0.18057261
227	0x3d328ddf	0.04359233
228	0xbe324080	-0.17407417
229	0xbca9fa44	-0.020749219
230	0xbdc4a049	-0.096008845
231	0x3e502ca3	0.20329528
232	0x3d446595	0.04794844
233	0x3e698024	0.22802788
234	0x3d0e0724	0.03467478
235	0xbe6593fa	-0.2241973
236	0x3e10ece6	0.1415287
237	0x3e211133	0.15729217
238	0xbe3b7c81	-0.18309213
239	0x3e7ea303	0.24866872
240	0x3e748979	0.23880567
241	0xbd78973e	-0.06069111
242	0xbe577a61	-0.21042778
243	0x3e440d3e	0.19145676
244	0x3d75ed3d	0.0600407
245	0x3b8ad8f7	0.00423729
246	0xbc21ff14	-0.0098874755
247	0x3e0198cd	0.12655945
248	0xbe660aa5	-0.22464998
249	0x3d31054c	0.043217942
250	0xbdc3d743	-0.09562542
251	0xbdc12af2	-0.09432019
252	0xbe60a571	-0.21938111
253	0x3e428152	0.18994644
254	0x3d5cb0c4	0.053879514
255	0x3e928c99	0.28622892

small_attention.to_out.weight f4 [16, 256, 1, 1]
0	0xbd405c67	-0.04696312
1	0x3d713fd8	0.058898777
2	0xbd1683ad	-0.03674667
3	0xbbfceef9	-0.0077189174
4	0x3d54017d	0.05175923
5	0x3b9ce5da	0.0047881426
6	0x3c81e943	0.015858298
7	0x3d18ea65	0.03733291
8	0x3c89b342	0.01680911
9	0x3cb0fd34	0.021605112
10	0xbd229621	-0.039693955
11	0xbd2fb0a6	-0.042893074
12	0xbd149570	-0.036275327
13	0x3be2d940	0.006922871
14	0x3d24d784	0.040244594
15	0xbcb7e539	-0.022448169
16	0x3c54b46e	0.012982471
17	0xbd3a8fed	-0.045547415
18	0x3c57af5e	0.013164369
19	0xbc1c9593	-0.009557146
20	0xbd7cdae9	-0.061732206
21	0x3bd1ad0e	0.0063988036
22	0x3d2aca39	0.04169676
23	0xbd67122f	-0.056413826
24	0xbd32e4cd	-0.043675233
25	0x3adaabf0	0.0016683321
26	0xbd4623c0	-0.048373938
27	0x3d572121	0.05252183
28	0xbbe75ebe	-0.0070608547
29	0x3d7a090c	0.061043784
30	0x3d0fa0d4	0.035065487
31	0xbc1d8e8d	-0.009616506
32	0xbbe80535	-0.007080699
33	0xbd1dd164	-0.03852977
34	0xbc89f5a5	-0.016840765
35	0xbd39e2f1	-0.045382444
36	0xbb86f462	-0.004118488
37	0xbd569583	-0.05238868
38	0xbd53065a	-0.05151973
39	0xbc86ab82	-0.016439203
40	0x3bfa27ba	0.0076341303
41	0xbba7f9ab	-0.0051261983
42	0xbd5f3418	-0.05449304
43	0x3d8e9c98	0.06963462
44	0xbc93e084	-0.018051393
45	0x3bd4b25b	0.006490988
46	0x3d616bcb	0.05503444
47	0xbce21643	-0.027598506
48	0x3d54f9f5	0.05199619
49	0xbcb89450	-0.022531658
50	0x3c0da229	0.008644619
51	0xbd2d9264	-0.042375937
52	0x3c8bb2b8	0.017052993
53	0x3d08759b	0.033315282
54	0xbd79c752	-0.060981102
55	0x3d41bd51	0.047299687
56	0x3d92ee16	0.071743175
57	0x3c48bd71	0.012252198
58	0xbd601646	-0.05470874
59	0xbd0464f3	-0.032322835
60	0x3c518a0a	0.012789259
61	0xbd339418	-0.043842405
62	0x3c3634ab	0.011120955
63	0x3d4b2cd7	0.04960331
64	0x3c967468	0.018366054
65	0x3d1774a4	0.03697647
66	0x3d3de8d7	0.04636463
67	0xbd27bf53	-0.040953945
68	0x3cb63a15	0.022244493
69	0x3cff9762	0.031200115
70	0xbc2f0052	-0.010681229
71	0xbd1b78d5	-0.03795703
72	0x3d7ae854	0.06125672
73	0xbce79064	-0.028267093
74	0xbd6edc77	-0.05831572
75	0xbc042384	-0.008065108
76	0xbd6c36d0	-0.05766946
77	0xbd825621	-0.06364084
78	0xbd2dbe89	-0.042418037
79	0xbd721d12	-0.059109755
80	0x3cd048a0	0.025425255
81	0xbc9bb288	-0.019006029
82	0xbc79951c	-0.015233304
83	0x3cca112d	0.024666393
84	0xbc133d77	-0.008986822
85	0xbc14304a	-0.009044716
86	0xbcd116ef	-0.02552363
87	0xbd362e66	-0.044477843
88	0x3c39c84c	0.011339258
89	0xbd214830	-0.039375484
90	0xbd48f46c	-0.049061224
91	0x3c45fde9	0.012084463
92	0x3d80ff00	0.062986374
93	0xbccf4399	-0.025300788
94	0xbd447dcb	-0.047971528
95	0xbbe3874b	-0.0069436184
96	0xbcfcc4e1	-0.030855598
97	0xbceb4282	-0.028718237
98	0x3d53a5c0	0.051671743
99	0x3caef96c	0.021359168
100	0x3cc5b902	0.02413607
101	0x3d20c47c	0.039249882
102	0xbb620191	-0.0034485797
103	0xbd8fd64f	-0.07023298
104	0xbd0888a0	-0.03333342
105	0x3d601fe6	0.05471792
106	0x3d084b00	0.03327465
107	0xbd4c2daf	-0.049848255
108	0xbd8be51d	-0.06830809
109	0x3d1ac9d3	0.03779013
110	0xbd6e834c	-0.058230683
111	0x3d22c44a	0.039737977
112	0x3c7bd82b	0.015371363
113	0x3b8bba2f	0.004264138
114	0x3ccd0a84	0.025029428
115	0x3cfbdbc9	0.03074445
116	0xbc3b2ce1	-0.011424274
117	0x3cc877b6	0.024471145
118	0xbd8dfcf7	-0.06933015
119	0x3ce5d028	0.028053358
120	0x3d60e47a	0.054905392
121	0x3d6e572d	0.058188606
122	0x3c8e5ea4	0.017379113
123	0xbbcea415	-0.006306181
124	0xbcbe70f1	-0.023247214
125	0x3c870222	0.01648051
126	0xb8a3bab3	-7.807221e-05
127	0xbc88e778	-0.016711935
128	0x3d1773a4	0.036975518
129	0xbd0fbd0e	-0.035092406
130	0xbc57811d	-0.013153342
131	0xbc4c2bc9	-0.012461611
132	0xbd596d1b	-0.053082567
133	0xbd86c5c8	-0.065806925
134	0x3d8d3b92	0.06896128
135	0x3ce5d76e	0.028056826
136	0x3b4f0273	0.0031587153
137	0xbd9a83c4	-0.075446635
138	0x3d18cd63	0.037305247
139	0xbcd3b17d	-0.025841469
140	0xbc7f5190	-0.015583411
141	0xbcd3c3c6	-0.025850188
142	0xbd4bde4c	-0.049772546
143	0xbcd49eb4	-0.025954582
144	0xbb08ab76	-0.0020854152
145	0x3d9a617e	0.075381264
146	0x3d2bb837	0.041923728
147	0xbd8e9375	-0.06961719
148	0xbd25c188	-0.04046777
149	0x3cf23277	0.02956508
150	0xbc9b1644	-0.018931516
151	0xbd3c3ad1	-0.04595453
152	0x3d20ee71	0.039289895
153	0x3d42ae02	0.047529228
154	0xbc09f7b2	-0.008420872
155	0xbd2a1039	-0.041519377
156	0xbd89fb34	-0.06737366
157	0xbd98fc56	-0.07470004
158	0xbd2a8645	-0.041631956
159	0xbd09c109	-0.03363136
160	0x3d7b64ca	0.061375417
161	0xbc00c6e2	-0.007859917
162	0xbbf1947b	-0.0073724366
163	0xbd9e101b	-0.077179156
164	0xbd108171	-0.035279695
165	0xbbe5e7ec	-0.0070161726
166	0xbd85c6d8	-0.06532067
167	0xbca79899	-0.020458506
168	0x3d4ade13	0.049528193
169	0x3c91bcc3	0.017790204
170	0xbc565c21	-0.013083489
171	0x3d8fd42b	0.0702289
172	0x3cf119a5	0.029431174
173	0x3c983f47	0.01858486
174	0xbb3f738d	-0.002921316
175	0x3c0bb615	0.008527298
176	0xbcc32d57	-0.02382533
177	0xbce4a532	-0.027910803
178	0x3d2ae015	0.041717608
179	0x3d459e87	0.048246887
180	0x3d82fdab	0.063960396
181	0xbc6c0db3	-0.014407563
182	0xbd7cd1e8	-0.06172362
183	0xbceb57b1	-0.028728338
184	0x3b8946db	0.004189355
185	0xbb99c642	-0.0046928236
186	0x3d0115af	0.03151482
187	0x3cbc3e78	0.022979006
188	0xbd7e84e2	-0.062138446
189	0x3d1ebf07	0.038756397
190	0x3cf8c408	0.030366912
191	0xbdbd58bd	-0.09245441
192	0xbc1f81eb	-0.009735565
193	0xbb356dc9	-0.0027683845
194	0xbd31a42e	-0.043369465
195	0xbd2d4313	-0.042300295
196	0x3dbb3f8c	0.0914298
197	0xbdac3576	-0.08408634
198	0xbd77bc4f	-0.06048232
199	0xbd0f840a	-0.03503803
200	0x3d380827	0.04492965
201	0x3d33c74e	0.043891244
202	0xbd36c891	-0.04462487
203	0xbd6d8fd2	-0.057998486
204	0x3b06bb0e	0.002055827
205	0xbd297394	-0.04136999
206	0xbd42763d	-0.047476042
207	0xbc130b0a	-0.0089748
208	0x3c32b9ce	0.010908557
209	0xbcec15ac	-0.028818928
210	0xbd673b02	-0.05645276
211	0x3d06d669	0.03291932
212	0x3ccd45eb	0.025057754
213	0xbd3adc11	-0.045620028
214	0xbb9307ac	-0.0044869985
215	0x3cfbbfdb	0.030731132
216	0x3d9aa2b0	0.075505614
217	0xbada204c	-0.0016641705
218	0xbc5a031b	-0.013306404
219	0x3ce04b22	0.027379576
220	0x3d9c7729	0.076399155
221	0xbd8abeba	-0.067746595
222	0x3caed974	0.021343924
223	0xbd4b8b47	-0.049693372
224	0x3c895afa	0.016767014
225	0x3d37ee57	0.044905033
226	0xbdbf50b5	-0.093415655
227	0x3a9ffc8c	0.0012206002
228	0xbcf55453	-0.029947435
229	0xbd90bd80	-0.07067394
230	0xbce3611d	-0.027756268
231	0xbd7ab6d4	-0.061209515
232	0x3d680eea	0.05665485
233	0xbd86f163	-0.065890096
234	0xbd3bee8b	-0.04588179
235	0x3d4ee8ee	0.050515108
236	0xbc3b1e59	-0.01142081
237	0xbd901471	-0.07035149
238	0xbd2146e0	-0.039374232
239	0x3aa3c583	0.0012494776
240	0xbd0dcdf0	-0.034620225
241	0x3b94b0ef	0.0045376937
242	0x3d27f2bb	0.04100297
243	0xbc95f927	-0.018307282
244	0x3d5da031	0.05410785
245	0xbd5a3fef	-0.053283628
246	0xbd0dd9a2	-0.03463138
247	0x3cc33afd	0.023831839
248	0xbd97cdf7	-0.074123316
249	0xbd15b7d0	-0.03655225
250	0x3d059ad5	0.032618362
251	0xbd19bf7a	-0.037536122
252	0xbcd7c83c	-0.026340596
253	0xbcb7e207	-0.022446645
254	0xbc7c98cd	-0.01541729
255	0x3ce02f31	0.027366253

small_attention.to_out.bias f4 [16]
0	0xbcb9a6ff	-0.022662638
1	0xbd41bc29	-0.047298584
2	0x3d7ab603	0.061208736
3	0x3d5bad2f	0.053631958
4	0xbd5b9b04	-0.05361463
5	0x3c8ccbfd	0.017187113
6	0x3d0721d3	0.03299124
7	0xbd124fde	-0.0357207
8	0xbd2c2ba8	-0.04203382
9	0x3d133bdb	0.035945754
10	0x3ca10ec2	0.019660357
11	0x3d0cdf60	0.034392715
12	0x3d2a3e56	0.041563354
13	0xbca6e8e4	-0.020374723
14	0xbd991e47	-0.07476478
15	0xbd1da255	-0.03848489

enc_layer_small.0.weight f4 [12, 16, 3, 3]
0	0xbb88d2c9	-0.004175518
1	0xbcaf89ef	-0.021428077
2	0x3c7bbb26	0.015364444
3	0xbda3fc2a	-0.08007081
4	0xbc87e378	-0.016587958
5	0xbd762984	-0.060098186
6	0x3c962343	0.018327361
7	0xbd7e3ad4	-0.06206782
8	0x3bdafc1e	0.0066828867
9	0xbdaeabe1	-0.08528877
10	0xbd956a5d	-0.07295678
11	0x3d0ec7dd	0.034858573
12	0x3cb90266	0.022584151
13	0x3d18e40c	0.037326857
14	0xbdc56f5e	-0.09640382
15	0xbd2c5b5d	-0.04207932
16	0xbc9fd104	-0.019508846
17	0xbdb8d373	-0.09024706
18	0x3d0ab688	0.03386548
19	0xbd1c5298	-0.038164705
20	0xbcc7882e	-0.024356928
21	0x3d08f74d	0.03343897
22	0xbcab465e	-0.020907577
23	0xbd63fa78	-0.055658787
24	0x3da0306e	0.07821737
25	0x3d537e9e	0.051634423
26	0x3d8dd8a3	0.06926086
27	0x3d1bc188	0.038026363
28	0x3ccf80f6	0.025330048
29	0xbd58a1a1	-0.052888516
30	0x3a94a681	0.0011341126
31	0xbc03fd76	-0.008056035
32	0x3d7feb0d	0.06248002
33	0xbc1ac165	-0.009445523
34	0xbce3beed	-0.027801001
35	0xbd4ccc52	-0.049999543
36	0x3af8eb9b	0.0018991114
37	0x3d1def56	0.038558327
38	0xbdc0ebfe	-0.09420012
39	0xbddfa5aa	-0.1092027
40	0x3c5aa629	0.01334528
41	0xbd929627	-0.071575455
42	0xbb0d94d7	-0.0021603608
43	0xbdbfb9b8	-0.09361595
44	0xbd8da31c	-0.06915876
45	0xbd8ea6c4	-0.06965402
46	0xbd64593e	-0.05574917
47	0x3d36c824	0.044624463
48	0x3cf83c30	0.030302137
49	0xbd47d900	-0.04879093
50	0x3d422246	0.047395967
51	0x3d645527	0.05574527
52	0xbc1797c7	-0.009252495
53	0x3d851b31	0.06499327
54	0x3d06d478	0.03291747
55	0x3d4c104f	0.04982024
56	0x3d807877	0.06272977
57	0xbcec6c55	-0.02886025
58	0x3cfb2ada	0.030660082
59	0xbb827840	-0.00398162
60	0x3d491f87	0.049102332
61	0xbce059d7	-0.027386589
62	0xbd01067f	-0.031500336
63	0x3d172cc0	0.03690791
64	0xbc785c52	-0.01515873
65	0xbd437b6b	-0.047725122
66	0xbd7fcc27	-0.062450554
67	0x3d0da4b2	0.034580894
68	0xbd7b55f2	-0.06136126
69	0xbda96385	-0.08270935
70	0xbba828bd	-0.0051318095
71	0x3d5d2efb	0.053999882
72	0x3d6d8335	0.057986457
73	0xbc56f7c3	-0.013120594
74	0xbcf7b34f	-0.030236868
75	0x3cecc498	0.028902337
76	0xbcb86ca0	-0.022512734
77	0x3c62245e	0.013802616
78	0xbd842fba	-0.064544156
79	0xbd42c85b	-0.047554355
80	0xbda01ac0	-0.07817602
81	0xbccbb1f2	-0.024865124
82	0x3d3cf69d	0.046133626
83	0xbdbf03f9	-0.093269296
84	0xbd0ac169	-0.033875857
85	0xbdd31d38	-0.103083074
86	0xbd8bf55d	-0.06833909
87	0x3c2ac290	0.010422364
88	0x3cd31b52	0.025769863
89	0xbd07b580	-0.033132076
90	0xbd3d99e5	-0.046289343
91	0xbc81867c	-0.015811197
92	0xbdaefbaf	-0.085440986
93	0x3cc2ee2f	0.023795215
94	0xbd4286f5	-0.047491986
95	0x3d9babc2	0.076011196
96	0xbcd35884	-0.025799043
97	0xbbd08068	-0.0063629635
98	0x3d2a05f5	0.041509587
99	0xbdb912d2	-0.09036793
100	0xbb9718f1	-0.0046111275
101	0x3c964242	0.018342141
102	0x3c6fb350	0.014630154
103	0xbd399658	-0.045309395
104	0x3d2c7002	0.042099006
105	0xbd963b10	-0.07335484
106	0xbcafeef2	-0.021476243
107	0xbda7a035	-0.08184854
108	0x3d289c3d	0.041164625
109	0xbd750d37	-0.059827056
110	0x3c321fc7	0.010871834
111	0x3d6bce9b	0.05757008
112	0xbd9f45bd	-0.077769734
113	0x3cdef0f0	0.027214497
114	0x3d98d7dc	0.07463047
115	0xbd259310	-0.040423453
116	0xbcf5ccbd	-0.030004853
117	0x3b137c39	0.0022504462
118	0xbd110df6	-0.035413705
119	0xbd8ce0b6	-0.06878798
120	0x3da59116	0.080843136
121	0xbcbab131	-0.02278957
122	0x3d6a2883	0.05716754
123	0xbcb3548e	-0.021890905
124	0x3d2d9f9d	0.042388547
125	0x3d823d7c	0.063593835
126	0xbc842764	-0.016132064
127	0x3cb872aa	0.022515614
128	0x3d73aa08	0.059488326
129	0xbcf27a0b	-0.02959921
130	0x3d331549	0.04372147
131	0xbd89bfc8	-0.067260325
132	0x3cc7bbc4	0.024381526
133	0xbd3a8417	-0.045536127
134	0x3d6c740f	0.05772787
135	0x3d6bbcce	0.057553105
136	0xbdae9081	-0.08523656
137	0xbd2434b4	-0.040089324
138	0xbcae66b7	-0.021289213
139	0xbda541e4	-0.08069208
140	0x3d590daa	0.052991547
141	0x3d802411	0.06256879
142	0x3c5131ed	0.012768251
143	0x3d784ad0	0.06061822
144	0xbc54d958	-0.012991272
145	0xbd26957d	-0.040669907
146	0x3ce825cb	0.028338334
147	0xbd9f076d	-0.07765088
148	0x3ca183a2	0.019716088
149	0x3c836d83	0.01604343
150	0xbdacc092	-0.08435167
151	0xbd853f40	-0.065062046
152	0x3bf6a25b	0.0075266785
153	0xbb8face1	-0.0043846224
154	0x3d4677d7	0.048454132
155	0x3c6f205d	0.014595118
156	0x3d0a985d	0.03383671
157	0xbc08b802	-0.008344652
158	0x3c8b4242	0.016999368
159	0x3d16f0fb	0.03685091
160	0x3dc3a54f	0.095530145
161	0x3c9803ca	0.018556494
162	0x3b7bfcfd	0.0038450353
163	0xbd94a86a	-0.07258685
164	0xbdad81c4	-0.084720165
165	0x3da12ded	0.07870088
166	0x3d1b9ec0	0.037993193
167	0x3d21351b	0.039357286
168	0xbd69fd03	-0.057126056
169	0xbd2fffbd	-0.0429685
170	0x3c72d222	0.014820607
171	0xbda69541	-0.08133937
172	0xbd5d840b	-0.054081004
173	0x3d1061ae	0.035249405
174	0x3cb06bf2	0.021535847
175	0x3c62cde8	0.013843037
176	0x3d8e5c31	0.06951178
177	0xbc641334	-0.013920594
178	0x3d847334	0.06467286
179	0xbd63cead	-0.055617023
180	0xbd212e70	-0.039350927
181	0x3da118f2	0.07866086
182	0x3d67ad07	0.056561496
183	0x3d9816bc	0.07426211
184	0x3d974130	0.073854804
185	0xbd779d90	-0.060452998
186	0xbd5c87a6	-0.053840302
187	0x3cfbced1	0.030738266
188	0x3d437406	0.04771807
189	0x3d7f691c	0.0623561
190	0xbd9884e9	-0.074472256
191	0x3d5f4623	0.054510247
192	0xbd1afa22	-0.0378362
193	0xbd959452	-0.073036805
194	0x3c777d67	0.015105582
195	0xbcfc057c	-0.030764334
196	0x3cafa33f	0.021440146
197	0xbd30a3a6	-0.043124817
198	0xbcd60f27	-0.026130272
199	0x3c837bc2	0.016050223
200	0x3ce40a9a	0.027837086
201	0xbd8e2d1b	-0.06942197
202	0x3c9331d1	0.01796809
203	0x3d2a14c0	0.041523695
204	0x3d33c640	0.043890238
205	0xbd35f582	-0.044423588
206	0x3cbdcede	0.023169931
207	0x3d0dfc89	0.034664664
208	0x3d74f316	0.059802137
209	0x3d3c679c	0.045997247
210	0x3d3591f3	0.04432864
211	0xbd59d4f2	-0.053181596
212	0x3d6272a6	0.05528512
213	0x3ca8ea7e	0.020619627
214	0x3db52240	0.08844423
215	0x3dc1e633	0.09467735
216	0x3da690d3	0.08133092
217	0xbd67763d	-0.056509245
218	0xbd56eea5	-0.052473683
219	0x3cb08004	0.021545418
220	0x3d71845a	0.05896411
221	0x3d4ff624	0.050771847
222	0x3d2141f5	0.039369542
223	0x3d78d4c0	0.06074977
224	0xbd83ba41	-0.064320095
225	0xbdc7e076	-0.097596094
226	0x3d600c14	0.05469902
227	0xbcb73bc4	-0.022367366
228	0x3c8cb9a0	0.017178357
229	0xbda7827c	-0.08179185
230	0xbd472488	-0.048618823
231	0x3d6712a3	0.056414258
232	0xbd7ba8aa	-0.061440147
233	0x3d37732b	0.044787567
234	0x3a932df6	0.0011228907
235	0x3d34fe8b	0.044188064
236	0x3ba2c176	0.00496691
237	0xbd880b4a	-0.06642778
238	0xbda9a6df	-0.08283781
239	0xbc8c4583	-0.01712299
240	0x3d1c6b83	0.03818847
241	0xbd2136a7	-0.03935876
242	0x3d11710a	0.035508193
243	0xbd933fdb	-0.07189914
244	0xbca48eea	-0.020087678
245	0xbd62f079	-0.055405114
246	0x3b042b80	0.002016753
247	0xbce977cd	-0.028499508
248	0xbd249472	-0.04018063
249	0x3c6f491f	0.014604836
250	0xbc28b586	-0.010297185
251	0x3dbaae0f	0.0911523
252	0x3dc39996	0.095507786
253	0x3ccd4457	0.025057001
254	0xbcf15102	-0.029457573
255	0x3cf1865f	0.029483018

enc_layer_small.0.bias f4 [12]
0	0xbd716be0	-0.05894077
1	0xbdc6356a	-0.09678157
2	0x3c2f8ded	0.01071499
3	0xbd247e9a	-0.0401598
4	0x3d28f5f9	0.041250203
5	0x3dcecc0c	0.100975126
6	0x3d98584d	0.07438717
7	0x3d30a12b	0.04312245
8	0xbd538b30	-0.05164641
9	0x3ce6be42	0.028166894
10	0xbd0eae3d	-0.034834135
11	0xbdee8e9c	-0.11648294

dec_layer_1.0.weight f4 [12, 12, 3, 3]
0	0x3da643ee	0.08118425
1	0x3cbbba9a	0.022916127
2	0x3dbc3b03	0.09190943
3	0xbcf44a95	-0.02982072
4	0xbc8c3c2a	-0.017118532
5	0x3dc86a8f	0.097859494
6	0x3d210e47	0.039320257
7	0x3d8a5dae	0.06756149
8	0xbd8b2f57	-0.06796139
9	0x3dce03d5	0.10059325
10	0xbb28bec5	-0.0025748473
11	0x3dbdb5cc	0.092631906
12	0xbc48c66a	-0.012254337
13	0x3cce28f1	0.025166007
14	0xbcfabc11	-0.030607255
15	0x3d936575	0.07197086
16	0x3db8290f	0.08992206
17	0x3d4ef7a8	0.050529152
18	0xbd750501	-0.059819225
19	0xbcd77bc5	-0.026304135
20	0xbccfb962	-0.025356952
21	0xbd9663a7	-0.07343226
22	0xbd873527	-0.06601935
23	0xbd483243	-0.04887606
24	0x3cf549f2	0.029942486
25	0x3d502f35	0.05082627
26	0x3d008653	0.0313781
27	0x3d22ef62	0.039779074
28	0x3d4a1c64	0.04934348
29	0xbd3e2bc7	-0.046428468
30	0x3d929f79	0.07159323
31	0xbe083d8f	-0.13304733
32	0xbd91626b	-0.0709885
33	0xbdab05b2	-0.08350696
34	0xbda64b0f	-0.08119785
35	0xbdccfce6	-0.10009174
36	0xbd0cefba	-0.03440831
37	0x3d317d2b	0.04333226
38	0xbd1bb9c6	-0.038018964
39	0xbd343cd6	-0.04400333
40	0xba8f2607	-0.0010921367
41	0x3cc9f3a3	0.024652308
42	0x3cbd4060	0.023101985
43	0xbd366844	-0.04453303
44	0xbca1541b	-0.019693425
45	0x3c08d4e3	0.008351537
46	0xbe024658	-0.12722147
47	0xbde91a33	-0.1138195
48	0x3c23d33b	0.009999092
49	0xbd18872f	-0.037238296
50	0xbc91f967	-0.01781912
51	0x3d9088d0	0.07057345
52	0xbdb46ef4	-0.08810225
53	0xbcb36597	-0.021899028
54	0x3c287f66	0.01028428
55	0x3db66ca8	0.08907443
56	0x3c21c35f	0.00987324
57	0x3e0f8430	0.1401527
58	0x3cabad4c	0.020956658
59	0x3d685e32	0.056730457
60	0x3da2a26e	0.07941137
61	0xbc7ace39	-0.015307956
62	0x3d0e7202	0.034776695
63	0x3c38b14f	0.011272742
64	0x3d934616	0.07191102
65	0x3d8957a3	0.067061685
66	0x3cc7dafd	0.024396414
67	0x3d9e041b	0.07715627
68	0x3d8ff0a0	0.070283175
69	0xbd04bd6a	-0.0324072
70	0xbd027847	-0.031852987
71	0x3dd0a798	0.10188216
72	0xbcf54c4d	-0.02994361
73	0x3d9a3e55	0.0753142
74	0x3d850429	0.06494934
75	0xba82fde2	-0.0009993876
76	0x3ddfff48	0.10937363
77	0x3c90e844	0.017688878
78	0x3da9cc96	0.08290975
79	0xbdba45d8	-0.09095353
80	0x3bad31c9	0.005285476
81	0x3d90f9a4	0.07078865
82	0x3d45640a	0.048191108
83	0x3d6ecf58	0.058303207
84	0xba6adf83	-0.00089596974
85	0x3dccc345	0.09998182
86	0xbb7b9f83	-0.0038394637
87	0x3dd8dcb4	0.10588971
88	0x3d192ccf	0.03739625
89	0xbda88994	-0.08229366
90	0xbd77d2f9	-0.060503934
91	0x3c14a684	0.009072904
92	0x3da4f97c	0.08055398
93	0xbc8d7925	-0.01726968
94	0xbcd0b1e9	-0.02547546
95	0xbca1f1c4	-0.019768603
96	0x3d0d3c3b	0.03448127
97	0x3ce49bfa	0.027906407
98	0xbd2cbe43	-0.042173635
99	0xbdae8575	-0.08521549
100	0xbd7afa80	-0.06127405
101	0x3c4e9004	0.012607578
102	0xbb420ae8	-0.0029608551
103	0xbcd33aad	-0.025784815
104	0xbc08d489	-0.008351454
105	0xbd08c3b4	-0.033389762
106	0xbc90fdd6	-0.017699163
107	0x3ca4126c	0.020028315
108	0xbce621cd	-0.02809229
109	0xbddb3be9	-0.10704786
110	0xbd99e4cf	-0.07514345
111	0xbd98dfa2	-0.074645296
112	0x3cddd636	0.027079683
113	0xbd0e0566	-0.034673117
114	0xbcd0cb29	-0.0254875
115	0x3c8426d4	0.016131796
116	0xbdbee185	-0.09320358
117	0xbc39ea11	-0.01134731
118	0x3d57cf7d	0.05268811
119	0x3c1d00ac	0.00958268
120	0x3ba133e2	0.004919515
121	0xbdc82aec	-0.09773812
122	0xbd8c8176	-0.0686063
123	0x3decc51d	0.11561034
124	0x3d18fa12	0.03734786
125	0xbdbc1170	-0.091830134
126	0x3c46be39	0.012130314
127	0xbc2282d9	-0.009918892
128	0xbd55e03a	-0.052215792
129	0xbda803e3	-0.08203866
130	0xbd67154c	-0.056416795
131	0xbdc40cac	-0.095727295
132	0x3df735fb	0.12070843
133	0x3d20a8f6	0.039223634
134	0xbd4589c0	-0.04822707
135	0x3da398a2	0.07988097
136	0x3d024109	0.031800304
137	0x3d638a17	0.055551615
138	0x3d36bd8b	0.044614356
139	0x3dcaac7d	0.09896181
140	0xbb86d507	-0.0041147503
141	0x3dadcc20	0.084861994
142	0x3c946206	0.018113147
143	0x3d963144	0.073336154
144	0x3ca4e3c6	0.020128142
145	0x3ca62c55	0.020284811
146	0xbb2ef2d4	-0.002669503
147	0x3d636941	0.0555203
148	0xbcd781c3	-0.026306992
149	0xbd82de51	-0.0639006
150	0xbb060612	-0.0020450396
151	0xbcaff2d3	-0.021478092
152	0xbd4feb0d	-0.05076127
153	0xbb3447b1	-0.0027508552
154	0x3c0c9422	0.0085802395
155	0x3ca7fa65	0.02050514
156	0xbd7e7b58	-0.06212935
157	0x3d9c15da	0.07621355
158	0x3d2ee3ba	0.042697646
159	0x3d85a1e6	0.0652502
160	0xbda4eaa1	-0.080525644
161	0xbd86f48e	-0.06589614
162	0x3a675164	0.0008824079
163	0xbcc447af	-0.023959963
164	0xbdcc76f3	-0.09983625
165	0x3d6d3485	0.057911415
166	0x3da88bce	0.08229791
167	0xbc089ef4	-0.008338679
168	0xbdc804d7	-0.09766548
169	0x3ceba856	0.028766792
170	0xbcada8d3	-0.021198666
171	0xbcd25b7e	-0.025678392
172	0xbdbfe13b	-0.09369131
173	0xba97139e	-0.0011526232
174	0x3c74d552	0.014943438
175	0xbd400803	-0.04688264
176	0xbd9dd076	-0.077057764
177	0x3d988a5b	0.07448264
178	0xbd0f4f00	-0.03498745
179	0x3d3c13b4	0.045917228
180	0xbce12929	-0.027485447
181	0xbd88dadb	-0.06682368
182	0x3d0c4fee	0.034255914
183	0xbcd51720	-0.026012003
184	0x3b883c22	0.004157559
185	0xbd4767bd	-0.048682917
186	0x3d2af6c1	0.04173923
187	0x3d61037e	0.05493497
188	0xbbc7bb8c	-0.0060953554
189	0xbd085364	-0.033282652
190	0xbda5aa9b	-0.08089181
191	0xbcb454b7	-0.022013051
192	0x3d375ec4	0.04476811
193	0x3d175e20	0.036955
194	0xbd7e05a7	-0.06201711
195	0x3dae4fbe	0.08511303
196	0x3d619264	0.05507125
197	0x3bfccb37	0.007714655
198	0x3dd5aee7	0.104337506
199	0xbb7e3e3a	-0.0038794414
200	0xbd01a70f	-0.03165346
201	0x3da634a1	0.08115507
202	0xbdcf263b	-0.10114714
203	0xbdd9f2e2	-0.10642029
204	0xbce65547	-0.028116835
205	0xbd229c8c	-0.039700076
206	0x3b887a0e	0.0041649407
207	0x3d80e136	0.062929556
208	0xbd850a5d	-0.06496117
209	0x3da955da	0.08268328
210	0xbd55f228	-0.05223289
211	0xbd2514a3	-0.040302884
212	0xbcf7c96e	-0.030247416
213	0x3d5dd49e	0.054157846
214	0xbb03dda6	-0.0020121126
215	0xbc35c739	-0.011094862
216	0x3c27d06c	0.010242563
217	0x3c2a03f0	0.010376915
218	0xbd84c77d	-0.06483362
219	0xbcae4d79	-0.021277176
220	0x3d8ba47e	0.06818484
221	0xbd204f89	-0.03913835
222	0xbdbddcb1	-0.09270609
223	0x3d9e00b7	0.0771498
224	0xbd5a564b	-0.05330495
225	0xbda19f1f	-0.07891678
226	0x3db85433	0.09000435
227	0xbd8fae6d	-0.07015691
228	0xbbd7cf0c	-0.006585961
229	0x3d2ee66a	0.04270021
230	0x3d9617c7	0.07328754
231	0x3da3ba28	0.07994491
232	0xbd2229bc	-0.039590582
233	0xbd3dc577	-0.046330895
234	0xbb92bdf7	-0.004478212
235	0xbdd1d5cc	-0.10245857
236	0xbc9404eb	-0.018068751
237	0xbd933d89	-0.07189471
238	0x3d6284a6	0.055302285
239	0x3d08e1ae	0.03341835
240	0xbdb92c33	-0.090416335
241	0xbc13fe4f	-0.0090328
242	0xbd86ae43	-0.065762065
243	0xbc974cb2	-0.018469188
244	0x3d2e7e92	0.042601176
245	0x3da4d500	0.08048439
246	0x3d254e17	0.040357675
247	0x3c92b3d4	0.017908014
248	0x3dd1efde	0.10250829
249	0x3cf0a2b5	0.02937446
250	0x3d017185	0.0316024
251	0xbd65b932	-0.05608482
252	0x3c6d5ef8	0.014487974
253	0x3c8fbf82	0.017547373
254	0xbd271c60	-0.040798545
255	0x3da3e42e	0.08002506

dec_layer_1.0.bias f4 [12]
0	0xbd37d444	-0.044880167
1	0x3d448d95	0.047986586
2	0xbd2cdc51	-0.042202298
3	0x3cfb6ba9	0.030690985
4	0xbd83cfca	-0.06436117
5	0x3dcfe02d	0.1015018
6	0xbd58de94	-0.052946642
7	0x3d9504ea	0.07276328
8	0x3d94f26d	0.072728015
9	0xbd100b74	-0.035167173
10	0x3d849035	0.06472818
11	0x3cbf5661	0.023356618
